my_latent_sde/sdes/best_sde_0.pth (torch, 460578 bytes, 24 tensors)

encoder.gru.weight_ih_l0 f4 [384, 2]
0	0xbd57d37f	-0.052691933
1	0x3df11251	0.11771072
2	0xbcc12599	-0.023577498
3	0xbddf4ced	-0.10903344
4	0xbcd76e61	-0.02629775
5	0x3d205e32	0.03915233
6	0x3d855c2c	0.06511721
7	0x3e07c5ce	0.1325905
8	0x3da6760b	0.08127984
9	0x396044ba	0.00021387907
10	0xbdcd8f75	-0.10037128
11	0x3dc3dab9	0.095632024
12	0xbdcd2dc4	-0.10018495
13	0xbcb16643	-0.021655207
14	0x3bf064ae	0.0073362207
15	0x3c94a00c	0.018142723
16	0xbc44de95	-0.012015958
17	0x3d43fa6e	0.04784625
18	0xbcd480b7	-0.025940282
19	0x3cde0e62	0.027106468
20	0xbd6dca33	-0.05805416
21	0x3bfdc22c	0.0077440944
22	0x3d61c515	0.055119593
23	0x3d8c9bff	0.068656914
24	0xbd8c5d0f	-0.06853687
25	0xbdaf4b80	-0.08559322
26	0x3d5da469	0.054111872
27	0xbd7d34e9	-0.061818037
28	0xbd9dc5e3	-0.077037595
29	0x3cbe54c6	0.023233783
30	0x3d1d42f4	0.03839393
31	0x3d83d25c	0.06436607
32	0xbc019cbd	-0.0079109045
33	0x3ddd7edd	0.10815213
34	0xbd9223ba	-0.071357206
35	0x3ca9f4c9	0.020746605
36	0xbde2156b	-0.110392414
37	0xbc6690a8	-0.014072575
38	0x3ca92935	0.020649532
39	0x3b550c4d	0.0032508553
40	0x3cd64b2a	0.026158888
41	0x3c9fb75f	0.019496618
42	0xbcfc2331	-0.0307785
43	0x3c10a6dd	0.008828846
44	0xbd79b298	-0.060961336
45	0xbd875a71	-0.06609047
46	0x3d3feeef	0.046858724
47	0x3d1dfa68	0.038568884
48	0xbdcc0342	-0.09961559
49	0xbb90a20c	-0.0044138487
50	0x3e2c9ca7	0.16856633
51	0x3cd6cfc1	0.026222112
52	0xbcf6e394	-0.030137815
53	0xbd7ad93c	-0.061242327
54	0x3cce3560	0.025171936
55	0xbc74a973	-0.014932978
56	0xbcffba08	-0.031216636
57	0xbdaf25a4	-0.08552101
58	0x3c83a51d	0.016069943
59	0xbdc6b93d	-0.097033
60	0x3cded5e9	0.02720161
61	0xbdcde092	-0.10052599
62	0x3df8620f	0.12128078
63	0xbd321309	-0.043475185
64	0xbdb9bddc	-0.09069416
65	0xbd023f90	-0.0317989
66	0xbd3bda32	-0.045862384
67	0xbda084d9	-0.07837839
68	0x3db9f992	0.09080805
69	0x388bf5a9	6.673794e-05
70	0xbdb2c8a0	-0.087296724
71	0x3d067d16	0.032834135
72	0xbcad94ac	-0.021189056
73	0xbbb454d2	-0.0055032754
74	0xbdfa23b8	-0.12213844
75	0x3a9ff6c3	0.0012204278
76	0x3d79e191	0.061006133
77	0xbc2c81fe	-0.010529039
78	0x3d3a805a	0.04553256
79	0xbdbcd234	-0.092197806
80	0x3d78a892	0.060707636
81	0xbc89d9fd	-0.016827578
82	0x3cae3dab	0.02126964
83	0xbd8c5d50	-0.068537354
84	0x3db218c2	0.086961284
85	0xbd4f5e74	-0.050627187
86	0x3ca21e50	0.019789845
87	0xbc0e1b30	-0.008673474
88	0xbe09dd8b	-0.13463418
89	0xbd820d73	-0.063502215
90	0xbd5e61bb	-0.05429242
91	0xbd8238e0	-0.06358504
92	0x3e26fbde	0.16307017
93	0xbd350ee4	-0.044203654
94	0x3da73ff2	0.081664935
95	0xbddb47db	-0.10707065
96	0xbd9eb66b	-0.07749637
97	0x3db0c219	0.08630771
98	0x3dd8ad79	0.10579962
99	0xbb3518dc	-0.0027633226
100	0x3e4be089	0.19909872
101	0xbb88ec43	-0.004178555
102	0x3d949d38	0.072565496
103	0xbda43d45	-0.08019499
104	0xbd23ab86	-0.0399585
105	0x3de85fe8	0.11346418
106	0x3b49cf52	0.0030793739
107	0xbb10d31b	-0.0022098485
108	0xbd863c33	-0.06554451
109	0xbc9c13ab	-0.019052347
110	0xbddd7e44	-0.10815099
111	0x3b115e3e	0.0022181417
112	0x3dccecf5	0.100061335
113	0x3cccfb38	0.025022134
114	0x3d0677a9	0.03282896
115	0xbc125388	-0.008931048
116	0xbdb47c23	-0.0881274
117	0x3cab191f	0.020886002
118	0x3a2030d1	0.000611079
119	0x3cdb6c1a	0.026784945
120	0xbcccad5b	-0.024985006
121	0x3d6d5990	0.05794674
122	0xbcf5d6ae	-0.030009594
123	0x3d050d2f	0.032483276
124	0x3ceeb957	0.029141111
125	0xbcb3fcbf	-0.021971105
126	0xbd8699fd	-0.0657234
127	0x3d157f41	0.036498312
128	0x3c424a37	0.0118585145
129	0x3da6abfb	0.081382714
130	0x3e80bd61	0.25144485
131	0x3d766683	0.060156357
132	0x3d4631c0	0.04838729
133	0x3d88f78b	0.0668784
134	0xbcbfe44e	-0.023424294
135	0x3d6ea656	0.0582641
136	0x3c99809f	0.01873809
137	0x3d84580b	0.06462105
138	0xbbf56836	-0.0074892296
139	0x3d663a85	0.056208152
140	0xbd9b45ad	-0.07581649
141	0xbd2f00ba	-0.042725302
142	0xbcdc966d	-0.026927197
143	0x3d156fcd	0.036483575
144	0xbde5835d	-0.11206696
145	0x3bca8b9a	0.0061811926
146	0xbc4a5a62	-0.0123506505
147	0x3e034754	0.12820178
148	0xbd12dc0e	-0.03585439
149	0xbb027396	-0.001990532
150	0xbd871957	-0.0659663
151	0xbd0f8627	-0.035040047
152	0xbd201219	-0.03907976
153	0xbd8aff15	-0.06786934
154	0x3d619824	0.055076733
155	0x3c971eec	0.018447362
156	0xbd19bbfc	-0.03753279
157	0xbd171e8c	-0.036894366
158	0xbc626807	-0.013818747
159	0xbd176dbf	-0.036969896
160	0x3bebf4dc	0.0072008204
161	0xbbceea08	-0.00631452
162	0x3c189e77	0.009315125
163	0xbda64f83	-0.081206344
164	0xbd798a58	-0.06092295
165	0x3d1e3785	0.038627166
166	0x3dde9560	0.10868335
167	0xbcdfc4af	-0.027315466
168	0x3d8e323b	0.069431745
169	0xbcce312d	-0.025169933
170	0x3d97496e	0.073870525
171	0x3c562207	0.013069636
172	0x3daacfdb	0.083404265
173	0x3ce5bb7f	0.028043507
174	0xbda47e1c	-0.08031866
175	0xbdb08296	-0.08618657
176	0x3d20787a	0.039177395
177	0x3e056d98	0.13030088
178	0xbc717ae4	-0.014738772
179	0xbda35123	-0.0797446
180	0x3c830fc3	0.015998727
181	0x3cd3ec29	0.025869446
182	0x3c8ebcea	0.017424066
183	0x3c43e7b2	0.011957096
184	0xbd6e6906	-0.058205627
185	0x3d21b6a5	0.039480824
186	0x3d7b88c9	0.061409745
187	0xbd63ef0e	-0.055647902
188	0xbd3093c7	-0.04310968
189	0xbd307a7f	-0.04308557
190	0xbd49db0b	-0.04928116
191	0xbd39c355	-0.0453523
192	0x3c8d3033	0.017234897
193	0x3daef365	0.085425176
194	0xbcec1d5a	-0.02882259
195	0x3c9e1389	0.019296424
196	0x3d808f8e	0.06277381
197	0x3d247a50	0.04015571
198	0xbdc26d45	-0.09493498
199	0xbd2c0bfb	-0.042003613
200	0x3cbfad64	0.023398109
201	0x3b4c37f8	0.003116129
202	0x3cb12587	0.02162434
203	0xbc8aa266	-0.01692314
204	0xbc1c232c	-0.00952987
205	0xbc8daaae	-0.0172933
206	0x3c4ecd3c	0.012622174
207	0xbdcef4d1	-0.10105289
208	0x3dc232b0	0.09482324
209	0xbc9f17bd	-0.019420499
210	0xbcc90ee9	-0.024543243
211	0x3c83bcd3	0.01608125
212	0x3c034659	0.008012378
213	0xbda84cd0	-0.08217776
214	0x3c0ba8fc	0.008524176
215	0x3d4cc0a3	0.0499884
216	0x3da48550	0.0803324
217	0x3c244438	0.01002603
218	0x3d69b774	0.05705972
219	0xbde31d23	-0.11089542
220	0xbd4ba31d	-0.049716104
221	0xbd97f62c	-0.074200004
222	0x3dc23012	0.09481825
223	0x3d9b0a74	0.07570353
224	0x3d94cb38	0.072653234
225	0xbc213f45	-0.009841745
226	0xbd41fe3b	-0.047361594
227	0xbd858f13	-0.0652143
228	0x3cd9ab2e	0.026570883
229	0x3d3070b8	0.043076247
230	0xbb093dd6	-0.0020941398
231	0x3cc47b4e	0.023984578
232	0xbcc2f6d6	-0.023799341
233	0x3d5a13f8	0.0532417
234	0x3d7defb8	0.06199619
235	0x3e144f0c	0.14483279
236	0xbd97494d	-0.07387028
237	0x3c50221f	0.012703448
238	0x3de09e5e	0.10967706
239	0x3d25f99c	0.04052125
240	0xbd5bbc43	-0.053646337
241	0x3e355334	0.1770752
242	0x3c0e8b65	0.008700226
243	0x3db88960	0.09010577
244	0xbd47a38a	-0.048739947
245	0xbd093b04	-0.033503547
246	0xbd4413fa	-0.047870614
247	0x3d22d857	0.0397571
248	0xbd078708	-0.03308776
249	0x3e111603	0.14168553
250	0x3de39b02	0.1111355
251	0x3b136b8f	0.002249453
252	0xbdb824a8	-0.089913666
253	0xbd30e718	-0.04318914
254	0x3c3e6dbc	0.011622842
255	0x3d24b3a7	0.040210392

encoder.gru.weight_hh_l0 f4 [384, 128]
0	0x3bb33b56	0.00546972
1	0xbbbd25b5	-0.0057723173
2	0xbdbaeafe	-0.091268525
3	0x3dc7eda5	0.09762124
4	0x3b4b8e2f	0.003106009
5	0x3c2bff66	0.010497903
6	0x3ba55dfc	0.005046604
7	0x3dfd4420	0.123665094
8	0x3a89a01c	0.0010499987
9	0xbda6b441	-0.081398495
10	0xbde23b33	-0.110464476
11	0xbd59211f	-0.053010102
12	0x3d819f29	0.063291855
13	0x3bcdb929	0.0062781763
14	0xbc00abaf	-0.007853433
15	0x3ce73172	0.02822182
16	0x3d6678cc	0.056267545
17	0x3bdf5b45	0.0068163
18	0x3d5ab825	0.05339827
19	0x3da92e01	0.08260728
20	0x3d0f847c	0.035038456
21	0x3d0cd25a	0.034380294
22	0xbcf24305	-0.029572973
23	0x3dce3ac0	0.100697994
24	0xbd8b2219	-0.06793613
25	0xbdd897fb	-0.10575863
26	0x3b1eb79c	0.0024218326
27	0xbd7b2e13	-0.061323237
28	0x3e049387	0.12946902
29	0x3b2fed45	0.0026844305
30	0x3d51ec01	0.05125046
31	0xbd9332d8	-0.07187432
32	0x3ce780f2	0.028259728
33	0x3affc67c	0.0019514109
34	0xbb0389a8	-0.0020071063
35	0xbd8602c7	-0.065434985
36	0x3e0ca16e	0.13733456
37	0x3cdd5500	0.02701807
38	0x3d92dab9	0.07170624
39	0xbd45c63d	-0.048284758
40	0xbb5e68a7	-0.003393689
41	0x3db600f6	0.08886902
42	0xbc27243e	-0.010201512
43	0x3d2d69ce	0.04233723
44	0xbd9d466e	-0.07679449
45	0x3d9f04d2	0.07764591
46	0x3d17841b	0.03699122
47	0x3daaff54	0.08349481
48	0x3d55c1c1	0.05218673
49	0x3d6797b8	0.056541175
50	0x3c13b4e3	0.009015295
51	0xbd6a5524	-0.057210103
52	0xbd60fdf1	-0.054929677
53	0x3ca71b51	0.020398768
54	0xbd7b49e4	-0.061349764
55	0x3a99e8b8	0.0011742329
56	0xbd8eee53	-0.069790505
57	0x3dbaa8dd	0.09114239
58	0x3d1169dc	0.035501346
59	0x3d35af71	0.044356767
60	0xbc9d69a9	-0.019215422
61	0x3cdf2475	0.027239064
62	0xbdbac650	-0.09119856
63	0x3d0b1dba	0.033963896
64	0xbca25b7f	-0.01981902
65	0x3b895b53	0.004191795
66	0xbdd8be3c	-0.10583159
67	0xbcc3671a	-0.023852874
68	0x3d8579fa	0.06517406
69	0xbc5ed802	-0.013601305
70	0xbd3db194	-0.04631193
71	0xbd40d670	-0.047079504
72	0x3a962d67	0.0011457623
73	0xbd0e38bd	-0.03472208
74	0x3e08ea13	0.13370542
75	0xbe02d3cc	-0.12776107
76	0x3c9e9149	0.019356387
77	0xbde44fe4	-0.111480504
78	0xbc259edc	-0.010108676
79	0x3bb720ed	0.005588642
80	0xbd1fa2d3	-0.03897364
81	0x3dae3b11	0.0850736
82	0xbd9d617c	-0.07684609
83	0x3d528de9	0.051404867
84	0x3d30f831	0.043205444
85	0x3d05729a	0.032579996
86	0xbdb2c9df	-0.0872991
87	0xbda59353	-0.080847405
88	0x3c57f0b0	0.013179943
89	0x3de229b8	0.110431135
90	0xbb28465f	-0.002567671
91	0x3d20d35a	0.03926406
92	0x3d405485	0.046955604
93	0xbdac7d2b	-0.084223114
94	0x3bacc99f	0.0052730585
95	0x3da4f38b	0.08054265
96	0x3d3e1549	0.046407018
97	0x3d913484	0.07090095
98	0xbd761bb0	-0.060085
99	0x3db504e3	0.08838823
100	0xbd57389c	-0.05254422
101	0x3c13700f	0.008998885
102	0xbc01f32d	-0.007931513
103	0xbd548e2f	-0.05189341
104	0x3d048e3b	0.032362204
105	0x3c8306eb	0.01599451
106	0x3d551a98	0.052027315
107	0xbc961cb9	-0.018324243
108	0xbd323be5	-0.04351415
109	0x3d123aca	0.035700597
110	0x3c0fb3c0	0.008770883
111	0x3d3371c0	0.043809652
112	0xbdb044f3	-0.08606901
113	0x3d472d3f	0.048627134
114	0xbda9acb1	-0.082848914
115	0xbde0632c	-0.109564155
116	0x3d4fc3be	0.050723784
117	0xbca3cb43	-0.019994384
118	0xbd07f9b2	-0.033197112
119	0xbe015c02	-0.12632754
120	0xbc1f99c5	-0.009741251
121	0x3d464dec	0.048414156
122	0xbd6a3cfd	-0.05718707
123	0xbd8ea4a5	-0.06964997
124	0x3a8991e2	0.0010495747
125	0xbd9d2890	-0.07673752
126	0xbdc8bbac	-0.098014206
127	0xbd42fa19	-0.047601793
128	0x3c93237a	0.017961252
129	0x3d156e50	0.036482155
130	0x3cb63686	0.022242796
131	0xbd893e9d	-0.06701396
132	0xbbd2f690	-0.006438084
133	0xbda23aa5	-0.07921342
134	0x3e1417b7	0.14462171
135	0xbd393c7e	-0.045223705
136	0xbd10a8be	-0.035317175
137	0xbd7f8ebd	-0.062391985
138	0xbc9f62b1	-0.01945624
139	0x3d8114c7	0.06302791
140	0xbd1f5dab	-0.038907688
141	0x3d20ca58	0.03925547
142	0xbd528897	-0.051399793
143	0x3d5b06a3	0.053473126
144	0x3c7e581f	0.015523939
145	0xbdbe9640	-0.09306002
146	0xbda0391a	-0.07823391
147	0x3cc08010	0.023498565
148	0xbd536c78	-0.051617116
149	0x3bdead51	0.0067955633
150	0x3ccb5e0a	0.024825115
151	0xbcdeb283	-0.02718473
152	0x3d9b58a9	0.0758527
153	0x3d1c0de7	0.038099196
154	0x3d825a63	0.06364896
155	0x3d9a8bed	0.0754622
156	0x3d2efb12	0.042719908
157	0x3dfffc32	0.12499274
158	0xbd4da90d	-0.050210048
159	0xbcd3fac2	-0.025876407
160	0xbd7117a4	-0.058860436
161	0xbd948960	-0.07252765
162	0x3c2d0161	0.010559411
163	0x3dc039df	0.09386038
164	0xbd7c3bc4	-0.061580434
165	0x3cad9446	0.021188866
166	0x3d3f073d	0.046637762
167	0x3c2b1769	0.010442593
168	0xbca4bd9f	-0.02010995
169	0xbd934a88	-0.0719195
170	0x3d6ead59	0.058270786
171	0x3caf06cb	0.021365544
172	0x3d0856f0	0.033286035
173	0xbd5dde40	-0.054167032
174	0xbd13737d	-0.03599881
175	0xbcc897b9	-0.02448641
176	0x3de36efb	0.11105152
177	0xbda83dbc	-0.082149
178	0x3cc09d7a	0.02351259
179	0x3d425502	0.04744435
180	0xbd9cd1d2	-0.076572075
181	0x3b98f68b	0.004668062
182	0xbda555df	-0.08073019
183	0xbb912d94	-0.004430482
184	0x3d9e7f8c	0.077391714
185	0x3c83317a	0.016014803
186	0xbd9a6330	-0.0753845
187	0xbdc674f5	-0.096902765
188	0x3df10c40	0.117699146
189	0xbceebf30	-0.0291439
190	0x3c1a79d1	0.009428457
191	0xbd24e77f	-0.040259834
192	0xbdd2786c	-0.10276875
193	0xbda02b6f	-0.07820784
194	0xba77ba2d	-0.00094500446
195	0xbda03b91	-0.078238614
196	0x3bc1c72d	0.005913636
197	0xbb0ab24c	-0.0021163402
198	0xbd6ea85a	-0.05826602
199	0xbd9542f0	-0.07288158
200	0x3c0d0cf9	0.00860905
201	0x3c3ade5a	0.011405552
202	0xbde9177a	-0.11381431
203	0x3d43b0ee	0.047776155
204	0xbc9c9696	-0.019114774
205	0x3d1f8086	0.03894093
206	0x3d58ec35	0.05295964
207	0xbd8f3167	-0.069918446
208	0x3d427b9f	0.047481176
209	0xbdb29a10	-0.08720791
210	0xbcdec5e7	-0.027193977
211	0x3d8826ec	0.06648049
212	0x3beadc4a	0.007167374
213	0xbc487f71	-0.012237416
214	0xbcf2c555	-0.02963511
215	0x3d6704e2	0.05640114
216	0x3e01c57d	0.12672992
217	0xbd63da44	-0.055628076
218	0x3ca937b8	0.020656452
219	0xbd2b07a4	-0.041755334
220	0x3d88b32d	0.066748
221	0x3c721c0b	0.014777194
222	0xbd565be6	-0.052333735
223	0x3c81b9e6	0.015835714
224	0x3d9408fb	0.072282754
225	0xbd6622d6	-0.056185566
226	0x3d0580b4	0.032593444
227	0xbde65865	-0.11247329
228	0xbd3673a0	-0.044543862
229	0x3c39b1ca	0.011333892
230	0xbd665e69	-0.05624238
231	0xbd89af59	-0.06722898
232	0xbd8c8ec1	-0.06863166
233	0x3d471065	0.04859962
234	0x3d2f6f97	0.04283103
235	0x3ba72917	0.005101334
236	0x3d7ffe57	0.062498417
237	0x3d0c176d	0.034202028
238	0xbc991c14	-0.018690147
239	0x3d024936	0.0318081
240	0xbd013367	-0.03154316
241	0xbd47a406	-0.04874041
242	0xbd736bdb	-0.05942903
243	0x3d0da8e0	0.03458488
244	0x3dae7e91	0.085202344
245	0x3d7918b7	0.060814586
246	0xbb895000	-0.004190445
247	0xbb5e68aa	-0.0033936896
248	0x3d84d4be	0.0648589
249	0x3c0699b5	0.008215358
250	0xbd922896	-0.071366474
251	0xbc006ff7	-0.0078391945
252	0x3dbb662d	0.09150348
253	0x3cf6e282	0.030137304
254	0x3cfa47b1	0.030551763
255	0x3d9af28d	0.07565794

encoder.gru.bias_ih_l0 f4 [384]
0	0xbd5e8d2e	-0.05433386
1	0x3de2df8d	0.11077795
2	0xbdd20929	-0.102556534
3	0x3df468e9	0.119340725
4	0x3d344b55	0.044017155
5	0x3bc59d5d	0.006030722
6	0x3ddf4d76	0.109034464
7	0x3c3c4227	0.011490381
8	0x3d2d7feb	0.04235832
9	0xbd06dbde	-0.032924525
10	0x3d596f46	0.053084634
11	0xbc7f3714	-0.0155770965
12	0xbd8dfd2b	-0.069330536
13	0xbd28f308	-0.041247398
14	0xbd659f57	-0.05606016
15	0xbd4f4092	-0.05059869
16	0x3d8e3046	0.06942801
17	0x3c2565bd	0.010095057
18	0xbc06141d	-0.008183506
19	0x3cca4e54	0.024695553
20	0x3dcf77ef	0.101302974
21	0x3d0411b4	0.032243446
22	0x3d955061	0.07290722
23	0xbd0b8320	-0.034060597
24	0x3d1805cd	0.037114907
25	0xbd14d013	-0.036331248
26	0xbd8f9128	-0.07010108
27	0xbca0ac51	-0.019613417
28	0x3d64cb81	0.05585814
29	0xbd76bb2c	-0.060237095
30	0xbc9e855a	-0.019350696
31	0xbcc22447	-0.023698939
32	0x3d02fb9c	0.031978235
33	0xbbde7265	-0.0067885392
34	0x3dcca5f4	0.099925905
35	0x3d75311c	0.059861287
36	0xbe005c37	-0.12535177
37	0xbd50025c	-0.0507835
38	0x3d08df41	0.033416037
39	0xbc63330e	-0.013867153
40	0x3c7d45e1	0.015458555
41	0x3c286085	0.010276918
42	0xbcf5f502	-0.030024055
43	0x3cafd408	0.021463409
44	0x3cd4de4b	0.025984904
45	0x3dfaaa3d	0.122395016
46	0xbceefc3a	-0.029173005
47	0x3dc9fff8	0.09863275
48	0xbd0512b4	-0.03248854
49	0x3d093d56	0.03350576
50	0xbc8a1b26	-0.016858649
51	0xbd9566a4	-0.07294968
52	0xbcd22f50	-0.025657326
53	0x3c199949	0.009374925
54	0x3c0417e8	0.00806234
55	0xbd8f1b1f	-0.06987595
56	0xbc03a747	-0.0080354875
57	0x3d43a117	0.04776105
58	0x3bf31468	0.007418204
59	0xbce9b39a	-0.028528024
60	0x3d01904b	0.03163175
61	0xbd4c67df	-0.049903747
62	0x3cdf2f58	0.027244255
63	0x3dc722bc	0.09723422
64	0xbd509c20	-0.050930142
65	0xbc7aa943	-0.015299144
66	0xbc2e53a5	-0.01064006
67	0x3cfd5c1d	0.030927712
68	0x3d62ea52	0.055399247
69	0x3d94d0de	0.07266401
70	0x3cfbf973	0.030758595
71	0xbd386fd6	-0.04502853
72	0xbda0eb16	-0.07857339
73	0xbd6197f6	-0.055076562
74	0xbcb9414f	-0.02261415
75	0x3dd3fecb	0.10351332
76	0x3db23583	0.08701613
77	0xbc17b645	-0.009259765
78	0x3dc85042	0.09780933
79	0x3b108e47	0.002205746
80	0xbcfc9400	-0.03083229
81	0x3d084d59	0.03327689
82	0xbd925edf	-0.071470015
83	0x3d59a46b	0.053135317
84	0x3d4f4a4f	0.050607976
85	0xbcab19c8	-0.020886317
86	0xbcb30b06	-0.021855842
87	0x3dfb66e9	0.12275488
88	0x3d7d0dae	0.061780624
89	0xbd93f768	-0.07224923
90	0xbd72325d	-0.05913006
91	0xbdcca90d	-0.099931814
92	0x3ba526cb	0.005040025
93	0xbcd35119	-0.025795506
94	0x3c5c2754	0.013437111
95	0x3d3b007a	0.04565475
96	0xbd1a53cd	-0.037677575
97	0x3d997862	0.07493664
98	0x3c76869b	0.015046741
99	0x3c77f072	0.01513301
100	0x3d0c49dd	0.03425013
101	0xbcf78f40	-0.030219674
102	0x3d7d1c2e	0.061794452
103	0x3d608594	0.05481489
104	0xba960148	-0.0011444474
105	0xba518b1d	-0.0007993447
106	0xbd4e62db	-0.050387245
107	0xbd34c3d1	-0.044132058
108	0x3c75cace	0.015001966
109	0xbd9f4e09	-0.07778556
110	0xbc8bfda1	-0.017088713
111	0x3daacfc2	0.08340408
112	0xbd7ae235	-0.061250884
113	0xbd7aa037	-0.06118795
114	0xbcb2e710	-0.021838695
115	0x3cdf5dc0	0.027266383
116	0x3dc21397	0.09476393
117	0xbd34f322	-0.044177182
118	0x3a4f1a8e	0.00079003803
119	0x3d18e848	0.037330896
120	0x3cc2ef58	0.023795769
121	0x39d997f3	0.00041502676
122	0x3c01fa93	0.007933277
123	0xb9813f92	-0.0002465216
124	0xbc05da14	-0.00816967
125	0x3cdfc58b	0.027315876
126	0x3ce3300a	0.027732868
127	0xbc5b1d70	-0.013373718
128	0x3e687591	0.22701098
129	0x3d167209	0.036729846
130	0x3e8e4c58	0.2779262
131	0x3dfbae54	0.1228911
132	0x3eb02b1d	0.34407893
133	0x3e1d692e	0.15372154
134	0x3e5255ac	0.20540494
135	0x3e316496	0.17323527
136	0x3e25497e	0.16141316
137	0x3e11e3ac	0.14247006
138	0x3dfc48d9	0.12318582
139	0x3e41b898	0.18918073
140	0x3e0df599	0.1386322
141	0x3e99b64c	0.30021894
142	0x3e85a698	0.26103663
143	0x3e2e5a9c	0.17026752
144	0x3e45a1e5	0.19300039
145	0x3e34773a	0.17623606
146	0x3e27b9da	0.1637949
147	0x3e7f45b6	0.24928936
148	0x3e96d5e3	0.29460058
149	0x3e1a7d60	0.1508689
150	0x3e6346d7	0.22194992
151	0x3e2efaf0	0.17087913
152	0x3e2bcb82	0.16776851
153	0x3e6add41	0.22935964
154	0x3e91518e	0.28382534
155	0x3e51cd42	0.20488456
156	0x3e8854a1	0.26627067
157	0x3d78f4d1	0.06078035
158	0x3e0ec4f6	0.13942322
159	0xbd6a5866	-0.05721321
160	0x3e433a9f	0.19065331
161	0x3e337eb1	0.17528798
162	0x3e1e4584	0.15456206
163	0x3e46c359	0.19410457
164	0x3e5b702c	0.21429509
165	0x3e603e7c	0.21898836
166	0x3e94c600	0.29057312
167	0x3e08b31c	0.13349575
168	0x3e1fbb61	0.15598823
169	0x3e933387	0.2875025
170	0x3e42136b	0.1895272
171	0x3e606b44	0.21915919
172	0x3dee5e04	0.11639026
173	0x3e2e15f1	0.17000557
174	0x3d6ad4a2	0.05733169
175	0x3e09cc05	0.13456734
176	0x3e473423	0.19453482
177	0xbd953a6e	-0.07286535
178	0x3e3c4df7	0.18389116
179	0x3de20434	0.11035958
180	0x3e63d56e	0.22249386
181	0x3e277ddd	0.16356607
182	0x3e7f9456	0.2495893
183	0x3e11fa33	0.142556
184	0x3dcd4c61	0.10024334
185	0x3e2dc270	0.16968703
186	0x3e5ce166	0.21570358
187	0x3d90a921	0.07063509
188	0x3e8b3139	0.2718599
189	0x3e84ab7c	0.25912082
190	0x3e59afc8	0.21258461
191	0x3e0faa7b	0.14029877
192	0x3e119881	0.14218332
193	0x3dd7da6c	0.105397075
194	0x3e24e17e	0.16101643
195	0x3e8f49f4	0.2798611
196	0x3e3daad1	0.18522193
197	0x3de60513	0.112314366
198	0x3e2d4da5	0.1692415
199	0x3e55f052	0.20892456
200	0x3e376d44	0.17912775
201	0x3e5a86c1	0.21340467
202	0x3dd7019c	0.10498354
203	0x3e21e94e	0.15811655
204	0x3e763eaf	0.2404735
205	0x3e029b16	0.12754473
206	0x3e43b70c	0.19112796
207	0x3e6390c9	0.222232
208	0x3e55f092	0.20892552
209	0x3d496353	0.04916699
210	0x3e413285	0.18866928
211	0x3e1a32b1	0.150584
212	0x3d89f8e2	0.06736924
213	0x3da36e8e	0.07980071
214	0x3daa1e52	0.083065644
215	0x3deca194	0.11554256
216	0x3d97976f	0.074019305
217	0x3e4b0cbd	0.19829078
218	0x3e59a66e	0.21254894
219	0x3e73c69d	0.23806234
220	0x3ea3d250	0.31996393
221	0x3de8d698	0.113690555
222	0x3e65f806	0.22457895
223	0x3e8ae42e	0.27127212
224	0x3e3d4050	0.18481565
225	0x3ec752fd	0.38930503
226	0x3ea9eb60	0.3318739
227	0x3dcc9e9a	0.09991188
228	0x3e71584b	0.23568837
229	0x3e40c1b1	0.18823887
230	0x3e81a712	0.25322777
231	0x3e24d4a1	0.16096736
232	0x3e0fc42b	0.14039676
233	0x3df2d415	0.11856858
234	0x3e8afe26	0.27147025
235	0x3e4ba583	0.19887356
236	0x3e35d93e	0.17758653
237	0x3e49c692	0.19704655
238	0x3e09693f	0.13419054
239	0x3de29da5	0.110652246
240	0x3ea003a1	0.3125277
241	0x3e8da7f7	0.2766721
242	0x3e67cd1a	0.22636834
243	0x3e425ad1	0.18979956
244	0x3e70b0a4	0.23504883
245	0x3e724f03	0.23662953
246	0x3e4975c7	0.19673835
247	0x3d7c4313	0.061587404
248	0x3e6bb074	0.2301653
249	0x3dea8c6c	0.114525646
250	0x3e92801d	0.28613368
251	0x3e815511	0.25260213
252	0x3dedfac1	0.11620093
253	0x3e3e8f97	0.18609463
254	0x3e7f6bc8	0.24943459
255	0x3e50bfb4	0.20385629

encoder.gru.bias_hh_l0 f4 [384]
0	0x3d08e011	0.03341681
1	0x3d8bea37	0.06831782
2	0xbc7e2dde	-0.015513865
3	0x3dff4302	0.124639526
4	0x3d2d4fa5	0.042312283
5	0xbdb70549	-0.08936555
6	0x3db7fde5	0.089839734
7	0xbc09fa41	-0.008421482
8	0x3d664dde	0.056226604
9	0xbdc4db89	-0.096121855
10	0x3d333ac0	0.0437572
11	0xbda52c1a	-0.08065052
12	0x3d835e45	0.06414465
13	0x3d65e0e3	0.05612267
14	0x3d728ba4	0.059215203
15	0xbd890284	-0.06689933
16	0xbd2f549d	-0.042805303
17	0x3db6b768	0.08921701
18	0x3d93c025	0.07214383
19	0x3d8ba081	0.06817723
20	0xbc9ed84a	-0.019390244
21	0x3cd99086	0.026558172
22	0xbd5a133f	-0.05324101
23	0xbd20dd96	-0.03927382
24	0x3cfb8ec0	0.030707717
25	0x3ced79c2	0.028988723
26	0xbc2a1a13	-0.010382193
27	0x3d1cfd0b	0.038327258
28	0xbc275f9c	-0.010215666
29	0xbc1ccd51	-0.009570436
30	0x3d49ca8b	0.049265426
31	0xbd3c929f	-0.046038266
32	0xbd040339	-0.032229636
33	0x3ccb04ab	0.0247825
34	0x3a4735a3	0.000759924
35	0x3d54f8c2	0.051995046
36	0xbcd6c22f	-0.02621564
37	0xbcbba91c	-0.022907786
38	0xbd9313b5	-0.07181493
39	0xbdaa588d	-0.08317671
40	0xbb8a1e7c	-0.00421506
41	0x3df05d70	0.11736572
42	0xbbb31f13	-0.005466351
43	0x3d3aab1f	0.04557335
44	0xbc195b89	-0.009360203
45	0x3de8a3a7	0.11359339
46	0xbd4fe1ee	-0.050752573
47	0xbb973cc0	-0.0046153963
48	0x3dfcf5e3	0.12351587
49	0x3c54e468	0.012993909
50	0xbd8ffd19	-0.070306964
51	0xbd124ed7	-0.03571972
52	0x3cddc5e0	0.027071893
53	0x3d3c8878	0.046028584
54	0xbd411741	-0.047141317
55	0x3d20b521	0.039235238
56	0xbdba4da4	-0.0909684
57	0x3db29374	0.08719531
58	0x3d4c8755	0.04993375
59	0x3d852ae7	0.065023236
60	0x3d9af3f4	0.075660616
61	0x3d93adb9	0.07210869
62	0xbd816f1e	-0.06320022
63	0x3dc16f95	0.09445111
64	0xbd88866b	-0.06666263
65	0x3cbc886d	0.023014272
66	0xbbe47dce	-0.006973005
67	0x3d55145d	0.052021373
68	0x3c198d07	0.009372002
69	0xbce9d9ce	-0.02854624
70	0x3d720c49	0.059093747
71	0xbd69a003	-0.057037365
72	0xbd784f95	-0.06062277
73	0x3d9292b5	0.071568884
74	0x3c78dfc2	0.015190067
75	0xbd5084f9	-0.050908063
76	0x3cfe7a1f	0.031064091
77	0xbdf9e2a1	-0.12201429
78	0x3d78f8fd	0.06078433
79	0x3d155c8c	0.036465213
80	0xbc0f904d	-0.008762431
81	0x3b546acb	0.0032412286
82	0xbbf6ba67	-0.007529545
83	0xbc806ac5	-0.015675912
84	0xbddb77f5	-0.10716239
85	0xbe0062b3	-0.12537651
86	0xbdfacdc5	-0.12246279
87	0x3d12b104	0.035813347
88	0x3d620f69	0.055190478
89	0xbd837b9a	-0.064200595
90	0x3d396d53	0.045270275
91	0xbc920288	-0.017823473
92	0x3d43661a	0.047704794
93	0xbcfabb75	-0.030606965
94	0x3bc6f04c	0.006071126
95	0xbd2f741a	-0.042835332
96	0xbc933605	-0.017970094
97	0x3d9cfda7	0.07665568
98	0x3d149ba3	0.03628124
99	0x3d3a5313	0.045489382
100	0x3d1b97dc	0.03798662
101	0xbcb37e46	-0.021910798
102	0x3d3f70ee	0.046738558
103	0xbd60b2b0	-0.05485791
104	0x3c8d7951	0.017269762
105	0x3dbfc1a4	0.09363106
106	0xbdd847e2	-0.105605856
107	0xbc296bef	-0.010340675
108	0xbd7d6c84	-0.061871067
109	0xbcd9a55e	-0.026568111
110	0x3b8f52bb	0.004373876
111	0xba0e9758	-0.0005439422
112	0x3d4391b0	0.04774636
113	0x3d7e3517	0.06206235
114	0xbd3b252b	-0.045689743
115	0xbdc6904e	-0.09695493
116	0x3dacdf44	0.08441022
117	0x3cc05544	0.023478158
118	0xbccfb367	-0.0253541
119	0x3d255abe	0.04036974
120	0xbd6d4e14	-0.05793579
121	0x3c600893	0.013673919
122	0xbcfb77d2	-0.030696783
123	0x3d2ce224	0.042207852
124	0x3c48ce46	0.012256211
125	0xbbfc3f62	-0.0076979855
126	0x3d2b4ae1	0.041819457
127	0xbdd3d80f	-0.10343944
128	0x3e57ab5c	0.21061462
129	0x3d4a56d5	0.049399216
130	0x3e8d280c	0.27569616
131	0x3e5ca1e4	0.21546131
132	0x3e68508e	0.22686979
133	0x3e226a53	0.15860872
134	0x3e02a968	0.12759936
135	0x3e802aef	0.25032756
136	0x3e4e8fc8	0.20172036
137	0x3e597481	0.21235849
138	0x3e64338e	0.22285292
139	0x3e54f808	0.20797741
140	0x3e2a44e4	0.16627842
141	0x3ea839e7	0.32856676
142	0x3e686038	0.22692955
143	0x3e845e56	0.25853223
144	0x3e4219ae	0.18955109
145	0x3e3c0908	0.1836282
146	0x3e1856de	0.14876887
147	0x3e75f1d5	0.24018033
148	0x3eb0e108	0.34546685
149	0x3e6b769c	0.22994465
150	0x3e5e997b	0.21738236
151	0x3e450916	0.19241747
152	0x3e1eccad	0.15507765
153	0x3e2cf240	0.16889286
154	0x3ead4006	0.33837909
155	0x3e1b632b	0.15174548
156	0x3e97c824	0.29644883
157	0x3d3678b9	0.044548724
158	0x3e3bc5c9	0.18337168
159	0xbdbcd2dd	-0.092199065
160	0x3e53bbc7	0.206771
161	0x3e93155e	0.2872724
162	0x3e527e3d	0.20555969
163	0x3e04f45f	0.12983845
164	0x3e5464a2	0.20741513
165	0x3e10ea31	0.14151837
166	0x3e9c8c71	0.30575898
167	0x3dd29920	0.102831125
168	0x3e35ed05	0.17766197
169	0x3e183812	0.14865139
170	0x3e4fbdaa	0.20287195
171	0x3e328b71	0.17436005
172	0x3e5eff9b	0.21777193
173	0x3e5b484e	0.21414301
174	0x3e07263f	0.13198183
175	0x3e225db3	0.15856056
176	0x3e823bc1	0.25436214
177	0x3cbfd8c2	0.023418788
178	0x3e69a00a	0.22814956
179	0x3e533c47	0.20628463
180	0x3e003e4d	0.12523766
181	0x3e9004df	0.28128716
182	0x3dff5d45	0.124689616
183	0x3e2369d7	0.15958343
184	0x3e7ac6fc	0.24489969
185	0x3e1df02d	0.15423651
186	0x3e3d281b	0.1847233
187	0x3dbe8178	0.09302038
188	0x3e8cf5b0	0.27531195
189	0x3e8cbcf1	0.274879
190	0x3e88322f	0.26600787
191	0x3d81c4be	0.06336354
192	0x3e54acc2	0.20769027
193	0x3e5a096f	0.21292661
194	0x3e2defe1	0.16986038
195	0x3e82ecf8	0.25571418
196	0x3dff01b1	0.124514945
197	0x3e17ec8a	0.14836326
198	0x3e591a15	0.21201356
199	0x3e3c7762	0.18404916
200	0x3e621520	0.22078371
201	0x3e7d20e0	0.24719572
202	0x3e08f79f	0.1337571
203	0x3dc94074	0.098267466
204	0x3e73351b	0.23750727
205	0x3e84b90a	0.25922424
206	0x3e812821	0.25225928
207	0x3e1daaf7	0.15397249
208	0x3e0762e1	0.13221313
209	0x3dc04aee	0.09389292
210	0x3e71b54b	0.23604314
211	0x3e6fa227	0.234017
212	0x3d9e7e60	0.07738948
213	0x3df2089a	0.11818047
214	0x3d16875e	0.03675019
215	0x3dad1cbb	0.084527455
216	0x3e1a96ae	0.15096542
217	0x3e07fe99	0.13280715
218	0x3e5362c8	0.20643151
219	0x3e996930	0.29963064
220	0x3eb2cfcb	0.34924158
221	0x3e127780	0.14303398
222	0x3eabab79	0.3352926
223	0x3e67fdbd	0.22655387
224	0x3e453d9b	0.19261782
225	0x3ea3b62f	0.31974933
226	0x3e80a7ed	0.25128117
227	0x3e1d8b6a	0.15385213
228	0x3e971711	0.29509786
229	0x3e53aa81	0.20670511
230	0x3e53d0d8	0.20685136
231	0x3df2828e	0.118413076
232	0x3e270280	0.16309547
233	0x3e2aa667	0.1666504
234	0x3e46996d	0.19394465
235	0x3e750968	0.2392937
236	0x3e39afcf	0.18133472
237	0x3e2b929c	0.16755146
238	0x3ddd52b7	0.10806792
239	0x3d96efe6	0.07369976
240	0x3e7b9226	0.2456747
241	0x3ea4e4c6	0.3220579
242	0x3e463a7c	0.19358248
243	0x3e9255ad	0.2858099
244	0x3e110bdb	0.14164679
245	0x3e11e4c1	0.14247419
246	0x3e44fb53	0.19236498
247	0x3e274b81	0.16337396
248	0x3e297512	0.16548565
249	0x3e68a3bc	0.2271871
250	0x3e1f99b8	0.15585983
251	0x3e5406ac	0.2070567
252	0x3daff1af	0.08591019
253	0x3e593f62	0.21215585
254	0x3e51d677	0.20491968
255	0x3e809958	0.25116992

encoder.project.weight f4 [16, 128]
0	0xbd295410	-0.041339934
1	0xbb89f89c	-0.0042105448
2	0x3d953df1	0.07287205
3	0xbd1dca97	-0.038523283
4	0xbdbef036	-0.0932316
5	0xbc9b57b6	-0.018962722
6	0x3c3e1475	0.011601557
7	0xbdcc1704	-0.099653274
8	0xbca6e7d7	-0.020374222
9	0x3cebd703	0.028789049
10	0xbd56411a	-0.05230818
11	0x3dc9cc23	0.09853389
12	0xbdafbdab	-0.08581098
13	0xbd37edcd	-0.04490452
14	0xbdeefa31	-0.11668814
15	0xbd59c856	-0.05316957
16	0xbd59e58d	-0.053197432
17	0xbc95b807	-0.018276228
18	0x3c9399f1	0.01801774
19	0xbd811903	-0.06303599
20	0xbd37abb0	-0.04484147
21	0xb9b085a3	-0.00033668903
22	0x3c34f3d1	0.0110444585
23	0xbdc0b0cd	-0.09408722
24	0x3d2bb591	0.041921202
25	0x3cf030d6	0.029320162
26	0xbda5b47a	-0.08091064
27	0x3dc80e52	0.097683564
28	0xbd0de692	-0.034643717
29	0xbd7a8561	-0.061162356
30	0xbca23424	-0.019800253
31	0x3d863134	0.065523535
32	0xbc4a190a	-0.012335071
33	0x3d9b1c50	0.075737596
34	0xbcc31fed	-0.023818934
35	0xbdd572d6	-0.10422294
36	0xbccb2602	-0.024798397
37	0x3d02cbbd	0.03193258
38	0xbba333e2	-0.00498055
39	0x3cc4f86d	0.02404424
40	0xbd7941c2	-0.060853727
41	0xbd8b3b9a	-0.067984775
42	0xbdc56ded	-0.09640107
43	0xbc4274b5	-0.011868645
44	0xba891937	-0.0010459785
45	0x3daf9316	0.08572976
46	0x3c295c02	0.010336878
47	0x3dc6a45c	0.09699318
48	0xbcab4e2e	-0.020911302
49	0x3d1e8580	0.038701534
50	0xbbce5d84	-0.006297769
51	0xbcc376be	-0.023860332
52	0x3da53001	0.08065797
53	0x3d952b8d	0.07283697
54	0x3c62c6fa	0.013841385
55	0x3cbd3516	0.023096602
56	0x3dc340e4	0.09533861
57	0xbd6acb22	-0.05732263
58	0xbd89f527	-0.06736212
59	0xbbd2b15e	-0.006429835
60	0xba4465b1	-0.000749196
61	0x3d8186e9	0.0632456
62	0x3d45c552	0.048283882
63	0x3d51cd00	0.051220894
64	0xbca02183	-0.01954723
65	0x3c351903	0.011053327
66	0xbd6461b8	-0.055757254
67	0xbe07bdf7	-0.1325606
68	0xbd22f99b	-0.039788824
69	0x3d798555	0.06091817
70	0xbd8913e3	-0.06693246
71	0x3d79ebb5	0.061015803
72	0xbe0130a2	-0.12616208
73	0x3df8514c	0.12124881
74	0xbba6435f	-0.005073949
75	0xbd01914e	-0.031632714
76	0x3c908441	0.017641189
77	0x3dcc46d3	0.09974446
78	0xbdbce0e0	-0.09222579
79	0xbdd020b6	-0.10162489
80	0x3da21e8e	0.07915984
81	0xbdb7d75c	-0.089766234
82	0x3cdcebb9	0.02696787
83	0x3d50f059	0.051010463
84	0x3bd8f6f5	0.0066212364
85	0x3c7c9f96	0.015418908
86	0x3d996283	0.07489493
87	0xbd8f2409	-0.06989295
88	0xbd9e4445	-0.07727865
89	0x3bb3a16a	0.0054818885
90	0x3d8e4e14	0.06948486
91	0xbe05262a	-0.1300284
92	0xbdf3d3ab	-0.11905607
93	0x3dde8cfb	0.10866734
94	0xbc0db2c3	-0.008648577
95	0x3d0e4d39	0.034741614
96	0x3c07cb0d	0.008288157
97	0xbd899fbe	-0.067199215
98	0xbddb3a74	-0.107045084
99	0x3d34bec9	0.04412726
100	0xbe070ba9	-0.13188042
101	0x3a66af20	0.00087998994
102	0xbdcc6d5b	-0.099817954
103	0xbda9a262	-0.08282925
104	0xbc1f0f92	-0.009708302
105	0xbd97c322	-0.074102655
106	0xbda20bc1	-0.07912398
107	0xbda0b447	-0.07846885
108	0xbdee40c6	-0.11633448
109	0xbd96864e	-0.07349835
110	0xbd42df2a	-0.047576107
111	0xbdd501bc	-0.104007214
112	0x3da2f98a	0.07957752
113	0x3c40751c	0.011746671
114	0x3ccd108c	0.025032304
115	0x3db5acdf	0.08870863
116	0xbc954393	-0.018220698
117	0x3e0179d5	0.12644131
118	0xbd39b869	-0.045341883
119	0x3d725b76	0.059169255
120	0x3cf02f91	0.029319556
121	0x3db5b3d3	0.088721894
122	0xbdc1c718	-0.09461802
123	0xbd4e566c	-0.050375387
124	0xbd590663	-0.052984606
125	0x3dbf8989	0.093524046
126	0x3c7dbb8f	0.015486612
127	0xbcf884d5	-0.030336777
128	0x3d6105fe	0.054937355
129	0x3c9d57bf	0.01920688
130	0xbb953891	-0.0045538624
131	0x3d10d0f4	0.035355523
132	0x3d883e12	0.06652464
133	0xbdb0f1ee	-0.086398944
134	0xbdda674b	-0.10664233
135	0x3d762456	0.060093246
136	0xbd5348be	-0.051583044
137	0x3e09ace4	0.13444859
138	0xbd2d1d6e	-0.042264394
139	0x3df1f9de	0.118152365
140	0x3e0e5806	0.13900766
141	0x3d833479	0.06406493
142	0xbb71f159	-0.0036917536
143	0xbd575caa	-0.052578606
144	0x3d7dee41	0.061994795
145	0xbd766924	-0.060158864
146	0x3ca34344	0.019929536
147	0xbc301f22	-0.01074961
148	0x3be33529	0.0069338274
149	0x3c46dc07	0.01213742
150	0x3cae80b7	0.02130161
151	0x3c6a4ca9	0.014300504
152	0xbd6f28ff	-0.058388706
153	0x3cf3f4fe	0.029779907
154	0xbc765348	-0.015034504
155	0xbd52c39c	-0.05145608
156	0x3ca9df03	0.020736223
157	0x3d9310d8	0.07180947
158	0x3d3a5ea1	0.0455004
159	0x3ab89c06	0.0014084585
160	0x3db175eb	0.08665069
161	0x3d981e91	0.07427705
162	0x3dcaf349	0.09909684
163	0xbd60f2be	-0.054918997
164	0xbd3162f9	-0.04330728
165	0xbd6ba96f	-0.05753463
166	0xba24c1e5	-0.0006284996
167	0xbd70d6c0	-0.05879855
168	0x3c60883f	0.013704359
169	0x3d6dc602	0.058050163
170	0xbc96b633	-0.018397426
171	0xbd62da78	-0.05538413
172	0xbdc0ad46	-0.09408049
173	0x3d002adc	0.031290874
174	0xbcd8e0f6	-0.026474457
175	0xbc3ee56b	-0.011651377
176	0x3d35f697	0.04442462
177	0xbdb294a2	-0.08719756
178	0xbe096dc9	-0.13420786
179	0x3b4c5957	0.003118118
180	0x3d00f66a	0.031485
181	0xbd3b035e	-0.045657508
182	0x3d457134	0.048203662
183	0xbd0fc8fc	-0.035103783
184	0x3d398538	0.045293063
185	0x3d38e4c1	0.04514003
186	0x3df0e361	0.11762119
187	0xbdaf802c	-0.08569369
188	0xbdc1f953	-0.09471383
189	0x3d6597b5	0.056052882
190	0xbda17c8f	-0.07885086
191	0x3d1afa9e	0.037836663
192	0x3d0d9d6b	0.034573954
193	0x3d2e6f22	0.042586453
194	0xbd068b42	-0.03284765
195	0x3d1c7602	0.03819848
196	0xbe09e537	-0.13466345
197	0x3deeb3d6	0.11655395
198	0xbbadfa24	-0.00530936
199	0x3a4849ec	0.000764041
200	0x3de785ca	0.11304815
201	0xbdb97df8	-0.0905723
202	0x3de5b639	0.11216397
203	0x3d582fa1	0.052779797
204	0x3c0644dd	0.008195129
205	0x3b47d4f8	0.003049193
206	0xbda63acb	-0.081166826
207	0xbdb4400b	-0.08801278
208	0x3de53d37	0.111933164
209	0xbcc292b8	-0.023751602
210	0x3d7bca08	0.06147197
211	0xbdc86d9f	-0.097865336
212	0xbdb5b4f7	-0.08872407
213	0x3c7bc754	0.015367348
214	0xbe0bdf9f	-0.13659523
215	0xbdea7f07	-0.1145001
216	0xbda65e02	-0.08123399
217	0x3dd54628	0.10413772
218	0xbd996d6b	-0.07491573
219	0xbb61a7c5	-0.0034432274
220	0x3d879eb0	0.06622064
221	0xbd4ddd6a	-0.050259985
222	0xbd4a8c33	-0.04945011
223	0x3daf0335	0.085455336
224	0xbd9a87e7	-0.075454526
225	0xbddda309	-0.10822112
226	0x3d0f21eb	0.034944456
227	0xbd27de8a	-0.040983714
228	0x3d910347	0.07080703
229	0x3de1ae1a	0.11019535
230	0x3d57fde0	0.05273235
231	0xbd8d32c9	-0.06894452
232	0xbd087fec	-0.03332512
233	0x3ca6e04b	0.020370623
234	0x3b6ceb46	0.0036150976
235	0x3cae267d	0.021258587
236	0x3db9c161	0.09070087
237	0x3d0c70b3	0.034287166
238	0x3de0ef1e	0.10983108
239	0xbdf534b6	-0.119729444
240	0x3c393516	0.011304161
241	0x3d3e1971	0.04641098
242	0xbd2653c0	-0.040607214
243	0xbd92f6f7	-0.07176011
244	0x3befc836	0.007317568
245	0xbd57690e	-0.052590422
246	0x3d4939c9	0.049127374
247	0xbe1ffddc	-0.15624183
248	0xbdd1a452	-0.1023642
249	0x3dd05faa	0.101744965
250	0xbe0287f4	-0.12747175
251	0x3c94bea8	0.018157318
252	0x3d3be08b	0.045868438
253	0x3c1af86d	0.009458643
254	0xbc3f84fd	-0.011689422
255	0x3cbf2348	0.023332253

encoder.project.bias f4 [16]
0	0xbdbd13e6	-0.09232311
1	0xbd656ebb	-0.056013804
2	0x3d088193	0.033326697
3	0xbb80f529	-0.0039354754
4	0xbd921ec6	-0.07134776
5	0xbafb46de	-0.00191709
6	0x3c7b5c2a	0.015341798
7	0x3daf95bb	0.08573481
8	0x3d19f9cd	0.037591744
9	0xbd3cfba5	-0.046138424
10	0xbc4edc0b	-0.0126257045
11	0x3d09c57a	0.033635594
12	0xbc05a71d	-0.008157519
13	0x3d113194	0.035447672
14	0xbd7e5c2f	-0.062099632
15	0xbd750f65	-0.059829134

decoder.0.weight f4 [128, 16]
0	0xbe927aa5	-0.28609195
1	0xbe09e9f0	-0.13468146
2	0xbe179431	-0.14802624
3	0x3dd39b4d	0.10332356
4	0x3e257254	0.16156894
5	0x3e731ed3	0.23742227
6	0x3e6c4543	0.23073296
7	0x3e7aaaed	0.24479266
8	0x3c71ad3f	0.014750778
9	0xbdb50fc0	-0.08840895
10	0xbe0b4198	-0.13599241
11	0x3c43a970	0.0119422525
12	0xbe2196cf	-0.15780185
13	0x3e58f51f	0.21187256
14	0xbe27dca4	-0.16392761
15	0xbe3c5b03	-0.18394093
16	0x3e4caf4c	0.19988745
17	0xbd0b5f92	-0.03402669
18	0xbd4a547a	-0.04939697
19	0xbded9487	-0.11600595
20	0xbe4f4de1	-0.20244552
21	0xbe70fda0	-0.2353425
22	0x3e361aa9	0.17783608
23	0x3e4e90b8	0.20172393
24	0x3e4994f0	0.19685721
25	0xbe72088f	-0.23636077
26	0x3cd77098	0.026298806
27	0xbdcf35aa	-0.101176575
28	0x3dcbe821	0.099563845
29	0x3d262872	0.040565915
30	0x3e87ec84	0.26547635
31	0xbd650976	-0.055917226
32	0x3e17bc86	0.1481801
33	0x3de6ed86	0.11275773
34	0x3e286f0c	0.16448611
35	0x3e85e15a	0.26148492
36	0xbda400f6	-0.08007996
37	0x3e05d16d	0.13068171
38	0x3e27f4e6	0.16402015
39	0x39d737c7	0.00041049553
40	0xbdda1b38	-0.10649723
41	0x3dcfe474	0.10150996
42	0x3cb4dc06	0.022077572
43	0x3e17f443	0.14839272
44	0x3d1928d0	0.037392437
45	0x3dc6e593	0.097117566
46	0x3e34870d	0.17629643
47	0xbe1729af	-0.14761995
48	0xbe6a0341	-0.22852804
49	0x3e9fff49	0.31249455
50	0xbe5ddbaa	-0.21665826
51	0xbbb962bc	-0.005657522
52	0xbe10c033	-0.14135818
53	0x3d3fecc0	0.04685664
54	0xbe014dc4	-0.12627321
55	0x3e36f49b	0.17866747
56	0xbe951c58	-0.29123187
57	0xbde0ce6c	-0.10976872
58	0x3e8f91e6	0.28041
59	0xbcae4613	-0.021273648
60	0x3e4c108d	0.19928189
61	0xbd9654ab	-0.07340368
62	0x3e41c3d8	0.18922365
63	0xbe91532d	-0.2838377
64	0xbe488d0c	-0.19585055
65	0x3d89d140	0.067293644
66	0x3e3155cc	0.17317885
67	0x3e375829	0.17904724
68	0x3b8f3089	0.0043697995
69	0xbde13ae8	-0.109975636
70	0xbd2118a8	-0.039330155
71	0xbc161208	-0.009159572
72	0xbde35f71	-0.111021884
73	0x3dcc11b4	0.09964314
74	0x3e86eb7b	0.26351532
75	0x3cc6b079	0.02425407
76	0x39c25881	0.00037068504
77	0x3e811e59	0.25218466
78	0x3d967867	0.07347184
79	0xbdc37af0	-0.09544933
80	0xbe2a3e0e	-0.16625234
81	0x3e152f74	0.14568883
82	0x3e65c2ac	0.22437543
83	0xbe1fe5e2	-0.15615037
84	0xbd17edce	-0.037092023
85	0x3d43dc43	0.04781748
86	0xbdaad8a1	-0.083421
87	0x3cef6dd7	0.02922718
88	0xbe3d84cd	-0.1850769
89	0xbe5b5d3f	-0.2142229
90	0x3e67183d	0.2256784
91	0x3e56d1e2	0.20978501
92	0x3d911c0b	0.07085427
93	0x3e39b684	0.1813603
94	0xbe828e10	-0.2549901
95	0xbe801ccd	-0.25021973
96	0x3d12e564	0.035863295
97	0xbb163a54	-0.002292295
98	0xbda84263	-0.08215787
99	0x3e55094e	0.2080433
100	0xbe1bcd70	-0.15215087
101	0x3e6032e9	0.2189442
102	0xbd2debf7	-0.04246136
103	0xbdb3f94c	-0.08787784
104	0x3dde54de	0.10856031
105	0x3d85b38f	0.06528389
106	0x3d4b657a	0.049657322
107	0xbe44bde9	-0.1921307
108	0xbbc22b51	-0.005925574
109	0x3d683506	0.056691192
110	0x3e2e9d40	0.17052174
111	0x3d0f7fee	0.035034113
112	0x3e33909e	0.17535636
113	0x3d484bf7	0.04890057
114	0xbe3e92c3	-0.18610673
115	0x3e8e5cde	0.27805227
116	0xbdd4ad65	-0.10384635
117	0x3cf38637	0.029727085
118	0x3e31f091	0.17376925
119	0xbe871bd2	-0.26388413
120	0xbb6d126e	-0.0036174315
121	0xbe8d7b55	-0.27633157
122	0xbda9f194	-0.082980305
123	0x3cce3c28	0.02517517
124	0x3d6a9a23	0.057275902
125	0x3e1fc9d3	0.15604334
126	0x3d800ca1	0.06252409
127	0x3b857edd	0.004073961
128	0xbe6cd29d	-0.23127218
129	0xbdefa668	-0.11701661
130	0x3e5f7c12	0.21824673
131	0x3d906128	0.07049781
132	0xbe54e9ea	-0.20792356
133	0x3d848927	0.06471472
134	0xbd8962c2	-0.0670829
135	0x3e06b5b6	0.13155255
136	0xbe3d91cc	-0.18512648
137	0xbe42c6ff	-0.19021223
138	0xbe4aa1ec	-0.19788331
139	0xbe54e74f	-0.20791362
140	0x3e13673e	0.14394853
141	0x3dddca90	0.10829651
142	0x3e156257	0.14588295
143	0xbe6f0374	-0.23341161
144	0xbe6553a0	-0.22395182
145	0x3dd29ae3	0.102834485
146	0xbd5abc0f	-0.053402003
147	0xbc8aa587	-0.016924633
148	0x3e622fac	0.22088498
149	0x3db0ea41	0.086384304
150	0x3d4af8f3	0.049553823
151	0x3bc755c5	0.0060832226
152	0x3ceb71c7	0.028740777
153	0xbe86d002	-0.26330572
154	0x3e25788d	0.16159268
155	0x3e48e4b8	0.196185
156	0xbdd18a4f	-0.102314584
157	0x3dcab5d6	0.09897964
158	0xbd1d7b87	-0.038447883
159	0xbe93be2b	-0.28856024
160	0x3e6b26a3	0.22963957
161	0x3e255292	0.1614478
162	0x3e62be10	0.22142816
163	0xbaff5a4c	-0.0019481867
164	0xbe54c9e6	-0.20780143
165	0xbc156bd2	-0.009119945
166	0x3e1f0ca2	0.15532163
167	0x3e61e105	0.22058494
168	0xbd91a4fb	-0.07111546
169	0x3e510eef	0.20415853
170	0xbe397e84	-0.18114668
171	0xbb1b873c	-0.002373173
172	0x3c0ea5d7	0.0087065315
173	0xbd8ab5a4	-0.067729264
174	0xbdf7efe7	-0.121063046
175	0x3d3059f2	0.04305453
176	0xbe871f0a	-0.26390868
177	0xbe256129	-0.16150345
178	0xbe98743f	-0.2977619
179	0x3de2eaa6	0.11079912
180	0x3cba76b3	0.022761678
181	0x3dcfe79f	0.101516
182	0xbe0c6962	-0.13712075
183	0xbe29d53c	-0.16585249
184	0x3d0eef4a	0.034896173
185	0xbd4d617d	-0.0501418
186	0xbdf7e5b4	-0.12104359
187	0x3dd0a782	0.101881996
188	0xbdb6840b	-0.08911904
189	0x3e3f4379	0.18678083
190	0xbd66a1a7	-0.056306507
191	0xbd29b17f	-0.04142904
192	0xbe83950d	-0.25699654
193	0xbe3349c9	-0.17508616
194	0xbe62100e	-0.22076437
195	0xbaa3ae55	-0.0012487868
196	0x3e523dcf	0.2053139
197	0xbd11ec37	-0.035625663
198	0xbcbeb1b3	-0.023278093
199	0xbda7a1d5	-0.08185164
200	0xbe472877	-0.1944903
201	0x3dfc4281	0.12317372
202	0x3da2c22a	0.0794719
203	0x3e3293b5	0.17439158
204	0xbe1291fa	-0.14313498
205	0xbe44962d	-0.19197913
206	0xbd9eb675	-0.07749645
207	0x3cbed406	0.02329446
208	0x3a04b20f	0.0005061933
209	0x3d2aa37a	0.04165981
210	0xbd9a7f6c	-0.07543835
211	0x3e3a2008	0.18176281
212	0xbe5f6e5f	-0.21819447
213	0x3e5c122c	0.21491307
214	0xbe621dd5	-0.22081693
215	0xbe7688b8	-0.24075592
216	0xbe059926	-0.13046703
217	0xbe5c3ef6	-0.21508393
218	0x3e3e058c	0.18556803
219	0xbe208c39	-0.1567849
220	0xbe2231e2	-0.15839341
221	0x3e22b7a0	0.1589036
222	0x3e1e84d9	0.15480365
223	0xbe7684a1	-0.24074031
224	0xbe032391	-0.12806536
225	0x3df7f1b6	0.121066496
226	0x3e3bb074	0.1832903
227	0x3df6a480	0.12043095
228	0xbdcd4b2a	-0.10024102
229	0x3e6fe9c2	0.23429015
230	0x3dfc6a75	0.123249926
231	0xbde9c186	-0.11413865
232	0x3d30c165	0.043153185
233	0xbe8a0f32	-0.26964718
234	0x3e4239ea	0.18967405
235	0x3dc17121	0.09445406
236	0x3e73902a	0.23785463
237	0xbda46646	-0.080273196
238	0x3e811af1	0.25215867
239	0xbe7b5a91	-0.24546267
240	0x3e20a729	0.15688767
241	0xbe004574	-0.12526494
242	0x3e870aab	0.26375327
243	0x3e69bcf0	0.2282598
244	0xbd726b64	-0.059184447
245	0xbe19c631	-0.1501701
246	0xbe5ac421	-0.2136388
247	0xbdb3805f	-0.08764719
248	0x3dccc090	0.09997666
249	0x3e3125e7	0.17299615
250	0x3deffc60	0.117180586
251	0x3de888ab	0.11354192
252	0x3cb785db	0.022402694
253	0x3d853bba	0.065055326
254	0x3e442888	0.19156086
255	0xbe4be4e6	-0.19911537

decoder.0.bias f4 [128]
0	0x3db17862	0.08665539
1	0xbe5341cd	-0.2063057
2	0x3e18f247	0.14936171
3	0xbe1166f9	-0.14199437
4	0xbe34004d	-0.1757824
5	0x3e2b81db	0.16748755
6	0xbe580953	-0.21097307
7	0x3e0a15d7	0.13484894
8	0x3e089c8e	0.13340971
9	0x3d1ff50c	0.039052054
10	0xbe86d345	-0.2633306
11	0xbcd82c1e	-0.026388224
12	0xbe060135	-0.13086398
13	0xbe4dc311	-0.20093943
14	0xbde861cd	-0.11346779
15	0x3e747c44	0.23875529
16	0xbe4a641a	-0.19764748
17	0x3e4a1252	0.19733551
18	0x3e320c62	0.17387536
19	0x3e835f81	0.256588
20	0x3e1be232	0.15223005
21	0xb9172c6c	-0.0001441703
22	0x3cf3a8dd	0.029743606
23	0xbe3d4a9a	-0.1848549
24	0xbd93e791	-0.07221902
25	0xbe736908	-0.23770535
26	0xbdfa4ab3	-0.12221279
27	0xbd0367ae	-0.0320813
28	0xbdd17420	-0.10227227
29	0xbd7d372f	-0.061820205
30	0x3e5da166	0.216436
31	0xbc42326e	-0.011852844
32	0xbd084f94	-0.033279017
33	0xbdf4986d	-0.119431354
34	0xbe115237	-0.14191519
35	0xbe0c119e	-0.13678595
36	0xbdcad9a8	-0.09904796
37	0x3dd27c20	0.10277581
38	0xbc2cf978	-0.010557525
39	0xbb484a79	-0.0030561967
40	0x3e5a4741	0.21316244
41	0xbe85db06	-0.26143664
42	0x3e4f54e6	0.2024723
43	0x3d7ba599	0.061437223
44	0xbe1efad1	-0.15525366
45	0x3d61f943	0.055169355
46	0x3e0156d7	0.12630783
47	0xbd9ccd22	-0.076563135
48	0xbe0acfc4	-0.13555819
49	0x3de6fbc2	0.11278488
50	0xbda87e7f	-0.08227252
51	0xbd083f86	-0.033263706
52	0xbe5e04d5	-0.21681531
53	0xbe320edd	-0.17388482
54	0x3e0e7051	0.13910033
55	0xbc1cab91	-0.009562389
56	0x3e0bd691	0.1365607
57	0xbd90b881	-0.07066441
58	0x3d8308af	0.06398141
59	0x3df116ce	0.11771928
60	0xbe69282e	-0.22769234
61	0x3e66938b	0.2251722
62	0x3e0a6e5e	0.13518664
63	0xbe05a2f9	-0.1305045
64	0x3d96f9ce	0.07371865
65	0x3e16d41c	0.14729351
66	0xbb0f0897	-0.0021825188
67	0x3e5943c6	0.2121726
68	0xbe827540	-0.2548008
69	0x3e395da1	0.18102123
70	0x3dc995b8	0.0984301
71	0x3e0339bb	0.12814991
72	0x3e02e7e1	0.12783767
73	0xbe05fcc2	-0.130847
74	0xbe419f4d	-0.18908425
75	0x3dbcdbfe	0.09221648
76	0xbb2cdcaf	-0.0026376655
77	0x3e6847cc	0.22683638
78	0x3ced59ed	0.028973544
79	0xbe2cf895	-0.16891702
80	0x3e3962c9	0.1810409
81	0xbc84a242	-0.016190652
82	0x3e51bbef	0.20481847
83	0x3e1db696	0.15401682
84	0xbd02bf0c	-0.031920478
85	0x3e6adaf7	0.22935091
86	0xbe1e3d65	-0.15453108
87	0xbd9cc3b0	-0.07654512
88	0x3da8ae31	0.082363494
89	0xbe50ff93	-0.20409994
90	0xbe8bd8ea	-0.2731393
91	0xbd24b9cb	-0.04021625
92	0xbe6a7b37	-0.22898565
93	0x3e8c2e3b	0.2737902
94	0xbdfa92a4	-0.12235001
95	0x3df77fbd	0.12084911
96	0xbdfaaa4b	-0.12239512
97	0x3e0398f3	0.12851314
98	0x3e28e2b8	0.16492736
99	0x3e945557	0.2897136
100	0xbe5121bd	-0.20423026
101	0xbd5e31f9	-0.054246876
102	0x3ce95c5a	0.02848642
103	0x3de47927	0.111559205
104	0xbe09a882	-0.13443187
105	0x3d06f9f6	0.032953225
106	0x3e04d07b	0.12970154
107	0x3e1012dd	0.14069696
108	0x3e000668	0.12502444
109	0xbd9d466c	-0.076794475
110	0x3be7c3e8	0.0070729144
111	0xbe2443b0	-0.16041446
112	0xbcceeafd	-0.025258536
113	0xbcd7a7ab	-0.026325068
114	0x3e1f309e	0.1554589
115	0xbe25d94f	-0.16196178
116	0x3dab831b	0.08374616
117	0xbe51bba6	-0.20481738
118	0xbdb6ab72	-0.08919419
119	0xbd7c1d2e	-0.061551265
120	0x3e20908e	0.15680143
121	0xbd9adc36	-0.07561533
122	0xbe398959	-0.181188
123	0xbe83a74b	-0.25713572
124	0x3e49a984	0.19693571
125	0x3e8a1e56	0.2697627
126	0x3ddb5de2	0.10711266
127	0x3dff6ed0	0.12472308
