my_latent_sde/sdes/best_sde_0.pth (torch, 197557 bytes, 28 tensors)

encoder.gru.weight_ih_l0 f4 [192, 2]
000000 45 50 25 bd 88 0c 9d 3d 1a 01 23 bd 41 ad 5a bd
       -0.040359754 0.07668406 -0.039795972 -0.053387884
000010 e8 7c 78 bd 68 3b 09 3c e3 b7 49 3c 57 bb aa 3d
       -0.060665995 0.00837598 0.012311908 0.083365135
000020 9e 0b 03 3d 79 4e be 3c e3 64 33 bd 5c c7 8f 3b
       0.0319935 0.023230778 -0.043797385 0.004387779
000030 e8 f9 90 bd 2b 01 26 bd 32 0d 1c bd 41 cd c6 3d
       -0.07078916 -0.040528458 -0.03809852 0.09707118
000040 6c f9 07 bd 00 e8 95 3d 3f c9 b5 bd 79 0a 81 bd
       -0.03319685 0.07319641 -0.08876275 -0.063008256
000050 73 9c 18 bd 87 f0 a5 3d 97 64 3c 3d 07 d7 71 3c
       -0.037258577 0.081025176 0.045994367 0.014760739
000060 9b 58 92 bc 78 8d 3c 3c 04 8f b9 3d 1d f3 30 3c
       -0.017864516 0.011508338 0.09060481 0.01080015
000070 b2 c2 55 3d a7 bc 52 bd 55 b1 bb bd 54 a3 5f bc
       0.05218763 -0.051449444 -0.09164683 -0.01364978
000080 d3 71 9e 3d 0a 8f 93 3d ed b2 78 3d be 41 41 3c
       0.07736554 0.07205017 0.060717512 0.011795459
000090 cf 64 8f bd 0b 78 9a 3d 68 3b 7a 3d b0 a9 d3 bc
       -0.070016496 0.07542428 0.06109181 -0.02583775
0000a0 6d 30 a1 3b 80 97 21 bd 33 20 c6 3b 2a 2f 4e 3c
       0.004919103 -0.039451122 0.006046319 0.012584487
0000b0 3d ef e8 3c be f4 13 bd 09 77 8e 3d 65 c9 0a bd
       0.02843439 -0.036122076 0.06956298 -0.03388347
0000c0 c8 27 9e 3b d7 5d e4 3c 6d bb 4f bd e1 c0 86 bd
       0.0048265196 0.027876778 -0.050715853 -0.065797575
0000d0 56 42 90 bc 37 82 6a bc df a0 52 bd 96 46 1f bd
       -0.017609756 -0.014313272 -0.05142295 -0.038885675
0000e0 ae 94 ea 3c 44 e0 b5 bc 6d 95 01 bd 43 e7 3a bd
       0.02863535 -0.022201665 -0.031636644 -0.045630705
0000f0 e4 a2 d3 bc 37 75 1f bd 39 b9 6a bd 82 5c 5f bc
       -0.025834508 -0.038930144 -0.05730555 -0.013632895
000100 a0 4f 51 bd 97 ac 35 3c 0c c5 bb 3c 11 73 fe bc
       -0.051101327 0.011088512 0.022921108 -0.031060727
000110 05 97 15 3d 7c a1 a1 ba 12 94 72 b9 44 80 4e bd
       0.036520977 -0.0012331451 -0.00023134079 -0.050415292
000120 64 7a f0 bc 62 db b4 bd 07 6e ad bd 4c 42 39 bd
       -0.029355235 -0.088309065 -0.08468252 -0.04522924
000130 5e e8 73 bd e2 41 03 3d af 0d d3 bc 32 c6 93 3d
       -0.059547774 0.032045253 -0.02576336 0.07215537
000140 cc 22 fe bc 05 4c 0f 3d 43 0a ac 3c d6 79 fe bc
       -0.031022452 0.034984607 0.021000987 -0.031063955
000150 06 33 87 bd 43 89 62 3a 87 2d 59 3d 61 f6 09 bc
       -0.06601529 0.00086416694 0.053021934 -0.008420558
000160 d3 65 20 bd 23 8c 8b bb da 5b ad bd b2 85 25 3c
       -0.039159607 -0.004258649 -0.08464785 0.010102676
000170 2f 9a cb bc 9e 37 42 bd 06 08 89 bd 9f a8 2f bd
       -0.024853794 -0.047416322 -0.066909835 -0.04288542
000180 f2 b2 a4 3d 18 9c bb 3d 39 f9 62 bd fe a9 51 3d
       0.080419436 0.09160632 -0.05541346 0.051187508
000190 0b b4 00 3c f7 dd 2a bd fe 91 d3 bd e8 ed 97 3d
       0.007855426 -0.04171559 -0.1033058 0.07418424
0001a0 75 0e a1 3c fc cb 7c bd 44 94 c7 bd 9d 30 25 3d
       0.019660214 -0.061717972 -0.09745076 0.040329564
0001b0 23 83 4b bd 1a 20 c0 3d b9 13 03 3d 21 6c 1d 3c
       -0.04968561 0.09381123 0.03200123 0.0096082995
0001c0 c9 d2 c8 bd ee 37 36 3d 81 62 a4 bd 30 64 4b 3d
       -0.09805829 0.044486932 -0.08026601 0.049656093
0001d0 a9 38 d1 bd 9c d6 79 3d d1 be 3b 3c 0b 8f a2 bd
       -0.10215885 0.060995683 0.011459068 -0.079374395
0001e0 63 ed 85 bd be 19 e5 3b 5e 0c 49 bd ed d0 85 3d
       -0.065394185 0.006991594 -0.04908406 0.0653399
0001f0 82 d4 d3 bd 1a bb 64 bd bc a7 08 bd be 32 4f bc
       -0.10343267 -0.055842496 -0.03336309 -0.012646375
000200 c5 9d f6 bc da f9 f2 bc 94 59 5e bc 99 80 df 3b
       -0.030104527 -0.029660154 -0.013571162 0.00682075
000210 27 dd 09 3d 47 44 bd bc e9 ba 8a 3d 17 f0 36 3d
       0.033658173 -0.023103846 0.067739315 0.04466256
000220 63 79 94 bd 67 8c 9f bd e8 83 07 3d dd 37 76 bc
       -0.07249715 -0.077904515 0.03308478 -0.015027967
000230 05 9f 15 3d a4 f9 e9 3b 02 d0 89 bd 07 7e 26 bd
       0.036528606 0.007140355 -0.067291275 -0.040647533
000240 f6 0d 90 3d df eb 74 bc 31 41 91 3c de be 4a bd
       0.07033913 -0.014948814 0.017731281 -0.04949843
000250 06 64 d3 3c fe 71 d0 3b 41 a0 02 3d e1 f1 91 bd
       0.02580453 0.006361245 0.03189111 -0.07126213
000260 6f 6b 81 3c a1 dc 3b 3c f1 69 dc 3c ae 02 5b bd
       0.015798299 0.011466176 0.026905986 -0.053469352
000270 0d 4d 79 3d f8 4c 69 3b 21 23 38 bc 3c 01 9c 3b
       0.060864497 0.0035598855 -0.011238844 0.0047608893
000280 0b 2f 77 bc 4e 7e d5 bc ad b4 55 bd 94 bd 96 3c
       -0.0150868995 -0.026061203 -0.05217426 0.018400945
000290 8d 97 00 bd cb 22 66 3c e8 45 38 bc 8e 3e 02 3d
       -0.03139453 0.014046381 -0.011247136 0.031797938
0002a0 6d 1c 42 3c e8 62 70 3d 74 0a 8d bd 1f c4 1f 3d
       0.011847598 0.058688074 -0.068867594 0.039005395
0002b0 3d 0b 24 3d 30 4b 84 3d 30 70 33 37 50 bd 5e 3d
       0.04004978 0.064596534 1.0695352e-05 0.05437976
0002c0 43 30 89 bc 6c 4c d1 3c 36 db b1 bc 02 bd 9c 3d
       -0.016746646 0.025549136 -0.021710973 0.07653238
0002d0 29 fe 69 3d 1f d4 aa 3d 3c fb c0 3b 83 00 67 bd
       0.05712715 0.0834124 0.0058893245 -0.056396972
0002e0 b1 eb f4 bc 69 9e 9e 3b 87 0b 44 3d 57 21 3b 3d
       -0.029897543 0.0048406613 0.047862556 0.045686092
0002f0 9a b6 4c bc 77 cb 9f 3d da 29 27 3d 3e ff 80 3d
       -0.0124947075 0.0780248 0.040811397 0.062986836
000300 92 ab 60 bd 6c 2b 34 3d c5 3a 12 bd 02 44 ed 3c
       -0.054851122 0.043986723 -0.03570058 0.028963093
000310 a0 fe a9 bd 09 0c 2f bd 37 7e 15 bd 74 e6 36 bd
       -0.08300519 -0.042736087 -0.03649732 -0.04465337
000320 8c a8 41 bb 8e d3 52 3c 4c b5 67 3b 56 b4 d1 3a
       -0.0029549925 0.012867821 0.0035355864 0.0015999179
000330 e0 d8 8a bd 49 e8 1e 3d ca ae a2 bd bd ff 9e bd
       -0.06779647 0.038795743 -0.079434946 -0.07763622
000340 2a ba 10 bd f3 00 99 bd f0 1c 24 3c 9b e8 02 bd
       -0.03533379 -0.07470884 0.010016665 -0.03196011
000350 9c eb 84 bc ec 91 fa 3b 50 5d 9e bd ff a1 b0 3b
       -0.016225629 0.00764679 -0.07732642 0.005390405
000360 e7 14 66 3b ea ea f4 3a c3 2a 4a 3d e9 d0 06 bd
       0.0035107674 0.0018685733 0.049357187 -0.032914076
000370 d0 b6 37 bb 26 ce 2e 3d 56 87 e6 bc 4d bb 88 3d
       -0.0028032549 0.042677067 -0.028140705 0.0667635
000380 e1 b0 26 bd ca d1 81 3b cd 40 59 3b 46 e2 47 bd
       -0.04069603 0.0039617764 0.0033150197 -0.048799776
000390 1a f6 bb bc 30 38 36 bd 06 f7 78 bb 03 25 37 bb
       -0.022944499 -0.04448718 -0.0037989034 -0.0027945645
0003a0 50 19 03 3d 41 47 53 3a fa 5c 02 bc 60 35 16 3d
       0.03200656 0.0008059629 -0.007956738 0.036671996
0003b0 10 3f 70 b9 98 92 b5 3a f2 db 27 3d 5c ee e6 3c
       -0.00022911676 0.0013852892 0.04098124 0.02818983
0003c0 df 39 bc ba ee 90 e3 bc d0 ce 26 bd 57 11 71 bd
       -0.0014360509 -0.027779069 -0.040724576 -0.058854427
0003d0 95 a6 9c bd 60 8a 96 bd 73 d5 d6 bc 87 ec 58 bd
       -0.076489605 -0.07350612 -0.026224827 -0.052959945
0003e0 15 00 d6 bc 53 a4 e0 3c 2b ab b7 bb 23 85 48 3c
       -0.026123086 0.027422106 -0.0056051216 0.0122387735
0003f0 8f 33 54 3d 28 91 38 bc bc a6 80 bc ea 4f e3 3c
       0.051806983 -0.011265077 -0.015704505 0.027748067

encoder.gru.weight_hh_l0 f4 [192, 64]
000000 e5 44 97 bd 85 7b 5b 3d d6 fc 94 bd ab 4b a7 bd
       -0.073861875 0.053584594 -0.07274787 -0.081687294
000010 48 32 60 3c 9b bf 3d bc 1a 5b 69 bc a8 f7 81 bb
       0.013683863 -0.011581327 -0.014242912 -0.0039662905
000020 18 86 9e 3d 6c b6 0d bd 36 96 3a 3c 9a 4c ec 3c
       0.0774042 -0.0345978 0.011388352 0.02884512
000030 96 d2 55 bd d3 06 7c bd 32 1e 1d 3d b6 70 67 bd
       -0.052202784 -0.061529946 0.038358875 -0.056503974
000040 ee fd 2c bd d4 b0 4a 3b 5d cd 31 bd 48 ec d7 bb
       -0.042234354 0.0030928152 -0.04340874 -0.006589446
000050 e6 54 37 bc 46 74 03 3a 48 4f 6e 3d f8 e9 26 bd
       -0.011189675 0.00050145795 0.058181077 -0.040750474
000060 b4 fa 49 3a 53 ed 32 bd d8 d5 58 3d 83 69 9e bd
       0.0007704899 -0.04368336 0.052938312 -0.077349685
000070 20 cb 02 bd df 21 fc bb b5 08 51 bb 8c 38 7f bc
       -0.031931996 -0.0076944674 -0.003189606 -0.015577447
000080 92 78 14 3d e0 d0 83 39 86 59 81 bc 25 71 44 3d
       0.036247797 0.0002514189 -0.015789758 0.047959466
000090 f5 5c 0a 3d dc 60 c7 3c dd 49 cb 3c 71 48 17 3c
       0.033780057 0.024338178 0.024815494 0.00923358
0000a0 de 93 3c 3c 02 da 66 bd 7a 9c 9c 3d 1a 1e 6b bd
       0.011509864 -0.056360252 0.07647033 -0.057401754
0000b0 c8 35 85 bb 97 15 00 3d 0a ea 88 3d 07 13 9f bd
       -0.004065249 0.03127059 0.066852644 -0.07767301
0000c0 77 63 9d 3d 89 c8 81 3d f3 3f 23 3d e7 8a 89 3d
       0.07684987 0.06337077 0.03985591 0.06715947
0000d0 e4 a8 43 3c 1a fc 76 3d 0b 43 94 3d 80 fe 60 3d
       0.011942122 0.060299017 0.0723935 0.05493021
0000e0 6c cb 64 bd 42 78 41 bd e5 1b 6e 3c 4b 2e 1d bd
       -0.05585806 -0.047233827 0.014533018 -0.038374227
0000f0 1f 67 64 bc 96 d0 7a bd 37 2b a4 bd fb 42 5b bc
       -0.013940602 -0.06123408 -0.08016055 -0.013382669
000100 91 0f a1 bd 76 e9 13 bc 12 96 c8 3b d4 d1 35 bd
       -0.07864297 -0.009027829 0.0061214054 -0.04438956
000110 b9 f3 72 bd 93 2f 79 3a 3a 10 bc 39 80 69 29 bd
       -0.059314463 0.00095056853 0.00035870244 -0.04136038
000120 b0 af 45 bc f0 11 e3 ba e5 20 8d bd 47 36 8a 3d
       -0.012065813 -0.0017324071 -0.0689104 0.06748634
000130 04 62 a5 bb cc 24 b4 3c c9 a1 87 3d 7b 21 0b bd
       -0.0050470848 0.021990202 0.06622655 -0.033967476
000140 0e 6c 7b bc 72 dc b9 bc f7 75 28 3c fc 3f 82 3b
       -0.015345586 -0.022688124 0.010282031 0.0039749127
000150 26 65 f0 bb 4c 85 80 bc 74 5d f4 bc 5c f0 b7 bc
       -0.0073362766 -0.01568856 -0.029829718 -0.02245348
000160 f5 85 a1 bd b4 24 4f 3a a5 ad 84 3b 5b 6f a0 3d
       -0.078868784 0.00079018925 0.0040490204 0.07833739
000170 4a aa 3f bc e5 1c be 3a b3 03 4d 3d a7 a7 3b 3c
       -0.011698315 0.0014504461 0.050052356 0.011453546
000180 49 f9 07 3d f3 ca 8f bb e4 7d 13 3d 9d 65 a5 3b
       0.03319672 -0.004388207 0.03600873 0.0050475136
000190 0c 3e f9 39 0d 38 13 3c 24 da bb bb 55 a1 0f bd
       0.0004753921 0.0089855315 -0.0057327915 -0.035065968
0001a0 40 fa 5f 3d 25 c9 9f bd 2e 44 99 bd d6 05 94 ba
       0.054682016 -0.07802037 -0.07483707 -0.0011293243
0001b0 21 e9 12 bc ac e1 06 3b 7c c5 b4 3b 66 cb 67 bb
       -0.008966715 0.0020581288 0.005516706 -0.0035369038
0001c0 7c 5a 3b 3c 1b c7 be bc bc bc 51 bd a0 31 00 3d
       0.011435147 -0.0232883 -0.05120538 0.031297326
0001d0 ec 63 f3 bc fc f1 04 3b dc f7 6d 3d 81 d7 af bb
       -0.029710732 0.0020285835 0.058097705 -0.0053662662
0001e0 57 84 99 3d d8 8a 6d bd 47 a2 b5 bc 4f d6 92 3d
       0.07495945 -0.05799374 -0.022172106 0.07169782
0001f0 29 78 9b bc da ad 6e 3d fa d8 dd 3b ea 5e b7 3c
       -0.018978195 0.058271267 0.0067702504 0.022384126
000200 5c 7a 35 bd 67 52 24 bd ac 6c e8 3c 60 9c 29 bd
       -0.044306144 -0.040117647 0.028372131 -0.041408896
000210 fd 30 62 bd e2 fb ab bc 1f bf 62 bd 49 48 cd bb
       -0.0552225 -0.02099413 -0.05535805 -0.0062647206
000220 d9 78 c6 bb 71 50 95 3d 42 bd e9 3c c9 16 ec 3c
       -0.0060568866 0.072907336 0.028532628 0.028819459
000230 cd a3 bf 3c a9 8f 7b bd bf 08 06 bd 37 ec 8f 3c
       0.023393536 -0.061416302 -0.032723185 0.01756869
000240 24 b0 1f bc 36 81 86 3d 57 00 d2 3b 08 46 8c bc
       -0.009746585 0.06567614 0.006408732 -0.017123237
000250 e1 cc 81 3d d2 32 55 3c 66 9c d9 ba 7c 38 01 3d
       0.06337906 0.013012605 -0.0016602396 0.03154801
000260 c5 a8 25 3d f9 a5 06 bc 98 d7 fc bc 6c d1 7b bd
       0.040444154 -0.008218282 -0.030864522 -0.061479017
000270 72 cd 08 3d f2 9f 41 3c b5 97 b6 bc 96 d8 26 bb
       0.033399053 0.011817919 -0.022289136 -0.0025458685
000280 d6 65 bf bc 38 d8 b6 3c 64 27 27 bd 4d 05 99 bc
       -0.023363989 0.022319898 -0.04080905 -0.018679285
000290 db 57 a6 bd d7 5b 6b 3d 5f 5f 1c bd 3b bc a8 3c
       -0.08122226 0.057460632 -0.03817689 0.020597568
0002a0 a8 38 a8 3c 87 c0 4f 3d 7e f8 2d 3d 6a de c1 bc
       0.020534828 0.050720718 0.04247331 -0.023665626
0002b0 8f 75 34 3c 8f c2 13 3c ce 38 e3 bb 39 a8 a0 bd
       0.011014356 0.009018554 -0.006934262 -0.07844586
0002c0 e1 b4 93 bd be 7a 9d bd 95 4f 35 bd 12 d5 a4 3c
       -0.07212234 -0.07689427 -0.04426535 0.020121131
0002d0 97 1a 95 3c 46 cb 66 bd 9a 31 f1 3c 3e 8c 43 3c
       0.018201156 -0.0563462 0.029442597 0.011935292
0002e0 ca 90 0f bd f5 98 3f 3d 2e 3e 72 bd 17 18 ae bc
       -0.03505019 0.04677673 -0.05914133 -0.021251721
0002f0 e7 af 20 bd 73 c8 0b bd 89 04 38 bd fa 06 08 bd
       -0.039230254 -0.03412671 -0.0449262 -0.03320978
000300 ab 31 6f bd f5 46 7b 3b a4 c2 2c bc fe 48 3f 3d
       -0.058396976 0.0038341854 -0.010544453 0.04670047
000310 3c ac 44 bd 8a df 5b bc 24 47 23 3d 42 60 97 bd
       -0.048015818 -0.013419995 0.039862767 -0.073914066
000320 97 2e 96 3d 51 6d 8c bd e8 c2 6d bd 15 ef 86 3c
       0.07333105 -0.06856788 -0.058047205 0.016471425
000330 2d 1c a1 3d 3b 61 c2 bc 75 56 4c bd f4 50 1f b9
       0.07866702 -0.023728004 -0.04988714 -0.00015193579
000340 70 ba 43 3d ef e6 31 3d cb 6b 4d bc 33 70 b1 bc
       0.047785223 0.043433126 -0.012537907 -0.021659946
000350 94 64 68 3c dc 19 d9 ba 89 11 90 bd 40 6a 65 bc
       0.014184136 -0.0016563493 -0.070345946 -0.014002383
000360 10 2d a5 3c 96 0a 4b 3c 8b f0 de bc 63 bb db bc
       0.020163089 0.012392661 -0.02721431 -0.026822751
000370 39 90 3f bd da 27 85 bc e5 17 83 3d 69 3f 74 bc
       -0.0467684 -0.016254354 0.06401042 -0.014907696
000380 57 13 3f bd da 45 50 bb 9a f9 81 bd 5f 0a 92 bc
       -0.046649303 -0.0031779916 -0.06346436 -0.017827211
000390 d0 ea 73 bb e9 75 d2 bc 7d 32 6e 3d af bf d6 bc
       -0.0037218817 -0.02569099 0.058153618 -0.026214449
0003a0 88 14 80 bd 78 26 a7 bc f1 c9 99 3d 09 72 92 bc
       -0.06253916 -0.020404086 0.075092204 -0.017876642
0003b0 b2 cd 4f 3c 9c da 68 3c 28 5c 1d 3d d8 5b c8 bc
       0.012683319 0.014212277 0.038417965 -0.024457857
0003c0 bd cb ff bc b2 af cf bc 1f b6 7a bd ed 7e 5b 3d
       -0.03122508 -0.025352333 -0.06120884 0.053587843
0003d0 97 b8 8c 3c 8c 5f 9c bb f7 18 79 3d 42 b3 2c 3c
       0.017177863 -0.0047721323 0.060814824 0.010540785
0003e0 ad 35 e2 bc 9b 48 83 3c 0a 56 a2 bc d3 50 38 bb
       -0.027613485 0.016025832 -0.019816417 -0.0028124347
0003f0 69 a7 9b bc 84 a7 48 bc 6a 1f 9b 3d 46 5b 76 3d
       -0.019000726 -0.01224697 0.07574351 0.06014564

encoder.gru.bias_ih_l0 f4 [192]
000000 4c c6 92 3d e3 e2 0b 3d dc 1a 9c 3d 0e 50 00 3d
       0.071667284 0.034151923 0.076223105 0.031326346
000010 18 f1 c8 bc ee 3c f7 bc 4d a6 58 3c e6 93 80 bd
       -0.024529025 -0.03018042 0.013223243 -0.062782094
000020 96 cc ad 3d 89 dc fb 3a 0e bf 6b bd d2 33 71 bc
       0.08486287 0.0019215505 -0.05755525 -0.014721828
000030 39 df 86 bc f4 23 1a 3d 6c b7 12 3d 79 78 24 bc
       -0.016463863 0.037631944 0.035819456 -0.010038489
000040 3b d5 c8 3d d0 33 88 3d ce fe 07 ba be b4 8a 3d
       0.098062955 0.066505075 -0.000518781 0.06772755
000050 80 70 90 3d 99 2e 0e 3c 5b 85 5c 3c 46 24 a5 bb
       0.07052708 0.008678102 0.013459529 -0.0050397245
000060 39 76 51 bc d9 0d 2d 3d 32 dd 38 3b c0 17 29 3d
       -0.012784534 0.042249534 0.0028208015 0.041282415
000070 64 d7 03 bc 8c d9 7e bd 51 08 9a bc 53 6c 29 bd
       -0.008046959 -0.062219188 -0.018802794 -0.04136307
000080 28 3f ef bc 9a 54 c8 3c 10 d2 82 38 55 21 aa 3d
       -0.02920492 0.024454404 6.23801e-05 0.08307139
000090 4f f6 e8 3c bd 11 81 bc 53 06 29 3d a0 26 80 bd
       0.028437762 -0.015755529 0.041265797 -0.06257367
0000a0 60 57 7d 3d ea ec 3a 3d 78 c8 4b 3d 5a 53 c5 3d
       0.061850905 0.045636095 0.04975173 0.09635039
0000b0 b3 f8 4c 3d 06 1a ac 3b dc e5 0e 3d f5 9c 92 bd
       0.050041866 0.0052521257 0.03488718 -0.071588434
0000c0 e1 b5 b6 3c b7 1f 83 bd 6e 62 72 3d db f0 2f 3d
       0.022303523 -0.064025335 0.0591759 0.042954307
0000d0 f8 cb dd bc ee 94 be 3d fa 37 c6 3d ba 92 83 3d
       -0.027074799 0.0930575 0.096786454 0.0642447
0000e0 57 5f 33 3d 37 2c 71 3d 84 5c 6b 3d d1 b9 39 bd
       0.043792095 0.058880057 0.057461277 -0.045343224
0000f0 6b 57 ce bc 96 04 22 3d d9 c2 76 3d 43 33 1b 3d
       -0.025188169 0.039555155 0.060244415 0.037890684
000100 34 6e bf 3c b8 08 17 bd 4f 85 7d 3c f9 10 b7 3c
       0.023367979 -0.03687355 0.015473678 0.02234696
000110 8f 34 6c bd 68 85 1b bc 04 e2 99 3c 7c 9b a7 3c
       -0.05766731 -0.009492256 0.01878453 0.020459883
000120 75 1e a6 bc 9c 09 9b bd 53 74 a6 bb 3d dc 95 3c
       -0.020278195 -0.07570192 -0.005079785 0.018293494
000130 8d 84 14 bd cb 61 06 3c c2 64 1b 3d 68 13 7e bd
       -0.036259223 0.008202027 0.037937887 -0.062030226
000140 de 97 c5 bb a4 30 60 bd 07 0e b1 3c cc 85 90 3c
       -0.006030067 -0.054733887 0.021613134 0.017641924
000150 71 5f d5 bb 32 dd 56 bc 3d 82 62 3d 30 79 70 3c
       -0.0065116216 -0.0131142605 0.055299986 0.014677331
000160 b4 ad 11 3d 0a 2c 1c 3d 27 c5 d2 3c 36 f4 ad 3d
       0.035566047 0.038127936 0.025728775 0.08493845
000170 17 55 93 bd 17 3d 0e 3d 7d 7a 0b 3d da f7 8e 3d
       -0.07193964 0.03472623 0.03405236 0.06980868
000180 6a f8 bd 3c ec 24 a3 3c 69 ab 7e 3c 5f 41 ae 3c
       0.023189742 0.019915067 0.015543797 0.021271406
000190 a5 40 69 3c 5b 59 99 bd bc 45 ba 3c 6c 00 a9 3c
       0.014236604 -0.07487746 0.02273833 0.020630084
0001a0 c8 c3 93 3c e6 0a 11 bd a5 67 77 3d e2 04 a4 3c
       0.018037692 -0.035410784 0.060401578 0.02002186
0001b0 5c d0 3c 3c 60 bb 9f bd d4 b5 bc bc 86 cf 38 3c
       0.011524286 -0.07799411 -0.023035921 0.011279946
0001c0 80 d9 00 bd c5 f5 9e 3c ad 84 80 3c 00 c3 6c bd
       -0.031457424 0.019404301 0.015688265 -0.057803154
0001d0 e5 9e 44 3c ea 59 05 bc 6f f1 3a 3c ea 8e 40 3d
       0.012000774 -0.008139113 0.011410101 0.047011293
0001e0 14 00 a4 3c f1 7d 87 bd d1 2d 57 3d 03 5f 89 3c
       0.020019569 -0.06615818 0.05253393 0.016768938
0001f0 6e ba 92 3b 25 69 a1 3d 42 6a 4f bd b6 5a d6 3c
       0.0044777906 0.07881383 -0.050638445 0.026166301
000200 81 bb a1 bd e9 b9 88 bd 5c e6 aa bc 1c 67 0f bd
       -0.07897092 -0.066760845 -0.020861797 -0.035010442
000210 03 76 63 bd 1c ec 09 3c 4f 4e 38 bd 76 97 29 bd
       -0.055532467 0.008418109 -0.044996556 -0.04140421
000220 0f 4f d4 bd d3 09 3d bd 60 6b 79 3d e8 ce 00 bd
       -0.10366642 -0.046151947 0.060893416 -0.03144732
000230 0a 40 07 3c 6f 0b 70 bd 65 3a 2f 3d bd 54 8c bd
       0.008255014 -0.058604654 0.0427803 -0.068521
000240 c6 a7 49 bd b2 07 a0 ba 16 2d ac bd 0c f3 9e bd
       -0.049232267 -0.0012209325 -0.08407037 -0.07761201
000250 92 c9 a5 3d 7b 44 39 3d 89 67 4d bc 3f 00 c3 3d
       0.08095087 0.045231324 -0.012536892 0.09521531
000260 98 ce 2b bd a1 0b a5 bc b6 9c b0 bd cf dc b1 bc
       -0.04194507 -0.020147147 -0.0862364 -0.021711735
000270 dd 9c 95 3d ec 3c 03 bc 53 29 8e bd 0c 14 1b bd
       0.0730531 -0.00801013 -0.06941476 -0.037860915
000280 42 c5 8c bd c0 d3 4e 3b fc 7f f4 bd 20 ad b0 3d
       -0.068735614 0.0031559318 -0.119384736 0.08626771
000290 49 70 ef bd 97 41 d6 bd 3a 92 af 3d 02 18 39 bd
       -0.116913386 -0.10461729 0.085728124 -0.04518891
0002a0 53 80 d9 3d 41 d3 8c bd 8a fd 95 3d 69 53 9b bd
       0.10620179 -0.06876231 0.07323749 -0.075842686
0002b0 fa 67 82 bd 2e 67 ec 3c 02 f3 92 bd 3e e0 bf bc
       -0.06367488 0.028857794 -0.07175256 -0.023422357
0002c0 e7 cb a3 3b 38 b8 85 bd 0f a4 64 3d df 81 96 3d
       0.0049986723 -0.065292776 0.05582052 0.0734899
0002d0 f8 70 1d bd 05 e8 84 3c 25 bc b9 3d c9 c5 a9 3c
       -0.038437814 0.016223917 0.09069089 0.020724194
0002e0 b0 c1 a1 bd 75 7c 1f 3e 8f 74 2c 3d a9 38 91 3d
       -0.07898271 0.1557482 0.042103346 0.07090885
0002f0 9b 5e 25 3d ef 64 f1 bc 94 54 5f 3d ab fc ab bd
       0.040373426 -0.029467074 0.05452402 -0.08397802

encoder.gru.bias_hh_l0 f4 [192]
000000 1e e0 3f 3d 6e 89 a8 3d a5 77 58 3d 83 53 c8 3d
       0.046844594 0.08229338 0.052848477 0.097815536
000010 af 37 b7 3d a9 bd a4 bb c7 3f 13 3d 2f ef 8d 3c
       0.08946168 -0.005027492 0.035949495 0.017325966
000020 60 18 24 3c 30 57 cc 3a 80 2a 5c 3c cb 1e 1c bc
       0.010015577 0.0015589949 0.013437867 -0.009528826
000030 80 d2 00 3d a1 df 9a 3d 5b 52 5b bc a6 0a 06 3d
       0.03145075 0.07562185 -0.013386334 0.032725
000040 9a eb 2d bd e8 82 c2 3c 54 0e 63 3d 1d 7f 80 bc
       -0.042461015 0.023744062 0.055433586 -0.015685612
000050 32 7c 62 3b 07 a3 c2 3c d1 72 73 3d 58 17 9b bb
       0.003455889 0.023759378 0.05943567 -0.0047330074
000060 91 a3 04 3d 5e c5 96 bd 39 81 58 3d f8 30 08 bd
       0.03238255 -0.073618636 0.05285761 -0.033249825
000070 57 a5 3d 3d d4 46 74 3c 1c 69 51 ba 20 1a c5 3c
       0.04630026 0.014909465 -0.000798838 0.024060309
000080 3c b9 2a 3c 20 51 9c 3d bc 36 b0 3c 25 9f d1 3c
       0.01042014 0.07632661 0.021510474 0.025588581
000090 75 8f cd 3c 1e e6 82 bd 18 12 3f 3d d9 4a 85 bd
       0.02509282 -0.063915476 0.046648115 -0.06508417
0000a0 8c e6 f7 3c ab ce 4e bb fc 12 85 3d b3 1a 53 3d
       0.0302613 -0.003155629 0.064977616 0.051539134
0000b0 2d 4b 8d bd c4 9e e6 3c 89 99 a3 bc 72 4f 15 3c
       -0.06899104 0.028151877 -0.019970672 0.0091131795
0000c0 9b 04 a6 3c 24 3b 8f 3d b1 2d d4 3c ef 17 09 3d
       0.020265868 0.06993702 0.025900694 0.03347009
0000d0 67 bb 1d bb e4 95 6b 3d c2 a0 d2 3d b9 da a2 3d
       -0.0024068 0.057515994 0.10284568 0.07951874
0000e0 9e 0f 90 bd 43 fc 8d bd e6 e5 2f bd fc a2 04 3d
       -0.07034229 -0.06932881 -0.042943858 0.032381997
0000f0 a1 77 18 bd 76 af c1 bc 52 8e 4f 3c 1a c0 1a 3d
       -0.037223462 -0.023643237 0.012668209 0.03778086
000100 a4 e7 6a bc 8e 76 3b 3d f1 99 a8 3c f0 33 00 3d
       -0.014337454 0.04576736 0.020581217 0.03129953
000110 50 78 15 3d 5f 6c f5 bc 0e 94 9f 3c 83 29 82 bd
       0.036491692 -0.029958902 0.019479778 -0.06355574
000120 f4 dc 2c 3c 24 31 79 bd 1d e7 45 bb ef 1b 5e bc
       0.010550726 -0.06083788 -0.0030197569 -0.013556465
000130 38 3a 68 bc 62 3a 89 3d 37 be 48 bc c0 31 a7 bc
       -0.014174037 0.06700589 -0.012252382 -0.020409465
000140 7a 85 83 3d e9 3b c3 3c 01 fd 21 3d b4 99 14 bc
       0.06421943 0.023832278 0.039547924 -0.009069849
000150 39 d7 1b 3d 1e 88 55 ba 0c af 1b 3d f7 f3 2f 3c
       0.03804705 -0.0008145588 0.038008735 0.010739318
000160 19 71 91 3c 06 00 bd 3c 74 44 de 3c 1c 14 2d 3d
       0.017754124 0.0230713 0.02713225 0.042255506
000170 1f 98 45 bc bd b3 2a 3c 86 e1 75 3b ea 07 f8 bc
       -0.012060194 0.0104188295 0.0037518456 -0.030277211
000180 fc d0 d5 3c 4a 3d 80 3c 48 1f 54 3d 3e 8d 0d 3c
       0.026100628 0.015654225 0.051787645 0.008639632
000190 a9 ee 3d 3c 7a e1 3e bd 8c 9a 00 3d c2 36 74 3c
       0.011592546 -0.04660175 0.031397387 0.014905633
0001a0 18 6e 5e bd 18 62 a6 3d 26 cf 30 3c c6 d5 a7 3d
       -0.054304212 0.08124179 0.010791576 0.08195071
0001b0 ab af 33 3c 87 92 5f 3a 94 2a 55 bd 73 68 af 3b
       0.0109671755 0.0008528609 -0.05204256 0.0053530275
0001c0 c5 26 82 3b 7f 7a d9 bc a8 81 06 3d 77 3a 39 3c
       0.003971907 -0.026547669 0.032838494 0.011305443
0001d0 bd b0 9f 3d 7b 3b 6f bd 5d bf e4 3c ea 2b 3a bd
       0.07797382 -0.058406334 0.02792328 -0.045452036
0001e0 93 fd ab 3c 89 1d 96 bb 41 f6 8a 3c 2c 0f 85 38
       0.020994937 -0.0045811576 0.016963126 6.34476e-05
0001f0 f4 bf ca 3c a4 0f e1 3b 76 b4 13 bd 1d fb 53 bd
       0.024749734 0.0068683196 -0.036060773 -0.051753152
000200 84 85 97 3d 0f 50 ef bd 6b 62 ef bd 38 64 75 bd
       0.07398513 -0.11685192 -0.116886936 -0.05991003
000210 96 25 c5 3b d9 84 9c bd 88 c7 ce bd 12 7b 1e 3d
       0.0060164435 -0.07642526 -0.10096651 0.038691588
000220 7f 31 86 3d 7c bf e6 bc 55 2b c1 bd b2 a0 3d bd
       0.065524094 -0.028167479 -0.09432093 -0.04629583
000230 e9 63 7c 3d cd 47 32 3c 32 e3 ab 3d 5e 4d ed 3d
       0.06161872 0.010881376 0.083929434 0.11587022
000240 a0 98 b8 3d d2 56 43 bd d3 c4 03 3b e4 04 b3 3d
       0.09013486 -0.04769022 0.002010633 0.08741167
000250 e3 58 47 bd 32 56 a9 bc 12 13 12 bc 2e d3 71 bd
       -0.048668753 -0.020670984 -0.0089156795 -0.059039287
000260 ef e8 c8 3c f7 e7 93 3d b7 00 b3 bc 6b 56 6c 3d
       0.024525134 0.07221978 -0.021850927 0.057699602
000270 0e 78 6c 3c 23 2a 69 3d bb 4f ae 3d 19 25 d4 bc
       0.01443292 0.05692495 0.08511301 -0.025896596
000280 9b 14 bd bb 50 49 15 b8 66 fb fa bc 59 b6 af bd
       -0.0057702786 -3.5592646e-05 -0.030637454 -0.08579702
000290 87 27 9e bd 0f c0 be 3b 8f d0 f1 3d f2 24 68 3c
       -0.07722383 0.005821235 0.118073575 0.014168965
0002a0 22 a3 11 bd f5 91 c7 bd 61 12 d2 bd 66 16 35 bd
       -0.035555966 -0.09744636 -0.10257412 -0.044210814
0002b0 c1 b0 e8 3d c4 94 b4 3d 9b 43 c4 3d 67 90 52 bb
       0.11361838 0.08817437 0.09583207 -0.0032129528
0002c0 8f e1 ef 3d 82 a3 da bd 1a 7c e2 3c 9f cf fe 3d
       0.11712944 -0.10675718 0.027647067 0.12441944
0002d0 33 5b 5a 3d 87 2f 8e bd 67 a6 3c 3b bc be 12 3d
       0.05330963 -0.06942659 0.0028785707 0.03582643
0002e0 da cc 79 3d fc db b8 3d 34 03 9e bd cc b0 a0 bd
       0.060986377 0.09026334 -0.07715455 -0.07846221
0002f0 a0 b5 76 bd 73 b0 36 bd 37 d0 f6 bd 19 32 ac 3c
       -0.060231805 -0.04460187 -0.120514326 0.021019982

encoder.project.0.weight f4 [64, 64]
000000 43 65 16 bd 57 59 62 bd 64 c0 78 bc 70 ed 0c bb
       -0.036717664 -0.055260982 -0.015182588 -0.0021503828
000010 ae e4 ff bc d8 40 94 bd 96 94 f2 3c 5d 17 32 3d
       -0.031236973 -0.072389305 0.029611867 0.043479312
000020 6c 79 97 bd 5f e7 3f bd 9a 45 9f 3d 0c 6f 75 3b
       -0.07396206 -0.046851512 0.07776947 0.0037450222
000030 f6 b1 1c 3d ce 51 a0 3d 3d c6 7f 3d 1c 89 ae 3b
       0.038255654 0.07828103 0.062444914 0.0053264033
000040 d9 ae 92 bd 46 94 fb bc b1 38 d7 3c f4 4f 80 bd
       -0.07162256 -0.03071035 0.02627215 -0.0626525
000050 ce 43 aa 3d 61 26 9e 3d ec 71 80 bc ab 0d 35 bd
       0.08313714 0.07722164 -0.015679322 -0.044202488
000060 fc 9e c2 bc 0a fb 06 3d 70 73 21 bd c5 d4 45 3c
       -0.02375745 0.032954253 -0.03941673 0.012074654
000070 dd fe 0b 3c 8e 25 e8 3c 39 66 2a 3c fe 5f a7 3d
       0.008544651 0.02833822 0.010400348 0.08172606
000080 88 68 46 3d 86 ab 68 3d 99 9f f8 3c b6 40 89 bd
       0.048439533 0.056804202 0.03034954 -0.06701796
000090 1c a4 46 3d 74 df d3 bb 4c 02 9c 3b 77 7c 72 bd
       0.04849635 -0.0064658467 0.004761016 -0.05920073
0000a0 eb 89 e7 3c d8 0f 5f 3d 3e 56 11 39 d2 3c 05 bc
       0.028264007 0.05445847 0.00013860405 -0.0081321765
0000b0 2c 65 a7 bd fa 0b 9b 3d de 4e 7c bd 14 05 3d bd
       -0.08173594 0.07570644 -0.06159865 -0.04614742
0000c0 dd 89 2a 3d 5a 88 68 3c dc 5d 5d 3d 5d 37 b4 3c
       0.041635383 0.014192665 0.05404459 0.021999056
0000d0 30 d3 89 3d c8 c3 54 bc af 13 bd 3c 31 9e 32 bb
       0.06729734 -0.012986131 0.023080675 -0.0027254934
0000e0 bf c4 ac bd 90 c3 55 bd e5 9f 50 3d 77 e7 91 bd
       -0.08435964 -0.052188456 0.050933737 -0.071242265
0000f0 cc 19 29 3d 8c bd 65 bd d7 3e 60 3c e2 eb a7 bc
       0.041284367 -0.05608897 0.013686857 -0.02049822
000100 21 33 70 bc 37 67 8f 3d 63 ac 9f 3d 63 ea 12 bd
       -0.014660628 0.070021085 0.07796552 -0.03586806
000110 49 34 30 3c 5d d7 9c bd da 53 26 bd 30 61 64 bd
       0.010754653 -0.07658265 -0.04060731 -0.055756748
000120 5f fd 7d 3d 80 1d dd 3c f5 6b 94 bb 8e 8b a8 3d
       0.06200921 0.026991606 -0.004529471 0.08229743
000130 3f 50 41 3c c2 12 ce bd e4 5f 94 bd 80 f4 db 3c
       0.011798917 -0.100621715 -0.07244852 0.026849985
000140 ba c2 da 3d 5a ee 5e bd 0f 10 b7 3d a7 e2 ad bd
       0.106816724 -0.05442653 0.0893861 -0.08490496
000150 c9 24 d1 3d cd 1e 82 bd 92 23 35 3d 12 99 22 3b
       0.10212094 -0.06353531 0.044223376 0.0024810475
000160 21 d8 61 bd 8a 3a c0 3d ab cd 94 3c 72 7e 4f bb
       -0.055137757 0.093861654 0.018164476 -0.003166106
000170 33 ee f6 3d 63 51 de 3d 14 b7 0c bd 1a ff 1f bd
       0.12057152 0.10855367 -0.034354284 -0.039061643
000180 16 6c 88 3d 3e 65 b2 bd a3 1b f4 bd a4 05 45 bc
       0.06661241 -0.08710717 -0.11919334 -0.012025271
000190 13 f5 e9 bd 7e e0 79 3d 92 88 86 bd 27 73 04 3e
       -0.11423697 0.061005108 -0.065690175 0.12934552
0001a0 69 af d7 3d 96 cb b4 bd 4b ee ab 3c 7d 41 7f bd
       0.10531504 -0.088278934 0.02098765 -0.062318314
0001b0 3f 11 cc 3d ba 4d 10 3d 12 a5 81 3c b6 b8 69 bc
       0.09964227 0.035230376 0.015825782 -0.01426523
0001c0 16 4b 99 3c 01 b7 96 bd de 56 5a 3d d3 96 be 3b
       0.018712562 -0.07359124 0.0533055 0.0058163195
0001d0 6b 07 93 3c a1 db 7d bd 7d 58 68 3d 3f 6d 98 bd
       0.017947873 -0.061977033 0.056725014 -0.07442712
0001e0 c0 f9 87 bd 33 d3 55 bd 45 b2 83 bc 95 33 7d 3d
       -0.06639433 -0.05220337 -0.016076216 0.06181677
0001f0 73 f8 bd bd 97 76 85 bd 2b fa 4a bd 46 e8 df bd
       -0.092759036 -0.0651676 -0.049554985 -0.109329745
000200 f8 14 7b 3d 74 95 89 bd a4 d6 88 3d 17 4e 94 bd
       0.061299294 -0.06717959 0.066815645 -0.07241457
000210 46 63 f8 3c 0a 2a da 3d 50 04 d2 3d 92 fb af 3d
       0.030320775 0.106525496 0.10254729 0.08592905
000220 6d e9 dc bd 71 d3 0e 3d 09 14 39 3b 55 17 0b be
       -0.1078671 0.034869615 0.0028240702 -0.13583119
000230 4f e0 72 bd 21 1d fb bc 49 fc 27 3d f8 60 05 be
       -0.05929595 -0.030653538 0.041012082 -0.13025272
000240 6f 0e 08 bc d9 f5 51 bc 2c 0d fe bd 24 fa 97 3d
       -0.0083042225 -0.012814962 -0.12404856 0.074207574
000250 50 ea b5 3c 13 85 2f bd df 57 24 3d 16 c0 97 bd
       0.022206455 -0.04285152 0.040122863 -0.07409684
000260 dd 16 2f 3c 5e 43 1b 3d 1c a1 18 3e be b6 a0 3c
       0.010686603 0.037906043 0.14905208 0.019618388
000270 c8 39 28 3c 39 8d ba 3c db 77 89 3d 83 ff ad 3d
       0.010267682 0.022772418 0.06712314 0.084960006
000280 48 75 13 3e 83 82 a3 3d 5d 33 bf 3c 39 c1 3a 3d
       0.14400208 0.079838775 0.023339922 0.045594428
000290 d1 29 82 bd 74 3c 08 3e f7 3d 81 bd c1 bf 75 3c
       -0.06355632 0.13304311 -0.06310647 0.014999331
0002a0 22 36 87 bc 93 17 74 3c 37 f5 ac 3d 9f 72 5e bd
       -0.016505305 0.014898199 0.084452085 -0.05430853
0002b0 32 56 8c 3d 01 b1 d5 bd 00 57 5f bd cf 2e d6 3d
       0.06852378 -0.104341514 -0.05452633 0.10458147
0002c0 c9 0d 5d 3d b4 fa fe 3d 69 ef a7 bd 19 ff 5e 3c
       0.053968225 0.124501616 -0.08199961 0.013610625
0002d0 a0 9b 52 3c 9b f6 99 bd 14 1a ff bd 71 ba 12 be
       0.012854487 -0.075177394 -0.12456146 -0.14328934
0002e0 5f 35 4c bc 8e cf 91 3d 5b 81 8a bd a4 f2 60 3d
       -0.012463897 0.07119666 -0.06762954 0.0549189
0002f0 03 7e e8 3d d7 4a bf 3c 06 16 1d bd 9f 92 b4 3d
       0.1135216 0.023351116 -0.03835108 0.08817028
000300 14 15 79 3d c2 c8 8f bd 23 42 7d bd 47 f6 11 bd
       0.060811117 -0.070207134 -0.06183065 -0.03563526
000310 0f 0a 1d bc e8 d9 62 bc 9c 5a b7 3d 0b 62 43 3d
       -0.009584918 -0.013845898 0.08952829 0.047700923
000320 77 29 a1 bb be f3 96 bd e2 73 2b bd 37 d8 e4 3c
       -0.004918273 -0.07370709 -0.04185856 0.02793513
000330 4c c1 c7 bc 4b f6 89 bd ba b2 99 3c 8b 68 5a 3c
       -0.024384163 -0.0673643 0.018761981 0.013330589
000340 c2 6f 75 3d 10 e4 5c ba 40 14 8e bd b0 cf 21 bd
       0.059921034 -0.0008426318 -0.06937456 -0.039504707
000350 bc 35 35 bc d4 a7 ca 3c 40 69 88 bd e0 44 0a 38
       -0.011060175 0.02473823 -0.066607 3.296591e-05
000360 af dd a3 3d 50 59 8f 3c 7c 03 b6 bb a3 53 36 3d
       0.08001267 0.017498642 -0.0055546146 0.044513356
000370 9c da 3e bc 64 0b d2 3c f2 a5 16 3a d6 84 27 3d
       -0.0116488 0.025640197 0.00057467737 0.040898167
000380 0f 8b af bd 2e 7a 03 bd b7 40 39 3d e7 e4 3f bd
       -0.08571445 -0.03209894 0.045227733 -0.046849158
000390 37 d6 5a 3c 9a 5a 19 3d 5c 5b b2 bc f4 ec be 3c
       0.013356737 0.03743992 -0.02177208 0.023306347
0003a0 85 a4 bd bc 6e 12 4f 3d e6 5a 86 3c d0 fa 5f bd
       -0.023149738 0.050554685 0.016400766 -0.054682553
0003b0 e6 27 a4 bd c0 95 ac bc 17 41 8d bd 01 3e 54 bc
       -0.080154225 -0.0210675 -0.068971805 -0.012954236
0003c0 74 93 18 bd d8 e7 ad 3c 11 a5 b1 3c ed 9b 9f bb
       -0.037249997 0.021228716 0.021685155 -0.0048708827
0003d0 a5 39 98 3d 9c ad 52 bc 8b 65 4e 3c 69 87 88 3d
       0.0743287 -0.0128587745 0.012597452 0.066664524
0003e0 4e 05 a8 3d c8 d0 c9 3d 9f 70 24 3c 62 62 73 3b
       0.08204137 0.09854275 0.010036617 0.0037137498
0003f0 ed ee 85 3b 37 0f 59 bc 41 0c 9f 3d 62 1b 4f bd
       0.00408732 -0.013248256 0.07766009 -0.050563224

encoder.project.0.bias f4 [64]
000000 7a 5f cf bd 06 87 f0 3c 3d 95 d9 3d 07 b6 b4 3c
       -0.101256326 0.02936126 0.10624168 0.022059454
000010 10 a7 d0 bc 13 63 f5 bc 78 99 01 3d ec 6a 8d 3c
       -0.025470287 -0.029954469 0.0316405 0.017262898
000020 81 03 d9 3d 99 84 ae bc 93 f8 2e 3d a7 cb 4d 3a
       0.105963714 -0.021303462 0.042717528 0.0007850476
000030 b6 49 25 3d da 62 0a 3e 81 fe c5 bc cf 7f 90 3c
       0.0403535 0.13514271 -0.024169208 0.017639069
000040 a4 0c f5 3d e5 17 ab 3d 0f 06 ea 3c 4a b0 9f bd
       0.11965302 0.08354167 0.028567342 -0.07797296
000050 f8 54 c6 3d 45 ee 8d 3d 3b 5b a2 bd 0e 40 ec bc
       0.09684175 0.06930212 -0.07927557 -0.028839137
000060 45 2b bf 3d 83 2b 0e 3d 6a 10 be 3d f9 c9 ad 3c
       0.09334425 0.034709465 0.092804745 0.021214472
000070 a8 fc 06 bd 92 b2 82 3d 7c 50 86 3d 1a c9 03 3e
       -0.032955796 0.06381716 0.0655832 0.12869683
000080 54 f5 7d 3d ba 7f ea bc 1c d8 9b bb 5b 44 ba bd
       0.06200154 -0.028625358 -0.004755987 -0.09095069
000090 56 fc ad 3d 10 9f 74 bd 78 a6 ad 3d a3 9f a5 bd
       0.08495395 -0.059722006 0.08479017 -0.08087089
0000a0 f9 2f b0 bc 20 15 52 3d da c8 b1 3d 6d 97 11 bd
       -0.02150725 0.051289678 0.086808875 -0.0355448
0000b0 11 31 cd bd 15 86 1f bd 96 37 fd 3d c3 16 d9 3d
       -0.10019124 -0.03894623 0.12364118 0.106000446
0000c0 45 25 57 3d e4 14 d2 3c b2 58 20 bd 5e 39 47 3d
       0.052525777 0.025644727 -0.039147086 0.048638694
0000d0 e0 ae 94 3b c9 0d 28 3d 6b 69 7d bd c6 35 84 3d
       0.0045374483 0.04102877 -0.061868113 0.06455569
0000e0 b0 6a 02 3d 55 1b 6a 3c 1d 1a 30 3d 7a a3 87 bd
       0.031840026 0.014288743 0.042993654 -0.066229776
0000f0 32 7a 0c 3e fc 87 17 3e c5 37 c3 3d 08 b3 ef bc
       0.13718489 0.14797968 0.095321216 -0.029260173

encoder.project.2.weight f4 [8, 64]
000000 18 01 a2 bd 4f db 55 bd 1b f0 e0 3d 30 49 27 bd
       -0.07910365 -0.052211102 0.109832965 -0.04084128
000010 97 ac 7b 3d c3 05 a3 bd d7 50 5e bc 00 98 1f 3d
       0.06144389 -0.07960083 -0.013569078 0.038963318
000020 fe 3e 12 3d c8 18 a4 bd f6 cb 91 bd a7 ac fb 3d
       0.035704605 -0.08012539 -0.071189806 0.1228879
000030 65 69 22 3d 84 17 ad bd 33 d7 0c bd ef ba e4 bd
       0.039651293 -0.08451751 -0.034384917 -0.11168467
000040 ab dc 9f 3d dd 80 1a 3d 98 7a 07 3c 0b 2a 02 3e
       0.07805761 0.03772055 0.008268975 0.1271135
000050 cf 01 ef 3d 05 d5 1d 3d 55 2f 8c 3d 28 84 23 3d
       0.11670267 0.03853323 0.06844965 0.039920956
000060 28 6e c8 3d 90 29 93 bd a5 44 34 3d ef 39 a0 3d
       0.09786636 -0.07185662 0.044010777 0.0782355
000070 07 f3 ce bd 01 f8 51 3d 06 99 96 3c 74 88 0c 3e
       -0.101049475 0.051261906 0.018383514 0.13723928
000080 9f 29 c8 bd 3a 8c 30 3c 70 1f a5 bd 35 21 4b 3d
       -0.097735636 0.01077562 -0.08062637 0.049592216
000090 d0 ce a0 bd be 18 96 bd b2 6d 00 be b1 45 3b 3d
       -0.07851946 -0.07328938 -0.12541845 0.04572076
0000a0 1f c5 ad bd 9a d7 e1 3b 0f d9 e6 3d b5 68 bb 3d
       -0.084848635 0.006892157 0.112718694 0.09150831
0000b0 76 6a 95 bb 70 54 70 bd 39 48 ef 3c 14 83 c9 bd
       -0.0045598103 -0.058674276 0.029209243 -0.09839454
0000c0 a2 f7 0b 3d ab d5 ed bd d8 dd 3a bc 5b ad d9 bd
       0.034171708 -0.116130196 -0.011405431 -0.10628768
0000d0 16 7e 65 bd e9 d8 02 bb 10 c5 67 bd c1 20 b5 bd
       -0.056028448 -0.0019965714 -0.056584418 -0.08844138
0000e0 0c 32 b5 3d 66 a2 09 3e da 75 16 3e 89 3f 2d 3d
       0.08847436 0.13440856 0.14693394 0.04229692
0000f0 53 dd 14 bd ad b9 b3 3d 0d f0 ad bb 72 88 8a 3d
       -0.036343884 0.08775649 -0.0053081573 0.06764306
000100 ab d9 07 bd 15 e6 8f bd 5e 95 a9 3d 7e 69 82 bd
       -0.03316657 -0.070263065 0.08280443 -0.06367777
000110 ad 04 f7 3c c7 94 8f bc f9 2f 4c bd 0c 23 c2 bd
       0.030153597 -0.017526997 -0.049850438 -0.09479341
000120 38 0d 78 bd dc ac bb 3d 33 46 ca 3d db ad a5 bb
       -0.06055948 0.0916383 0.09876671 -0.0050561256
000130 97 d5 b5 bd 0c 4d e1 bd 06 01 a1 3d a8 af b3 bc
       -0.0887863 -0.11001024 0.07861523 -0.021934345
000140 09 b8 01 be 35 eb 32 3d e4 62 18 3d 9d e3 16 3d
       -0.1266786 0.043681342 0.037203684 0.036838163
000150 2c 62 ac 3a b4 8d 71 bb 3b 24 93 bd a1 dc 6f 3d
       0.0013151816 -0.0036858143 -0.07184645 0.058560017
000160 9e 79 ec bd ee f1 09 ba 34 4f 8e 3d 26 e7 6f bd
       -0.11546634 -0.00052621856 0.069487005 -0.05857005
000170 6f 1d 3c 3d 0b 15 f3 3c a6 99 62 bc 61 8d f0 3d
       0.045926508 0.02967312 -0.013830578 0.11745716
000180 ef 33 7d bd cd a6 8a 3c bd 13 c0 bc 29 a7 ce bd
       -0.061817106 0.01692524 -0.023446912 -0.10090477
000190 73 24 da bd 00 7b 10 3d a8 78 67 3c 50 14 65 bd
       -0.106514834 0.035273552 0.014127888 -0.055927575
0001a0 7b 38 82 bd 3c be a0 3c d5 da 9e 3d 2d 0c ae 3d
       -0.06358429 0.01962196 0.07756583 0.08498416
0001b0 3c 87 b9 bd 5b 1e 7d 3d 30 38 9d 3d a9 c2 ea bd
       -0.09058997 0.061796527 0.076767325 -0.1146291
0001c0 aa 53 1d 3d 70 87 12 bd fa 98 09 3c dc 8f 70 3d
       0.038409866 -0.035773695 0.008398289 0.058730945
0001d0 54 81 e5 bd f3 28 88 3d 1b c2 cc bd db c8 4d bd
       -0.11206308 0.066484354 -0.0999796 -0.05024038
0001e0 d5 2f ad 3d 4d 3e 9f 3c 66 e3 06 3e f5 20 03 3d
       0.08456389 0.019438887 0.13172683 0.032013852
0001f0 52 c9 90 3d e8 07 bb bd cd f1 81 bd e3 c0 83 bc
       0.07069649 -0.09132367 -0.06344948 -0.016083186
000200 b8 44 6c 3d 91 5f e1 3d 8e 85 a4 bd 59 65 1a bc
       0.057682723 0.11004556 -0.08033286 -0.009423577
000210 ff dc c4 3d fd 02 df bd 09 c9 dd bd f7 8c e3 3d
       0.09612464 -0.10889242 -0.1082936 0.11110871
000220 ca a2 6c bd 56 5b a0 bd a2 a9 90 bd ed 22 3f bd
       -0.057772435 -0.07829921 -0.07063605 -0.046664167
000230 d0 ac a0 bd 26 74 59 3c 88 bb 06 3d 9a e6 11 bd
       -0.07845461 0.013272321 0.032893687 -0.03562031
000240 b0 51 ba bd 4f 00 6c 3d 95 5b 82 3d 81 77 a8 3d
       -0.09097612 0.05761748 0.06365124 0.082259186
000250 6a 7e 17 3d dd e2 b7 bd 40 9d 86 3d cb 33 ab bd
       0.036985792 -0.089788176 0.06572962 -0.08359488
000260 16 45 e7 3d ef ef cf bc 26 72 5b 3d eb 04 8c bd
       0.11292474 -0.025382964 0.053575657 -0.068368755
000270 63 5f 1d bd 02 fb ec bd 9d 22 61 3d 5a 7a a6 3d
       -0.038421046 -0.115713134 0.05496465 0.081288055
000280 23 26 98 bd 1b ae 07 bc 96 24 ce 3c 1c 87 e9 bd
       -0.07429149 -0.008281256 0.02516393 -0.11402723
000290 b5 10 c8 3d 2c 4f 8d bd 68 6f 64 3d 5c 81 83 3d
       0.097688116 -0.068998665 0.055770308 0.06421158
0002a0 c1 5e e2 3c f1 8c 4b bd 90 ff 2f 3d 31 bb 4a 3d
       0.027633073 -0.04969496 0.042968333 0.049494926
0002b0 a8 32 4d bc 49 25 4a bc 2c 8b a3 bd bb 24 c4 3d
       -0.012524284 -0.012337991 -0.07985529 0.09577318
0002c0 d2 0a 5f 3d 96 35 af 3d 96 af a3 3d 90 6d ce 3d
       0.05445368 0.085551426 0.07992475 0.10079491
0002d0 ba 2d 52 3d 4f 09 96 3d dd 07 70 3d 92 17 df bd
       0.05131314 0.07325994 0.05860125 -0.108931676
0002e0 f4 d8 b2 3d 4a 51 d0 bc ce 25 55 3d 60 84 df bd
       0.08732787 -0.025429387 0.052038006 -0.109139204
0002f0 bc 60 37 bd 86 52 96 3d c2 ee 41 bd 08 ce c7 bd
       -0.044769987 0.07339959 -0.047346838 -0.09756094
000300 96 e4 48 3d 86 4d 9a 3d 41 e1 da 3c 55 2f 10 3c
       0.04904612 0.07534318 0.026718738 0.008800347
000310 9c 8e 13 bd 06 0f 69 bd 1a ed 5b 3d 2a 50 8a bd
       -0.036024675 -0.056899093 0.053692915 -0.06753571
000320 02 a3 f6 bd 30 fa 12 bd 47 2c ba 3d 06 8d 07 be
       -0.1204281 -0.03588313 0.090904765 -0.1323739
000330 9f 8d 84 3d 41 78 db 3d f1 80 6f bd 1d 4a 44 3d
       0.064723246 0.10716296 -0.058472577 0.047922242
000340 de 7c a1 3d 3f 4b b4 bd 06 c1 0b bd 60 37 4f 3c
       0.07885145 -0.088034146 -0.03411963 0.01264748
000350 26 a9 c0 bd 0e 32 b7 bd f9 6f de bc 18 5c ee bd
       -0.094072625 -0.08945094 -0.027153002 -0.11638659
000360 da c5 46 3d 20 4c 9e bc 85 1b 68 bc c5 6a 83 bd
       0.04852853 -0.019323409 -0.014166717 -0.06416849
000370 2f 97 97 3d 0b 84 d9 bd b0 a2 d2 3d cf f1 db bd
       0.07401883 -0.10620888 0.102849364 -0.10739481
000380 23 18 8f bd a2 89 80 3d fa de aa bb f9 7d 32 3d
       -0.069870256 0.062762514 -0.005214569 0.043577168
000390 f5 ee 39 3d d5 5b dd bc 99 24 01 3e d3 f8 96 3d
       0.045393903 -0.027021328 0.12611617 0.07371678
0003a0 0c a2 bc 3d ff 74 9f bb f0 b0 96 3d cc c6 99 3d
       0.092105955 -0.004866242 0.07357967 0.075086206
0003b0 17 53 ee 3d 5c 7e f0 bc ee 72 6d bd 0f a6 9c 3d
       0.11636942 -0.029357128 -0.057970934 0.07648861
0003c0 74 07 02 be db 1c e2 3d 43 e8 6c 3d 29 b8 fb 3d
       -0.12698156 0.1104066 0.05783869 0.12290985
0003d0 3f 65 81 3c 77 d1 7c bd 3c 65 07 3e ba 3c bb bd
       0.015795348 -0.0617232 0.13222212 -0.09142442
0003e0 4f ef d5 bd 8e ee e9 3c ac 24 04 be 6a b4 25 bd
       -0.10446035 0.028556135 -0.12904614 -0.04045526
0003f0 1c 75 cd 3d 30 04 84 3d c2 04 b0 bd e5 82 43 bd
       0.100321025 0.06446111 -0.085946575 -0.047732253

encoder.project.2.bias f4 [8]
000000 30 fb 67 3d 3f a8 d5 bd ca e2 e6 bd 0b e2 0d bd
       0.056636035 -0.10432481 -0.11273725 -0.0346394
000010 c9 82 b6 3d 03 0a 98 3d b6 8a 73 3d 33 a4 a1 bd
       0.08911664 0.074237846 0.059458457 -0.07892647

decoder.gru.weight_ih_l0 f4 [192, 9]
000000 12 fa a5 3c bf 7e f2 bb fe 57 82 3d 59 27 ff 3b
       0.020260844 -0.007400363 0.063644394 0.007786673
000010 a2 9a 53 3d 49 9a 3e bd dc e5 cb 3d 12 a4 41 bd
       0.05166114 -0.046533857 0.099559516 -0.04727561
000020 5a 4e b4 bd 35 11 b8 3b 87 10 33 bd 00 fe d2 3c
       -0.08804007 0.0056172856 -0.043716934 0.025755882
000030 a3 a8 e0 3c cf 70 07 3b 10 31 a9 3d a6 50 97 3d
       0.027424162 0.0020666604 0.08261311 0.07388429
000040 41 b1 9f bd e4 19 38 bd cf 89 d1 bc db 71 42 bc
       -0.077974804 -0.044946566 -0.025578408 -0.011867966
000050 8a 30 7a 3d 8a b9 1e bd 7e bb 55 3d fb 01 aa 3d
       0.061081447 -0.038751163 0.05218076 0.08301159
000060 47 d1 3c bd 52 4f 67 bc 7f 20 46 3d b8 34 1a bd
       -0.04609802 -0.0141180325 0.048370834 -0.037647933
000070 b1 6a 4e bd 3d 76 5c 3d c5 34 01 3e 66 f2 ad bb
       -0.050394718 0.0538237 0.12617786 -0.005308437
000080 11 97 97 3d df 14 de 3c df 13 84 3d 54 9b b7 3d
       0.074018605 0.027109561 0.064491026 0.08965173
000090 d3 89 6e 3d a8 92 f6 bc 33 ac 1c bd 59 b5 3c bd
       0.05823691 -0.030099228 -0.03825016 -0.046071384
0000a0 80 94 8b bd b9 22 81 3c 54 47 04 3d bc 86 b2 bc
       -0.068154335 0.015763627 0.032294586 -0.021792762
0000b0 2f c0 9d 3d 84 80 9c bd ea fa ce bd fa db 20 bc
       0.07702672 -0.076417 -0.10106452 -0.0098180715
0000c0 13 49 b2 bd 56 7f b6 bb bd 06 85 bd f2 40 65 bc
       -0.08705344 -0.005569379 -0.06495426 -0.013992535
0000d0 65 af bf 3b 7a c4 93 3d c2 8f 87 bc 0a 97 9f 3d
       0.005849766 0.07215209 -0.016548041 0.0779248
0000e0 a4 f6 da bd 26 60 a5 3d 64 15 f5 3d 44 7c ac bc
       -0.10691574 0.080749795 0.119669706 -0.021055348
0000f0 8c e4 53 bd 3d f2 39 bd 46 c3 ac 3d 4a 32 be 3d
       -0.05173163 -0.045397032 0.08435683 0.092869356
000100 d9 3e 2d bd 39 05 88 3c 98 28 a4 bd e5 6f db 3c
       -0.042296264 0.016604053 -0.08015555 0.026786754
000110 c1 73 5a bd b8 7a 12 bd 62 65 ff bc e6 c0 90 3d
       -0.053333048 -0.035761565 -0.031176273 0.070680425
000120 f4 29 9f bd c1 ee a5 bc 70 a1 85 3d 89 74 7d bd
       -0.07771674 -0.020255448 0.065249324 -0.061878715
000130 95 c0 0b bd 13 ee ea bd 60 37 3d 3b be 04 66 bd
       -0.034119207 -0.1147119 0.0028872117 -0.056156866
000140 93 fa 18 3d 25 bb 38 bd 0e d2 c7 bc ac 3f c9 bb
       0.03734834 -0.04510035 -0.024392154 -0.0061416235
000150 63 e9 0a 3d 07 7f 94 bc e0 05 38 bd 92 7b 90 bd
       0.03391398 -0.018126978 -0.044927478 -0.07054819
000160 ea 3e 7b 3c 3e 40 70 3c bf a3 b0 bc 41 cd aa bc
       0.015334824 0.014663754 -0.021562455 -0.020849826
000170 c0 5f e0 3c bc 62 a0 bd c5 ee 0a 3d e6 72 16 3d
       0.027389407 -0.07831332 0.033919115 0.03673067
000180 ce d2 ea bd 82 42 df 3b bb 14 bf bc 49 91 03 bd
       -0.11465989 0.0068133483 -0.023325315 -0.032120977
000190 d6 6f 12 bd 91 37 50 bd b7 10 3f bc 03 9b e6 bc
       -0.035751186 -0.050834242 -0.0116617 -0.028150087
0001a0 68 3d 97 3d d7 f3 2b bc 68 db 85 bd 41 bf a2 bb
       0.07384759 -0.010495148 -0.06535989 -0.004966647
0001b0 8d 47 14 3c cc 11 cc bc 07 9b e4 bc f8 9f a5 bc
       0.009050262 -0.02491083 -0.027905954 -0.02021788
0001c0 4c 87 9e 3d 6f 52 c3 bc 2f 0b 5a bd af d6 d0 bc
       0.077406496 -0.023843018 -0.05323332 -0.025492994
0001d0 0d 53 73 3d 7b b9 8b bd ca 6f 3d ba b0 38 73 3d
       0.059405375 -0.06822487 -0.00072264357 0.059380233
0001e0 83 3a 2c 3d 68 15 95 3d 1c f1 39 bd 9f dd 0c bd
       0.04204799 0.072794735 -0.045395955 -0.03439104
0001f0 60 bc 10 bb 20 ad 20 3e 18 3f 55 bb 34 2d a9 bd
       -0.0022084936 0.15691042 -0.0032538828 -0.08260575
000200 6f ec af bd d8 c1 0e bd d0 1f 59 bd 5d 34 80 bc
       -0.08590018 -0.034852833 -0.053008854 -0.015649969
000210 43 bd 59 bd d3 58 2e 3d c9 cd d1 3d 74 cf 62 3d
       -0.05315901 0.042565178 0.102443285 0.055373624
000220 9c 8a e8 3c 70 3c 56 bb ac 0e a2 bd 70 02 83 bd
       0.028386407 -0.0032689832 -0.07912955 -0.06396949
000230 32 e2 6f 3c a2 21 05 bd 16 7a 0d bc 33 12 68 3d
       0.0146413315 -0.032502778 -0.008635065 0.05665798
000240 04 ea fa bc cc d7 ff bd 2d 76 c8 3c e5 df 82 3d
       -0.030629165 -0.12492332 0.024470413 0.06390361
000250 47 23 d4 3c 0b 52 f1 bc ad ce 88 3c db d0 94 3d
       0.025895728 -0.029458066 0.016700113 0.072663985
000260 c2 34 bf bc 4b e1 82 bc 82 50 b4 3a 8f a0 9e 3d
       -0.023340587 -0.015976569 0.0013756903 0.07745468
000270 e7 e5 a9 3c ce 84 8c 3d 0a 60 b1 bc 1e 41 21 3d
       0.020739509 0.06861268 -0.02165224 0.03936874
000280 55 8e cc bd 02 b9 86 3c f0 98 42 bc be 19 be bd
       -0.09988085 0.01644564 -0.011877283 -0.09282254
000290 12 74 89 bd 72 c2 a3 bd a2 c0 84 bd 13 70 91 bc
       -0.06711592 -0.07996072 -0.06482054 -0.017753636
0002a0 46 30 51 bc 29 e8 04 bd a3 cf 91 3d c8 9c 25 bd
       -0.012767857 -0.032447968 0.07119682 -0.04043272
0002b0 48 74 94 bd 7c 85 70 3c 27 8b 04 3d e9 f0 b9 bd
       -0.072487414 0.014680263 0.03235927 -0.09079153
0002c0 4d ba bc bd bb 31 20 3c c5 98 5f 3c f8 0b 1a bd
       -0.092152216 0.009777482 0.013647263 -0.03760907
0002d0 e1 62 83 bd 9a da 8d 3c 22 66 51 bd 52 0b 9b 3d
       -0.06415344 0.017316151 -0.051122792 0.075705186
0002e0 5f 4a 23 3c b4 be 80 3d e2 b5 4e 3d 98 28 13 3d
       0.009966462 0.06286374 0.050466426 0.035927385
0002f0 ea f5 e3 3b 21 67 1f bd c4 21 75 bc 82 40 37 3d
       0.0069568055 -0.03891671 -0.014961664 0.044739254
000300 7f c4 f4 bc c1 9d 2a bd dc 56 66 bd 05 46 fa bc
       -0.029878853 -0.041654352 -0.05623518 -0.030550966
000310 d4 cd d1 bc 58 b3 e6 bc d2 f2 be 3c 62 3e 92 bd
       -0.025610842 -0.02816169 0.023309145 -0.07140805
000320 87 7c 28 bc ee 5e 64 bd c8 38 ab bb f8 0c 14 3c
       -0.010283596 -0.055754595 -0.0052252747 0.009036295
000330 0b 53 cd 3c 26 cf be bc cf 3f 0c 3c c9 2f a7 3c
       0.025064012 -0.023292135 0.008560135 0.020408528
000340 cf 11 48 bd 48 75 a0 3c c1 e5 ec bc 56 8b 71 3b
       -0.04884511 0.019587174 -0.028918149 0.0036856732
000350 82 7e ca 3b 23 29 ff ba ec d1 85 39 04 eb ec 3d
       0.0061796317 -0.0019467216 0.0002552414 0.11568263
000360 c8 f6 64 3c 70 7d 93 3d 25 de 31 bd 2e 1b aa 3d
       0.013974853 0.0720166 -0.043424744 0.08305965
000370 58 e3 c5 bc 3d a7 1d bd 49 77 ac 3c 1e 24 7b 3c
       -0.024156258 -0.03848957 0.021052973 0.015328435
000380 99 59 8a bd 52 dc cd bc 00 46 ea b8 d1 ab e5 3c
       -0.06755371 -0.025129471 -0.00011171028 0.02803603
000390 a5 a4 0e bd d1 f8 a9 bd e8 bf 85 bd a1 ec b9 3d
       -0.034824986 -0.08299411 -0.06530744 0.090783365
0003a0 b7 e2 a5 3c d0 89 da 3d 3d f5 37 bd 5b de d1 bd
       0.020249708 0.10670817 -0.04491161 -0.10247489
0003b0 a0 32 aa 3c 36 3f ec bd fb 30 8a 3d 7a a3 83 bd
       0.020776093 -0.11535494 0.067476235 -0.06427665
0003c0 42 d0 fd 3c bf 6a a6 bd d3 bf 87 3d 8e 59 7d ba
       0.030983094 -0.08125829 0.066283844 -0.0009664529
0003d0 e3 d5 2c bc 8b f7 ae bc dd f4 34 bd ea 50 bd 3a
       -0.010549041 -0.021358272 -0.044178832 0.001444367
0003e0 89 27 03 3d ee 0e 10 bb 33 a0 48 bc 5a a8 bb 3b
       0.032020126 -0.0021981555 -0.012245226 0.005726856
0003f0 bc 11 5a bd b4 77 9c 3b fc d9 9a ba ba 6a a9 bd
       -0.05323957 0.004775012 -0.0011814232 -0.082723096
