my_latent_sde/sdes/best_sde_0.pth (torch, 195957 bytes, 30 tensors)

encoder.gru.weight_ih_l0 f4 [192, 2]
0	0xbd87ea5e	-0.06636499
1	0x3d97ad83	0.074061416
2	0xbdf9cfd2	-0.12197842
3	0x3d1207d1	0.035651986
4	0xbdadc465	-0.08484725
5	0xbe02d307	-0.12775813
6	0xbaa5dc8e	-0.0012654231
7	0xbcf50d12	-0.029913459
8	0xbdb3da36	-0.08781855
9	0x3dc67fc3	0.09692337
10	0xbaa8caa2	-0.0012877772
11	0x3d2476ee	0.040152483
12	0x3d967f9f	0.073485605
13	0xbd6fbae8	-0.058527857
14	0x3db29336	0.087194845
15	0xbdb34b91	-0.087546475
16	0xbdd75ecb	-0.10516127
17	0x3d514ee5	0.05110063
18	0x3d093144	0.03349425
19	0x3b805623	0.0039165183
20	0xbcdac9b3	-0.026707506
21	0x3c2c5f0b	0.010520707
22	0x3d008754	0.03137906
23	0x3c0cd747	0.008596248
24	0x3d6a29e0	0.05716884
25	0xbc0e44cf	-0.008683397
26	0x3d864cb4	0.06557599
27	0xbd80b475	-0.062844194
28	0xbd15a6a1	-0.036535863
29	0xbd711235	-0.058855254
30	0x3dd2a1b1	0.102847464
31	0xbd82b7f1	-0.0638274
32	0xbd21ce35	-0.039503295
33	0xbb83b56a	-0.004019429
34	0x3d50849f	0.050907727
35	0x3dc3fa0f	0.09569179
36	0x3dae5819	0.08512897
37	0xbd310454	-0.04321702
38	0x3d329ec4	0.043608442
39	0xbcf78dc9	-0.030218976
40	0xbd14c968	-0.03632489
41	0x3cc78cd4	0.024359144
42	0x3b4a87b5	0.0030903642
43	0xbaccf301	-0.0015636386
44	0xbc835cc6	-0.016035449
45	0x3b500d46	0.0031746193
46	0x3be026ec	0.0068405773
47	0x3df00096	0.11718862
48	0x3bfb0f84	0.0076617617
49	0xbd244806	-0.04010775
50	0xbbf1f0c8	-0.0073834397
51	0x3ded77b2	0.11595096
52	0xbdcb3709	-0.099226065
53	0xbcf0cee2	-0.029395524
54	0xbd4cd811	-0.050010744
55	0xbd864295	-0.06555668
56	0xbd484933	-0.048897933
57	0x3c6e5b61	0.014548154
58	0x3d7dd84f	0.061973866
59	0x3bb9c0b3	0.0056687235
60	0xbc780475	-0.015137781
61	0xbdf686e8	-0.1203745
62	0xbddec784	-0.10877898
63	0x3bdb6664	0.0066955555
64	0x3d8e30ed	0.069429256
65	0x3d92539e	0.07144855
66	0xbdb7a430	-0.08966863
67	0xbd98975b	-0.07450744
68	0xbdc4818c	-0.095950216
69	0xbdbb1b54	-0.09136072
70	0xbdd66da7	-0.10470133
71	0xbd5cce25	-0.053907532
72	0x3db75c38	0.08953136
73	0x3cfd6da9	0.03093608
74	0x3ded146a	0.11576159
75	0xbde23182	-0.11044599
76	0x3cbc1544	0.022959359
77	0x3d0d5a74	0.03451009
78	0x3d57eae3	0.05271424
79	0xbdeaf8cf	-0.11473238
80	0x3d72b6d8	0.059256405
81	0x3d8e58b2	0.06950511
82	0x3d114841	0.035469297
83	0x3d76f119	0.060288522
84	0x3cd93830	0.02651605
85	0x3cf26a69	0.029591756
86	0x3da1b94b	0.0789667
87	0x3d622e93	0.055220198
88	0xbcb9785f	-0.022640405
89	0x3cf96f0e	0.030448463
90	0xbd52f92c	-0.05150716
91	0xbd3c484d	-0.04596739
92	0x3da2b6b2	0.079450026
93	0xbdb87095	-0.09005848
94	0xba014378	-0.0004931013
95	0xbc9fbed1	-0.019500168
96	0x3d8bc3dd	0.06824467
97	0xbc80d897	-0.015728278
98	0xbd9c150d	-0.076212026
99	0x3d8821bd	0.0664706
100	0xbc4ed0cc	-0.012623023
101	0xbc97ad17	-0.018515153
102	0x3d3af692	0.045645304
103	0x3cf98ba4	0.030462094
104	0xbdd80937	-0.105486326
105	0xbcad3d4a	-0.021147389
106	0x3dedd7fb	0.11613461
107	0x3de7c1ff	0.11316299
108	0x39624e48	0.00021582202
109	0xbdca66bb	-0.098828755
110	0xbd19ce57	-0.037550297
111	0x3da575bd	0.080790974
112	0xbd9d2984	-0.07673934
113	0x3d12bc03	0.035823833
114	0x3de954a8	0.113931
115	0xbbcdcd9b	-0.0062806136
116	0xbdbce339	-0.09223027
117	0xbdf24458	-0.11829442
118	0x3d93e69f	0.07221722
119	0xbd33689d	-0.04380094
120	0xbc93a905	-0.01802493
121	0x3d781dbb	0.06057523
122	0xbcf4de4e	-0.02989116
123	0xbc7da96f	-0.015482291
124	0xbd9ace8a	-0.075589254
125	0xbc9b61e4	-0.018967576
126	0x3d51692e	0.051125698
127	0x3dbb53d5	0.09146849
128	0xbc981657	-0.01856534
129	0x3d2ad970	0.04171127
130	0xbae67e42	-0.0017585235
131	0x3db2e1a5	0.087344445
132	0xbd741bb7	-0.059596743
133	0x3bfac114	0.0076524112
134	0x3d90477e	0.07044886
135	0x3dc5075b	0.096205436
136	0xbd389dba	-0.045072295
137	0x3dee0120	0.11621308
138	0x3b1b1575	0.0023663912
139	0x3d9a2130	0.07525861
140	0xbbda49ed	-0.0066616447
141	0xbde75144	-0.11294797
142	0xbd4a5839	-0.049400542
143	0x3c11fc52	0.0089102555
144	0xbd492581	-0.049108032
145	0xbdb80384	-0.089850456
146	0xbdd52694	-0.10407749
147	0x3cd1c3c2	0.02560604
148	0xbc735727	-0.014852322
149	0xbd082d62	-0.033246405
150	0x3d3a2334	0.04544373
151	0x3d9f34e1	0.07773758
152	0x3da0d812	0.07853712
153	0x3dbc3a85	0.09190849
154	0x3d8b9d33	0.06817093
155	0xbd00792b	-0.031365555
156	0xbd93c9a0	-0.07216191
157	0x3c988884	0.018619783
158	0x3d816551	0.06318153
159	0x3ddc372b	0.1075271
160	0x3c248f8b	0.010043989
161	0xbcad4bd5	-0.021154324
162	0x3d75f3eb	0.06004707
163	0xbc8b7f8e	-0.017028596
164	0x3dc76f8c	0.09738073
165	0xbbd83374	-0.0065979306
166	0xba8bd1e4	-0.0010667411
167	0xbdad0339	-0.0844788
168	0x3de1914c	0.11014041
169	0xbd4b399d	-0.04961549
170	0x3d46a033	0.04849262
171	0xbd6fb966	-0.05852642
172	0x3a06f9f4	0.000514894
173	0xbc89a9bf	-0.016804574
174	0x3dcad94e	0.09904729
175	0xbdcb3ddf	-0.0992391
176	0xbd4cd84f	-0.050010975
177	0xbd0cd340	-0.03438115
178	0xbdca69b6	-0.09883444
179	0x3d77209f	0.060333844
180	0x3d00949f	0.031391736
181	0x3deb80ed	0.114992
182	0x3d6da8c1	0.058022264
183	0x3d3b468f	0.045721587
184	0x3debb3c3	0.11508896
185	0x3c0ce504	0.008599523
186	0x3dce33cc	0.10068473
187	0x3d42f734	0.047599033
188	0x3dd59a7b	0.104298554
189	0xbd8339c4	-0.06407502
190	0xbc8a362e	-0.016871538
191	0xbddb75e3	-0.107158445
192	0x3d9ad508	0.07560164
193	0xbd08fa9b	-0.03344212
194	0x3d871a1b	0.06596776
195	0x3d8ca481	0.06867314
196	0xbdd12074	-0.10211268
197	0xbb46ac66	-0.003031516
198	0xbb8de482	-0.004330219
199	0x3ce5ecda	0.028067041
200	0xbdea5a69	-0.114430256
201	0xbd0c4631	-0.034246627
202	0x3de4b209	0.1116677
203	0xbd6f6b9b	-0.05845223
204	0xbdef4e5a	-0.11684866
205	0x3d25be8a	0.040464915
206	0x3cf08fc6	0.029365432
207	0xbd2c1c0c	-0.042018935
208	0x3d84f228	0.064915
209	0xbc8ae913	-0.016956842
210	0x3ddca0fa	0.10772891
211	0xbd2474a9	-0.04015032
212	0xbdb9be09	-0.090694495
213	0x3c8140a7	0.015777899
214	0xbdd94dbd	-0.106105305
215	0xbddc54a4	-0.107583314
216	0x3d8c8739	0.06861729
217	0x3de1053b	0.10987326
218	0x3d259373	0.04042382
219	0xbdb60bdb	-0.0888898
220	0x3dedcd8d	0.11611471
221	0x3dbd755c	0.092509
222	0xbc062516	-0.008187553
223	0x3ba34c97	0.0049834955
224	0x3dc24f1a	0.09487744
225	0x3dde3f19	0.10851879
226	0xbd34d709	-0.044150386
227	0xbd1c336b	-0.038134973
228	0xbd59ce15	-0.05317505
229	0x3c681cc1	0.014167012
230	0xbde94556	-0.11390178
231	0xbc226fc9	-0.009914347
232	0x3c1df5c4	0.009641115
233	0xbd06d2a7	-0.032915737
234	0x3d221ad8	0.03957638
235	0xbd71be28	-0.059019238
236	0xbdaff33a	-0.08591314
237	0xbd4537b9	-0.048148844
238	0x3c97c29e	0.018525418
239	0x3de0b9fb	0.10972973
240	0x3dc6c3e5	0.09705333
241	0x3bcc3927	0.006232399
242	0x3c14bc0c	0.009078037
243	0xbd23bf6a	-0.03997747
244	0xbcda315d	-0.026634866
245	0x3d63adff	0.055585857
246	0xbdcd9de7	-0.10039883
247	0x3be2a057	0.0069160867
248	0xbd9ab942	-0.075548664
249	0xbdd4339a	-0.10361405
250	0xbd079167	-0.03309765
251	0xbcd94c16	-0.026525538
252	0xbd3df381	-0.0463748
253	0xb91156d0	-0.00013860618
254	0xbd7e6292	-0.062105723
255	0x3d05d5af	0.032674488

encoder.gru.weight_hh_l0 f4 [192, 64]
0	0x3d8e702b	0.06954988
1	0x3d5b5446	0.053547166
2	0xbd848cbd	-0.06472156
3	0xbdd65f34	-0.10467377
4	0xbdbb8956	-0.09157054
5	0x3da86c49	0.08223779
6	0x3d8b021e	0.06787513
7	0xbc430e70	-0.011905298
8	0xbd985b52	-0.07439293
9	0xbdd6c148	-0.10486084
10	0xbc9660d0	-0.01835671
11	0xbdeec132	-0.11657943
12	0xbdc3bf09	-0.095579214
13	0xbdb99366	-0.09061317
14	0x3dd8a306	0.10577969
15	0x3de972bf	0.11398839
16	0xbd81da71	-0.063404925
17	0x3d61f818	0.05516824
18	0x3d3440ba	0.04400704
19	0xbb61ef2f	-0.003447484
20	0x3dc89b2f	0.09795224
21	0x3cd47e11	0.02593902
22	0x3d92ad46	0.071619555
23	0xbcee3719	-0.029079007
24	0xbdc03750	-0.0938555
25	0x3dcfc7ce	0.101455316
26	0xbc64cb1a	-0.013964439
27	0x3d5c306d	0.05375712
28	0xbd2be4d1	-0.041966263
29	0xbdb9c63d	-0.09071014
30	0xbd0c772d	-0.034293342
31	0xbdaeb8e3	-0.08531358
32	0xbd348b70	-0.04407829
33	0xbdaa50db	-0.08316203
34	0xbd299115	-0.041398127
35	0xbd59022c	-0.052980587
36	0x3def194f	0.11674749
37	0xbc9415e5	-0.018076846
38	0xbdebc0e0	-0.11511397
39	0x3d4308df	0.047615882
40	0xbde8d942	-0.11369564
41	0x39b9dddc	0.00035451248
42	0xbdba9c84	-0.09111884
43	0x3c17a726	0.00925616
44	0xbd12f082	-0.035873897
45	0x3de5d74b	0.112227045
46	0x3d2cfeb5	0.042235095
47	0xbdc3bcdc	-0.095575064
48	0xbd897e66	-0.06713562
49	0x3da44095	0.080201305
50	0x3ccc9e16	0.024977725
51	0x3d2b3354	0.041796997
52	0xbdcb58d7	-0.09929054
53	0xbda2ebd4	-0.07955137
54	0xbd8822b6	-0.066472456
55	0xbcfd4a91	-0.030919345
56	0xbd2b83ca	-0.04187373
57	0xbd9470b4	-0.07248059
58	0x3de518ce	0.11186372
59	0x3d3a85ee	0.04553788
60	0xbd0deeef	-0.034651693
61	0x3d1ce26b	0.038301867
62	0xbbc64291	-0.006050416
63	0x3cedc648	0.029025212
64	0x3d322f4c	0.043502137
65	0xbdcdcd4d	-0.10048924
66	0xbd9122c0	-0.07086706
67	0x3d5ed10c	0.05439858
68	0x3d7d8e6d	0.061903406
69	0x3a1a1f06	0.00058792566
70	0x3c92c738	0.01791726
71	0xbccf0c59	-0.025274443
72	0x3d9307ac	0.07179198
73	0x3cd58418	0.026063964
74	0x3dd44775	0.10365192
75	0x3ce5721b	0.028008511
76	0xbc38a2df	-0.0112693
77	0xbd893f6f	-0.06701552
78	0xbd4f50eb	-0.05061428
79	0x3dec13c4	0.115272075
80	0x3b73c9cc	0.0037199138
81	0x3bbfdea8	0.0058554
82	0xbdb12291	-0.08649171
83	0xbd2dee17	-0.04246339
84	0xba9744ea	-0.0011540924
85	0xbd1217b6	-0.035667144
86	0x3d9dea59	0.07710714
87	0xbc608996	-0.013704678
88	0xbd3bece3	-0.04588021
89	0x3dcdc500	0.100473404
90	0xbde670b3	-0.112519644
91	0xbd3646d5	-0.044501144
92	0x3dcf2e9d	0.10116313
93	0xbcc4ea51	-0.024037512
94	0x3d213eca	0.03936652
95	0x3dcf80da	0.10131998
96	0x3d700e9f	0.058607694
97	0x3dcc750e	0.09983264
98	0xb9493022	-0.00019186785
99	0xbdc685db	-0.096935
100	0xbddcd61e	-0.10783027
101	0xbdea0bff	-0.11428069
102	0xbde35648	-0.11100441
103	0xbcf327f4	-0.029682137
104	0xbc56fe05	-0.013122086
105	0x3ce3ed1d	0.027823025
106	0x3d168f07	0.036757495
107	0xbd20d2df	-0.039263602
108	0x3db5f1ff	0.08884048
109	0x3b976ae5	0.004620897
110	0x3dbc15d9	0.091838546
111	0xbdcb923d	-0.09940002
112	0x3d40fa57	0.047113743
113	0xbd22566a	-0.039633192
114	0xbcc31b3a	-0.023816694
115	0x3cbf29e9	0.023335414
116	0x3d31a29a	0.04336796
117	0xbd397817	-0.045280542
118	0xbd8d2cf9	-0.068933435
119	0x3d36b382	0.044604786
120	0xbdac8838	-0.08424419
121	0xbc0c0b0b	-0.008547555
122	0x3bc3eb26	0.0059789596
123	0x3d6e1684	0.05812694
124	0x3d335405	0.0437813
125	0xbd699887	-0.057030227
126	0x3d32f4b9	0.043690417
127	0xbdc24e86	-0.094876334
128	0x3c7c8791	0.015413181
129	0x3c2f5cd9	0.010703289
130	0xbdae1c3a	-0.085014775
131	0xbd3a4058	-0.04547152
132	0x3cbcc72a	0.023044188
133	0xbde0c8a6	-0.10975771
134	0x3ddbf3e7	0.1073988
135	0x3dc85624	0.09782055
136	0x3d13089d	0.035896886
137	0x3d0ef7a7	0.03490415
138	0xbd2709ce	-0.040780835
139	0xbcf11152	-0.029427204
140	0x3db39be9	0.08769972
141	0x3d8530ee	0.06503473
142	0x3d638788	0.055549175
143	0x3d52e1d2	0.05148489
144	0x3d36b865	0.044609446
145	0xbdc99162	-0.09842183
146	0x3cbcb719	0.023036527
147	0x3d8599a3	0.065234445
148	0xbd31a719	-0.043372247
149	0x3d71e299	0.05905399
150	0xbdb4e942	-0.08833553
151	0xbd07fc54	-0.033199623
152	0xbda8fc02	-0.08251192
153	0x3d9a4616	0.07532899
154	0xbd30dfd1	-0.043182198
155	0x3db4bbc4	0.08824876
156	0xbd3abd2a	-0.045590557
157	0xbdc13f59	-0.09435911
158	0xbd955dd1	-0.07293285
159	0x3dca05ab	0.09864362
160	0x3db28ecc	0.087186426
161	0x3dd18337	0.10230105
162	0xbd063f45	-0.032775182
163	0xbddf7783	-0.10911467
164	0x3c832bc9	0.01601209
165	0x3de642ca	0.11243208
166	0x3daf7365	0.08566932
167	0x3cfa20c9	0.030533211
168	0x3ce3a34e	0.02778783
169	0x3dab6bad	0.08370147
170	0x3de3a6e2	0.11115815
171	0x3de2a6bf	0.110669605
172	0x3d4f3dd8	0.05059609
173	0xbdac1d58	-0.084040344
174	0x3c981653	0.018565333
175	0xbd7fbc5f	-0.062435504
176	0xbc491be2	-0.012274714
177	0xbd9ab147	-0.07553344
178	0xbdadd4c1	-0.08487845
179	0x3cb5a0b6	0.02217136
180	0x3d82c1f8	0.06384653
181	0x3d4bfd0d	0.049801875
182	0xbd807c22	-0.062736765
183	0xbdc48796	-0.095961735
184	0x3d57e45f	0.052708026
185	0x3d1f3846	0.038872026
186	0xbd6c38b5	-0.057671268
187	0x3cea8720	0.028628886
188	0x3dec2285	0.115300216
189	0x3d620772	0.05518288
190	0x3d5f27f2	0.054481454
191	0x3d5e2ac8	0.054240018
192	0x3db8bad2	0.09020008
193	0xbc674c58	-0.014117323
194	0x3d0b6227	0.034029152
195	0xbda2e682	-0.07954122
196	0x3d15cf1d	0.03657447
197	0xbd99f4a6	-0.07517366
198	0x3db99b0c	0.09062776
199	0x3da836db	0.08213588
200	0xbd286980	-0.041116238
201	0xbd8acb3c	-0.06777045
202	0x3ba6536f	0.005075864
203	0xbd23b30f	-0.039965685
204	0xbdddf54e	-0.10837804
205	0xbc7385bc	-0.014863428
206	0xbc1cb652	-0.009564953
207	0x3dbaf3e9	0.091285534
208	0x3dd445b5	0.10364858
209	0xbdd87f42	-0.105711475
210	0xbb90beab	-0.0044172606
211	0xbd874d23	-0.066065095
212	0x3d97bd66	0.07409172
213	0x3d70b0a4	0.058762208
214	0x3d12722f	0.035753425
215	0x3d51b699	0.05119953
216	0x3d4204a0	0.047367692
217	0xbd4b9b8d	-0.04970889
218	0xbd26c160	-0.04071176
219	0x3cab0679	0.02087711
220	0xbd41f06c	-0.047348425
221	0xbdb51c87	-0.08843332
222	0x3d95814b	0.07300051
223	0x3c115251	0.008869723
224	0xbdbecd45	-0.09316496
225	0x3d8632bd	0.06552646
226	0xbd84fbe4	-0.06493357
227	0x3cd3a913	0.025837457
228	0xbde9fd9d	-0.11425326
229	0xbceebf2b	-0.02914389
230	0xbb80bfb7	-0.003929104
231	0xbc786971	-0.015161858
232	0x3dda7b83	0.10668089
233	0x3dd4ce0f	0.10390865
234	0xbdcab2ef	-0.0989741
235	0x3d85bca0	0.06530118
236	0x3c2ab512	0.010419147
237	0xbdc20acc	-0.094747156
238	0xbd5cf4e7	-0.053944495
239	0x3da66065	0.081238545
240	0x3d95523f	0.07291078
241	0xbdc8303c	-0.09774825
242	0xbd5675e6	-0.05235853
243	0xbdae42c3	-0.085088275
244	0x3d7580ae	0.05993717
245	0xbddc6af0	-0.10762584
246	0xbd420e3e	-0.047376864
247	0x3dda4f71	0.106596835
248	0x3c77fadc	0.015135493
249	0xbba94430	-0.0051655993
250	0x3da971a0	0.082736254
251	0x3b31bbab	0.0027119915
252	0x3d1a1623	0.037618767
253	0x3dcfe452	0.101509705
254	0xbd44492d	-0.04792135
255	0xbddc83e5	-0.107673444

encoder.gru.bias_ih_l0 f4 [192]
0	0x3d6a2bb9	0.057170603
1	0xbde1c378	-0.11023611
2	0x3c46e172	0.012138711
3	0x3d98ae80	0.07455158
4	0xbd448ef1	-0.047987882
5	0xbdadbf59	-0.08483762
6	0x3dadc80b	0.08485421
7	0x3d4b825f	0.04968488
8	0xbd247a29	-0.040155564
9	0x3d157b51	0.036494557
10	0xbd330397	-0.043704595
11	0xbda2ed31	-0.07955397
12	0xbd229f46	-0.039702676
13	0xbd09ef8c	-0.033675715
14	0xbc6f3cb3	-0.014601874
15	0x3da1c9d5	0.078998245
16	0xbd563594	-0.05229719
17	0x3d5cb269	0.053881083
18	0xbcfa0e35	-0.030524353
19	0x3db99359	0.090613075
20	0xba629038	-0.0008642706
21	0xbdea5c1b	-0.11443349
22	0x3da95a40	0.08269167
23	0xbdba3dba	-0.09093805
24	0xbc97be36	-0.018523317
25	0x3dc81502	0.09769632
26	0x3dba5ab4	0.090993315
27	0x3c988fe5	0.018623302
28	0x3d216271	0.03940052
29	0x3d2c99ba	0.042138793
30	0x3db0ce1b	0.086330615
31	0xbcd89ead	-0.02644285
32	0x3cdac00c	0.026702903
33	0x3decc0e7	0.11560231
34	0xbd82805a	-0.06372137
35	0xbce3db4f	-0.027814535
36	0x3dd8217c	0.10553262
37	0xbd679c9c	-0.05654584
38	0xbd5a79cd	-0.053338815
39	0x3dd495ef	0.1038016
40	0xbca30bb0	-0.019903034
41	0xbdb6c2ba	-0.0892386
42	0x3d379752	0.044822045
43	0xbdbc0764	-0.09181097
44	0x3d69f451	0.057117764
45	0xbda3f4a4	-0.08005646
46	0xbdccd9c0	-0.1000247
47	0xbd860ddc	-0.06545612
48	0xbdcefdcc	-0.10107002
49	0xbdbe61f9	-0.092960306
50	0x3ddcc075	0.10778896
51	0x3dd9f3d6	0.10642211
52	0xbdc124cf	-0.09430849
53	0x3bab7e3e	0.005233555
54	0x3dbf5afb	0.09343525
55	0xbd88c971	-0.06679047
56	0x3d38765b	0.045034748
57	0xbd830594	-0.06397548
58	0xbdd523ed	-0.10407243
59	0x3da1411c	0.07873747
60	0xbd77f136	-0.06053277
61	0x3daa5c3b	0.08318373
62	0x3d6ca7bb	0.057777148
63	0x3d19aa9f	0.037516233
64	0x3d2e804b	0.04260282
65	0x3ceb4775	0.028720597
66	0x3c352657	0.011056504
67	0x3d6ae88a	0.057350673
68	0xbdd7ecae	-0.1054319
69	0x3a9a52ec	0.001177398
70	0xbdc78992	-0.09743036
71	0x3d98eb10	0.074667096
72	0xbcd3bc0b	-0.025846502
73	0x3dc7c09c	0.09753534
74	0x3db99df5	0.09063331
75	0x3de40b3b	0.111349545
76	0xbd968f05	-0.073514976
77	0x3bdb6f86	0.0066966442
78	0xbd49c47f	-0.04925966
79	0xbda7157f	-0.08158397
80	0x3d315866	0.043297194
81	0xbd229b0a	-0.039698638
82	0xbde09313	-0.10965552
83	0xbdb0b29e	-0.086278185
84	0xbd8c7bd1	-0.068595536
85	0xbac128a6	-0.0014736846
86	0xbbf56fc7	-0.0074901315
87	0x3d5d8f92	0.054091997
88	0x3daf4440	0.085579395
89	0xbd175410	-0.036945403
90	0xbd426c8f	-0.04746681
91	0xbd8302c9	-0.063970156
92	0xbd17661f	-0.036962625
93	0x3c0f0653	0.008729535
94	0xbca0e64b	-0.019641062
95	0xbd905240	-0.07046938
96	0x3db940a0	0.09045529
97	0xbd414679	-0.04718635
98	0xbd94d9b9	-0.0726809
99	0xbd0809a7	-0.03321233
100	0xbdc3fcef	-0.09569728
101	0xbdc0e77e	-0.09419154
102	0x3c2ba41c	0.010476138
103	0xbd9c2126	-0.0762351
104	0xbd3c1564	-0.045918837
105	0x3d03eb43	0.032206785
106	0x3d8a5668	0.06754762
107	0xbdbed427	-0.093178086
108	0x3db44be4	0.088035375
109	0xbc264c1e	-0.010149984
110	0xbd4575f5	-0.048208196
111	0x3d5c2485	0.053745765
112	0xbd6916c3	-0.056906473
113	0x3d8a9aee	0.06767832
114	0xbdbc615b	-0.091982566
115	0xbd029f58	-0.031890243
116	0x3da1776f	0.07884108
117	0x3cb49518	0.02204375
118	0xbdb80a87	-0.08986383
119	0xbd867b6e	-0.06566511
120	0x3d490393	0.049075674
121	0x3d6718c8	0.056420118
122	0x3d749cc0	0.0597198
123	0x3ca634c9	0.020288842
124	0x3dc35cae	0.095391616
125	0xbda4cee8	-0.08047277
126	0x3dacbfec	0.08435044
127	0x3da30994	0.07960811
128	0x3aad2b9b	0.0013211848
129	0xbc6bb1fb	-0.014385696
130	0x3bb90180	0.0056459308
131	0x3dc5f403	0.09665682
132	0x3dd2df57	0.10296505
133	0x3dba05cc	0.09083137
134	0x3d2c3d73	0.04205079
135	0x3ca7b96a	0.020474155
136	0x3b7ea3bf	0.0038854924
137	0x3d9715a0	0.073771715
138	0xbcf05272	-0.029336188
139	0xbdea4d90	-0.11440575
140	0xbdb7a85b	-0.08967658
141	0xbd3e0342	-0.046389826
142	0xbb8b8996	-0.004258345
143	0xbc5e42d1	-0.013565735
144	0x3dca8a35	0.09889642
145	0x3c36c9ed	0.011156541
146	0x3c8489a4	0.016178913
147	0x3dca52a6	0.09879045
148	0x3d7c582a	0.061607517
149	0xbd883209	-0.066501684
150	0x3d00f1a0	0.03148043
151	0xbda2ef73	-0.079558276
152	0xbdb430d8	-0.08798379
153	0xbd21f591	-0.03954083
154	0xbd89bf3e	-0.0672593
155	0x3d9d90ef	0.076936595
156	0xbda3b71a	-0.07993908
157	0xbc1e41f8	-0.009659283
158	0x3d1cf74b	0.038321774
159	0xbd98d03f	-0.07461595
160	0x3d756096	0.059906565
161	0x3d148040	0.03625512
162	0xbdc9d133	-0.09854355
163	0x3cf7526f	0.030190675
164	0xbddeb504	-0.1087437
165	0xbde67beb	-0.11254104
166	0x3d546f0b	0.05186371
167	0xbde22f47	-0.11044174
168	0xbdbe1758	-0.09281796
169	0x3d8eab7c	0.06966302
170	0x3d2371f6	0.039903603
171	0x3e0052de	0.12531611
172	0x3d8c3be5	0.068473615
173	0x3d3d6cbc	0.046246275
174	0x3ce574b7	0.028009756
175	0xbd8c1805	-0.06840519
176	0xbd4375d1	-0.04771978
177	0xbcdb10a8	-0.02674134
178	0x3d3ad88c	0.04561667
179	0x3dcd8eec	0.10037026
180	0x3d6e00b6	0.058106147
181	0xbd14a0d2	-0.036286183
182	0x3d498280	0.04919672
183	0x3dc7bffb	0.09753414
184	0xbd201c60	-0.03908956
185	0x3cfcc66a	0.03085633
186	0x3d0150a6	0.031571053
187	0x3e0118f2	0.12607172
188	0x3de58ec9	0.11208875
189	0xbc09de52	-0.008414822
190	0x3db3c957	0.08778637
191	0x3dcfa072	0.101380244

encoder.gru.bias_hh_l0 f4 [192]
0	0x3c8b8c3a	0.017034639
1	0xbd42595b	-0.047448497
2	0xbcc52346	-0.024064671
3	0xbdc35acb	-0.09538802
4	0xbddce965	-0.10786704
5	0x3cbc02ed	0.022950614
6	0x3d510c1c	0.05103694
7	0x3da5900f	0.080841176
8	0xbd26708d	-0.04063468
9	0x3cc29f26	0.023757529
10	0xbd31e1ba	-0.04342816
11	0x3d09a166	0.033601187
12	0x3cc9a4f1	0.024614783
13	0x3d803797	0.06260603
14	0x3ddb0db0	0.1069597
15	0xbd544791	-0.051826064
16	0x3da917b3	0.082564734
17	0x3dc3a205	0.09552387
18	0xbd3c5146	-0.045975946
19	0xbc3705b1	-0.0111707905
20	0xbd69c6cf	-0.057074364
21	0x3db4e54e	0.08832799
22	0xbdb32219	-0.08746738
23	0xbd5582cb	-0.052126687
24	0x3d0bbc8b	0.034115355
25	0x3d858d59	0.065211006
26	0xbdbf3cc4	-0.09337762
27	0xbdec3d51	-0.11535133
28	0x3d45fb68	0.048335463
29	0x3b4d14bf	0.0031292883
30	0x3c8b8aee	0.01703402
31	0x3ddd81e5	0.10815791
32	0xbd491a79	-0.049097512
33	0xbde8c754	-0.11366144
34	0xbd15c0f7	-0.03656098
35	0x3deebbdd	0.11656926
36	0xbd93ec6f	-0.072228305
37	0x3da85197	0.08218687
38	0x3bb2e8e9	0.005459894
39	0x3ddd698c	0.10811147
40	0xbd89bd80	-0.067255974
41	0x3d1a833e	0.03772282
42	0xbca4643e	-0.02006733
43	0x3d6a6786	0.057227634
44	0xbde6802d	-0.11254916
45	0xbc8c5588	-0.017130628
46	0x3d450802	0.04810334
47	0x3d9b33da	0.07578249
48	0xbda1ceca	-0.0790077
49	0x3c4a2e92	0.012340205
50	0xbd5812df	-0.052752372
51	0x3de3239e	0.11090778
52	0x3d882359	0.06647367
53	0x3dde10c9	0.10843045
54	0xbd349194	-0.044084147
55	0xbde311ad	-0.11087356
56	0xbd474530	-0.048649967
57	0x3dbe55b5	0.09293691
58	0xbc923dee	-0.017851796
59	0x3da3a208	0.079898894
60	0xbd824d92	-0.063624516
61	0xbdd916f6	-0.106000826
62	0x3dd53c8d	0.1041194
63	0xbdd8ea99	-0.10591621
64	0x3de25710	0.11051762
65	0xbc1a2c78	-0.009410016
66	0x3dac1f1c	0.08404371
67	0xbd6cb1e5	-0.05778684
68	0xbc5855ba	-0.013204033
69	0x3d3fc705	0.04682066
70	0x3c03e367	0.008049822
71	0xbdb08799	-0.08619613
72	0x3db85b31	0.090017684
73	0xbdd7653f	-0.10517358
74	0xbdaf09db	-0.08546802
75	0xbcd25138	-0.025673494
76	0xbd1c8e0e	-0.03822141
77	0x3da10f91	0.07864297
78	0xbdd41c56	-0.10356967
79	0xbde95680	-0.11393452
80	0x3d19103f	0.03736901
81	0x3d1d6436	0.038425647
82	0x3d8d5f8d	0.069029905
83	0xbddf48a5	-0.10902528
84	0xbddd070e	-0.10792361
85	0x3da77ed2	0.08178486
86	0xbdc0eb81	-0.09419919
87	0x3cb36ff6	0.021903973
88	0xbd9821f3	-0.0742835
89	0xbc11d90d	-0.008901847
90	0x3d31b338	0.043383807
91	0x3d7a26f7	0.061072316
92	0xbd488f1b	-0.0489646
93	0x3c036252	0.008019047
94	0xbdb77110	-0.08957112
95	0xbc16d731	-0.009206579
96	0x3c87b172	0.016564105
97	0xbddb6e15	-0.10714356
98	0x3de6bb13	0.1126615
99	0x3d85ab91	0.06526864
100	0xbdd7c901	-0.10536385
101	0x3d504d0b	0.050854724
102	0xbcf353a4	-0.029702969
103	0x3c0a97b3	0.0084590195
104	0x3c7e983f	0.015539228
105	0xb6a5d380	-4.942005e-06
106	0x3db20126	0.08691625
107	0xbcc1cdfc	-0.023657791
108	0x3d03edf0	0.032209337
109	0x3cbe804f	0.023254542
110	0x3de070d7	0.109590225
111	0xbde579bb	-0.11204859
112	0x3db3ef3f	0.08785867
113	0x3dc78708	0.09742552
114	0x3dd5eedb	0.10445949
115	0xbdd0ac91	-0.101891644
116	0x3da61795	0.08109967
117	0xbdedf26e	-0.116185054
118	0x3d748ce1	0.059704665
119	0x3c98b71b	0.018641999
120	0xbdadd1fb	-0.08487316
121	0xba2e65ce	-0.00066527433
122	0xbde1967b	-0.1101503
123	0xbd966de5	-0.073451795
124	0x3cfcf693	0.030879294
125	0x3d84d896	0.06486623
126	0xbb8ec79a	-0.0043572905
127	0xbdde9f21	-0.10870195
128	0xbd83e829	-0.064407654
129	0xbcbc1bec	-0.022962533
130	0xbdfe76e6	-0.12425022
131	0xbdccc259	-0.099980064
132	0xbd259f29	-0.04043499
133	0xbded8275	-0.11597148
134	0x3d4de359	0.050265644
135	0xbb04c3be	-0.0020258273
136	0xbdf0b6a6	-0.117535874
137	0xbdb23c5b	-0.08702918
138	0xbcd0148f	-0.025400428
139	0xbc8b6c6c	-0.017019473
140	0xbdc20e12	-0.0947534
141	0x3d20b921	0.039239053
142	0x3ddee829	0.10884125
143	0xbd06e6b9	-0.032934878
144	0xbd72b43a	-0.05925391
145	0x3d3542d9	0.044253204
146	0x3df1c032	0.118042365
147	0xbd288a0a	-0.04114727
148	0xbdb18c90	-0.08669388
149	0xbd604800	-0.054756165
150	0x3c40da27	0.011770762
151	0xbde4232f	-0.11139523
152	0xbd8171e5	-0.06320552
153	0x3dd08dc2	0.10183288
154	0x3c934d1d	0.017981106
155	0xbda72404	-0.08161166
156	0x3d7bcbd6	0.06147369
157	0xbdec44b5	-0.11536542
158	0x3d908be9	0.07057936
159	0x3d52efe3	0.051498305
160	0xbcb6a381	-0.022294762
161	0xbc28f5df	-0.0103125265
162	0xbd677b4e	-0.056514077
163	0x3d42e59f	0.047582265
164	0x3da3ce28	0.079983056
165	0xbdf9681e	-0.12178062
166	0x3baf05fc	0.0053412896
167	0xbdd70358	-0.10498685
168	0x3d2b969b	0.041891675
169	0xbcd28ea0	-0.025702775
170	0xbccc24ce	-0.024919894
171	0xbc526c4b	-0.012843202
172	0x3d622a1b	0.055215936
173	0xbda77ca4	-0.0817807
174	0xbd9dd0ad	-0.07705817
175	0x3cc8ed91	0.024527343
176	0xbd3c6172	-0.04599137
177	0x3dfd0ffd	0.12356565
178	0x3d131fca	0.03591899
179	0x3d9ad15d	0.07559464
180	0xbdbd4e02	-0.092433944
181	0xbd70e3f8	-0.058811158
182	0xbdeddb13	-0.11614051
183	0x3d472c24	0.04862608
184	0xbdc427c2	-0.09577896
185	0xbd1e837e	-0.03869962
186	0x3de3973b	0.11112829
187	0x3d895c61	0.06707073
188	0xbd07bc98	-0.03313884
189	0xbc1208f3	-0.0089132665
190	0x3dc73a77	0.09727948
191	0x3d02b0d9	0.031906936

encoder.gru.weight_ih_l0_reverse f4 [192, 2]
0	0xbd6a70d3	-0.057236504
1	0xbdbf3cef	-0.09337794
2	0x3c5649c6	0.013079112
3	0x3d34a369	0.044101153
4	0xbd31c98e	-0.04340511
5	0x3ce1a771	0.027545663
6	0x3de8ff61	0.11376835
7	0x3dec5eef	0.11541545
8	0xbd9a10c7	-0.07522731
9	0xbc47e4a0	-0.012200505
10	0xbc60bf5a	-0.013717497
11	0x3dce891f	0.100847475
12	0x3cdf8f70	0.027290076
13	0xbd27996a	-0.04091779
14	0xbc278c4f	-0.010226323
15	0x3d2c71c3	0.04210068
16	0xbcb9f707	-0.0227008
17	0xbdd1a41d	-0.1023638
18	0x3d4c32b6	0.04985305
19	0x3d0d11c3	0.034440767
20	0xbd946530	-0.072458625
21	0xbc4d1b91	-0.012518779
22	0x3d97f248	0.07419258
23	0x3c969c8d	0.018385196
24	0x3d8261aa	0.06366284
25	0x3de9b57b	0.11411568
26	0xbdc5b089	-0.09652812
27	0x3d4644b7	0.048405375
28	0x3db01395	0.08597485
29	0xbd481c29	-0.04885498
30	0x3df6e023	0.120544694
31	0xbdb5bc87	-0.08873849
32	0xbcd749bb	-0.026280275
33	0x3d9377a1	0.07200552
34	0x3d91812e	0.07104717
35	0xbdb25761	-0.087080725
36	0xbd4c0491	-0.049809042
37	0x3deea918	0.11653346
38	0xbce67e6b	-0.028136453
39	0x3cf8bfd6	0.030364912
40	0x3da7c8f9	0.08192629
41	0x3db1d4ca	0.086831644
42	0x3ade34c6	0.0016952984
43	0x3d974c83	0.0738764
44	0x3dd32145	0.1030908
45	0x3cc40404	0.023927696
46	0xbd56719e	-0.052354448
47	0xbd95de15	-0.073177494
48	0x3dd7fba1	0.10546041
49	0xbc5af609	-0.013364323
50	0xbdaf7085	-0.08566383
51	0x3d8a86b6	0.06763975
52	0x3c597e07	0.013274676
53	0x3cd339f8	0.025784478
54	0x3d7ed977	0.06221911
55	0xbd087b7b	-0.033320885
56	0x3dc0e803	0.09419253
57	0xbda81371	-0.08206833
58	0xbdcc1af8	-0.099660814
59	0xbc71a48d	-0.014748705
60	0xbd4f8562	-0.050664313
61	0x3d89e920	0.06733918
62	0xbde72ed5	-0.112882294
63	0x3dc93661	0.09824825
64	0xbd5cf905	-0.05394842
65	0xbd1d3460	-0.038380027
66	0x3d315e94	0.043303087
67	0x3dec3cca	0.11535032
68	0x3dd63133	0.10458603
69	0xbd99750a	-0.074930266
70	0x3d41cd2a	0.0473148
71	0x3de0cd49	0.10976655
72	0xbd0113b7	-0.031512942
73	0x3dfb3b71	0.12267197
74	0x3db5ca84	0.088765174
75	0xbd71e16a	-0.059052862
76	0x3da62bab	0.08113798
77	0xbd636804	-0.05551912
78	0x3d92152b	0.07132944
79	0xbdbe09af	-0.09279191
80	0xbdd5a333	-0.104315184
81	0xbd4e06b8	-0.050299376
82	0xbde3d564	-0.111246854
83	0x3c8eb26a	0.017419059
84	0x3df482f9	0.119390436
85	0x3da6ada9	0.08138592
86	0xbd5e953c	-0.05434154
87	0xbcb6dbd7	-0.022321625
88	0x3d735ef5	0.05941673
89	0x3c8ec08c	0.017425798
90	0xbd5aa2d9	-0.05337796
91	0xbcfa6268	-0.030564502
92	0xbd1aca59	-0.03779063
93	0x3bc67166	0.0060559986
94	0x3d832df4	0.06405249
95	0x3d8e1d85	0.06939224
96	0x3da2af5a	0.07943602
97	0x3db9f4f7	0.090799265
98	0x3d0cf652	0.034414597
99	0x3dd35a5f	0.10319971
100	0xbda7a46d	-0.081856586
101	0xbccf6abf	-0.025319455
102	0x3df164c9	0.11786801
103	0xbddd7048	-0.108124316
104	0x3da5c1df	0.080936186
105	0x3dbd06a8	0.09229785
106	0xbd47d573	-0.048787545
107	0xbddcfd4b	-0.10790499
108	0x3d3051e4	0.043046847
109	0xbd22a584	-0.03970863
110	0x3df58d12	0.11989798
111	0xba43b326	-0.0007465355
112	0x3cfe6442	0.031053666
113	0xbd873090	-0.066010594
114	0x3dbff2a3	0.09372451
115	0xbd3b0c17	-0.045665827
116	0xbd035c1e	-0.03207027
117	0xbd9bb019	-0.07601947
118	0x3ded685b	0.1159217
119	0x3cbc03eb	0.022951087
120	0xbcc337db	-0.023830345
121	0x3d6e650f	0.058201846
122	0xbdaee19b	-0.085391246
123	0xbd8c7778	-0.06858724
124	0x3d53f766	0.05174961
125	0xba91f7b6	-0.0011136446
126	0x3dfa56ef	0.122236125
127	0x3d76dc08	0.060268432
128	0xbca10f3b	-0.019660583
129	0xbd849924	-0.06474522
130	0xbd9f12a8	-0.0776723
131	0xbd30fa0a	-0.043207206
132	0xbd01b17f	-0.031663414
133	0x3d90ebdd	0.07076237
134	0x3dd3e80b	0.10346993
135	0x3d5b10c9	0.053482804
136	0xbdb6bcc7	-0.08922725
137	0x3debcdd4	0.11513868
138	0xbcc01879	-0.02344917
139	0xbc9a119a	-0.018807221
140	0x3db8160c	0.0898858
141	0x3dbdf83e	0.09275864
142	0x3ddca140	0.107729435
143	0xbc9f216e	-0.01942512
144	0x3cc6ae61	0.024253072
145	0x3dc4e4d9	0.09613962
146	0xbc6e7ee1	-0.0145566175
147	0xba490180	-0.0007667765
148	0xbc6c7ea6	-0.014434492
149	0xbda4567b	-0.08024307
150	0x3d440da2	0.047864564
151	0x3d214094	0.039368227
152	0xbc8eaa37	-0.01741515
153	0xbd512d8c	-0.051068828
154	0xbc96e577	-0.018419964
155	0x3d6c4587	0.057683494
156	0x3d737923	0.059441697
157	0xbc3310f3	-0.010929334
158	0xbd505194	-0.05085905
159	0x3dba2a82	0.09090139
160	0x3d48a26b	0.04898302
161	0xbda96d3d	-0.08272789
162	0x3d972bea	0.07381423
163	0xbd74d1bc	-0.05977033
164	0xbd986403	-0.07440951
165	0xbb6db2a9	-0.003626982
166	0xbdc3d482	-0.09562017
167	0xbd628d2c	-0.055310413
168	0xbd835869	-0.06413347
169	0xbd5cb84c	-0.053886697
170	0xbc8a6075	-0.016891697
171	0xbda854ee	-0.08219324
172	0x3de1c962	0.11024739
173	0xbd2d673d	-0.042334784
174	0xbd4dc576	-0.05023714
175	0xbb93fea6	-0.0045164404
176	0x3c922d08	0.017843738
177	0x3dc111ce	0.09427224
178	0x3dea515a	0.11441298
179	0xbdcf10b2	-0.10110606
180	0xbd303477	-0.043018784
181	0x3ad6b019	0.0016379385
182	0x3d03037b	0.03198574
183	0x3d8b9438	0.0681538
184	0xbbcb571e	-0.0062054535
185	0xbd81031c	-0.06299421
186	0x3ddff451	0.109352715
187	0x3d8767db	0.06611606
188	0x3da828d2	0.08210911
189	0xbcd3c936	-0.02585278
190	0xbd84a5fc	-0.064769715
191	0x3ddf2324	0.108953744
192	0x3dbf062c	0.09327349
193	0xbd1256c9	-0.035727296
194	0x3c0a08a6	0.0084249135
195	0xbe02f799	-0.12789764
196	0xbd6edb97	-0.058314886
197	0xbccc0599	-0.024905013
198	0xbdcdaa96	-0.10042302
199	0xbcd26421	-0.02568251
200	0xbdbb1278	-0.09134382
201	0x3d688d99	0.056775663
202	0xbda1bddc	-0.07897541
203	0xbd40652e	-0.046971492
204	0xbcb549fc	-0.022130005
205	0x3cc98a4d	0.02460208
206	0xbd920cd6	-0.071313545
207	0xbb9d9d73	-0.004810029
208	0xbdde1c96	-0.10845296
209	0xbcbdbdb7	-0.023161752
210	0xbdf41267	-0.119175725
211	0x3de999e0	0.114063025
212	0xbd018143	-0.031617414
213	0xba6a1945	-0.0008930157
214	0x3d273e80	0.04083109
215	0xbd2f0120	-0.042725682
216	0x3c97afd2	0.018516455
217	0xbd08c88a	-0.033394374
218	0x3becd382	0.007227362
219	0x3c0bec5f	0.008540242
220	0x3d390896	0.045174204
221	0x3d72da1c	0.059290037
222	0xbb2b9f83	-0.0026187606
223	0x3d499825	0.049217362
224	0xbdc1f15d	-0.094698645
225	0x3dd3e510	0.103464246
226	0x3c680bcf	0.014162972
227	0x3dd0c895	0.10194508
228	0xbd19f466	-0.037586592
229	0xbc21e0e4	-0.009880278
230	0xbdf94dc0	-0.12173033
231	0xbddccd75	-0.10781375
232	0x3df276af	0.11839043
233	0xbdbe0b3d	-0.09279487
234	0x3d43a20e	0.04776197
235	0x3d34e56b	0.044164103
236	0x3da4e5bd	0.080516316
237	0x3cfffe75	0.031249264
238	0xbcc3a5b3	-0.023882722
239	0x3bd41ba1	0.00647302
240	0x3de432de	0.11142515
241	0x3df5b146	0.11996703
242	0xbd1af82f	-0.037834343
243	0x3ddcceff	0.10781669
244	0xbda015fb	-0.078166924
245	0xbd3da9d0	-0.046304524
246	0xbdcdb2e5	-0.10043887
247	0x3d5f74e2	0.054554828
248	0xbdf3a2e7	-0.118963055
249	0xbcec3bd9	-0.028837131
250	0x3d1ef98f	0.038812216
251	0x3c53c2e4	0.0129248835
252	0xbda2443f	-0.07923173
253	0xbcdf0093	-0.027221953
254	0x3dd120b7	0.10211318
255	0xbca5fde8	-0.020262673

encoder.gru.weight_hh_l0_reverse f4 [192, 64]
0	0xbd6ddcdc	-0.058071956
1	0xbdbb9666	-0.091595456
2	0xbde3699f	-0.1110413
3	0x3dae1df9	0.085018106
4	0xbda59046	-0.080841586
5	0x3c827bb3	0.015928125
6	0xbb9ec263	-0.00484495
7	0x3c6c950c	0.014439832
8	0xbdc17f01	-0.09448052
9	0xbd874e67	-0.06606751
10	0xbd0d3ef5	-0.03448387
11	0x3dbc4fac	0.09194884
12	0xbdcf37d3	-0.101180695
13	0xbb64e57e	-0.0034926827
14	0xbdc85fd7	-0.09783905
15	0xbda5663c	-0.0807614
16	0x3d1bcd78	0.038037747
17	0x3d05f1f4	0.032701448
18	0xbd4e7d7c	-0.05041264
19	0x3dd6b0ba	0.10482927
20	0x3da2d608	0.079509795
21	0xbc286da8	-0.01028005
22	0xbdebecb0	-0.11519754
23	0xbd85d715	-0.06535164
24	0xbd424ccd	-0.047436524
25	0xbc9ec073	-0.019378876
26	0x3cda1caa	0.026624996
27	0xbd3b8cfb	-0.045788746
28	0x3de962fa	0.113958314
29	0x3d38a12a	0.045075573
30	0x3d067a2c	0.032831356
31	0x3d168671	0.036749307
32	0xbdc976db	-0.09837123
33	0x3ddf4885	0.10902504
34	0xbdd02de0	-0.10165
35	0xbd5e3499	-0.05424938
36	0x3c1a6fa3	0.00942603
37	0xbd9fb041	-0.0779729
38	0x3d03ac7d	0.03214692
39	0xbc29d568	-0.010365821
40	0xbdb776b0	-0.08958185
41	0xbce48d32	-0.027899358
42	0x3d38ff97	0.045165624
43	0xbcf42380	-0.029802084
44	0xbdb9d5f1	-0.09074009
45	0xba89ea6a	-0.0010522131
46	0xbbcd5f26	-0.006267446
47	0xbd3d49da	-0.04621301
48	0x3bae3fc4	0.00531766
49	0x3ddd87f4	0.108169466
50	0x3ded1a73	0.115773104
51	0x3d8ba121	0.06817842
52	0xbac57d0a	-0.0015067172
53	0x3b1647c1	0.0022930952
54	0xbcfedfb7	-0.031112535
55	0xbbef295a	-0.0072986307
56	0x3d41be5f	0.047300693
57	0x3dc685b9	0.09693474
58	0xbd7ec1da	-0.06219659
59	0x3d73fe05	0.059568424
60	0xbcd37a2b	-0.02581509
61	0x3d85aa7c	0.06526658
62	0x3cc8570f	0.024455575
63	0x3dc1b675	0.09458629
64	0x3c8226e6	0.015887689
65	0x3d0aac9b	0.033856016
66	0xbde0762f	-0.10960042
67	0x3d2f344f	0.042774495
68	0xbd195b87	-0.037440803
69	0xbcadc15a	-0.021210361
70	0xbca6cda1	-0.020361723
71	0xbdad2e24	-0.08456066
72	0xbdd10165	-0.10205344
73	0x3c490e91	0.012271539
74	0xbcc667c5	-0.024219403
75	0x3daaa478	0.08332151
76	0xbd8fe7fd	-0.0702667
77	0x3d146163	0.036225688
78	0xbda2e03d	-0.07952926
79	0x3dec3da5	0.11535195
80	0xbda39832	-0.07988013
81	0x3d68f56a	0.05687467
82	0xbcd45d33	-0.025923347
83	0x3d127301	0.035754208
84	0x3d4280e0	0.047486186
85	0xbdaccc62	-0.084374204
86	0xbda8ba8d	-0.08238707
87	0xbd547930	-0.051873386
88	0xbd66df89	-0.056365523
89	0xbdb16280	-0.086613655
90	0xbda51024	-0.08059719
91	0xbd0c5bf0	-0.034267366
92	0xbd310a14	-0.043222502
93	0xbd193905	-0.037407894
94	0x3bbd36d8	0.00577436
95	0xbdb21901	-0.08696175
96	0x3db8d44c	0.090248674
97	0x3ad936ae	0.0016572082
98	0x3cacb59e	0.021082696
99	0x3c5c51d0	0.01344724
100	0xbd084226	-0.03326621
101	0x3c84048f	0.016115455
102	0xbde38635	-0.11109582
103	0x3d5aca7d	0.053415764
104	0xbd7adbde	-0.061244838
105	0x3d0571fa	0.0325794
106	0x3da7c5ad	0.081920005
107	0x3d558048	0.05212429
108	0xbda640a4	-0.08117798
109	0x3c437d5b	0.011931743
110	0xbd2c8f4b	-0.042128842
111	0xbdd7ea3d	-0.10542724
112	0x3d52bace	0.051447682
113	0x3d5b76ce	0.053580098
114	0xbccbff84	-0.024902113
115	0x3a064e98	0.0005123406
116	0xbdbecd34	-0.09316483
117	0x3dce3cbf	0.1007018
118	0x3def2fec	0.11679062
119	0xbd95e0e4	-0.07318285
120	0xbdef8c22	-0.1169665
121	0x3d5dfbf5	0.054195363
122	0xbcf3586a	-0.029705245
123	0x3d9da798	0.076979816
124	0xbde9de3f	-0.11419343
125	0x3dcc5587	0.099772505
126	0x3d05fb8c	0.032710597
127	0xbda6f8a1	-0.08152891
128	0xbd205a06	-0.039148353
129	0xbdbb3e8d	-0.0914279
130	0x3d3cd95a	0.04610572
131	0xbde1954e	-0.11014806
132	0xbdad7e9b	-0.08471414
133	0x3d8aa3d7	0.06769531
134	0x3bdf06f8	0.0068062507
135	0xbcc42bd4	-0.02394668
136	0x3d3c8e76	0.0460343
137	0x3de3e00b	0.11126717
138	0xbdd21440	-0.10257769
139	0x3c20c296	0.009812018
140	0xbd090511	-0.033452097
141	0x3cc47f73	0.023986554
142	0x3dcaf6b9	0.0991034
143	0xbdd8fd5f	-0.10595202
144	0xbcb1137b	-0.021615734
145	0xbd6a5fab	-0.057220142
146	0xbdb878be	-0.09007405
147	0x3db58d56	0.08864848
148	0xbc4a93fc	-0.012364384
149	0xbd91a62c	-0.07111773
150	0xbdd6b8ea	-0.10484488
151	0x3de21c80	0.11040592
152	0xbd87567c	-0.066082925
153	0x3db4179e	0.08793567
154	0x3d8df77b	0.06931969
155	0xbd43f678	-0.047842473
156	0x3d6ea3b6	0.058261596
157	0x3b4a5ad2	0.0030876887
158	0xbc8b7933	-0.017025566
159	0x3b484a00	0.0030561686
160	0xbcdfb1da	-0.027306486
161	0x3d9d267f	0.07673358
162	0x3cb0eba9	0.021596747
163	0x3cf17062	0.029472534
164	0xbd5ef035	-0.054428298
165	0xbd1774ce	-0.036976628
166	0x3dbf5527	0.093424134
167	0x3c8020fe	0.015640732
168	0x3d1f8a48	0.038950235
169	0x3d8003d3	0.062507294
170	0x3cae2563	0.021258062
171	0xbd4bbf3a	-0.049742915
172	0xbca977f6	-0.020687085
173	0xbb8968f4	-0.0041934196
174	0xbd83afaf	-0.06429993
175	0xbd4a4bef	-0.049388822
176	0xbc942ee1	-0.01808876
177	0xbc3e9efb	-0.011634584
178	0x3d906285	0.07050041
179	0xbcb245f0	-0.021761864
180	0xbdc6c624	-0.09705761
181	0xbda40e3e	-0.08010529
182	0xbdc94186	-0.09826951
183	0x3daa997c	0.08330056
184	0x3d85f779	0.06541342
185	0x3d99c189	0.07507617
186	0x3d0750b5	0.033035953
187	0x3d126895	0.03574427
188	0x3da7140d	0.08158121
189	0x3c83e592	0.016100679
190	0xbd416f45	-0.047225256
191	0xbbad4f4e	-0.005288995
192	0xbde46dfe	-0.11153792
193	0xbca3db7c	-0.02000212
194	0x3c23a286	0.009987479
195	0x3db9cd67	0.090723805
196	0xbdb8e92d	-0.0902885
197	0xba45acb7	-0.000754069
198	0xbbbf235c	-0.0058330726
199	0x3da18b9d	0.07887957
200	0x3a61af32	0.0008609175
201	0x3d52c841	0.05146051
202	0xbc858d36	-0.016302686
203	0x3c1a5489	0.009419569
204	0xbd68c938	-0.056832522
205	0x3d8fd078	0.07022184
206	0x3d74e0ab	0.059784573
207	0x3bae5aa4	0.005320864
208	0xbdc966a8	-0.09834033
209	0xbd515438	-0.051105708
210	0x3de612ef	0.1123408
211	0x3b35448a	0.002765926
212	0xbdb89904	-0.090135604
213	0xbc468b63	-0.012118193
214	0x3d00323c	0.031297907
215	0xba8017ba	-0.0009772696
216	0xbc273ba7	-0.010207093
217	0xbcc40c6b	-0.023931703
218	0x3c9ddb70	0.019269675
219	0x3d55a4d8	0.05215916
220	0xbdab8ea2	-0.083768144
221	0xbcf9573e	-0.030437108
222	0x3dbe4a45	0.092915095
223	0x3d24f6a2	0.04027427
224	0xbc9ee63b	-0.019396892
225	0x3c9ccddc	0.01914113
226	0xbbf9aab3	-0.007619226
227	0xbcc5807b	-0.024109116
228	0x3bf3a87a	0.0074358555
229	0xbde43a94	-0.111439854
230	0xbde4575a	-0.111494735
231	0xbd705ef5	-0.058684308
232	0x3ca99750	0.020702034
233	0x3d75b64f	0.059988316
234	0x3dc81eb3	0.097714804
235	0x3d557f99	0.05212364
236	0x3de66122	0.11248995
237	0x3d93ee91	0.07223237
238	0x3dd1a8da	0.10237284
239	0x3ded45f5	0.11585609
240	0xbd8e0324	-0.06934193
241	0xbd560f5c	-0.05226074
242	0x3d22ef9c	0.03977929
243	0xbd90c22b	-0.070682846
244	0xbdd3a46b	-0.103340946
245	0xbcf46a1b	-0.029835751
246	0xbdaf13e6	-0.08548717
247	0xbdd13f84	-0.10217193
248	0xbd9eda9d	-0.07756541
249	0xbdc83380	-0.09775448
250	0xbdc7e11d	-0.09759734
251	0x3cd0af94	0.025474347
252	0xbc0185a1	-0.007905395
253	0x3dda849d	0.10669825
254	0x3c0bfba2	0.008543881
255	0xbd81a048	-0.06329399

encoder.gru.bias_ih_l0_reverse f4 [192]
0	0x3d2a52d6	0.041582905
1	0xbd4ace8d	-0.04951339
2	0x3cdf2bb1	0.027242513
3	0xbd39a196	-0.045320116
4	0xbc251fbb	-0.010078366
5	0xbdcf0afc	-0.10109517
6	0xbd7f8b78	-0.062388867
7	0xbd4c2b44	-0.04984595
8	0x3d6c947e	0.0577588
9	0x3c311c15	0.010809918
10	0x3bdfaa67	0.0068257335
11	0xbd9f9c14	-0.077934414
12	0xbd0d33d4	-0.034473255
13	0xbde2bd7f	-0.110713
14	0x3d723d37	0.05914041
15	0xbdc27b45	-0.09496168
16	0x3dbf7dfa	0.093502
17	0x3d1269a2	0.03574527
18	0x3d413904	0.047173515
19	0x3d8506d0	0.0649544
20	0xbd9b2882	-0.075760856
21	0xbd80aa64	-0.062824994
22	0xbce3fef7	-0.027831538
23	0xbdbb6279	-0.091496415
24	0xbdb19b6a	-0.08672221
25	0xbb0d6b49	-0.002157884
26	0xbd78d6ac	-0.060751602
27	0xbc1d11af	-0.009586736
28	0x3cb417d7	0.021984024
29	0xbd38005e	-0.044922225
30	0xbc9b9245	-0.018990645
31	0x3c8605cc	0.016360186
32	0xbd567974	-0.05236192
33	0x3d4dd88f	0.050255354
34	0xbd9e5370	-0.07730758
35	0x3db183dc	0.08667728
36	0x3db9a83b	0.090652905
37	0xbdbd70f9	-0.092500634
38	0x3dafaced	0.08577905
39	0x3d7b2cca	0.06132201
40	0xbd201484	-0.039082065
41	0xbde73347	-0.11289077
42	0x3dde5529	0.10856087
43	0x3a324f46	0.0006801974
44	0xbd9514d1	-0.07279361
45	0x3c2ecc50	0.010668829
46	0xbccbebb6	-0.02489267
47	0x3da517b0	0.08061159
48	0xbd44f959	-0.04808936
49	0xbddeb48f	-0.108742826
50	0xbb11a7af	-0.0022225191
51	0x3d190877	0.03736159
52	0xbbf785a9	-0.0075537753
53	0xbdbebb90	-0.093131185
54	0xbd0db7c9	-0.0345991
55	0x3de64d44	0.11245206
56	0x3af35307	0.0018564173
57	0xbcfc4fb6	-0.030799728
58	0xbd113868	-0.035454184
59	0xbc94aa1c	-0.01814752
60	0xbda6dbaa	-0.08147366
61	0x3c27be90	0.010238305
62	0x3dbee01a	0.09320088
63	0x3d9cc26d	0.07654271
64	0x3da904ef	0.08252894
65	0x3dbca661	0.09211422
66	0xbd906380	-0.07050228
67	0x3cca9678	0.024729952
68	0x3d30d385	0.04317047
69	0xbab29258	-0.0013623936
70	0x3dc5273c	0.09626624
71	0xbd7d8584	-0.06189491
72	0x3c932875	0.017963627
73	0x3be85a44	0.0070908386
74	0x3d0d4184	0.03448631
75	0x3d674cae	0.05646961
76	0xbdb611ab	-0.08890089
77	0xbdc32a37	-0.09529536
78	0x3d754ba8	0.059886605
79	0xbdac082a	-0.08399995
80	0xbd33cbf5	-0.04389568
81	0x3d2eb2db	0.04265104
82	0x3d9a3993	0.07530513
83	0xbd52f346	-0.051501535
84	0xbdce2197	-0.100650005
85	0xbd07bfaa	-0.03314177
86	0xbd42280a	-0.047401465
87	0xbbeb7c23	-0.007186429
88	0xbba7c055	-0.0051193633
89	0x3dbed6ae	0.09318291
90	0x3cc1d0b4	0.023659088
91	0x3deb2f56	0.11483638
92	0xbded3fe0	-0.11584449
93	0x3d054252	0.03253395
94	0x3dc910d6	0.09817664
95	0x3d8dd26b	0.069249
96	0x3d289fb8	0.041167945
97	0xbdca67b9	-0.09883065
98	0xbdea7c0b	-0.114494406
99	0xbd72a64d	-0.059240628
100	0x3d8363fc	0.06415555
101	0xbdcce4e7	-0.10004597
102	0xbd918c6f	-0.07106864
103	0xbd9cec7a	-0.07662292
104	0x3bef056e	0.0072943484
105	0x3c0fd0a8	0.008777775
106	0xbd63f9e3	-0.055658232
107	0x3c241e22	0.01001695
108	0xbb09c8f9	-0.002102433
109	0x3d5eef03	0.054427158
110	0xbd66ef9d	-0.056380857
111	0xbd91e01c	-0.071228236
112	0xbdc70550	-0.0971781
113	0x3d00ca6c	0.031443045
114	0x3d9ae17d	0.0756254
115	0xbd6b94ea	-0.057515062
116	0x3d2e0767	0.04248753
117	0xbca629bd	-0.020283574
118	0xbc10433d	-0.008805093
119	0x3d562c95	0.05228861
120	0xbdef286e	-0.11677633
121	0x3cd58307	0.026063455
122	0xbddc1770	-0.10746658
123	0x3ddccdf6	0.107814714
124	0x3b221409	0.002473118
125	0xbdee61cc	-0.11639747
126	0x3d583e37	0.052793708
127	0x3dd7e7fc	0.105422944
128	0xbbe2c543	-0.006920488
129	0x3dd4b781	0.10386563
130	0x3d7a58ee	0.061119966
131	0xbda21113	-0.07913413
132	0xbdbef7bc	-0.09324595
133	0xbddf6594	-0.10908046
134	0x3d245794	0.040122584
135	0x3da7aa3f	0.08186769
136	0xbd62b111	-0.055344645
137	0xbdeb32c8	-0.11484295
138	0xbd897d94	-0.06713405
139	0xbc5e43da	-0.013565982
140	0xbccdb051	-0.025108488
141	0xbba143fc	-0.0049214344
142	0xbd371743	-0.04469992
143	0x3d459f1b	0.048247438
144	0x3d903185	0.07040695
145	0x3bd83949	0.006598626
146	0xbc0302a0	-0.007996231
147	0xbde9f45b	-0.1142356
148	0x3dd9b79f	0.10630726
149	0x3dd6aa40	0.10481691
150	0xbd861cff	-0.06548499
151	0xbc51c79a	-0.012803936
152	0x3cac6eaa	0.021048862
153	0x3dd9bfb8	0.106322706
154	0x3d3c7c28	0.046016842
155	0xbd6e09b8	-0.058114737
156	0xbde065ea	-0.109569386
157	0x3dba1fee	0.09088121
158	0xbdd59b51	-0.10430015
159	0x3da2bede	0.07946561
160	0x3da737f3	0.08164968
161	0x3de5e3e9	0.11225111
162	0x3db5b996	0.08873288
163	0x3ced8455	0.028993765
164	0xbc13df15	-0.009025355
165	0x3b939c5e	0.0045047244
166	0x3d759efc	0.059966072
167	0xbdb82b32	-0.08992614
168	0x3d1b3226	0.037889622
169	0x3dce0867	0.10060196
170	0x3ddf86f3	0.109144114
171	0x3df45793	0.11930766
172	0xbd63a295	-0.055574972
173	0x3df999bd	0.121875264
174	0xbddda57a	-0.10822578
175	0xbdceb7ac	-0.100936264
176	0xbda78d33	-0.081812285
177	0xbd86de09	-0.065853186
178	0xbd9be81b	-0.0761263
179	0xbd7f7584	-0.06236793
180	0xbc95dbff	-0.018293379
181	0x3d79184e	0.060814194
182	0x3c46d874	0.012136567
183	0xbde55586	-0.11197953
184	0x3c5db4cd	0.013531876
185	0xbdf02837	-0.117264204
186	0x3da26c86	0.079308555
187	0x39db1444	0.00041786034
188	0x3cce2f3c	0.025169007
189	0xbad0939e	-0.0015913134
190	0x3dc0ba8e	0.094105825
191	0x3d01fa65	0.031732935

encoder.gru.bias_hh_l0_reverse f4 [192]
0	0xbded5082	-0.11587621
1	0xbdb57f7a	-0.08862205
2	0x3db6530b	0.08902558
3	0xbcef256a	-0.029192645
4	0x3dc1fabe	0.094716534
5	0x3de64394	0.11243358
6	0x3daa5198	0.08316344
7	0xbc235845	-0.009969776
8	0x3ce2c4b9	0.027681695
9	0xbc88e094	-0.01670865
10	0xbda0c2f8	-0.07849687
11	0x3d52e7f7	0.05149075
12	0xbd68c889	-0.05683187
13	0x3daad559	0.08341474
14	0x3dcf3ce7	0.10119038
15	0x3d7448e2	0.05963982
16	0xbd325d8d	-0.04354625
17	0x3b836991	0.004010387
18	0xbd0a223c	-0.033724055
19	0xbd593c29	-0.05303589
20	0xbc7f8121	-0.015594752
21	0x3b2f2d42	0.0026729857
22	0xbda4ca79	-0.08046431
23	0xbdb67b22	-0.089102045
24	0xbdd5710d	-0.10421953
25	0xbd1c834a	-0.038211145
26	0xbdd11c05	-0.102104224
27	0x3deb7ed9	0.11498804
28	0x3daa82d1	0.083257325
29	0x3dea2996	0.11433713
30	0xbdbd1bbc	-0.092338055
31	0xbd7f1b3d	-0.062281836
32	0x3d858fe7	0.06521588
33	0xbc853661	-0.016261281
34	0x3ded14da	0.11576243
35	0x3dea9eec	0.11456093
36	0xbc8709a6	-0.016484093
37	0x3d9eebff	0.077598564
38	0x3d3c3f1d	0.045958627
39	0xbd4c8711	-0.049933497
40	0xbd30580b	-0.043052714
41	0xbc95cdea	-0.018286664
42	0x3dd0ca8c	0.10194883
43	0xbd9387f9	-0.07203669
44	0xbdad7da8	-0.08471233
45	0xbda45926	-0.08024816
46	0xbdc3a593	-0.09553065
47	0xbdb0c259	-0.08630819
48	0x3de099bc	0.109668225
49	0x3d4ac8b9	0.04950783
50	0xbd3c95fe	-0.04604148
51	0xbdb34162	-0.08752705
52	0xbd6c22fb	-0.057650547
53	0xbc439d69	-0.011939385
54	0x3dec97c5	0.11552385
55	0x3db45d0a	0.08806808
56	0xbddb7f9e	-0.107177004
57	0xbd349ced	-0.04409497
58	0x3d67369b	0.05644856
59	0x3d4dc269	0.050234232
60	0x3a9256bf	0.0011164768
61	0xbd9a8525	-0.075449266
62	0x3d1ab2b1	0.03776807
63	0x3ddd78b5	0.10814039
64	0xbcf7a388	-0.030229345
65	0x3c86f716	0.016475242
66	0x3c4c9aa0	0.012488037
67	0xbdd9f7fa	-0.10643001
68	0xbdc24df3	-0.09487524
69	0x3d3fcb56	0.046824776
70	0x3cb0f604	0.021601684
71	0x3d724506	0.059147857
72	0xbd029cef	-0.031887945
73	0xbd4ca3b9	-0.049960826
74	0x3dc8d571	0.09806336
75	0xbda8da77	-0.08244794
76	0x3debcd55	0.11513773
77	0xbd218000	-0.03942871
78	0xbd752414	-0.05984886
79	0x3d86bae3	0.065786146
80	0x3d0b50ff	0.03401279
81	0x3cd49756	0.025951069
82	0xbd6d81be	-0.05798506
83	0xbdab2100	-0.083559036
84	0x3d2210ac	0.03956668
85	0xbdc7001d	-0.097168185
86	0xbd510cb9	-0.051037524
87	0xbc67a539	-0.014138513
88	0xbc25bbb5	-0.010115554
89	0x3cdf712e	0.027275648
90	0xbda26c5e	-0.07930826
91	0xbcaea03d	-0.021316642
92	0x3d5924ca	0.0530136
93	0x3dad0b3a	0.08449407
94	0x3deb2328	0.11481315
95	0x3c9b0f60	0.01892823
96	0xbd9a0262	-0.07519986
97	0x3db57e41	0.08861972
98	0xbb5b99a4	-0.0033508325
99	0x3ca29e72	0.019850943
100	0x3d39b4ca	0.04533843
101	0x3cb028b3	0.021503782
102	0xbd9c5fcc	-0.07635459
103	0x3b9e778b	0.004836028
104	0x3c1259c8	0.008932538
105	0x3c2f85f3	0.010713088
106	0x3d2304e3	0.039799582
107	0x3cdf6774	0.02727101
108	0x3de62d1c	0.11239073
109	0xbcdcd8d3	-0.026958859
110	0xbd9d061d	-0.07667182
111	0x3cb135b8	0.02163206
112	0xbd16214a	-0.03665284
113	0x3dcc507b	0.09976288
114	0x3d14b115	0.03630169
115	0xbc3e4f56	-0.011615595
116	0x3b98c9d4	0.0046627317
117	0xbdbb9887	-0.09159952
118	0xbcb15b30	-0.021649927
119	0xbd8729da	-0.065997794
120	0x3cf91e50	0.030409962
121	0xbc2bdf56	-0.010490259
122	0xbdb93820	-0.09043908
123	0x3d2fc46e	0.04291194
124	0x3c482cdf	0.012217729
125	0x3d9f113b	0.07766958
126	0xbdeef9a2	-0.116687074
127	0x3d98068a	0.07423122
128	0x3d8fbb8a	0.07018192
129	0xbdce4a74	-0.100727946
130	0x3c4bc156	0.012436232
131	0xbd93bb2e	-0.07213436
132	0xbd5ca3b8	-0.053867072
133	0x3ce59f02	0.028029922
134	0x3d9931e6	0.074802205
135	0x3dd1dadd	0.10246823
136	0x3d3b26b5	0.04569121
137	0x3cd0a349	0.025468485
138	0x3c98a42e	0.018632974
139	0xbc84f25a	-0.016228843
140	0x3cc46467	0.023973657
141	0x3d7d66df	0.061865684
142	0xbd600e66	-0.05470123
143	0xbdf0808f	-0.117432706
144	0x3dcf0353	0.10108056
145	0x3d89e341	0.06732798
146	0x3bf5e811	0.007504471
147	0x3de964f5	0.11396209
148	0xbca1a338	-0.01973115
149	0x3bda4105	0.006660583
150	0x3d260ce6	0.040539645
151	0xbdd50c25	-0.10402707
152	0xbc559bde	-0.01303765
153	0x3cebc794	0.02878169
154	0xbd86f191	-0.06589044
155	0x3de49354	0.11160913
156	0x3d8de44a	0.06928308
157	0xbdfe17a2	-0.12406851
158	0xbdd61c1c	-0.1045458
159	0x3d3bf2b4	0.045885757
160	0xbdf24acf	-0.11830675
161	0xbdc8ed8c	-0.098109335
162	0xbd93a8ad	-0.07209907
163	0x3d41a2ae	0.047274284
164	0x3d7f22a2	0.062288888
165	0x3dd2b7fb	0.10288998
166	0x3d0964b7	0.033543315
167	0xbd9e2afd	-0.07723043
168	0xbda70b87	-0.081564955
169	0xbc3e61c0	-0.011619985
170	0x3df52abb	0.11971041
171	0x3d68ce2a	0.05683724
172	0xbdbf733d	-0.09348152
173	0x3dd900a7	0.105958275
174	0xbd406ff4	-0.046981767
175	0xbc073613	-0.008252638
176	0xbd752178	-0.05984637
177	0xbd7a3e32	-0.06109447
178	0x3c7bc20b	0.015366088
179	0x3c5c3317	0.013439915
180	0x3dbd5bd2	0.09246029
181	0xbe009470	-0.12556624
182	0xbc098d0c	-0.008395445
183	0xbc198b70	-0.009371623
184	0x3db05ea8	0.08611804
185	0x3b930ea6	0.00448783
186	0x3de777af	0.11302125
187	0xbd615438	-0.055011958
188	0x3bbe4909	0.0058070463
189	0x3de09e19	0.10967655
190	0x3df1beeb	0.11803993
191	0xbcbcbca1	-0.023039164
