my_latent_sde/sdes/best_sde_0.pth (torch, 797282 bytes, 32 tensors)

encoder.gru.weight_ih_l0 f4 [384, 2]
-0.04580601 0.06802588 0.012050835 0.011812994 0.0655841 0.016159475 0.06273218 -0.036150344
0.07729335 -0.06404913 -0.03346358 -0.039675847 0.005001739 -0.045421053 0.07416578 0.049162507
-0.023375276 0.015949294 0.023224939 0.067563035 0.02721245 0.083051465 0.033786535 0.04056168
0.004485357 -0.062285747 -0.082777016 -0.06848909 0.041875497 0.024552144 0.034583297 0.050388254
0.05756112 0.015685014 -0.006539001 0.03270836 -0.054605454 0.08891881 -0.048842907 0.025520783
-0.047131613 -0.080160126 0.04072778 0.04935147 -0.06432751 -0.000878376 3.3263572e-05 -0.05949569
0.016482262 0.05327406 -0.03058534 -0.016223503 -0.0653667 0.013802486 0.018647965 0.042781413
0.0031496186 -0.068925016 -0.06354007 0.061332278 0.022384616 0.06005859 0.0006377883 0.023303913
-0.080348395 0.06817222 -0.033053424 -0.08310294 0.07682359 0.0022909043 0.05861096 0.070837066
0.068743266 0.05948628 -0.035373226 -0.041869085 -0.026148941 0.051816117 0.011996536 -0.07103609
0.013346755 0.08310645 0.044028703 -0.0801393 -0.05045074 0.06722348 0.071172416 -0.06858677
0.021714525 0.060631238 -0.089261934 -0.042479727 -0.015054721 0.08136577 -0.027345717 0.0053891265
0.05452061 0.091276325 -0.028255505 -0.0013719328 0.023712942 0.048380315 0.0012516974 -0.036616296
0.032604657 0.0014642339 -0.06660059 0.06877795 0.08753411 0.0734906 -0.0029119207 -0.077575415
-0.0054415786 0.0641921 0.05705144 -0.023707455 0.07259134 0.025131825 0.062293682 0.03164724
0.050238725 0.039168213 -0.002923727 0.066565394 -0.011008172 0.030458312 0.024319118 0.009633889
0.039530713 0.038453013 -0.044819407 -0.083706185 -0.006011935 -0.016366744 -0.08690831 0.028662693
0.07614938 -0.07470686 0.026851164 0.08070085 -0.050093718 -0.014407717 0.08021283 0.03143288
0.037798014 -0.0019431174 -0.021085542 0.07933038 0.022732971 0.0050269244 0.08309925 0.036063172
-0.03907412 -0.044222873 0.047630023 -0.040696748 -0.06429116 -0.03834633 -0.045985185 -0.002489133
-0.03949375 -0.011192003 0.08079 -0.07085625 0.02876876 0.0858695 0.048506517 -0.08290512
0.008596921 0.021320546 0.036169585 0.052220307 -0.08541254 0.021074653 0.0013345039 0.08069051
-0.083053246 0.017684685 0.0714961 -0.07729454 0.079347335 0.017119652 -0.057972644 -0.038042806
-0.055720128 0.07656448 0.05807286 -0.079173915 -0.01885166 0.07493742 0.07406467 0.04514142
-0.023458136 -0.0897926 -0.02907612 -0.059438102 0.0898368 -0.016537962 0.049774412 -0.0781036
-0.052101873 0.022250462 -0.0014587258 -0.0830684 0.06313933 0.03769565 0.061847854 -0.0012883894
-0.045148637 -0.07160819 -0.023364013 -0.0778174 0.007898802 0.07746248 0.038330697 -0.040737726
0.0053167655 0.020133974 -0.041398864 0.028726973 0.025515707 0.01747502 -0.047444675 -0.011666111
-0.03738291 0.0041917786 0.064282 0.0427673 -0.07179266 0.06295025 -0.0023639954 0.03472821
0.040878117 -0.032272927 0.07547237 0.046135962 0.06943365 -0.036870897 -0.035944406 -0.03845972
-0.0029953339 0.004988119 -0.05091168 -0.04509456 -0.08899113 -0.0026340107 0.03430038 0.005862002
0.06653675 0.032424714 -0.06782314 -0.059395004 0.0025423309 -0.004851351 0.09355626 -0.0039555645
00000000: 159f 3bbd 2751 8b3d de70 453c 4a8b 413c
00000010: f550 863d e060 843c bb79 803d 6212 14bd
00000020: fa4b 9e3d 312c 83bd 1b11 09bd 2483 22bd
00000030: a1e5 a33b 6d0b 3abd 3ae4 973d a05e 493d
00000040: 827d bfbc 18a8 823c 3a42 be3c 7d5e 8a3d
00000050: a5ec de3c e316 aa3d c063 0a3d 0124 263d
00000060: e7f9 923b 571f 7fbd ff86 a9bd 0244 8cbd
00000070: a485 2b3d 9421 c93c 37a7 0d3d ea63 4e3d
00000080: 35c5 6b3d dc7d 803c 1e45 d6bb 34f9 053d
00000090: f8a9 5fbd 111b b63d 800f 48bd f610 d13c
000000a0: 140d 41bd fe2a a4bd 2cd2 263d c424 4a3d
000000b0: 24be 83bd d142 66ba 7d84 0b38 c1b1 73bd
000000c0: cf05 873c e735 5a3d 1b8e fabc 27e7 84bc
000000d0: fade 85bd d223 623c 9ec3 983c 903b 2f3d
000000e0: d569 4e3b 8f28 8dbd 4c21 82bd 8e37 7b3d
000000f0: f15f b73c ffff 753d 4031 273a d9e7 be3c
00000100: b38d a4bd e09d 8b3d 0763 07bd e031 aabd
00000110: b055 9d3d ff22 163b 0c12 703d 0613 913d
00000120: 45c9 8c3d e3a7 733d 84e3 10bd eb7e 2bbd
00000130: 4e36 d6bc 233d 543d 1e8d 443c 5f7b 91bd
00000140: 59ac 5a3c b733 aa3d 7157 343d 1320 a4bd
00000150: 6fa5 4ebd 77ac 893d d8c2 913d 3877 8cbd
00000160: a9e2 b13c 7658 783d f6ce b6bd 39ff 2dbd
00000170: 14a8 76bc 19a3 a63d 2004 e0bc 4597 b03b
00000180: 0151 5f3d 15ef ba3d 1778 e7bc 6dd2 b3ba
00000190: a541 c23c 702a 463d ff0f a43a f8fa 15bd
000001a0: 768c 053d 89eb bf3a e465 88bd 74db 8c3d
000001b0: 1545 b33d 3d82 963d ecd5 3ebb dcdf 9ebd
000001c0: 454f b2bb 2677 833d c5ae 693d 2336 c2bc
000001d0: c5aa 943d 42e1 cd3c a927 7f3d 89a0 013d
000001e0: 1fc7 4d3d d96e 203d 009c 3fbb 7053 883d
000001f0: 9f5b 34bc b683 f93c e338 c73c 76d7 1d3c
00000200: f5ea 213d e880 1d3d 8e94 37bd 266e abbd
00000210: c4ff c4bb 8d13 86bc fcfc b1bd 06ce ea3c
00000220: 35f4 9b3d e9ff 98bd f9f6 db3c 7d46 a53d
00000230: 122f 4dbd 580e 6cbc a046 a43d c3bf 003d
00000240: 17d2 1a3d 33b0 feba 96bb acbc f777 a23d
00000250: 7f3a ba3c e6b8 a43b f12f aa3d fab6 133d
00000260: 2f0c 20bd 0b23 35bd b317 433d a2b1 26bd
00000270: 15ab 83bd 0b11 1dbd f65a 3cbd b920 23bb
00000280: 33c4 21bd aa5e 37bc 3a75 a53d 151d 91bd
00000290: 76ac eb3c 59dc af3d c5ae 463d 29ca a9bd
000002a0: 1ada 0c3c 6da8 ae3c 8f26 143d f6e4 553d
000002b0: c5ec aebd c0a4 ac3c 85ea ae3a 1141 a53d
000002c0: d217 aabd 79df 903c 8c6c 923d 9a4c 9ebd
000002d0: db80 a23d 833e 8c3c b974 6dbd c6d2 1bbd
000002e0: ca3a 64bd d7cd 9c3d cfdd 6d3d ef25 a2bd
000002f0: cc6e 9abc ca78 993d 38af 973d 36e6 383d
00000300: 472b c0bc 2fe5 b7bd 0b31 eebc 5e75 73bd
00000310: 5bfc b73d 9f7a 87bc 41e0 4b3d c8f4 9fbd
00000320: c668 55bd 9a46 b63c b732 bfba c41f aabd
00000330: 314f 813d c166 1a3d 2d54 7d3d 2ddf a8ba
00000340: c7ed 38bd 51a7 92bd e365 bfbc bb5e 9fbd
00000350: fa69 013c a6a4 9e3d a600 1d3d 9adc 26bd
00000360: 4338 ae3b 01f0 a43c db91 29bd d454 eb3c
00000370: 5106 d13c c627 8f3c 5955 42bd 3723 3fbc
00000380: d21e 19bd 305b 893b 48a6 833d c42c 2f3d
00000390: 0808 93bd 10ec 803d 43ed 1abb 2b3f 0e3d
000003a0: d06f 273d 9e30 04bd 4291 9a3d 10f9 3c3d
000003b0: 3b33 8e3d f005 17bd 713a 13bd f087 1dbd
000003c0: 5d4d 44bb 6073 a33b c488 50bd 13b5 38bd
000003d0: fb40 b6bd 5e9f 2cbb 8e7e 0c3d 0916 c03b
000003e0: 6b44 883d c7cf 043d dce6 8abd 2d48 73bd
000003f0: 3c9d 263b 15f8 9ebb 6d9a bf3d ae9d 81bb

encoder.gru.weight_hh_l0 f4 [384, 128]
0.047209863 -0.0076032453 -0.0100987805 -0.066354774 -0.024361411 -0.07239338 0.051599536 -0.008560129
-0.037711762 0.061752547 -0.06601444 -0.072666295 0.016865572 0.03294836 0.047741693 -0.03087311
-0.035510343 0.03067844 -0.07586359 -0.06927255 -0.036885303 -0.064858496 -0.012708819 -0.068952404
0.0018783095 0.049739745 -0.044786897 0.06335874 -0.055042386 0.042203266 0.052060597 -0.056721393
0.00089089235 -0.064662576 -0.058718503 -0.015416697 0.005996662 -0.008378444 -0.07188161 0.057015922
0.01971729 -0.031656526 0.020476144 -0.06775025 -0.0025839296 -0.060899865 -0.04485448 0.009054877
0.060929604 -0.03632874 0.01980645 -0.059976365 0.02836198 -0.049710836 0.059101697 0.010461647
0.008767591 -0.045298766 -0.003535325 -0.03070977 -0.026016373 -0.0674012 -0.04152147 0.08086813
0.07461941 -0.073707566 0.07342749 0.054233752 0.059873573 -0.03460338 -0.027240695 0.0018532448
-0.03232636 -0.02786661 -0.05913921 -0.004807991 -0.03177389 -0.07389063 -0.034461796 0.07625068
-0.0377692 -0.048841093 -0.04637508 -0.027389405 0.024232956 -0.010571945 -0.0011708407 -0.06724045
-0.010744149 0.03211554 -0.0011046442 0.01906608 0.043272454 0.010962528 -0.0038110134 -0.069255844
-0.015781874 0.018940885 0.07226382 0.021015475 -0.021210317 -0.0746393 0.009353247 0.07856459
0.06625696 0.00512681 0.08257198 0.069244854 0.03821563 -0.02120853 -0.043020543 0.06610392
-0.01950159 -0.0049983575 0.031169523 0.017145585 -0.042567596 -0.019698365 0.062710166 0.061021734
-0.013355991 -0.01064872 0.014198603 0.07739917 0.072480135 -0.041625466 -0.022824597 -0.06050222
-0.04638031 0.08149746 -0.043273654 -0.029510528 -0.05935439 -0.063296445 0.038537953 0.07341559
-0.052474853 0.015340222 0.07328103 0.0017298253 -0.06291937 0.0143399285 -0.023365984 -0.049815442
-0.03433411 0.02439265 0.0021369115 -0.06489266 -0.033773445 0.0113246115 -0.0579768 -0.013521751
-0.02254376 -0.02154173 -0.057736576 -0.06423139 -0.06698006 -0.015260401 0.010466201 -0.018894251
-0.021198364 0.053391047 -0.058656428 -0.023315148 -0.035034474 -0.052277353 -0.058423787 -0.0033815512
0.033694252 0.075128995 -0.03859824 -0.018755103 0.07975492 -0.0068125287 0.07520243 -0.0389341
0.0583413 -0.01820032 0.008323497 -0.06905246 0.014614713 -0.07652954 0.054874346 -0.029792659
0.06839954 0.01162157 -0.0738948 0.08248435 0.07811258 0.062685356 0.030043567 -0.028327301
-0.06079619 0.048283994 -0.045988284 -0.03427009 -0.027557041 0.034904044 0.010628931 -0.08468348
-0.07080892 -0.024656186 -0.022710053 -0.041621234 0.047538448 -0.044028502 -0.042961065 0.021410508
0.073360406 0.022767415 -0.04468546 0.025286246 -0.0723367 0.019761229 0.06930536 0.038430292
0.07703091 -0.02460551 0.03393677 -0.037107673 -0.01826122 0.060402643 -0.020727186 0.021507723
-0.033712436 0.040416565 -0.068664804 -0.046158835 0.06934765 0.03128981 0.011097688 0.06659418
-0.062170558 -0.009881637 -0.05503714 -0.010433716 -0.06343389 -0.009160714 -0.043488413 -0.07309362
-0.0031630981 -0.077619374 0.030709784 0.04614028 0.025663577 0.0324042 0.009327061 -0.012411936
0.06972972 -0.05091594 0.012563044 0.018760398 0.06942574 0.04006742 -0.05976884 0.017488437
00000000: 215f 413d a524 f9bb 5b75 25bc 03e5 87bd
00000010: 9591 c7bc fb42 94bd 095a 533d c93f 0cbc
00000020: a677 1abd 3df0 7c3d 9432 87bd 11d2 94bd
00000030: ab29 8a3c dcf4 063d cb8c 433d 9be9 fcbc
00000040: 4b73 11bd 5a51 fb3c 5f5e 9bbd c4de 8dbd
00000050: 0b15 17bd 88d4 84bd a638 50bc eb36 8dbd
00000060: 9c31 f63a e7bb 4b3d 7772 37bd 3ac2 813d
00000070: 2074 61bd 55dd 2c3d 7e3d 553d b154 68bd
00000080: c68a 693a d06d 84bd d082 70bd 5096 7cbc
00000090: a67f c43b be45 09bc aa36 93bd 8789 693d
000000a0: 2786 a13c 46aa 01bd 96bd a73c a5c0 8abd
000000b0: 2557 29bb 2372 79bd 55b9 37bd e85a 143c
000000c0: 5291 793d 72cd 14bd 2341 a23c c7a9 75bd
000000d0: 6257 e83c 979d 4bbd 9f14 723d 5467 2b3c
000000e0: f1a5 0f3c 338b 39bd e9b0 67bb 0e93 fbbc
000000f0: 4a20 d5bc a409 8abd 6b12 2abd 319e a53d
00000100: 10d2 983d fef3 96bd 2761 963d 3624 5e3d
00000110: fe3d 753d 46bc 0dbd e127 dfbc 94e8 f23a
00000120: a568 04bd 8448 e4bc f53b 72bd 5a8c 9dbb
00000130: 5725 02bd f853 97bd d027 0dbd 5129 9c3d
00000140: e0b3 1abd 990d 48bd ccf3 3dbd bf5f e0bc
00000150: 3184 c63c f435 2dbc e576 99ba 5cb5 89bd
00000160: 3a08 30bc 968b 033d b5c9 90ba 7830 9c3c
00000170: 753e 313d 2d9c 333c 32c2 79bb 02d6 8dbd
00000180: fd48 81bc ea29 9b3c 0eff 933d a528 ac3c
00000190: 42c1 adbc 7ddc 98bd 5c3e 193c 79e6 a03d
000001a0: bbb1 873d cdfe a73b 801b a93d 3fd0 8d3d
000001b0: fe87 1c3d 83bd adbc 4f36 30bd 7e61 873d
000001c0: ccc1 9fbc 43c9 a3bb 3a57 ff3c e674 8c3c
000001d0: 5c5b 2ebd 775e a1bc 306e 803d edf1 793d
000001e0: 16d3 5abc f877 2ebc 42a1 683c 7583 9e3d
000001f0: 7770 943d 777f 2abd a6fa babc 2dd1 77bd
00000200: 48f9 3dbd 24e8 a63d b73f 31bd 10c0 f1bc
00000210: 971d 73bd 91a1 81bd f9d9 1d3d ea5a 963d
00000220: dfef 56bd 8e55 7b3c 5d14 963d 4ebb e23a
00000230: dfdb 80bd 05f2 6a3c 056a bfbc 470b 4cbd
00000240: eca1 0cbd 18d3 c73c 6d0b 0c3b 71e6 84bd
00000250: 0656 0abd dd8a 393c 1579 6dbd 568a 5dbc
00000260: b1ad b8bc 4878 b0bc 307d 6cbd bf8b 83bd
00000270: d72c 89bd c306 7abc 6e7a 2b3c 1ec8 9abc
00000280: 31a8 adbc 92b0 5a3d b941 70bd 69ff bebc
00000290: 4f80 0fbd c720 56bd c84d 6fbd 049d 5dbb
000002a0: fc02 0a3d 3bdd 993d 3019 1ebd 4da4 99bc
000002b0: 8c56 a33d a23b dfbb bb03 9a3d 5d79 1fbd
000002c0: 49f7 6e3d d618 95bc 475f 083c 606b 8dbd
000002d0: 8d72 6f3c 85bb 9cbd ecc3 603d bc0f f4bc
000002e0: 0f15 8c3d 6668 3e3c 2856 97bd 8eed a83d
000002f0: 7df9 9f3d 2e61 803d ed1d f63c a80e e8bc
00000300: 6d05 79bd 70c5 453d 365e 3cbd cb5e 0cbd
00000310: 4ebf e1bc 8bf7 0e3d f824 2e3c 886e adbd
00000320: 4404 91bd c5fb c9bc 6f0a babc 077b 2abd
00000330: adb7 423d 3b57 34bd f1f7 2fbd 1765 af3c
00000340: fb3d 963d bb82 ba3c 1a08 37bd 1a25 cf3c
00000350: 4425 94bd 4de2 a13c f8ef 8d3d 1569 1d3d
00000360: 62c2 9d3d 7f91 c9bc 4801 0b3d 37fe 17bd
00000370: 8e98 95bc c368 773d 0fcc a9bc f730 b03c
00000380: 0d16 0abd d78b 253d 22a0 8cbd 0c11 3dbd
00000390: 2406 8e3d be29 003d 14d3 353c 8862 883d
000003a0: 8ea6 7ebd 97e6 21bc a06e 61bd 2df2 2abc
000003b0: a1e9 81bd d216 16bc e820 32bd 1cb2 95bd
000003c0: fb4b 4fbb e8f6 9ebd 1693 fb3c 97fd 3c3d
000003d0: 6c3c d23c 44ba 043d 87d0 183c 6f5b 4bbc
000003e0: 75ce 8e3d 3c8d 50bd 3ad5 4d3c 68af 993c
000003f0: 152f 8e3d bc1d 243d 2cd0 74bd e943 8f3c

encoder.gru.bias_ih_l0 f4 [384]
0.0665659 0.042621065 -0.0029721155 -0.083981395 0.016401993 -0.03004474 0.050487306 -0.0038289465
0.05785738 0.04874919 0.040358797 0.030614017 -0.019122344 -0.00710589 -0.00018317408 -0.05879702
0.04312849 0.02438571 -0.005625016 0.07716952 -0.06848967 0.04707677 -0.03660741 -0.011005224
0.06868885 0.051448677 -0.03324564 0.044452477 0.002325393 0.07669093 0.0007127138 0.071482904
0.046760112 0.08122385 -0.04062734 -0.01550685 -0.009262324 0.037558123 -0.074749105 -0.089554064
-0.015348531 0.016540764 0.035904694 0.024304565 0.030658701 0.046237547 0.0774597 0.0380757
-0.0807621 0.023964936 0.08306337 0.060980897 -0.075325534 0.03232862 -0.00508983 -0.08301204
-0.0033577909 -0.009083965 0.08100883 0.01617591 -0.0079697035 0.07650606 -0.016694725 0.027885154
0.039364334 -0.08526795 -0.065005444 -0.027767455 -0.0029833973 -0.0058810934 0.0662101 0.047698468
-0.060161564 -0.035781857 0.024599103 -0.042102005 0.047843833 -0.008679358 -0.036679864 0.077735245
-0.07433539 0.027730925 -0.029004937 0.0054085054 -0.06869513 -0.07367624 0.06915618 0.080600426
0.026433052 -0.018624604 -0.075187095 0.02848417 0.080652736 0.014315665 0.026263755 0.07077571
0.08395414 -0.046816394 -0.024109682 0.061301373 -0.041930333 0.02703851 -0.063947394 0.03342864
-0.014535431 0.058103073 -0.0011526053 0.088186145 -0.07096789 -0.044695582 -0.012048538 -0.063584276
0.0052828407 -0.03374607 0.090964586 0.018471694 0.081144206 -0.049886312 -0.011482162 0.03441741
-0.05425804 0.077846386 0.039859843 -0.043638825 0.069259524 -0.04254263 -0.008434351 0.0796822
-0.009916318 0.021075165 0.06694324 0.030145165 -0.01771522 -0.04771098 0.0071536433 -0.0498233
0.014670489 0.07751488 0.06196844 -0.028358035 -0.084686644 -0.032472245 -0.066394694 -0.026056388
-0.02056776 -0.073057495 -0.0001788528 0.07204447 -0.054697707 -0.032262173 0.027557671 0.053651992
0.01743462 -0.026111627 -0.03961574 -0.061079644 0.029031891 0.046257313 -0.0055561075 -0.07196538
0.0061628628 0.02442805 -0.006607125 -0.045847774 0.06466399 0.048780598 -0.009457064 -0.06840974
-0.068458445 0.009397139 0.05437847 -0.035991535 0.012866616 0.0810127 0.051528633 0.0045810714
0.030340083 -0.02066392 -0.05712782 -0.06781831 -0.0027374227 0.03583057 0.029638734 0.05658043
0.06344214 -0.076284245 -0.028953038 0.02713606 0.065587215 0.056080148 0.08240434 -0.03916905
0.0072384686 0.082371786 0.058037363 -0.03448485 -0.010959206 -0.08353374 0.08458297 -0.0151815815
-0.009696385 0.013731312 0.07478114 -0.04083341 0.028690051 0.00893588 0.026120065 0.031993844
-0.029030783 -0.07127447 -0.051443048 0.05302189 -0.050595947 -0.0129589895 -0.030921493 0.07088454
-0.062988535 0.078965314 -0.07124649 -0.029224299 0.05913639 -0.03248341 0.046517994 -0.019535104
0.075532734 -0.033394653 -0.049866453 -0.014000057 0.07683753 -0.075714536 0.07051279 0.07518872
0.053919196 0.020143172 0.06793619 0.078907825 0.0016224019 -0.08105839 0.00055198866 0.059883926
-0.031745832 -0.066348955 -0.040577747 -0.00080750004 -0.026733948 0.0014704097 0.039542172 -0.06351464
0.009234556 -0.08102312 -0.0010693759 -0.03054645 0.032908536 0.02543769 -0.05646399 0.051828932
00000000: b453 883d 6d93 2e3d d3c7 42bb 70fe abbd
00000010: 795d 863c 6320 f6bc c7cb 4e3d 10ef 7abb
00000020: dcfb 6c3d 3bad 473d 444f 253d 3fca fa3c
00000030: 76a6 9cbc 87d8 e8bb 6b12 40b9 25d5 70bd
00000040: 80a7 303d 8ac4 c73c 0e52 b8bb 0e0b 9e3d
00000050: 5044 8cbd 92d3 403d a7f1 15bd 414f 34bc
00000060: bdac 8c3d d9bb 523d 952c 08bd cd13 363d
00000070: 9f65 183b 2210 9d3d 6ad5 3a3a a165 923d
00000080: 8887 3f3d b158 a63d db68 26bd 7110 7ebc
00000090: 01c1 17bc 8cd6 193d 0f16 99bd 1f68 b7bd
000000a0: 6878 7bbc 7f80 873c cd10 133d 5e1a c73c
000000b0: f527 fb3c 9563 3d3d 31a3 9e3d 44f5 1b3d
000000c0: 9a66 a5bd 1d52 c43c 211d aa3d 1bc7 793d
000000d0: 4644 9abd 046b 043d 97c8 a6bb 3702 aabd
000000e0: 620e 5cbb e9d4 14bc f5e7 a53d 5883 843c
000000f0: 5c93 02bc 36af 9c3d 60c3 88bc 686f e43c
00000100: 7f3c 213d f7a0 aebd 9321 85bd 9378 e3bc
00000110: 1a85 43bb 30b6 c0bb 2999 873d 785f 433d
00000120: f96b 76bd ff8f 12bd 0f84 c93c 2773 2cbd
00000130: e5f7 433d de33 0ebc a03d 16bd a833 9f3d
00000140: 273d 98bd f72b e33c c39b edbc d539 b13b
00000150: 08b0 8cbd 92e3 96bd c1a1 8d3d d611 a53d
00000160: 218a d83c a092 98bc b1fb 99bd a257 e93c
00000170: 432d a53d 408c 6a3c 1627 d73c dbf2 903d
00000180: 26f0 ab3d 8cc2 3fbd ab81 c5bc 2617 7b3d
00000190: 24bf 2bbd de7f dd3c daf6 82bd 78ec 083d
000001a0: 0426 6ebc 7dfd 6d3d 0413 97ba f09a b43d
000001b0: 9d57 91bd b712 37bd 3b67 45bc 7938 82bd
000001c0: ae1b ad3b 5239 0abd a44b ba3d f351 973c
000001d0: ef2e a63d 9755 4cbd ae1f 3cbc 45f9 0c3d
000001e0: ae3d 5ebd ed6d 9f3d 1344 233d a0be 32bd
000001f0: f0d7 8d3d 2e41 2ebd 3b30 0abc 6c30 a33d
00000200: 0d78 22bc d3a5 ac3c 8a19 893d fef2 f63c
00000210: 821f 91bc 976c 43bd 1c69 ea3b 8413 4cbd
00000220: 7e5c 703c 1fc0 9e3d 9ed2 7d3d 1c4f e8bc
00000230: 3170 adbd 9e01 05bd f1f9 87bd 3574 d5bc
00000240: b87d a8bc 2b9f 95bd 6f8a 3bb9 0d8c 933d
00000250: b40a 60bd 5725 04bd a0c0 e13c 31c2 5b3d
00000260: 0cd3 8e3c 0de8 d5bc 1d44 22bd a62e 7abd
00000270: 4ad4 ed3c 4f78 3d3d 0210 b6bb 9662 93bd
00000280: d7f1 c93b 551d c83c 9580 d8bb e0ca 3bbd
00000290: 8e6e 843d 2ace 473d cdf1 1abc 681a 8cbd
000002a0: f133 8cbd 75f6 193c f5bb 5e3d dc6b 13bd
000002b0: 80ce 523c fde9 a53d b00f 533d d01c 963b
000002c0: c48b f83c 6247 a9bc dcfe 69bd 53e4 8abd
000002d0: 5566 33bb 13c3 123d eecc f23c e2c0 673d
000002e0: f4ed 813d ea3a 9cbd ec2e edbc 714c de3c
000002f0: 9752 863d 4cb4 653d 9bc3 a83d ba6f 20bd
00000300: ad30 ed3b 8ab2 a83d 96b8 6d3d fc3f 0dbd
00000310: 3e8e 33bc bd13 abbd d639 ad3d 2bbc 78bc
00000320: 96dd 1ebc 4cf9 603c db26 993d ef40 27bd
00000330: 6607 eb3c cc67 123c bff9 d53c fa0b 033d
00000340: f7d1 edbc 59f8 91bd f2b5 52bd 7b2d 593d
00000350: b23d 4fbd f151 54bc 124f fdbc ea2b 913d
00000360: 2200 81bd 91b8 a13d aee9 91bd cc67 efbc
00000370: 0039 723d 530d 05bd a789 3e3d 1508 a0bc
00000380: e8b0 9a3d d5c8 08bd c440 4cbd 7f60 65bc
00000390: ff5c 9d3d 3910 9bbd 0269 903d 8bfc 993d
000003a0: 60da 5c3d 4b03 a53c 2122 8b3d 6d9a a13d
000003b0: c6a6 d43a f101 a6bd 55b3 103a d948 753d
000003c0: eb07 02bd f6e1 87bd da34 26bd 69ae 53ba
000003d0: 2701 dbbc c3ba c03a f9f6 213d f713 82bd
000003e0: 894c 173c 73ef a5bd 4d2a 8cba 8c3c fabc
000003f0: 1acb 063d b462 d03c c946 67bd 934a 543d

encoder.gru.bias_hh_l0 f4 [384]
-0.056050874 0.03831717 0.032915283 0.042689692 0.01743939 0.024360752 -0.086123 -0.011925267
0.028205166 0.06758355 -0.036470354 -0.066493794 -0.07016785 -0.018457238 0.021152813 0.056796927
-0.021437429 0.059146773 -0.050064143 -0.011597618 -0.01706637 0.015705328 0.050395545 -0.037225153
0.020626916 -0.0097762635 0.042031284 -0.0151381595 -0.022196963 -0.07317222 -0.07179531 -0.08810762
-0.06765276 -0.08114364 0.07328408 0.014528064 0.08758793 0.03094533 0.014579844 0.0057026376
-0.06820335 -0.08671356 0.0311289 0.058274727 -0.027625991 0.012261749 -0.04533848 -0.058347125
0.06710675 -0.004820078 -0.054343153 -0.06439165 0.016430091 0.075079545 -0.08255714 -0.049509406
0.058980454 -0.057272397 0.022613939 -0.011001239 -0.0602823 -0.048440147 -0.0075779683 0.040534128
0.03980367 -0.009125736 0.07050116 -0.07883615 0.08364844 -0.0469666 -0.04774721 -0.08179479
0.07742207 0.06777704 -0.012368349 0.07432209 -0.045088075 -0.031959783 -0.0024705296 -0.050874453
-0.07210664 0.037757732 0.0029767472 0.038642496 0.07234709 0.009693438 0.08354028 0.008555795
0.074297756 -0.002320335 -0.05816599 0.01549877 -0.0051310845 -0.07959609 0.03286202 -0.050158042
0.027001357 0.061883703 0.07781397 0.0046810103 0.004097536 -0.021196097 0.0594149 0.04357411
-0.08972818 0.050544716 0.019208364 0.03590943 -0.058630314 -0.011674168 0.008873202 -0.06343929
-0.020536825 -0.07159925 0.015601407 0.08233762 0.012765154 -0.034748815 0.019521272 0.02833153
0.082905896 -0.05772401 -0.06620332 0.049234305 0.08726807 0.07040133 -0.000109162356 0.03486354
-0.05227998 -0.001076958 -0.073424324 0.06471028 -0.05705175 -0.058502924 0.006118182 0.0037657926
-0.01006104 -0.0188408 -0.031869795 0.019965146 -0.067676105 0.03196169 0.06593604 0.050941188
0.025049714 -0.0089942645 -0.085106276 -8.2287406e-05 -0.004947222 -0.07878102 0.056787584 -0.07388038
-0.009959454 0.0029960733 -0.08110527 0.04663813 0.060122546 -0.057547178 0.030267663 0.013365565
-0.07003082 0.01994961 -0.04847433 -0.048821665 0.018858759 -0.039865203 0.06896504 -0.07860667
0.049954582 -0.046181727 -0.04313541 0.05477035 0.03947467 -0.07330052 -0.013168619 0.008841194
-0.0064832885 -0.036301114 0.07441914 -0.061043203 0.0019140937 -0.010124387 0.07844967 -0.051984437
0.018744763 -0.010065816 -0.0005401981 0.052219614 0.08042637 -0.05206337 -0.040156335 0.050214417
0.06500873 0.047225833 -0.031046078 -0.06694148 -0.056844648 -0.05254057 -0.031858303 0.05846336
-0.007934311 0.08091641 -0.0850632 0.045436736 0.050742887 0.0714547 -0.03166433 -0.020664379
0.0397849 0.002038427 -0.0077507407 0.04179625 0.009421847 -0.04031198 -0.07186724 0.05801976
-0.0729393 0.0038431706 -0.05529319 -0.01587639 -0.03898207 -0.039140817 -0.057316966 0.04545237
-0.031794123 0.063108906 0.012094113 0.01709782 0.02079191 0.06706428 -0.06413713 -0.07273643
-0.044430234 0.00046535698 0.047235362 0.024661351 0.041534577 -0.06398464 -0.074506275 -0.08426081
0.009948389 -0.031041767 -0.034636937 -0.080190204 0.018177941 -0.0053703324 -0.032252 -0.09028763
0.05681572 -0.067252144 0.07231076 0.075788125 0.024751648 -0.046328086 0.006188886 -0.058370583
00000000: 9a95 65bd 77f2 1c3d 2dd2 063d 63db 2e3d
00000010: 0ddd 8e3c 3390 c73c 4161 b0bd 3262 43bc
00000020: 850e e73c 3f69 8a3d f061 15bd e62d 88bd
00000030: 29b4 8fbd a233 97bc aa48 ad3c e5a3 683d
00000040: 8c9d afbc e343 723d 0f10 4dbd f003 3ebc
00000050: c6ce 8bbc 76a8 803c 8f6b 4e3d 6779 18bd
00000060: c7f9 a83c 9f2c 20bc ff28 2c3d 0b06 78bc
00000070: 68d6 b5bc 51db 95bd 6b09 93bd c571 b4bd
00000080: 888d 8abd a32e a6bd f715 963d 1e07 6e3c
00000090: 4d61 b33d 1081 fd3c 4ce0 6e3c 31dd ba3b
000000a0: 33ae 8bbd e196 b1bd 0902 ff3c 7bb1 6e3d
000000b0: e74f e2bc 81e5 483c d8b4 39bd 65fd 6ebd
000000c0: 446f 893d bff1 9dbb ed96 5ebd c5df 83bd
000000d0: 6698 863c 4ec3 993d b813 a9bd 60ca 4abd
000000e0: 7d95 713d 7696 6abd de40 b93c 8a3e 34bc
000000f0: 93ea 76bd 2d69 46bd 9b50 f8bb 1d07 263d
00000100: 2c09 233d 1c84 15bc ea62 903d d974 a1bd
00000110: e04f ab3d 0d60 40bd 9492 43bd 0784 a7bd
00000120: 768f 9e3d b0ce 8a3d 9ea4 4abc 2e36 983d
00000130: 46ae 38bd 43e8 02bd 9ce8 21bb bb61 50bd
00000140: a5ac 93bd daa7 1a3d 8815 433b 9847 1e3d
00000150: b62a 943d 3ad1 1e3c 2b17 ab3d 9b2d 0c3c
00000160: 6c29 983d c310 18bb 763f 6ebd 8eee 7d3c
00000170: a822 a8bb 4603 a3bd 539a 063d 8572 4dbd
00000180: f331 dd3c c479 7d3d ee5c 9f3d 2963 993b
00000190: a044 863b 70a3 adbc 0a5d 733d c47a 323d
000001a0: 68c3 b7bd fa07 4f3d dc5a 9d3c c415 133d
000001b0: 5726 70bd 0245 3fbc e860 113c 75ec 81bd
000001c0: d83c a8bc a1a2 92bd 0b9d 7f3c a0a0 a83d
000001d0: f024 513c c654 0ebd 13eb 9f3c 8617 e83c
000001e0: 91ca a93d 0370 6cbd 9b95 87bd e9a9 493d
000001f0: 9ab9 b23d 932e 903d 18ee e4b8 12cd 0e3d
00000200: 8823 56bd b728 8dba 7e5f 96bd d386 843d
00000210: 19af 69bd c3a0 6fbd 087b c83b 84cb 763b
00000220: 0fd7 24bc 0558 9abc e789 02bd f28d a33c
00000230: c599 8abd 43ea 023d 7909 873d b5a7 503d
00000240: 0f35 cd3c ae5c 13bc 334c aebd b791 acb8
00000250: 4e1c a2bb f257 a1bd 199a 683d 994e 97bd
00000260: fa2c 23bc c559 443b 851a a6bd a007 3f3d
00000270: 0f43 763d 97b6 6bbd e4f3 f73c 3efb 5a3c
00000280: 526c 8fbd 5d6d a33c 058d 46bd 3af9 47bd
00000290: af7d 9a3c b249 23bd 8b3d 8d3d 89fc a0bd
000002a0: 2d9d 4c3d 0d29 3dbd c1ae 30bd e056 603d
000002b0: 31b0 213d 951e 96bd 31c1 57bc a8da 103c
000002c0: c471 d4bb 7ab0 14bd 1069 983d 7008 7abd
000002d0: 54e2 fa3a c2e0 25bc 38aa a03d a2ed 54bd
000002e0: 9e8e 993c 18eb 24bc 159c 0dba 3ce4 553d
000002f0: 95b6 a43d 6640 55bd f87a 24bd a2ad 4d3d
00000300: 4c23 853d e06f 413d 5854 febc 9d18 89bd
00000310: efd5 68bd c834 57bd da7d 02bd 4777 6f3d
00000320: eafe 01bc 81b7 a53d 9d35 aebd df1b 3a3d
00000330: c6d7 4f3d d756 923d 75b2 01bd 5848 a9bc
00000340: 7ef5 223d 2197 053b edf9 fdbb 8b32 2b3d
00000350: 175e 1a3c 2d1e 25bd 222f 93bd 21a6 6d3d
00000360: 3361 95bd b4dd 7b3b 1d7b 62bd 340f 82bc
00000370: aaab 1fbd 1f52 20bd 32c5 6abd 442c 3a3d
00000380: 8e3a 02bd 3e3f 813d 6326 463c ba10 8c3c
00000390: cc53 aa3c ff58 893d 545a 83bd d6f6 94bd
000003a0: 7afc 35bd 28fb f339 de79 413d 9a06 ca3c
000003b0: 2920 2a3d 610a 83bd bf96 98bd ee90 acbd
000003c0: 91fe 223c 4e4b febc 76df 0dbd c33a a4bd
000003d0: e8e9 943c 9df9 afbb ac1a 04bd b9e8 b8bd
000003e0: 9ab7 683d 7ebb 89bd aa17 943d ce36 9b3d
000003f0: f8c3 ca3c 85c2 3dbd 23cc ca3b fe15 6fbd

encoder.gru.weight_ih_l0_reverse f4 [384, 2]
0.04674458 -0.032999113 0.006740468 -0.0051009944 0.046618022 0.01751276 -0.06375577 -0.00047937603
0.048422117 -0.07137101 -0.07251333 0.04920932 0.0024322479 0.049953178 -0.0001463859 -0.08556956
0.0033291087 -0.0017432447 -0.0122008845 0.05284061 0.057772644 -0.05760599 0.018507274 -0.042883214
0.05281783 0.020068092 -0.0457438 0.017774846 -0.032099117 -0.048069987 0.080367714 -0.00993774
-0.032251377 0.053362653 0.010469113 0.06575299 0.040466234 -0.005445193 0.008850841 -0.04953271
-0.071986474 -0.0006437559 0.057355016 0.04460946 0.054441992 -0.019472895 -0.05690889 0.05535731
-0.019320142 0.059871815 -0.05706837 0.016434075 0.03399372 -0.0498163 0.07174448 0.013469983
0.0074954033 -0.043069355 -0.012037428 0.0054498916 0.04322249 0.06814878 0.008710603 -0.005735298
-0.03256381 0.00963613 0.0664095 -0.06921877 0.024896719 0.08843095 0.047597513 0.0018870332
-0.010949917 0.07451922 -0.042647608 -0.03786777 -0.04859002 0.0023517085 0.036430124 0.0032154426
0.008495872 0.044139635 -0.04796154 -0.011101666 0.02025067 -0.025933187 -0.028526394 -0.07688765
0.030576019 0.06825115 -0.079204984 -0.080424786 -0.061794385 -0.009765476 -0.03305169 -0.02891576
-0.039031662 -0.037277367 0.0048516965 0.0828225 -0.07946693 -0.058101214 0.03310312 -0.013606541
-0.07134486 0.063149706 0.02940526 0.0010105987 0.083223045 -0.06984729 0.048548486 0.06672933
-0.008296337 -0.033592332 -0.06486308 0.07734799 -0.06557992 0.0147438785 -0.066380225 -0.07272937
-0.014479569 -0.039658755 -0.0030681351 0.020926235 -0.013092187 -0.06682246 0.03920848 0.03869338
0.077347696 -0.06155153 -0.0795808 0.06512494 -0.06439488 0.0003852009 0.049102973 -0.065534756
0.013425343 -0.047184106 0.048165876 -0.08638937 -0.0138588175 -0.05703833 -0.061165653 -0.031764008
0.015633412 -0.051188897 0.0450627 0.06298083 0.046378996 -0.0019834386 0.018860526 -0.04171376
-0.072428346 -0.06778841 0.029727679 0.006977514 -0.039878413 -0.035612196 -0.047367554 -0.021221599
0.038050503 -0.013614808 0.053431194 0.040185247 0.079813994 -0.042095903 -0.07099666 0.02246697
-0.059466466 -0.06766591 -0.018395906 0.05459329 0.048075125 0.086018205 -0.039598014 -0.028826939
0.005223252 0.014076068 0.057676658 0.040600114 0.013253132 0.07889125 0.09237366 -0.082726575
0.016393283 -0.07363816 -0.059871823 0.085268736 0.077563785 -0.012301198 0.012802261 -0.033045836
-0.0572058 -0.04516633 0.038213693 -0.0508305 -0.019014403 -0.023546265 -0.053769495 -0.053628445
-0.030126965 0.057100084 -0.036127593 -0.079216726 0.0793627 0.0459007 -0.033964127 0.06456812
-0.061280623 0.028952241 -0.079220966 -0.042925812 0.04828234 -0.07471736 -0.07600073 -0.07216507
-0.07159051 0.06106303 0.029390538 -0.06191413 -0.069049075 0.038277864 0.076452166 -0.011078387
0.036499236 -0.033935905 -0.065868184 -0.011103588 0.07466628 0.05181203 -0.034573615 0.036499426
0.041802045 0.01368475 0.072644405 0.047022283 -0.06748532 -0.0765216 -0.08250231 0.019494249
-0.032150976 0.061573274 -0.03863871 0.02988609 0.064662136 -0.026726251 0.070360795 -0.056156643
-0.0758412 0.0857995 0.086047344 -0.05990941 0.054904796 -0.026629394 0.042478595 -0.057543244
00000000: 3f77 3f3d 142a 07bd 25df dc3b 3e26 a7bb
00000010: 8af2 3e3d eb76 8f3c 6392 82bd c354 fbb9
00000020: 4556 463d f72a 92bd de81 94bd b68f 493d
00000030: 5966 1f3b b49b 4c3d 2a7f 19b9 183f afbd
00000040: 2d2d 5a3b 967d e4ba 38e6 47bc 656f 583d
00000050: 02a3 6c3d 42f4 6bbd 919c 973c 4fa6 2fbd
00000060: 8257 583d d765 a43c da5d 3bbd 8e9c 913c
00000070: 5d7a 03bd 09e5 44bd d497 a43d e7d1 22bc
00000080: 051a 04bd cc92 5a3d a486 2b3c 81a9 863d
00000090: ecbf 253d 976d b2bb 1e03 113c d0e2 4abd
000000a0: a56d 93bd bac1 28ba 18ed 6a3d 69b8 363d
000000b0: 91fe 5e3d 9f85 9fbc 4c19 69bd 59be 623d
000000c0: 4645 9ebc 263c 753d 86c0 69bd c1a0 863c
000000d0: 003d 0b3d 2d0c 4cbd c5ee 923d 34b1 5c3c
000000e0: 009c f53b 7e69 30bd a238 45bc 0195 b23b
000000f0: 110a 313d 9691 8b3d ebb6 0e3c 2bef bbbb
00000100: a161 05bd dce0 1d3c b401 883d 92c2 8dbd
00000110: 34f4 cb3c 491b b53d 9cf5 423d 5456 f73a
00000120: 4867 33bc 889d 983d 42af 2ebd 3c1b 1bbd
00000130: 5406 47bd 1f1f 1a3b c137 153d 2dba 523b
00000140: 4532 0b3c c3cb 343d 5273 44bd c3e3 35bc
00000150: bce4 a53c d671 d4bc 2fb0 e9bc 4677 9dbd
00000160: 8f7a fa3c 42c7 8b3d 3936 a2bd c0b5 a4bd
00000170: 1c1c 7dbd 60ff 1fbc 3561 07bd bee0 ecbc
00000180: aadf 1fbd 27b0 18bd fbfa 9e3b d89e a93d
00000190: 8fbf a2bd 8afb 6dbd 2397 073d f8ed 5ebc
000001a0: 411d 92bd a254 813d 4de3 f03c 1176 843a
000001b0: d870 aa3d 190c 8fbd c7da 463d 63a9 883d
000001c0: 5ced 07bc 1d98 09bd efd6 84bd 9f68 9e3d
000001d0: c44e 86bd 4f90 713c 5bf2 87bd 23f3 94bd
000001e0: b73b 6dbc 3871 22bd c412 49bb 7f6d ab3c
000001f0: 9d80 56bc 37da 88bd 1299 203d f37c 1e3d
00000200: 7868 9e3d 751d 7cbd 42fb a2bd 3960 853d
00000210: 76e1 83bd caf4 c939 3320 493d 1637 86bd
00000220: f8f5 5b3c 1f44 41bd 9549 453d e9ec b0bd
00000230: 1810 63bc 06a1 69bd d688 7abd fa1a 02bd
00000240: a411 803c 73ab 51bd aa93 383d 18fc 803d
00000250: e7f7 3d3d 94fc 01bb 6481 9a3c 0cdc 2abd
00000260: 5055 94bd a6d4 8abd 7687 f33c a1a3 e43b
00000270: 8c57 23bd 18de 11bd 7b04 42bd ebd8 adbc
00000280: d8da 1b3d a510 5fbc abda 5a3d 4999 243d
00000290: 8575 a33d c16c 2cbd b266 91bd a70c b83c
000002a0: 1c93 73bd 6d94 8abd 03b3 96bc 379d 5f3d
000002b0: 6cea 443d 502a b03d 8731 22bd 7926 ecbc
000002c0: d027 ab3b 4f9f 663c 5c3e 6c3d 4e4c 263d
000002d0: aa23 593c bc91 a13d 672e bd3d 8d6c a9bd
000002e0: 354b 863c 9bcf 96bd 283c 75bd 60a1 ae3d
000002f0: c3d9 9e3d f78a 49bc 93c0 513c 125b 07bd
00000300: a150 6abd 5400 39bd f685 1c3d a433 50bd
00000310: 18c4 9bbc 19e4 c0bc 673d 5cbd 80a9 5bbd
00000320: d3cc f6bc c7e1 693d 87fa 13bd 613c a2bd
00000330: e988 a23d 5f02 3c3d f81d 0bbd 4a3c 843d
00000340: 6401 7bbd 402d ed3c 9a3e a2bd fad2 2fbd
00000350: b4c3 453d 6a05 99bd 45a6 9bbd 48cb 93bd
00000360: 0c9e 92bd 3a1d 7a3d 6dc4 f03c ac99 7dbd
00000370: 9a69 8dbd 40c9 1c3d f492 9c3d 1f82 35bc
00000380: 3980 153d 6000 0bbd e6e5 86bd d3eb 35bc
00000390: a2ea 983d da38 543d 109d 0dbd 6c80 153d
000003a0: 9f38 2b3d 0036 603c 97c6 943d 709a 403d
000003b0: be35 8abd 5bb7 9cbd f9f6 a8bd 67b2 9f3c
000003c0: beb0 03bd 4234 7c3d a043 1ebd acd3 f43c
000003d0: 956d 843d 03f1 dabc 5219 903d 8204 66bd
000003e0: a252 9bbd a6b7 af3d 9739 b03d 9263 75bd
000003f0: dae3 603d e325 dabc 09fe 2d3d 77b2 6bbd

encoder.gru.weight_hh_l0_reverse f4 [384, 128]
0.0069303117 -0.048204433 -0.06190581 -0.06572248 0.03795397 0.078003496 0.0068501295 -0.06505698
-0.0073647266 -0.07244481 0.023434887 -0.03882767 -0.034225658 0.0036993304 -0.050237823 0.017732162
0.05418094 -0.037116356 -0.007382918 -0.047431506 0.065442115 0.018041868 -0.08025268 -0.07408686
-0.02083866 0.03387166 0.030416504 -0.04048792 0.053384207 0.050116688 0.058936812 -0.050126094
0.03368968 -0.017063316 0.04928251 -0.08860945 0.042583995 -0.03345639 -0.0142954 -0.06423709
0.013958093 -0.030162618 0.05001476 -0.039239522 -0.0014033251 -0.02180546 0.0045985547 0.062533565
-0.014491316 0.022783011 -0.00083174085 0.059904072 -0.0229651 0.009622532 0.008416174 -0.08564399
-0.03881014 -0.06865199 -0.03643258 0.091982216 -0.03321312 0.050350286 0.08216219 0.048741147
-0.062264923 0.030274116 0.0377243 0.01668738 0.02327868 0.048611574 0.0701873 -0.07666088
0.036764227 -0.06302935 -0.059403308 -0.05753317 0.083678715 0.0018437746 0.05860999 -0.057522386
-0.07378047 0.013618676 0.033707693 0.00042507463 0.030286714 -0.03656996 -0.00023942224 0.08811783
0.038230628 -0.07957541 -0.0786981 -0.004645483 0.029106092 -0.048228092 0.06964121 -0.014652426
0.059987683 -0.039096143 0.035853285 -0.017209481 0.038105026 -0.045958925 -0.0065353326 0.03696194
0.07843155 0.08213124 0.056726232 0.04032438 0.049980074 -0.010280102 -0.035935402 0.0656893
-0.08188087 -0.015337761 0.044245876 0.032538228 0.030586941 -0.01613797 -0.041910674 -0.027774518
0.01185968 -0.03607509 0.01588675 0.02634032 -0.037368942 -0.041360896 -0.043788344 0.03841608
-0.036285136 -0.022860477 -0.023977827 -0.0882925 0.06417428 -0.022926105 0.013148307 0.004771238
-0.05036513 -0.05196267 -0.043404337 -0.0113959005 0.068842925 -0.008402206 0.037855193 0.08233166
-0.07697612 0.024411159 -0.014046093 0.07900739 -0.040983703 0.036235306 0.08445058 -0.0016872167
-0.027662726 0.06275024 -0.073714726 -0.04052086 -0.020057192 -0.079403214 0.03175751 -0.089510575
0.03993511 -0.087667614 -0.042184018 -0.053867664 0.04488872 -0.0015222954 -0.057641987 0.017069178
-0.0389376 0.08241855 0.0029825964 0.019810647 -0.081747875 0.04263094 0.01577554 -0.054027606
0.006847706 -0.07374861 -0.08011431 0.0131348735 0.08602153 0.045836315 0.06470556 -0.00877732
0.026990337 -0.008855251 0.027262617 -0.0384588 -0.014633886 -0.020705244 -0.085587874 0.018464673
-0.07876934 0.06803504 0.022765279 -0.031714216 -0.023199314 0.035146687 -0.0074064652 0.042251475
-0.07882644 -0.041594457 0.064393505 -0.05582388 0.038555115 -0.07383252 -0.064737424 -0.026641788
0.053983305 -0.030649312 -0.046138316 0.0682179 -0.04057607 0.05108232 0.009897322 -0.07443808
-0.017677693 0.038477235 -0.050628766 -0.023441274 -0.030472748 0.041469533 0.06950437 -0.07977759
0.059243288 -0.08045584 0.028091716 0.06803864 -0.08512971 -0.052070737 0.033856884 0.072256334
0.04000004 0.07955648 -0.007845612 -0.020672953 0.033380732 -0.028871749 -0.07079303 -0.006794031
0.002484952 -0.054262597 0.035548523 0.0807318 -0.07265796 0.08152381 0.05101616 -0.029245868
0.052885704 -0.0036057408 0.049874514 0.08469869 0.014103513 0.06501991 0.013477367 0.022260502
00000000: ab17 e33b 0372 45bd f290 7dbd 8299 86bd
00000010: 9f75 1b3d 4cc0 9f3d 0d77 e03b 983c 85bd
00000020: ce53 f1bb f25d 94bd 85fa bf3c c309 1fbd
00000030: 3430 0cbd 7770 723b 2dc6 4dbd 0a43 913c
00000040: d5ec 5d3d 5207 18bd 68ec f1bb 8a47 42bd
00000050: 8406 863d 8acc 933c 845b a4bd daba 97bd
00000060: d6b5 aabc 02bd 0a3d 082c f93c a9d6 25bd
00000070: 66a9 5a3d 2847 4d3d ba67 713d 0551 4dbd
00000080: 31fe 093d 5ec8 8bbc 75dc 493d df78 b5bd
00000090: 8e6c 2e3d 9109 09bd 4137 6abc bc8e 83bd
000000a0: 7cb0 643c 9817 f7bc 47dc 4c3d 9fb9 20bd
000000b0: c7ef b7ba 5da1 b2bc 79af 963b 9911 803d
000000c0: fc6c 6dbc 70a3 ba3c 2f09 5aba f95d 753d
000000d0: 4e21 bcbc d3a7 1d3c fee3 093c 1e66 afbd
000000e0: 62f7 1ebd 6a99 8cbd 543a 15bd 2c61 bc3d
000000f0: 7b0a 08bd 1a3c 4e3d a644 a83d cca4 473d
00000100: 8109 7fbd 6c01 f83c cc84 1a3d f9b3 883c
00000110: eeb2 be3c ee1c 473d 5cbe 8f3d 6100 9dbd
00000120: 1696 163d 8815 81bd e250 73bd e7a7 6bbd
00000130: bf5f ab3d cfaa f13a 0711 703d 989c 6bbd
00000140: 371a 97bd de20 5f3c 1411 0a3d 8ddc de39
00000150: d81b f83c 62ca 15bd 6b0d 7bb9 1f77 b43d
00000160: b897 1c3d 6ff8 a2bd 782c a1bd 2339 98bb
00000170: e66f ee3c d28a 45bd 0da0 8e3d bb10 70bc
00000180: a5b5 753d 4723 20bd e5da 123d e6fa 8cbc
00000190: 0414 1c3d 6d3f 3cbd 5826 d6bb 6765 173d
000001a0: b8a0 a03d 6c34 a83d c459 683d 2d2b 253d
000001b0: e8b7 4c3d df6d 28bc 0031 13bd 1d88 863d
000001c0: 28b1 a7bd 3b4b 7bbc 2a3b 353d ce46 053d
000001d0: 7791 fa3c c733 84bc 87aa 2bbd 6387 e3bc
000001e0: 1a4f 423c 79c3 13bd ee24 823c a8c7 d73c
000001f0: 2d10 19bd 0b6a 29bd 685b 33bd 2e5a 1d3d
00000200: b99f 14bd e545 bbbc 266d c4bc b3d2 b4bd
00000210: ce6d 833d 87cf bbbc ff6b 573c 0c58 9c3b
00000220: ab4b 4ebd cfd6 54bd bfc8 31bd dfb5 3abc
00000230: 85fd 8c3d 68a9 09bc 0c0e 1b3d 809d a83d
00000240: a8a5 9dbd e9f9 c73c 9621 66bc a0ce a13d
00000250: 87de 27bd 796b 143d 6df4 ac3d 9925 ddba
00000260: f19c e2bc 3383 803d bff7 96bd 34f9 25bd
00000270: fb4e a4bc 279e a2bd 2a14 023d 5251 b7bd
00000280: ff92 233d 148b b3bd 26c9 2cbd 57a4 5cbd
00000290: 3cdd 373d c287 c7ba 011a 6cbd a9d4 8b3c
000002a0: 087d 1fbd 0fcb a83d aa77 433b f049 a23c
000002b0: 6e6b a7bd c89d 2e3d b53b 813c 0d4c 5dbd
000002c0: b962 e03b 8309 97bd f912 a4bd a733 573c
000002d0: 0e2c b03d dcbe 3b3d 5984 843d c0ce 0fbc
000002e0: d71a dd3c 9d15 11bc da55 df3c fa86 1dbd
000002f0: f7c2 6fbc 0b9e a9bc b248 afbd 3a43 973c
00000300: d251 a1bd f455 8b3d 407e ba3c c4e6 01bd
00000310: 7d0c bebc f9f5 0f3d efb1 f2bb e20f 2d3d
00000320: c26f a1bd f35e 2abd bee0 833d 95a7 64bd
00000330: f8eb 1d3d 8135 97bd 0e95 84bd e13f dabc
00000340: 991d 5d3d 4414 fbbc 88fb 3cbd d4b5 8b3d
00000350: 1833 26bd b23b 513d 6128 223c fe72 98bd
00000360: cfd0 90bc 4e9a 1d3d 1c60 4fbd ea07 c0bc
00000370: fca1 f9bc f5db 293d 4f58 8e3d 6f62 a3bd
00000380: 17a9 723d 08c6 a4bd 9920 e63c d857 8b3d
00000390: 7c58 aebd 2048 55bd 84ad 0a3d 21fb 933d
000003a0: 15d7 233d 82ee a23d e28a 00bc 535a a9bc
000003b0: 3cba 083d 7284 ecbc f0fb 90bd 76a0 debb
000003c0: 94da 223b 7542 5ebd 549b 113d b756 a53d
000003d0: b2cd 94bd f5f5 a63d 52f6 503d 0895 efbc
000003e0: ae9e 583d 4b4e 6cbb 3849 4c3d 8276 ad3d
000003f0: 6c12 673c 2929 853d 2dd0 5c3c a85b b63c

encoder.gru.bias_ih_l0_reverse f4 [384]
-0.03638031 0.061682597 -0.0037718527 -0.030182712 -0.08021439 -0.08258293 -0.041421715 0.030384485
-0.030317979 -0.045614947 -0.06536273 0.00026985107 0.050859015 0.03762734 0.03062925 -0.0757498
0.0077268383 -0.013682913 -0.047186337 0.016162384 0.032603342 0.08342449 -0.03265748 0.0085315425
-0.08335002 0.01624443 -0.03150326 -0.08106014 -0.083624385 -0.04232935 -0.0033210816 0.02386519
0.05590236 0.077457935 0.014478389 0.0794502 -0.015194763 0.013361921 -0.040121548 -0.06760904
-0.03190544 0.069628336 -0.063093774 -0.008355952 -0.012342968 0.00574601 -0.05524178 0.04679383
0.038936764 -0.07518572 -0.0740878 0.020179577 0.027952975 -0.020384276 -0.0024642036 -0.055791877
-0.0760179 -0.08189977 -0.054519515 0.0031603605 0.015811386 0.044781078 -0.079484776 0.021862585
-0.07349279 -0.031094832 -0.03739116 0.07185618 0.07154688 0.06887042 -0.06823895 0.07643948
0.048657306 0.026390718 -0.009186928 0.04057076 0.0532416 0.027461672 0.078838564 -0.052504312
0.082675 -0.042686988 -0.07267248 -0.050596155 -0.0721765 -0.04523846 -0.012764338 0.083932646
0.037650578 -0.07590988 0.016816506 -0.0818309 0.034891732 0.052183326 0.08665866 0.07973206
0.022057332 0.024676291 0.047284648 -0.03512256 -0.048692122 0.016574485 0.048151437 -0.008051167
0.01858271 0.029674586 0.058966994 0.051631913 0.012787385 0.0804159 0.02177936 0.078222916
0.081991754 -0.0246296 -0.014325493 0.03858194 0.0569328 0.0639564 -0.034493823 -0.021838224
0.059404567 -0.04925682 0.06963095 0.005590563 0.00016224405 -0.039761506 -0.047729783 0.062107675
-0.08304967 0.029231207 -0.0745087 -0.06900686 0.07304518 -0.033185173 0.013736128 -0.020593673
0.012150479 0.055158075 0.019210866 -0.042209677 -0.013898738 0.017351883 0.06586486 -0.05956604
-0.02874576 -0.06374414 0.07976434 -0.066612236 -0.067155555 -0.018649912 -0.09033351 0.07393224
0.013468889 0.077088 -0.081432536 0.061636835 0.0729155 0.00059912633 0.024792826 0.00021457918
-0.04129392 0.080156915 0.025249103 -0.020654876 -0.057693563 -0.032413505 -0.07857946 -0.0831073
0.03207715 0.060231578 0.025327668 -0.005584174 -0.0774147 0.048962962 -0.049863726 -0.015175657
-0.013427643 0.029068144 0.047292463 0.050328538 0.01126893 0.05499009 0.08066814 0.010403532
-0.028354166 0.061007243 0.006289718 -0.049989633 0.0066277683 -0.0050449152 0.052930616 0.047962394
0.08158307 -0.0013210131 0.031454988 0.041682515 0.006484795 0.06818955 0.035403643 -0.033707783
-0.025435388 -0.0039799013 -0.03736422 0.052898634 0.07621017 -0.05371623 -0.07486855 0.0251159
0.06528525 -0.03186357 -0.04480277 0.061161254 0.045178037 -0.032786936 -0.0010234028 -0.022565179
0.0730963 0.07038029 0.071035564 -0.0106861405 -0.046886694 0.0064213923 0.07914387 0.085118905
0.053328402 0.024505 0.0047899913 -0.07769911 0.07294918 0.0873143 -0.08041045 -0.042565256
0.049459103 -0.08851164 -0.05130341 -0.032325763 -0.09025324 0.024919232 -0.056787215 0.04635555
0.05073997 0.034330595 0.03013749 0.05042015 -0.04021598 -0.023205874 0.020306308 -0.083123185
-0.07819515 0.04024152 -0.005154345 -0.025241086 -0.060436048 -0.056688614 0.021178883 -0.08440191
00000000: 8503 15bd e4a6 7c3d 3031 77bb bc41 f7bc
00000010: 7147 a4bd 3d21 a9bd d1a9 29bd e2e8 f83c
00000020: 695d f8bc bdd6 3abd e5dc 85bd cc7a 8d39
00000030: 8b51 503d 201f 1a3d 31ea fa3c b622 9bbd
00000040: 6b31 fd3b 4c2e 60bc 7646 41bd fa66 843c
00000050: 158b 053d 76da aa3d dac3 05bd e2c7 0b3c
00000060: 6ab3 aabd 0a13 853c 9009 01bd dc02 a6bd
00000070: 4343 abbd 8a61 2dbd 81a6 59bb ee80 c33c
00000080: dff9 643d 44a2 9e3d c436 6d3c c9b6 a23d
00000090: 75f3 78bc f5eb 5a3c 7e56 24bd 9c76 8abd
000000a0: 47af 02bd 4d99 8e3d 4f37 81bd 67e7 08bc
000000b0: 293a 4abc 0749 bc3b 3445 62bd e3aa 3f3d
000000c0: 287c 1f3d f9fa 99bd 58bb 97bd a44f a53c
000000d0: a3fd e43c edfc a6bc 7a7e 21bb 0686 64bd
000000e0: 46af 9bbd 11bb a7bd db4f 5fbd 0d1e 4f3b
000000f0: e186 813c 5d6c 373d eac8 a2bd 2a19 b33c
00000100: 6383 96bd 97ba febc 7927 19bd 5529 933d
00000110: 2c87 923d ef0b 8d3d ddc0 8bbd 4d8c 9c3d
00000120: e24c 473d 5931 d83c c584 16bc 862d 263d
00000130: dd13 5a3d 4df7 e03c 1d76 a13d c30e 57bd
00000140: 8351 a93d 8dd8 2ebd 4fd5 94bd ea3d 4fbd
00000150: 46d1 93bd f74b 39bd 8421 51bc e1e4 ab3d
00000160: 7e37 1a3d a476 9bbd c5c2 893c f596 a7bd
00000170: a2ea 0e3d 2fbe 553d 187a b13d 904a a33d
00000180: 94b1 b43c ef25 ca3c 8cad 413d acdc 0fbd
00000190: 6471 47bd 37c7 873c 713a 453d 0be9 03bc
000001a0: c43a 983c 1e18 f33c 6087 713d fc7b 533d
000001b0: 2e82 513c 17b1 a43d a16a b23c 5633 a03d
000001c0: 4beb a73d 04c4 c9bc 79b5 6abc 1908 1e3d
000001d0: 5e32 693d 93fb 823d 6549 0dbd 13e6 b2bc
000001e0: 3452 733d 85c1 49bd ac9a 8e3d 0b31 b73b
000001f0: 0e20 2a39 f6dc 22bd 4e80 43bd 9e64 7e3d
00000200: f215 aabd 4976 ef3c 0498 98bd 7853 8dbd
00000210: b698 953d 2ded 07bd 7f0d 613c 10b4 a8bc
00000220: cd12 473c 6fed 613d 1b60 9d3c 0ee4 2cbd
00000230: 88b7 63bc 8925 8e3c 28e4 863d 85fb 73bd
00000240: 3a7c ebbc 4a8c 82bd 7c5b a33d ff6b 88bd
00000250: da88 89bd b3c7 98bc c600 b9bd c969 973d
00000260: 9dac 5c3c 50e0 9d3d 1ac6 a6bd e876 7c3d
00000270: b954 953d b00e 1d3a 531a cb3c a900 6139
00000280: d023 29bd 4f29 a43d 35d7 ce3c 6a34 a9bc
00000290: 1650 6cbd 06c4 04bd 45ee a0bd 2934 aabd
000002a0: 5463 033d 63b5 763d f87b cf3c 72fb b6bb
000002b0: 998b 9ebd 638d 483d e83d 4cbd 52a3 78bc
000002c0: 9eff 5bbc 5120 ee3c beb5 413d 4c25 4e3d
000002d0: 51a1 383c 4a3d 613d 5635 a53d 9373 2a3c
000002e0: ff46 e8bc bbe2 793d fb19 ce3b eec1 4cbd
000002f0: c02d d93b d14f a5bb c6cd 583d 3774 443d
00000300: 0615 a73d d825 adba f2d6 003d 49bb 2a3d
00000310: 677e d43b f6a6 8b3d 6903 113d 2c11 0abd
00000320: e05d d0bc d569 82bb 390b 19bd 3dac 583d
00000330: 1414 9c3d 8d05 5cbd af54 99bd dcbf cd3c
00000340: 46b4 853d 6083 02bd 1c83 37bd 3984 7a3d
00000350: 9b0c 393d 984b 06bd b323 86ba 9cda b8bc
00000360: 83b3 953d 8b23 903d 187b 913d ec14 2fbc
00000370: 430c 40bd 8b6a d23b 2e16 a23d d252 ae3d
00000380: e26e 5a3d b6be c83c 5cf5 9c3b b620 9fbd
00000390: 6166 953d d7d1 b23d 3cae a4bd e858 2ebd
000003a0: a195 4a3d 9745 b5bd 8623 52bd 0568 04bd
000003b0: b1d6 b8bd 6b23 cc3c b699 68bd 51df 3d3d
000003c0: b7d4 4f3d 3d9e 0c3d e6e2 f63c 5c85 4e3d
000003d0: 83b9 24bd 3f1a bebc 6a59 a63c 7d3c aabd
000003e0: c724 a0bd 4bd4 243d c8e5 a8bb 65c6 cebc
000003f0: ca8b 77bd 5232 68bd 567f ad3c e9da acbd
