my_latent_sde/sdes/best_sde_0.pth (torch, 214389 bytes, 28 tensors)

encoder.gru.weight_ih_l0 f4 [192, 2]
0.13078494 -0.058589637 -0.10938084 -0.12713026 0.021553257 0.06335638 -0.08754342 -0.052086968
0.024817146 -0.048496712 0.15157999 0.086259976 0.04323573 -0.065781124 0.09133802 0.030460713
-0.041549455 -0.07453732 -0.059538208 -0.08011385 0.103678025 0.058581248 0.02307214 -0.048236873
0.0685718 -0.02035228 0.090737306 -0.06625978 -0.010913458 -0.04884011 -0.0011423925 -0.06474784
0.037059728 0.04124769 -0.04981979 0.080841854 -0.06935385 -0.020411607 -0.08434401 0.0005568737
-0.12126163 0.02191595 0.03741958 0.043358706 0.024332961 -0.025138645 -0.07023304 -0.02332522
-0.020966433 0.0020375769 -0.045554698 0.051023126 -0.06885754 0.040104464 -0.030898146 0.064305894
0.0955501 0.018971067 0.06169417 -0.041363124 -0.064363755 -0.0021272302 0.10994786 0.11506151
-0.07527837 -0.061041206 0.06803304 0.07985049 -0.0609732 0.038836718 0.11338129 0.042887066
-0.03871815 -0.02706309 0.034826733 -0.009494416 -0.0057175406 0.05689485 -0.09072038 -0.0673073
0.06525672 0.17541094 -0.050518114 -0.017050639 0.0020597756 0.09048941 -0.23848625 -0.051004276
0.09825212 -0.030361116 -0.08677683 -0.00018488921 -0.07310469 -0.030471247 -0.029720642 -0.05588198
0.09938125 -0.0034734441 0.024328258 0.09987752 0.018468289 0.16682094 0.11278989 0.030550819
-0.20311774 -0.12807062 0.07295138 -0.17415251 -0.07525835 -0.052895404 -0.16246606 -0.11450906
0.10158695 0.051395267 0.04823431 -0.11554597 -0.02049349 -0.0934413 -0.05976808 0.056446
0.11341958 0.24191794 -0.07179143 -0.094119966 0.006407183 -0.012190977 -0.015860444 -0.019641232
0.008632504 0.060812883 -0.09122768 0.042447314 -0.07404179 0.040209405 -0.05435465 0.088499986
0.09370041 0.024591567 0.03316185 0.053873766 -0.052005626 0.025152376 0.03994356 0.012537915
-0.09996343 0.035918556 -0.049913146 0.044803772 -0.075902544 0.023821387 0.0057155634 -0.055479914
0.0737438 0.030353595 -0.062183302 0.0061999126 0.080712944 0.0614151 -0.10464063 0.028707026
0.08060091 0.19824657 0.0026829725 0.050215025 0.012161424 0.12415452 0.012774543 0.07384586
0.039370634 0.08150203 0.053430762 0.12872308 0.06289185 0.0493083 0.09488304 -0.07324887
0.035951726 0.09082861 -0.0073374184 0.07713648 0.052425016 0.04097744 -0.037596624 0.09177005
-0.026801458 -0.026108615 -0.042400938 0.12844887 -0.014118947 -0.07041249 0.09160522 0.05512534
0.07412506 0.10938348 -0.18266906 0.04946378 -0.06817233 0.01892945 -0.0152212 -0.08582909
-0.033497836 -0.019795334 0.054488868 0.052086864 -0.06979866 0.13395335 0.04242961 -0.03626316
-0.08917948 0.044128116 0.030767832 0.12101621 -0.09419496 0.03342768 -0.02695039 0.07025202
0.03005022 -0.00153461 -0.014603035 -0.051281985 0.071386196 0.13622178 0.031949967 -0.01737332
-0.103253916 0.029030355 -0.16010092 0.16484618 -0.05153646 0.07174467 -0.08716219 0.03386572
-0.029668067 0.05778509 0.1253805 -0.045345537 -0.049327932 -0.048029464 0.19771114 0.012466392
0.09118635 -0.01313557 0.012840822 0.051774096 -0.02793801 0.1259403 -0.16221032 0.14899938
-0.06848304 -0.0033978333 -0.10058085 0.07276707 0.055540085 0.071326554 0.016310127 0.052894745
00000000: 7dec 053e b0fb 6fbd 1003 e0bd 6f2e 02be
00000010: 7590 b03c fdc0 813d f749 b3bd 2559 55bd
00000020: 544d cb3c 7da4 46bd c937 1b3e 12a9 b03d
00000030: f317 313d 41b8 86bd 6e0f bb3d bf88 f93c
00000040: c32f 2abd 06a7 98bd 56de 73bd bb12 a4bd
00000050: 2555 d43d e4f2 6f3d c901 bd3c 0794 45bd
00000060: 5f6f 8c3d d3b9 a6bc 7bd4 b93d 35b3 87bd
00000070: 5cce 32bc 910c 48bd 55bc 95ba 849a 84bd
00000080: f1cb 173d 56f3 283d d60f 4cbd 6a90 a53d
00000090: 6409 8ebd 3e36 a7bc 8dbc acbd 29fb 113a
000000a0: 0458 f8bd 1489 b33c 4645 193d e698 313d
000000b0: eb55 c73c 8fef cdbc 57d6 8fbd 8814 bfbc
000000c0: ccc1 abbc de88 053b 9097 3abd a0fd 503d
000000d0: 2f05 8dbd 9444 243d 1c1e fdbc cfb2 833d
000000e0: c5af c33d 3669 9b3c 07b3 7c3d 616c 29bd
000000f0: 25d1 83bd 0069 0bbb 582c e13d 5ea5 eb3d
00000100: 8c2b 9abd 5806 7abd e854 8b3d a788 a33d
00000110: 09bf 79bd 4013 1f3d 7334 e83d 59aa 2f3d
00000120: ec96 1ebd 6ab3 ddbc 7aa6 0e3d 788e 1bbc
00000130: 355a bbbb 930a 693d 9bcb b9bd 69d8 89bd
00000140: 51a5 853d ed9e 333e 15ec 4ebd c8ad 8bbc
00000150: 4dfd 063b 8352 b93d bd35 74be dce9 50bd
00000160: 6838 c93d e0b7 f8bc 0db8 b1bd d2de 41b9
00000170: e9b7 95bd d69e f9bc b478 f3bc 81e4 64bd
00000180: 6688 cb3d b9a2 63bb 0e4c c73c 968c cc3d
00000190: cf4a 973c 1cd3 2a3e 63fe e63d b645 fa3c
000001a0: 19fe 4fbe f224 03be 8867 953d 0955 32be
000001b0: 0d21 9abd daa8 58bd 815d 26be ba83 eabd
000001c0: d20c d03d d883 523d 5791 453d 5ea3 ecbd
000001d0: f7e1 a7bc 275e bfbd 60cf 74bd ec33 673d
000001e0: 8648 e83d 56b9 773e 6307 93bd f8c1 c0bd
000001f0: 59f3 d13b aabc 47bc c3ed 81bc a6e6 a0bc
00000200: 596f 0d3c ee16 793d 94d5 babd 3cdd 2d3d
00000210: 39a3 97bd 9eb2 243d fba2 5ebd 7b3f b53d
00000220: 00e6 bf3d 4174 c93c b8d4 073d bdaa 5c3d
00000230: da03 55bd 5b0c ce3c dc9b 233d d46b 4d3c
00000240: a0b9 ccbd 561f 133d ba71 4cbd 2984 373d
00000250: cb72 9bbd 1225 c33c 9f49 bb3b e83e 63bd
00000260: fd06 973d 1aa8 f83c ebb3 7ebd a328 cb3b
00000270: d44c a53d 668e 7b3d d44d d6bd ff2a eb3c
00000280: 1712 a53d 2601 4b3e cfd4 2f3b 45ae 4d3d
00000290: b640 473c ba44 fe3d 514c 513c 803c 973d
000002a0: 1a43 213d 89ea a63d 37da 5a3d fccf 033e
000002b0: 71cd 803d 80f7 493d 0a52 c23d 8103 96bd
000002c0: 1e42 133d 5a04 ba3d ba6e f0bb bbf9 9d3d
000002d0: 9dbb 563d f6d7 273d ebfe 19bd f0f1 bb3d
000002e0: bb8e dbbc bce1 d5bc 9bac 2dbd 1a88 033e
000002f0: 2853 67bc 6c34 90bd 859b bb3d 1ccb 613d
00000300: e1ce 973d 7204 e03d 990d 3bbe 889a 4a3d
00000310: ef9d 8bbd ef11 9b3c 5762 79bc 29c7 afbd
00000320: 0735 09bd d329 a2bc b82f 5f3d 0959 553d
00000330: 9af2 8ebd 112b 093e acca 2d3d ae88 14bd
00000340: bba3 b6bd afbf 343d d20c fc3c 59d7 f73d
00000350: 4ae9 c0bd 77eb 083d 10c7 dcbc 4be0 8f3d
00000360: e12b f63c f824 c9ba 9141 6fbc 0f0d 52bd
00000370: ed32 923d b97d 0b3e f8dd 023d 7e52 8ebc
00000380: ca76 d3bd 11d1 ed3c 7ff1 23be 70cd 283e
00000390: e517 53bd dfee 923d 1782 b2bd c8b6 0a3d
000003a0: 720a f3bc 0fb0 6c3d bf63 003e 3ebc 39bd
000003b0: 160c 4abd 8bba 44bd ca74 4a3e d63f 4c3c
000003c0: e9bf ba3d 9336 57bc 5062 523c 1311 543d
000003d0: 41de e4bc 7ef6 003e 761a 26be 4b93 183e
000003e0: d640 8cbd 2fae 5ebb 55fd cdbd e706 953d
000003f0: 007e 633d a813 923d d19c 853c 29a8 583d

encoder.gru.weight_hh_l0 f4 [192, 64]
-0.07115875 0.015730288 -0.04697596 0.025402408 -0.021814113 0.07198343 -0.013365522 -0.028563272
-0.015151658 0.008048737 0.0034140963 -0.0381321 0.054983795 -0.02436236 -0.018438872 -0.04028112
0.032600068 -0.0042869016 0.023861425 0.03323261 0.003197596 0.06508484 -0.057651103 -5.6872086e-05
-0.028517969 -0.022828843 0.010968592 0.014649726 -0.0031885044 0.036551543 0.018932143 0.020227522
0.012897839 0.044225097 -0.010171587 -0.05417201 0.021297019 0.06528283 -0.03777164 -0.0009775815
-0.01592269 0.051957842 -0.029858273 -0.024632864 -0.012894678 -0.05507316 -0.009826164 -0.04263703
0.0421111 -0.0015992924 -0.002712689 -0.020197798 -0.038356863 0.040092535 -0.007618272 -0.030312855
0.021203103 -0.051583085 -0.010950169 -0.023057366 0.012001277 -0.022812596 -0.050975088 -0.008581884
0.014842749 0.043469228 -0.06722062 0.06975152 -0.08487528 -0.008869875 -0.022528602 -0.043212358
0.014658277 -0.048017718 0.021880645 0.008135432 -0.0065827016 0.008699857 -0.0826856 -0.0061979676
0.009715159 -0.052211337 0.06166069 0.06457705 0.035734836 0.011624537 0.010521321 0.023229478
-0.050247103 -0.017333793 -0.059381627 0.023279266 -0.009073504 0.030930385 -0.0019353057 0.010731766
0.023634257 0.022811988 -0.00428779 -0.033862878 0.0112604145 0.062028836 -0.0045165466 -0.035364497
-0.017393868 0.022024864 -0.010190879 0.001222665 0.040777765 -0.049125217 -0.069180295 -0.07885665
-0.022118649 -0.03993448 -0.011882215 -0.011100087 0.011599048 0.05692153 -0.041166887 -0.07527294
3.299238e-05 -0.08375525 -0.07802555 -0.014908187 0.025964981 -0.03368142 -0.07081427 -0.06181809
-0.07405625 -0.007842602 -0.109715566 0.0119013 0.016597385 0.048113868 -0.011998293 -0.07333079
-0.008082659 0.04619975 -0.007553528 -0.072528355 0.053768806 -0.00060041365 -0.0038737287 -0.06277211
0.091605045 -0.062325533 -0.03965818 0.047511484 0.018198442 0.069003366 -0.078790456 0.013651287
0.034721013 0.001005267 0.036843054 -0.0059170304 -0.010208226 0.061655454 0.0036910672 0.035135537
0.007974898 -0.0122348685 0.013808813 -0.040313043 0.070642605 0.106387444 -0.09401046 -0.006738869
-0.03202625 0.038836323 -0.06975597 -0.040160075 -0.042287536 -0.070947476 0.030631058 -0.068122365
-0.023865025 0.00445636 -0.043069124 -0.0532797 -0.039626997 0.06585895 0.029391635 -0.049897846
0.03239663 -0.083270065 -0.013290795 -0.006830418 -0.01349377 -0.025912443 -0.070601836 0.018238004
-0.0725496 0.07022756 -0.07002554 0.14156704 -0.09346866 0.054370895 -0.0013968773 -0.06428095
0.017826961 -0.019738406 0.0057002334 -0.0660597 0.054216802 -0.03253538 -0.09753247 -0.041787434
0.06538908 -0.0767974 0.00026999955 0.054072123 0.009750381 0.048732035 -0.079249695 -0.025302561
-0.059149347 -0.07605112 0.04718005 0.005453131 0.0023753592 0.06632765 0.0004854424 0.032882165
-0.039064884 0.07629188 -0.0034258228 -0.051215604 0.051221132 0.08422651 -0.05157892 0.02742005
-0.07975723 0.070053145 -0.031051146 -0.0063896035 -0.027751006 -0.055131264 -0.026083818 -0.03592526
0.08086172 -0.031574342 -0.010464673 -0.021536564 -0.015304384 -0.0053646765 -0.03183077 -0.04716242
-0.059325058 -0.08638338 -0.019947741 -0.07983584 0.0037526009 -0.11157533 -0.021850636 -0.023319308
00000000: aebb 91bd cedc 803c dd69 40bd b618 d03c
00000010: 83b3 b2bc 0c6c 933d 10fb 5abc 86fd e9bc
00000020: a93e 78bc dade 033c 08bf 5f3b 6830 1cbd
00000030: b036 613d 9293 c7bc 1e0d 97bc d1fd 24bd
00000040: a687 053d 2379 8cbb 0979 c33c eb1e 083d
00000050: c28e 513b 334b 853d 9023 6cbd f089 6eb8
00000060: 849e e9bc 8e03 bbbc 9cb5 333c 6805 703c
00000070: 3af6 50bb 12b7 153d 9517 9b3c 30b4 a53c
00000080: 7551 533c 6025 353d baa6 26bc 78e3 5dbd
00000090: 1677 ae3c 01b3 853d 6fb6 1abd 3122 80ba
000000a0: 4d70 82bc bfd1 543d 5699 f4bc dcca c9bc
000000b0: 3344 53bc 6594 61bd ebfd 20bc 2ba4 2ebd
000000c0: b07c 2c3d 599f d1ba 5fc7 31bb da75 a5bc
000000d0: 161c 1dbd 1238 243d b3a2 f9bb aa52 f8bc
000000e0: 21b2 ad3c c948 53bd 5668 33bc cde2 bcbc
000000f0: 01a1 443c 7be1 babc 41cb 50bd 089b 0cbc
00000100: 002f 733c ca0c 323d f7aa 89bd e3d9 8e3d
00000110: 17d3 adbd f452 11bc e78d b8bc 71ff 30bd
00000120: 4529 703c 3aae 44bd 0a3f b33c 7a4a 053c
00000130: b4b3 d7bb d889 0e3c 1157 a9bd 5218 cbbb
00000140: 552c 1f3c 8edb 55bd eb8f 7c3d f940 843d
00000150: b15e 123d d874 3e3c 9e61 2c3c bf4b be3c
00000160: e8cf 4dbd 99ff 8dbc 263a 73bd 29b4 be3c
00000170: 09a9 14bc b861 fd3c 15aa fdba 4ad4 2f3c
00000180: a19c c13c 35e0 ba3c 9780 8cbb cdb3 0abd
00000190: 9a7d 383c f311 7e3d 8aff 93bb 5dda 10bd
000001a0: 967d 8ebc 7d6d b43c a5f7 26bc d441 a03a
000001b0: 9606 273d 8637 49bd 66ae 8dbd 987f a1bd
000001c0: 2b32 b5bc 5692 23bd 9fad 42bc 24dd 35bc
000001d0: ef09 3e3c 8d26 693d 9c9e 28bd b328 9abd
000001e0: 4c61 0a38 df87 abbd dccb 9fbd 7841 74bc
000001f0: 83b4 d43c 87f5 09bd 1207 91bd f734 7dbd
00000200: ceaa 97bd 427e 00bc 8eb2 e0bd acfd 423c
00000210: 3df7 873c 0c13 453d 7d94 44bc 742e 96bd
00000220: 216d 04bc f33b 3d3d 9683 f7bb bf89 94bd
00000230: ae3c 5c3d 1465 1dba 62de 7dbb aa8e 80bd
00000240: 6d9b bb3d 0f49 7fbd 9e70 22bd 679b 423d
00000250: e614 953c a351 8d3d e45c a1bd a6a9 5f3c
00000260: 9f37 0e3d 2ac3 833a bee8 163d a6e3 c1bb
00000270: 6740 27bc 6e8a 7c3d d5e5 713b 48ea 0f3d
00000280: 26a9 023c c274 48bc 5c3e 623c 4a1f 25bd
00000290: 12ad 903d a9e1 d93d 8e88 c0bd bbd1 dcbb
000002a0: f52d 03bd d612 1f3d 38dc 8ebd e47e 24bd
000002b0: b235 2dbd e94c 91bd fced fa3c bd83 8bbd
000002c0: 9680 c3bc a806 923b 4069 30bd d13b 5abd
000002d0: eb4f 22bd 0fe1 863d bac6 f03c af61 4cbd
000002e0: 54b2 043d 7f89 aabd a2c1 59bc b3d1 dfbb
000002f0: f914 5dbc 5546 d4bc b297 90bd de67 953c
00000300: e294 94bd 78d3 8f3d 8d69 8fbd f3f6 103e
00000310: 7f6c bfbd 04b4 5e3d 6d17 b7ba bba5 83bd
00000320: d909 923c 70b2 a1bc 06c9 ba3b 4f4a 87bd
00000330: 7012 5e3d d243 05bd 1bbf c7bd 4d29 2bbd
00000340: b6ea 853d f547 9dbd ba8e 8d39 bb7a 5d3d
00000350: 10c0 1f3c 3e9b 473d aa4d a2bd 5147 cfbc
00000360: 9646 72bd b1c0 9bbd de3f 413d 2eb0 b23b
00000370: eaab 1b3b cad6 873d fa82 fe39 73af 063d
00000380: 8002 20bd eb3e 9c3d c583 60bb 74c7 51bd
00000390: 40cd 513d f37e ac3d 6b44 53bd 03a0 e03c
000003a0: c257 a3bd 0678 8f3d f95e febc e15f d1bb
000003b0: 1456 e3bc 52d1 61bd bbad d5bc 5e26 13bd
000003c0: d49a a53d 1954 01bd 0574 2bbc 736d b0bc
000003d0: 3dbf 7abc 2bca afbb fb60 02bd 622d 41bd
000003e0: d5fe 72bd c5e9 b0bd 7269 a3bc f980 a3bd
000003f0: 32ee 753b 9b81 e4bd 1b00 b3bc 2208 bfbc

encoder.gru.bias_ih_l0 f4 [192]
0.11093181 -0.014555604 0.034303464 0.008127194 0.040996034 0.12311986 0.019144757 -0.0010541662
0.01503829 0.09977802 -0.018943718 0.028081471 0.042676408 0.01111181 -0.012515847 0.007860591
0.04148405 0.03485214 0.010242349 0.031796362 0.046885 0.03551392 0.058886137 0.023555098
0.0034404497 0.022153564 0.0130632715 0.033361755 0.049002662 0.011674819 0.027455883 0.025875615
0.06927487 0.035769485 0.003788099 0.114862606 0.011857216 0.10730687 0.037200548 0.051858872
0.055454645 0.026424866 0.047589358 0.05623362 0.00334755 0.013531507 0.0101176575 0.012462624
0.00892386 0.0480157 0.03649373 0.010235135 0.018175123 0.013153567 0.009762895 0.0023664464
0.12950923 0.0036764608 0.07019446 0.062146995 0.01165138 -0.015159042 0.04766036 0.038564183
-0.044490486 0.22598043 0.45334518 0.36229792 0.21564363 -0.049408007 0.15119919 0.33321548
0.22364299 0.1651591 0.14696087 0.23221509 0.17231774 0.16696739 0.29291248 0.3235469
0.2480281 0.20956993 0.23171121 0.3004362 0.14827205 0.04030689 0.2791066 0.11576545
0.23056558 0.18872066 0.20790401 0.15178502 0.21003826 0.3349433 0.19511093 0.37319696
0.13949284 0.25627336 0.17878373 0.114497885 0.24549112 0.13544355 0.34599736 0.10346363
0.41215962 0.18636501 0.16752172 0.17921068 0.19900402 0.39010873 0.23212293 0.36469054
0.4136923 0.15866843 0.2595779 0.26969323 0.16351421 0.36359742 0.20501366 0.3760364
0.08958792 0.48082513 0.24072714 0.22060536 0.20715986 0.31344178 0.2570736 0.19674952
-0.25945607 0.10844234 -0.134828 -0.07287056 0.15357059 0.20022897 -0.08723572 -0.0009928743
-0.072763026 0.10517368 -0.038930915 -0.022024628 0.16887079 -0.1289094 0.12849814 -0.017545005
0.07801908 0.06346402 0.12509125 -0.02988285 0.016588628 0.21721563 -0.12438595 -0.07734636
-0.01255363 -0.06319713 0.18823722 0.08486556 -0.13082936 0.08514336 0.097980775 0.0473948
-0.06368472 0.06705712 -0.08107496 0.026888829 0.1416825 0.10924476 -0.048838697 0.21395674
-0.029496752 0.21248975 -0.18424438 0.1212543 -0.024725718 0.033669304 0.035141338 -0.017880028
0.019372484 0.073879614 0.10746562 -0.08399455 -0.11679402 0.06832625 -0.042258035 0.15501207
0.035745423 -0.07628171 0.10930931 -0.17450473 0.021132426 -0.12207442 -0.21854456 0.118249245
00000000: 3830 e33d a17a 6ebc ca81 0c3d ec27 053c
00000010: 75eb 273d 4426 fc3d 77d5 9c3c f32b 8aba
00000020: 2963 763c 6b58 cc3d db2f 9bbc 1d0b e63c
00000030: 75cd 2e3d 4f0e 363c 440f 4dbc b5c9 003c
00000040: 2eeb 293d 1ec1 0e3d 86cf 273c e73c 023d
00000050: 7c0a 403d 0b77 113d 9732 713d 9ff6 c03c
00000060: 2b79 613b 647b b53c 5507 563c 56a6 083d
00000070: 04b7 483d bd47 3f3c 29eb e03c 19f9 d33c
00000080: fcdf 8d3d 0683 123d c141 783b 163d eb3d
00000090: c544 423c b4c3 db3d 9a5f 183d f869 543d
000000a0: 6924 633d f678 d83c 0fed 423d 3955 663d
000000b0: 9262 5b3b 41b3 5d3c 88c4 253c 0930 4c3c
000000c0: 6235 123c 1cac 443d 737a 153d 45b1 273c
000000d0: ffe3 943c 0f82 573c 8df4 1f3c 6216 1b3b
000000e0: 119e 043e c7f0 703b 1dc2 8f3d d98d 7e3d
000000f0: 6ee5 3e3c a15d 78bc 8237 433d 7af5 1d3d
00000100: a83b 36bd 6a67 673e dc1c e83e 1d7f b93e
00000110: afd1 5c3e 0d60 4abd f6d3 1a3e 389b aa3e
00000120: ab02 653e 781f 293e e97c 163e cbc9 6d3e
00000130: 1074 303e 80f9 2a3e a0f8 953e f0a7 a53e
00000140: 14fb 7d3e 8099 563e b445 6d3e c6d2 993e
00000150: a1d4 173e d618 253d 0fe7 8e3e 7016 ed3d
00000160: 6219 6c3e fd3f 413e cae4 543e 886d 1b3e
00000170: 4514 573e b07d ab3e 29cb 473e ac13 bf3e
00000180: 36d7 0e3e 4336 833e 1513 373e de7d ea3d
00000190: 0662 7b3e b7b1 0a3e 9126 b13e bde4 d33d
000001a0: 9606 d33e 78d6 3e3e d08a 2b3e 0183 373e
000001b0: b6c7 4b3e 55bc c73e a2b1 6d3e b8b8 ba3e
000001c0: 7acf d33e fa79 223e 65e7 843e 3b15 8a3e
000001d0: 4570 273e 7129 ba3e 1aef 513e d887 c03e
000001e0: df79 b73d b62e f63e 2d81 763e 5fe6 613e
000001f0: b721 543e 717b a03e 279f 833e b578 493e
00000200: 6dd7 84be 0417 de3d 5a10 0abe 293d 95bd
00000210: 9c41 1d3e d308 4d3e a4a8 b2bd 5523 82ba
00000220: c804 95bd 4c65 d73d 0676 1fbd fe6c b4bc
00000230: 77ec 2c3e d300 04be 0495 033e 8bba 8fbc
00000240: 78c8 9f3d 6df9 813d ec17 003e e1cc f4bc
00000250: e0e4 873c c66d 5e3e 10be febd c567 9ebd
00000260: bead 4dbc 7f6d 81bd 42c1 403e ffcd ad3d
00000270: 22f8 05be a45f ae3d 25aa c83d 0d21 423d
00000280: 226d 82bd 3e55 893d a10a a6bd f645 dc3c
00000290: 3815 113e b7bb df3d 160b 48bd 7a17 5b3e
000002a0: 2ca3 f1bc ea96 593e 8faa 3cbe 2d54 f83d
000002b0: 978d cabc d3e8 093d 5df0 0f3d 2379 92bc
000002c0: 0bb3 9e3c 324e 973d ef16 dc3d 5605 acbd
000002d0: b431 efbd a2ee 8b3d c316 2dbd 7cbb 1e3e
000002e0: cb69 123d 9639 9cbd 8fdd df3d 5eb1 32be
000002f0: e91d ad3c 2702 fabd 25ca 5fbe a92c f23d

encoder.gru.bias_hh_l0 f4 [192]
0.095643036 0.016701981 -0.001526213 0.030610625 0.027071139 0.13122724 -0.017773772 -0.012218515
0.03313603 0.1088452 -0.037643533 -0.036329266 0.022346526 0.03617844 -0.0056986646 -0.0070996503
0.020816471 0.070723824 0.021661336 0.02669673 0.07050614 0.07144247 0.06941273 -0.001638776
0.009399656 -0.0488039 0.016498396 0.053617433 0.063447386 0.0027696355 0.0043054493 0.026451875
0.05178629 0.04063638 0.0063239983 0.13255468 -0.0020833183 0.10567378 0.003915155 0.037816003
0.022956358 0.04386593 0.04726941 0.06634995 0.026509047 0.021300001 0.02176238 0.01164094
0.02820405 0.030639322 0.04786966 0.003900682 0.03438825 0.011457025 0.014959053 0.00999691
0.12233999 0.0046066875 0.050486982 0.036076404 0.037906993 0.006181726 0.055463348 0.053089518
-0.04449386 0.22754008 0.4295304 0.37687677 0.24470836 -0.049408004 0.1817702 0.34569836
0.21029887 0.17390406 0.13214695 0.24445932 0.18067291 0.16386266 0.2870679 0.32234997
0.25553212 0.23442483 0.24026956 0.2873026 0.17304283 0.036098607 0.27729002 0.12201423
0.21403448 0.2823093 0.21965191 0.15557873 0.23212612 0.32733455 0.2023676 0.38983408
0.13520753 0.28367358 0.18169217 0.10969695 0.2616867 0.14655551 0.34502113 0.12519194
0.4620482 0.1951335 0.167436 0.17096859 0.23298357 0.3930991 0.15337229 0.39325973
0.44664153 0.23736927 0.2542369 0.25499922 0.16068736 0.31857267 0.18640947 0.37583444
0.0682833 0.48931408 0.24054834 0.22537255 0.20013267 0.27282107 0.23267372 0.18876727
-0.14667231 0.0136655355 0.032725934 -0.07958032 0.06617023 0.1667301 -0.04742502 0.027576849
-0.15604433 0.12707013 -0.023552805 0.028427292 0.022955129 -0.1829404 0.08897494 0.023236979
0.107269086 0.11723166 0.00044436677 -0.11706212 -0.08346339 0.10972868 -0.13835528 -0.11999166
-0.09042921 -0.11526901 0.09109889 0.027089674 -0.018420223 0.017164933 0.046828136 0.056109365
-0.046908114 -0.09753932 -0.10666389 0.006270328 -0.0106135495 0.15624368 -0.031402934 0.15685236
-0.005042381 0.092649356 -0.15963982 -0.035226982 -0.048279215 0.048474163 0.07671864 -0.07078711
-0.013685136 -0.0025823908 0.16514672 -0.07313286 -0.04967698 0.06312083 0.03897279 0.16164657
0.005681575 -0.14443515 0.077485524 -0.020313103 0.16894513 -0.104084834 -0.10452465 0.023063784
00000000: 7fe0 c33d 98d2 883c 360b c8ba 22c3 fa3c
00000010: 4bc4 dd3c 6f60 063e 4d9a 91bc 2b30 48bc
00000020: a5b9 073d 3bea de3d 1b30 1abd ffcd 14bd
00000030: 1010 b73c d82f 143d ddbb babb 2fa4 e8bb
00000040: 4e87 aa3c a7d7 903d 1d73 b13c 1ab3 da3c
00000050: 8665 903d 6e50 923d 4328 8e3d 33cc d6ba
00000060: 0401 1a3c 99e6 47bd a527 873c f49d 5b3d
00000070: b4f0 813d c682 353b ba14 8d3b 9ab1 d83c
00000080: dc1d 543d 5572 263d 8b39 cf3b 6abc 073e
00000090: 4888 08bb 7f6b d83d b34a 803b f4e4 1a3d
000000a0: f90e bc3c c3ac 333d 929d 413d 7ce2 873d
000000b0: 8029 d93c 577d ae3c 0547 b23c a4b9 3e3c
000000c0: 2e0c e73c 51ff fa3c fa12 443d 96a2 7f3b
000000d0: b2da 0c3d 3fb6 3b3c d116 753c 14ca 233c
000000e0: 648d fa3d b2f3 963b 70cb 4e3d dac4 133d
000000f0: 5d44 1b3d 1490 ca3b 892d 633d 6574 593d
00000100: 323f 36bd 4400 693e 69eb db3e fef5 c03e
00000110: d494 7a3e 0c60 4abd f821 3a3e 60ff b03e
00000120: 9658 573e e813 323e 8851 073e 8b53 7a3e
00000130: 5202 393e 9dcb 273e 90fa 923e 0e0b a53e
00000140: 1bd5 823e 100d 703e 3909 763e 5419 933e
00000150: 2432 313e 22dc 133d f5f8 8d3e 99e2 f93d
00000160: db2b 5b3e d88a 903e 6eec 603e 0850 1f3e
00000170: 78b2 6d3e 6598 a73e 7439 4f3e 5598 c73e
00000180: d873 0a3e aa3d 913e 830d 3a3e cba8 e03d
00000190: cdfb 853e a612 163e 9ca6 b03e 5132 003e
000001a0: 9591 ec3e 14d1 473e 5874 2b3e 6412 2f3e
000001b0: 3f93 6e3e 4944 c93e a00d 1d3e 5759 c93e
000001c0: 33ae e43e ee10 733e 572b 823e 428f 823e
000001d0: 3a8b 243e f51b a33e 20e2 3e3e 5f6d c03e
000001e0: 1dd8 8b3d 6087 fa3e 4e52 763e 10c8 663e
000001f0: 94ef 4c3e 34af 8b3e 0542 6e3e 354c 413e
00000200: 4431 16be 69e5 5f3c a10b 063d 02fb a2bd
00000210: 4284 873d 4cbb 2a3e bd40 42bd d8e8 e13c
00000220: 16ca 1fbe ac1e 023e d0f1 c0bc 5ae0 e83c
00000230: 650c bc3c ba54 3bbe 7e38 b63d 7a5b be3c
00000240: e5af db3d 2717 f03d e6f9 e839 44be efbd
00000250: dbee aabd 6eb9 e03d 02ad 0dbe 30be f5bd
00000260: f332 b9bd 2912 ecbd 0e92 ba3d 2aeb dd3c
00000270: 02e6 96bc 799d 8c3c dcce 3f3d efd2 653d
00000280: b922 40bd b2c2 c7bd 9972 dabd 5377 cd3b
00000290: 74e4 2dbc 58fe 1f3e 5da0 00bd e89d 203e
000002a0: 8f3a a5bb f2be bd3d 9f78 23be 2b4a 10bd
000002b0: 6dc0 45bd d88c 463d aa1e 9d3d d5f8 90bd
000002c0: 9f37 60bc 543d 29bb 391c 293e aec6 95bd
000002d0: 177a 4bbd 7e45 813d efa1 1f3d ae86 253e
000002e0: 812c ba3b cfe6 13be bbb0 9e3d aa67 a6bc
000002f0: f4ff 2c3e 6e2a d5bd 0511 d6bd 43f0 bc3c

encoder.project.0.weight f4 [64, 64]
0.06918599 -0.0082366215 -0.01395553 0.09891971 -0.037498493 -0.053305697 0.19055395 0.06582188
-0.02762396 0.069526754 0.19009767 0.18921515 -0.06565088 0.15030108 -0.05838522 0.0120030735
0.05973713 -0.12243446 -0.0061876373 0.10396586 0.02764841 0.09100445 0.0138405925 0.108962074
0.019360967 -0.09031304 -0.07112335 0.10005578 -0.033521026 0.06341665 0.097083785 -0.015029818
0.04535824 -0.044761386 -0.13201874 -0.038419735 -0.08210349 0.09516188 -0.067252174 -0.13394774
-0.08312895 0.0020508543 0.03694328 -0.030166501 0.12234118 0.10537412 -0.1060578 -0.009192374
-0.014056847 -0.15658267 -0.032725938 0.04491451 -0.055283632 -0.119658306 0.019571468 -0.04371163
0.0221953 -0.051741652 -0.05049675 -0.06345716 -0.07522458 -0.06977203 0.016540706 0.020872276
-0.09593595 0.06537332 0.011371093 0.013372032 -0.02705013 -0.09601655 0.044504687 0.0473545
0.16360934 -0.041586347 -0.013343012 -0.11304752 0.088111594 -0.058274146 -0.09473439 0.040060025
0.061393894 0.11656303 0.09210485 -0.057978153 -0.05469958 0.056242988 -0.03033374 0.024842814
-0.0070677437 -0.048163205 0.09271721 0.08937502 -0.112169005 0.0593439 -0.16002084 -0.09446816
-0.055452924 -0.11400249 -0.052163903 -0.011610135 0.097909674 -0.015852924 -0.019811457 0.071128465
-0.012004186 0.0987598 -0.05861532 0.07250561 0.029356163 0.061092984 -0.15184526 -0.008322701
-0.02974039 -0.10025772 0.05481497 0.023377081 0.088027045 -0.01605569 -0.14413144 -0.042513628
-0.19000973 -0.11434708 0.08672201 -0.11392299 0.12549168 -0.039276626 -0.013435788 -0.010781851
0.010658799 -0.026469786 0.12415244 -0.08959419 0.00732968 -0.008877272 -0.10419189 -0.07723923
0.0054289154 0.099349916 -0.16077821 0.029561497 0.037566487 -0.117219955 0.06202507 -0.038001657
0.034377623 -0.007786648 -0.12548281 -0.052892223 -0.10332812 -0.01002916 -0.0009292094 0.014737718
-0.027271748 -0.020409394 0.017640248 -0.15128303 0.15497938 7.683565e-05 0.08172171 0.084567845
0.033147134 0.13208659 0.17139241 0.028457316 -0.032775357 0.005428523 0.029427348 0.14126359
0.066468686 -0.036471996 0.0393696 -0.1537088 0.00031085723 0.019113312 0.100339495 0.08990624
0.051685013 0.09335583 -0.10157088 -0.07743273 -0.08054373 -0.000292911 0.08166224 -0.020989247
-0.07527948 0.05605401 0.17447163 -0.048228364 -0.008320683 0.096441954 0.005768891 0.06730382
0.06070689 0.010289802 0.029687675 0.02645118 -0.09320282 -0.02875159 -0.052064534 -0.04716817
-0.07449943 0.05154507 0.115112044 0.13737683 -0.0038747017 0.1842598 -0.095269814 -0.01470205
-0.024553949 -0.063741304 0.067146376 -0.022316365 -0.021653594 -0.00560292 -0.07001688 0.05749984
-0.10107281 -0.010520477 -0.2452212 -0.038248993 0.011215133 -0.058494627 0.0036175277 0.037295185
0.1460378 0.04543426 0.040212657 -0.06434464 -0.12118771 0.008901708 0.05104123 -0.061793163
-0.08307775 -0.0006151272 0.11723226 -0.055257574 -0.074581295 -0.066278495 -0.02877468 0.016821055
0.049594354 0.01393409 -0.10601217 0.0613606 -0.035523914 -0.035220418 0.12657005 0.003128961
0.056495562 0.11671893 -0.13273202 0.029069504 -0.12967774 0.01060815 0.0117466645 -0.11553153
00000000: 62b1 8d3d e5f2 06bc bca5 64bc 6b96 ca3d
00000010: 0598 19bd 1357 5abd 9320 433e 9fcd 863d
00000020: a54b e2bc 0b64 8e3d f7a8 423e 9ec1 413e
00000030: f873 86bd 87e8 193e 5725 6fbd 8aa8 443c
00000040: ecae 743d ebbe fabd aac1 cabb 0eec d43d
00000050: eb7e e23c 8b60 ba3d a7c3 623c 8227 df3d
00000060: e49a 9e3c 0bf6 b8bd 1ea9 91bd 0bea cc3d
00000070: 584d 09bd 97e0 813d ddd3 c63d a03f 76bc
00000080: 90c9 393d b757 37bd ec2f 07be 035e 1dbd
00000090: e025 a8bd 3be4 c23d 82bb 89bd 9929 09be
000000a0: 833f aabd a067 063b d651 173d bd1f f7bc
000000b0: 038e fa3d 63ce d73d d534 d9bd 9c9b 16bc
000000c0: b14e 66bc 3557 20be a20b 06bd 47f8 373d
000000d0: 1771 62bd 6a0f f5bd 5854 a03c f70a 33bd
000000e0: ebd2 b53c 0eef 53bd aed5 4ebd d4f5 81bd
000000f0: 580f 9abd a3e4 8ebd 6080 873c 56fc aa3c
00000100: 117a c4bd 72e2 853d d24d 3a3c 5e16 5b3c
00000110: 3c98 ddbc 53a4 c4bd 8c4a 363d cbf6 413d
00000120: 3589 273e 7256 2abd a69c 5abc 7585 e7bd
00000130: da73 b43d dfb0 6ebd 1b04 c2bd fb15 243d
00000140: 2a78 7b3d 99b8 ee3d 78a1 bc3d 807a 6dbd
00000150: ab0c 60bd 0c5f 663d 777e f8bc 2883 cb3c
00000160: 8898 e7bb c846 45bd 85e2 bd3d 400a b73d
00000170: ddb8 e5bd 9712 733d 81dc 23be 8678 c1bd
00000180: 9b22 63bd 237a e9bd d1a9 55bd 7038 3ebc
00000190: de84 c83d fedd 81bc a34b a2bc cdab 913d
000001a0: 35ad 44bc 9442 ca3d 9e16 70bd d27d 943d
000001b0: 567c f03c a33c 7a3d 537d 1bbe f05b 08bc
000001c0: 1ea2 f3bc eb53 cdbd a985 603d 4b81 bf3c
000001d0: 8647 b43d 3987 83bc 3197 13be c522 2ebd
000001e0: e991 42be cd2e eabd 4f9b b13d 7550 e9bd
000001f0: e480 003e 87e0 20bd c821 5cbc 5ca6 30bc
00000200: 3ea2 2e3c 2ad7 d8bc a243 fe3d 297d b7bd
00000210: d02d f03b fa71 11bc 8f62 d5bd 9a2f 9ebd
00000220: 0be5 b13b f877 cb3d 0ba3 24be f42a f23c
00000230: 51df 193d 0411 f0bd 000e 7e3d a0a7 1bbd
00000240: 8dcf 0c3d 2327 ffbb 917e 00be 84a5 58bd
00000250: b29d d3bd 5951 24bc 3096 73ba 7876 713c
00000260: 0069 dfbc 9a31 a7bc 4882 903c f0e9 1abe
00000270: eab2 1e3e d322 a138 b65d a73d e831 ad3d
00000280: 4ac5 073d b541 073e 7e81 2f3e 511f e93c
00000290: 743f 06bd c0e1 b13b 9f11 f13c 67a7 103e
000002a0: bc20 883d a963 15bd 0542 213d d765 1dbe
000002b0: 8dfa a239 8593 9c3c cb7e cd3d c320 b83d
000002c0: aab3 533d 5731 bf3d 6504 d0bd 0d95 9ebd
000002d0: 1cf4 a4bd d991 99b9 883e a73d a4f1 abbc
000002e0: 212c 9abd e498 653d b1a8 323e 1b8b 45bd
000002f0: 7953 08bc 5c83 c53d f708 bd3b 96d6 893d
00000300: caa7 783d 8f96 283c 9133 f33c 25b0 d83c
00000310: 1fe1 bebd 7488 ebbc 9f41 55bd 6933 41bd
00000320: 2893 98bd ec20 533d ddbf eb3d 83ac 0c3e
00000330: b5ee 7dbb 9aae 3c3e d21c c3bd dee0 70bc
00000340: 5d25 c9bc cd8a 82bd 0a84 893d cfd0 b6bc
00000350: e162 b1bc b398 b7bb 0365 8fbd f484 6b3d
00000360: 43ff cebd 145e 2cbc 441b 7bbe faaa 1cbd
00000370: adbf 373c 1098 6fbd 0b14 6d3b d6c2 183d
00000380: ef8a 153e 4619 3a3d 07b6 243d 1fc7 83bd
00000390: 4331 f8bd 78d8 113c 9c10 513d d41a 7dbd
000003a0: ab24 aabd 7d40 21ba 7817 f03d c455 62bd
000003b0: 14be 98bd 05bd 87bd e1b8 ebbc 4fcc 893c
000003c0: 7323 4b3d cf4b 643c e91c d9bd 4155 7b3d
000003d0: 8681 11bd 4943 10bd 949b 013e 410f 4d3b
000003e0: e467 673d 560a ef3d e7ea 07be 2b23 ee3c
000003f0: 3eca 04be cecd 2d3c 1575 403c cb9b ecbd

encoder.project.0.bias f4 [64]
-0.009696913 -0.018318258 0.026904466 -0.02422002 -0.04553204 -0.036240295 -0.08166034 0.030900888
0.06964042 -0.03244808 -0.069208786 -0.08034588 -0.09185115 -0.04786486 -0.08390773 -0.089954615
-0.04784129 -0.04366837 -0.040014125 0.018132493 0.033624694 -0.027620774 0.028898723 -0.09853078
-0.04225524 0.091816776 -0.0404689 -0.0016335037 0.03659414 -0.0556531 0.048246685 0.015360286
0.074056365 -0.011511025 0.07995519 -0.02223204 0.07131926 0.016309606 0.016445572 0.060156286
-0.08023096 0.018945139 -0.08234575 0.01914835 -0.101991795 -0.053786725 0.030716274 0.032991707
-0.010031091 -0.03850482 -0.056752395 0.021216651 -0.054452337 0.0026716322 0.13578303 0.0007352232
0.06483876 0.11773114 -0.0132713225 0.027470391 0.08810577 -0.021908553 -0.05714551 -0.031418655
00000000: cddf 1ebc 2c10 96bc c166 dc3c 1069 c6bc
00000010: ce7f 3abd b470 14bd 893d a7bd dc23 fd3c
00000020: a39f 8e3d 47e8 04bd 56bd 8dbd 618c a4bd
00000030: 751c bcbd f20d 44bd d1d7 abbd 203a b8bd
00000040: 3af5 43bd 9bdd 32bd dae5 23bd 988a 943c
00000050: 0cba 093d f644 e2bc 04bd ec3c 81ca c9bd
00000060: d513 2dbd 6f0a bc3d b8c2 25bd 4a1b d6ba
00000070: bde3 153d 81f4 63bd 519e 453d b6a9 7b3c
00000080: ddaa 973d bd98 3cbc 8cbf a33d f81f b6bc
00000090: d50f 923d b99b 853c ddb8 863c 7066 763d
000000a0: 2150 a4bd d632 9b3c e3a4 a8bd 00dd 9c3c
000000b0: 13e1 d0bd 784f 5cbd b2a0 fb3c 5022 073d
000000c0: 7259 24bc 3bb7 1dbd 3375 68bd 8bce ad3c
000000d0: 6a09 5fbd 8d16 2f3b b50a 0b3e febb 403a
000000e0: 2fca 843d 061d f13d f66f 59bc 9609 e13c
000000f0: cc70 b43d 9179 b3bc 6911 6abd d9b0 00bd

encoder.project.3.weight f4 [16, 64]
-0.003787879 -0.04361506 0.016574498 -0.051725514 -0.09832852 -0.12420102 -0.14248392 -0.010392129
-0.108592704 -0.12246633 0.09272878 -0.07305608 0.08719088 -0.07980759 -0.17470437 -0.036244914
0.09649826 -0.124960214 0.112514436 -0.13983406 -0.050234236 0.062097635 0.02545568 0.09081733
-0.04853499 0.057704646 -0.08587616 -0.042384516 -0.10475846 -0.039080046 -0.019657882 -0.09466101
0.06711494 -0.15247853 -0.04108948 -0.04506006 0.011239824 0.120408915 0.061344836 0.06813308
0.015802782 -0.05279947 -0.07772571 -0.1262314 -0.021110088 -0.11553168 -0.074408 -0.12269924
-0.056829143 0.07216055 -0.041311942 -0.010740695 0.06916899 0.0061221127 0.01793459 -0.05464179
-0.039232247 0.039108526 -0.10648157 -0.04764428 0.106976695 -0.042317886 0.07518065 -0.102954194
0.20662385 0.09382832 -0.10166804 0.11280858 0.13230939 0.31494632 0.18629836 -0.17785625
0.030434085 0.22073664 0.09795513 0.108662196 -0.0120059 0.017693091 0.2061015 0.15503529
0.014534585 -0.039589435 -0.11934669 0.21071757 -0.12871945 -0.10904039 -0.16727583 -0.042717602
0.038703106 0.12553602 0.19358495 0.06486172 0.09709539 0.19319925 0.14333677 0.14508978
-0.120862976 0.19263154 0.20454174 0.017062403 0.14315316 -0.14084397 -0.10298695 -0.12227134
-0.13604456 0.12022771 0.0919129 0.12423465 -0.01696859 0.22655316 -0.05079113 0.051825486
0.14281683 -0.25239238 0.03458707 0.26480663 -0.13718176 -0.016047472 -0.02583092 -0.07801214
0.12449656 -0.025782214 0.107298926 -0.023644969 -9.022606e-07 -0.035046853 -0.27161103 0.21370025
-0.045171887 0.06239844 0.15548868 -0.09358817 0.1282611 -0.022752998 -0.076923415 0.18518466
0.07798609 -0.25103545 0.020128042 0.17145449 -0.26301724 -0.30043733 -0.1598679 0.29311374
0.043635257 0.11755564 0.010866815 -0.00850237 0.10046909 0.078513384 -0.22361213 -0.11733767
-0.4948929 -0.07828339 0.20980895 -0.24245931 0.055702876 -0.1281503 0.15788274 -0.15592125
0.008605758 -0.05011422 -0.17154805 0.27033737 0.106527366 0.042093985 0.037564103 0.029039804
-0.10785074 0.46124738 0.046025835 0.12357108 0.05540025 -0.046286657 0.3136079 0.37521753
-0.08625079 0.082324356 -0.35806435 -0.080268614 -0.04784595 0.08877174 0.14068706 0.14715719
0.033988923 -0.2236676 -0.13300547 0.30784893 -0.25975406 0.25561348 0.054996073 -0.18664841
0.22612558 -0.122422844 -0.14969043 0.1670571 0.044430695 0.22935139 0.21283238 -0.10915322
-0.20371073 0.15213417 0.21127181 0.190632 -0.06964919 0.0602897 -0.07041731 0.14695685
-0.0155261755 0.027841812 -0.04922893 0.065591164 -0.42387044 0.036047403 0.10829406 0.051370494
-0.08749311 0.105156526 0.1926393 0.047878712 -0.031196794 0.1696393 0.22191593 0.17242754
0.19319955 -0.01688771 0.14081693 -0.23430325 -0.067439795 -0.07009536 0.09732444 0.05975351
0.067546606 0.082462214 -0.0547685 -0.025491778 0.052248046 0.17766133 -0.22735743 -0.08924939
-0.053393345 -0.19710502 -0.13941006 0.06758488 -0.01324946 0.08212302 -0.34993657 -0.44102153
0.051340364 0.089698 0.094488524 -0.092040345 0.06857998 0.09125643 -0.28118408 0.13374747
00000000: 103e 78bb b5a5 32bd 3ec7 873c 22de 53bd
00000010: 7760 c9bd 1b5d febd 4ee7 11be c043 2abc
00000020: da65 debd a1cf fabd 96e8 bd3d 6d9e 95bd
00000030: 2291 b23d 2972 a3bd b4e5 32be 8c75 14bd
00000040: e1a0 c53d 24eb ffbd f86d e63d a930 0fbe
00000050: 6ac2 4dbd 175a 7e3d 6e88 d03c 70fe b93d
00000060: a0cc 46bd b55b 6c3d d7df afbd 639b 2dbd
00000070: 9a8b d6bd 6612 20bd 9109 a1bc a2dd c1bd
00000080: 8f73 893d 5523 1cbe 714d 28bd e690 38bd
00000090: 3d27 383c f398 f63d b944 7b3d 5b89 8b3d
000000a0: d674 813c 4244 58bd a82e 9fbd ce42 01be
000000b0: 10ef acbc e09b ecbd 3963 98bd bd49 fbbd
000000c0: adc5 68bd e9c8 933d b636 29bd bdf9 2fbc
000000d0: 79a8 8d3d 019c c83b 90eb 923c 12d0 5fbd
000000e0: feb1 20bd 4330 203d 0213 dabd a626 43bd
000000f0: 9916 db3d 8555 2dbd 50f8 993d a6d9 d2bd
00000100: 3495 533e 1029 c03d 5537 d0bd 2f08 e73d
00000110: 1d7c 073e a540 a13e ffc4 3e3e f31f 36be
00000120: e750 f93c c908 623e b39c c83d 498a de3d
00000130: 65b4 44bc 1af1 903c 460c 533e 92c1 1e3e
00000140: 7822 6e3c 8828 22bd 0a6c f4bd 59c6 573e
00000150: 08cf 03be 9150 dfbd 5b4a 2bbe a7f8 2ebd
00000160: 2687 1e3d 848c 003e 223b 463e 39d6 843d
00000170: f3d9 c63d 06d6 453e e0c6 123e 6a92 143e
00000180: 0287 f7bd 3441 453e 6473 513e 74c6 8b3c
00000190: be96 123e 6739 10be d2ea d2bd 6569 fabd
000001a0: 444f 0bbe f239 f63d d53c bc3d bc6e fe3d
000001b0: b601 8bbc 8dfd 673e 5c0a 50bd f646 543d
000001c0: 933e 123e 9339 81be 2cab 0d3d bc94 873e
000001d0: 6079 0cbe fd75 83bc 5e9b d3bc d4c4 9fbd
000001e0: 0df8 fe3d 3935 d3bc 8abf db3d 18b3 c1bc
000001f0: e032 72b5 4a8d 0fbd 9a10 8bbe 3dd4 5a3e
00000200: 2806 39bd 8295 7f3d 6d38 1f3e 28ab bfbd
00000210: e156 033e 7f64 babc 068a 9dbd 0ca1 3d3e
00000220: 2cb7 9f3d b887 80be 90e3 a43c c491 2f3e
00000230: 32aa 86be ecd2 99be 69b4 23be 0113 963e
00000240: e2ba 323d 03c1 f03d ba0a 323c 864d 0bbc
00000250: bdc2 cd3d a0cb a03d 94fa 64be bb4e f0bd
00000260: 9a62 fdbe 0b53 a0bd 28d8 563e 4147 78be
00000270: b328 643d d539 03be 03ac 213e d2a9 1fbe
00000280: 2aff 0c3c 9144 4dbd 4baa 2fbe a969 8a3e
00000290: 052b da3d be6a 2c3d d1dc 193d e2e4 ed3c
000002a0: d9e0 dcbd 9e28 ec3e 9685 3c3d d612 fd3d
000002b0: 5feb 623d 1497 3dbd 3791 a03e 831c c03e
000002c0: 41a4 b0bd ac99 a83d 3654 b7be df63 a4bd
000002d0: 1dfa 43bd f5cd b53d 4510 103e 60b0 163e
000002e0: f837 0b3d 1f09 65be 9632 08be 609e 9d3e
000002f0: 7cfe 84be c5df 823e 9043 613d c320 3fbe
00000300: 778d 673e d4b8 fabd 7348 19be 0411 2b3e
00000310: f6fc 353d 17db 6a3e bbf0 593e b98b dfbd
00000320: 8c99 50be 0fc9 1b3e a357 583e 0935 433e
00000330: 3ca4 8ebd 55f2 763d f336 90bd db7b 163e
00000340: 8061 7ebc 8314 e43c 46a4 49bd a954 863d
00000350: 8c05 d9be 71a6 133d 47c9 dd3d de69 523d
00000360: 962f b3bd 4e5c d73d 3d43 453e 781c 443d
00000370: 6b90 ffbc edb5 2d3e ee3d 633e d890 303e
00000380: 1ad6 453e 1858 8abc 5032 103e 31ed 6fbe
00000390: e01d 8abd 288e 8fbd 0952 c73d 19c0 743d
000003a0: e055 8a3d f3e1 a83d ef54 60bd 22d4 d0bc
000003b0: 0c02 563d daec 353e 63d0 68be 62c8 b6bd
000003c0: fbb2 5abd e6d5 49be 83c1 0ebe f169 8a3d
000003d0: 4314 59bc 1d30 a83d e32a b3be 93cd e1be
000003e0: 464a 523d 96b3 b73d 3383 c13d a67f bcbd
000003f0: a973 8c3d a7e4 ba3d 5cf7 8fbe 19f5 083e

encoder.project.3.bias f4 [16]
-0.008126583 -0.07345399 0.009520551 0.0047005727 0.20218387 -0.34080952 -0.07793576 0.18370411
0.11215212 -0.03097921 -0.20688461 -0.10332207 -0.07034301 0.025804434 -0.14901826 -0.14170995
00000000: 5c25 05bc 0c6f 96bd 16fc 1b3c 4307 9a3b
00000010: 4a09 4f3e 967e aebe c99c 9fbd ee1c 3c3e
00000020: 03b0 e53d 1dc8 fdbc 8fd9 53be 859a d3bd
00000030: ff0f 90bd d263 d33c 3e98 18be 6a1c 11be

decoder.gru.weight_ih_l0 f4 [192, 17]
0.08797969 0.100204244 -0.064642124 0.0984553 0.05796965 -0.03613677 0.0034998646 0.17808565
0.03334797 0.047329817 -0.10704742 0.053373806 -0.093654364 0.008747666 0.011533076 0.05755693
-0.026645016 -0.07933458 0.014031842 0.040704645 -0.0064340523 -0.016644664 -0.19287509 -0.1098789
0.03827516 0.15417777 -0.0076142284 -0.1185354 -0.03861776 -0.001181576 0.013343552 -0.02626566
-0.12798186 -0.019156376 -0.111771874 0.024477286 -0.10042462 -0.062653996 0.028839897 -0.045134675
-0.12862727 -0.18421979 -0.15963751 -0.08400736 -0.0023491245 -0.08602807 0.106949314 0.011630774
0.03058326 -0.14093757 0.039545972 0.036448535 -0.015093212 -0.019127967 -0.09112915 -0.06787289
-0.0034827604 -0.043542203 -0.17408778 -0.08535328 0.03634264 -0.01213971 0.032696374 -0.055597693
-0.050177287 -0.009410044 0.0024221423 0.01154474 0.008358696 -0.106487624 -0.0014650292 -0.04367155
-0.082799315 0.0404212 0.004183388 -0.120095834 0.0020720465 -0.054360174 0.0021390666 0.10428221
-0.0767771 0.060121432 0.064575285 -0.03422918 -0.029713193 -0.09522016 0.15594509 0.23704985
0.056306396 -0.04110061 -0.1839639 -0.057617627 0.032472078 0.07502369 0.048865177 0.072233975
0.16358334 0.08351531 0.14704409 0.027513294 -0.022726372 -0.038309727 -0.07961563 0.07152028
0.15411064 -0.11001461 -0.15019731 -0.003055453 -0.16518247 -0.24909079 -0.122197315 0.10091511
0.113558605 0.2090234 0.20996788 0.049243834 -0.0036922197 0.0031486498 0.039927833 0.05613684
-0.038505774 0.09918877 -0.10489445 -0.045688037 0.020531235 -0.06521423 -0.03459841 0.026618835
0.1554128 -0.087526485 -0.024087265 0.01916233 -0.123503804 -0.034951143 -0.00023394257 -0.07725674
-0.100451894 0.104961455 -0.09228117 0.05796508 0.17659923 -0.2516729 -0.050268594 0.1789254
0.1795101 -0.06472978 -0.01863528 -0.0041429037 -0.00813134 0.12387887 0.014200049 -0.16462016
-0.07941278 0.029867468 -0.088464886 0.13579196 -0.11952647 -0.021392835 -0.04878653 -0.060023606
-0.07363778 0.089988664 0.06040467 -0.0628914 0.015004491 0.05083366 0.05117985 -0.0633606
0.040239684 0.097727954 -0.028271493 0.14474925 -0.13062584 0.023905873 0.06857925 -0.07367898
-0.13186258 -0.010396759 -0.09215906 -0.0016851153 -0.0016006863 -0.07547969 0.07742362 -0.055154283
-0.07936898 -0.063448384 0.008627696 0.04821365 0.06912286 -0.07155904 0.03592281 -0.06469171
-0.0027807138 -0.046832845 0.016958488 -0.02934799 0.03516657 -0.037370335 0.086856775 -0.03185887
6.5138214e-05 0.05246986 0.028037343 0.02098929 0.03609511 -0.016340319 0.0818952 -0.029492633
0.009426173 -0.011408481 -0.08584166 -0.005598327 -0.0073854686 0.07533751 -0.09761295 0.079861395
-0.09988099 -0.07393532 -0.044435475 -0.006074572 -0.0024120486 0.076277584 -0.013297498 0.085335664
-0.056872256 0.038332283 -0.009368926 0.07453786 0.0051371506 -0.0026699007 0.05993107 -0.07391684
0.04258695 0.034021534 -0.084010966 -0.06861799 -0.017624868 -0.055712473 -0.038362112 0.004481238
-0.022632435 0.012935363 0.10769834 -0.15044867 -0.077925876 0.055211313 0.045191403 -0.18051633
-0.11092075 -0.113079324 0.017310752 0.09535807 0.0322272 -0.10483856 -0.07333714 0.011938638
00000000: b22e b43d e237 cd3d 1763 84bd efa2 c93d
00000010: 9571 6d3d 2604 14bd fc5d 653b 165c 363e
00000020: e297 083d e9dc 413d ae3b dbbd 7e9e 5a3d
00000030: dccd bfbd 5f52 0f3c 3af5 3c3c d1c0 6b3d
00000040: a646 dabc 2b7a a2bd d0e5 653c eab9 263d
00000050: bed4 d2bb 645a 88bc 0c81 45be 3008 e1bd
00000060: 6ac6 1c3d c7e0 1d3e c780 f9bb b0c2 f2bd
00000070: a82d 1ebd 1ddf 9aba ea9e 5a3c 152b d7bc
00000080: ad0d 03be d5ed 9cbc a7e8 e4bd 9784 c83c
00000090: 6cab cdbd bd50 80bd a641 ec3c 23df 38bd
000000a0: deb6 03be 1da4 3cbe 0478 23be 0d0c acbd
000000b0: c5f3 19bb 7c2f b0bd 3e08 db3d 008f 3e3c
000000c0: bf89 fa3c f051 10be f5fa 213d 0f4b 153d
000000d0: 8549 77bc 41b2 9cbc eba1 babd f100 8bbd
000000e0: 063f 64bb 4f59 32bd 1144 32be b3cd aebd
000000f0: 05dc 143d a2e5 46bc a2ec 053d 68ba 63bd
00000100: b386 4dbd 962c 1abc cebc 1e3b 2626 3d3c
00000110: e9f2 083c 2f16 dabd 3906 c0ba f0e0 32bd
00000120: b092 a9bd b390 253d cd14 893b cef4 f5bd
00000130: 2ccb 073b c6a8 5ebd 952f 0c3b e991 d53d
00000140: 503d 9dbd e441 763d 0c40 843d e633 0cbd
00000150: 1569 f3bc ca02 c3bd 12b0 1f3e 32bd 723e
00000160: 89a1 663d 1d59 28bd 0861 3cbe 7600 6cbd
00000170: 7101 053d 05a6 993d da26 483d 68ef 933d
00000180: 6482 273e 130a ab3d ba92 163e 8f63 e13c
00000190: a82c babc a9ea 1cbd 850d a3bd 3979 923d
000001a0: 2ecf 1d3e 574f e1bd 53cd 19be ff3d 48bb
000001b0: 9825 29be a811 7fbe 9642 fabd 95ac ce3d
000001c0: 6a91 e83d 3b0a 563e d201 573e e7b3 493d
000001d0: 2bf9 71bb 9459 4e3b 5e8b 233d beef 653d
000001e0: 3bb8 1dbd 7b23 cb3d e7d2 d6bd 6123 3bbd
000001f0: 1f31 a83c 0a8f 85bd 10b7 0dbd be0f da3c
00000200: 8824 1f3e 1641 b3bd a852 c5bc 52fa 9c3c
00000210: 90ef fcbd ee28 0fbd 7b4e 75b9 c838 9ebd
00000220: b9b9 cdbd 08f6 d63d e9fd bcbd cb6c 6d3d
00000230: 6ed6 343e 45db 80be 71e6 4dbd 3838 373e
00000240: 7fd1 373e 0c91 84bd 04a9 98bc 32c1 87bb
00000250: 5039 05bc 34b4 fd3d 53a7 683c 3092 28be
00000260: 2ba3 a2bd 9fac f43c 142d b5bd 0c0d 0b3e
00000270: 4bca f4bd 0740 afbc 62d4 47bd 50db 75bd
00000280: 68cf 96bd fa4b b83d e36a 773d 35cd 80bd
00000290: 66d5 753c f536 503d f6a1 513d 34c3 81bd
000002a0: 5ed2 243d 9825 c83d 9e99 e7bc 2639 143e
000002b0: c8c2 05be 40d6 c33c 4773 8c3d 01e5 96bd
000002c0: fc06 07be 2b57 2abc e4bd bcbd 16df dcba
000002d0: 1fce d1ba 1995 9abd 4690 9e3d 75e9 61bd
000002e0: 348c a2bd 3af1 81bd 2e5b 0d3c ad7b 453d
000002f0: 4990 8d3d 8c8d 92bd cc23 133d 167d 84bd
00000300: a33c 36bb ccd3 3fbd 87ec 8a3c 326b f0bc
00000310: d20a 103d a311 19bd f7e1 b13d 727e 02bd
00000320: d09a 8838 a3ea 563d 92ae e53c bbf1 ab3c
00000330: 77d8 133d 22dc 85bc acb8 a73d 899a f1bc
00000340: 3c70 1a3c a3ea 3abc c1cd afbd 2c72 b7bb
00000350: cd01 f2bb 8d4a 9a3d 4ce9 c7bd 5f8e a33d
00000360: 688e ccbd 676b 97bd f901 36bd 340d c7bb
00000370: 7613 1ebb 6c37 9c3d c0dd 59bc 77c4 ae3d
00000380: e2f2 68bd 5002 1d3d 2080 19bc 4ea7 983d
00000390: 8b55 a83b 80f9 2ebb 487a 753d b661 97bd
000003a0: a76f 2e3d 2a5a 0b3d f10d acbd 9787 8cbd
000003b0: 0762 90bc c332 64bd 9721 1dbd 59d7 923b
000003c0: a867 b9bc d8ee 533c f390 dc3d 370f 1abe
000003d0: 9a97 9fbd 4225 623d 9f1a 393d 46d9 38be
000003e0: 6b2a e3bd 2296 e7bd 47cf 8d3c 184b c33d
000003f0: ab00 043d 99b5 d6bd c831 96bd 479a 433c

decoder.gru.weight_hh_l0 f4 [192, 64]
-0.06406455 -0.059728526 -0.013597825 -0.016353993 0.06492664 0.053848524 -0.0119069405 -0.0015735747
0.0020627389 -0.03405475 0.04040479 -0.036602493 -0.07025264 -0.05323534 0.069123186 0.04634078
-0.01870604 -0.021756258 0.005775926 0.030304674 0.07242501 -0.04584816 -0.007505436 -0.012097343
0.036823727 -0.040473025 -0.02125201 0.030715484 -0.06968913 -0.020349154 -0.003043063 0.03313943
0.07291624 0.05941104 0.03724264 -0.03852152 0.059030652 0.025274988 0.038273714 -0.009296206
-0.04194849 -0.04656536 0.013343957 0.036632337 -0.024752805 -0.052352607 0.028252762 -0.01063082
0.017802045 0.05794053 0.0428853 0.0025149048 0.011570916 0.047788236 -0.09158035 -0.037872687
0.016063564 -0.027388586 -0.003914119 0.009265711 0.013182433 -0.011677432 0.05743331 -0.013337215
-0.05341274 0.0065057287 0.0016918747 0.068418235 0.028747607 0.0035904918 -0.059877466 -0.017722284
0.019586826 -0.014475059 0.026556531 -0.017910678 -0.025210777 0.024168134 -0.028934024 -0.0055757957
0.015276711 -0.04023797 0.068408936 -0.025390448 -0.08571025 -0.013531429 0.034119714 0.04371217
0.031377338 -0.029135177 -0.12685725 0.04616138 0.013283133 -0.021150904 -0.041430134 0.04740283
-0.047018494 0.055997644 -0.004375779 0.017720217 -0.031780723 -0.021608926 -0.0061520105 0.013595048
0.027899455 -0.048912656 -0.02776863 0.078792214 -0.056561083 0.033813458 -0.07314667 -0.03377783
-0.052148994 -0.019170467 0.07839309 -0.039840087 -0.049341157 0.015203862 0.010701254 0.016094802
0.067014165 0.017198183 0.015799096 0.0177137 -0.026460819 -0.024129076 0.0047258823 -0.033495154
-0.01301688 0.04502934 0.018445518 0.11048419 0.0008200187 0.020771885 -0.03804394 -0.022409128
-0.07609602 -0.01819034 -0.06246929 0.019628474 -0.00586149 0.071038224 -0.0021247817 0.0031599398
-0.019958038 0.08165263 0.02281968 -0.04765228 -0.07292124 -0.002131068 -0.05743625 0.1441566
-0.002156305 0.015870836 -0.017835993 -0.023121625 0.10459244 0.03684546 0.066572614 -0.019158123
-0.07004526 -0.002644015 -0.09878861 0.021586932 0.01972035 -0.009428815 0.017430399 0.0044242307
-0.049711898 0.016203767 -0.031751074 -0.022638788 -0.037936218 0.06844605 -0.076574266 0.1186216
-0.07065747 -0.06378968 0.018730346 0.004729352 0.019682378 -0.011578249 -0.016727678 0.061579652
0.0062201372 0.08289005 -0.057257075 -0.029608892 -0.020528153 0.0059547517 0.006515799 0.17618589
0.019969748 0.04706752 0.07137743 0.0731422 -0.023778955 -0.02378764 -0.016723087 0.038675345
-0.022467187 0.012616719 -0.025155976 0.03873367 0.044775642 0.006039036 -0.022476505 -0.029408723
-0.05789883 0.06840043 -0.04889549 -0.033600323 0.004228409 0.028219035 0.064618275 0.051784415
0.051675852 0.07487828 0.016697383 0.011626836 0.052630197 0.012870507 0.04880577 -0.08081459
-0.044300728 -0.07868432 -0.10023314 0.0067448807 -0.0032279822 0.036562808 -0.013098575 -0.048218116
0.013061745 0.049931314 -0.030394537 -0.011249055 0.01254366 -0.0017645512 -0.025549967 0.0846904
0.0149995 -0.039214946 -0.03071558 -0.006556216 0.091259845 0.022315186 0.036887866 0.061167397
-0.0071193287 0.016907947 -0.006424831 -0.09387291 0.02428953 -0.026461419 0.014250587 0.071423806
00000000: 4634 83bd e6a5 74bd 69c9 5ebc cff8 85bc
00000010: 42f8 843d 4590 5c3d 5415 43bc 6840 ceba
00000020: 042f 073b fe7c 0bbd 7e7f 253d 7fec 15bd
00000030: 9ee0 8fbd 4d0d 5abd 7590 8d3d d4cf 3d3d
00000040: 693d 99bc 2e3a b2bc fb43 bd3b 8241 f83c
00000050: 9053 943d 48cb 3bbd 29f0 f5bb ef33 46bc
00000060: 7ad4 163d 0bc7 25bd b218 aebc 0a9f fb3c
00000070: 2db9 8ebd 45b3 a6bc 206e 47bb 36bd 073d
00000080: 1c55 953d fe58 733d bd8b 183d bec8 1dbd
00000090: 20ca 713d 7e0d cf3c e6c4 1c3d 1d4f 18bc
000000a0: 2ed2 2bbd 52bb 3ebd 9da0 5a3c ca0b 163d
000000b0: 65c6 cabc b06f 56bd 5672 e73c e42c 2ebc
000000c0: 98d5 913c 0d53 6d3d 7fa8 2f3d 1ad1 243b
000000d0: f093 3d3c 99bd 433d 7b8e bbbd 6420 1bbd
000000e0: bc97 833c 075e e0bc 0342 80bb 35cf 173c
000000f0: 22fb 573c b352 3fbc 313f 6b3d 5684 5abc
00000100: 51c7 5abd 022e d53b e5c1 dd3a dc1e 8c3d
00000110: 1a80 eb3c 754e 6b3b 1342 75bd 532e 91bc
00000120: 8d74 a03c cc28 6dbc 158d d93c 6ab9 92bc
00000130: d586 cebc 40fc c53c 0c07 edbc 2ab5 b6bb
00000140: 2c4b 7a3c 92d0 24bd fc19 8c3d a1ff cfbc
00000150: db88 afbd edb2 5dbc 1dc1 0b3d 880b 333d
00000160: 8685 003d e5ac eebc dee6 01be b713 3d3d
00000170: 7fa1 593c a944 adbc a5b2 29bd 7829 423d
00000180: 7796 40bd c95d 653d b262 8fbb fd29 913c
00000190: 812c 02bd 3405 b1bc ce96 c9bb c4bd 5e3c
000001a0: 668d e43c a358 48bd 0a7b e3bc d05d a13d
000001b0: 98ac 67bd fb7f 0a3d eccd 95bd 9f5a 0abd
000001c0: 2f9a 55bd 620b 9dbc 8e8c a03d 5c2f 23bd
000001d0: f419 4abd 9f19 793c 5054 2f3c 3fd9 833c
000001e0: b93e 893d 34e3 8c3c 1b6d 813c 521c 913c
000001f0: 5cc4 d8bc 57aa c5bc 93db 9a3b 3732 09bd
00000200: c044 55bc af70 383d 0e1b 973c 8945 e23d
00000210: 86f6 563a cd29 aa3c f6d3 1bbd 5993 b7bc
00000220: 3bd8 9bbd e803 95bc ccdf 7fbd e5cb a03c
00000230: be11 c0bb 7d7c 913d ec3f 0bbb fe16 4f3b
00000240: 0a7f a3bc 7e39 a73d 56f0 ba3c 0a2f 43bd
00000250: bb57 95bd 63a9 0bbb 4642 6bbd ca9d 133e
00000260: cb50 0dbb 8e03 823c ca1c 92bc 9069 bdbc
00000270: 9034 d63d 44eb 163d 3957 883d 7ff1 9cbc
00000280: e473 8fbd 3647 2dbb af51 cabd 14d7 b03c
00000290: 928c a13c 517b 1abc 32ca 8e3c 23f9 903b
000002a0: b49e 4bbd c3bd 843c 6a0d 02bd fb74 b9bc
000002b0: 0263 1bbd 712d 8c3d f8d2 9cbd e2ef f23d
000002c0: ddb4 90bd 2aa4 82bd 6270 993c aef8 9a3b
000002d0: f03c a13c b2b2 3dbc 7c08 89bc f23a 7c3d
000002e0: 4bd2 cb3b 42c2 a93d 6586 6abd 598e f2bc
000002f0: a82a a8bc 1420 c33b 7c82 d53b 136a 343e
00000300: 9997 a33c dfc9 403d 542e 923d 94cb 953d
00000310: 15cc c2bc 4cde c2bc dbfe 88bc 0a6a 1e3d
00000320: 1b0d b8bc 5bb6 4e3c e813 cebc 32a7 1e3d
00000330: aa66 373d 1be3 c53b a620 b8bc 90ea f0bc
00000340: 5327 6dbd 8615 8c3d a346 48bd 7ea0 09bd
00000350: 778e 8a3b 9b2b e73c 9656 843d e51b 543d
00000360: 0faa 533d c959 993d f3c8 883c 7c7e 3e3c
00000370: c392 573d d2de 523c 8fe8 473d 1f82 a5bd
00000380: ae74 35bd 3f25 a1bd 0847 cdbd 2904 dd3b
00000390: 8e8c 53bb e2c2 153d 689b 56bc 5c80 45bd
000003a0: ee00 563c c784 4c3d f7fd f8bc f54d 38bc
000003b0: ec83 4d3c 8348 e7ba 2a4e d1bc 2972 ad3d
000003c0: 76c0 753c da9f 20bd 3d9f fbbc 87d5 d6bb
000003d0: 71e6 ba3d 56ce b63c bb17 173d aa8a 7a3d
000003e0: 4249 e9bb 8982 8a3c 6487 d2bb 7140 c0bd
000003f0: d6fa c63c 9ec5 d8bc 4b7b 693c a546 923d
