my_latent_sde/sdes/best_sde_0.pth (torch, 197557 bytes, 28 tensors)

encoder.gru.weight_ih_l0 f4 [192, 2]
00000000: f70d cc3c 622a a93d 8f4c 173d 8f75 0dbe
00000010: acf6 c9bd c54a efbc 2963 0f3e 0807 613d
00000020: 0773 f33c bff3 043b 4831 a03c e35a 9cbd
00000030: c153 883d 0b79 e9bc 8f6e 1d3d 72f7 093e
00000040: a777 eebc a10b 643d ae54 063d 151c e93d
00000050: 8421 563d b4c7 a63d 2b1c 6a3d 6a45 0f3e
00000060: 0003 2b3b 6fae e5bd e242 1a3e 168f 983d
00000070: 19b1 703d 6f4a 3b3d 3267 ae3b 44f4 df3c
00000080: 8da7 88bc cc36 003e 51b2 0cbd 48dc 91bc
00000090: 19d9 403d e0a7 bbbb 0823 cc3d cf61 a93c
000000a0: 85b9 b6bd e5e1 4cbd ef36 91bd c131 09bd
000000b0: 62bb 26bd 866a bebb fe02 5a3e daed 4f3e
000000c0: 754f 413d 2e6e 25bd 5f2e 67bd 2225 713d
000000d0: ec2c 913d bb48 62bc c0b4 37bc 7a06 1b3d
000000e0: ec1a b6bd 55e1 26bc 2e21 f7bc f797 51bd
000000f0: 5ed3 6e3d dc24 c7bd 86b9 97bd d951 26bd
00000100: c875 c9bc f533 813d 215c a43a 472d 0fbd
00000110: 1346 123e ddb9 423e 00a9 453d 4d0f acbd
00000120: 0b22 fdbc 0024 edbd 0fa8 2bbc d2cb 0d3d
00000130: 9c2f 143d 9a4b be3d 8564 97bd 369b 153c
00000140: 78ca fe3b 0972 1e3e ec24 babd 2dde 943b
00000150: 027f 1c3e 0fd4 f53d a3b6 57be 1369 bebd
00000160: 73bc 2dbd 1045 07bd 67b8 9c3d deb6 473b
00000170: be3c 7fbd 5530 87bd f077 31bd ae52 023e
00000180: e0b5 e3bc 82af 043d 152d b4bc a16c 3cbd
00000190: 116a a33d d309 a9bd 26d1 183c 99bb bcbc
000001a0: a54d 2e3d 5ffd 213d 54c4 fd3b 54f6 8c3c
000001b0: 5c3a 6f3d f635 08bd 2abd a8bb 5198 5fbd
000001c0: 54dc c53d b3ee dfbc 17cc 13bd 42b4 8d3d
000001d0: fe9e 523c f0f1 afbd 30ab 1dbe d7f5 07be
000001e0: dc70 86bd b087 dbbd 5585 343e 86bd c03d
000001f0: 9778 f43d 5396 bd3c 5687 793b 7033 033d
00000200: 28d8 1ebe e8a8 09bd cc29 9ebd a395 c43c
00000210: a98e 793d 3187 bdb7 e03d 1cbd 7ace 29bc
00000220: 7d3f a2bd 7850 163d 9cec d5bc 89f2 32be
00000230: 773f d3bd 05f3 243d c0e6 45bd 3833 753d
00000240: bbe5 9a3d d8d0 263d d20b 9abd dc16 9dbd
00000250: 3161 afbd 2d6f f33d 0d56 c2bd 3368 a53d
00000260: c735 0ebe 8727 913d 72eb 01bc ec64 003e
00000270: a309 4ebd a9a0 a6bc 98a1 91bd b88c 30bc
00000280: c4dd 5abd d0a4 f83c 6365 babd c71a 9dbc
00000290: 2df1 ebbd d0d6 a73d e356 053d 2f87 3b3d
000002a0: b738 8a3e ff42 1a3d 3b44 87bd 4cb1 0dbe
000002b0: 03ea cebd fa7e 6fbd 7d0f 363d 8f2b bf3c
000002c0: 49ff cbbc cfc4 b33b d2f4 823b cceb 8d3d
000002d0: 732f ecbd 5440 07be 7321 99ba e3ce a13d
000002e0: 542a 9dbd 8a1f 7e3d 76e8 55bd a67b ae3d
000002f0: 9fad 913d 539c 5fbc 1b15 d9bb c61a 14bd
00000300: 6887 a43c f317 c73d e850 b93c 8546 0b3d
00000310: bc54 923c b49d fa3d 22fe c7bd 2eff 9c3d
00000320: 3804 15bd 6f46 cb3b b9d8 bb3d 37dd 413e
00000330: 2942 b73c a04c 163e d26a ca3d 529a 16bd
00000340: 3f0e 00be 55f7 6a3d 01ce e43b 144a 333c
00000350: c942 8cbc 63a4 8b3d 5d1c e63d cfb2 263c
00000360: 5967 223d ab1b ac3d 4c93 d5bd 7262 843c
00000370: 4965 6dbd bc76 e73c 5e6b 533e d2d5 9c3e
00000380: 9d59 67bc a6ce c9bc b0eb 8dbc 5925 8b3d
00000390: f260 32bd 0a9d 1d3e 9fb0 19be 8554 afbd
000003a0: 1105 8e3d 9fac f43d 7976 a9bd c8df f1bd
000003b0: 3a8f 133e ca5d 373d 58d1 0dbd d6f7 983d
000003c0: 3add 03bd 9577 8b3d 5e02 6bb9 e2d7 b83d
000003d0: 83df 2c3e 80c7 593e 02c8 ddba eaf0 ad3d
000003e0: e106 ba3d e98b 953c 647f 19be 4431 80bc
000003f0: fcfc f6bd 5c8f 21bb 43ec cf3c c218 393c
0.024909003 0.08260037 0.036938246 -0.13814376 -0.09861502 -0.029210458 0.1400267 0.054938346
0.029717935 0.0020286886 0.01955475 -0.07634523 0.066566 -0.0285001 0.038435515 0.13473299
-0.029109789 0.055675153 0.0327956 0.11382309 0.052278057 0.08143559 0.05715577 0.13991323
0.0026094317 -0.11214911 0.15064576 0.074491665 0.058762643 0.045725282 0.0053223604 0.027338155
-0.016681457 0.12520903 -0.034349743 -0.017805234 0.04708204 -0.0057267994 0.09967619 0.020676522
-0.08922104 -0.050020117 -0.07090556 -0.033494715 -0.040706046 -0.0058110384 0.21290204 0.20305577
0.047194917 -0.04038828 -0.056440707 0.058873303 0.07088646 -0.013811286 -0.011212528 0.037847973
-0.08891854 -0.010185559 -0.030167188 -0.051170316 0.058307044 -0.09723827 -0.07408433 -0.0406054
-0.024592295 0.06308738 0.0012539664 -0.03495529 0.14284544 0.19016214 0.048256874 -0.08401356
-0.030900022 -0.11579132 -0.01047708 0.034618206 0.036178216 0.092917636 -0.073922195 0.009131243
0.007775601 0.15473188 -0.090890735 0.004543087 0.15282825 0.120033376 -0.21065764 -0.09297385
-0.042416047 -0.033024848 0.076523595 0.0030473988 -0.062313788 -0.066010155 -0.043327272 0.12726852
-0.027796686 0.03239394 -0.021994153 -0.046002034 0.07979215 -0.08253827 0.009327209 -0.023038672
0.042554516 0.039548274 0.0077443514 0.017207302 0.058405265 -0.033254586 -0.0051495032 -0.05458862
0.09661165 -0.0273355 -0.036083307 0.06919147 0.0128552895 -0.08591068 -0.15397334 -0.13277374
-0.06564495 -0.1071924 0.17628987 0.09411149 0.11937063 0.02314297 0.0038075051 0.032031476
-0.15512145 -0.033608347 -0.07722816 0.023997134 0.060927067 -2.259351e-05 -0.038144946 -0.010364169
-0.07922266 0.036697835 -0.0261138 -0.17475332 -0.10314839 0.040270824 -0.048315763 0.0598633
0.07563349 0.040726513 -0.07521786 -0.07670376 -0.0856346 0.118864395 -0.09489069 0.08076515
-0.13887702 0.07087617 -0.00792967 0.12538499 -0.05030216 -0.02034028 -0.071109 -0.010775737
-0.05343415 0.030352026 -0.09101369 -0.019177807 -0.1152061 0.08195269 0.032553565 0.045783218
0.26996395 0.03766155 -0.06604811 -0.13837165 -0.10103228 -0.058470704 0.044448365 0.0233362
-0.024902003 0.005486108 0.00399647 0.0692974 -0.11532488 -0.13208133 -0.0011682942 0.07900789
-0.07674089 0.062041797 -0.052223645 0.08519678 0.07113194 -0.01364811 -0.0066248304 -0.036158346
0.020084098 0.09721365 0.022621587 0.0340028 0.01786267 0.12237111 -0.09765269 0.07665859
-0.036380976 0.0062034647 0.09172196 0.18932043 0.022370415 0.14677668 0.098836556 -0.036768265
-0.12505434 0.05736478 0.0069825654 0.010942955 -0.01712169 0.06818464 0.112358786 0.010174467
0.03964934 0.08403715 -0.10428485 0.016160224 -0.05795792 0.02825486 0.20646426 0.30631882
-0.014120487 -0.02463467 -0.017324299 0.06794233 -0.043549486 0.15391937 -0.15008782 -0.08561043
0.0693456 0.11946987 -0.0827455 -0.11810261 0.14410105 0.04476718 -0.034623474 0.07469146
-0.0321934 0.06809918 -0.00022412228 0.090255514 0.16882138 0.2126751 -0.0016920569 0.08493216
0.09083343 0.01825519 -0.14990002 -0.015648492 -0.12059972 -0.00246521 0.025381213 0.011297407

encoder.gru.weight_hh_l0 f4 [192, 64]
00000000: 3994 e63d 3f6d dbbd e653 34b9 730a aebb
00000010: ad9b a9bd 27e3 8abc 0c8e 5c3d fda7 e4bc
00000020: 1c4b d5bc c9d6 f93c b1de 353c a01c 4a3d
00000030: 0330 e03c 441a 0e3d 7a36 323d 9c98 a5bd
00000040: e423 e33c 7ddb 44bc 000d 3a3d 7a49 1d3d
00000050: f953 d23d e0d3 a2bc 6731 77bd 6cf5 0c3d
00000060: 4fb1 34bc bb81 323d 5415 823b f4a8 e4bc
00000070: 04f8 903c 9ed0 c03c 6775 413c addf 57bd
00000080: 8510 6f3c 74ec 3fbd 1b11 1fbd d26c 563c
00000090: 5a0b 743d fdd6 b3bd acb4 1b3c b062 e43c
000000a0: 7c33 34bc f5b8 25bd 533a 403d b9a1 68bb
000000b0: da93 793d aaaf 6d3c 3152 50bd 0813 78bd
000000c0: ffbc a63d 2c5b b6bd 7540 9a3c 6994 423d
000000d0: f986 5cbc 8bea 8c3d 57a6 d2bc f33c b8bc
000000e0: b11c 863d d426 77bc 755a 8b3d ed53 aabc
000000f0: fb2b 813d f544 e2bc 3403 fa3b 5545 af3a
00000100: 5c46 6b3d bffd 12bd 406c e0bc c31d f93b
00000110: 3c66 53bd 07e5 2bbc a4f5 bb3d 1e2a d4bc
00000120: 4637 f5bc e2f2 61bd bed8 4c3d 64c5 3e3c
00000130: d89d 5e3d e861 7dbb eca9 833d be92 6fbd
00000140: 5be8 8b3d d2bc 2ebd fee7 c53d 7086 e33c
00000150: 380a a93d f67e 1abd a8ec bbbc e0ee 323d
00000160: 2487 c93d 783b b33d 9d4d 3fbd 7eea 37bd
00000170: 462e 223d c23a 183d 03b2 593d a464 b4bd
00000180: 908a 423d e8ca 18bd 55b8 f1bb 3718 8abb
00000190: d4bc 863d 22fe 38bd 85c7 873d c5c7 81bd
000001a0: 96fc 34bd d320 7abd f0fd 6d3d fffc 4d3d
000001b0: bc33 b43d 8ff7 7abc a4d7 61bd 80d3 ee3a
000001c0: e13f b63d b9b4 b4bd 1f81 cfbc 75b5 763c
000001d0: e49d 2cbd be02 7e3d e3de f0bc cbbb e8bc
000001e0: 51e7 9d3d f4d5 6fbd 2719 283d c93d 28bd
000001f0: 1a8c bd3d 85a7 e33c dceb 513d e995 32bd
00000200: 94bb b73d 1ad3 adbd dee0 c4bc 33ac 5a3d
00000210: 8819 2ebd 6cb7 d33c 95f9 0fbd 3fd0 053d
00000220: 943b fe3c c523 cabc f419 deba 92a1 bb3d
00000230: 83da 973a ccf5 5bbd 2f14 2d3d 7284 1dbd
00000240: 5364 f8bc 3e31 5cbd 55fa 0bbd f053 fa3c
00000250: 22bd d9bc 0ac8 9a3c e6b5 a63c 4288 07be
00000260: 1dd8 ca3b f5d6 37bc dab8 a7bd 4a1a bebc
00000270: bb22 d73c 0a4e 1b3c f797 acbc b470 19bd
00000280: f989 bfbd a0ed 363d 1df8 923d 3c77 af3b
00000290: b18a b8bc 4cae 4c3d f3e1 f1bd 8833 d1bd
000002a0: 2356 18bd 6d4c da3c 02bb 25bd 0ef7 1abd
000002b0: f582 11bd 09b6 443a 7a6d 49bd 6759 cbbc
000002c0: d27a 8a3d e928 483d 8123 f33c 184d 933d
000002d0: b66f 9a3d af66 033d e86d 06bd 09be 8d3c
000002e0: 80e3 4d3d b64b 9e3d 5f43 583d ef87 763d
000002f0: 1ee2 8abd b34c a0bd f101 0ebd 74d5 a0bc
00000300: e456 be3c 8b31 b13a 6324 30bd 3384 243e
00000310: 275f a7bc d15e bb3c a358 2f3d c594 263c
00000320: 0f9a bcbc 7df3 afbc d868 353d 3e7d b83d
00000330: 3fbd f53d cf92 bd3c 3d72 373d beeb b1bc
00000340: 44b5 d5bd 94a7 42bd 5d79 993d 2a86 9d3d
00000350: 17f7 8ebd b6e1 923c b279 30bd e441 a2bd
00000360: 8622 2f3d 9114 dabb ba05 4cbd 26ee 94bd
00000370: 4918 223d 97c3 623c 09c1 e13d 88f6 5dbd
00000380: a382 c9bb f658 2fbd ac9d b5bc 77a6 0fbd
00000390: c73f a43d 7e4d 0b3d 673c 4a3d 665a d5bd
000003a0: e8bb 21bd 8c7c 3fbd c220 213d 00ef 8fbc
000003b0: 4f55 29bd 38d8 6b3d dd3f 0ebd 122a 38bd
000003c0: cc63 67bc ec76 97bd ff97 04bd 8b01 d63d
000003d0: 4541 b8bc b8f3 2d3d 8275 aabd a4cc f1bc
000003e0: 48cc 263d 6208 71bc 3e43 313d 6e97 8a3d
000003f0: 2793 cd3c e823 0ebe 4e05 88bd 1e9f 0f3d
0.1125874 -0.107141964 -0.00017197392 -0.0053113042 -0.08281646 -0.016954018 0.053846404 -0.027912134
-0.026036792 0.030497925 0.011100457 0.049343705 0.027366644 0.034693018 0.043508984 -0.080857486
0.027727075 -0.012015221 0.045422554 0.03840015 0.10269923 -0.01987642 -0.060349848 0.03441374
-0.011028602 0.043580752 0.0039698277 -0.027912594 0.017696388 0.023536976 0.011807776 -0.05270355
0.014591341 -0.04685636 -0.038834672 0.013087468 0.05958114 -0.0878124 0.009503525 0.02787909
-0.010998603 -0.040459592 0.046930622 -0.0035496785 0.060932018 0.014507214 -0.050859634 -0.060565025
0.08141517 -0.089041084 0.018829564 0.047504816 -0.013459914 0.06880673 -0.025714083 -0.02249
0.06548441 -0.015084941 0.06804363 -0.020791972 0.06307217 -0.027620772 0.0076297764 0.0013372103
0.057440147 -0.035886522 -0.027395368 0.007602425 -0.05161117 -0.010491616 0.091777116 -0.02589899
-0.029933583 -0.05516327 0.05001139 0.011643741 0.05434975 -0.0038663093 0.064288944 -0.058489554
0.06831428 -0.04266054 0.096633896 0.027774066 0.08253902 -0.037718736 -0.022939995 0.04368484
0.09840229 0.08751577 -0.046704877 -0.044901364 0.03959491 0.03716541 0.05314828 -0.08808258
0.047495425 -0.03730288 -0.0073767104 -0.0042143124 0.06578985 -0.045164235 0.06629852 -0.06336931
-0.044186197 -0.06106646 0.0581035 0.050290104 0.0879893 -0.015317812 -0.05513729 0.0018220991
0.08898903 -0.088235326 -0.025330124 0.015057911 -0.042142764 0.062014334 -0.029403156 -0.02840986
0.07710136 -0.05855365 0.041039612 -0.041074548 0.09255238 0.02778984 0.051250324 -0.043599997
0.089713246 -0.0848753 -0.024033006 0.05338688 -0.042504817 0.025844298 -0.03515013 0.032669302
0.031034268 -0.02467526 -0.001694499 0.091616765 0.0011585507 -0.053701207 0.042255577 -0.038456388
-0.030321276 -0.0537579 -0.034174282 0.030557603 -0.026579443 0.018894214 0.020350408 -0.13235572
0.0061903135 -0.011220683 -0.081895545 -0.023205895 0.026261678 0.009479055 -0.021068556 -0.037460998
-0.09352488 0.04466021 0.0717623 0.00535479 -0.02252707 0.04997091 -0.118106745 -0.10214907
-0.03719152 0.02664777 -0.040461548 -0.037833266 -0.03552528 0.0007503932 -0.04917667 -0.024822904
0.06761707 0.04886714 0.029680016 0.07192439 0.075408384 0.03208035 -0.03281966 0.01730253
0.05026579 0.077292845 0.052798625 0.06018823 -0.0678141 -0.07827129 -0.03466982 -0.019633032
0.023234792 0.0013518793 -0.04300345 0.16066055 -0.020431114 0.02287236 0.04280914 0.010167305
-0.02302268 -0.021478409 0.04428944 0.09008263 0.119989865 0.023141293 0.04478668 -0.021718856
-0.10434964 -0.047523096 0.07493851 0.076916054 -0.069807224 0.017929893 -0.043084808 -0.07922724
0.042757533 -0.0066552837 -0.04981015 -0.07271986 0.03957394 0.013840578 0.11023147 -0.05419019
-0.0061496063 -0.04280945 -0.02216991 -0.035070863 0.08019977 0.03400945 0.04937401 -0.10417633
-0.039485842 -0.046749637 0.03933788 -0.017570019 -0.041341122 0.05757925 -0.034728874 -0.044961996
-0.0141229145 -0.073957294 -0.032371517 0.10449513 -0.02249206 0.042468756 -0.08323194 -0.029516526
0.04072216 -0.014711471 0.043277018 0.06767164 0.025094582 -0.13880885 -0.06641637 0.035063855

encoder.gru.bias_ih_l0 f4 [192]
00000000: 4469 db3c af82 5c3c 3abd 813d 53af 81bc
00000010: 0775 ed3c febd 313d 1d83 2dbd d224 9abc
00000020: 77a7 413d 2c94 173e e4a2 d53d d8c6 983c
00000030: f8f1 be3b 9544 babb 28fa ca3d a9b3 95bc
00000040: 5a40 ddbc f017 a73d 1d67 a53d 2715 62bd
00000050: 2346 3ebb a9fe 923d 3672 98bc c333 483d
00000060: 7bb8 013d b480 b13d e517 893d e1ee fe3c
00000070: 2a33 093d 3438 7f3d 027a 6b3d 0eb0 69bb
00000080: 9cb7 063e 745a 3839 a91f 413c fde9 e2bb
00000090: 1b36 59bb c3ea 7dba 36e9 1e3d 5a82 453d
000000a0: 7d29 043e 5b87 793d 7b83 fb3c bcf8 033c
000000b0: 1605 903d 24b4 ac3d 9983 74bc 52df 8b3d
000000c0: 20a8 eb3c 5530 193d 20bc 21bc aa7a e53c
000000d0: 6b22 903c 549b aebc 6d64 57bd 0d83 7b3d
000000e0: fb6d 84bd 5db6 493d f53e 63b9 df6b 66bd
000000f0: 2c55 a4bd 2d09 a6bd bb03 613d b8b3 813c
00000100: 18dd 923e d03f bb3e 431b e73d 307d 503e
00000110: 3a4c a23e 7135 3a3e d3eb e33e 8ff5 043e
00000120: ac0c 0e3e b509 363e cbdd 463e b66f 6c3e
00000130: 4ad9 5a3e 78ca 503e 2ac9 433e 88bb a73e
00000140: edd2 843e f337 073e 0ba8 c83e 3100 ab3e
00000150: 1a77 043e 91f7 1c3e cc84 ab3e 271c 723d
00000160: 9a92 663e f883 7f3e 06a2 643e fa23 753e
00000170: 62f3 fc3c 2660 f03b fcaf d93e 8395 ba3e
00000180: 54c3 833e dd03 8a3e cbff 6e3e 8695 533e
00000190: 6215 bc3e 34be a03e f97d 7b3e 4c59 9a3e
000001a0: 4d5d 003e 3c7f 9c3e 924d 7c3e 59b5 863e
000001b0: d0d5 553e 0b08 e93d 08a9 723e 5546 873e
000001c0: 0b53 fc3e eb8a a03e f81d 753e 06f9 4b3e
000001d0: 4803 743e ce2c 8a3e e9e8 c63e 3596 513e
000001e0: 2142 aa3e f76d 853e 9a5d 923e fc85 733e
000001f0: 0a0e 903e 476b 9a3e 9238 033e 27ff 7b3e
00000200: 4282 913d dd9e 28bd 576a 74bd 0879 bdbc
00000210: e108 a4bd 74cb df3d 5dbd df3d 4a25 9bbd
00000220: 2bde 4abd 6517 1dbe d736 233e cf8e f33d
00000230: b9c2 0a3d a84b 36bd e655 873d 8b22 d2bd
00000240: 6638 37bd 52d3 9ebd eaa8 a73d d5f4 973d
00000250: 0ed2 02be 6172 d93d 0d6f 9fbd d2d9 10be
00000260: 437d d6bb a4e6 82bd 3112 19be 1d72 babd
00000270: fa49 ac3c 4958 0a3e 1f30 e43d ce78 1d3e
00000280: 383c da3d bb4d 7bbd 9323 95bd 7463 9e3d
00000290: 51e1 923d 8e46 2e3d abe6 3dbd e050 c6bd
000002a0: f3f6 33bb ddfe c9bd 76fe ad3b 4779 603d
000002b0: 503f 47bd bd8e ef3d c7c2 c8bd b120 8dbd
000002c0: 41cd ccbc a91f e9bd 252e 4bbd 5913 acbd
000002d0: c56d 5fbd 3383 f03d 1b07 b2bc 4ce1 56bd
000002e0: 9408 e13d 519c 17be 6aff 033b cc22 01bc
000002f0: 0ec0 c33d e5fb fc3c e884 e8bd 1191 e0bd
0.026783593 0.013458892 0.0633492 -0.015830671 0.028986467 0.04339408 -0.042361367 -0.018816385
0.047278848 0.14802617 0.104314595 0.018649504 0.0058271848 -0.005684445 0.09910995 -0.018274145
-0.027008224 0.081588626 0.08076308 -0.055195954 -0.0029033504 0.07177479 -0.018609148 0.04887749
0.031670075 0.08667126 0.06694011 0.031119766 0.03349606 0.06230946 0.057489403 -0.0035657915
0.13155979 0.00017581304 0.0117873335 -0.0069248662 -0.0033143822 -0.00096861663 0.038796626 0.048220016
0.12906452 0.0609201 0.030702343 0.008054908 0.0703222 0.084327966 -0.014923953 0.06829704
0.028766692 0.03739961 -0.009871513 0.028012592 0.017594537 -0.0213143 -0.052586008 0.061404277
-0.064662896 0.04924618 -0.0002167186 -0.056255218 -0.08024058 -0.08107219 0.0549352 0.015832767
0.28684306 0.36572123 0.11284497 0.20360255 0.3169878 0.18184449 0.44515857 0.12984298
0.13872021 0.1777714 0.19420545 0.2308949 0.21371952 0.20389736 0.19119707 0.32760262
0.25942174 0.13204937 0.39190707 0.33398584 0.12936059 0.15328814 0.33499753 0.05910888
0.22516862 0.24952686 0.22327432 0.23939505 0.030877773 0.0073356805 0.42517078 0.36442193
0.2573496 0.26956072 0.23339765 0.20662507 0.36735064 0.31395113 0.24559774 0.30146253
0.12535591 0.30565822 0.24638966 0.26310232 0.20882344 0.11378487 0.23697293 0.26420847
0.49282107 0.31355986 0.23937213 0.19919214 0.23829377 0.26987308 0.3884957 0.20467456
0.33253577 0.2606046 0.28587037 0.2378158 0.2813571 0.3015997 0.12814549 0.24609052
0.07104923 -0.04116713 -0.059671726 -0.023129001 -0.08009506 0.109274775 0.1092479 -0.07575472
-0.049528282 -0.15340956 0.15938888 0.11892473 0.03387711 -0.044505745 0.06608181 -0.10260495
-0.04473152 -0.0775515 0.08186515 0.07419745 -0.12775442 0.10617519 -0.07784853 -0.14145592
-0.006545694 -0.063916475 -0.14948346 -0.09103797 0.021031369 0.1351024 0.11141991 0.15378115
0.10656017 -0.061353426 -0.07282176 0.07733813 0.07171882 0.042547755 -0.04636256 -0.096833944
-0.0027460426 -0.098630644 0.005309875 0.05480316 -0.048644364 0.11697147 -0.09802776 -0.06891001
-0.025000216 -0.11382992 -0.049604554 -0.08402128 -0.054548044 0.11743774 -0.021731904 -0.052460954
0.10987964 -0.14805724 0.0020141252 -0.007881831 0.09558116 0.030881831 -0.11353475 -0.10965169

encoder.gru.bias_hh_l0 f4 [192]
00000000: 2cfd 2fbd 61b5 14bd 3943 1b3d 0ccf 72bc
00000010: 609c ad3c f2b2 473c eb81 02bc f30d 28bd
00000020: 9764 a53d 21c9 053e 99a6 a43d c3de 0c3d
00000030: 0453 003d 11b5 f23c 4e19 173d 761a 7f3b
00000040: b587 a3bd 1def 303d ed3c cb3c 2dc9 4fbc
00000050: 85ae a13d f518 a53c 2e92 2ebd 45fa 403d
00000060: 6f4a 393c 9dc0 d23d 2e1c 5b3d a471 1cbd
00000070: e47d 713d b41d 783d b294 1c3d f88a bcbc
00000080: aa4f b73d 7c8f 773c e3ed 423d 4612 533d
00000090: d9a7 97bd ff66 35bc 3fac f03c 9020 903c
000000a0: a135 c03d 8d87 5fbd 5e41 abbc b88b 5abd
000000b0: b8ef 983d bc6a 823b 4bd5 2d3d a573 893d
000000c0: 7a07 a93c a9ae 5bb9 c748 5c3d 8ae7 e53c
000000d0: 15a3 3f3d 8e65 dabc 05b8 9fbb 3aaa b53d
000000e0: e386 dd3b 229f 833d 3098 7bbd 6ebf 0a3c
000000f0: d99e 493d f4ce 69bd ef2f 403d 3b56 8b3d
00000100: d013 9c3e eac3 b93e c4b4 f33d b00d 693e
00000110: 1385 b73e ea1f 373e 72d3 e33e 42cd 073e
00000120: 7acc 0d3e d774 4b3e 662b 453e c3ce 363e
00000130: 986e 713e f11b 2a3e e782 3f3e 84ed a23e
00000140: 3e91 893e d825 0d3e 5326 df3e 9dec 933e
00000150: 3472 3f3e e40e 173e e94a b53e cd90 843d
00000160: 3e80 563e 06d5 4e3e 1b27 823e e5cc 893e
00000170: 4aef fc3c 6a4e e13b ec5b c03e 1e43 bd3e
00000180: 8fea 753e 34d9 873e e4a2 5e3e 38a8 3c3e
00000190: 06b4 b13e fc75 4e3e 59b5 663e e615 a83e
000001a0: c0aa 3e3e f9b4 aa3e 3f11 493e fe24 623e
000001b0: dd98 1b3e fadd 073e 8f13 663e d6cf 463e
000001c0: 76b5 c03e 10e3 b13e 373f ae3e 66cb 613e
000001d0: 7ab1 6b3e 98a9 8e3e fec7 c93e 657e 573e
000001e0: 149b a73e b9ff 703e 5f84 933e 0251 893e
000001f0: 0701 b73e b8ec 583e ad1b 103e e85a 863e
00000200: 1628 1c3d 3f47 a7bd b42a 89bd 2360 4bbd
00000210: db16 a5bd 061c 8b3d f0e6 30bc b7a1 d1bc
00000220: f162 13be 49e7 ccbd 281d 153e b0dc 40bd
00000230: d503 473d 1ffb 9a3d 9540 6f3c 753d 71bd
00000240: 9dce f63c ffdf 333d be86 183e 3052 ca3d
00000250: b5af 8c3d 50d1 243d a67f 01bd ffa9 09bd
00000260: 4a9c a63d b31a f73d c993 e5bd 12f8 2b3d
00000270: 0fb6 223e 76b5 213d 1f36 10bd 357e 7bbd
00000280: f949 8e3d a161 3bbd 18df 82bd 56d1 c4bd
00000290: 0d07 ccbd 00bd eebc ef2e 99bd a7e2 82bd
000002a0: 9871 8bbd 4c9c a2bd edf9 e83d 61f6 a2bb
000002b0: 8712 85bb 23e1 8ebc 1d20 b73d 110f 013d
000002c0: b9d4 ca3d 8e65 5a3c 0e2d a13d 3600 96bc
000002d0: 57c7 e9bb b56e a33d 59b3 a73d a339 7c3d
000002e0: 4b2d ad3d c380 07be 6c21 4f3b 9c69 86bd
000002f0: c2db ce3d 5def cd3c 001f 16be 788d 40bd
-0.042966053 -0.03630579 0.037905905 -0.014819872 0.02119273 0.01218866 -0.007965545 -0.041028928
0.080758266 0.13065006 0.080395885 0.03439213 0.03132917 0.029627355 0.036889367 0.0038925684
-0.079848684 0.043196786 0.024809325 -0.012682241 0.07894615 0.020153502 -0.042619877 0.047113676
0.01130925 0.10290644 0.05349367 -0.038194314 0.05895795 0.060575202 0.038227744 -0.023015484
0.089507416 0.015109893 0.047590148 0.0515311 -0.07405061 -0.011071919 0.029379008 0.017593652
0.09385229 -0.05457263 -0.020905193 -0.053355902 0.07467598 0.003980009 0.04243974 0.067115106
0.020633448 -0.00020950534 0.053780343 0.028064508 0.046786387 -0.026659753 -0.0048742318 0.08870359
0.0067604645 0.064268366 -0.061424434 0.008468492 0.049223755 -0.05708213 0.046920713 0.068035565
0.30483866 0.36282283 0.11899713 0.22759128 0.35843715 0.17883268 0.44497257 0.13261893
0.13847533 0.1986879 0.19254836 0.17852311 0.23577344 0.16612221 0.18702279 0.31821835
0.26868623 0.13783967 0.43583927 0.2889146 0.18695909 0.14751774 0.35408714 0.06472931
0.20947358 0.2019845 0.2542046 0.26914135 0.03087582 0.0068758028 0.3757013 0.3696527
0.24015258 0.265329 0.21741825 0.18423545 0.3470766 0.20162195 0.22530116 0.32829207
0.18619823 0.33341196 0.19635485 0.22084424 0.15195031 0.13268271 0.22468399 0.1941522
0.37638444 0.34743547 0.34032604 0.22050247 0.2301692 0.27863765 0.39410394 0.2104431
0.32735503 0.2353505 0.2881193 0.26819617 0.3574297 0.21184051 0.14073057 0.2624123
0.038124166 -0.08167886 -0.06697598 -0.04965223 -0.08061 0.067924544 -0.010797247 -0.025589807
-0.14393212 -0.10005052 0.14561903 -0.047085464 0.04858764 0.07567429 0.0146028 -0.0588965
0.030127818 0.04391479 0.1489515 0.09878957 0.06869451 0.04023868 -0.031615876 -0.033609387
0.081352785 0.12065639 -0.112098284 0.041984625 0.15889762 0.039479695 -0.035207864 -0.061399657
0.06947703 -0.045747403 -0.06390208 -0.0961024 -0.09962282 -0.029142857 -0.07479655 -0.06390887
-0.06808776 -0.079399675 0.113757946 -0.0049732183 -0.0040610465 -0.017441338 0.08941672 0.03150851
0.09903855 0.013329877 0.078699216 -0.018310647 -0.007134359 0.079801 0.08188505 0.061578404
0.084559046 -0.13232712 0.0031605614 -0.06563112 0.10100509 0.025138551 -0.14660263 -0.047009915

encoder.project.0.weight f4 [64, 64]
00000000: 3d61 383d f303 a3bd 1171 ee3d 6ec5 c93b
00000010: 413c 41bd 1e6f 943b 0786 b7bd 0538 383c
00000020: 341b b1bb 1463 743d 0381 eabc 2434 5b3c
00000030: a342 3a3e b848 b73d 2e03 8fbd 8fc2 ad3b
00000040: 5c36 8bbc 3e3d 993d 68d7 173d 9dbc 82bd
00000050: 13b9 dabc b587 cb3b 29ac 02be 2a55 603e
00000060: 6fc9 4abe 1f1e 30bd 1ab2 20be 1ea8 e9bc
00000070: 21a4 083e 133a f73c 1d70 e53b 9189 2fbd
00000080: e216 8e3c 8ca2 a3bb fff6 1e3c e73a a4bc
00000090: fc81 b73b aedd 7bbd 0b50 433d c9e6 0fbe
000000a0: af95 83bd 4961 9d3c c6d9 bfbd 6a49 f03c
000000b0: 2f03 f43c fe28 d83d 73fc bd3d 2c4b fabd
000000c0: a4ff 253e 1a88 113d 2aaa 0c3d bafe 823d
000000d0: 3d1c 1dbe 01a4 383e 0820 87bb 12f5 033e
000000e0: 604f 3d3d d0ce 75bd 2757 2cbd 99b3 ac3d
000000f0: 72a2 0d3d 51a8 2a3c 527b 92bd fedd 4f3e
00000100: dd86 3fbc 815d f7bc bd34 bfbd de93 95bd
00000110: 2bdd 3a3d 10d6 62bc 9497 ed3d cb1a 923b
00000120: 831f 77bd 0a07 fcbd 9778 b23d 9539 ccbc
00000130: a068 12bd d811 75bd 2264 bf3d 3ac1 723c
00000140: 99ad 363e bd65 9fbd c9b2 da3d 1bc3 1f3c
00000150: 711e 903d 31bb 3ebb 784b 3e3e fa76 6fbd
00000160: af5b a43d 98a3 b83c fea3 ba3d 0469 71bd
00000170: 36b0 853d 2b7f d03c d62c 1b3d fbf3 53bd
00000180: 2ffe f6bc edef c5bd de69 e93c fbc3 fcbd
00000190: 9eb3 543d cc7e ebba 2fac c03c 33f9 293e
000001a0: d5ec b6bd 787d 47bd 4786 3fbd 8764 023e
000001b0: 5db8 d8bc 1b00 0f3d f486 d3bd 17f8 833d
000001c0: e19a 41bd 316d 95bd 2ea6 e1bd 47c4 ecbc
000001d0: fab6 0c3d 04b9 82bc 3d6c fb3d 2a3f 2c3b
000001e0: c3e8 34bd 9fc5 17bd 2b4b 913d a2a2 b1bd
000001f0: 9a94 293e 1560 223e b057 823d de3e f3bd
00000200: 4d8b 30bc 27e3 aebd bd97 4f3d 7e9b d1bc
00000210: cc4d da3c 1ab6 2ebd 06a6 2bbe 58dc 723d
00000220: 1b4e 883d af9d d2bd c567 e13d d23b 91bd
00000230: 6477 ba3d ea5d 1cbd 36ab 60bd cbf3 983d
00000240: c108 023d f128 823d a7cf 48bd b252 e4bc
00000250: 73ff 153e 11e4 a4bc 7280 48bd 3c12 dbbd
00000260: fd05 6dbd ea37 7a3d 4ca4 adbd 118b 21bd
00000270: 87f5 0dbc e8ef 97bd 3569 ff3c 95ba 04bc
00000280: dbd3 c4bd 4d8f 5fbc c192 8b3e 17a6 c23d
00000290: f27e eabb 2cf0 593d 268f 4dbd b150 b0bc
000002a0: 81e6 2b3d bce4 083e 7782 b7bc 0e72 bbbd
000002b0: 3cb6 553d 698c 35bd 3eeb b7bb 2b4d 79be
000002c0: 5177 4bbd 7c25 39bd b565 9f3d e328 30bc
000002d0: 0ea2 6a3c b471 293d 9e36 56bd 4ca8 f93d
000002e0: 5c72 273d 4f29 a8bc 18a4 19be 8e4f 8a3d
000002f0: c41f cdbd 8a6a 133d a9e3 a5bd 5682 403c
00000300: be14 193d 299f 7b3d 07b4 a83d 1c45 ac3d
00000310: fec3 a43d cb10 8fbd 7cc0 fcbd f9cd adbd
00000320: 802c 0e3d d357 90bd 4a0a 883d c611 24bc
00000330: cd1e 743d 75fa 1abe 69ae 463d f7e6 9e3d
00000340: ef09 06bd e325 003d 49f4 bbbd b80a 28be
00000350: e48e a03d 54c6 05be a8c8 50bd 54a5 fb3b
00000360: 5f1f cbbd 366b 9bbd 3a35 cdbd 2b89 96bc
00000370: 5bf6 8c3d a874 1bbe dd34 8d3c bbc6 c2bd
00000380: 836f cdbc fbf9 a83d 9ef7 203e ad36 023e
00000390: 0337 f3bd cf31 743c 1cb8 eb3c 7094 9ebd
000003a0: be8c 8abd 8d19 df3d 9fe9 b4bd e9ed 9dbd
000003b0: fdab bd3d 67a7 443c 0543 133e 04c6 aabc
000003c0: 2210 72bd 02b7 d13d 1720 ef3d 97ce a53d
000003d0: 91d8 c33c 331e 3abd a031 b2bd 948b c03d
000003e0: a5de df3c 59a3 3dbd 51e2 e4bd e897 f83d
000003f0: c306 bbbd 69c8 04bd fe6a e7bd c842 97bc
0.04501461 -0.07959738 0.116426595 0.0061575687 -0.047176603 0.0045298478 -0.089611106 0.011243825
-0.005404854 0.0596648 -0.02862597 0.0133791305 0.18189482 0.08949417 -0.06983028 0.005302734
-0.016993694 0.07482384 0.03707066 -0.063836314 -0.026699578 0.006211246 -0.12760986 0.21907488
-0.19803403 -0.042997476 -0.1569294 -0.028522547 0.1334386 0.03017906 0.0070018903 -0.042855803
0.017344896 -0.0049937423 0.009702443 -0.020047618 0.005600212 -0.061490707 0.047683757 -0.14052881
-0.06425034 0.019211428 -0.09367709 0.029331882 0.029786674 0.10554694 0.092766665 -0.12221369
0.162108 0.035530187 0.03434197 0.063962415 -0.15342803 0.18031313 -0.0041236915 0.12886456
0.046218276 -0.060011685 -0.042075302 0.08432693 0.034578748 0.010416106 -0.07152428 0.20299527
-0.011689869 -0.030195953 -0.09336231 -0.07303594 0.04562108 -0.013844982 0.11601177 0.0044587604
-0.060332786 -0.1230603 0.08714407 -0.024929801 -0.03574431 -0.05983147 0.09345271 0.014816577
0.1783966 -0.07783077 0.10678632 0.009751107 0.07037056 -0.0029103274 0.18583477 -0.058463074
0.080253 0.022538945 0.0911331 -0.05893804 0.0652775 0.025451263 0.037884556 -0.05174635
-0.030150501 -0.09664903 0.028492864 -0.12342068 0.05192911 -0.0017966866 0.023519604 0.16598968
-0.08931891 -0.04870364 -0.046758916 0.1273366 -0.026455099 0.03491221 -0.10328475 0.06443804
-0.047266845 -0.07296217 -0.110180244 -0.028902186 0.034354188 -0.015957363 0.12276504 0.0026282766
-0.04416729 -0.0370537 0.07094415 -0.08673598 0.16560593 0.15856965 0.06364381 -0.11877225
-0.010775399 -0.085394196 0.05068182 -0.02558684 0.026648425 -0.042654134 -0.16762552 0.059292167
0.066555224 -0.10283982 0.110061206 -0.07091488 0.09104803 -0.0381755 -0.05485078 0.07468375
0.03174663 0.06355465 -0.049026158 -0.027871463 0.14648227 -0.020128282 -0.04895062 -0.10696837
-0.05786704 0.06108848 -0.08478603 -0.039439265 -0.008664495 -0.07418805 0.031178096 -0.008101125
-0.09610721 -0.013645005 0.27260402 0.095043354 -0.0071562463 0.05320756 -0.050185345 -0.021522852
0.041967873 0.13368505 -0.022401078 -0.091526136 0.052175745 -0.04432336 -0.00561276 -0.24345843
-0.049674336 -0.045201764 0.07783071 -0.010751936 0.014320863 0.0413682 -0.05229818 0.12190303
0.040880546 -0.02052751 -0.15004003 0.06753455 -0.100158244 0.035990275 -0.08100063 0.0117498245
0.037373297 0.061431084 0.082374625 0.08411619 0.08045195 -0.06985625 -0.12341401 -0.08486552
0.034710407 -0.07048001 0.066425875 -0.010014003 0.059599686 -0.15134604 0.048506174 0.07758897
-0.032724317 0.03128613 -0.09177453 -0.16410339 0.07839754 -0.13063937 -0.05097261 0.0076796208
-0.09918093 -0.07588808 -0.10019918 -0.018375954 0.06882926 -0.1518122 0.017237121 -0.09510561
-0.025077587 0.08250805 0.15719458 0.1271617 -0.11875727 0.014904453 0.028774314 -0.07743156
-0.06765126 0.10893545 -0.08833622 -0.077113934 0.0926132 0.012002802 0.14381035 -0.020846374
-0.059097417 0.10239984 0.116760425 0.080960445 0.023906978 -0.045438956 -0.087008715 0.094016224
0.027327845 -0.04629836 -0.11175979 0.12138349 -0.09132149 -0.03241769 -0.11299704 -0.018464461

encoder.project.0.bias f4 [64]
00000000: a4f9 13bd 367a ea3a cd46 98bd beab a03c
00000010: 9aa4 02bd b566 5cbd e472 1f3d ef54 86bc
00000020: cc7f c23d 24e5 353c 860d 57bd 457d 89bd
00000030: 50f8 703d 9c0d 923d ef5e df3d 3494 343c
00000040: de28 aa3d 467e a0bc 0be5 6bbc 35d1 fe3c
00000050: 5d1e c4bd d240 0bb9 772d 07bd 358c 77bd
00000060: 315c f03c d2b6 db3d 8731 1a3c 22d7 9a3c
00000070: 63fc f4bc 446b 163d d15f aa3d 7898 4d3d
00000080: cb38 2abd fae7 be3d 2dac c43d d8aa 863c
00000090: 82d4 64bd e013 aabd 0f66 c9bc d49c c63c
000000a0: 2d61 e63b 0a63 a83d 69ae cb3d 01ea 95bc
000000b0: f2cf 0c3c 5dd4 073e 40e9 583d 0449 193d
000000c0: 8dfc 4e3d 0d67 b43b 9f0f fe3d 7764 c53d
000000d0: 612d 2a3d b947 d6bc a986 3c3d 1eb3 a73c
000000e0: 0e66 113e 9c2f b63d 1dbb b33d 77d2 bc3d
000000f0: 00d1 1c3d 1c8e 2e3a 1953 393d d6af 6ebd
-0.036126748 0.0017889205 -0.07435379 0.019613143 -0.031895258 -0.053808887 0.038927928 -0.016397921
0.094970316 0.011101995 -0.05250313 -0.067133464 0.05883056 0.07131502 0.10906779 0.0110216625
0.08308576 -0.019591462 -0.01439787 0.031105617 -0.09576104 -0.0001328022 -0.033002343 -0.060436446
0.029340835 0.107282296 0.009411222 0.018901411 -0.029905504 0.03672339 0.08319057 0.050194234
-0.04155807 0.0932159 0.096031524 0.016438887 -0.055866726 -0.08304572 -0.024584798 0.024244703
0.007030627 0.08222015 0.099453755 -0.018300058 0.0085945 0.13264604 0.05295682 0.03742315
0.05053382 0.0055054487 0.12405323 0.09638303 0.041547183 -0.026157247 0.04602686 0.020471152
0.14199087 0.088957995 0.087759234 0.092198305 0.038285255 0.0006658749 0.045245264 -0.05827316

encoder.project.2.weight f4 [8, 64]
00000000: be13 e23c fab9 833b 7552 103e 4e3e 79bd
00000010: 7002 943d 70fb 483d 6ffa 233d b398 1a3e
00000020: 4f46 e7bd d044 c9bd 8686 dabd 3957 bcbc
00000030: 258b 043b 5747 963d e362 8d3d 12f2 763d
00000040: 71d4 203e 1684 993d 9675 07be f9be 6abc
00000050: 980f 6a3e 1983 e83d d558 b0bd 9a5a 963d
00000060: eae8 ab3e 36c0 833d 9004 18bd 4572 eb3d
00000070: 8d3b 433d 2302 463d 7dac 4abc 80be ea3d
00000080: c5e8 743d 4987 c6bd 9aba 89bc 67d7 ac3d
00000090: 0ea1 003e 18eb 163e ece4 f3bc 58b9 2dbd
000000a0: fa37 2c3d ba77 053e 2ef0 933c 7ea2 c0bc
000000b0: 0044 b13d fc7d 2abd e3f7 a33d 5a4e b93d
000000c0: 8846 6e3d da29 ae3d f921 823c 98e7 87bd
000000d0: f5c5 9e3d 9b09 d5bd a53b 05bd 70e4 14bd
000000e0: 61fd c93d 17cd 59bd cb0a 533e 40ab 7e3d
000000f0: a2a0 353d 1320 473d 0324 6bbd 2ce2 0a3e
00000100: 3abe a6bc 9446 c63d 37f1 0fbe 03f3 75bd
00000110: 209f 383e 9e67 dcbc 3f25 90bd e827 edbd
00000120: ea81 7a3c 4c49 8d3b ecdc 96bd 33d3 113e
00000130: 1dd1 16bc 3edc 86bd 60f7 74be 998b 4e3d
00000140: 6b17 463e 5e35 c63c 9b75 143d f06a 863e
00000150: 1cff 653e 9abe 223e 2f92 883c 528a 2abe
00000160: 6a1a cc3d 826b 103d 46f0 7fbe dd96 8f3d
00000170: 9bb7 ea3d 1dcd 8cbc c1e9 373e bcc2 80bd
00000180: cff1 9bbd 9298 bb3d 2eee 4fbe 49b2 33be
00000190: 4fa9 4fbe 88ec 873d b7de 30be a4aa 6b3c
000001a0: 6c23 31be 3a2c bb3d b320 70bd 3b9c f0bd
000001b0: a757 fa3d f1d4 46bc 4da6 123e 57e4 8c3d
000001c0: a696 103e 37f0 4c3e 14ae 25be 1751 643d
000001d0: 5063 5ebd c083 e1ba 80b9 49be f0fa 353e
000001e0: b3c7 d0bd a1fc f23c 5625 8b3d a6df 3bbe
000001f0: e8b2 28be 6ea2 693c cd47 233e e7b5 6b3e
00000200: 0b38 1c3e 0f9f 90bd c8a5 acbd 19da fa3d
00000210: e2c2 f6bc 06fa 16bd 9dc5 e63d e146 84bc
00000220: 4efd b63d 8b7e e03c 02f8 b8bc fac3 e53d
00000230: 2d35 2a3d ed58 163e 9565 2d3b 0e70 68bc
00000240: 33e9 70bd bf8f 003e 1dda 123d e9bb 9a3d
00000250: e6a4 603e 22fe 433e 9a8b 5e3d ff47 2e3e
00000260: bbb6 263e 2951 173e 8a92 1dbd 132b 943d
00000270: 580e e43d 1bb9 273e 29e2 81bc f320 8f3d
00000280: 16b2 43bd d617 573e d361 b0bc 77b1 633c
00000290: b40a c03c 1cae 593e 0e12 ab3c 9101 303d
000002a0: 6459 393d ee3d 5dbc eb58 233e 34af 32bb
000002b0: 2857 dd3a 4bf9 c03c e176 aa3d 884a 873d
000002c0: 3613 2a3e 4da8 353e 3a93 9f3d 8904 19be
000002d0: 354c 50bc ebad a13c 15c1 40be 7954 883d
000002e0: f2c5 0a3e 2c00 633e cc7b a03d 0afd 54bc
000002f0: d06a 523d f9fb d33b ff52 a43d ac4c 8d3e
00000300: 323a 0dbd 0702 933b 0ac0 7abc af0c 083c
00000310: 0818 8cbd 1d0c 8cbd 5dff 53bc 934b 76bd
00000320: 83ae 8b3d 07b0 ccbd ea91 5fbd 0c8e edbc
00000330: a7c4 d6bd 984f 0bbe 12cc 12be b7c6 dcbd
00000340: 2f2b 113e 4511 c63a da48 19be b17e 543b
00000350: 139d 023e af6d 9a3d 0e53 39be bab7 aeb9
00000360: f6e6 733d 6099 39be c813 09be 3c98 22bd
00000370: 63b2 ab3d 84c8 af3d 3008 b03d 672e 70bc
00000380: 7482 703c 7e3d 003d 1992 1dbe 7fff 1dbe
00000390: 7a9b 1ebd 772e 1abe e74d ba3c 2610 afbd
000003a0: cce8 0fbe 7323 2d3d 7bfc 45bd b488 a0bd
000003b0: 5235 d23d e9bf 4cbe 7e1f 653d e0f6 17bd
000003c0: b90c 183e 07b7 f43d c049 b03c c150 673d
000003d0: a801 8cbc 7901 67be c259 c93d ae64 c53d
000003e0: a52a aebd 0b82 91be 967f 2b3e d53a 10be
000003f0: e8d7 0cbe 9ca5 8d3d 35f6 d2bd 8140 973d
0.027597304 0.004019973 0.14093955 -0.060850434 0.072270274 0.049067914 0.040033754 0.15097313
-0.11292707 -0.09827578 -0.106701896 -0.02299081 0.0020224538 0.07337826 0.06903627 0.06028945
0.1570604 0.074958965 -0.13228449 -0.014327758 0.22857511 0.1135313 -0.08610693 0.073414996
0.33576137 0.06433146 -0.037113726 0.114964046 0.047664214 0.04834188 -0.012370226 0.11462116
0.0597923 -0.09693772 -0.016812611 0.08439522 0.12561437 0.14738119 -0.029772244 -0.042413086
0.04204557 0.13033953 0.018058863 -0.023514982 0.08655548 -0.041624054 0.08006265 0.090481475
0.058172733 0.08504076 0.01588534 -0.0663597 0.07752601 -0.10402223 -0.032527585 -0.036350667
0.09862781 -0.053174105 0.20609586 0.062175035 0.044342645 0.048614573 -0.05740739 0.1356284
-0.020354379 0.096814305 -0.1405686 -0.060046207 0.18029451 -0.026904877 -0.07038354 -0.11579877
0.015289763 0.004311716 -0.07366356 0.14240722 -0.00920513 -0.065849766 -0.23922491 0.0504261
0.19344871 0.02419537 0.03624497 0.26253462 0.22460598 0.15893021 0.016671268 -0.16654328
0.099659756 0.035258777 -0.24994001 0.07011197 0.11460801 -0.01718765 0.17960264 -0.06287143
-0.07614481 0.0915996 -0.20305702 -0.17548479 -0.2027943 0.06636912 -0.17272459 0.014383946
-0.17298669 0.09139295 -0.058624934 -0.117485486 0.122237496 -0.01213573 0.14321251 0.0687949
0.14119968 0.2001351 -0.16179687 0.055741396 -0.05429393 -0.0017205402 -0.19699669 0.17771506
-0.101943396 0.029661478 0.06794231 -0.18347034 -0.16474497 0.014259918 0.15945359 0.23018609
0.15255754 -0.07061588 -0.08430058 0.1224863 -0.030122224 -0.036859535 0.112681605 -0.016147079
0.08935033 0.02740409 -0.022579197 0.1121902 0.04155462 0.1468236 0.0026458253 -0.014186872
-0.058816146 0.12554835 0.03585254 0.07555372 0.21937904 0.19139913 0.054332353 0.17019652
0.16280644 0.14777054 -0.03846983 0.07234778 0.11135548 0.16379206 -0.015854912 0.069887064
-0.047777258 0.21005186 -0.021531021 0.013897291 0.023442604 0.21257824 0.020882633 0.042970244
0.045251265 -0.013503535 0.15951888 -0.0027265074 0.0016886937 0.023556372 0.083234556 0.066060126
0.16608891 0.17739983 0.07791753 -0.14943136 -0.012713482 0.01973625 -0.18823655 0.06656737
0.13552073 0.22168034 0.078361124 -0.012999782 0.051371396 0.0064692465 0.08023643 0.27597558
-0.034479327 0.0044863257 -0.015304575 0.008303805 -0.06840521 -0.06838248 -0.012939301 -0.060130667
0.06820395 -0.09994512 -0.054582514 -0.028998397 -0.10486727 -0.13604581 -0.14335659 -0.10780089
0.1417663 0.0015111348 -0.14969197 0.0032424147 0.12755232 0.07540452 -0.18098089 -0.00033324753
0.059546433 -0.18124914 -0.13386452 -0.039695963 0.08383634 0.08583167 0.08595312 -0.014659501
0.01467954 0.031308644 -0.15387763 -0.15429495 -0.038722493 -0.15056787 0.022742225 -0.08548002
-0.14053649 0.042270135 -0.048336487 -0.07838574 0.10264076 -0.19995083 0.055938236 -0.037100673
0.14848603 0.11948972 0.021519542 0.056473497 -0.017090634 -0.22559156 0.09831573 0.09638344
-0.085042275 -0.28419527 0.16747889 -0.14084943 -0.13754237 0.06916353 -0.103008665 0.0738535

encoder.project.2.bias f4 [8]
00000000: ab3e cbbc 54f6 b6bd f647 613d 199d 4cbd
00000010: 57f4 92bd 42ee 5bbd 0402 f5bd 03c6 003e
-0.024810156 -0.08933702 0.055000268 -0.049954507 -0.071755104 -0.053694017 -0.11963275 0.12575535

decoder.gru.weight_ih_l0 f4 [192, 9]
00000000: 551f 10bd 6e7c 18bd 9c46 3d3c d7d5 a83c
00000010: ea9a 133c f685 2abd a3f1 353d b4dd f23d
00000020: c8ee 96bd a857 823d 395c a83d 0ea1 1d3e
00000030: dc4c b9ba e45b 453d 7539 4cbd 47d8 62bd
00000040: 11f8 293e f966 8abc 62e4 45bc 85dd 3d3d
00000050: a870 8fbc 9de2 90bd 50ac d0bc 9843 d3bd
00000060: c093 59bc e694 9d3d 4dd2 15bd 74d2 f53c
00000070: bea4 843d de87 1b3e 0067 c3bd 6ea7 4abd
00000080: db59 c1bc 52e2 16be eb2c 7d3c badd afbc
00000090: 3897 a23d 1119 2abd d4bd 31bd a56c 2ebe
000000a0: 7580 0c3e 5fbb 343e d085 893e 8fb7 823d
000000b0: 195c 0e3c 108c 8cbb 68c4 20bd c634 29bc
000000c0: bd0f 843c 2308 023d 6d00 a43c 1ff8 b2bd
000000d0: 4d00 103e cc6a 23ba 355a 8f3d 4598 1ebe
000000e0: 4ada 68ba b51b 12be 16ae babc bcb4 cc3d
000000f0: 8828 083d 295f 013e 258b a6bc db00 593d
00000100: 6b91 9e3d a11e d03d 0e92 493b 0daf abbc
00000110: b12b 723d 45d8 90bd d42b c33c 2f19 973d
00000120: 7204 13be 3b6d eb3d 3a34 80bd 858c 1e3e
00000130: 4382 6fbc 2e03 d1bd dc6b 59bd cb06 69ba
00000140: 9f56 fe3c 21e5 50bd d033 253c 77d6 37bd
00000150: 0919 dabd 2a66 61b9 692d 50bd 7b32 8cbd
00000160: 4add e53d bc15 8abc 8c51 e93c a6d5 a13c
00000170: 001e aa3d d611 30bd 4b55 51bd 8b78 ebbc
00000180: 622e 8a3c 6b09 afbc c988 2bbc 47de fa3d
00000190: 4f00 cf3d 5218 3e3e 9914 4d3d e60a ec3d
000001a0: d8fc 273d 92f1 9fbc e684 293d c907 68bd
000001b0: f505 65bd 298b b43b 8651 253e b5d9 ccbd
000001c0: e8e4 f1bd 14cc 57bd 7cd4 e7bd a569 173e
000001d0: ac92 063d 0863 28be 72d6 29bc 8e1e 2abc
000001e0: badf f8bd b18e 07be 5b66 6dbd 5aa3 e7bd
000001f0: 7e8b 123e 34dd f7bc 49d9 b7bd 31c2 9fbd
00000200: ca22 4bbd 63b2 a63c 6189 e13c 80fe c7bc
00000210: 7d4d 673c d471 f4bb 7b42 473d f9f1 c7bb
00000220: 53f0 233c 3f5a 47bc f2b8 45bb 924a 13be
00000230: 09dd 6a3d 77d2 d13c 2041 4abb 72cc 3cbd
00000240: f8c7 153d 69e6 b1bd 8606 203d 749b 02bd
00000250: 513c 943c 76bd 073d 84b7 8e3b e782 1b3d
00000260: b736 04bd 5166 22bd 3071 e23d 1340 a8bc
00000270: 8138 013e 7cc4 ffbc 31b9 64bc 672b ed3c
00000280: b628 e7bb fd34 39bd 6754 bf3d 3156 a8bd
00000290: 254e af3d ea9b 20be 898d 8a3d 847f 23bd
000002a0: 0032 2d3d a558 513d 5dd3 9fbd 8d2e a13d
000002b0: 3e4a e1bc 5441 66bd 7c9c 96bd 8edb 88bd
000002c0: bb05 80bd dcbd 543d 2e7e 463d 1d4e 17bc
000002d0: f495 f83d 660a 87bc edb9 b33c 9389 b73b
000002e0: d996 9e3c 7715 10bd 8b77 05be 8447 133d
000002f0: fdf0 723d 94cb c03c 2654 fabd 0ec3 a4bd
00000300: 0671 32bd fdad a0bd 3418 a0bd de2a b9bd
00000310: 3823 003e fc9e 97bc f453 a53c 55a9 383d
00000320: 009b 453d da12 3dbd bf1b 13bd 9763 9e3d
00000330: 1377 7abc 7b41 023d c5ea afbc 077b 62be
00000340: d366 073e c772 5a3d f122 0f3e fc6b 5ebd
00000350: 415f 20be 93b0 d5bd 6ac2 933d 3ed7 953c
00000360: 581b b53b 3131 3a3c 372b 253e c7a3 143e
00000370: 24c9 963d 2e3e dcbd 04ae 91bd d6cd 323d
00000380: 99bc da3c e930 16bc d6dd ff3b b865 ce3c
00000390: 1586 56bd 6963 09be c340 fd3c f402 b5bd
000003a0: 6808 893d d0d6 2ebd 229e c7bd ae15 4c3d
000003b0: 8aaa 3e3e 8f84 fabd 7877 23be a8bb c9bd
000003c0: 688e 1cbe 59b5 363e 28b9 003d 62c8 c0bd
000003d0: 8013 c3bc d45a 46bd 4aa3 eabc 4e98 5bbd
000003e0: 2351 58bd 54b3 dd3d 3af6 7bb8 eb2a fe3c
000003f0: 0c23 9e3b 546b 2cbc 2bed 463d c4a8 be3b
-0.03518613 -0.03722804 0.011552479 0.02060978 0.009009102 -0.04163166 0.044419896 0.11858693
-0.07369763 0.06364375 0.08220715 0.15393469 -0.0014137286 0.048183337 -0.049859483 -0.05538204
0.16598536 -0.016894804 -0.0120783765 0.046353836 -0.017509773 -0.07074473 -0.02547279 -0.10315627
-0.013279855 0.07694416 -0.03657751 0.030007578 0.064767346 0.15188548 -0.0954113 -0.04947608
-0.023602417 -0.14734772 0.015452604 -0.021468032 0.07938999 -0.04152781 -0.043393925 -0.17033632
0.13720877 0.17649601 0.26859903 0.06382667 0.00868895 -0.0042891577 -0.039249808 -0.010327524
0.016120786 0.03174604 0.020019734 -0.087387316 0.14062615 -0.00062338705 0.069996275 -0.15487774
-0.0008882625 -0.14268382 -0.022788089 0.0999541 0.03324178 0.12633957 -0.020330021 0.05297933
0.0774258 0.10162092 0.0030757221 -0.020957494 0.0591237 -0.070725 0.02382461 0.0737785
-0.14357165 0.114954434 -0.062599614 0.15483291 -0.014618459 -0.102056846 -0.05308138 -0.0008889257
0.031047164 -0.050999764 0.010083154 -0.044882264 -0.10649306 -0.00021495731 -0.050824556 -0.06845566
0.11223848 -0.016856067 0.028481267 0.019755196 0.08306503 -0.04298576 -0.051106732 -0.028744003
0.01686782 -0.021366796 -0.010469624 0.12249427 0.10107481 0.18563965 0.05006847 0.11525516
0.041012615 -0.01952437 0.041386507 -0.05664805 -0.055913884 0.0055097532 0.1614438 -0.10002462
-0.118112385 -0.05268486 -0.11319825 0.14786394 0.03285472 -0.16444027 -0.010366069 -0.010383261
-0.121520475 -0.13238026 -0.057958942 -0.11310454 0.14311025 -0.030256845 -0.08976991 -0.07800711
-0.049593724 0.020348733 0.027531328 -0.024413347 0.014117596 -0.0074598584 0.048647385 -0.0061018434
0.010006028 -0.012167512 -0.003017005 -0.14383915 0.0573397 0.025613053 -0.0030861571 -0.04609341
0.03656766 -0.086865254 0.03906872 -0.031886533 0.018095167 0.03313967 0.004355373 0.037966635
-0.032278743 -0.039648358 0.11056745 -0.020538365 0.12619211 -0.03122162 -0.013960169 0.02895136
-0.0070544137 -0.04521655 0.0934227 -0.08219565 0.08559827 -0.15684476 0.06765277 -0.03991653
0.04228401 0.05110993 -0.07803986 0.07870207 -0.027501222 -0.056214646 -0.07354066 -0.06682502
-0.06251093 0.051938877 0.048460178 -0.009234932 0.12137976 -0.01648445 0.021939242 0.005601117
0.01935904 -0.03517672 -0.13033883 0.035956874 0.059311856 0.023534574 -0.12223081 -0.08045016
-0.04356482 -0.07845686 -0.078171164 -0.090413794 0.12513435 -0.018508427 0.020181634 0.045083363
0.048243523 -0.046160556 -0.035915133 0.07733839 -0.015287179 0.03180073 -0.021474252 -0.22117244
0.13222818 0.053332116 0.13978173 -0.0543022 -0.15661336 -0.104340695 0.07214816 0.018291112
0.0055269413 0.011364267 0.16129766 0.14515601 0.07362583 -0.10754047 -0.07113269 0.04365333
0.026701258 -0.0091669345 0.0078084273 0.025194988 -0.052373964 -0.13416828 0.03091467 -0.08838454
0.066910565 -0.04268533 -0.09746958 0.049825363 0.18619743 -0.12232315 -0.15963542 -0.09850246
-0.15288699 0.17842616 0.03142658 -0.0941322 -0.02381301 -0.048426464 -0.028642315 -0.053612046
-0.052811753 0.1082522 -6.007238e-05 0.031026324 0.0048259553 -0.010523636 0.048566025 0.0058184583

decoder.gru.weight_hh_l0 f4 [192, 64]
00000000: 83ad 04bd 92e5 9b3c 7c1e b63c 567e 79bc
00000010: 8038 f03c 0e53 173d 0b53 6b3d 7c45 bf3b
00000020: 0f17 50ba 7104 783c 6d73 52bd 05a7 313d
00000030: d926 923c 7fef 8a3c 5188 9d3c 990f 1dbc
00000040: 2c62 8bbc 1709 09bc cae6 4c3d 3ad8 38bd
00000050: 7abd 82bc 09f7 d03c a30f 13bd 72ac 063d
00000060: 1533 253d 6c5a 9c3a d903 273d 2e78 a2bc
00000070: 641e 033b d56b 4d3c 3aff 0fbc 46fb ae3b
00000080: e70b 51bd c549 913c ebfb 73bc 7c9a 54ba
00000090: c952 163d b13a 383d 4ede bfbc 35e0 98bc
000000a0: 5522 37bb dfde 93bb 49ef 3bbc 7730 41b9
000000b0: 88eb 8b3c 44be 8dbc e3ff e2bc c5fc a63c
000000c0: 07c9 2a3c d4d3 26bd a5ee 673c b4e3 f63c
000000d0: 4e6b d63c 1eb1 59bd ec98 c4b8 a6b0 3fbd
000000e0: 4896 d2bb 327a aa3c 669e 5bbb 6c08 f9bc
000000f0: d9b8 203d f460 6f3d 1d14 2c3d 4646 bebc
00000100: 569a 2c3d 1d25 08bd d947 bcbc 7c6a 083d
00000110: 87a6 af3c 2def 59bb 7f54 2f3c 1542 a33d
00000120: d8c3 1c3c 4c7f 5a3d 36c1 52bd ebed 323d
00000130: 7eae 523d 0384 0a3d aa2a ef3c 2f87 323d
00000140: 5e9f d3bc b259 bb3c e08a 4bbb 3553 5e3d
00000150: daad d23c 16b6 49bc 4d2a a4bc b2b1 973c
00000160: 5702 863d a0c9 23bc 132c 033b 29c8 2cbd
00000170: 53a4 6fbc 0621 bbba 90ed 5fbc 5589 32bd
00000180: 0dc8 063c 87d3 223d 5945 87bb 9171 993b
00000190: 31c4 413d 60a3 85bc c54c 813c b28c 30bd
000001a0: 225d 88bc 412b 0ebd eecf 1c3d b4dc 47bc
000001b0: 112e 2f3c b1ef 4b3d 474f 343d 2af3 a7bc
000001c0: aeb4 32bc f2bc ffbb 30af 33bc 98f5 34bd
000001d0: 00d5 af3c b7e2 033d bfdd 1bbd 17f2 8fbc
000001e0: 1056 413c ca0e 20bd 0fcc 013d af40 9bbc
000001f0: 2b3f 91bc 191a 19bd f782 bebc 3bca 9dbc
00000200: a142 0e3d 8bc1 123c 317d 3cbd d382 93bd
00000210: 97d6 503c 6ca9 11bb fc84 883c 6739 f73c
00000220: 287b 393c 2d7d 503d 8458 dc3c 5fee 0e3d
00000230: 895b fa3c 2ba1 0ebd 1290 8b3b 9019 263d
00000240: 285d 1ebd 5b7c c2bc 828b 733d c08c 9e3c
00000250: 05b1 553a df69 823c 9620 2f3d 1616 963d
00000260: 6c5a 0d3d 0998 33bd df69 b03c 4a26 923c
00000270: 6132 96bb 4138 25bd 63d0 57bc 86cf 13bd
00000280: 4262 813c 0858 483d 597b c33c 517e 343d
00000290: 6182 87ba 9052 313c 1448 83bd 379b 07bd
000002a0: 14fd 86bd 36e2 0a3d 2953 cb3c b04f 9cbd
000002b0: 0bed 94ba e3ac 053c 008f 0ebb b933 a1bc
000002c0: b12c 4dbd 47a8 86bc 3586 093d a6cb 31bd
000002d0: 2cd2 9eba 8537 49bc c55a 363d 086e 75bc
000002e0: 7ccb b93c a50b 3cbd 8861 93bc 1793 073d
000002f0: 7fba debb e05a a7bc b8e3 863b daeb c0bc
00000300: 3fca a4bb b0cf 19bc a8ab a3bc 1e8c 9c3b
00000310: fd25 4b3d 467c b83b 3f83 c5bb f1c0 193d
00000320: c883 23bc 9d1c b83c a704 1bbd 1b85 d23c
00000330: 648e 293d 6eb5 16bd 0dbd 9e3d fbf9 8fbc
00000340: d773 ddbc 6a7a 573c 0712 e5bb 9a25 c73b
00000350: b3cb 72bc 5dfc 4cbc e92b ec3b e1c1 6d3d
00000360: c740 ae3c e3f3 ce3c 7e8a 4b3d bbdd 45bd
00000370: 98eb 7cbc 3e5b e2bc 213e e2bc b2f7 35bd
00000380: 41bf 0d3c 72f0 273c 3092 ff3b 47ae 343c
00000390: e04a 043d fe4f 88bc 46ae 95bc b541 a9bc
000003a0: 7324 84bc c20d adbc 72b3 9cbc 22be 43bc
000003b0: 15ba a5bb 923a b93c d3a4 013d 3276 cabc
000003c0: e1b3 14bd 4814 74bc cc78 073c 5141 4abd
000003d0: 63a8 26bc 65d8 f23a 538a 2b3c fe58 233b
000003e0: cb8a c0bc df7c ecbc 1601 6d3b d68f abbc
000003f0: 1cbf 5dbc 8447 f2bc cc62 10bc 678e 33bd
-0.032392036 0.019030366 0.022231333 -0.015227875 0.029323816 0.03694444 0.057452243 0.0058371406
-0.00079380063 0.015137778 -0.05137961 0.043372173 0.01784079 0.016959904 0.01923004 -0.009586238
-0.017014585 -0.008363984 0.050024785 -0.045128085 -0.01595949 0.02550842 -0.035903584 0.0328793
0.04033192 0.0011928803 0.040775154 -0.019832697 0.0020007128 0.012537916 -0.008788878 0.0053400127
-0.05103674 0.017735371 -0.014891605 -0.0008110178 0.036700044 0.044977847 -0.023421433 -0.018661598
-0.0027944047 -0.0045126523 -0.011470624 -0.00018423969 0.017080083 -0.01730264 -0.027709907 0.020384202
0.010423905 -0.04072936 0.014156018 0.030137874 0.026174214 -0.053147428 -9.374492e-05 -0.046799324
-0.0064266063 0.02081022 -0.003351116 -0.030399524 0.039238784 0.05844207 0.04201137 -0.023226868
0.042139374 -0.03323852 -0.022983478 0.033304676 0.021441711 -0.0033254132 0.010701298 0.079715885
0.009568177 0.053344056 -0.05145379 0.043683928 0.05143594 0.033817302 0.029195148 0.043585952
-0.025832828 0.022869918 -0.0031058118 0.05427857 0.025717665 -0.012311479 -0.020039702 0.018517349
0.06543415 -0.009996802 0.0020015284 -0.042183075 -0.01462658 -0.001427681 -0.013667479 -0.043588
0.008226407 0.03975251 -0.00412814 0.0046827276 0.047306243 -0.016313255 0.015783677 -0.043102928
-0.016645972 -0.03470922 0.038284235 -0.012198616 0.010692135 0.049789134 0.044020917 -0.020501692
-0.010907335 -0.0078045065 -0.010967061 -0.04417953 0.021463871 0.032198634 -0.03805327 -0.017571492
0.011800304 -0.039076604 0.031688746 -0.018951742 -0.017730316 -0.037378404 -0.023255808 -0.01926147
0.03473151 0.008957277 -0.04601783 -0.07202687 0.012746475 -0.0022226227 0.016664974 0.030178739
0.011320867 0.050900627 0.026897676 0.034895297 0.030561225 -0.03482167 0.004259118 0.040551722
-0.03866306 -0.023740938 0.059459217 0.019354224 0.0008151683 0.015919624 0.042755686 0.07328431
0.03451006 -0.043846164 0.021534858 0.017840523 -0.0045836424 -0.04033685 -0.013172242 -0.03608658
0.015793923 0.04891208 0.023862528 0.044065777 -0.0010338539 0.010822907 -0.06410232 -0.03310701
-0.065912396 0.033907138 0.024819927 -0.07632387 -0.0011362148 0.008158895 -0.0021752715 -0.019677984
-0.05009145 -0.016437663 0.033575255 -0.043407105 -0.001211708 -0.012281303 0.04452016 -0.014979847
0.022680037 -0.045909543 -0.017990842 0.03309926 -0.0067971344 -0.020429075 0.0041165017 -0.023549963
-0.0050289924 -0.009387895 -0.019979313 0.0047774455 0.049596775 0.005630049 -0.0060276086 0.03753752
-0.00998015 0.022474581 -0.037846234 0.025698235 0.04139556 -0.03679412 0.07750902 -0.017575255
-0.027032776 0.013151744 -0.0069906744 0.0060774805 -0.0148190735 -0.01251134 0.007207383 0.058046225
0.021271123 0.025262779 0.049692623 -0.04830716 -0.015437029 -0.027631398 -0.027617516 -0.044425674
0.0086515555 0.010250198 0.0077994093 0.011027879 0.03229797 -0.016639706 -0.018271577 -0.020661214
-0.016130662 -0.021124724 -0.019128535 -0.011947187 -0.005057583 0.022610936 0.03165133 -0.024714563
-0.03630436 -0.014897414 0.008268546 -0.049378697 -0.010171982 0.0018527625 0.010469991 0.002492487
-0.023503682 -0.028868137 0.0036163977 -0.02094261 -0.013534334 -0.029575117 -0.0088126175 -0.043836977
