my_latent_sde/sdes/best_sde_0.pth (torch, 798645 bytes, 32 tensors)

encoder.gru.weight_ih_l0 f4 [384, 2]
000000 6f d7 a0 bc 02 54 42 bc e0 41 7e bd 7e 2b 93 bd
       -0.019633977 -0.011860849 -0.062074542 -0.0718603
000010 05 d8 9b 3d ed c9 0a 3c a1 05 8b bd 19 05 8f 3d
       0.07609562 0.008470994 -0.06788183 0.06983394
000020 cf e1 03 3d 27 c3 a8 3d 44 8b 6e 3d 80 f0 9c 3b
       0.03219777 0.08240347 0.058238283 0.004789412
000030 ea ee 9d bc f0 15 63 3c 9a 04 84 bd c9 3f b9 3b
       -0.019278962 0.013860211 -0.0644619 0.0056533557
000040 74 53 5e bd 54 76 62 bd e9 e3 74 bd 21 d5 8f bd
       -0.054278806 -0.055288628 -0.059787665 -0.07023073
000050 a7 f8 a4 3d 9b be 04 3d 21 84 a6 3b c9 0e b5 3d
       0.08055239 0.032408338 0.005081669 0.08840711
000060 68 43 fa bb 91 2a 21 bc 8c 94 1a bc 17 18 5f bd
       -0.00763743 -0.009836809 -0.00943483 -0.054466333
000070 84 7f 2d 3d 76 8e 15 3d f0 9f 8c 3d cb 21 4f 3d
       0.042357937 0.036512814 0.06866443 0.050569337
000080 de 91 55 bd d3 4c 27 3d 98 a1 cf 3c d5 f0 03 bb
       -0.052141063 0.04084475 0.025345609 -0.002013256
000090 79 e9 a4 3b 75 34 1f 3b 9a 11 88 bc 3d 57 b0 bc
       0.005032715 0.0024292741 -0.016609956 -0.021525973
0000a0 5f 81 25 bd 9a c4 a5 3d e8 bc 2c bd 41 ef 55 bd
       -0.04040658 0.080941394 -0.042172343 -0.052230123
0000b0 1d 13 ae 3d c8 db 77 3b 08 77 18 3d 19 54 64 bd
       0.08499739 0.0037820209 0.037222892 -0.055744264
0000c0 2a 7e f1 3b ca b5 42 bd 15 49 23 bd d0 c1 30 bd
       0.0073697763 -0.04753665 -0.03986462 -0.043153584
0000d0 04 d7 a5 3d 6b b0 61 bd 95 bd 6f 3c 68 f5 5a 3d
       0.080976516 -0.055099886 0.014632602 0.053456694
0000e0 38 e9 40 3d c4 2d 88 3d b8 0b 9a bd 20 1d b1 bb
       0.047097415 0.06649354 -0.075217664 -0.0054050833
0000f0 15 60 80 3b d1 1e fe bc fd 38 9d bd e5 05 9c 3d
       0.003917704 -0.031020554 -0.07676885 0.07618312
000100 0e 25 82 3d 75 f1 a8 bd 3a 8b 4b bd 59 07 95 3d
       0.06354724 -0.08249179 -0.049693324 0.07276792
000110 eb b2 2b bd 82 be 91 3d ab 8f 93 3d cf a4 11 bd
       -0.041918676 0.071164146 0.07205137 -0.035557564
000120 48 0f a1 bd 46 e2 9b bc ab d6 f1 bc ca a8 a4 3d
       -0.07864243 -0.019028794 -0.029521307 0.080400065
000130 b3 03 02 3d 8e 95 4b bd f3 a0 f5 bc ac 49 8f 3d
       0.03174181 -0.049703173 -0.029983973 0.06996474
000140 0b e8 a4 3d 05 c9 d4 bc 26 db 70 bd d0 eb 77 bd
       0.08052071 -0.02597476 -0.058802746 -0.060527623
000150 dd 2a 64 3c 2a e6 84 bd 30 df 03 3d 6b 4b 08 bd
       0.013926235 -0.06489213 0.03219527 -0.03327505
000160 d8 14 c9 bc cf 53 a9 3d 68 c7 f1 3b 85 af 9d 3d
       -0.024546072 0.08267938 0.0073785074 0.07699493
000170 de d0 b2 3c bc bb 6f 3d b3 c5 5d 3c 9c ae a8 bc
       0.021828111 0.058528647 0.013535905 -0.020591073
000180 0c 3b dc bc bc 45 60 bd 83 be 90 3d 33 ed e9 bc
       -0.026883624 -0.054754004 0.07067587 -0.028555488
000190 5d 14 87 3c 4b 6d fb bc 89 72 a1 3d dc a7 a4 bd
       0.016489202 -0.030691763 0.07883174 -0.08039829
0001a0 5b f1 73 bd 26 b1 6d bc c6 4e c5 bc 5d 02 87 3c
       -0.059556346 -0.0145075675 -0.024085414 0.01648062
0001b0 48 b9 5f bd 72 b8 f3 3b 3a 13 a6 3c 35 73 3c 3d
       -0.054620057 0.007437759 0.02027284 0.046008307
0001c0 66 c6 fb ba 3d 07 ee bc 26 04 01 bd 8d a6 b1 bd
       -0.0019208908 -0.029056186 -0.031498097 -0.08674345
0001d0 fc 30 8d 3d 7f 4f 62 bd 83 0d d8 3a 5c cb 06 bd
       0.06894109 -0.055251595 0.0016483519 -0.032908782
0001e0 e7 97 43 3d 68 47 8e 3d 5b 82 5b 3c 71 2c b2 3d
       0.047752287 0.069472134 0.013397778 0.08699883
0001f0 f6 4e a4 3d 9d 15 63 bd 09 e4 96 3c 0e 24 a0 bd
       0.08022873 -0.055440534 0.018419283 -0.07819377
000200 85 ef b3 3c 46 d2 5b bc da 7c 18 bd be b7 91 3d
       0.021964798 -0.013416832 -0.037228443 0.07115124
000210 56 e9 41 bd 4a 75 8e 3d b2 73 00 bd 6e e3 95 3c
       -0.047341667 0.06955965 -0.031360336 0.018296923
000220 12 0c 85 bd c7 1f 28 3d a6 a1 62 bd c8 a5 9d bd
       -0.06496443 0.04104593 -0.05532994 -0.07697636
000230 63 af 43 bd 15 be 92 bc 56 e9 87 3d 90 15 35 3d
       -0.047774684 -0.017912904 0.06636302 0.044210017
000240 9d 16 23 bc ca 54 48 bc c4 a0 0b bd c7 13 28 3c
       -0.009954122 -0.012227247 -0.034088865 0.010258622
000250 b0 57 6f 3d fc 2d 1b ba c5 93 1a 3c e5 6d 72 bd
       0.058433235 -0.0005919633 0.009434645 -0.059186835
000260 7a 1d 10 bd a9 35 42 3d 04 c8 a8 ba 72 f5 92 bd
       -0.03518436 0.047414456 -0.0012876992 -0.07175721
000270 22 75 a2 3d 9e 92 8e 3d 08 bd 99 bd 81 dc 99 3d
       0.079324976 0.06961559 -0.07506758 0.07512761
000280 a9 ba 7b bd 1f 54 8d 3d e3 3d ae 3c bc e8 b7 3a
       -0.06145731 0.069008105 0.021269744 0.0014031152
000290 04 a1 fd bc 3a cf 9d bc 48 ed c7 3c f5 21 70 bd
       -0.030960567 -0.019263852 0.024405137 -0.058626134
0002a0 fd 83 02 bd ef e9 fc bc 8c e7 ae 3c c1 e9 3a 3d
       -0.031864155 -0.030873267 0.021350645 0.04563308
0002b0 c9 0b 85 bc 52 7b 81 3c 97 af 12 bd 3e 6c 1c 3d
       -0.016240971 0.015805874 -0.035811987 0.038189165
0002c0 61 83 27 3d 06 08 5d bd 03 f4 4b bd 1b f0 f4 bc
       0.040896777 -0.05396273 -0.049793255 -0.029899647
0002d0 ac 51 18 bb b4 87 92 3d 09 a4 89 3d cf 02 64 bc
       -0.002324204 0.071547896 0.0672074 -0.013916685
0002e0 77 2c b0 3b a8 69 1c bd 78 df ac 3c 2e 09 a8 bd
       0.0053763944 -0.0381867 0.021102652 -0.08204876
0002f0 6f cf a4 bd 01 92 83 bd c4 e5 d6 3b 89 31 6c 3d
       -0.08047377 -0.064243324 0.006558152 0.057664428
000300 e0 ee 0b bd db 53 b1 bd 75 3d 1c bd c0 4d 31 bc
       -0.034163356 -0.08658572 -0.038144547 -0.01082176
000310 fc 64 f3 3c c2 8f a3 3c d4 25 93 3b 61 1a 84 3d
       0.029711239 0.01996601 0.0044905934 0.06450344
000320 64 3e 5e 3d de 75 ef bb 08 77 20 bd da e4 43 bd
       0.05425872 -0.007307752 -0.039176017 -0.04782567
000330 b3 65 a9 3c 46 b1 a9 bd b5 06 81 3d 85 0e 47 3d
       0.020678377 -0.08285765 0.063001074 0.04859783
000340 04 3d a7 bd 77 07 9f bd aa 2b 6e bd 13 e9 7c bc
       -0.08165935 -0.07765096 -0.05814711 -0.015436429
000350 99 3d 84 bd d6 e6 45 bc ee de 77 bd 71 e2 52 bd
       -0.06457061 -0.012078961 -0.060515337 -0.051485483
000360 bc d4 9c bd 61 f3 42 bc 6d c1 37 bd e8 22 ff bc
       -0.07657763 -0.011898846 -0.0448622 -0.031144574
000370 7e b8 92 bd e8 78 79 3d 31 ed 1e 3d 6b 6a 09 3d
       -0.07164095 0.06090632 0.038800422 0.033548754
000380 22 0f b5 3d 6d 17 35 3c 86 1b 1f 3c 97 ae 89 3d
       0.08840777 0.011052948 0.009711152 0.067227535
000390 24 44 c5 3d 58 63 9a bc 99 e1 59 3d 5f a9 32 3d
       0.096321374 -0.018846199 0.053193662 0.043618556
0003a0 ae 08 88 3d 28 ca 72 3a eb e9 21 bd fd 0d 8e bd
       0.066422805 0.0009261691 -0.039529722 -0.06936262
0003b0 0c ba fd 3c 71 ac 9c bd 44 72 a0 3d 6d d9 89 bd
       0.030972503 -0.07650078 0.078342944 -0.06730924
0003c0 00 b4 f3 3c 49 0d 9b bd d2 17 24 bd 4e 74 9e bd
       0.029748917 -0.07570893 -0.04006178 -0.07737027
0003d0 06 a4 fb 3a 46 15 91 3d 1b 52 a5 bc be 0a 97 3d
       0.0019198663 0.07084136 -0.020180753 0.07375096
0003e0 c5 fa 5a bb 4e 0c f5 3c 20 9e 89 bd e5 ed a1 3d
       -0.003341363 0.029913094 -0.06719613 0.07906703
0003f0 f1 d3 5e bb 58 64 1a bd e1 67 9f bd 55 d2 6c bd
       -0.0034000839 -0.03769335 -0.07783485 -0.057817776

encoder.gru.weight_hh_l0 f4 [384, 128]
000000 62 1c a0 bd 69 e0 67 3c 18 27 41 bc 9c 42 fb 3c
       -0.078179136 0.014152625 -0.011789106 0.03067141
000010 89 a8 fa bc 05 e6 30 bd f2 fe be bb 33 a5 98 3d
       -0.030597942 -0.043188114 -0.0058287317 0.07453384
000020 52 74 a6 bd fa 23 63 3d d6 dc 94 bd bc d2 86 bd
       -0.08127655 0.05545423 -0.072686836 -0.06583163
000030 d6 2a 6a bb 08 2a 6f bd 65 a6 4d bd c2 b7 ad 3d
       -0.0035731099 -0.058389693 -0.050207514 0.08482315
000040 18 71 63 3d 7a 16 01 3d 82 e6 8b bd 4a a8 16 bd
       0.055527776 0.031515576 -0.06831075 -0.036781587
000050 42 95 fc bc 93 d1 f8 bc af ad 8d bd 8c 7b 62 bd
       -0.03083289 -0.03037337 -0.06917893 -0.055293605
000060 5c 92 2a 3d ae 90 b0 ba 10 9c 51 bd f9 82 4f bd
       0.041643485 -0.0013470852 -0.051174223 -0.050662015
000070 16 e7 52 bd fa 13 32 3a 49 22 a1 bd dc ed b8 3b
       -0.051489912 0.0006793138 -0.078678675 0.0056435894
000080 29 40 69 3c 6f 54 90 bd 13 9c 57 3d 8f 99 62 3d
       0.014236488 -0.070473544 0.05263908 0.055322226
000090 79 72 39 3d 84 0a 80 3c b3 9a 25 bd b8 d3 51 bd
       0.045275185 0.015630014 -0.040430736 -0.0512273
0000a0 8b 6a 50 bc 03 db d4 bc 17 44 a1 3d 68 49 6e bc
       -0.012720714 -0.02598334 0.07874315 -0.014543869
0000b0 97 49 fb 3b c4 db 6c 3d d2 62 3d 3d 35 c6 a8 bd
       0.0076686847 0.057826772 0.04623682 -0.0824093
0000c0 ed 39 a3 bd d8 1c 85 3d 9c b1 9d 3d 11 54 2a bc
       -0.07970033 0.06499642 0.07699892 -0.01039602
0000d0 64 7c 63 bd f0 a8 80 bd 7b 5a 73 bd ad 55 34 3d
       -0.05553855 -0.06282222 -0.05941246 0.04402702
0000e0 12 f8 8d 3d e3 e6 1e bc 88 ff 91 3d 91 f5 83 bd
       0.06932081 -0.009698602 0.07128817 -0.064433224
0000f0 62 48 8a bd 2e 24 e6 3c 26 e9 1b bc bc eb 8a bd
       -0.06752087 0.028093424 -0.009516036 -0.06783244
000100 79 af 05 bd 80 46 3b bd b4 fe 20 3c c6 3b 3a bd
       -0.032638047 -0.04572153 0.009826351 -0.04546716
000110 d9 f8 be bb 72 9e 18 bd 07 1e 67 3b f4 d9 8a 3d
       -0.005828005 -0.03726048 0.00352657 0.067798525
000120 09 a0 15 3c 07 d8 89 bd 64 89 4c bd be df c3 3c
       0.009132394 -0.06730657 -0.049935713 0.0239104
000130 84 1b d8 3c e1 d5 d4 3b f0 74 98 bd 25 ff 4d 3d
       0.026380308 0.006495223 -0.07444179 0.050292153
000140 6c cc 48 bd eb a6 b0 3d ba e4 a1 bd e6 eb 9e bb
       -0.049023077 0.08625587 -0.07904954 -0.0048498986
000150 c9 16 99 3d 9e 7c 01 bd 51 8c 41 3d b0 97 d9 bc
       0.07475049 -0.031612985 0.047252957 -0.026561588
000160 2c 0b 8b 3d ba 58 17 3a 5c 43 8b 3d 70 d2 b3 3d
       0.0678924 0.0005773414 0.06799957 0.08780372
000170 61 ad dc 3b 99 86 7c 3d b0 43 2a bb e8 83 42 bd
       0.0067345356 0.0616518 -0.0025980286 -0.047489077
000180 91 2f 93 bd 6a 94 45 3d 25 71 6f 3d 7f 73 72 bd
       -0.07186807 0.04823724 0.058457512 -0.059192177
000190 85 25 b0 bc 4d 24 66 3d cd c4 81 bd f7 86 99 bd
       -0.021502266 0.056186963 -0.06336365 -0.074964456
0001a0 1d 92 a8 b9 2f 33 1b 3d ee ad fc 3c be 24 9e 3d
       -0.0003215232 0.03789061 0.030844655 0.07721852
0001b0 5e 11 3d bd 79 52 37 3d d5 83 3a 3d 46 e3 77 bd
       -0.04615914 0.044756386 0.04553588 -0.06051948
0001c0 0c e8 90 ba ac 85 8a bd 12 88 36 3c 2d 97 9d 3d
       -0.0011055483 -0.06763777 0.01114084 0.0769485
0001d0 6e 48 ac bd 9b 26 b5 3b 01 9d a2 bd 6f dd 11 bd
       -0.08412252 0.005528284 -0.07940102 -0.035611566
0001e0 c1 fe 33 bd 1d bd e7 3c f1 60 a1 bd 36 70 b8 3c
       -0.043944124 0.028288418 -0.07879818 0.022514444
0001f0 75 5b 90 bd 60 bf 8b bd 06 13 79 b8 5d 92 8c bd
       -0.07048694 -0.06823611 -5.9383943e-05 -0.06863854
000200 31 47 96 bd e8 2c 6e 3d 48 5c 86 bd af 4a 71 bd
       -0.073377974 0.058148295 -0.0656057 -0.058909114
000210 b9 bb 14 bd 23 38 82 3d 2a 00 5b bd 69 f0 a1 bd
       -0.03631184 0.063583635 -0.053466953 -0.07907183
000220 96 fa 2f 3d 83 88 12 bd e9 80 8f 3d d9 65 4b 3d
       0.042963587 -0.03577472 0.070070095 0.049657676
000230 14 da 97 3d f8 1b 72 3d f4 88 8e 3d 98 87 0b 3d
       0.07414642 0.059108704 0.069597155 0.03406486
000240 08 62 f6 3c cd db 92 bd c6 8f 8f 3d df 92 93 3d
       0.030076042 -0.0717083 0.070098445 0.07205748
000250 2a 25 4b bb 09 c5 aa bd 08 ef d6 bc f2 50 52 3d
       -0.0030997493 -0.08338363 -0.026237026 0.051346727
000260 a7 ca 59 3d 93 51 c1 3b 8b 09 1d 3d 54 94 09 3d
       0.05317178 0.005899617 0.03833918 0.033588722
000270 27 72 cd bc 0e 6f 01 bd 4e fa 79 bd 28 8f 93 3d
       -0.025078846 -0.03160005 -0.061029725 0.07205039
000280 f7 20 86 bd c9 ec 20 3c dd 97 5c bc c9 48 a4 bd
       -0.06549256 0.009822079 -0.013463941 -0.08021695
000290 14 68 1c 3d 55 83 84 bd fd 13 88 bd 8f 9c 60 3c
       0.038185194 -0.06470362 -0.066444375 0.0137092015
0002a0 45 e5 c8 bc be d3 98 bd 85 0c 0a 3b c8 70 00 3d
       -0.024523387 -0.074622616 0.002106459 0.031357557
0002b0 de 5c 8e bd c4 59 8a bd 6f fa 14 3d 3e 5d b0 3c
       -0.06951307 -0.06755403 0.036371645 0.021528836
0002c0 e9 af da 3b ca 37 48 3d 3d 27 46 bd bc 83 a8 bd
       0.006673802 0.04888133 -0.048377264 -0.08228251
0002d0 b1 4f 41 3d 71 32 31 bd 18 3d 93 3d 15 c4 e0 3c
       0.04719514 -0.043260995 0.07189387 0.02743725
0002e0 a9 6b 07 3d fa 0f 5a 3d 29 3e 8b bd b8 7e 1a bd
       0.033061657 0.053237893 -0.067989655 -0.037718505
0002f0 5f 82 56 bd c9 9f 29 3d ed 02 a1 3d b3 a1 59 bc
       -0.052370425 0.04141215 0.07861886 -0.013283181
000300 4d d9 59 bd cf f7 a6 bc 4b 09 6c bd 87 e3 91 bd
       -0.05318575 -0.020381836 -0.05762605 -0.071234755
000310 9a 15 14 bd f9 38 9a bd ea 12 d7 3c c5 c3 11 3d
       -0.036153413 -0.07530398 0.026254136 0.03558709
000320 e3 21 98 bc bb b1 c7 bb f3 71 48 bd c8 54 1c 3d
       -0.018570846 -0.006094185 -0.048936795 0.03816679
000330 76 d3 7d 3d a9 fc a3 3d b7 af 12 bd 50 38 1d bd
       0.061969243 0.080071755 -0.035812106 -0.038383782
000340 0f 2e 83 bc 6d 7e 32 3b e1 44 82 3d 5d 58 7d 3b
       -0.016013173 0.0027236 0.06360794 0.0038657405
000350 07 0c 48 3c f2 4b 52 bd 1b 8f a6 bd f3 f1 31 3c
       0.012209899 -0.05134196 -0.08132764 0.010860908
000360 ff 91 48 bd 93 9b 1b bd 43 0f 4d bd 83 ac a0 bd
       -0.048967358 -0.037990164 -0.050063383 -0.07845404
000370 a6 39 53 3d 26 76 c9 bb d3 04 31 3d 06 f9 2c 3d
       0.05156865 -0.0061481176 0.04321749 0.042229675
000380 7d df 62 3d 9d 61 73 bd 1b 04 90 3c 72 b0 32 3d
       0.055388916 -0.059419263 0.017580083 0.043625303
000390 c2 6f 87 bd 36 fa 82 3d 7e 4e e3 3c 5f 72 9a bd
       -0.06613113 0.0639538 0.027747389 -0.07541346
0003a0 df f0 98 bd 5f 66 0f 3d e7 d3 14 3d 24 f7 8b bd
       -0.074678175 0.035009738 0.0363349 -0.06834248
0003b0 4b 87 a3 3d 85 dd d3 3c ac 63 30 bd cf b7 a8 3d
       0.079847895 0.025862465 -0.043063805 0.08238184
0003c0 8c 5d 8f bd 4b 90 26 3d ba fb 8a 3c 94 4a 1c 3d
       -0.070002645 0.040664952 0.016965736 0.03815706
0003d0 a3 18 e9 3c 64 27 40 bd 8d 27 02 bd ae 8b b1 bc
       0.02845413 -0.046912566 -0.031776 -0.02167305
0003e0 f1 62 7b 3d ab 4d c1 3c 67 dd 95 3d 7f 31 9d 3d
       0.061373655 0.023596605 0.0731762 0.07675456
0003f0 50 15 4b 3d c8 21 e9 3c a8 86 75 3d 24 54 8e 3d
       0.049580872 0.028458491 0.05994287 0.06949642

encoder.gru.bias_ih_l0 f4 [384]
000000 5c 98 9b bd 42 91 10 bd 34 23 26 3c 37 0d 7d bd
       -0.075974196 -0.03529478 0.010140229 -0.06178018
000010 a2 f6 98 3d 54 d8 a6 bd 20 f1 af 3d 7e cb b8 bc
       0.074689165 -0.0814673 0.08590913 -0.02255797
000020 22 13 22 3c 16 d7 ce 3c 2b e2 05 3c 53 8e 2e 3d
       0.009892257 0.025249045 0.008171598 0.0426162
000030 20 ff 59 bd 31 cf 04 3c 53 11 9e bd ff 77 ac bd
       -0.05322182 0.008106039 -0.07718148 -0.08421325
000040 35 c9 f1 3b 93 2c a6 bc a4 c6 34 bc 2f 39 e9 3c
       0.007378722 -0.020284927 -0.011033688 0.02846965
000050 e7 ba 10 bd 1d a7 1e 3b 17 93 8d bd a1 a3 38 3d
       -0.035334494 0.0024208494 -0.06912821 0.045077924
000060 28 31 61 ba 3d 95 6a bd f8 8b 48 3d 24 d1 2f 3d
       -0.00085903937 -0.05727123 0.04896161 0.04292406
000070 07 a2 4e 3c 7e 46 24 bd 7c c7 91 3d de a5 ad 3d
       0.0126118725 -0.04010629 0.07118127 0.08478902
000080 00 6d 06 3d e4 5c 3e bd 01 26 a8 bc 72 2f ff bc
       0.032818794 -0.046475306 -0.020525934 -0.031150553
000090 39 54 6c bd c6 69 a7 3c 53 32 56 bd c0 03 f7 bc
       -0.05769751 0.020436179 -0.052294087 -0.030153155
0000a0 4c 1b e5 bc f6 68 ee 3c bc 88 93 3b dd a9 49 3d
       -0.027967118 0.029102784 0.004502384 0.04923426
0000b0 44 a5 25 3d 74 22 f0 3c 73 c4 97 bd f9 77 4f bd
       0.040440813 0.029313304 -0.074105166 -0.050651524
0000c0 14 f2 86 bd c8 93 ae 3d 1a 9e 7a 3d 19 0b c7 3c
       -0.065891415 0.08524281 0.061185934 0.024297284
0000d0 37 d4 c1 bc 7e c3 a0 bd 00 b1 63 bd 4a ef a0 3d
       -0.023660762 -0.07849787 -0.055588722 0.07858141
0000e0 15 56 a4 3d b1 9c e5 bc fb 2b 4a 3c c2 e4 e2 bc
       0.08024231 -0.028028818 0.012339587 -0.02769697
0000f0 84 06 89 3c 82 63 1c bd c0 79 1e bd 6b 54 03 bc
       0.01672674 -0.038180836 -0.03869033 -0.008015732
000100 89 99 a8 bd e0 e8 65 3d 4f 12 a5 bd 7f 14 19 3c
       -0.082324095 0.05613029 -0.08060133 0.009343266
000110 19 05 01 bc a5 d0 7e bd b5 a0 92 3d 58 e6 88 3c
       -0.0078747505 -0.062210698 0.07159559 0.016711399
000120 97 b7 ac bd a2 91 9d bd d6 3f 3d bd 1b 78 83 bc
       -0.084334545 -0.07693793 -0.046203457 -0.016048482
000130 b0 79 3b bc 64 54 6f bd 2f 62 ab 3c 23 f0 aa 3d
       -0.011442587 -0.05843009 0.020920841 0.08346584
000140 41 90 19 3d 5b ee 24 bd b8 4b 9d 3d 18 24 9a 3d
       0.037491087 -0.040266376 0.07680458 0.075264156
000150 08 bb eb bc 92 d1 a0 bd 5d 6a 4f bd 33 e8 c5 bc
       -0.028775707 -0.07852472 -0.050638545 -0.024158573
000160 72 42 85 bd c0 6a b0 bc 0d 33 b9 bd 68 c3 78 3d
       -0.06506814 -0.021535277 -0.0904294 0.06073323
000170 5d 9d 1b 3d dc eb d3 3b e2 6f 5b 3d 27 f2 19 3d
       0.03799187 0.0064673256 0.053573497 0.03758445
000180 23 97 38 bd f0 2d 9f 3d 3c cb 0b bd 24 0e 9d bd
       -0.04506601 0.07772434 -0.034129366 -0.07668713
000190 44 78 9c bd 9c 98 99 3d 2f f9 9b bd 5f 6c a4 3d
       -0.07640126 0.07499811 -0.076158874 0.08028483
0001a0 52 2d a4 3d 39 ed 53 bc 82 d9 f2 bc cf d5 1c bd
       0.08016457 -0.012934976 -0.029644731 -0.03828984
0001b0 1c 9f b2 3d 72 06 36 bb de 9d 99 3c ab 11 a9 3d
       0.08721754 -0.0027774838 0.018752035 0.08255323
0001c0 62 81 76 bd 1c 2a 07 bd 61 5b 98 3d 4d 0d 93 ba
       -0.060181983 -0.032999143 0.07439304 -0.0011219174
0001d0 1f b1 32 bd 60 49 d0 3c a4 d9 fd 3c 34 f0 17 bd
       -0.043625947 0.025425613 0.030987568 -0.03709431
0001e0 40 43 38 3d 06 de 41 3d e8 8c 80 ba 14 a2 89 3d
       0.04498601 0.04733088 -0.0009807618 0.06720367
0001f0 70 93 6d 3d 9c a3 64 bc e8 f9 7f 3d 3f 81 44 3d
       0.058001935 -0.013955023 0.06249419 0.04797482
000200 87 ea 09 3d 89 4b 3a bd d4 c0 62 bd ac 2f f8 ba
       0.03367093 -0.045482192 -0.055359676 -0.0018935106
000210 06 47 c5 ba bb 1e a1 3d f1 68 2b 3c 18 62 86 bd
       -0.0015051074 0.078671895 0.010462032 -0.06561679
000220 1f 93 00 3d 69 41 97 3d 17 db 03 bd 21 f1 92 bc
       0.031390306 0.07385523 -0.032191362 -0.017937245
000230 f0 3e 14 bd 4c 43 0c 3d b8 c3 35 bd 6c 05 2c bd
       -0.036192834 0.034243867 -0.044376105 -0.04199736
000240 8f f5 b5 3d 69 a7 ea bb 67 a9 77 3d 89 45 33 bc
       0.08884727 -0.00716107 0.06046429 -0.010941871
000250 3f 23 9c 3d 6b e1 3e bc 58 de 31 3d db 97 1c bd
       0.0762391 -0.0116504235 0.043424934 -0.03823076
000260 f0 64 60 3d 8a 83 41 3d 19 39 f0 3c 19 42 de 3b
       0.05478376 0.047244586 0.029324101 0.006782782
000270 f0 5d c4 bc ce 75 f1 3c 1b b6 2f bc d9 a1 97 bd
       -0.023970574 0.029475119 -0.01072457 -0.07403917
000280 95 29 2a bc 7b 9d 5a 3d e8 9d 84 bd 5e ed 04 3d
       -0.0103858905 0.05337284 -0.06475431 0.032452933
000290 12 1f 59 bc ab 68 33 bd a7 49 43 bc 8b e5 d5 bc
       -0.013252037 -0.04380099 -0.011919416 -0.026110431
0002a0 df 75 7f bd e2 5e 5e 3d c0 c9 86 3c e6 1f da bc
       -0.06236827 0.054289706 0.016453624 -0.026626538
0002b0 dd c7 9d 3d f7 20 96 3d 2f 19 82 bd d3 9e 45 bc
       0.077041365 0.07330506 -0.0635246 -0.012061792
0002c0 d0 d8 5d 3d 4c 8c 10 bd e0 8e 2d 3c 86 c8 99 3d
       0.054161847 -0.035290048 0.010593146 0.0750895
0002d0 0e 53 ae 3d 27 db 99 3d 1a 4c c8 bb 67 75 11 3c
       0.08511935 0.07512503 -0.0061125876 0.008878089
0002e0 2f 26 a5 3d bb bb d6 3c f9 25 36 3d df 52 fd bc
       0.080639236 0.026212564 0.044469807 -0.030923305
0002f0 9c e7 a6 3d 29 50 95 3d 26 2b 31 bd 80 45 3d bd
       0.08149645 0.0729068 -0.04325404 -0.04620886
000300 18 c8 79 bd 26 9d 67 bd b4 d6 4d 3d 20 65 8d 3c
       -0.06098184 -0.056546353 0.050253585 0.017260134
000310 2c ad d3 3c 2a 03 7c bc 73 4d 55 bd b9 a0 d5 bb
       0.02583941 -0.015381614 -0.052075814 -0.006519404
000320 be 0e 8f 3d 82 68 73 3d 45 8d 89 bd 99 4d 7d bc
       0.06985234 0.05942584 -0.06716398 -0.015460395
000330 b9 1e 9c 3d 2c a1 6d bd 36 05 32 3d 84 2b 3e bd
       0.076230474 -0.058015034 0.043462 -0.04642822
000340 fa 0d 7d 3d d6 84 2a bd 49 6b 8b bd 75 e5 59 bc
       0.061780907 -0.04163059 -0.068075724 -0.013299336
000350 45 07 3d bd 1e ba aa bb 52 3f a4 bd 33 32 3c bd
       -0.04614951 -0.005210175 -0.0801989 -0.04594631
000360 71 03 3f bd f2 c2 16 3d bb 66 85 3d b4 e7 98 3d
       -0.04663414 0.036807008 0.06513735 0.07466069
000370 0d 3b ea 3b 33 46 93 bd b8 e4 35 bd fc 52 61 3c
       0.0071481527 -0.07191124 -0.044407576 0.013752695
000380 cd 7e 80 3c 47 fc bc bc f8 25 9a bd 01 85 87 bd
       0.015685463 -0.023069514 -0.07526773 -0.06617165
000390 36 61 0f 3d 26 39 09 bd 24 d1 45 3d cd 0b 46 3d
       0.035004817 -0.033501767 0.048295155 0.048351098
0003a0 40 b1 40 bd 39 0e 4a 3d b7 5e 8f 3d f2 46 0e 3b
       -0.04704404 0.04932997 0.07000487 0.0021709767
0003b0 10 76 90 bd bb d1 89 bc e4 12 24 bd e4 64 ba 3d
       -0.07053769 -0.01682364 -0.040057078 0.091012746
0003c0 cb b4 74 bd 3f 5f ca bc 88 b1 f4 bb b5 c7 98 bc
       -0.05974273 -0.02470362 -0.0074674524 -0.018649915
0003d0 a7 db 61 3d 7c 02 1b 3c ea c0 99 bd 1b 85 5d 3d
       0.055141117 0.009461042 -0.075074986 0.054082017
0003e0 e3 3b 40 3c 50 8b 40 3d 57 29 97 3d 2a 09 ae bc
       0.011733028 0.04700786 0.07380932 -0.021244604
0003f0 6f f6 23 bd ab 30 9e 3c 5f d5 83 bd 74 91 7b bc
       -0.04002994 0.019310316 -0.06437182 -0.015354503

encoder.gru.bias_hh_l0 f4 [384]
000000 83 01 c8 bc 4a 48 2e 3d 83 73 4a bd fb 39 72 3c
       -0.024414783 0.04254941 -0.049426567 0.014784331
000010 9c 94 8f 3d 85 66 be 3b b1 5f e6 bc a6 63 67 bd
       0.07010767 0.005810561 -0.028121801 -0.056491517
000020 f4 f1 1f bc ba f1 6e 3d 1a da 39 3c e6 b5 f1 bc
       -0.009762276 0.058335997 0.011343503 -0.029505681
000030 74 70 8c 3d 94 1c 37 bd a9 6d 18 3d 55 5f 13 bd
       0.06857386 -0.04470499 0.037213955 -0.035979588
000040 35 9a 67 bd 0d 44 7c bd ad dd 17 3d 68 2c 2e 3d
       -0.056543548 -0.061588336 0.03707664 0.042522818
000050 d5 0c 32 bd 04 a5 58 3d 35 17 5c bd 5f 7e 5c 3d
       -0.04346927 0.052891746 -0.05373307 0.053831454
000060 b8 e7 ed 3b 04 05 7c 3d ef 39 36 bd 10 01 ad bd
       0.007260289 0.06152822 -0.044488844 -0.08447468
000070 cf da 9e 3c b9 cb 85 bd be 9b 46 3d f6 6e 8a bd
       0.019391445 -0.06532998 0.04848837 -0.06759445
000080 e8 29 54 3d 5a 21 16 3c b5 62 63 3d 76 5a 71 bd
       0.051797777 0.009163225 0.055514056 -0.05892416
000090 5b 52 25 bd d1 ae 1c 3d 68 b7 84 3a 20 dd 2a 3c
       -0.040361743 0.038252655 0.001012546 0.010428697
0000a0 30 77 3e 3b 4f 33 83 bc 1c 4f d8 bc 6d d6 13 bd
       0.002906274 -0.016015677 -0.02640491 -0.036093164
0000b0 33 f7 2c 3d 0b b5 0a bd 6c 85 84 3d e1 41 91 bd
       0.042227935 -0.033864062 0.06470761 -0.070926435
0000c0 5e fb 1c bd 0a 84 c0 3a 7b 08 87 3d 3a f8 5a 3c
       -0.03832566 0.0014687788 0.065934144 0.013364846
0000d0 a3 bc 62 bd 97 98 14 3d e9 bf 87 3d 25 97 bc bd
       -0.05535568 0.036278334 0.06628401 -0.09208516
0000e0 d2 95 97 bd 7e b9 92 3d b5 fd 7f bc 62 49 9b 3d
       -0.07401623 0.07164286 -0.015624453 0.07582356
0000f0 94 6a c2 3b 2d 8b 3d 3d 41 cb dc bc fc 76 2a bd
       0.0059331153 0.046275306 -0.026952388 -0.04161738
000100 3b 71 39 bc 3a b7 b0 3c 2f da 84 bd 9e ce ce bb
       -0.0113185 0.021571744 -0.06486928 -0.006311252
000110 4b 8a 6c 3d c4 1e 74 3d 85 ab e0 bb f9 94 a2 bd
       0.057749074 0.059599653 -0.006856384 -0.079385705
000120 8a 29 40 bd 01 1a 70 3b 53 f6 9e 3d 6c 83 be bc
       -0.046914615 0.0036636593 0.07761826 -0.023256026
000130 fc ad ae 3d d2 a1 27 3d 62 84 8f 3c eb 9c 3b bd
       0.08529279 0.04092581 0.01751918 -0.045803946
000140 76 90 3e 3c 63 6c 9a 3a c9 36 67 3d a5 54 ef bc
       0.011631122 0.0011781569 0.05644873 -0.029215166
000150 9f 9e 8e bd b7 5c 3f bd 02 86 6c 3d 5d e1 a4 bc
       -0.06963848 -0.04671928 0.057744987 -0.020126993
000160 b6 88 a2 bb 24 cf 94 3d 7d b6 9e 3d 13 6a 8c 3d
       -0.004960145 0.072660714 0.077496506 0.068561696
000170 05 e3 8e bc 24 bb 71 3a 4c c8 77 3d 08 73 9c 3d
       -0.017442236 0.00092213065 0.060493752 0.07639128
000180 b9 04 9c 3d a4 73 a1 3d f9 9b 0b 3d ed e6 a5 bd
       0.07618088 0.07883385 0.034084294 -0.08100686
000190 db c4 81 3d 34 50 49 bd 0e c1 4a 3d 55 74 6c bd
       0.06336375 -0.049148753 0.049500518 -0.05772813
0001a0 4b ee bd 3d 26 a2 89 bc c5 ec 1d bd c0 a7 a0 bd
       0.092739664 -0.016800951 -0.03855588 -0.07844496
0001b0 32 c6 69 3d e1 16 14 3c 6d d4 0c bd 6b c4 e8 3c
       0.05707378 0.009038658 -0.034382273 0.028413972
0001c0 e8 75 63 bc aa 37 c4 bc 35 b5 82 bd 23 21 54 bc
       -0.0138830915 -0.023952324 -0.06382219 -0.012947354
0001d0 31 4c 90 bd 06 02 35 3d fb d5 c5 3d 6e c8 a7 3d
       -0.07045782 0.044191383 0.09659954 0.08192526
0001e0 5e ff d6 bb 1a 55 ff bb 72 3c aa 3d 78 46 76 3d
       -0.006561204 -0.0077921273 0.0831231 0.060125798
0001f0 e4 b8 a6 3d e1 28 8b bc 04 0f 06 bd a2 ee 7a 3d
       0.08140734 -0.016987266 -0.032729164 0.061262734
000200 94 d2 8a bc ca 53 72 bd fc 33 b5 bc ac ab aa 3d
       -0.016946115 -0.05916194 -0.022119515 0.08333525
000210 e2 70 1c 3b 66 21 43 3d d2 16 bb 3d 21 5e 02 3d
       0.0023870994 0.047639273 0.09135212 0.03182805
000220 58 3e 03 bd 89 31 42 3b ee 56 07 bd 4b 34 7b bc
       -0.032041878 0.0029631576 -0.033041887 -0.015332292
000230 9b 72 b3 bc 67 86 5b 3d 8b ef 84 bd aa f7 2f 3c
       -0.021905234 0.053594973 -0.06491002 0.0107402
000240 90 5b 8a bd ce a7 80 3d 36 8a 05 3c 14 45 e8 bc
       -0.067557454 0.06282006 0.008150628 -0.028353252
000250 4d 48 62 bd dc d5 1d 3d b8 da 23 3c a2 c8 96 3d
       -0.055244733 0.03853403 0.010000877 0.073624864
000260 4d 78 13 3d 7d 22 1e bd c9 12 fd 3c 83 14 a3 3d
       0.0360034 -0.03860711 0.030892747 0.07962897
000270 30 55 9d 3d 91 4b 1f 3c ea f0 8c 3d c2 74 0a bd
       0.07682264 0.009722606 0.06881888 -0.033802755
000280 87 ce 68 bd d7 42 1b 3d b7 78 ee 3a a2 43 6f bd
       -0.056837585 0.03790554 0.0018193935 -0.05841411
000290 db d6 d9 b9 85 50 e3 bc 09 3b 99 3d ed cc a1 3d
       -0.00041549545 -0.027748356 0.07481963 0.079004146
0002a0 eb e9 38 bc 17 6d 8e 3d 2e dc 75 3c 2d b8 73 bd
       -0.011286239 0.06954401 0.015006108 -0.059501816
0002b0 fc de 46 3d da 81 8b 3c d2 1f 94 bd 7d ab 42 3c
       0.0485525 0.017029691 -0.07232632 0.011881706
0002c0 50 45 0e 3d 35 d4 2c bd 71 e7 99 3d de 19 c0 3c
       0.03473407 -0.042194564 0.07514847 0.023449834
0002d0 35 71 21 bd 6b 9c ca bc 45 f3 99 bd eb ed 8b 3c
       -0.039414603 -0.024732789 -0.07517103 0.017081222
0002e0 0d 63 7f 3d df 40 f0 3c e5 af 59 bd 4e 20 45 3d
       0.06235032 0.029327808 -0.05314626 0.04812651
0002f0 05 1b 8d bc 87 68 39 3c 4d f5 cc 3c d8 69 8a bc
       -0.017224798 0.011316425 0.025019312 -0.016896173
000300 03 8c 60 bd d2 10 9a 3c e0 29 a4 3d bf 74 4d 3c
       -0.054821026 0.018806849 0.080157995 0.0125400415
000310 29 60 0e bc ef f5 55 3d 8d 0a af bc b9 b9 c8 3c
       -0.008689919 0.052236494 -0.021367336 0.024502622
000320 09 8d 6e 3d 80 a8 80 3d 7b 24 48 3d 00 d5 4c bd
       0.05823997 0.06282139 0.048862915 -0.05000782
000330 81 f9 2a 3d e6 2b ac 3d 26 4c cc bc e0 21 a1 3d
       0.04174185 0.084068105 -0.024938654 0.07867789
000340 56 01 9e bd ad 2a 9e 3d b9 72 e2 bc 53 ac 82 bc
       -0.077150986 0.077229835 -0.027642595 -0.015951311
000350 e7 89 05 bd 33 b7 2a bd 6c 66 96 3d 15 a0 73 bd
       -0.032602217 -0.04167862 0.07343754 -0.059478838
000360 7a c1 f2 3c 1d f6 c5 bc b0 cd 74 bd 4f fe 92 3d
       0.029633272 -0.024165208 -0.05976647 0.07177412
000370 f0 22 a3 bd 30 9d 99 3d 27 fb 98 3d 29 1a 94 3d
       -0.07965648 0.07500684 0.074697785 0.07231552
000380 0a b3 9b 3d 5c b0 67 bd 50 62 6f 3c 38 fc 5d 3d
       0.07602508 -0.056564674 0.014610842 0.054195613
000390 0d 1c ee 3c bf f4 7e bd cc 81 1a 3d a7 4d b0 3d
       0.02906611 -0.062245127 0.03772144 0.08608561
0003a0 7d 19 8b bd 31 64 11 3d 02 d2 86 bd 02 6d de 3c
       -0.06791971 0.03549594 -0.065830246 0.027151588
0003b0 e2 17 08 3d 59 65 7d 3c ce 27 34 bd 1f de 34 bc
       0.0332259 0.015466058 -0.043983273 -0.011039286
0003c0 24 6b 85 3d cd 2e 0c 3d 3b 8b 9d bd f1 19 9d 3c
       0.06514576 0.03422432 -0.07692572 0.019177409
0003d0 3f 0f 2e 3c a2 41 a0 3d 26 0a 82 3d 5f cd e1 3b
       0.010623752 0.078250185 0.06349592 0.006890937
0003e0 6d 9b 96 bd 28 1b c1 bc ef dc 99 bc b0 48 1a bd
       -0.07353864 -0.02357252 -0.018782107 -0.037666976
0003f0 a0 f6 44 bd 34 ef 88 3a 42 f3 f9 3c f1 11 53 3d
       -0.048086762 0.0010447265 0.030511502 0.051530782

encoder.gru.weight_ih_l0_reverse f4 [384, 2]
000000 1b 47 99 3d bc 51 18 3d 3c 4d 85 bd e2 60 a9 3d
       0.074842654 0.037187323 -0.06508872 0.08270432
000010 67 a5 0c 3c ee a1 a4 3d 9b 3a 7c bd 28 8e b9 3d
       0.008584357 0.08038698 -0.061579328 0.09060317
000020 8f 8a 20 bd 32 54 a5 3d 38 ac 38 3b ef d0 b1 bd
       -0.03919464 0.080726996 0.0028178822 -0.08682429
000030 cd cc c2 3b 86 89 2e bb f3 85 c0 3b 67 31 b3 bc
       0.0059448243 -0.0026632263 0.005875343 -0.021874143
000040 7d 83 a2 3b b5 e5 d1 bc 9a bd 1a bc 1b 5a 4f bd
       0.0049595223 -0.025622228 -0.009444619 -0.05062304
000050 86 ad 0b 3d bd b3 a4 bd dc e4 c0 3b 86 5b e6 bc
       0.03410103 -0.08042095 0.005886657 -0.028119814
000060 9f e0 07 3d d4 3f 34 bd 55 71 64 3d 52 81 ba bd
       0.0331732 -0.044006184 0.055772144 -0.09106697
000070 28 38 34 bd 60 52 72 3d 7b 4c ba ba 64 b9 8d 3d
       -0.043998867 0.05916059 -0.0014213467 0.06920126
000080 46 84 3c 3d 06 31 d7 bc 94 5f 61 3d a3 fb 13 3d
       0.046024583 -0.026268493 0.05502279 0.03612865
000090 27 06 1e 3d 56 ac 92 3d a9 56 2a 3d ea 59 8f bd
       0.038580086 0.07161777 0.04158655 -0.069995716
0000a0 db 03 a5 bc c3 47 55 bc 39 48 77 3d e7 70 ac 3d
       -0.02014344 -0.013017598 0.06037161 0.08419972
0000b0 24 92 44 bb 11 19 27 3d f9 76 0b 3d c9 f7 9c bd
       -0.0029994333 0.04079539 0.034049008 -0.07664449
0000c0 5a 61 a2 3d 09 e4 f0 bc 83 ca 8f 3d 08 85 17 bd
       0.079287246 -0.02940561 0.07021048 -0.036992103
0000d0 03 84 a3 3d 07 c6 63 bc 5f dc 2a bd 2a 4c 91 bd
       0.079841636 -0.013902194 -0.04171407 -0.07094605
0000e0 1e 9e 15 3d 3c 7c ab bb 8b b9 9e bd 34 8f 86 3d
       0.036527745 -0.0052333158 -0.07750233 0.065702826
0000f0 d4 28 3a bd 95 91 94 3d 0b 4e eb 3b 53 b6 b5 3b
       -0.045449093 0.0725433 0.0071809343 0.0055454164
000100 c9 9a d9 3c 43 5e 9f 3b 53 68 84 bd 84 b4 e4 3c
       0.026563065 0.004863532 -0.06465211 0.027918108
000110 e0 8e bd 37 25 68 84 3d 24 97 06 3d af 48 2e 3d
       2.2597087e-05 0.064651765 0.032858983 0.042549785
000120 46 74 23 bc 07 1b 8e bd 60 15 da bc 5a 94 32 3b
       -0.009976452 -0.06938749 -0.02662152 0.002724907
000130 cd a9 18 3d 9a a7 b4 3d 34 70 88 3d d7 fc 97 3d
       0.03727131 0.0882103 0.06662026 0.07421272
000140 e6 10 8a bd a4 a3 7e 3d d8 14 7d ba 76 76 08 3d
       -0.06741504 0.06216778 -0.000965429 0.0333161
000150 89 1b 04 bd 77 86 74 bd 7c d2 a6 3d 57 bd af bc
       -0.032252822 -0.05969855 0.081456155 -0.021452589
000160 2b 1d 34 3d 7f 0e eb bc 59 37 48 3c 14 06 89 3d
       0.04397313 -0.028693436 0.012220227 0.066906124
000170 4f 78 48 bc e0 5a 82 3d f9 0a a6 3c 40 6a a3 bd
       -0.012235715 0.06364989 0.020268904 -0.0797925
000180 e4 60 6d 3c 4c 7e f6 ba a8 9c 4f bd 0e ae 17 bd
       0.014488433 -0.001880595 -0.05068651 -0.037031226
000190 fd 2c cb bc 27 1f fd ba ec 51 95 bd b6 c0 56 bd
       -0.024801726 -0.0019311652 -0.07291016 -0.052429877
0001a0 b1 45 8d bd 35 2b 95 bd 22 31 cd bc 79 d8 46 3d
       -0.06898058 -0.07283632 -0.025047842 0.04854629
0001b0 a9 1c 22 bd 75 f6 9e bd 18 22 18 bd 05 45 83 bd
       -0.039578114 -0.07761852 -0.03714189 -0.06409649
0001c0 20 ea 67 3b 20 56 38 bd 31 f2 51 3d d1 4f aa 3d
       0.0035387352 -0.04500401 0.051256362 0.08316005
0001d0 50 cc 2a bd 15 84 32 3d 0a b2 41 3d 45 51 64 3c
       -0.041698754 0.043582994 0.047288932 0.013935392
0001e0 47 52 9c 3b dd 2b 77 bd f6 6e 8c 3d 71 46 86 3d
       0.0047705504 -0.060344566 0.068571016 0.065564044
0001f0 18 69 a4 bd 15 60 0d bd 87 51 37 3d 40 46 86 bd
       -0.080278575 -0.03451546 0.044755485 -0.06556368
000200 04 d8 7c 3c ab b2 92 bd f4 44 6f 3d 89 6e 4a 3b
       0.0154323615 -0.071629845 0.05841537 0.0030888638
000210 24 fa 97 bd ea 61 6c bd de 72 75 bd d3 ca 90 bd
       -0.074207574 -0.057710566 -0.059924 -0.07069936
000220 f9 3d ab 3d d0 de fb b8 61 14 f1 3c 0b 88 59 bd
       0.0836143 -0.00012010115 0.029428663 -0.053108256
000230 ef c9 4b ba 18 2b 04 bd 42 ed 78 3d b7 bd 3b 3d
       -0.0007773926 -0.03226766 0.06077314 0.045835223
000240 56 9c a0 3c 14 48 84 3d 7b bf 93 3d 10 85 c1 bc
       0.019605797 0.0645906 0.072142564 -0.02362302
000250 d3 9f a3 3c 19 04 be bc b1 6c 56 bd 21 c9 a0 3d
       0.019973671 -0.023195313 -0.05234975 0.07850862
000260 be 47 03 bd 5e 2c 08 3d 11 5d 0e bd 03 34 6f 3d
       -0.03205084 0.033245437 -0.034756724 0.05839921
000270 d5 92 13 bb 3b 77 99 3d 1d 56 8b 3b 3c c1 49 3d
       -0.0022517939 0.074934445 0.004252209 0.04925655
000280 6e 59 f3 3b b7 b1 bd bc bf 09 5d bd 8b 3c 46 bd
       0.0074264323 -0.02315603 -0.053964373 -0.048397582
000290 c9 cb 90 3d 3b 09 97 bd 72 b9 56 3d b7 94 a0 3c
       0.07070119 -0.073748074 0.05242295 0.019602163
0002a0 71 b1 0b bd eb b7 02 bd 6c b7 5b 3d b8 4f d8 bc
       -0.03410477 -0.03191368 0.05364172 -0.0264052
0002b0 06 ab 3c bd 24 c0 5a bd 03 cd 39 3d 06 75 81 3d
       -0.04606154 -0.053405896 0.04536153 0.063211486
0002c0 93 2c 22 3d 71 24 52 bd e1 3b 9b ba d1 b9 91 bd
       0.03959329 -0.051304284 -0.0011843407 -0.0711552
0002d0 54 2e 8e bd 61 d8 33 3d aa 94 28 bd c6 07 8b 3d
       -0.0694243 0.043907527 -0.041157402 0.06788592
0002e0 b9 50 8f 3d 8f a8 e2 3c 2a c5 89 bd 9d 9e 44 3d
       0.069978185 0.027668266 -0.06727059 0.048002828
0002f0 3e 0e 85 3d e6 48 05 3d ba 73 6d 3d e6 68 b3 3b
       0.06496857 0.032540224 0.057971694 0.0054751514
000300 9c e0 20 3d 7d b6 8f bd a5 63 a5 3d b8 45 81 3c
       0.039276704 -0.07017229 0.08075646 0.015780315
000310 e1 6d 15 3c ed 30 2f bd 2e b1 91 bd 80 f4 40 3c
       0.009120435 -0.04277127 -0.071138725 0.011777043
000320 9f 78 8a 3d f0 ce e5 3c 9a a6 51 bd 0c 6b 44 ba
       0.06761288 0.028052777 -0.051184274 -0.0007492758
000330 bb 9d 7a bd 0d 2b 97 bd 8e f4 25 bd 5c 26 03 bd
       -0.06118558 -0.07381258 -0.04051643 -0.032019004
000340 30 82 89 bc 7a 8b 9c bd 15 b5 23 3c 28 a5 14 3d
       -0.016785711 -0.076437905 0.009991904 0.036290318
000350 8d 55 67 3d 17 6d 28 3d b5 31 2c 3d d5 39 29 bd
       0.056478072 0.04111966 0.04203959 -0.04131492
000360 34 02 e2 3c 38 02 84 3d 16 56 7f 3d 64 3f 62 bd
       0.027588941 0.06445736 0.062337957 -0.055236235
000370 ca 2a c7 3a 43 09 4d 3d f9 a5 00 3d 23 bf f8 3c
       0.0015195247 0.05005766 0.031408284 0.030364579
000380 d4 c8 08 bd c7 3f 0b 3d 3d a4 fd 3c 13 ee 10 bd
       -0.03339465 0.03399637 0.030962104 -0.035383295
000390 5e 4e 30 bd ca 88 33 3d 52 d0 c6 3c f7 2b aa bd
       -0.043043487 0.043831624 0.024269257 -0.08309167
0003a0 e0 61 04 3c 77 40 79 bd b0 e4 a2 3d 2c 13 d6 bb
       0.008079976 -0.060852494 0.07953775 -0.006533047
0003b0 95 23 88 3d 9a c4 7b bd 8c e3 3d 3d 9d 50 7f bd
       0.06647412 -0.06146679 0.046359584 -0.06233274
0003c0 2f d5 52 bd 5a 7f b3 bd c2 57 6c 3d 36 90 6e 3c
       -0.05147284 -0.08764525 0.05770088 0.01456075
0003d0 bd 44 71 bb c5 3e 8e 3c 20 ac 91 bd 02 1d 9c bd
       -0.0036814653 0.017363915 -0.07112908 -0.0762272
0003e0 53 a5 e4 3a 03 25 8a 3d d6 7b a1 3d 35 d6 2f bd
       0.001744429 0.06745341 0.07884948 -0.042928893
0003f0 78 04 20 ba 5e 9f fc bc a3 24 01 3c 3a 19 ac bd
       -0.00061041815 -0.030837711 0.00788227 -0.08403249

encoder.gru.weight_hh_l0_reverse f4 [384, 128]
000000 5f e2 95 3c 5e fd 36 3d 35 83 f7 bc 6c 5b 8a 3b
       0.018296419 0.044675224 -0.030213932 0.004222324
000010 a0 86 34 3d 4e 3e e2 3b 7d 22 be bb ad a3 a2 bd
       0.0440737 0.0069044 -0.005802451 -0.07941375
000020 9a bc 7d bd 92 3f 37 3d bc 50 ed 3c b3 e8 18 bd
       -0.061947443 0.04473836 0.028969161 -0.037331294
000030 48 5b 34 bd 51 03 3e 3d 80 22 26 bc 6d 3e 4e bd
       -0.044032365 0.04638988 -0.010140061 -0.050352503
000040 0e 5d 64 bd 30 07 08 3d 50 57 0c 3d f6 02 4e bd
       -0.055752806 0.03320998 0.034262955 -0.050295793
000050 1e f4 56 3d fd b0 33 3d 40 04 1a bc 90 e8 62 bc
       0.052478902 0.04386996 -0.009400427 -0.0138493925
000060 1a 04 14 3c 10 48 a5 3c b4 8a d4 bb f6 77 43 bd
       0.009034181 0.020175964 -0.0064862613 -0.047721826
000070 53 e4 1a bd 5d 55 80 3c 5e af 0b bd 26 7c 88 bd
       -0.037815403 0.015665704 -0.03410279 -0.066643044
000080 ee 4b 6c 3d 60 03 aa 3d dd 7e 9d 3c 3e 56 93 3d
       0.0576896 0.08301425 0.019225532 0.07194184
000090 59 98 11 3c a1 d1 b1 3c 6c ce 95 bd 1b bc ae 3d
       0.00888642 0.021706404 -0.073147625 0.08531972
0000a0 22 4a 35 bd ce 4e 8e 3b 11 9c 6a 3c cf 9b 83 bd
       -0.04426015 0.0043428903 0.014319436 -0.064262025
0000b0 c0 01 84 3d 48 14 d8 bc 37 dd 77 bd 1b bb 81 3d
       0.06445646 -0.026376858 -0.0605137 0.06334516
0000c0 31 39 1e 3c f1 0b a3 3d 08 65 bb bc 1a 46 ab ba
       0.00965719 0.07961262 -0.022875324 -0.0013067157
0000d0 c7 5f 96 bd e3 16 2e bd e2 86 20 3d 64 54 83 3d
       -0.07342487 -0.042502295 0.039191134 0.064125806
0000e0 7d 46 10 3d b3 21 c4 3b 9a 96 55 bd 2a 64 a6 3d
       0.035223473 0.0059854626 -0.052145578 0.081245735
0000f0 72 39 ca 3c 7f dc 7a bd 8f 52 50 bc b7 c6 c0 bc
       0.024685595 -0.061245438 -0.012714996 -0.023532255
000100 19 83 b9 bb da c9 93 bb f9 e6 14 bb e8 47 97 bd
       -0.00566138 -0.0045101466 -0.0022720678 -0.07386762
000110 1a fa 7a bd 4a fe 16 bd 22 9e e4 3b 6e 21 96 bd
       -0.06127367 -0.036863603 0.0069768587 -0.07330595
000120 e5 90 df 3c c2 2e 5f bd c8 7e 86 3d 43 05 5f 3d
       0.02729077 -0.05448795 0.0656715 0.054448377
000130 99 8e 86 3d d4 07 91 bd 0b f5 93 bc 22 fd 08 bc
       0.06570167 -0.07081571 -0.018061182 -0.008361133
000140 cc 75 15 3d 4a 8f ef bc ff 1a 74 3c 74 ce c7 bb
       0.036489293 -0.02924313 0.0148990145 -0.006097609
000150 4b 76 46 bd 7c 5e 61 3d cc b7 e9 3c 72 f7 96 3a
       -0.048452657 0.055021748 0.028530024 0.0011517836
000160 ee 0a 4f bd 65 11 9d 3d fb 9a 40 bb ce 74 85 3d
       -0.050547533 0.07669333 -0.002938925 0.06516419
000170 b8 83 2f 3d 49 f5 8f bd 72 31 64 bd d0 87 47 bd
       0.042850226 -0.07029206 -0.055711217 -0.048713505
000180 dd 57 73 bd 06 c9 16 3d d3 b3 8c 3d 26 84 3f 3a
       -0.059409965 0.036812805 0.06870236 0.00073057634
000190 55 cf 8d 3c 93 99 47 bd 44 ee 91 3d 4e 54 38 3d
       0.017310778 -0.048730444 0.07125524 0.045002274
0001a0 03 b4 eb 3b f2 be 57 bd 81 36 49 bd b0 c1 a5 3c
       0.00719309 -0.052672334 -0.049124245 0.020233959
0001b0 54 0c 8d 3d 95 ef 10 3c 7f 59 79 3d 00 12 47 37
       0.06887117 0.008846183 0.060876366 1.1865515e-05
0001c0 33 53 38 bd b4 8b e6 3a 88 fb c5 bc e4 68 64 3d
       -0.04500122 0.0017589242 -0.024167791 0.055764094
0001d0 b0 bf d3 36 f7 8f 18 bd 88 e5 6f bd 9b 51 84 3d
       6.3106054e-06 -0.03724667 -0.058568507 0.064608775
0001e0 84 8b f0 b9 bd a8 f5 bb 00 43 97 bd 6f 33 cb 3b
       -0.00045880314 -0.007496922 -0.07385826 0.0062011997
0001f0 a7 74 2e 3d 2f cb e8 3c 2e 8c 56 3d 1c 6d 24 bd
       0.042591717 0.028417198 0.05237978 -0.040143117
000200 c5 42 7e 3b 29 17 d6 bc 84 b8 71 3c 59 07 43 bd
       0.0038797122 -0.02613409 0.014753465 -0.04761443
000210 76 99 6d bd 43 b5 31 3d 91 1e fd bc d9 7f 9e bc
       -0.05800768 0.043385755 -0.030898364 -0.019348072
000220 56 73 94 bd 05 7c 7c 3d 43 20 92 3d aa 68 56 3d
       -0.07248561 0.06164171 0.0713506 0.05234591
000230 4f 14 08 bd f9 35 3a 3c ed 76 23 3d 56 95 33 bc
       -0.033222493 0.011365407 0.03990834 -0.010960897
000240 29 53 ef 3b c2 6b 07 3c cc 78 f9 bb eb 0f 13 3c
       0.0073036146 0.008265438 -0.007613277 0.008975963
000250 65 aa c6 bc 44 87 de 3c 5b c4 a8 3d 65 34 76 3b
       -0.024251172 0.027164109 0.08240577 0.003756785
000260 ab 40 a3 bd 83 5c bb 3c f7 d9 9e bc 16 57 2f 3d
       -0.07971319 0.022871261 -0.019391043 0.04280766
000270 62 52 4f 3d 07 d6 3b 3d 16 4e 5d bd a0 ea 4e bd
       0.050615676 0.04585841 -0.054029547 -0.050516725
000280 54 5f e4 3c 6e 58 ec bb b7 4f 82 3c 06 71 f1 bb
       0.027877487 -0.00721269 0.015907152 -0.00736821
000290 c7 b7 de bc 27 10 4b 3d 91 9a 9e 3c 5c 77 06 3d
       -0.027187241 0.04957595 0.019360812 0.032828674
0002a0 84 ea 13 bd 28 49 39 bc 66 ba 22 bd a0 2e 70 bd
       -0.036112323 -0.011308946 -0.039728545 -0.058638215
0002b0 dd 47 9d 3d 25 be 8c 3d 6e 0c a9 bd 6d 2e 9e bc
       0.076797225 0.06872205 -0.08254324 -0.019309247
0002c0 f5 e4 09 3d ce 85 0e bd 22 21 24 3a a3 bc aa 3d
       0.033665616 -0.034795575 0.00062610407 0.08336761
0002d0 4b f1 fe 3c ba 4e 87 bb eb b5 ab bd 03 40 90 bc
       0.031120917 -0.004129258 -0.083843075 -0.017608648
0002e0 fa 9d 73 bd 01 71 b3 bd 1c eb b1 3c a3 ef a8 bd
       -0.05947683 -0.08761788 0.021718554 -0.08248832
0002f0 26 15 a2 bd d3 87 9b bc bc 9c 3d bd 38 f6 a7 bc
       -0.0791419 -0.018985664 -0.04629205 -0.020503148
000300 f8 94 66 3d 7e e2 4f 3d 5d f3 ac bd 06 15 85 3d
       0.05629441 0.05075311 -0.08444855 0.064981505
000310 11 29 80 3c f9 74 0d 3d 87 d3 84 bd 17 2b f4 bc
       0.015644582 0.034535382 -0.06485658 -0.029805703
000320 8a 75 6d 3d 4a 1b 3b 3c 1a ea 8f bc 2d 86 2c bd
       0.057973422 0.01142008 -0.017567683 -0.042120147
000330 5a 58 ad 3c 5a 7c ae bd df 9a a8 bc 20 8a 60 bc
       0.021160293 -0.08519812 -0.02058166 -0.013704807
000340 fb 22 2b bd 33 2e 11 bd fe 49 8d bd af ea 29 3d
       -0.041781407 -0.03544445 -0.068988785 0.041483577
000350 11 6d 8e 3d b8 a3 c7 3c 83 57 74 3d 03 5c 27 bd
       0.069543965 0.02437006 0.05965377 -0.040859234
000360 21 44 a6 bb fe da 0f bd 6e 99 33 bd 90 02 7f bd
       -0.0050740396 -0.035120957 -0.043847494 -0.062258303
000370 7b 0c 63 3d 5a 17 3e 3d 79 bc 4f 3d ac 6c 7e 3d
       0.055431824 0.04640899 0.05071685 0.062115356
000380 66 47 36 bd 57 29 a8 3b 5e 2b 93 3b f4 5b 7c bd
       -0.044501685 0.005131881 0.0044912538 -0.06161113
000390 fd 5c d8 bc ae 99 1f 3d 30 93 78 3d 27 bf 59 3d
       -0.026411528 0.03896492 0.060687244 0.053160813
0003a0 a7 82 f9 3c d0 ae 69 3d 2f 17 0e bd 2e 13 27 bd
       0.030457808 0.05705148 -0.03469008 -0.040789776
0003b0 09 a1 86 3d 22 c7 7e 3d 2a a1 5c 3b aa 26 06 bd
       0.06573684 0.062201627 0.0033665397 -0.032751717
0003c0 65 6f 46 bc a2 7e 55 3d 51 25 1c bc fb 8c 3b bd
       -0.012111519 0.05212272 -0.009530381 -0.045788746
0003d0 81 34 8a 3d e4 5b 8d 3d 26 a6 4d bc 0d d0 6a 3d
       0.067482956 0.06902292 -0.01255182 0.05732732
0003e0 e0 4e 62 3d 07 39 ea bc 2d d1 48 3d 7a f5 67 bc
       0.055251002 -0.028591646 0.04902761 -0.014157647
0003f0 41 36 68 3d 27 fa 9c bd 95 51 86 bd 4a 1b cb 3c
       0.056692366 -0.076649 -0.06558529 0.024793286

encoder.gru.bias_ih_l0_reverse f4 [384]
000000 3e 43 50 3d 91 1e 5f bc ee e5 89 3b 2c 22 72 bd
       0.050845377 -0.013618127 0.004208318 -0.05911462
000010 38 b5 93 bd c8 26 b1 bd 3d e3 39 3c 53 1c d4 3c
       -0.07212299 -0.08649975 0.011345682 0.025892412
000020 0a 01 d0 bc c9 e4 35 bd 0e ec 87 3d 9a 5a e4 bc
       -0.02539112 -0.04440764 0.06636821 -0.027875233
000030 5c 79 81 3d 9e 19 6c 3b 05 a4 0f 3d 58 bb 9a bd
       0.063219756 0.0036026011 0.03506853 -0.07555264
000040 9c da aa 3d ef a1 61 3c 07 f8 9c 3c 9b 23 27 bd
       0.08342478 0.013771518 0.019161237 -0.04080544
000050 36 21 8b bd a8 e7 d3 bb d7 e4 85 bd b6 25 e4 bc
       -0.06793444 -0.0064668246 -0.06537788 -0.027850013
000060 ca 08 5e 3d b1 9e 10 3d ff 69 a2 3d 1b 1c 3d bd
       0.0542076 0.03530759 0.079303734 -0.04616938
000070 53 db e8 3c 2b 42 22 3d a9 f4 a3 3d 4e 13 05 3d
       0.028424894 0.039613884 0.080056496 0.032489114
000080 2e 5d 45 bd 1a 57 f6 3c 0a 17 b9 3d 7d 5a a7 bb
       -0.048184566 0.03007083 0.090375975 -0.0051072226
000090 c2 dc 87 bd 36 32 17 3d 27 7f 48 3d 0a b4 38 bd
       -0.06633903 0.03691312 0.048949387 -0.045093574
0000a0 55 72 b2 3d 21 8a 60 3d 58 1a 6d bc 93 85 9d bd
       0.08713213 0.05481923 -0.014471613 -0.07691493
0000b0 65 6a 81 3d 78 e9 aa bd 9b 96 31 3d 5a 37 6e bd
       0.06319121 -0.08345312 0.04335652 -0.058158256
0000c0 c3 c6 7d bd 14 79 e3 bc 0b fc 38 3d 0c 7c 20 bd
       -0.061957132 -0.027767695 0.045162242 -0.0391808
0000d0 40 a4 6a 3d bf 3a 9f bd bb 14 61 3d 4f 96 6b bd
       0.057285547 -0.07774877 0.05495141 -0.057516392
0000e0 fd d5 8c bd 64 db 85 bd b0 8b 2b 3d 7b 80 94 bd
       -0.068767525 -0.06535986 0.041881263 -0.07251068
0000f0 03 87 77 bb 36 81 b5 39 22 cb a2 3c 6a cf 86 bd
       -0.0037769682 0.0003461928 0.019872252 -0.0658253
000100 52 18 a5 bc cc c5 60 3d d1 d8 54 bd 0d 4e 08 bb
       -0.020153198 0.054876134 -0.051964585 -0.0020798475
000110 db 92 ac 3d 1f a3 0e 3b 92 52 82 3c 2b 24 a8 bd
       0.08426448 0.0021764708 0.015908513 -0.082100235
000120 76 71 04 bc dc c5 fe bb 94 f3 91 3d 26 31 62 3d
       -0.008083692 -0.0077750515 0.07126537 0.055222653
000130 87 7b 83 3c 64 6e 87 bd 75 e0 8d 3d c0 da 35 bd
       0.016050113 -0.06612852 0.069275774 -0.04439807
000140 32 4c b3 3d b9 cf 33 bd 2a 71 1c 3d e4 7c 4f 3d
       0.087547675 -0.04389927 0.03819386 0.050656214
000150 2b a8 28 bd d3 9b fc bc f7 dd 7c bd 00 85 19 bd
       -0.041176002 -0.030836022 -0.06173512 -0.037480354
000160 01 d9 2b 3c 86 8b 85 3b 1f 5b d4 3c 38 1d a1 bc
       0.0104887495 0.0040754704 0.025922356 -0.019667253
000170 8e 77 bf 3c eb ad 1c 3d 89 ab c8 bb 58 9e 7e 3d
       0.023372438 0.0382518 -0.006123964 0.062162727
000180 a8 3a 08 3d d7 6f 3d 3c 24 be 1b 3d 1b f0 a6 3d
       0.033259064 0.011562309 0.03802313 0.08151265
000190 5e b9 f8 3c 92 85 3d 3d f2 9f 94 3d f9 ae 69 bd
       0.030361827 0.04626996 0.0725707 -0.057051633
0001a0 f0 1b 14 3d be 19 20 3d ac 64 16 3c a3 b0 4c bd
       0.036159456 0.03908705 0.0091792755 -0.04997314
0001b0 5f e9 6f 3d 93 ef 81 3d b4 74 47 3d 72 19 53 bd
       0.05857217 0.06344523 0.04869528 -0.05153794
0001c0 df bc 2b bd 2e 94 e1 bb 15 7a 09 bd 5c e8 ab bd
       -0.04192817 -0.0068841195 -0.033563692 -0.083939284
0001d0 48 8e ae bc a8 3d 8e bc 73 61 9c bd 18 79 9f 3b
       -0.02130808 -0.017363384 -0.076357745 0.0048667304
0001e0 06 07 ab bc 69 38 a0 3c 47 46 93 3d 13 43 1a 3d
       -0.020877372 0.019558148 0.07191139 0.037661623
0001f0 bc 31 87 3d d0 80 94 3d fc 80 3f 3d ef a8 30 3d
       0.06601283 0.072511315 0.04675387 0.043129858
000200 68 3c 89 bd 7b 7a a5 3c cf 26 83 3c b9 bf ac 3d
       -0.06700975 0.020200005 0.016009716 0.08435006
000210 11 7a d5 bc c1 d7 05 3d 1c 21 30 3d 32 4d 3e bb
       -0.026059182 0.032676462 0.043000326 -0.0029037711
000220 13 24 ca 3c 34 81 83 3b 2d 02 3e bd 2f a1 60 bd
       0.024675405 0.004013205 -0.046388794 -0.054841217
000230 46 24 9c 3d 1e 71 83 bd bd d0 13 bd c7 c5 4e 3d
       0.07624106 -0.0641806 -0.03608774 0.050481584
000240 1d c7 15 3d 95 15 cc 3b 98 9a b0 bb 0d b8 2b bd
       0.036566842 0.0062281587 -0.0053895228 -0.04192357
000250 86 35 e9 bc c2 1e 86 3b 8a 1f 13 3b 38 b4 1b bd
       -0.028467905 0.004093022 0.0022449219 -0.038013667
000260 57 ba 42 bc f3 b7 90 bd 92 e3 3d bd 0a 59 54 3c
       -0.011885247 -0.070663355 -0.046359606 0.012960682
000270 5b d4 85 bd bc e8 86 3c 3e 81 80 3d 31 f1 49 3d
       -0.06534644 0.016468398 0.06274651 0.049302284
000280 c8 b2 5a 3d 6e 74 1a bd e3 f4 72 3d 47 de 0a 3d
       0.053393155 -0.037708692 0.059315573 0.033903386
000290 6e b9 3a bd 62 dd 5c 3d bc 43 44 bd 04 21 c7 3c
       -0.045586996 0.053922065 -0.04791616 0.024307735
0002a0 ac 77 4b bd 51 7a ad bd b5 9e 83 3c 0a 49 8b bd
       -0.049674675 -0.08470596 0.016066888 -0.068010405
0002b0 67 b5 a4 3d d3 28 c0 3c cc ea 10 bd 88 72 43 3d
       0.08042412 0.023456967 -0.03538017 0.047716647
0002c0 b3 97 21 bd 09 fe 99 3c 77 09 bb 3d dd ae 07 3d
       -0.039451312 0.018797891 0.09132665 0.033125747
0002d0 0c 04 a7 3d ca ef 82 3d be ae 97 3d b0 11 a6 bd
       0.08155069 0.063933924 0.07406376 -0.081088424
0002e0 2e dd 9d bd 81 40 f5 3c e5 8b 6d bc 42 17 27 bd
       -0.07708202 0.029937984 -0.0144986855 -0.040793665
0002f0 6e 51 8c 3d 39 4e 5a bd 1d fd 9a bc ca bf 67 bd
       0.06851469 -0.053297255 -0.018919522 -0.05657939
000300 08 83 09 3b ec 05 6d bb 58 70 a2 bd d5 95 35 bd
       0.0020982642 -0.003616686 -0.07931584 -0.044332344
000310 04 24 a1 bd a5 a1 9f 3d f5 68 1e bc 54 b1 4e bd
       -0.078681976 0.07794503 -0.009668578 -0.050462082
000320 9b 2e 90 bd 9a 27 b8 bd 38 e8 8c 3c 88 ca 41 bc
       -0.07040139 -0.089919284 0.017200574 -0.011828072
000330 d9 63 30 3d 41 cc 99 ba 1e 0b 74 3d d1 58 50 bc
       0.043063972 -0.0011733846 0.059580915 -0.012716488
000340 50 29 a5 bd f6 f8 9e 3d bf 53 b5 3c 4b 12 7c bd
       -0.0806452 0.07762329 0.02213466 -0.061540883
000350 c6 77 60 bd 1a 91 08 3d a5 48 51 bd ce 07 96 bd
       -0.054801725 0.033341505 -0.05109467 -0.073257074
000360 fa bc ac bd 0e 06 aa 3d 2b c5 8d 3d b2 bb 0a 3d
       -0.08434482 0.08301936 0.069223724 0.033870406
000370 1c d0 b7 3d 8a b3 f9 3c 9c 72 8d bd 28 b6 08 3c
       0.089752406 0.030481119 -0.06906626 0.008344211
000380 b3 79 6c 3d e0 e0 53 bc f3 86 a6 bb 23 2a 60 bc
       0.05773325 -0.012932032 -0.005082005 -0.013681921
000390 26 43 b3 bd e7 24 b8 3b f6 4c 0f 3d 7d 86 1d 3d
       -0.08753042 0.0056196335 0.034985505 0.038458336
0003a0 e0 c8 cf bb 7b 02 a4 bd f4 c8 be bc 6a 0b 92 3d
       -0.006341085 -0.080082856 -0.023289181 0.07131083
0003b0 0d fe 97 3d c4 94 aa bd 35 e7 f4 bc 6b 1d 44 bc
       0.07421503 -0.08329156 -0.029895404 -0.011969904
0003c0 f2 8b 60 3d 36 37 8d 3d 96 93 ea ba 82 9e 37 3d
       0.054820962 0.06895296 -0.0017896767 0.0448289
0003d0 93 a1 97 bc 39 ee 7b 3d 90 a6 07 bd 86 e5 0c 3d
       -0.018509662 0.061506484 -0.03311783 0.034398578
0003e0 db c3 ab 3d 45 17 6e 3d d2 d6 ad bc ae 27 9d 3d
       0.08386966 0.05812766 -0.021220598 0.07673584
0003f0 6c 84 1e bd ed 44 93 bd c4 67 22 bd 19 34 47 bd
       -0.038700506 -0.07190881 -0.03964974 -0.04863367
