my_latent_sde/sdes/best_sde_0.pth (torch, 369909 bytes, 22 tensors)

encoder.gru.weight_ih_l0 f4 [384, 2]
000000 41 bc 91 bd dc be ee bc 5d 85 85 3d ca 80 6d 3d
       -0.07115985 -0.029143743 0.06519578 0.05798415
000010 9a 80 60 3d 56 c4 39 3d 09 f5 80 3c 06 71 e5 bc
       0.054810144 0.045353256 0.015741842 -0.028007995
000020 d8 4f 3e 3d df 56 d7 bd 64 2b a6 3c 2a 96 d0 bd
       0.046462864 -0.10514616 0.020284362 -0.101848915
000030 0e 3d bd 3c 88 6e a4 3d 05 31 5d bd f0 d6 08 bd
       0.023100402 0.08028895 -0.054001827 -0.033408105
000040 45 95 de bb 08 c0 5e 3d 45 b9 77 bd 0f 61 98 bd
       -0.0067926967 0.054382354 -0.06047942 -0.074403875
000050 2b 3d 44 3d 45 6f 23 3d 13 37 70 3d a0 a0 f2 bd
       0.047909897 0.039901037 0.058646273 -0.11847043
000060 3b 31 b1 3d 5e af 5d 3d fd 3a 7c bd 2b 12 d1 bd
       0.08651968 0.05412232 -0.061579693 -0.102085434
000070 e7 61 bc 3a a6 8f 69 3d ed 63 f4 3c 27 78 58 3d
       0.0014372439 0.05702176 0.029832805 0.05284896
000080 2c e9 3e bd e4 46 0e bd 04 ef 9d bc b2 30 86 bd
       -0.04660909 -0.034735575 -0.01927901 -0.06552257
000090 55 16 0f 3d 09 8d d4 bd 7b e8 6c bd c1 2c 32 bc
       0.034933407 -0.10378463 -0.0578389 -0.010874928
0000a0 17 6e 6f bd 68 1b 4f 3d 57 18 59 3d cd 91 8d bd
       -0.0584546 0.050563246 0.053001728 -0.06912575
0000b0 89 90 cc bd 43 63 e6 bd 06 9e 34 3d 53 3c 63 3d
       -0.099885054 -0.112494014 0.044096015 0.05547745
0000c0 ec 39 8c 3d 2d 52 0a 3d 3d c0 55 bd 5a 07 8f 3d
       0.06846985 0.033769775 -0.052185286 0.06983824
0000d0 07 4b 8b 3d 6f 78 cb 3d ef 21 94 bd 2d 51 62 bc
       0.0680142 0.0993508 -0.07233035 -0.013813299
0000e0 18 c5 8a 3c 0a b1 56 3d 8f 5e e9 bb 57 cc b9 bd
       0.016939685 0.05241493 -0.007121868 -0.09072178
0000f0 23 95 af 3d d6 f2 c4 bd d0 86 4e bd d5 bd 79 bc
       0.085733674 -0.0961663 -0.050421536 -0.015243013
000100 67 71 b5 bd 9f 9f a1 3b 06 6a 6b 3d fa a5 b3 bd
       -0.088595204 0.0049323584 0.05747416 -0.08771892
000110 e9 6f fd bc 18 16 0b bd 84 11 90 bc ad 62 f3 bc
       -0.030937152 -0.033956617 -0.017586477 -0.029710138
000120 48 4b a3 3d 07 f9 3d bd a7 64 ac bd a7 d5 dd bd
       0.07973343 -0.04638007 -0.084176354 -0.108317666
000130 59 c4 7a 3c 75 77 05 bd 23 fb 76 bd b2 4e c6 bd
       0.015305602 -0.032584626 -0.060298096 -0.09682979
000140 d7 e6 45 3d b0 56 88 bd 0e ff a5 3d df de ad bd
       0.04831585 -0.06657159 0.081052884 -0.08489775
000150 65 69 db bc e7 00 6a bd 3b c8 a3 3d 7b b1 9d 3d
       -0.026783654 -0.057129767 0.07997175 0.07699867
000160 d5 9d 5d bd 85 ce 5b 3d 1d 51 82 3d 28 97 12 bc
       -0.0541056 0.05366375 0.063631274 -0.008947171
000170 34 02 42 3d 05 7e 43 bc 80 13 71 3d 3a 42 29 bd
       0.047365382 -0.011931901 0.058856487 -0.041322924
000180 c3 ce d7 3d ff 8e ca 3c c9 7f 8a bb ba bf 8c 38
       0.105374835 0.024726389 -0.004226659 6.711432e-05
000190 97 0c 1e bc 12 45 ed bc 41 16 46 bd e7 f0 e9 3c
       -0.009646556 -0.0289636 -0.048361067 0.028557254
0001a0 de 3b 51 bd a8 4e b1 bb 35 66 38 bd 77 8f 6e bc
       -0.051082484 -0.005410988 -0.045019347 -0.014560572
0001b0 b0 16 8b 3d ee e7 0e 3c c8 9b 90 3d 22 5d 89 bd
       0.06791437 0.0087222885 0.07060963 -0.06707217
0001c0 88 0a b3 bc 05 d1 b4 bd 12 7d c9 bc 10 14 5b bd
       -0.021855608 -0.0882893 -0.024595771 -0.05348593
0001d0 06 a9 92 bd 8d 74 a9 bc a1 cb 0e 3c 6e 9f 87 bd
       -0.07161145 -0.020685459 0.008715541 -0.06622206
0001e0 fe 3e f4 3c 5e e1 3c 3d 37 e5 26 bd 57 3a bf bd
       0.029815193 0.046113364 -0.04074594 -0.09337299
0001f0 1f cd 59 3d f4 3d 79 bd 4a 4e 73 bd 2d f1 34 bc
       0.053174134 -0.0608501 -0.059400834 -0.011043829
000200 8f 3e 17 bc dc c0 9f 3c c6 af 01 3d 86 67 6b bd
       -0.009231224 0.019501142 0.03166177 -0.057471775
000210 7d b4 a1 bd db bb 91 3c 5b 00 0b 3d f0 b3 af bd
       -0.078957535 0.017789772 0.033935886 -0.08579242
000220 f3 6d 1b 3d 87 c4 b3 bd b4 81 48 bd bc 2d 68 3c
       0.037946653 -0.08777719 -0.04895182 0.01417106
000230 16 95 b0 3d 4c bd 96 3c b9 29 92 3d 87 a7 ee bd
       0.08622186 0.01840081 0.07136864 -0.11653047
000240 71 be 06 3d bf 15 02 bc 84 7a b8 bc 24 0b b1 bd
       0.032896463 -0.007939755 -0.022519358 -0.08644703
000250 41 b1 53 3b a2 58 2b bd 83 e8 c2 ba 2d 89 3f 3d
       0.0032301696 -0.041832574 -0.0014870319 0.04676168
000260 8b 1a 1a bd a0 16 c8 3c 34 64 8a bc 7a 41 92 bd
       -0.03762297 0.024424851 -0.016893484 -0.07141395
000270 86 ac d4 ba a6 b7 65 bb f6 60 8a 3d 14 b7 93 bc
       -0.0016225732 -0.003505209 0.06756775 -0.018031634
000280 2d 38 b0 3c e3 06 9b bd ce e4 ce bc 7c 99 a6 3c
       0.021511162 -0.07569673 -0.025255587 0.020336859
000290 de bd a2 bd 65 dd 55 3d 37 3f 91 3d 00 1b c3 bc
       -0.079463705 0.05221309 0.070921354 -0.023816586
0002a0 dd 1c af 3d c3 66 c4 bd 8a 08 6f bd e4 7d a2 bd
       0.08550427 -0.09589913 -0.058357753 -0.07934168
0002b0 75 e4 93 3c cc 42 78 bb 46 5d c3 3d 2f 8e 60 bd
       0.018053273 -0.003788161 0.09539275 -0.054823097
0002c0 42 62 c5 bd 07 fc a4 3c d9 96 97 3d f4 88 8c ba
       -0.09637882 0.020139707 0.07401819 -0.0010721968
0002d0 13 cf 06 bd b7 cb 52 3d 2f e7 d8 3d 0e d8 87 bd
       -0.032912325 0.05146381 0.1059097 -0.06633006
0002e0 e2 81 6b 3c c3 c8 3d bd 37 82 9c 3d fe 57 e5 bd
       0.014374228 -0.04633404 0.07642024 -0.11198424
0002f0 bf 16 88 bd 0b 77 f7 3b 27 0b a5 3c e4 a3 13 bd
       -0.066449635 0.007552033 0.02014692 -0.03604497
000300 48 0f 29 bd 04 6e 68 bd 7b 9e 55 3d 5e 99 f2 bd
       -0.04127434 -0.056745544 0.052153092 -0.11845659
000310 1a 03 5d 3d 60 54 ba bd 4a 22 b5 3d e0 f4 00 be
       0.053958036 -0.090981245 0.08844431 -0.12593412
000320 76 8d bc 3c 04 ba 86 3d e7 ef fc bc 1d 13 c9 bd
       0.023016673 0.065784484 -0.030876113 -0.09818099
000330 5c 77 96 bd df 1c 2c 3b 39 49 a9 3d d6 2d 25 bd
       -0.07346985 0.0026262326 0.08265919 -0.040326916
000340 3a af 60 bd 8f 98 5e 3d 77 66 b4 bc df b3 4e bd
       -0.05485461 0.05434471 -0.022021515 -0.050464507
000350 2f 16 26 3c 85 60 e3 bc e4 b9 94 bd 5b 65 f5 bb
       0.010137125 -0.027755985 -0.07262018 -0.007488889
000360 1f cb 93 bc 16 9e 0b bd ff ca 22 bd cb 56 15 bd
       -0.018041192 -0.03408631 -0.039744373 -0.036459725
000370 bd 57 1d 3d b9 24 e1 bd 76 2c 65 3d 77 0b e0 3c
       0.038413752 -0.109933324 0.055950604 0.027349217
000380 ae f8 95 bc 85 6e 39 3c 09 b8 b3 bc 0b 8e 49 3d
       -0.018307056 0.011317854 -0.02193834 0.04920773
000390 e9 4e 1c 3d b2 09 f0 3c 9c 82 25 bd 12 cc b9 3c
       0.038161192 0.029301498 -0.040407762 0.022680316
0003a0 c0 ff 02 bd 5c d4 bc bd ba d3 85 bd 75 d0 92 3d
       -0.031982183 -0.09220192 -0.06534524 0.07168666
0003b0 d8 e7 af 3d 81 8d c8 bc ed 32 fa bb 90 3d 26 3c
       0.085891426 -0.024481537 -0.0076354654 0.010146514
0003c0 79 9b 41 3d ac 7d b1 bd 68 65 c3 bc e8 a4 f4 bc
       0.04726741 -0.08666548 -0.023852065 -0.02986379
0003d0 51 e8 a4 3d 22 81 68 bd 8d 88 5c bd 35 72 15 ba
       0.08052123 -0.056763776 -0.053841162 -0.0005700917
0003e0 2b c1 b3 3c c9 65 3f 3d ba c7 87 3d 54 96 6d 3d
       0.021942696 0.04672793 0.06629892 0.058004692
0003f0 13 fb 9d bd b4 6e 8a 3d b7 35 c1 3b 3d d1 6a 3d
       -0.07713904 0.06759396 0.005896296 0.05732845

encoder.gru.weight_hh_l0 f4 [384, 128]
000000 62 cb cd bc b4 d6 93 bd 37 8b 9e bd 01 12 36 3d
       -0.025121395 -0.07218686 -0.07741397 0.044450764
000010 61 eb 43 ba a5 dc 7c 3c 54 c1 70 3c 74 ee 01 be
       -0.0007473734 0.015433465 0.0146945305 -0.12688619
000020 a7 d6 20 bd ff ac cb 3d 8f 25 2a bc 2c a6 41 bc
       -0.03926721 0.09945106 -0.010384931 -0.011819404
000030 b9 32 15 bd 67 c8 9f 3d 62 a5 15 3c 32 60 50 3c
       -0.036425326 0.078018956 0.009133669 0.012718247
000040 83 7a 81 3c 5e 7f db 3d ee aa 73 bc ae 30 5d bc
       0.015805488 0.10717653 -0.014872296 -0.013500376
000050 fc da b4 bd 14 9d c5 3d ac d0 b6 3d f1 60 87 bd
       -0.088308305 0.09649101 0.0892652 -0.06610287
000060 e4 cf c8 bb c8 ff 3c bd c2 46 d2 3c 9a 76 4d bc
       -0.006128298 -0.04614237 0.025668506 -0.012540484
000070 eb 09 a4 3c 88 d4 2b 3d 07 68 88 bd 5d 50 77 bb
       0.02002426 0.041950732 -0.06660467 -0.003773711
000080 9f d9 83 bd 66 ac dc 3d 26 08 8f bd e0 b1 b5 3d
       -0.06437992 0.1077507 -0.06983976 0.088718176
000090 bb 5d 5e bd 4f 9a 2f bc 1f dd 8b 3d 3c 82 1d bd
       -0.054288607 -0.010717942 0.06829285 -0.03845428
0000a0 7d 3c 0f 3d 08 2f 9c bd 35 a0 59 bd c9 0a 8a 3d
       0.034969795 -0.07626158 -0.0531313 0.06740338
0000b0 3f 69 a9 3d d0 6d 90 bd b4 ca c7 bc 18 04 f2 3d
       0.08272027 -0.07052195 -0.024388649 0.11817187
0000c0 96 2a 8b 3d 48 56 46 3b b9 ad ad bc f2 ed 76 bd
       0.06795232 0.003026383 -0.021201001 -0.060285516
0000d0 4b 88 7d 3d 4d 10 b6 3d 17 7b 3d bc b7 f5 c6 bc
       0.061897557 0.08889828 -0.011564991 -0.024287088
0000e0 52 8d 71 bb f1 24 10 3d c4 70 04 be d3 41 d3 bd
       -0.0036857915 0.03519148 -0.12933642 -0.10315289
0000f0 73 c5 a2 3b 69 d2 30 bd f0 23 ab 3d 6d b4 db 3d
       0.0049673854 -0.043169413 0.08356464 0.10727773
000100 b2 14 8d bd 21 0a 3b 3d b5 b9 d3 3b e6 87 12 bb
       -0.06888713 0.045663957 0.006461347 -0.0022358834
000110 83 5b b1 3c 69 3e 27 bc b5 45 55 3d ad 05 81 3d
       0.021650082 -0.010207751 0.05206843 0.06299911
000120 f5 45 01 3d aa dc 45 3d 2b 24 ea bd f7 1b f1 bd
       0.031560857 0.048306145 -0.1143268 -0.11772912
000130 98 2f 66 3c 22 05 b0 3d 1b 29 be 3d 1c d6 9f 3d
       0.014049433 0.08594729 0.09285184 0.0780451
000140 06 be 8d bd 3b 78 68 bd 00 01 9e 3d cf 29 da 3d
       -0.0692101 -0.056755286 0.077150345 0.106525056
000150 c0 26 fe bc 29 ee 93 bc 87 47 5c bd 22 c3 ab 3b
       -0.031024337 -0.0180579 -0.05377915 0.0052417675
000160 65 67 04 3e 0d 6c 7c bd a1 d9 db bd f9 1c 19 3d
       0.12930067 -0.061626483 -0.10734869 0.037381146
000170 ba 0a e0 3d 0e fd 68 3d 9d af b3 3d 60 25 e3 bb
       0.10939546 0.056881957 0.0877373 -0.0069319457
000180 4a db d8 3d d4 aa 64 3d 2f 65 9d 3d 31 bd 77 bd
       0.10588701 0.055826977 0.07685315 -0.06048316
000190 03 a6 db 3d 2a 61 b7 bc b1 8c 86 3d 73 bd a6 ba
       0.107250236 -0.022385199 0.065698035 -0.0012721255
0001a0 76 8e 2d 3d 33 a4 35 bd 9c bd 9b bd 03 b9 d0 bc
       0.04237219 -0.044346046 -0.076045245 -0.025478845
0001b0 41 e0 59 3d 8e 9f af 3c 15 87 83 3d 82 e7 73 3b
       0.05319238 0.021438386 0.06422249 0.0037216847
0001c0 17 e7 39 bd 50 44 b7 bb f5 00 c0 3d 93 70 d2 bc
       -0.0453864 -0.0055928603 0.093751825 -0.025688445
0001d0 8b 4f 85 3d 44 c9 ef bc a0 37 fc bc 9c d9 98 3d
       0.06509312 -0.029270776 -0.030788243 0.07463381
0001e0 40 4b bc 3d 8b 0c a2 bc 7e 27 d7 bc 2e 64 3e bc
       0.0919404 -0.019781372 -0.026263949 -0.011620564
0001f0 2f 25 bb 3d cb 73 cb bd 89 37 c4 3d 3f 85 ea 3d
       0.091379516 -0.09934195 0.09580905 0.11451196
000200 ad 93 79 3c 57 89 04 bd 1f 34 85 3d 65 4f 81 3d
       0.015232963 -0.03235754 0.06504082 0.063139714
000210 38 91 8a 3d e7 58 bd 3d a5 77 b7 3c 53 a5 97 bc
       0.067659795 0.092454724 0.022395918 -0.01851145
000220 66 c0 7c 3d 79 d6 6e 3c 0c 76 cd 3d ea e7 3a 3d
       0.061706923 0.014577501 0.10032281 0.045631327
000230 05 3b da 3c ef 7d 7a bc 42 6a b5 bd f8 08 80 3d
       0.02663947 -0.015288814 -0.08858158 0.06251711
000240 1b 2c 1b bc 22 2a 56 bc 94 ce 11 bc 04 cd 4b 3d
       -0.009470965 -0.013071569 -0.00889935 0.049756065
000250 13 56 03 3e 62 94 20 3d 10 48 90 bd 03 23 be 3d
       0.12825803 0.03920401 -0.07044995 0.09284022
000260 ac b3 a2 bc c1 13 97 bd 75 1f 2c 3d f7 5b 70 bd
       -0.019861065 -0.07376815 0.042022187 -0.058681455
000270 43 ee 93 3c fd 6d e6 3c 96 20 88 bb e8 ba 40 3d
       0.018057948 0.028128618 -0.004154275 0.047053248
000280 ad c9 c4 bc 19 ae a5 bd 71 77 62 3b 7a 04 13 bd
       -0.024021948 -0.08089847 0.0034556056 -0.03589294
000290 a2 38 e1 3c 26 22 86 bd ef ee 87 bb 27 71 6e 3d
       0.027492825 -0.06549482 -0.004148356 0.05821338
0002a0 83 87 cd 3d 78 6b 8c 3d ab 11 83 3d 6e cb 70 bc
       0.100356124 0.068564355 0.06399854 -0.014696939
0002b0 7f 16 c3 bd 1c bf c1 bc dc d7 e8 3d 4f 63 8d bc
       -0.09525775 -0.023650698 0.11369297 -0.017259268
0002c0 92 3c 26 3b 5a 0c ce 3d 46 c2 b2 3d 31 70 f6 3c
       0.0025365693 0.100609496 0.08728461 0.030082794
0002d0 c1 f8 bf 3d 8f 8b 6a 3d c9 7c 77 bb 7f 2e d6 3c
       0.09373618 0.057262 -0.0037763587 0.026145218
0002e0 91 c9 27 3d 18 dd cc bc 47 ba 11 bd 16 63 ba 3d
       0.040963713 -0.02500777 -0.03557804 0.091009304
0002f0 c3 b5 5c bc c4 60 ca 3d 04 b2 56 3d f4 21 93 3c
       -0.01347107 0.09881738 0.052415863 0.017960526
000300 ea 78 81 bc cb 85 93 3d fc ee 3a 3c 9a 1b 86 3d
       -0.015804727 0.07203253 0.011409517 0.06548233
000310 c1 a3 b9 3c 83 8a a9 bd 84 bf ab bd dd b7 1c 3d
       0.022661092 -0.08278372 -0.08386138 0.038261283
000320 6e 53 88 3c 35 da 01 bd 8e cb 0f bd 17 1e 87 bc
       0.016641345 -0.03170224 -0.035106234 -0.01649384
000330 79 30 13 bc a7 0f 04 3d f9 49 dd 3c c0 28 01 3d
       -0.008983725 0.03224149 0.027012812 0.031533003
000340 31 4d 46 bd 34 50 b4 bd 64 57 f4 bd 23 26 93 3c
       -0.04841346 -0.0880436 -0.11930731 0.017962521
000350 a5 a0 2e 3d 77 70 a2 3d 1d 90 d5 3d 83 e2 8f bd
       0.04263367 0.07931607 0.10427878 -0.070256256
000360 63 04 ed bd b7 e4 46 3d 2a 15 e7 bc 4a 72 3e bd
       -0.11573102 0.048557963 -0.028208334 -0.046495713
000370 d5 1e 4f 3c 0a b8 3e bd 7a b9 02 3d c5 64 99 3c
       0.012641628 -0.046562232 0.031915165 0.018724808
000380 37 31 ef bc 89 a4 8a bd ba 74 ca bc be 7b cc 3b
       -0.029198272 -0.06769664 -0.024713863 0.006240337
000390 64 35 7e bd a1 ba 6f bd df de 57 3d f1 b6 31 3c
       -0.062062636 -0.058527593 0.05270278 0.010846839
0003a0 89 ee a0 3b 8d 65 e3 3d 17 22 82 3d 39 59 b0 3d
       0.004911248 0.11103354 0.06354158 0.08610768
0003b0 97 f4 3c bc 81 c5 88 bd 1d 8d b7 bc e7 b2 1e bd
       -0.011532924 -0.06678296 -0.022406155 -0.038744833
0003c0 eb e0 0b 3d 65 1b 66 bd ea c5 fa bd 81 99 c1 3c
       0.034150045 -0.05617847 -0.1224478 0.023632767
0003d0 e2 6e ad bd 3a a6 3e bc f2 a6 11 bd a4 60 87 bd
       -0.08468415 -0.011636311 -0.035559602 -0.066102296
0003e0 0f 60 61 bd f0 12 83 bc 68 b7 b9 3d 0f dc 90 3c
       -0.05502325 -0.016000241 0.09068185 0.017683057
0003f0 9d 18 60 bd 87 ba 5a 3d 37 b7 80 bd 0b ee be 3c
       -0.054710973 0.053400543 -0.062849455 0.023306867

encoder.gru.bias_ih_l0 f4 [384]
000000 70 ea 0c bd 26 4b 89 3d 1d 4f 91 bd 46 34 2c bd
       -0.034403265 0.067037866 -0.07095168 -0.04204204
000010 f3 90 8f bd dc 78 4c 3d 6b 95 45 bd 4d 68 e0 bd
       -0.07010069 0.049919948 -0.0482382 -0.10957394
000020 ea 12 3e 3c cc 32 53 bd a5 1f 01 bc 1b 80 73 bc
       0.011601189 -0.051562116 -0.00788108 -0.014862086
000030 53 93 51 3c d6 3d 22 3d 5e a0 e6 3d 4c f9 3f bd
       0.0127914725 0.039609753 0.11261056 -0.046868607
000040 60 2e 46 3d cd 49 d7 3c e8 ae b0 3b 74 04 dc bd
       0.04838407 0.026280308 0.005391944 -0.10743037
000050 fb c4 0e bc 4d b7 5d 3d 21 e5 97 bc 8b d2 c1 3c
       -0.008713956 0.054129887 -0.018541874 0.023659965
000060 bb 19 16 3d d0 52 09 3c 70 a1 48 3b 81 01 af 3d
       0.036645632 0.00838156 0.0030613802 0.08545209
000070 5c 6c 01 bd b7 e1 1c 3d 98 37 b0 3d fb a7 05 bb
       -0.03159748 0.038301196 0.08604354 -0.0020394314
000080 54 7e 66 bd 15 75 dd bd 9e fa c9 bc 7e 5b 89 3d
       -0.05627282 -0.10813347 -0.024655636 0.06706904
000090 96 6c 23 3d cd bd 9b 3d 0e 6b 32 3d 11 41 5f bd
       0.039898477 0.07604561 0.043559127 -0.05450541
0000a0 fc 09 ac bd 36 de 62 bc 54 70 28 bd 34 ae 5b 3d
       -0.08400342 -0.0138469245 -0.04112275 0.05363293
0000b0 cf 02 a4 3d 83 2b ab 3c c0 bc 4d 3c fa 63 41 bc
       0.08008348 0.020894771 0.012557209 -0.011803621
0000c0 df d5 4d 3c 4d eb 9f 3d d2 5a 87 3c ea 51 32 bd
       0.012563198 0.07808552 0.016522799 -0.04353515
0000d0 d6 3d 98 3d fe 11 21 3b 59 a4 0f 3c 9d d9 59 3d
       0.07433669 0.0024577375 0.008767211 0.053186048
0000e0 74 59 0e bd d2 f6 d3 bd a2 c0 62 3d 4a ad 45 3c
       -0.034753278 -0.103498116 0.05535949 0.012065241
0000f0 5b ee 43 bc 9e 52 29 bd d1 e8 ed 3b b9 82 b8 3d
       -0.011958684 -0.041338556 0.00726042 0.09009308
000100 71 e4 aa 3d c7 39 fe bc 52 a3 1d 3b 18 d0 03 bc
       0.08344353 -0.03103341 0.0024053645 -0.008045219
000110 ea 0c 6c 3d 65 95 0f bc a2 33 9e 3d 8a 05 91 bd
       0.057629503 -0.008763646 0.07724692 -0.070811346
000120 0f f3 79 bd 9e 8b f5 3c 44 7c a2 bc 6b 13 03 bd
       -0.061022814 0.029973801 -0.019834645 -0.03200094
000130 e9 18 b6 bc b3 b0 ec 3c 75 79 84 bd 77 c4 63 3c
       -0.022228675 0.02889285 -0.064684786 0.013901821
000140 67 be d1 bd 52 32 80 3d 9c eb ac 3c a7 7d 0b 3d
       -0.102413945 0.06259598 0.021108441 0.03405538
000150 55 ef 16 3d 56 29 ab 3d 5c 84 07 bc 34 ff c8 3d
       0.03684934 0.083574936 -0.008271303 0.09814301
000160 5c 3b 02 3c 74 d8 4a bc 61 3d 23 3c ba 10 97 3a
       0.007948723 -0.012380708 0.009963364 0.0011525371
000170 a4 a6 99 bd 13 02 77 bd c7 89 3f 3d 7d a4 80 bd
       -0.07502487 -0.060304713 0.046762254 -0.06281374
000180 5a 47 73 3d c2 34 88 bd 05 6d 28 bc 36 7a 82 bd
       0.059394218 -0.06650688 -0.0102798985 -0.06370966
000190 c1 e1 f9 3d 0c 4f 5a 3c ea 4b a8 3c 18 d0 ce bd
       0.12201262 0.01332451 0.020544011 -0.100982845
0001a0 c0 7c 88 3a e7 ea fb bc e7 7a ce 3d 5e ad 6c 3c
       0.0010413155 -0.030751659 0.100820355 0.014445631
0001b0 ec 62 91 3d 3d 50 88 3d f5 1c cd bd cc 26 c3 3c
       0.07098946 0.06655929 -0.10015289 0.02382221
0001c0 48 ba cc 3c b9 58 94 bd 3b 60 61 bd d5 4b 15 bd
       0.02499117 -0.07243485 -0.055023413 -0.036449272
0001d0 97 10 cc 3c ab 73 1a 3d c9 72 4c 3d 11 a4 97 3b
       0.024910254 0.037707966 0.049914155 0.0046277125
0001e0 5b a9 1a bc 93 2e b8 bd 87 d1 dc ba a0 42 b1 3d
       -0.009439792 -0.08993258 -0.0016847112 0.08655286
0001f0 57 94 19 bd e3 8f 73 3d a9 67 a0 bb 27 95 b6 bc
       -0.037494984 0.059463393 -0.0048951698 -0.022287918
000200 2f e4 55 bd 57 1b df 3c 01 9b 3f bd d0 03 ea bc
       -0.052219566 0.027234716 -0.046778683 -0.028566271
000210 e2 e7 fb 3d 8a c3 8c 3d 99 73 1c 3d c7 bc b4 3c
       0.123000875 0.068732336 0.03819618 0.022062672
000220 2b 6b 21 bd 94 2c 0c 3e 57 32 d5 bb cf 84 9e bc
       -0.039408844 0.1368888 -0.006506245 -0.019350437
000230 30 71 00 3e d8 48 d2 3d d6 9a f0 3d 4d 17 27 3d
       0.12543178 0.102678 0.117482826 0.040793706
000240 a6 be 0c 3e 54 d9 ba bd f0 24 c9 3c 37 db 19 bd
       0.13744602 -0.09123483 0.024553746 -0.037562575
000250 36 66 e2 3d 79 bf 06 3e 82 c3 4e 3b df ed 73 bd
       0.110546514 0.13158979 0.0031549637 -0.059553023
000260 06 a0 00 3e 55 4b 05 3d b2 61 46 3d 96 93 8a 3d
       0.12561044 0.032542545 0.048433013 0.06766431
000270 2b ad 71 3d 75 26 0c 3e 7a 24 e1 bc 51 8a a9 3d
       0.059003036 0.13686545 -0.027483214 0.08278335
000280 62 7e 28 3d c9 e0 be 3d e8 2f 61 3d 8a d6 21 3d
       0.041136153 0.09320218 0.054977328 0.03951124
000290 eb f7 9c 3d 28 fc 8b bb 53 f8 0c 3d 71 da b0 bc
       0.07664474 -0.0042720027 0.034416508 -0.021588536
0002a0 d8 05 14 bc 88 06 a2 3d 2e 32 b9 3c 66 2e f8 3d
       -0.009034596 0.07911402 0.022606935 0.12118225
0002b0 04 6b 85 3d 8a 0d 32 3b 7d 96 ca 3d 54 cb f1 3b
       0.06514552 0.0027168714 0.098919846 0.007378975
0002c0 9a c0 94 bb ce b3 07 3e fd ef ea 3d 94 1b 7c 3d
       -0.0045395615 0.13252184 0.114715554 0.061549738
0002d0 6f 25 7f 3c 7b ac 8b 3c a2 45 ee 3d 2a 09 01 bc
       0.01557289 0.017050019 0.11634375 -0.00787572
0002e0 3d 4a 9d 3d af 59 09 3d ad 01 10 3e d2 ee 95 3c
       0.076801755 0.033532795 0.1406314 0.018302355
0002f0 db 87 4b 3c 31 0d 28 bc 3f d1 20 3c af 84 6c 3b
       0.012422527 -0.010257051 0.009815513 0.0036089828
000300 32 2d 4a 3c 74 2a f7 bd 88 d2 bd 3c 63 84 70 3d
       0.012339877 -0.12068644 0.023171678 0.058720004
000310 4a 4a fe 3d cf 14 85 bc 6b a4 ed 3d 9f 70 65 3d
       0.12416513 -0.016245274 0.11603626 0.056015607
000320 14 92 71 3c 53 65 0f 3e bb 9a fb bc 59 18 b2 3d
       0.0147443 0.14003496 -0.03071343 0.0869605
000330 d6 c2 94 bc 4c d4 43 3d ce e8 eb bc 65 29 ca 3d
       -0.018159311 0.047809884 -0.028797533 0.09871177
000340 cb 35 e4 bc 26 18 f4 3c 94 1c 2b 3c e0 84 02 3e
       -0.027857682 0.029796671 0.010443825 0.12746
000350 98 24 94 3d 15 72 a0 3d f4 39 5b ba 0b 9c 0f 3e
       0.07233542 0.078342594 -0.00083628227 0.1402437
000360 ff 13 b3 3d a4 79 46 bc e3 be aa 3d 6c 15 7a 3d
       0.08744048 -0.012113962 0.0833719 0.061055586
000370 a5 c0 f0 3d 2f 4a 25 3d 58 3a f9 3b 24 7c 5f bc
       0.11755494 0.04035395 0.007605832 -0.013640437
000380 f7 d8 98 3d 50 46 67 3d 6e 4e 23 3a a3 eb 34 3d
       0.07463258 0.05646354 0.00062296435 0.044170033
000390 7f 02 f3 3c f4 53 a3 3d c4 34 90 bc 90 b3 be bd
       0.029664276 0.07974997 -0.017603286 -0.093115926
0003a0 4f c8 95 3d 7c 21 c7 ba 36 53 a3 3d 64 b7 3f bc
       0.073135965 -0.0015192474 0.079748556 -0.011701439
0003b0 f9 91 ce bc fa 39 b5 bc 4c ca 86 3d 23 83 9b bd
       -0.02521609 -0.022122372 0.06581554 -0.07593372
0003c0 44 c9 8b 3d 29 f7 a9 3d 63 7a c1 3d eb f6 b0 3d
       0.06825498 0.08299095 0.094471715 0.08640846
0003d0 9e bd 54 3d 18 d9 3b 3d 45 86 4e 3d 0d d9 97 3d
       0.051938646 0.045861334 0.05042102 0.07414446
0003e0 61 10 de 3c 7c d3 79 bd 25 3a 63 3d e1 45 b4 bb
       0.02710742 -0.060992703 0.055475373 -0.0055014943
0003f0 17 45 3a bd c1 14 00 3d 2a 89 63 3a 69 16 b2 3d
       -0.045476045 0.031269792 0.0008679802 0.08695681

encoder.gru.bias_hh_l0 f4 [384]
000000 36 64 b2 3d d5 6a ea 3c 56 9d 67 3d 2d f6 22 3c
       0.0871052 0.028615395 0.05654653 0.009946388
000010 cf 64 90 3d a2 9d 98 3c ab 89 96 bd f6 b5 ad bd
       0.07050478 0.018629853 -0.07350477 -0.08481972
000020 14 85 a9 3d 5e 49 74 3d 30 fd 42 3d bc de a1 3d
       0.08277336 0.05964028 0.04760474 0.07903811
000030 0c f5 a7 bd bd 37 b7 3d 41 e7 85 3d 4c f0 a2 bb
       -0.08201036 0.08946178 0.06538249 -0.0049724933
000040 a9 c2 4a 3c 1d f7 fe 3d b7 0d 0e 3d b5 8c 6d 3d
       0.012375512 0.12449477 0.03468105 0.057995517
000050 96 84 1b bd 8d 12 24 3c c0 73 ae bc f9 fe 13 b9
       -0.03796824 0.0100141885 -0.021295428 -0.00014113997
000060 0a 34 96 bd 6c c0 9f 3c 52 b2 40 bd b5 b8 d2 3d
       -0.073341444 0.019500934 -0.04704506 0.10289136
000070 6f af 8c bd 27 c0 87 bd f9 30 84 3d 98 d7 fd bc
       -0.06869399 -0.06628447 0.06454653 -0.030986592
000080 a0 8a 4c bd 49 c2 cb bd 87 4c 3a 3d ea f7 b1 bc
       -0.04993689 -0.09949166 0.04548314 -0.02172466
000090 59 eb a2 bd 64 94 7c bd 49 e8 5b bd 61 3c 21 3d
       -0.07955045 -0.061664954 -0.05368832 0.039364222
0000a0 ea 11 2d bd 63 b4 a5 bc af af f4 3d bc 86 5c bd
       -0.042253412 -0.020227617 0.119475715 -0.05383943
0000b0 49 ba 8e bd 78 99 88 bd ce 8a f8 39 e8 07 2c 3c
       -0.06969125 -0.06669897 0.00047405664 0.010499932
0000c0 93 1b 12 bd 16 17 9d bd ae 0a 37 3d 5d 71 cb bc
       -0.035670828 -0.07670419 0.04468792 -0.02483433
0000d0 74 a3 80 bd f4 44 34 bd 87 28 a4 bd 08 36 d9 3c
       -0.06281176 -0.04401107 -0.080155425 0.026515022
0000e0 33 51 4f bc 53 d2 a8 bd 8a b3 3e bd 15 f4 28 bd
       -0.012653637 -0.08243241 -0.04655794 -0.0412484
0000f0 f9 a3 93 bd 3f 75 74 3d 1f f8 45 bd 08 d0 c7 3d
       -0.0720901 0.059682127 -0.04833233 0.09756476
000100 5d 2e 10 3d de 2c 4f bd f1 55 25 3d dd bc 25 3b
       0.035200465 -0.050579898 0.040365163 0.0025289573
000110 3e 88 55 3d ab 5b 77 3c a0 4d b7 3d ad 5a 23 3b
       0.052131884 0.015097539 0.08950353 0.0024925873
000120 0c 55 d7 bc 8a cb 68 3c 4d 9a bc 3d 65 c1 70 bd
       -0.02628567 0.014208684 0.09209118 -0.058778185
000130 59 dd 13 bd e5 54 93 bd a8 6f 8f bc c3 aa ba 3d
       -0.036099765 -0.07193927 -0.017509297 0.091146015
000140 24 75 9b bd 3b 54 b7 3d d1 cf 57 bc 6f 39 bc 3d
       -0.07590702 0.089516126 -0.013172106 0.09190642
000150 3c 17 4f bd 74 b1 35 3d ec 3f 59 3d 9e 2c a7 bb
       -0.050559267 0.044358686 0.053039476 -0.0051017543
000160 8b c0 08 3c d4 6b 39 3c 5f 8d 81 3d 25 fb 04 3d
       0.008346687 0.011317212 0.063257925 0.032466073
000170 51 d9 71 bd 68 c2 fb 3c 42 86 b7 3d 40 31 a8 3c
       -0.05904514 0.030732349 0.089611545 0.020531297
000180 f8 00 81 3b 30 a0 17 3c f4 75 03 3d 46 1c 77 bd
       0.003936883 0.0092545 0.03209491 -0.060329698
000190 ab c2 67 3c c2 2e 85 bd 6f 88 b1 ba 0c c8 1a bb
       0.014145534 -0.06503059 -0.0013544689 -0.0023617772
0001a0 53 00 0b 3d 2d cb 53 3c 8e f8 1c bc 15 c3 a2 3d
       0.033935856 0.012926859 -0.009580744 0.07947365
0001b0 a8 64 ca 3d 4b ed 5e bd 91 15 3b 3d 09 df 9c 3d
       0.0988248 -0.05442552 0.045674864 0.07659728
0001c0 e3 ce fb bc 9b 20 ce bd 1e 8d 3f bd ce 36 89 bd
       -0.0307383 -0.10064813 -0.04676544 -0.06699906
0001d0 bb 1c bc 3c 0b e1 8e 3d 14 a9 93 bc d8 12 3c bc
       0.022962919 0.06976517 -0.018024959 -0.011479102
0001e0 e5 d2 a3 3d 1f a3 c0 bd 5a 84 06 bd c9 34 86 3d
       0.07999209 -0.09406113 -0.032841064 0.06553037
0001f0 37 ca 6c bd 52 ed 99 3d 81 f5 7f 3c 00 48 a2 3c
       -0.057810035 0.075159684 0.015622498 0.019809723
000200 0c 54 8e 3c d7 ce c3 bc 03 e9 0c bd 88 22 30 bd
       0.017374061 -0.02390234 -0.034401905 -0.04300168
000210 2e f2 8d 3c e3 33 96 3c 2e f9 a4 3d 50 8d 90 3d
       0.017327394 0.018335288 0.0805534 0.07058203
000220 b4 1a 26 bd 31 75 9c 3c 48 58 d9 3d 9d 0d 34 3c
       -0.04055281 0.01909885 0.106125414 0.010989574
000230 d5 5d 4a 3c 29 0f 97 3d 65 22 bd 3d b4 bf 90 3d
       0.012351473 0.073759384 0.09235076 0.070678145
000240 dd 0a b7 3d d8 0a a0 bc f4 99 fd 3a 04 20 4e bd
       0.08937619 -0.01953642 0.001934825 -0.0503235
000250 44 bf d0 3c 64 c2 24 bc 9e f8 9b bb 64 b0 8c 3d
       0.025481828 -0.010056112 -0.004759862 0.06869581
000260 4f 6e af 3d 3b b7 aa 3d b4 a3 c7 bd 91 8a 83 3d
       0.085659616 0.0833573 -0.09748021 0.06422914
000270 f9 97 bc 3c 93 75 f4 3d 7c 96 80 bc 1d 7b 99 3b
       0.023021685 0.11936488 -0.015696757 0.0046838657
000280 b4 79 c8 3c 10 40 6d bc 56 f9 84 3d 71 75 bc 3d
       0.024472095 -0.014480606 0.064928696 0.09202088
000290 60 1f 8e 3d 1e f5 f6 3c 9e 74 32 3d b9 3a 3b bd
       0.06939578 0.030146178 0.043568246 -0.0457103
0002a0 2c af 57 b9 c5 03 89 3c 44 bb 19 3b 13 b0 d9 3d
       -0.00020569254 0.01672543 0.0023457566 0.106292866
0002b0 61 fc 4a bc 45 93 5c 3d 29 60 36 3d 29 b7 f9 3d
       -0.012389273 0.053851385 0.0445253 0.12193138
0002c0 28 cb 2d 3c a6 46 ea 3c 98 c5 0f 3a b9 fd 1f bc
       0.010607518 0.02859814 0.0005484461 -0.009765082
0002d0 0c 97 5d bb d6 74 b6 bb fa ed a2 3d 51 4a f8 3d
       -0.0033811955 -0.005568127 0.07955547 0.1212355
0002e0 78 38 47 3d 3c 7a 95 3d 92 8f 90 bc 79 1e e3 bc
       0.048637837 0.07298705 -0.017646585 -0.027724491
0002f0 c6 a3 db bc f8 93 b5 3d d8 13 87 3c ae 00 f7 3d
       -0.026811492 0.088661134 0.016488954 0.120606765
000300 ba 61 9a 3d e1 bd 78 bd d3 ec 74 bc bf 8d 20 3c
       0.07538171 -0.060727958 -0.014949041 0.00979942
000310 22 0d 77 bc 31 e4 fa bc ad e7 01 3e 8c 04 11 3e
       -0.015078815 -0.030626388 0.12686034 0.14161891
000320 28 d4 45 3d 38 df 15 3e 2d 37 04 3e aa 88 87 3d
       0.04829803 0.14635932 0.12911673 0.066178635
000330 60 42 f7 3c ea 17 6f 3d 60 d4 3d b8 f9 dc 8c 3c
       0.030183017 0.058372416 -4.52589e-05 0.017195212
000340 b7 1a ce 3d 08 78 61 bd 49 90 e9 3d ea 3f f8 3d
       0.10063689 -0.05504611 0.11404473 0.12121566
000350 0f 7d ac 3d 48 a4 19 3d c7 46 8a 3d 13 09 90 3d
       0.084222905 0.037510186 0.06751781 0.07032981
000360 7b 2e 8b 3d a1 ff 8c 3c 49 f8 0b 3e ee 66 b7 3d
       0.06795975 0.017211737 0.13668932 0.08955179
000370 91 cc a1 3d d3 2d bf 3d 98 e2 97 3c c8 e7 26 bd
       0.07900346 0.09334912 0.018540666 -0.040748388
000380 a3 db 9d 3d e2 d9 11 bd 4a 18 b3 3c 39 33 f2 3c
       0.07707908 -0.03560818 0.021862168 0.02956544
000390 c3 58 93 3d c4 23 ba 3d f6 d3 00 bc 28 66 63 3c
       0.07194664 0.09088853 -0.007863035 0.013879336
0003a0 cd 3b 03 3e 3c 14 c6 bc 39 f2 bb bb 9d c2 92 3c
       0.12815781 -0.02417957 -0.0057356623 0.017915064
0003b0 b2 a2 f7 3c 5c 33 5c 3d 71 12 88 3d d9 35 79 bc
       0.030228946 0.053759918 0.066441424 -0.015210592
0003c0 11 82 e5 3d ba 0a ed 3d 33 33 90 3d b6 05 98 3c
       0.11206449 0.115743116 0.070410155 0.01855741
0003d0 59 11 f7 3d 95 8a e6 bc 68 a1 49 3c 93 6a d5 3d
       0.12063856 -0.028142253 0.012306549 0.10420718
0003e0 5a 08 4b 3c 05 d6 8c bd 69 33 38 bd cd 23 97 bd
       0.012392128 -0.068767585 -0.044970904 -0.07379875
0003f0 03 69 f2 3c 4c f6 c8 bc 85 88 53 3d b6 1c 1e 3d
       0.02959109 -0.024531506 0.051643867 0.0386016

encoder.project.weight f4 [8, 128]
000000 c9 d9 08 bc c6 bd 05 be e5 fe 2e bd f8 82 90 bd
       -0.008352705 -0.13060674 -0.042723555 -0.0705623
000010 32 40 a8 bb 84 68 9a 3d 1d 99 a5 3d 42 bf c8 3c
       -0.005134606 0.07539466 0.08085845 0.024505261
000020 b8 73 12 3d c8 03 89 bd 11 ce 52 3d d6 38 52 3d
       0.03575489 -0.06690174 0.05146605 0.051323734
000030 9b e7 cf bd a1 98 b1 bd 3c 4b 64 bd 4c 7a 4a 3d
       -0.10151597 -0.0867169 -0.05573581 0.049433038
000040 db d7 af 3d 8a 4e f5 bc d7 f1 d1 3c 90 dd 27 bd
       0.08586093 -0.029944677 0.025628014 -0.040982783
000050 68 a1 94 3d ce 9a 89 bd 1a 49 80 3b e0 21 13 bd
       0.07257348 -0.0671898 0.0039149644 -0.035920978
000060 e9 b9 0f bc 12 92 c4 bc 6b c0 46 3d 26 15 f0 bc
       -0.008772352 -0.023995433 0.048523348 -0.02930696
000070 78 cc 34 bc 30 b2 35 3c ad 66 4d bd d1 34 bd 3d
       -0.011035077 0.0110898465 -0.050146747 0.092385896
000080 4a 65 a8 3c a5 45 9f bc 5f bc ba bd 46 54 fc bc
       0.02055611 -0.019442389 -0.0911796 -0.030801903
000090 de 3e be 3b 6f 14 8e 3d 52 27 74 3d 1b 3e a2 3d
       0.005805834 0.06937491 0.05960781 0.07922002
0000a0 1a e0 a6 3c 63 34 d0 bc 60 18 2e 3d ba 84 c9 bd
       0.020370532 -0.025415605 0.042503715 -0.09839769
0000b0 38 c8 b8 3c e6 76 0c bd 43 18 0c 3c c6 4f 99 3c
       0.02255641 -0.034293078 0.008550706 0.018714797
0000c0 87 47 7d 3d 8b 3e 10 3d eb d0 a3 3d cb ed e1 bd
       0.061835792 0.035215896 0.07998832 -0.110316835
0000d0 78 13 86 3a d7 45 b8 bd dd b4 99 bd 84 f3 9e bd
       0.0010229191 -0.08997696 -0.075052 -0.07761291
0000e0 1e 3e 9a 3d ac 5a 8e bd 7d ad 08 bd a6 c0 c7 bb
       0.07531379 -0.06950888 -0.033368576 -0.0060959635
0000f0 0e 9a ef 3b b6 ac 54 3d 6f 49 bc 3c 13 d7 ab ba
       0.007312066 0.051922522 0.022984235 -0.0013110362
000100 29 af b0 3c 1e b9 4d bd e2 40 9a 3d d3 37 02 bc
       0.021567898 -0.05022537 0.07531907 -0.00794788
000110 bd 63 28 bd 7a 3e 76 3d ef 3d b6 bd 92 f2 a2 3d
       -0.041110743 0.060118176 -0.08898532 0.07956423
000120 e1 59 54 3d d8 1b aa 3d 7f d8 a4 bd 6a 72 a7 3d
       0.051843528 0.08306092 -0.08049106 0.081761196
000130 ce dc 51 3c 1c 3f b0 bd 4d 79 40 3d ef f6 ba 3d
       0.012808992 -0.08605787 0.04699068 0.0912913
000140 98 64 70 bd 11 b5 14 3d 5d 8b ac bc 49 51 a2 3c
       -0.058689684 0.03630549 -0.021062547 0.01981415
000150 34 c8 67 bc e8 91 78 ba 5b 86 a4 bd 01 09 1b 3d
       -0.014146853 -0.0009482191 -0.08033439 0.037850384
000160 53 94 92 3c 83 37 f9 bc 73 1d 0a 3d 9a fc b1 bd
       0.017892992 -0.030421978 0.03371949 -0.08690758
000170 97 55 c5 3c 10 9f c7 bc 00 2e fc 3c 4a 92 de 3b
       0.024088664 -0.02436784 0.030783653 0.0067923414
000180 da 88 38 3d cb 62 4f 3d c5 2d 6a bd 28 e0 a7 bd
       0.045052387 0.050631326 -0.057172555 -0.08197051
000190 7c b9 2a 3d 3b e4 5a ba c7 f2 9f bd 46 d8 ca bd
       0.041680798 -0.0008350049 -0.07809978 -0.09904532
0001a0 15 91 b4 bd 69 7a ae bd 0c e7 3d bd 70 0d 44 3d
       -0.08816735 -0.08519442 -0.04636292 0.047864377
0001b0 0e 11 b1 bd 58 04 05 3d cd f3 a7 3c 01 ab 91 3b
       -0.08645831 0.032474846 0.020501995 0.004445434
0001c0 b1 b0 89 bc 9c 60 e6 bd 48 7c 3e 3d a6 de b7 bd
       -0.016807886 -0.112488955 0.046505243 -0.08978014
0001d0 62 94 f3 3c 32 47 7d 3c 52 e5 78 3c ca a7 ce bd
       0.02973384 0.015458869 0.015191393 -0.10090597
0001e0 2c 10 62 bd 93 70 db 3b e9 c2 97 bc 9b 94 2a 3d
       -0.055191204 0.0066967695 -0.018525558 0.041645627
0001f0 a8 ec d7 bc c5 40 83 3d 1c f3 ea 3d 71 9b 70 bc
       -0.026357964 0.06408838 0.11472151 -0.014685498
000200 22 4a b8 bd 4b ba c0 ba 8d b9 11 3d 2a 16 6b bd
       -0.08998515 -0.0014703957 0.035577346 -0.057394184
000210 e3 13 da 3d 2b e1 63 3c 60 08 4d 3d 0a bd 05 3e
       0.10648324 0.013908665 0.050056815 0.13060394
000220 ed 62 f0 3d 0d e0 b3 bc f4 41 17 3d d7 27 09 3e
       0.117376186 -0.021957422 0.036928132 0.13394104
000230 25 75 a7 bd cc cc da bd 30 ef 00 be dc bb a6 3c
       -0.081766404 -0.10683593 -0.12591243 0.02035325
000240 2b ca a5 3d 75 36 42 3d 75 24 23 bd 6a 11 c6 3b
       0.08095201 0.047415216 -0.03982969 0.0060445564
000250 87 af da bb 7e 88 0e be 0f aa 60 bc d4 21 9e bc
       -0.0066737565 -0.13919255 -0.01371242 -0.01930324
000260 ff f9 be 3d 68 85 f8 bd 65 5e 37 3c 18 43 ab bd
       0.09325027 -0.1213482 0.011191939 -0.083624065
000270 77 48 6d bd 1d 71 e7 3d c5 49 0e 3d 6e 54 6b 3c
       -0.057930436 0.113008715 0.03473832 0.014363391
000280 ee 15 35 3d b3 b2 12 bd df 85 f4 bc 8f 12 89 bc
       0.044210367 -0.035814952 -0.029848991 -0.016732482
000290 31 f6 4e 3d ab 49 d5 3c 7c c6 a0 bd ea 65 5c 3d
       0.050527755 0.026036104 -0.07850358 0.05380813
0002a0 57 a1 9e 3d ef a1 b8 3d 58 6c 44 bd c4 7c 8e 3c
       0.07745617 0.090152614 -0.047954887 0.017393477
0002b0 f3 e8 e5 bd 44 0d 25 3d 7f e6 bd 3d 7a be 8f bd
       -0.11226072 0.040295854 0.09272479 -0.070187524
0002c0 4d 3e 28 bc 86 02 6b 3d 24 ae 0d 3d 89 1f 29 bd
       -0.01026876 0.057375453 0.0345899 -0.04128984
0002d0 79 17 d3 3d 9a 36 7c 3c 35 c7 17 3d 44 4d 89 3d
       0.103072114 0.015393877 0.037055213 0.067041904
0002e0 c8 b8 94 3d 9e 28 1e bd 5e 51 af 3d d8 d6 42 3d
       0.07261807 -0.038612954 0.085604414 0.047568172
0002f0 a0 eb 9a bd 4a d3 a3 3d 4c b2 8c 3d fc 5a d0 bc
       -0.07564473 0.079992846 0.06869945 -0.02543401
000300 f0 cf ee 3d 8b 16 be 3d 85 86 5e bd 98 15 de bc
       0.11660755 0.092816435 -0.054327507 -0.027109906
000310 08 20 94 3d dc 09 cd 3c 49 e5 93 bc 5e 1c f2 bd
       0.07232672 0.025029115 -0.018053668 -0.11821817
000320 97 1d c5 bd 9e 02 ab 3d 75 08 c3 3d 43 1e a0 3d
       -0.096247844 0.083501086 0.095230974 0.07818272
000330 9e f3 b4 3c c9 c9 a2 bc 93 e8 9c bd 56 6b db bd
       0.022088822 -0.01987161 -0.076615475 -0.10713832
000340 44 72 ba 3b c5 86 0b 3d c9 4c 0c be 79 25 98 3d
       0.005689891 0.034064073 -0.13701166 0.07429022
000350 63 7a 63 3d 2a be 99 bd 92 c6 04 3e 04 b9 2a bd
       0.05553664 -0.07506974 0.12966374 -0.04168035
000360 73 95 1f bd 02 a3 91 3d a5 2e 0a 3e eb 3e bb bd
       -0.038960885 0.071111694 0.13494356 -0.0914286
000370 5a b0 17 bd 9a a1 e8 3d bd 51 eb bd 3a 1d 2c 3c
       -0.037033416 0.11358948 -0.114902 0.010505015
000380 f8 5d 87 bc dc 9d ad bd b2 17 87 bd 37 f9 f9 3d
       -0.0165243 -0.08477375 -0.065963164 0.12205737
000390 19 a2 a2 3d 11 11 8a bd e9 b9 9e bd a1 06 4e bd
       0.07941074 -0.067415364 -0.07750303 -0.05029929
0003a0 d4 01 89 bd 6b d9 29 3d 50 21 0b 3d 41 9a 1f 3d
       -0.06689802 0.04146711 0.033967316 0.038965467
0003b0 7f 22 c0 bd 4b 68 6b bd 07 69 9d bd 64 9d 3f bc
       -0.093815796 -0.05747251 -0.07686048 -0.01169524
0003c0 2b 8e 45 bd f2 2c d3 bc 85 dd 45 bd 3b bb 6d bd
       -0.048231285 -0.025778268 -0.04830696 -0.058039885
0003d0 f6 f5 5b bd 0e 4c 17 bd 8d 53 d5 3d 1b 0d 79 bd
       -0.053701364 -0.036937766 0.10416327 -0.060803514
0003e0 97 fb 55 bd 7f 57 21 3d 91 f8 b9 bb 7b fe 40 bd
       -0.052241888 0.039390083 -0.0056753834 -0.04711769
0003f0 4b 40 b5 bd 08 55 a1 3d df e4 18 3c 7b 77 b7 bd
       -0.088501535 0.078775465 0.009331911 -0.08958336

encoder.project.bias f4 [8]
000000 aa 22 b5 3c c6 05 23 bd 97 53 51 3d a7 d2 06 3d
       0.022111256 -0.039800428 0.051105108 0.032915737
000010 10 c9 fa bc be 46 46 3c 4c 13 21 3d e9 80 8c bd
       -0.030613452 0.012101827 0.039325044 -0.06860525

decoder.0.weight f4 [128, 8]
000000 24 f8 9e 3e c7 80 09 3e c9 82 a5 be b5 ce a4 be
       0.3104869 0.13428031 -0.32326344 -0.32188955
000010 bc 6c af bd eb 61 8c be 57 46 8e 3e 36 c0 a0 be
       -0.08565661 -0.27418455 0.2778804 -0.31396645
000020 c3 3b 4b be e3 bf f0 3d d9 17 30 be 12 86 27 be
       -0.19847016 0.117553495 -0.17196597 -0.16359738
000030 70 90 3a 3e 6d b1 ae be 22 ac 8c 3e 4e 73 27 be
       0.18219161 -0.3411974 0.27475077 -0.16352579
000040 c7 76 eb bd ab 25 4a 3e e0 94 c5 bd 60 12 91 3e
       -0.11497264 0.19740932 -0.09647536 0.28334332
000050 30 85 03 be 48 60 7e be 08 97 1c 3d 43 d0 e2 3d
       -0.12843776 -0.24841416 0.038229972 0.11074879
000060 70 4e bf be ab e4 98 be a9 fe 9e be 61 cd 5a be
       -0.3736453 -0.2986196 -0.31053665 -0.21367408
000070 4b 48 91 3e 4a b2 08 be f5 69 05 bd ee 15 80 3e
       0.28375468 -0.13349262 -0.03257175 0.2501673
000080 93 63 b8 be 7f 95 3f be eb dc 13 be 7a 5a a7 3c
       -0.3601347 -0.18709372 -0.14439742 0.020428885
000090 ef 66 62 3e 64 66 f3 3c d0 06 7d 3d 65 ca c3 3d
       0.22109579 0.02971191 0.061774075 0.09560088
0000a0 72 93 67 3d bb dc 00 be 2b 0b 7e be 16 94 9d be
       0.0565371 -0.12584202 -0.24808948 -0.30777043
0000b0 27 c9 93 be f1 35 a3 b9 05 27 ba bd f3 1d 92 3e
       -0.28864405 -0.00031129972 -0.09089474 0.28538474
0000c0 74 d4 06 bd ec b6 39 be d2 c5 28 be 39 f9 29 be
       -0.032917455 -0.18136185 -0.16481712 -0.16598977
0000d0 4c c4 8e bd 06 4b ac 3e 16 83 4a bd 0d 47 ba 3e
       -0.069710344 0.33650988 -0.04944142 0.36382332
0000e0 d8 0f 91 be 69 1c 9f 3e 9f 8d c0 bd 46 94 a7 3e
       -0.283324 0.31076363 -0.09402012 0.3273031
0000f0 2f 04 3e 3e 6f 0b 1d 3c f2 18 9c be 8e 13 86 3e
       0.18556283 0.0095852455 -0.30487782 0.26186794
000100 4c 2b 96 3e d0 06 ae be d0 c4 a3 be 84 5b aa bd
       0.29329908 -0.33989573 -0.31986094 -0.083182365
000110 d7 f9 33 3e 76 58 60 3e 41 a7 b0 be 7b 09 17 bc
       0.17575775 0.21908745 -0.34502605 -0.009218569
000120 58 0a 89 3e da 46 08 3e df 18 ba bc 50 6b 71 be
       0.26765704 0.13308278 -0.022716938 -0.23576093
000130 fa ae 77 bd 8e a7 8c 3e 8d 8f a7 be 02 d9 1d be
       -0.060469605 0.27471584 -0.32726708 -0.15414813
000140 0d db 9f 3e da 72 d9 3d 4e c3 77 3e 62 07 98 3d
       0.3122181 0.10617609 0.24195597 0.07423283
000150 9f 8b 9c be 19 29 83 3e 61 c6 90 be 75 be 11 3c
       -0.30575272 0.25617293 -0.2827635 0.008895506
000160 70 71 24 3e c9 13 82 be 89 ee 66 3e fd fa a9 be
       0.16058898 -0.2540572 0.22551931 -0.331993
000170 77 51 04 be 8a f4 c9 3b 73 e6 59 3d e1 55 ab 3c
       -0.12921701 0.0061631845 0.05319829 0.020914974
000180 a6 f4 73 be 90 b8 a0 bd cf 07 93 3e 8d cd 6d 3d
       -0.23823795 -0.078477025 0.28716895 0.058057357
000190 57 96 a2 3e 04 94 df 3c 8c a9 34 3e 51 a7 44 bd
       0.31755325 0.027292259 0.17642802 -0.048011128
0001a0 35 86 94 3e 43 75 22 3e d6 f8 d6 3b ff 7e 2b 3e
       0.29008642 0.15865044 0.0065604253 0.16747664
0001b0 3b 68 20 be c5 ed 59 be d1 27 cd 3e 29 c2 9a be
       -0.15664761 -0.21282108 0.4006944 -0.30226257
0001c0 ed 6d 4b 3e 22 11 5f be 3b 81 15 be 2c 89 99 be
       0.19866152 -0.2178388 -0.14600079 -0.29987466
0001d0 da ae 45 be 08 ab b5 3e 85 73 27 be 14 f3 2b be
       -0.19304982 0.3548205 -0.16352661 -0.16791946
0001e0 14 9b 25 bd 7e 2c ee bd 12 b6 b3 3e 6c 75 a3 3e
       -0.040431097 -0.1162958 0.35099846 0.31925523
0001f0 72 c8 9b 3e ec 8c 54 3c 44 bf 8a 3e 78 54 2c 3e
       0.30426365 0.0129730515 0.2709905 0.16829097
000200 84 57 5f be b3 a0 68 be 64 6d 3b 3e 4b 6e ad be
       -0.21810728 -0.22717552 0.18303448 -0.3387321
000210 3c a9 20 be 09 1c fe bd 51 53 42 3e 57 32 1e 3e
       -0.15689558 -0.12407691 0.18977095 0.1544889
000220 52 f6 84 3e 9e c2 13 be d9 7f a5 3d 7c c7 0e 3e
       0.25969177 -0.1442971 0.08081026 0.13943285
000230 5c fe 6b be a5 a0 af 3e cd 00 b3 be 54 28 5b be
       -0.23046249 0.3430225 -0.34961548 -0.21402103
000240 d5 32 cc bd 54 9e 0c be 2c 7b 4e 3d 9b 9e 5e 3e
       -0.09970633 -0.13732272 0.050410435 0.2174019
000250 f4 40 b1 3e 40 6d 77 3e 50 58 6a be 8c 45 14 be
       0.34619868 0.2416277 -0.22885251 -0.14479655
000260 0b 5b e3 3c cf 1a f6 3c 94 09 1f 3e bc ad 9b 3d
       0.027753374 0.03004208 0.15530998 0.076014966
000270 a6 66 29 be c8 f8 86 3e 11 81 8b 3e 9b 77 80 3e
       -0.16543064 0.2636168 0.27246907 0.25091252
000280 57 01 6f be 18 62 0f be 74 58 33 3e 40 f4 da ba
       -0.23340355 -0.14002264 0.17514211 -0.0016704872
000290 44 41 89 3d 1f 05 e8 3d c3 9a 80 be e6 bf 8e 3e
       0.067019016 0.11329102 -0.25118074 0.27880782
0002a0 3d f9 6b be 9e 24 33 bd cd d4 63 3e 76 86 da 3d
       -0.23044296 -0.043736093 0.22249146 0.10670178
0002b0 47 ed e1 3d 5a 1e 79 3e f3 58 aa be df ad a5 bd
       0.11031585 0.24327984 -0.33270988 -0.08089804
0002c0 3a 44 84 3e a3 fd 2f be 07 bc d9 3d 83 21 8c be
       0.25833303 -0.17186598 0.106315665 -0.27369317
0002d0 fc 3a 9b 3e 21 ed 51 3e 8c f3 90 3e 91 07 b7 bd
       0.3031844 0.20500614 0.28310812 -0.0893699
0002e0 d4 1d 61 3e 7f 9e 9b bd 9a 6c 8e be d3 ab 94 be
       0.21984035 -0.0759859 -0.2781723 -0.2903734
0002f0 5a 67 56 3e fe 99 85 3e 3a 36 af bd 2b cc a2 be
       0.20937863 0.2609405 -0.08555265 -0.31796393
000300 ce 06 a6 3e bd 8b 74 bd a3 69 94 3d d2 c3 6e 3e
       0.32427067 -0.059703577 0.07246711 0.23316887
000310 6c 31 b4 bd a3 67 a6 be a5 76 38 be fb ae 6b be
       -0.08798489 -0.32500944 -0.1801401 -0.23015969
000320 a5 0e 99 3d 96 c8 c6 3d 83 c0 9f 3e fc 71 12 3e
       0.07473496 0.097062275 0.31201562 0.14301294
000330 1e f8 8b 3d 7b 85 47 be 69 8d 4c 3e 2d b5 94 be
       0.06834434 -0.19484513 0.19975819 -0.29044476
000340 cc 3f a9 bd f6 ce ac be 9d 68 2a bc bb 56 8a be
       -0.082641214 -0.3375165 -0.010400918 -0.27019295
000350 8a 2b f1 bd 93 69 ef 3d d0 34 16 bd a8 08 c0 bd
       -0.117758825 0.116900586 -0.03667146 -0.09376651
000360 8b 01 74 be c4 6e 50 3e dd c2 23 bd 5c 4a ce 3d
       -0.23828714 0.20354754 -0.039980758 0.10072777
000370 a8 f4 52 3e 4f d0 f5 ba 7c c9 44 bd 23 fa c2 bd
       0.20601141 -0.0018754097 -0.048043713 -0.09520366
000380 30 99 91 be 03 43 b8 3e ae 38 73 bd fe c1 e2 bd
       -0.28437185 0.35988626 -0.059380226 -0.11072157
000390 ce 99 8a 3e ad 97 2b 3e 79 54 01 3e 48 85 fd 3d
       0.2707047 0.16757078 0.1262988 0.12378937
0003a0 54 d5 f2 3d 96 eb 9b 3e e6 05 9d 3e cf 3d cc 3d
       0.11857095 0.30453175 0.30668563 0.099727266
0003b0 c4 4f 4f 3d dc 08 a5 be dd 87 6d 3d f0 16 ae 3e
       0.05061318 -0.32233322 0.057990897 0.34001875
0003c0 35 cd 98 bd a5 0b 5c be f3 0d 0d 3c f3 e7 0a 3e
       -0.07461015 -0.21488817 0.008609283 0.13565044
0003d0 e8 0f a2 3d 93 7c 3d 3e 55 09 00 3e d1 e8 56 be
       0.0791319 0.18504553 0.1250356 -0.2098725
0003e0 b2 e9 e1 bd fe f2 2b 3e 69 88 55 be 6b 8f 13 3e
       -0.11030902 0.16791913 -0.20852818 0.14410178
0003f0 d6 e8 7c 3e ce d9 5f 3e c7 95 75 3e 7b 8a f4 bd
       0.24698195 0.2186043 0.23982917 -0.119404756

decoder.0.bias f4 [128]
000000 2d 91 2c 3e 0a 78 63 3e b9 25 5a be 53 f1 0d be
       0.16852255 0.2221376 -0.21303453 -0.13861589
000010 66 41 87 be 2c 4e 8c 3c 7d 02 b0 bd 97 5d 87 bc
       -0.26417083 0.017127119 -0.085942246 -0.01652412
000020 79 44 96 3e 7b 9f dd 3d 11 b0 9d be 7b 81 d4 3d
       0.29349115 0.10821434 -0.3079839 0.10376259
000030 29 6d b1 be 8f 3d 6c be 67 3a c8 bd 65 20 3f 3e
       -0.34653595 -0.23070358 -0.09776764 0.18664701
000040 df 9a 47 3e 5f aa 57 3e d7 0d ac be 42 e1 cd bd
       0.19492672 0.21061085 -0.3360431 -0.1005273
000050 ab 49 71 3e c2 44 b6 3e b6 0b 9f be 8f 14 2f 3e
       0.23563258 0.35599333 -0.31063622 0.17097686
000060 f8 d0 ac 3e 64 1e 2f be f9 0f 73 be 99 ba 86 be
       0.3375318 -0.17101437 -0.23736562 -0.26314238
000070 e1 2a 97 bd 44 e2 5a 3d b7 6a ab 3d a1 75 1d 3e
       -0.073812254 0.05343844 0.083699636 0.15376903
000080 aa 9d 90 3e 17 70 b8 3d ea f3 28 3e a9 e6 0e be
       0.28245288 0.090057544 0.16499296 -0.13955177
000090 e7 39 5f 3d c5 b0 9f be 4b 8c 39 be f8 70 e5 bd
       0.05449858 -0.31189552 -0.18119924 -0.11203188
0000a0 ef 68 d6 bd 10 5d f6 bc 59 cb 99 3e d2 04 95 be
       -0.10469233 -0.030073673 0.30037954 -0.2910524
0000b0 69 48 a5 bd 63 82 81 be 09 42 76 3e c0 2f a2 3e
       -0.08070452 -0.2529479 0.24048628 0.31677055
0000c0 82 bc 9b be a8 80 38 3d 5f 03 0e 3c ae e8 61 3e
       -0.30417258 0.04504457 0.008667796 0.22061417
0000d0 06 08 86 3e c7 75 a5 be 69 cc 3d 3e b3 28 86 be
       0.26177996 -0.3231642 0.18535008 -0.26202926
0000e0 e5 f2 42 3e 78 6e f1 bd a7 68 b2 3c 02 88 e8 3d
       0.1903797 -0.11788648 0.021778418 0.113540664
0000f0 4d aa 55 3d 1a 0e 06 3e 70 b1 32 3e 72 a3 52 be
       0.052164365 0.13091317 0.174505 -0.20570162
000100 a4 b8 41 3e 85 7b 6e 3e c4 ec c2 3d ac a1 87 be
       0.18918091 0.23289306 0.09517816 -0.26490533
000110 74 93 46 3e db 5c 97 be 74 22 99 3e 01 60 6d 3d
       0.19392186 -0.2956303 0.29909098 0.057952885
000120 f3 9f 92 bd b2 64 18 be 51 bb 9d be 35 b7 2f be
       -0.07159414 -0.14882162 -0.30806974 -0.17159732
000130 2a a0 b8 3e e9 c7 81 be 49 91 b1 3d c6 68 76 be
       0.36059695 -0.25347832 0.08670289 -0.24063405
000140 bb 3c b5 bd 06 4c 04 be a0 f6 28 bd fc e7 51 be
       -0.08849474 -0.12919626 -0.041250825 -0.20498651
000150 c2 97 b8 bd 7f 71 97 3e 0e 50 8b 3d 3c 8b af be
       -0.090133205 0.29578778 0.068023786 -0.34285915
000160 c9 34 df 3c 00 53 b2 be a0 bb a4 3e a6 28 49 3e
       0.02724685 -0.3482895 0.32174397 0.19644412
000170 31 56 45 be 5e 3b 71 3e b6 83 15 be ce 91 79 3d
       -0.1927116 0.23557803 -0.14601025 0.060930066
000180 31 e4 79 be 4a 9f 82 3e fe 29 69 be 3c b1 18 3e
       -0.24403454 0.25512153 -0.22769925 0.1491136
000190 9f 95 aa 3c b2 ef d3 bd 5d 19 b8 3e e3 e8 8c be
       0.020823298 -0.10348453 0.3595685 -0.27521428
0001a0 a5 c2 a4 3e ec b0 61 3e a6 e8 21 be 4e b5 ab 3e
       0.32179752 0.22040147 -0.15811405 0.33536762
0001b0 60 23 c9 be e9 55 19 bd 86 02 18 3e ac 33 a8 be
       -0.392848 -0.037435446 0.14844713 -0.32851923
0001c0 d5 9d 98 3e 18 38 fb bd a5 2d 07 be 52 e5 9c 3d
       0.29807916 -0.122665584 -0.13201006 0.07660927
0001d0 75 c9 9e be dc 86 a8 3e d7 4e b6 be 42 e2 d5 bd
       -0.31013075 0.3291539 -0.35607025 -0.10443546
0001e0 35 08 24 3e 1c 8f 16 3e 1d cc 03 be c9 a0 72 3e
       0.16018756 0.1470303 -0.12870832 0.23694147
0001f0 f2 49 a2 3e fd 9f 43 3e d9 9d dc 3d 3c 42 98 3e
       0.3169704 0.19104 0.107722946 0.29738033
