my_latent_sde/sdes/best_sde_0.pth (torch, 197749 bytes, 28 tensors)

encoder.gru.weight_ih_l0 f4 [192, 2]
00000000: c4ea 49bd 4fb4 d8bd c3f8 4abd 492d 783d
00000010: af92 be3d 1986 fa3c ef4e 903b e4ba 023d
00000020: a699 423d b931 c03d b115 75bd 1e4c e7bc
00000030: e0fb 6b3d ebeb d43d a4c4 cfbd 3de7 b2bd
00000040: 9696 c2bd 6702 a3bd aeae a6bc 53f5 b63d
00000050: e65c c93d f59f 593d c710 21bd 6c91 8e3c
00000060: 13e1 9cbb 06f7 9c3d fed8 7abd 1b28 bebd
00000070: ab7c b4bd db42 6b3d 55fd a6bd 86ed 2e3c
00000080: 9bad 573d 3dfa c23d 3fd9 debd 2410 be3d
00000090: bee0 2ebd 4809 5b3d 4eef 88bb f819 b23d
000000a0: 009d 9bbc 7b0f 0abc 3f89 e5bc 5bec a63d
000000b0: e766 6abc e123 2c3d 785b 85bd c169 b33d
000000c0: b86e 3a3c 25b5 c5bd 111e 64bd e984 abbd
000000d0: 0f79 a73c 2f67 b2bb cdb1 8b3d 39d9 5fbd
000000e0: 1155 293d c8ed 1a3d 9c14 e7bc d9af ee3c
000000f0: 0e7f 703d f10e 31bd 303e 7338 a9de d6bb
00000100: 1089 01bd da83 ddbc ddd8 203c 6890 54bd
00000110: 2fb2 6cbd 01e4 14bd ee21 803c 27aa e9bd
00000120: 262c 89bc f187 a73d 174d 72bd d449 b7bb
00000130: a70d 7fbd 5b33 a83d a4b1 d63d 541e 2d3c
00000140: e7d9 503d befe e5bc abea 11bd deba 713d
00000150: a36c e63c dd37 a0bd 480b 72bd 1aa1 413c
00000160: 2be9 9fbc 69ec a23b 453a 213d 5bff 583c
00000170: 518f 853d 11d4 633c 60de 423d d8a6 e23c
00000180: 4190 22bd b9c9 bebd 94ae c1bd 5495 8b3d
00000190: f9cb 843c 36d4 99bd df58 083c 0b76 88bd
000001a0: c2f3 9a3d 5c96 1f3c ad20 ccbd 3419 9abc
000001b0: 37b4 c33d 1742 5fbd 74bd e53b 246f 3c3c
000001c0: ce8a 873d c813 d13d 27fe 983b 0f54 59bd
000001d0: 8dec 433d 6f63 aa3b d9ad 003d 622e 2c3c
000001e0: d880 5c3c 39eb 493c 296e b0bc a1dc 5f3c
000001f0: 509b 19bc 7ebb b63d e1e7 553d 0ed5 e1bb
00000200: 42c3 173b 1312 54bd 0d2e 0bbd 929c 683c
00000210: 0344 b33d 6ba0 b33d d636 aa3b 8fbd b0bc
00000220: 8d77 16bb 9feb c43d a998 433d ed3f 4a3d
00000230: 6794 8bbc a433 c73c d43e 7abd 14cd fbbc
00000240: 7538 80bd 2f09 aeba 1c0b e9b8 4fc5 863d
00000250: 6b64 4bbb dd48 b63d 2196 3bbb e1ed acbd
00000260: 503e 47bd 1726 a83d 1947 2b3d 65cb d63c
00000270: 14c7 a1bd cec3 0fbc 6a00 ac3d 6062 523b
00000280: 07f1 8bbc a421 30bd 6133 b43c f80b 0e3c
00000290: 6ae4 f5ba 1fc1 54ba e0b1 a43a 3670 57bd
000002a0: e89a a1bb bf79 5d3d 49f0 3cbc d615 8d3d
000002b0: e9a0 023d 220c 09bd 7e73 67bd b3bb 3b3a
000002c0: 0c56 9abc 8045 b3bd cb44 0f3d bd9f fbbc
000002d0: d021 c1bc 871a b2bd d63e 8a3d 8c9c 2a3b
000002e0: 7859 9fbc e6f5 433d 08e9 6fbd 1ed4 463d
000002f0: 8148 0a3b bef9 103c cfc3 ab3a 4cee 89bd
00000300: c759 bebd aac2 e13b e364 dcbb b3b1 c63b
00000310: aca0 823b 4523 603c f65d a8bc 66d9 3f3c
00000320: d44f 2e3d 164c 7dbd 10d1 41bd 1483 a9bd
00000330: 445d 713b 9843 183d 2047 863d 95ee d2bc
00000340: 743b 3cbd dd25 793d 4447 a2bd e5a4 b43c
00000350: 8454 6a3d 6451 a8bd 6890 a8bd 5aa5 fc3a
00000360: 338d acbd d0f5 b438 edb2 513d 9edd 183a
00000370: f20c 76bc 6d5d f8bb 9a8b ae39 896e f43c
00000380: 3489 3cbb df59 cbbc 8f49 05bc da25 ab3c
00000390: 4f31 6c3d cea3 de39 adae c83a 778e d03d
000003a0: f1db 50bd a793 3b3d 4036 c73d 4514 003d
000003b0: 692f 863d 1796 d63c 5a27 c8bd f8f7 9a3d
000003c0: 50a1 113c 883a 11bd ef2f a0bd 4b38 81bd
000003d0: a9df 193d 1c81 43bc 46a5 8e3d 08d5 8bba
000003e0: d1c7 9bbd e4b2 7cbd f0ef 533d 6edc f1ba
000003f0: 2f1e 45bd a640 fab9 ebf2 72bd 1680 fc3a
-0.049296156 -0.10581266 -0.049553644 0.060590062 0.093053214 0.03058152 0.004403941 0.031916514
0.04750981 0.09384484 -0.05983514 -0.028234538 0.057613254 0.1039656 -0.10144928 -0.087355115
-0.09501378 -0.079594426 -0.020346966 0.08933511 0.09832172 0.053131063 -0.03932264 0.017403327
-0.004787573 0.076643035 -0.061242096 -0.09284993 -0.08812841 0.057436805 -0.08153788 0.010676747
0.052655797 0.095203854 -0.1088128 0.09280422 -0.0426948 0.05347565 -0.004178918 0.086963594
-0.018995762 -0.008426542 -0.028019546 0.0815055 -0.01430676 0.042026404 -0.06511587 0.08760405
0.0113789365 -0.09653691 -0.055692736 -0.0837496 0.020443467 -0.0054444293 0.06821022 -0.05465052
0.04134089 0.037824422 -0.02820807 0.029136585 0.05871492 -0.04322714 5.799363e-05 -0.006557305
-0.031624854 -0.02704041 0.009817329 -0.05189553 -0.057787117 -0.036350254 0.015641179 -0.11409407
-0.016744684 0.08180226 -0.05915555 -0.005593518 -0.06226888 0.0821292 0.10483101 0.010566313
0.050989058 -0.028075572 -0.035624187 0.0590161 0.028127974 -0.07823155 -0.05909279 0.011818195
-0.019520363 0.00497203 0.03936221 0.013244475 0.06521476 0.013905541 0.047575355 0.027667448
-0.039688352 -0.09315819 -0.09457126 0.068155915 0.016210543 -0.07511179 0.00832197 -0.0666314
0.07566024 0.009740438 -0.0996717 -0.018810846 0.09555858 -0.054506388 0.00701111 0.011501107
0.06618272 0.10208851 0.004668969 -0.05305868 0.047833014 0.0051998417 0.031415794 0.010509105
0.013458453 0.012324148 -0.021536903 0.013663442 -0.009375408 0.0892248 0.05222309 -0.006891853
0.0023157154 -0.05177505 -0.033979464 0.0141974855 0.087532066 0.08770832 0.0051945252 -0.021574764
-0.0022959441 0.09615254 0.04775301 0.04937737 -0.017038537 0.024316616 -0.061095074 -0.030737437
-0.06260768 -0.0013277883 -0.00011112375 0.065806024 -0.0031035196 0.08900616 -0.002862342 -0.08443809
-0.04864341 0.0821039 0.04181585 0.026220033 -0.07899299 -0.008774711 0.083985165 0.0032102093
-0.017082704 -0.043000832 0.021997156 0.008669846 -0.0018760089 -0.00081159355 0.0012565218 -0.052597247
-0.0049317963 0.054071184 -0.011531898 0.068889305 0.031891737 -0.033458836 -0.056506626 0.0007161453
-0.018839858 -0.087534904 0.034977715 -0.030715818 -0.023575693 -0.08696466 0.06750266 0.002603325
-0.019451842 0.04784193 -0.058571845 0.048542134 0.0021100345 0.008848606 0.001310462 -0.06734905
-0.092944674 0.006889661 -0.006725894 0.006063664 0.0039864387 0.013680284 -0.020552617 0.011709547
0.0425566 -0.06184014 -0.04731852 -0.08276954 0.0036829272 0.037173837 0.06556535 -0.02574853
-0.045955136 0.060827125 -0.07923749 0.022051284 0.057209507 -0.08218649 -0.08230668 0.0019275353
-0.08425369 8.628855e-05 0.051196028 0.00058313634 -0.015017735 -0.0075794966 0.00033291877 0.029837864
-0.0028768303 -0.024823127 -0.0081352135 0.020892072 0.05766421 0.00042465184 0.0015310847 0.10183423
-0.050991002 0.04579511 0.09727144 0.03126933 0.065520115 0.026194615 -0.09773131 0.075668275
0.008888558 -0.03545621 -0.078216426 -0.06309565 0.037566815 -0.011932638 0.06965117 -0.0010668347
-0.07606471 -0.06169404 0.051742494 -0.0018452534 -0.04812449 -0.00047731883 -0.059313696 0.0019264247

encoder.gru.weight_hh_l0 f4 [192, 64]
00000000: 912f bf3c ec79 5dbb a29e a13d 2d2a acbd
00000010: d16f de3b b6db 1bbd 6706 bc3d 6b41 cebd
00000020: f066 77b8 44d6 46bb 4737 b1bb 901b 06bd
00000030: c499 543d a5ef 8abd 01f5 03ba 68cc 753d
00000040: dd3b 6f3d 370e 7c3d eb0e 16bc 5c19 51bd
00000050: c6a6 87bd 79a8 fb3c ddfb 0d3d 2625 50bd
00000060: 9126 a4bc d08b 483d 3e57 863d cada 523d
00000070: ae99 debc e9f3 8f3c 1e9a ce3d be64 81bd
00000080: 53a3 95bc 8b26 1ebd 1cbb 43bd 59aa b5bd
00000090: c5cf 45bd bf4b 0ebd 8a9b 87bd 96c3 9bbd
000000a0: 6c5d 5c3d d8c5 073d 015f c0bd 18e4 4d3c
000000b0: 3905 d1bd ab34 0bbd 7c3b c6bd aab4 a6bd
000000c0: 5709 1e3c 0d63 a4bc 2086 1a3d 1012 55bd
000000d0: 521b 943a 60f5 75b9 bef3 c43c bd3c 5cbb
000000e0: 4f93 be3d 8980 bebd f387 e73b 07e9 a33c
000000f0: 8fd0 afbd 1a2e 3a3d c4f1 3c3b a17f 1f3c
00000100: 926f a1bd bd19 25bb 2e10 bc3a b722 59bd
00000110: fe2a 933d 428a 54bd 5d46 90bd 47d7 403c
00000120: 3e8b 623d 364f ecb9 fdec 9ebd 4e5c b83d
00000130: 330f 263d cf98 443d 0bf3 893d 9b7c 3ebc
00000140: bfb9 b43d a3ab 943d 34f0 96bd 61d3 ccbd
00000150: f7dc 743c c958 afbc 4c37 993b 8e63 063c
00000160: 0275 a5bd e1b5 c73b 5523 b7bc a83e bb3b
00000170: 351b 633c 135f 453d cffc f4bc 3ff9 6b3d
00000180: 01af 9e3b 191c 3ebc deed 88bd 8b96 4d3d
00000190: 5011 8b3c ac84 cf3b 688c db3c 1629 4f3c
000001a0: 82de 0a3d c672 a0bd 6b2c 21bb 7d0d c93d
000001b0: cc1e 4bba b7cc 8fbd badf babd e9e0 243d
000001c0: 9ac9 593d e895 87bd 6729 0f3c d62f 2f3c
000001d0: 96ed 22bb b85d a63d bc83 3b3d ae93 9cbd
000001e0: 0b32 a53d 4c44 86bd 9e13 e6bc 3295 f43c
000001f0: 67fe 0e3c 5af1 12bd 7c44 89bd 1ee7 a23d
00000200: 1c90 97b9 2d91 013d 0710 043b 48ef 94bd
00000210: 56bf df3b e288 7e3b ab8d 51bd 96db c4bd
00000220: 8991 dabc 8205 cb38 52d3 3b3d 7a59 5d3d
00000230: 23d2 1cbb 4b98 7c3c 713b 923d 45d0 4abc
00000240: 2ae4 4ebd 9a38 93bd 6fa5 c4bd 9455 aa3d
00000250: 9c52 7b3d c817 87bd be3f a93d 60c0 b3bd
00000260: 8ead 6abd 7855 4d3d 93d7 20bd 267b 00bd
00000270: d9df 8fba 11c1 1f3d 87ba b8bd e04f a73d
00000280: 8b29 a93d baeb 4fbb b4da 893a 2bec 6a3d
00000290: 2427 cf3a 5c93 313c 9c15 223d 626b 6bb8
000002a0: 02c9 313b 2fb6 babd d0c3 cc3c dee7 6a3d
000002b0: c1f4 413b 7ea6 86bd 58dd 5dbb a9a1 9ebd
000002c0: a15a 31bc 384e baba e30b ccbd 3044 c238
000002d0: c9ea 083d d9bd 743d 43f1 133d 8768 28bd
000002e0: 9693 1ebd 6044 813d 3f01 afbb 8e0c fdbb
000002f0: 4570 083d 886f ce3d eeff 68ba eb2e 9fbd
00000300: bd75 cebd 4e4d bc3c 7e5c 7c3c 112c c53d
00000310: 3cc7 77bb 92dd e3bb 2012 cabd abc9 cdbc
00000320: 8494 24bb 4ff7 493d f7a3 8b3d 5150 22bd
00000330: 4629 e93a 7cdd 1d3d f44e 2b3b 30fd 233d
00000340: ebb9 82bd a451 3c3c 33c5 82bd f1cb ab3d
00000350: 08fe 25bd 73aa 94bd cd09 173a 6bcf c2bc
00000360: 53b5 a6bd 397f 0fbd 386a babd 1157 4b3b
00000370: c63c cc3b f2b9 3fbd ed1f dfbc 65c4 5c3b
00000380: 7a62 b73c 30b6 ce39 2437 bbb9 bf6e ad3d
00000390: b977 823d df86 0b3d 44f3 933c 0eca 503c
000003a0: e008 9f3d cd22 1bbc e204 c73d 00cb 3fba
000003b0: f309 673d 7aaf 4abd c1bc c53d 3d4d 93bd
000003c0: 1421 7bbd 43ee abba b187 813d 2f23 5fbc
000003d0: ad74 783d 6202 883c 746c 39bd fa4e e6bc
000003e0: 2950 93bd 74bd 803d aad8 d13a 272a 44bb
000003f0: 7fa7 2a3b e7c6 963d 49f8 84bd 78c1 483d
0.023338111 -0.0033794595 0.07891585 -0.08406482 0.006788232 -0.03805133 0.09180909 -0.10071071
-5.8985257e-05 -0.0030340115 -0.005408201 -0.03274113 0.051904455 -0.0678399 -0.0005033762 0.06000939
0.0584067 0.061536994 -0.00915883 -0.051049575 -0.066236064 0.030719982 0.034664024 -0.050816678
-0.020037921 0.04896146 0.06559609 0.051478185 -0.02717289 0.01757236 0.10087989 -0.06318043
-0.018266356 -0.038610976 -0.047785863 -0.08870382 -0.048293848 -0.034740206 -0.066214636 -0.076056644
0.05380003 0.033147663 -0.093931206 0.012566589 -0.10206074 -0.033985775 -0.096793145 -0.08139928
0.0096457815 -0.020066762 0.037725568 -0.05201918 0.0011299646 -0.0002345643 0.024042007 -0.0033605539
0.09305441 -0.0930186 0.007065767 0.020008577 -0.08584701 0.045454122 0.0028830627 0.009735019
-0.078826085 -0.0025192343 0.0014348084 -0.053011622 0.071859345 -0.051889665 -0.07044671 0.011770076
0.055308573 -0.00045072444 -0.07760046 0.09001981 0.04054184 0.047997292 0.0673581 -0.011626388
0.08824491 0.072592996 -0.07370034 -0.10001255 0.01494526 -0.02140464 0.0046757814 0.008202447
-0.08078958 0.0060946797 -0.022355715 0.0057142563 0.013861467 0.048186373 -0.029905705 0.057610746
0.0048426394 -0.011603379 -0.066859946 0.050192397 0.016976029 0.0063329544 0.02680035 0.012644073
0.033903606 -0.07834391 -0.0024593126 0.09817026 -0.00077484245 -0.07021468 -0.09124704 0.040253554
0.053170778 -0.06620389 0.008737898 0.010692557 -0.002486085 0.08123344 0.04577993 -0.07645355
0.080661856 -0.06555995 -0.028085526 0.029856298 0.008727646 -0.035874702 -0.067025155 0.07954238
-0.00028908334 0.03163259 0.0020151155 -0.07272202 0.006828229 0.0038838913 -0.051160496 -0.09612195
-0.026680725 9.68082e-05 0.045855828 0.05404041 -0.0023928962 0.015417169 0.07140244 -0.012378757
-0.050510563 -0.0718853 -0.096018665 0.08317104 0.06135808 -0.06596333 0.08264111 -0.08776927
-0.05729442 0.050130337 -0.039268088 -0.031367444 -0.0010976746 0.03900248 -0.09019952 0.08169532
0.08259877 -0.0031726197 0.0010517449 0.057354134 0.0015804511 0.010838356 0.03957139 -5.6128374e-05
0.0027127867 -0.0911678 0.024995714 0.057350032 0.0029595348 -0.065747246 -0.0033853855 -0.07745678
-0.01082483 -0.0014213985 -0.09963205 9.263342e-05 0.033427034 0.059751365 0.036118757 -0.04111531
-0.038714968 0.063118696 -0.0053407247 -0.007722444 0.033310194 0.10079867 -0.0008888234 -0.07772621
-0.100810505 0.02298608 0.015402911 0.096275456 -0.0037807962 -0.0069539035 -0.09866738 -0.025120577
-0.0025112936 0.049308117 0.06818383 -0.039627377 0.001778879 0.038541302 0.002613959 0.04003638
-0.06383117 0.011494074 -0.06385269 0.08388508 -0.040525466 -0.07259073 0.00057616533 -0.023780545
-0.081400536 -0.03503344 -0.09102291 0.0031027237 0.0062328307 -0.04680819 -0.027236903 0.0033686396
0.022385824 0.00039427122 -0.00035708502 0.08468389 0.063704915 0.03406417 0.018060334 0.012743486
0.07765365 -0.009468746 0.09717728 -0.0007316321 0.056405973 -0.049483754 0.096551426 -0.071924664
-0.061310843 -0.0013117272 0.06324709 -0.013619228 0.060658146 0.016602699 -0.045269445 -0.02811383
-0.07193024 0.06286135 0.0016010005 -0.0029932351 0.0026039777 0.07362156 -0.06492669 0.04901263

encoder.gru.bias_ih_l0 f4 [192]
00000000: a60e 9dbd 8289 30bd dedc 34bd 839d 95bd
00000010: e232 1f3a e2b1 223c 9315 963d ea18 173d
00000020: ac05 26bb b984 9fbd 1d92 a6bd 98d5 93bd
00000030: b67f cd3c 7a82 423b 071d da3b c243 bfbd
00000040: 9a64 9fbd aab0 67bd 7a00 993d 05f6 80bd
00000050: 99e3 9c3c 21e6 90bd 8fed 7d3d 4649 353d
00000060: a088 853d 9a39 433d 3969 013d 5cb7 253d
00000070: 34f2 633d 6bc4 20bd cf8a 9ebd ea58 273c
00000080: 85b5 f03b fffd 4cbd da5f abbc 7504 993c
00000090: d391 c83d dd0a b6bd c1a5 7d3d 3be9 083d
000000a0: 83b7 613d 355a 58bd 0e9d 81bd a635 6c3d
000000b0: e093 183c c8ab 463b 06da a63b 214e 903c
000000c0: d1f9 b63c 56d9 a9bd f702 9e3d cdd7 973b
000000d0: e5d4 1d3d 688d 013d f153 74bd c7e7 49bd
000000e0: e967 ac3c 9412 99b9 8592 a4bb 950d 433c
000000f0: 36b4 ac3c 4d51 02bb e5f4 04bd bed8 53bd
00000100: 528a a1bd 7eca b43d 6fd5 bd3d ffac 2c3b
00000110: 7ab0 11bb eea0 eabc ca8a 8abd 5930 803d
00000120: 41cb 56bd ba13 c6bd 8ebc 71bb cac3 96bd
00000130: a05f 09bd f507 17bc d840 bf3d c822 cab8
00000140: ea9c 9dbd 2c94 82bd a3b8 bfbd 5146 6b3d
00000150: fc9e c7b9 271f 833d e65d edba 8a9e a83d
00000160: 34b6 bf3a 4a07 30bb d0d4 16bd a59e 1b3b
00000170: da58 1f3d 40a3 333d 6f5d 6e3a 0cbb 86bd
00000180: 882c 66bb 6c9c 03b9 1ccb 7dbd 19b5 69bd
00000190: c6d5 a6bc a27d c7bd c13a c63d cce0 7fba
000001a0: 52db eabc c36f d3bc 8d87 b2bd bc4c 553a
000001b0: 80db b13d c2de 35bc cb0d acbd e6b6 a1bc
000001c0: 7e79 123c 67f0 a4bc d8d6 113d 183e e43a
000001d0: d34f 633a 5e39 9fbd 2ef2 80bb ed22 93bd
000001e0: 2c6f cebd 76a6 b53d 794e 353d 4d84 4c3d
000001f0: 377b 02bd 9ca4 19bc db69 b4bc 3294 11bd
00000200: 11de 193d fc4f 17bd ec18 8c3d 9df0 553d
00000210: db1a 853d 4713 e83d 2f18 72bb 1a18 323d
00000220: 00a4 ab3d bf06 3c3d c59a 043d 9f83 f9bc
00000230: 082b 48bd 3dc5 0d3b 6c1c 56bd 4fea 9a3d
00000240: 363e c33d 37ae e03d c850 563d 3b56 a1bd
00000250: d13b a63c 7b41 853d f15e 313c 38dc 6e3d
00000260: 2994 2b3d 3615 97bd d71e 7f3d 9a56 fc3b
00000270: f776 d23d fa7f b13d 01bd a43d e2d0 703d
00000280: f377 5dbd c959 a9bd 2e46 dd3c ee09 acbd
00000290: 9d03 a73d 034b ddbd ac0c 063b babe 1e3d
000002a0: 8826 2e3d bab1 aabd 5b88 cf3d a7ad 32bd
000002b0: 5e49 1ebc debd e93d 69f6 8abc bbc0 863d
000002c0: 2dc9 ccbd 922d 3c3d 4965 17bd f8da 6b3d
000002d0: 1089 91bd b4fb ddbd 5797 c5bd 44c6 bfbd
000002e0: 6b6e 95bc 9e15 f93d 1865 b8bd 6a35 3cbd
000002f0: e2b6 81bd 7390 eabc 39c9 b6bd 21f0 7d3c
-0.076688096 -0.043099888 -0.044155948 -0.073054336 0.0006072951 0.009930106 0.07328334 0.036888994
-0.002533297 -0.07788987 -0.08133338 -0.07218474 0.025085311 0.002967982 0.0066562924 -0.09339096
-0.0778286 -0.056564964 0.07470794 -0.062969245 0.019151496 -0.070751436 0.06199413 0.044259332
0.065202 0.047662355 0.03159449 0.04045807 0.055650905 -0.03924982 -0.077413194 0.01021407
0.0073458576 -0.050046917 -0.020919729 0.018678883 0.09793439 -0.08888791 0.061925653 0.03342555
0.05510665 -0.052820403 -0.06328784 0.05766835 0.0093126 0.0030314792 0.0050919084 0.01761538
0.022335919 -0.08293407 0.07715409 0.0046338798 0.03853311 0.031628996 -0.059650365 -0.049293306
0.021045642 -0.00029196276 -0.0050223493 0.011905094 0.021082025 -0.0019884885 -0.032460112 -0.051720373
-0.07887711 0.08827685 0.09269225 0.002634823 -0.0022230432 -0.02864119 -0.06764753 0.062592216
-0.05243993 -0.09671731 -0.003688607 -0.073615626 -0.03353846 -0.009218206 0.0933854 -9.638589e-05
-0.076959446 -0.06375918 -0.093613885 0.057440106 -0.0003807469 0.06402426 -0.0018109649 0.08233364
0.0014626444 -0.0026859813 -0.036824048 0.0023745683 0.038903095 0.04385686 0.0009092902 -0.06578645
-0.0035121758 -0.00012551405 -0.06196128 -0.057057474 -0.020365607 -0.097407594 0.09679175 -0.00097609754
-0.028669033 -0.025810128 -0.087172605 0.00081367395 0.086844444 -0.011100473 -0.08401068 -0.019740533
0.008940099 -0.020134164 0.03560528 0.0017413525 0.00086712575 -0.07774614 -0.00393512 -0.07184396
-0.10079798 0.088696405 0.04426429 0.04993086 -0.031855788 -0.009377625 -0.022023132 -0.03554172
0.037565295 -0.036941513 0.06840691 0.05223142 0.06499263 0.11331802 -0.0036940684 0.043480016
0.0838089 0.04590487 0.032374162 -0.03045827 -0.048869163 0.0021632456 -0.0522732 0.07564222
0.0953335 0.10970729 0.052323133 -0.07877775 0.020292195 0.0650663 0.010825858 0.058315486
0.041889343 -0.073770925 0.06228527 0.0077007534 0.10276597 0.08666988 0.08043862 0.058792956
-0.05406947 -0.08269078 0.027011003 -0.084003314 0.08154986 -0.10805323 0.002045433 0.03875611
0.042517215 -0.0833468 0.101334296 -0.04362264 -0.009661047 0.114131674 -0.0169632 0.06579729
-0.09999309 0.045941897 -0.036961827 0.05758187 -0.07106221 -0.10839024 -0.096480064 -0.09363988
-0.018241128 0.12162326 -0.09003657 -0.045949377 -0.0633371 -0.028633332 -0.08925099 0.015499146

encoder.gru.bias_hh_l0 f4 [192]
00000000: c028 69bd 79e1 653c 96e9 2e3a c152 8a3c
00000010: 5ec8 a13d ee75 c2bd 2579 b4bd c30f 8fbd
00000020: 8f55 8ebc 63ba 513d 59b9 41bb 8191 abbd
00000030: 6de1 60bd ac75 27bd f886 a6bd b4d4 05ba
00000040: d0e9 253c cf4b 153d 0f19 b73a 2649 a13d
00000050: 78f0 f43b e5b0 393d 9ad9 22bd 1cf8 cb3c
00000060: 1d8c a33d d4af e8bc a6b7 bfbd 33ec a4bd
00000070: 4095 22bd 55a9 4b3c 8edd d23c e7af 08bd
00000080: 27ce a43c 8c7a 083d 80ae 043d cd49 a93d
00000090: 225f 8abc 83fc f33c 3fbc 97bd 9605 90bd
000000a0: eae2 a7bd dc01 b038 09af aa3d 58b4 833d
000000b0: d48d 8dbc e885 243d f799 4dbd a469 363d
000000c0: 4cb0 503b 78f6 653d 8b50 ba3d 7160 563d
000000d0: bd0e 4cbb 217f 993b 6191 febc edb3 8a3d
000000e0: af03 8b3d d944 93bd 4467 d8bc 7b3d 1e3d
000000f0: dea5 563c 5397 25bd 8c63 88bb 4ef2 453d
00000100: bc8b 91bd ed94 203d 4a6f c23d 42ee 0abd
00000110: 1317 703a 84ed a6bd d012 64bb eeb7 cdbd
00000120: e02f acba 472c 83bd afd3 183b 93ec e63c
00000130: 22d2 c8bd de6e 093b 624f 9bbd fd3d 1f3a
00000140: 93b3 843d e179 ad3c 4510 903d 2934 00bc
00000150: 572b b4bd da16 ae3b 63d0 ce3d b762 30bd
00000160: ef79 d0bc 4023 9b3d e8b1 61bd e348 9c3a
00000170: d226 a03d 460e 00bd 71aa 7ebd 6833 11bd
00000180: e734 01bb f89b 9c3d 90fd 66bc 9cdf f1bc
00000190: e374 8d3d 1040 8f3d 1e1d 17bd 328a 2c3b
000001a0: ae19 b73d af40 e7ba bfb1 02bd b580 913c
000001b0: 2264 e7bc ab54 753d 0e03 113b 0411 913d
000001c0: d016 8e3d 54b0 ce3d 84ec da3b 4e06 ef3a
000001d0: 68d5 c1bb b441 1ebd 719a afbd 5825 4c3d
000001e0: 1669 d33c 3c86 c5bc 15a5 a0bd ee60 4cbd
000001f0: 2e02 17bd 9f5f ccbd dc7b b4bd 7f1e 1bbd
00000200: 3432 bcbd eccd d63d a5e1 8ebd 3895 743d
00000210: 5d9a 0e3d b19c de3c b45a d83d c4ef a2bd
00000220: d786 c0bd 1bd8 973d 0b8a 753d 050e cb3d
00000230: fb93 ff3b 5168 49bd 47f3 8c3b 768f 88bd
00000240: e9b9 febc 060e 433d 4274 40bd 7a49 943b
00000250: 20ad d13d a073 e13c 8993 d6bd 5a00 cb3c
00000260: cd33 5c3c aff7 6d3d e911 bfbd 715d 183d
00000270: 51e2 2b3d 9f40 c5bc 376f 1d3d 8527 2c3c
00000280: c73d 863d 87c2 493c ef1c 483c 8b48 283d
00000290: 6ef5 b3bd dda9 ad3c 2087 2cbc daf2 28bc
000002a0: 1a2e 1a3c 27be d83b 3e86 443d 251e a33d
000002b0: 7770 95bd 9eb3 75bd bfc3 06bd 54ad da3d
000002c0: aeb3 633d 6ced 523d 1c7e 4b3d 65cd b53b
000002d0: 287c 9bbc f0a4 12bd 3aa5 51bd 1e6b 87bd
000002e0: a42b 00bd 015a 783c d44c 0bbd ce01 933c
000002f0: 95df 293c a995 3b3d 1d2c 383d d3c4 593d
-0.056923628 0.014030808 0.000667238 0.016885163 0.07899545 -0.094951496 -0.08812169 -0.06985428
-0.017374782 0.051203143 -0.0029559939 -0.08377362 -0.054902483 -0.040883705 -0.08131212 -0.00051052426
0.010126546 0.03644925 0.001396926 0.0787528 0.007474955 0.045334715 -0.039758302 0.024898581
0.07985709 -0.028404154 -0.093612 -0.08052864 -0.039693117 0.012430509 0.025740411 -0.03337088
0.020117832 0.033319995 0.03239298 0.082660295 -0.016891066 0.029783493 -0.07408952 -0.070323154
-0.08197577 8.39268e-05 0.083341666 0.06430882 -0.017279543 0.040166765 -0.05019566 0.04453434
0.0031843362 0.056143254 0.090973936 0.052338067 -0.0031136714 0.0046843444 -0.031075181 0.06772599
0.06787812 -0.07190866 -0.026416428 0.03863285 0.013101069 -0.040427517 -0.0041622575 0.048326783
-0.0710673 0.039204527 0.09493883 -0.033918627 0.0009158712 -0.08150771 -0.0034801252 -0.100448474
-0.0013136826 -0.064049296 0.0023319533 0.02818898 -0.09805705 0.0020970623 -0.075835004 0.00060746056
0.064795636 0.02117628 0.07034353 -0.007824936 -0.08797329 0.0053127827 0.1009834 -0.04306289
-0.025448767 0.07575083 -0.055101305 0.0011923577 0.078199044 -0.031263612 -0.062174264 -0.035449415
-0.001971537 0.07646936 -0.01409854 -0.02952557 0.0690706 0.06994641 -0.036893003 0.0026327488
0.08940445 -0.0017643179 -0.031907793 0.017761568 -0.02824599 0.0598952 0.0022127065 0.070833236
0.06937945 0.10092226 0.006681027 0.0018236132 -0.0059153326 -0.038636878 -0.08574379 0.0498403
0.025806945 -0.02411186 -0.07843987 -0.049897127 -0.036867313 -0.09979176 -0.08812687 -0.03787088
-0.09189263 0.10488495 -0.06976632 0.05971262 0.03481518 0.027174326 0.10564175 -0.07955888
-0.09400719 0.07414266 0.0599461 0.099147834 0.007799623 -0.04917175 0.004301462 -0.06667988
-0.031094508 0.047620796 -0.046985872 0.0045253607 0.10238099 0.027520955 -0.10477359 0.024780441
0.013440085 0.058097538 -0.09329588 0.037198488 0.04196388 -0.024078665 0.03843614 0.010507469
0.06554752 0.012314445 0.01221393 0.041084807 -0.087870464 0.021199161 -0.010530263 -0.010311807
0.0094104055 0.006614465 0.047979586 0.07964734 -0.072968416 -0.05998575 -0.03290152 0.10677591
0.055591278 0.051495954 0.049680814 0.0055481666 -0.0189801 -0.035801828 -0.051182963 -0.06612228
-0.03129162 0.015158177 -0.034008816 0.017945196 0.0103682475 0.045797024 0.044963945 0.05316622

encoder.project.0.weight f4 [64, 64]
00000000: ae9b c9bd a379 653c ed0a c53d 3263 5b3c
00000010: 4fd4 70bc ca06 b5bb 896a c53d 9333 c13d
00000020: befb 9cbd 56e8 a9bd e247 53bb 888d 89bd
00000030: 1afe 813d 3425 193d 8ea7 15bd 68c5 f13c
00000040: 0540 fabc 2847 bbbd d87d 72bd ce5d dbbd
00000050: 13a0 9abd a1e3 9bbd fc2d 91bd 5c74 ee3d
00000060: 8806 3d3d 071b d53c 296b a5bd b141 ca3d
00000070: 614a 38bd a113 0b3d fe88 4f3d 2ad4 d1bd
00000080: abfd c3bd aaac e7bc 48b4 043d 3566 bb3d
00000090: f375 6f3d 9b7f 953c 8aed 20bd c466 913c
000000a0: 10d3 a2bb 0494 943d eea1 26bd 4138 703c
000000b0: 90c0 bf3d 6198 873c 45d9 52bd 32d6 33bd
000000c0: 758e c03c 16d2 afbd bc78 173c 3aa3 903d
000000d0: 1b26 97bd eded 843d 61e3 aabd 5b62 303c
000000e0: fde1 903d dccc 813d 69a9 94bd 03a6 853b
000000f0: 54b6 19bc 47b6 8abd 3712 c4bd ee7a 33bd
00000100: 9b6b b0bd 8aea 823d 0590 fc3c 6511 b73d
00000110: 3bb8 e4bd e28c cbbd baba c63d 0918 bf3d
00000120: f8d6 06bd 5a40 0dbd a588 e3bd 0ac1 bebd
00000130: ab7f 31bd 1ea4 393d 4dca d63d a528 2ebc
00000140: 4cb6 b83c 65d7 8fbd 64b3 38bc d231 ddbb
00000150: e797 d13c 6381 45bc 9c5a c7bd 7b73 b8bd
00000160: b108 a9bd 1491 a9bd 3c23 323d 429b 56bd
00000170: c9ae 4b3c f374 373d 7323 cf3d 77da fbbb
00000180: e894 5abd 9307 49bd 5378 b73c e1c1 f1bc
00000190: 0498 d2bd 1cd3 703b 03ee dbbc b434 e73d
000001a0: f409 dabc 6621 a9bb d38c 52bd d3c6 963d
000001b0: 8a68 b6bd 210b 0d3d 2700 9d3d d692 e5bd
000001c0: 43bb 1bbd 061b 793d 9ca8 b23c 0688 d63d
000001d0: 1560 553d baab 593d c956 9f3d f49b df3b
000001e0: 18ea 8bbd 5933 f4bb d359 afbd 33b8 d33b
000001f0: 4bfb 803b b3d4 debc 898f dd3d 0b68 acbc
00000200: a9c7 54bd d443 0dbb 0905 07bd 7591 52bd
00000210: 9ccf cc3d 0a81 803b 5fae 453c e264 943d
00000220: e72a aa3c 932c 433d 4ed2 86bd d207 02bd
00000230: bb2e a3bc 4d1b 6fbd 7ced 93bc 37cf b53c
00000240: e940 f7bd c259 b7bd 7ad6 9e3d 6571 103c
00000250: 6a6e e73d 5384 7d3d 4d66 96bc f910 b03d
00000260: ce34 e0bc 0926 5bbd 391c da3d 3d54 4dbd
00000270: c042 a93c ce71 263d f66b da3d dc5f 95bd
00000280: 2060 813d 2c22 8fbd e921 d5bd b210 c93c
00000290: 0f7b 60bd e4a6 a7bd 536f be3c 3d41 5b3d
000002a0: dead 843d b391 ca3b 6bc7 af3d 2256 3b3c
000002b0: b57a 27bd 57da b63d 8284 403d 6094 b33d
000002c0: 4aa7 2c3d 8cba 283c e2b2 3a3c 979d aa3b
000002d0: abd7 113d bd6a 9f3d 96c1 a2bd ac6c 0bbd
000002e0: bc61 17bc c1cd e13c ec16 a33d 3cb5 2e3d
000002f0: d151 afbd b9f8 e8bd 0c25 a53d d136 e43d
00000300: 2699 c3bd 6654 8f3d 148c 903d 7eb0 d2bd
00000310: 45e6 8f3d 752b c53c 08b6 743d 50bd e93d
00000320: 1ddb 6f3a 4be2 3bbd 1b3f 8b3d 8a54 e3bd
00000330: 15da a7bd 78be 553d 14e2 833d 94e6 61bd
00000340: 0a9a 483d 5329 acbd 8c52 063d 40c4 88bd
00000350: 7fe4 61bd 96e0 d5bd f6f2 273d 0df1 cabd
00000360: 5ade df3b 1c4f 603d 357d c9bd f39c d5bd
00000370: 0d6e 7ebd df35 4b3c 2aa2 bd3d 9741 953d
00000380: f608 bc3c d837 f4bc c7fd dbbc 96ff f23c
00000390: 4f40 51bd 155e 883d a21b d13c 0eed 393d
000003a0: f232 6b3d 094a d23d 1c77 51bd ad3b 2bbd
000003b0: 5a8f 3bbd 3acb bb3d adfe 80bd 2875 d93d
000003c0: dba6 6ebd bafe afbd 1651 4c3c 7a9a 103d
000003d0: 2b7d 443c c4c4 75bc 76b2 053b 7567 e03c
000003e0: f54d 063d e317 743c 00d3 ff3c 30c4 f53c
000003f0: e5bc 733c debe ad3d d268 dfbc 3f62 fcbc
-0.09844147 0.014006051 0.096212246 0.013390349 -0.014699056 -0.005524491 0.096394606 0.09433665
-0.076652035 -0.08296268 -0.003223889 -0.06716448 0.06347294 0.037388995 -0.036536746 0.029513076
-0.030548105 -0.09144431 -0.059202045 -0.10711251 -0.07550063 -0.07611776 -0.07088849 0.116432875
0.046148807 0.026013864 -0.0807708 0.09875811 -0.04499281 0.033954266 0.050667755 -0.10245545
-0.09569868 -0.028280575 0.032398492 0.09150354 0.058462095 0.018249324 -0.039289035 0.017749198
-0.0049690083 0.07254794 -0.040681772 0.0146618495 0.093629 0.016552152 -0.051476736 -0.043905444
0.023505429 -0.085849926 0.009245094 0.07062383 -0.07380315 0.06490693 -0.0834415 0.010765637
0.07074354 0.06337902 -0.07258875 0.004078628 -0.009381849 -0.06773048 -0.09573787 -0.043818407
-0.08614274 0.06392391 0.030830393 0.089388646 -0.11167952 -0.09938981 0.09703584 0.09330756
-0.032919854 -0.0344852 -0.11110047 -0.09314163 -0.043334644 0.04532253 0.104878046 -0.010629808
0.022547863 -0.07023505 -0.011273239 -0.006750324 0.025585128 -0.012054774 -0.09734079 -0.09006401
-0.08253611 -0.082796246 0.043490633 -0.05239416 0.012431809 0.044789266 0.10114183 -0.007685955
-0.053364664 -0.04907949 0.022396242 -0.029511394 -0.10282901 0.0036746925 -0.026846891 0.11289349
-0.026616074 -0.005161452 -0.05140383 0.073621415 -0.08906658 0.03443444 0.07666045 -0.11209647
-0.038020384 0.060816787 0.021808915 0.10475163 0.052093584 0.053142287 0.07780225 0.006824011
-0.06831759 -0.00745241 -0.085620545 0.0064611672 0.0039362065 -0.027201032 0.10818393 -0.021045705
-0.051948223 -0.0021555321 -0.032963786 -0.05140825 0.10000536 0.0039216327 0.012065499 0.07245804
0.02077241 0.04764993 -0.06583081 -0.03174574 -0.019919744 -0.058375645 -0.018057577 0.022193534
-0.120729275 -0.08952667 0.07755752 0.008816098 0.11300357 0.061893772 -0.018359328 0.08596987
-0.02736893 -0.05350307 0.10649914 -0.050129164 0.020661712 0.040635876 0.10665123 -0.07293674
0.063171625 -0.0698894 -0.104068585 0.024544094 -0.054804858 -0.08186129 0.023246443 0.053529013
0.06478475 0.0061819195 0.08582958 0.01143411 -0.040888507 0.08928364 0.04700137 0.08768535
0.042151727 0.0102983825 0.011395188 0.0052067745 0.035606068 0.077840306 -0.0794708 -0.034039184
-0.00923961 0.027563931 0.079633564 0.042653307 -0.08560527 -0.11375565 0.08063707 0.11143268
-0.09550695 0.069985196 0.07057968 -0.102875695 0.07026342 0.024068573 0.05974391 0.114130616
0.0009149777 -0.045870107 0.06799146 -0.11100109 -0.08195893 0.0521836 0.06439605 -0.055151537
0.048975028 -0.084063195 0.032793567 -0.06678057 -0.05514955 -0.10443227 0.04100319 -0.09909258
0.0068319263 0.054762945 -0.098383345 -0.10430326 -0.06211667 0.012402981 0.09259446 0.07287901
0.022953492 -0.029811785 -0.026854409 0.029662888 -0.05108672 0.0665857 0.025525872 0.04539209
0.057421632 0.10268027 -0.051138982 -0.041804958 -0.045791008 0.09169622 -0.062985756 0.10618049
-0.058264595 -0.08593507 0.012470504 0.03530357 0.011992733 -0.015000526 0.002040056 0.027393082
0.03278919 0.014898273 0.031228542 0.030000776 0.014876579 0.08483671 -0.027271662 -0.030808566

encoder.project.0.bias f4 [64]
00000000: 6136 bcbd c57c aabd 206f 2e3d 505a 24bc
00000010: b59b d33d d47b c43d 0291 353d d658 6b3d
00000020: 2deb a9bd 5051 a93d 605a f13d 5c32 293d
00000030: a8f1 9a3d d2fc 83bd 302a 6b3d 9bdc f5bb
00000040: ead1 7bbd 77bc 15bc 2934 c13d f1b2 b83c
00000050: 6437 433d d254 14bd 3188 aabd 1eec 20bd
00000060: 1fbe 463c 3ee3 bb3d 7311 633c 5886 90ba
00000070: f8e2 f03d 5451 9abd 484d 91bd f312 ad3d
00000080: 71eb bc3c a717 823d 36af acbd 88c9 3abd
00000090: d095 fd3d 0d8f 5c3c 25db 8ebc 3938 003e
000000a0: ebcf 9e3c 14e2 dd3d 5171 a03d c27a 7b3d
000000b0: b23d 1cbc 310f 183d 6660 9a3d f23f 1c3d
000000c0: 73e5 0dbc 9a10 193d 746f 0b3d f887 8cbd
000000d0: 6ed7 95bd 0aaf a23d 4031 e93c a80b e2bb
000000e0: e4d8 333d 0569 bb3d 8824 c83c d4e0 813d
000000f0: 95e4 643d 8b02 c53d db48 1dbd 5088 553d
-0.091900595 -0.08324579 0.042586446 -0.010031298 0.10332433 0.09593931 0.044327743 0.057457767
-0.08296809 0.08267462 0.11784816 0.041307792 0.075656235 -0.06444706 0.05741328 -0.007503105
-0.061479487 -0.009139172 0.09433777 0.022546263 0.047660246 -0.036213703 -0.08326758 -0.03928768
0.012130289 0.091742024 0.013859141 -0.0011026366 0.11762041 -0.07535043 -0.07094818 0.0845088
0.023061486 0.063521676 -0.08431856 -0.04560235 0.1238209 0.01346184 -0.01743848 0.12521447
0.019386252 0.108341366 0.078341134 0.061396368 -0.009536194 0.037123863 0.07537918 0.03814692
-0.008660662 0.037369348 0.034041837 -0.068618715 -0.073164806 0.07943542 0.028465867 -0.006898362
0.043908015 0.0915089 0.024431482 0.06341711 0.055882055 0.09619626 -0.03839956 0.05213195

encoder.project.3.weight f4 [8, 64]
00000000: da4b 4ebd ef46 cdbd ecbf 073e afac 11bd
00000010: 52aa 683d 9df5 b63d 9e37 f53d e01a 04bd
00000020: bc31 1e3a b380 aa3d 8b4e 76bc 6a7b d83c
00000030: 4456 14be 5b67 9aba 0136 ccbd 1b64 4f3d
00000040: 4ca5 863c b465 c0bd e85b 01bc 6cf7 273d
00000050: 2405 013e db8d b2bb ec6b 813d 6cae 04bd
00000060: c15b 6a3d 330e 1ebc e43b 903d a4d3 b1bd
00000070: a96d 58bc 19a0 8b3c cd32 2ebd 5620 b93d
00000080: c5df 873d 322c 28bc 1dab 6c3d 4892 a03d
00000090: 9a2c c6bd ec47 8d3d 18b2 af3d e541 1dbd
000000a0: 70a8 2bbc 1d4b 11bc 1785 043e cf4c 7f3d
000000b0: 93f5 efbd 8e00 f9bc e837 b7bd d542 da3d
000000c0: 491b 413d 8b11 013c 46eb 89bd ce0f e53d
000000d0: 94c8 4d3d a98d 763c deff d83c f57b 8dbd
000000e0: 4b1d 1d3b 30b5 b9bd 91e1 87bd b6f2 1fbd
000000f0: 9b8e e9bc 85f4 13bc f1bb c93d 0d4f 7dbc
00000100: 14b9 4eba 1663 553d 2c77 d13d 54fc e83d
00000110: df7d f8bc 5009 aabd 49ea c5bd a362 c23d
00000120: bde4 6f3b 21fd 9c3d 6fb9 71bd 2f24 e5bd
00000130: 225d c13d f7b5 813d bb00 dcbc fca5 813d
00000140: d91b ebbc 0b4e cd3d 182c c2bd 0ff9 a23d
00000150: 8cea e83d b0c9 c53d 65a7 3abd 7632 d83d
00000160: a048 f4bc 21bc 9a3b 2ce0 07bd 2636 77bd
00000170: 32a4 6b3d 8a20 78bd e718 b73d 7f8d 28bd
00000180: 5a59 bc3d ad97 51bd 3f90 10bd 6dcf 2e3d
00000190: 3be0 ac3d ae4b bd3d 1396 25bd bd3b 83bc
000001a0: 5234 913a 465e ebbd 3135 bc3d 7460 93bd
000001b0: 000c a13d 63d8 babd 69f9 cb3d 1f43 e0bc
000001c0: 3074 7abc ec98 90bd 3fb9 343c 2cfd 383d
000001d0: 8ee5 813d 3600 08bd 3a2b 8b3d 8d9a c93d
000001e0: 23ab a8bc 120a c73d 134d 20bd 2621 b23d
000001f0: f31e b13d 68bc d63d fc15 e5bc db0e a1bc
00000200: 0154 cdbd c69e 9c3d d640 51bc 07ca 19bc
00000210: e8e2 033d 6be9 5bbd c214 15bd 8e9e 8ebd
00000220: ef90 a23c 7c6f 0dbd 9f38 93bd 7d3d 8fbd
00000230: 1918 cc3d 5e9c 9dbb 45f0 9d3d 350b 563d
00000240: 9008 97bd 5a22 8dbb 8929 033e fbba b1bd
00000250: ef6a e5bd 5ff3 223d 99d8 7ebd d0a8 703c
00000260: b509 913d 67ef 403d 375b e7bd a252 07be
00000270: 305d 9f3d 0b09 0f3e 1f96 573d bf51 6bbd
00000280: fc9f 433c 7f61 b63d 262b 2c3d 37b6 adbd
00000290: 72f7 c6bd 8c28 033e bb6c 823d 255e f13c
000002a0: baf1 923d dd33 f0bd 57ef e83d 28ad 983d
000002b0: 190f 15bd c067 c23b 5e0c 353d ee39 eebd
000002c0: 9db0 2a3d bace 50bd f787 abbd 80dd 82bd
000002d0: 352e 33bd aee5 7bbd 8f08 9fbd e07e 83bd
000002e0: a8ac 53bc af6d cd3d 8baf a2bd 1941 5ebd
000002f0: 4915 323d 2a73 83bd 30c1 cebd 790b abbd
00000300: 8286 f1bc f204 59bd 9dbb c0bd 5468 20bd
00000310: 4032 573c d530 94bd faa1 09be b12d b0bc
00000320: 7f84 04be 9597 07be 2098 ac3d 330a 43bc
00000330: e87c 623b f5d9 a1bc c3bd bf3d 9928 983c
00000340: 0557 483d b856 4e3d 4bda 4fbc 9081 c7bd
00000350: e5d1 f9bd 9d58 babc d9a0 dbbc fbfc afbd
00000360: e8c9 ecbd f444 163d 4e6c 463c ec37 e3bd
00000370: bc75 d03b b4e3 ca3d cd3e e23d e174 04be
00000380: 65c5 0fbc bdbd a43d 3350 cf3d 45e2 d83d
00000390: 5449 c3bd 5fb2 bcbd b419 d2bb aec1 4b3d
000003a0: 47bd 9d3d acd1 d8bd 43cf 23bc 9727 c73c
000003b0: ff4b 043e 6387 883d 05ec 61bd 9c2e 693d
000003c0: 47c6 70bd b6a7 80bd 69eb 7cbd 05d5 d73d
000003d0: 5f3b 97bd 3431 453d d0ca da3d 1a31 d23d
000003e0: b839 7ebd 5dd0 79bb bc05 af3d 5c64 e93d
000003f0: 9091 d53c 1863 84bc 84ea 7a3c b2f1 88bd
-0.050365306 -0.10023295 0.13256806 -0.035565075 0.056803055 0.08933566 0.11973499 -0.032252192
0.00060346327 0.08325329 -0.015033375 0.026426036 -0.14486033 -0.001178007 -0.09971238 0.050632577
0.016436242 -0.09394398 -0.007895447 0.041007444 0.12599617 -0.0054490394 0.063194126 -0.032392904
0.05721641 -0.00964694 0.07042673 -0.08682945 -0.013209739 0.017044114 -0.042528916 0.09039371
0.066344775 -0.010264443 0.057780374 0.07840401 -0.09676476 0.06898484 0.085788906 -0.03839292
-0.01047717 -0.008868006 0.12941395 0.06232911 -0.117167614 -0.030395772 -0.0894621 0.106572784
0.04714516 0.007877718 -0.06734328 0.11184655 0.050240114 0.015048423 0.026489194 -0.069084086
0.0023973759 -0.09067762 -0.0663482 -0.039049827 -0.028510382 -0.009030466 0.098503 -0.015460742
-0.0007885855 0.05209645 0.10227808 0.11376253 -0.030333458 -0.083025575 -0.09663827 0.0949147
0.0036604844 0.07665468 -0.059014734 -0.11188542 0.09441592 0.06333535 -0.026855817 0.06330487
-0.028699802 0.10024651 -0.094810665 0.079576604 0.11372861 0.096576095 -0.045569796 0.105565
-0.029819787 0.0047221337 -0.03317277 -0.060354374 0.057529636 -0.060577907 0.089402966 -0.041150566
0.0919673 -0.05117004 -0.035293814 0.042678285 0.08441206 0.092429504 -0.040426325 -0.016019696
0.0011078215 -0.114925906 0.09189833 -0.07196131 0.07863617 -0.09123304 0.099596806 -0.027375756
-0.01528649 -0.070604175 0.011030494 0.04516332 0.06342612 -0.033203326 0.06795354 0.09843931
-0.020589417 0.09718718 -0.039136004 0.08697729 0.08648481 0.104851544 -0.027964585 -0.019660404
-0.10025788 0.07647471 -0.012771806 -0.009386546 0.032198817 -0.0536894 -0.03639675 -0.06963836
0.0198445 -0.034530148 -0.07188534 -0.0699415 0.09965534 -0.0048099 0.077118434 0.05225678
-0.0737468 -0.0043070735 0.12808813 -0.08678242 -0.112020366 0.039782878 -0.062218282 0.014688686
0.070819296 0.047103312 -0.11296695 -0.13215116 0.07781446 0.13968293 0.0526334 -0.057451006
0.011939999 0.08905315 0.042033337 -0.0848202 -0.09715165 0.12808436 0.06368395 0.029463837
0.07175012 -0.11728642 0.113737755 0.07454902 -0.03639135 0.005932778 0.044201247 -0.11632143
0.041672338 -0.0509784 -0.083755426 -0.06389904 -0.04374524 -0.061498336 -0.07765304 -0.06420684
-0.012919582 0.10030686 -0.079436384 -0.0542613 0.04347733 -0.0641845 -0.10095441 -0.083517976
-0.029483084 -0.05298323 -0.094107844 -0.039161995 0.013134539 -0.072358765 -0.13440695 -0.021506162
-0.12941168 -0.13241418 0.08427453 -0.011904287 0.0034559313 -0.01975725 0.09362366 0.018574046
0.048911113 0.05037567 -0.012686322 -0.09741509 -0.12198237 -0.022747332 -0.026810097 -0.08593174
-0.11561948 0.036686853 0.012110783 -0.110946506 0.0063616913 0.09906712 0.110471345 -0.12935211
-0.00877509 0.08044002 0.10122719 0.105900325 -0.095354706 -0.09213709 -0.0064117555 0.049745254
0.077021174 -0.10586867 -0.0099981455 0.02431087 0.12919615 0.06666448 -0.055156726 0.056929216
-0.058782842 -0.06281988 -0.061747942 0.10538677 -0.07384371 0.048142627 0.10683215 0.10263272
-0.062066764 -0.003811858 0.085460156 0.11396095 0.026070386 -0.016160533 0.015314702 -0.06686725

encoder.project.3.bias f4 [8]
00000000: fcc0 dabd 77f6 a3bd 3435 9abd f316 a13d
00000010: 10d8 d9bd 8b58 a73d 1894 f03d 703c 4dbd
-0.1068134 -0.08005994 -0.07529679 0.07865705 -0.10636914 0.08171185 0.11746997 -0.050106466

decoder.gru.weight_ih_l0 f4 [192, 9]
00000000: 904c 20bd aeed 8f3d fc9b e7bc 0867 d2bd
00000010: 15dd d1bd 49e5 cd3c 2a81 0d3d d493 9339
00000020: 69b7 8d3d 790b 95bb f2e1 993c 2aac 15bd
00000030: c5fd 763d 7df9 2a3c dc5f ba3c 14f3 303d
00000040: b9b4 123d 8f5a 943c 60e4 903d a6b8 bd3d
00000050: cb8e 7bbd a5c5 893d dd30 aa3d af22 4f3c
00000060: 1848 763d 3f61 15bd f5bf 83bc ddcd c2bd
00000070: 34f7 e33d 3c33 7939 2684 9e3d f057 cebd
00000080: 77d1 653c a043 8ebd 895f 3bbd 621e 1b3d
00000090: e5e8 aa3d ee7c b1bd e693 583d 6993 c83d
000000a0: 27c7 3dbd 1bed 8abd 6a80 dabd 69fd 7abd
000000b0: cf94 8cbc 5949 8bbb b781 2b3d cbf5 533d
000000c0: 82eb dd3c da5e 4fbd be21 60bd 3155 cebd
000000d0: 753f 473d 726d 65bd e5e9 783d 7c3a 8f3d
000000e0: 38b9 a5bd 31a2 0bbd a1b9 353d 25db d83c
000000f0: 2e09 743a 8dff 1f3d 8d06 a93b 1437 57bc
00000100: e3a4 cf3c 3895 39bd 6bd2 a8bd e2c5 ba3d
00000110: 6546 943c 0487 c1bd 686a a6bd 3adc 383c
00000120: b027 8dbd e563 cbbd 76e1 7b3d 3f81 2cbc
00000130: 128d c8bd 11f0 9e3d 917d b53d 55ee 1e3d
00000140: d2cb 133d ba1d d1bd 9bb0 913d 4b8d 6b3c
00000150: b8c5 2e3c 429b bd3c 002f 8dbc caa7 4c3c
00000160: 2d45 d0bd 32cf 82bd 2913 b4bd 69d2 cf3d
00000170: 9316 a63d ce1d 8cbd 4978 a43d e6c2 d03d
00000180: 0059 c0bc 8a64 3d3d 5cb0 e0bd 7160 41bd
00000190: fb68 d73c 5fb3 bebd 8ca4 aa3c cf10 7c3d
000001a0: 1628 743d 07e9 ebbc 800a af3c 542e 43bd
000001b0: 7c85 40bd b3a0 293d 1b88 4fbd 8857 d03d
000001c0: a152 b3bd 4dec 06bd b761 403d 76ef fdbc
000001d0: 5343 86bd a6f8 54bb d30a 1b3c 5b30 d1bd
000001e0: 7c79 a23c ebe9 883d 4129 933b c2c6 d03d
000001f0: 9d16 c1bc bda1 38bc 36db 683d 3568 cdbd
00000200: a2b7 c83d 38e2 f3bc 0bad e93c 8ae7 cdbd
00000210: 0b7c 9bbc 048d 023d a083 7abd 91ad 60bd
00000220: e33f 2ebd 2f87 84bc 52d0 97bc 05bf a6bd
00000230: fa8e b63c 6ab1 0dbd f6de 43bd a45f a93c
00000240: 49d6 ef3c ecf7 c43c add9 fb3c 04bb c03c
00000250: cd68 703b 9b76 783d c6f4 7dbc 07a5 663d
00000260: 8f47 063d d2ac 78bd c2f9 cc3c 43c5 b73d
00000270: 98b4 ac3c 9c37 3e3c 69bc 953d 1c14 76bd
00000280: ad68 97bc 33ea aa3d b84c e43c 123c 7cbd
00000290: 6145 0e3b b62d 743d d28a 22bc e9a9 963d
000002a0: 7c65 853d 0e8f 1ebd 1055 8abd fc14 7f3c
000002b0: 002e ff38 a850 b0bd 961d ef3c 648b 93b8
000002c0: 4846 6d3c e0b2 92bb ad1a 90bd 30a1 11bd
000002d0: 7295 473d 5f8c 5b3c c0f2 093c a2b0 f23c
000002e0: 7d7b c63d 495a afbc 7afa eabc bcc0 7e3d
000002f0: 525c 483d dc87 28bd 766b b53d 1c34 803c
00000300: 5e22 9e3d 3a79 8f3c aea2 c03d f987 443d
00000310: a696 b03d 267d 333d b378 193d 96f0 1cbd
00000320: e1da 993c e70f a23d 0aad 823c 5263 a83d
00000330: 8bb1 d43d 1f33 eb3c 87b3 27bc 83a0 2f3d
00000340: f7a8 b53c 85bd 8b3d 1ea9 cbbd bc12 23bd
00000350: af5a 5abd 5fa7 85bd 83d7 6fbd 7589 1a3b
00000360: c09c 48b8 2bf6 493d 5203 ef3a b6e8 a33d
00000370: c6a4 32bd 157d a13d 41ac b0bb b2b0 adbd
00000380: 6d69 adbd 93d1 a4bd ce0d 33bd c5da 4abc
00000390: 7c7d bf3d 7ce3 603d f0a5 843d 7330 b33c
000003a0: 1cc3 c43d 051d 283c 72a7 bd3d 52de 353b
000003b0: 0576 f53c 9a0d 173d 022a b0bd f1c0 47bd
000003c0: 132e babd 881c 0dbc 0ccb a73c eaa1 083d
000003d0: dadb 473d 55d2 843c e037 6fbb d0f7 203d
000003e0: 53ab 28bd 4078 6dbc fd39 74bc 5caa 9d3b
000003f0: 30d3 813d cc5b 7ebd 7b9c 46bd 4d51 e4bc
-0.039135516 0.07027756 -0.028272621 -0.10273558 -0.10247246 0.025133746 0.03454701 0.00028148165
0.06919748 -0.004548487 0.018784497 -0.03654114 0.060300607 0.010435459 0.022750787 0.043200567
0.03581688 0.018109588 0.07074809 0.092637345 -0.061415475 0.06727151 0.08310101 0.012642547
0.060127348 -0.036469694 -0.016082743 -0.095119216 0.11131135 0.00023765577 0.07740049 -0.100753665
0.014026991 -0.06946492 -0.045745406 0.037870772 0.08345202 -0.086664066 0.052875422 0.09793741
-0.046332505 -0.067835055 -0.10669024 -0.061276827 -0.017160801 -0.004250687 0.041871753 0.05174808
0.027089838 -0.050627567 -0.05471968 -0.10074843 0.0486445 -0.05601258 0.060769934 0.06993577
-0.08091968 -0.034090225 0.044366483 0.026471684 0.0009309229 0.03906207 0.0051582516 -0.01313569
0.025347179 -0.04530832 -0.08243259 0.091197744 0.018099973 -0.0944958 -0.08125764 0.011282975
-0.068923354 -0.09931163 0.061494313 -0.010528862 -0.09792532 0.07760633 0.088618405 0.03880151
0.03608305 -0.10210748 0.07113763 0.014376949 0.010667257 0.023145322 -0.017234325 0.012491176
-0.10169444 -0.063871756 -0.08792717 0.101475544 0.081097744 -0.06841622 0.08030755 0.10193424
-0.023479939 0.04623846 -0.10971138 -0.047211114 0.026295176 -0.09311556 0.020830415 0.061539467
0.05960854 -0.02879764 0.021367311 -0.047651604 -0.0470023 0.04141302 -0.05066691 0.10172945
-0.087559946 -0.032940198 0.046968188 -0.030997973 -0.0655581 -0.0032496839 0.00946303 -0.10214301
0.019833319 0.06685241 0.004491002 0.1019416 -0.023570353 -0.01126903 0.05684968 -0.100296415
0.0980065 -0.029770955 0.028524896 -0.10053928 -0.018980047 0.031872764 -0.061160684 -0.054853026
-0.042541396 -0.016177742 -0.018531952 -0.08141903 0.022284973 -0.034593023 -0.047820054 0.020675488
0.029276984 0.024044 0.030743444 0.023526676 0.003668356 0.060659986 -0.015500253 0.056309726
0.032783087 -0.06071169 0.025021438 0.089731716 0.021082208 0.011609938 0.07311327 -0.06007777
-0.01848253 0.08345451 0.027868614 -0.061580725 0.0021708834 0.059613906 -0.009920793 0.073566265
0.06513497 -0.038710646 -0.06754506 0.015568968 0.00012167916 -0.08609134 0.029188912 -7.03547e-05
0.014482088 -0.00447689 -0.07036338 -0.03555411 0.048726507 0.013400166 0.0084196925 0.02962524
0.09691522 -0.021405356 -0.02868389 0.062195525 0.04891617 -0.04114519 0.08858387 0.015649848
0.07721399 0.01751386 0.09406029 0.047981236 0.08622484 0.043820523 0.037468623 -0.038315378
0.018781127 0.079131894 0.015951652 0.08222069 0.10385426 0.0287109 -0.010235674 0.042877685
0.022175295 0.06823257 -0.09944366 -0.03981279 -0.05330914 -0.06526064 -0.058555137 0.0023580466
-4.78297e-05 0.04930703 0.0018235242 0.080033705 -0.04361417 0.07885186 -0.005391628 -0.084809676
-0.08467374 -0.080477856 -0.043714337 -0.01238126 0.09350106 0.054904446 0.064769626 0.021873688
0.09607527 0.010260825 0.09260453 0.0027750921 0.029963503 0.036878206 -0.08601762 -0.048767988
-0.09090819 -0.008612759 0.020482562 0.03335754 0.04879365 0.016213575 -0.003650181 0.039298832
-0.041179013 -0.014494002 -0.014906404 0.004811568 0.06339109 -0.062099263 -0.048489075 -0.027870798

decoder.gru.weight_hh_l0 f4 [192, 64]
00000000: 6319 87bd 0961 28bd 138e cd3c 4c74 a2bd
00000010: 3a8c 3aba 94d3 c0bc 77f0 153d 9511 2f3c
00000020: 380b 85bc 3b22 ce3b 7eff 6d3a d9df a7bc
00000030: 864b 3e3c bcf0 4f39 558d bcbd bf8d cfbb
00000040: 3ebd 50bb 775c ebbc bd6c 75bc addc 0cbc
00000050: dfb3 fb3c 1214 74bd f271 58bd b9a0 113d
00000060: 1fcd 87bc 6bc4 503d bf40 9dbd cd71 3d3c
00000070: 220f 6abd ce10 85bc 0238 063d 44f6 823c
00000080: 21eb b53b d38a e83c 054f 4dbd d0c1 5b3d
00000090: 6a4c 8f3d daa1 db3c 64bc c6bd addd 60bc
000000a0: 22fc 9a3d d844 8fbc a7f0 de3b 26f7 05bd
000000b0: 43ab a6bd 1ad2 bcbc b33a bcbd 811d 853d
000000c0: 7ab3 d3bb d4d3 c5bd 459f 6abd 516b 82bd
000000d0: 14dc 413d 5876 0d3c 3240 77bc 01ff 95bb
000000e0: 69f1 0abd 74b7 85bc 49c0 bc3b 464e 973d
000000f0: 431e 2a3d 11e5 373d be72 c93d 5380 863c
00000100: 5013 be3c e928 453d 2b9d a4bd a52e 873d
00000110: 49a5 7bbd f439 b6bc 83f4 00bb ba97 a53d
00000120: dad2 a63d c46f 93b9 77a0 893c 38a3 0c3b
00000130: 1ef4 cc3d bb91 b53d 1929 1c3d d2e3 6e3b
00000140: 77c4 11bb 9634 63ba 39d2 a33b 1e4d b63d
00000150: b7e8 89bd 922d 123c e426 c03c 33c9 5fbd
00000160: ac42 a23d 6372 663d de04 053c 8276 8dbc
00000170: 8925 8a3d e257 85bd 9b89 c13d 799c b93d
00000180: 9008 853d 2370 babb f918 d0bc 0664 8f3d
00000190: 8b0c 7bbd ef01 54bd 70f1 153d d0bb a93d
000001a0: fdfb bbbc 7b07 54bd b9ca 32bc 9f3a 2dbd
000001b0: d79f 063d 8b80 37bc 4195 7e3d 0009 573d
000001c0: e75d 82bd b82a 90bc 12ae 843b 0055 b1bc
000001d0: bad7 063c 4e68 adbd ffc8 a9bd 074c a3bc
000001e0: fe17 ad3d 7c96 37bd 26a2 1a3d e2f6 b6bd
000001f0: 1219 adbd 3503 d23c 84c1 f6bc be5f 3b3c
00000200: 4a04 b63d e2c8 aa3d 3f8f 343d e074 533c
00000210: 46dc 3bbc 80b8 9bbd d023 36bb b7b0 b9bd
00000220: ca3c 7b3c 40f0 84bd f39e afbd 988a bb3d
00000230: fdb6 e3bc c2e3 b33d 205e 533d a812 9e3d
00000240: a945 cc3d 8262 4e3c 6ee3 973d 1864 f1bc
00000250: 6d97 8ebd 04b4 633d e7fa be3d aee0 c63d
00000260: 35c0 9a3d 296a 63bd 86d1 c33d a829 5a3c
00000270: 37a6 79bc e978 413d d165 0e3c 090e 253c
00000280: a7b1 9cbd f440 493d e00f 913d 8873 cbbd
00000290: 8759 b7bd db41 c33c 7364 723d 06e4 3cbc
000002a0: d0c9 7e3d 671c c1bd 5754 cebd b10d c9bd
000002b0: a4e8 40bd 9554 283c bca5 8fbc 6ed3 c93c
000002c0: 8e1c 2ebd f1c7 01bc 9a93 55bd be77 2cbd
000002d0: 1a4c 263d ac83 d1bc 58fa 003c 4a68 063c
000002e0: 58dd 46bc 5c43 8e3b 6d76 b3bb 5454 90bd
000002f0: 1d61 38bc 639b b93d aca1 66bb cef5 35bc
00000300: 20f9 86bd 8fe0 453c 22b9 8bbd a9db 21bc
00000310: aebd 43bd 205d 903d 7d02 603c 61a9 9abd
00000320: 5f84 7ebd 6234 213a 50ab 0e3c a119 b9bd
00000330: 3289 883d 17fc 93bd 02ef 023d 3cd6 ab3d
00000340: 03b8 71bd 611e 423d 92fe c8bd c68e 3cbd
00000350: a2ab 45bd cdbe 1bbc a7c6 913d ebcd d1bc
00000360: 01e8 00bd 868c 303c 28ce c23d 42d5 5ebd
00000370: 9b78 e93c 08a5 6fbc da44 bd3d 5a70 303d
00000380: 866c 2ebc 2c9b f53c c7f6 213d b485 79ba
00000390: 22c5 1a3c aa4a 133d d8b6 1ebd ce83 acbd
000003a0: 2e02 32bd b948 133d 2044 c8bd c1dc 86bd
000003b0: b8c0 91bc a06d 0c3d 3f89 26bd 4f9f 7e3d
000003c0: 7799 a03c a231 adbd f1c3 0fbd 6d46 af3c
000003d0: bb05 243d 6a68 74bd 89a6 df3c 4849 413d
000003e0: 74c5 6b3c caf6 d5bc 3da6 a2bc f9e2 5b3d
000003f0: 3e74 1b3d 68f7 183c 1a46 6a3c 1675 62bd
-0.06596639 -0.041108165 0.02509216 -0.07932338 -0.00071162323 -0.023538388 0.03660628 0.010685344
-0.016240701 0.0062907017 0.0009078904 -0.020492481 0.011614686 0.00019830739 -0.092066444 -0.006334036
-0.0031851078 -0.028730614 -0.0149795385 -0.008597535 0.030725418 -0.059589453 -0.05284304 0.035553668
-0.016577302 0.05096857 -0.07678365 0.011562777 -0.057143338 -0.016243365 0.032768257 0.01598657
0.005551711 0.028386509 -0.050124187 0.05365163 0.06996997 0.026810575 -0.097039014 -0.013724727
0.07567622 -0.017488882 0.0068035903 -0.032706402 -0.08138134 -0.023049403 -0.091908835 0.06499768
-0.0064606043 -0.09659544 -0.057280798 -0.06368125 0.047329023 0.008634172 -0.015090989 -0.004577518
-0.033921633 -0.016322829 0.005760227 0.07387976 0.041532766 0.04489619 0.098363385 0.016418612
0.023202568 0.048134718 -0.0803779 0.066006936 -0.061436925 -0.022244431 -0.001967699 0.0808558
0.081456855 -0.00028121297 0.016800148 0.002145959 0.10007499 0.088656865 0.03812513 0.003645171
-0.0022242346 -0.00086671987 0.0049994257 0.08901428 -0.0673384 0.008921998 0.023456044 -0.054635238
0.07922873 0.05626143 0.008118836 -0.017268423 0.067454405 -0.06510903 0.09450074 0.09063048
0.06495774 -0.0056896373 -0.025402533 0.070015 -0.06129126 -0.051759657 0.036607206 0.082877755
-0.022947306 -0.051764946 -0.010912591 -0.042292234 0.03286728 -0.011200081 0.06215406 0.052498817
-0.06365567 -0.017598495 0.004049071 -0.021646976 0.008230144 -0.0846716 -0.0829029 -0.019933714
0.08451842 -0.044821247 0.037752293 -0.08933808 -0.084520474 0.025636295 -0.030121572 0.011436401
0.08887537 0.083390966 0.044081923 0.012906283 -0.0114660915 -0.0760355 -0.0027792342 -0.09066909
0.015334317 -0.064911366 -0.08575239 0.09157294 -0.027797217 0.08783676 0.051603436 0.07718402
0.09974224 0.012596728 0.07416426 -0.029466674 -0.06962476 0.0555916 0.093251996 0.09710823
0.07556192 -0.055521164 0.09561448 0.013315596 -0.015237383 0.04723445 0.008691267 0.010074147
-0.07651072 0.04913421 0.07083106 -0.09934145 -0.08952623 0.023835113 0.059177827 -0.011528974
0.062204182 -0.094292454 -0.1007468 -0.098170646 -0.047096863 0.010274072 -0.017535083 0.02463695
-0.0425077 -0.007921205 -0.052142717 -0.042106383 0.04059992 -0.025575481 0.007872187 0.008203575
-0.012137733 0.004341526 -0.005476764 -0.07047334 -0.011253622 0.09062841 -0.0035191579 -0.011105968
-0.065904856 0.012077465 -0.06822421 -0.009879031 -0.047788315 0.07049012 0.013672468 -0.07551838
-0.062137958 0.0006149468 0.008707836 -0.090380915 0.06666793 -0.07225817 0.031966217 0.08390471
-0.059013378 0.047392253 -0.098141804 -0.046034597 -0.048259385 -0.00950594 0.07117968 -0.025610885
-0.031471256 0.010775691 0.095119774 -0.054402597 0.028499892 -0.014626749 0.09241648 0.043075897
-0.010645991 0.029981218 0.039541986 -0.00095185195 0.009446414 0.035959877 -0.038748592 -0.08423577
-0.04345911 0.035958026 -0.09778619 -0.06585074 -0.01779209 0.034284234 -0.04065823 0.062163647
0.019604428 -0.08456732 -0.035098974 0.021395886 0.040044528 -0.05966989 0.02730109 0.047189027
0.014390338 -0.026118655 -0.01985466 0.053683255 0.037952654 0.00933633 0.01429894 -0.055287443
