my_latent_sde/sdes/best_sde_0.pth (torch, 193634 bytes, 30 tensors)

encoder.gru.weight_ih_l0 f4 [192, 2]
00000000: cf6d c63d 91df 86bd 53b8 373c 5bd9 e63b
00000010: 092d db3d fcab 65bc 8474 093e 0f55 893d
00000020: f63d 393e b43c 3dbd b654 c33d e518 04bb
00000030: 4582 e0bd 0d64 923d ef3a c23b 5942 2ebd
00000040: 88b1 d03d e981 c73d afdd cebc 1b52 0bbe
00000050: c59c af3c e631 6e3c 4384 60bc 16c7 993d
00000060: 9c43 c43d 1a13 923c e03a c2bd 8e6a c03d
00000070: 0a5b c9bb 3272 cabd f7e3 bf3c 3f65 ca3d
00000080: f764 3f3c 6e62 dbbd 1144 49bd 8187 51bd
00000090: 8bab b4bc ad05 51bb 759b 39bd 91b2 fabb
000000a0: 8875 863c 049a c13d f096 d7bc 4cd9 3abd
000000b0: f6bd d0bd b372 bb3d afba eb3d 3d76 64bd
000000c0: a8ba 20bd fb55 ad3d 1e8d f53c 390b 7c3d
000000d0: 5a8a 053c 92b4 0ebd 2fff 083e bea6 90bb
000000e0: 2f02 09bd ea4d 3e3d 6c66 b5bb 8020 d6bc
000000f0: 4bbd 323d 90b8 a0bb efd4 fb3d 7bff b2bc
00000100: c78f e93d c293 5d3d 0f3c 64bd c45c cbbc
00000110: a587 f0bc 258b c73d a1da c1bd dd03 37bd
00000120: 74d3 2d3c 959f 183e ed42 b23c 45c9 a4bd
00000130: 8d7b 003d e0df f53a 9ebe 723c 8a1b 73bd
00000140: bab2 2e3d c29a b43d 38ba 6d3d 5757 04bd
00000150: 24ca 1bbb ae81 7b3d 1560 ae3d f9e1 d5bd
00000160: 9ff5 9f3d 4b14 3b3d d1c3 8e3d 9715 153d
00000170: 2a3f 023e f3cb dc3d 1d55 543d be75 dcbc
00000180: 56da f4bc 36b8 d4bd f2c0 8bbd bb39 033c
00000190: fb74 fa3c f9cb c73d 4cdf 953c c87f ebbc
000001a0: 65d2 19bd 88a4 f23b 1d0e dc3d d687 4e3d
000001b0: ee7b 76bd 97b3 c8bd 1a39 45bc 2d42 3ebd
000001c0: 7099 c13c a9ff f43d a692 95bd 3a82 613d
000001d0: b2d9 203d f53a 7dbd ab48 733d 5ec9 2a3d
000001e0: 062d fd3d 0987 0dbc 86a4 d33d 4f3b 7fbc
000001f0: 9501 f93c d7a4 3c3d 8a90 4e3d 3414 00bc
00000200: 900c 2e3d 27f5 5bbd fbc1 2c3e 8448 30bd
00000210: 1501 d0bd bb31 20bd a27a 8f3d 5c55 283d
00000220: 7f41 303e b63c 173d 0f92 dc3d c477 fc3c
00000230: 2116 56bd 57d0 293d eb01 bfbd c3d1 d23d
00000240: 9e67 e0bd 1d02 153e 2fc8 253e 597e 6e3d
00000250: 3f8d 3d3d 9f23 7b3c 0729 f03c 2622 f3bb
00000260: a96f 343e 8688 fc3d 063e ebbb 6c54 483d
00000270: f627 56bd 1460 0a3d ea85 fe3d 1093 9a3c
00000280: dcc0 c2bb f230 18bd 0b48 af3c e46a 6c3d
00000290: 19bf c1bd b79b 5e3e 01af 693c 5ec3 7f3d
000002a0: 99ef 303d 2a8a a2bb 31cd 59bd 7949 2d3e
000002b0: 4472 223c b7de 603d da2b a53c aa33 ba3d
000002c0: 61ff f43d 66bf 8cbd cd0a 4abd f4fb 95bb
000002d0: 9b63 b7bd b3db 413e f901 5cbc 0228 dfbc
000002e0: 968e 0bbc 478e 123e e9a1 07bd ff39 5a3c
000002f0: 7582 a33d 966d f13c 59a2 a23c 9521 043e
00000300: 4893 363d aa19 d73d fb25 be3d dc60 08be
00000310: c68f 06be 2647 36bd 34f1 be3d 5450 ddbb
00000320: 3adc 443d 032e 043d ae4f 013d e86e a03d
00000330: 9888 04be a64c 6e3d e04d 77bd a884 a13d
00000340: 24da c13d d18f c93c 6016 f23d 4259 48bd
00000350: f069 00be b82d 023e b73e f43d e9a7 3e3d
00000360: 7977 7b3b 3e41 71bc 50c0 eb3d 1df7 89bd
00000370: e8fd 30bd c312 d43c e5be fabd abac 3c3d
00000380: 771c 47bd 23f9 c63d 5bdc 50bd 0ea7 203b
00000390: ca0d bf3b c7c0 953c 33c7 de3d 73fd a33d
000003a0: 1877 0c3e 14ea e2bb 5889 8fbb 5787 f03d
000003b0: 5c3a 67bd 8846 a6bd 17c0 6fbd 68c2 9f3d
000003c0: 766e ba3d 4955 7bbb 1e68 cebb 14c8 523c
000003d0: 1193 ac3d bea3 8b3d a599 b13d 2405 89bd
000003e0: b7f9 92bd b389 de3d 5e03 89bd 3041 90bd
000003f0: cac2 3abe d449 fd3d 588c ccbd 8d43 9d3d
0.09688913 -0.06585611 0.01121338 0.0070449538 0.10701949 -0.014018055 0.13423353 0.06705677
0.18090042 -0.04620047 0.09537642 -0.002015644 -0.10962347 0.071479894 0.0059274356 -0.042543743
0.101901114 0.09741575 -0.025252191 -0.1360554 0.021437058 0.014538264 -0.013703409 0.07508676
0.09583208 0.017831374 -0.09483886 0.09395324 -0.006144886 -0.09885062 0.023424132 0.098825924
0.011681787 -0.10712133 -0.04913718 -0.051154617 -0.022054454 -0.0031894252 -0.04531427 -0.0076506813
0.016413465 0.09453204 -0.02631709 -0.045617387 -0.10192482 0.091527365 0.115102164 -0.055776823
-0.03924051 0.08463665 0.029974516 0.06153414 0.008150661 -0.034840174 0.13378595 -0.0044144085
-0.033449348 0.046461023 -0.0055358913 -0.026138544 0.043637555 -0.004904814 0.12296473 -0.021850338
0.114043765 0.05409599 -0.05572134 -0.024824508 -0.029361555 0.097433366 -0.09465528 -0.04468142
0.010609496 0.14904626 0.021760428 -0.080462016 0.031367827 0.0018758737 0.0148159545 -0.059352435
0.042650916 0.0881858 0.05803892 -0.032309856 -0.0023771608 0.06140297 0.0851442 -0.104434915
0.078105204 0.04567365 0.06970943 0.036397543 0.12719408 0.10781088 0.051838983 -0.026911613
-0.029889267 -0.10386698 -0.06823911 0.0080093695 0.030573359 0.097557016 0.018294953 -0.028747454
-0.037554163 0.0074048676 0.107448794 0.050422512 -0.060176782 -0.09799879 -0.01203754 -0.04644983
0.023632735 0.11962826 -0.073033616 0.055055834 0.03927011 -0.061823804 0.059395473 0.041695945
0.12362103 -0.008638152 0.10334115 -0.015578105 0.030396262 0.04605564 0.050430812 -0.007817317
0.04249245 -0.053700592 0.16870873 -0.043037906 -0.101564564 -0.039109927 0.07005812 0.04109703
0.17212485 0.036923133 0.10770046 0.030818827 -0.052267198 0.041458454 -0.09326538 0.10293915
-0.109572634 0.14551587 0.16189645 0.058225963 0.04627728 0.015328317 0.029316438 -0.0074198423
0.1762072 0.12330727 -0.0071790246 0.048908636 -0.052284203 0.033783033 0.12427886 0.018868953
-0.005943401 -0.037156053 0.021396657 0.057719126 -0.09460277 0.21739088 0.014262916 0.062442176
0.043197248 -0.004960318 -0.0531742 0.16922559 0.009914938 0.054899897 0.020162512 0.090918854
0.11962772 -0.06872444 -0.049326707 -0.0045771543 -0.08954545 0.18931465 -0.013428205 -0.027240757
-0.008517882 0.14312087 -0.033113394 0.013319491 0.07983867 0.0294712 0.019852804 0.12903436
0.044574052 0.10502942 0.09284588 -0.13318199 -0.13140783 -0.044501446 0.093233496 -0.0067539606
0.048061587 0.032270443 0.03157013 0.07833654 -0.12942731 0.058178566 -0.060377 0.0788663
0.09465435 0.02460471 0.11820674 -0.048913248 -0.12540412 0.12712753 0.119260244 0.04654685
0.0038370772 -0.014725028 0.1151129 -0.06736586 -0.043210894 0.025887853 -0.122434415 0.046063107
-0.04861113 0.09715488 -0.050991397 0.0024513635 0.005830501 0.0182804 0.10877838 0.08007326
0.13717306 -0.006924877 -0.0043803863 0.11744564 -0.05645214 -0.081189215 -0.0585328 0.07800752
0.091031 -0.0038350394 -0.006299033 0.012865085 0.08426488 0.06818341 0.086718835 -0.066904336
-0.071765356 0.10866108 -0.06690095 -0.070436835 -0.18238369 0.12367597 -0.09987706 0.076789

encoder.gru.weight_hh_l0 f4 [192, 64]
00000000: 150c 6dbd 4d85 dd3c ad70 f73a 329c b63c
00000010: cadf 603c a501 793c e53c 603d e242 e5bd
00000020: 293c e43c 6298 7bbd 4234 31bd 8704 a93d
00000030: 62a9 923d 705b 643d 4d8a ae3c 3cd4 21bd
00000040: 43cd bfbd b7c0 0a3d 199e b0bb 5260 9a3d
00000050: 5963 9e3d 9bf4 cb3c 5ebe fb3a 702a 8abc
00000060: a239 743c 1c9d 243d 2d67 523d 19bd 8d3d
00000070: 17eb 94bc 8fc2 843d 4986 f43d 97c9 4dbd
00000080: e3f2 f83c 655c a4ba dd57 c13d 476d d93c
00000090: 38b4 5c36 4a79 07bc a91d 943d dd6d abbd
000000a0: 5e81 2ebb dc7c 883d 8a88 163d 1ea7 05bd
000000b0: 7af7 41bd 8493 5abd 4da7 993d cbe8 a6bd
000000c0: 82d9 323d e02c 4a3c 4fd5 333a 6337 29bd
000000d0: d3fc 8ebc f5cf a93d 2d07 863d 82bc 493c
000000e0: 987f ad3c 5998 20bd ec5c c9bd f98d 99bd
000000f0: 0d67 2b3d 7d41 d7bd 0698 92bd c1ef d53c
00000100: 6ace 57bc 4d10 49bc 4da0 8a3d d629 02bd
00000110: 605f ebbc c9de a1bd 709d 2c3d 512e 64bd
00000120: 0e37 8c3c 0ef8 593b 4564 3f3d 0518 eabc
00000130: c0f2 1abd 3c89 c5bc 66aa ad3d 72ca 343c
00000140: 36f5 0ebd 4784 e6bb 57b9 573c 243b 33bd
00000150: 8021 0cbc 6f65 bfbc 0fee 44bb 33db 373d
00000160: 9b69 d0bb a6cd e93c 0822 eabb 1e99 003d
00000170: 4c70 8f3c eefc 053d b68a 73bd 1ed3 473c
00000180: 920d babc b612 5dbd 772d 963c eb8f 02bd
00000190: b2dd 083d 830c 0b3d 5eea f03c 357d 0a3d
000001a0: df5c 263b cbcc 27bd 332d 4bbd 0644 debc
000001b0: def5 60bc e07c 3f3d b0d3 463d 6407 5c3c
000001c0: b94e 1cbd de40 3abd b6b4 a93c 3243 323d
000001d0: 7de2 92bc 5386 24bb dff1 cabc b620 213d
000001e0: afc3 24bd e68f 80bb 3d0c 8ebc c6f3 633c
000001f0: 7492 52bc 9dc9 a5bc 3541 7bbb 8b38 093d
00000200: b81e 97bc eb7f 9d3c 0d77 d33d 95d5 173c
00000210: bcd2 05bd 6bc2 643d 8ae3 b03c ce33 f7bd
00000220: 0512 27bd bc68 4ebc 084d 8a3c f80f debb
00000230: 664d 8abc 8ce0 cbbc 523e ea3d 8080 1f3d
00000240: a545 c3bd a555 163b ba63 8bbd 72cb 95bc
00000250: 846d aebc aa67 273c b5ec eabb 646c 643d
00000260: 4437 25bd 062a 493d d1a1 bd3c 1c84 b43d
00000270: bb3b 893d 5950 d43d 2bab 27bc ef17 29bd
00000280: a751 a1bd 1bea 85bd 81fd 983c 891a 9e3d
00000290: 2d90 c83c fdde 00bc 100c b73d 33ab 033d
000002a0: 3589 51bd 80ec 4b3c c078 25bd e472 e5bc
000002b0: 1c86 753b 566b 023a cc02 c2bc 9c83 15bd
000002c0: 504c fb3c 3f9b 443d 175d 603b f032 17bc
000002d0: 217f bc3b 957b 4a3d fbea 0c3c 30e7 9c3d
000002e0: ba55 03bd 5dfe a63b 3c28 35bd 625a 443d
000002f0: f13b 5abd f11c 95bd fcbb 81bc 838f 813d
00000300: f71b d5bc d93b 5abd 656b 7b3d 21f0 593b
00000310: 2706 f0bb 406f 3dbd 8b35 c53d 9808 dfbd
00000320: 5901 02bb 80a0 03bd 38dc 1d3c 25ba 463b
00000330: b951 303c b0f8 d73c 0afe a43d 6b95 f4bc
00000340: ac15 8dbd 0589 2fbc 50b0 b6bc 636f 933c
00000350: 2fd4 e0bc d3bf 633b 4e86 293c cc70 6d3d
00000360: 4aaf c53c 5f83 243d 1968 443c a32e a63d
00000370: 1b1a 3abc 1f81 573d 05ec f5bc 58a9 c43c
00000380: 9f4c 2abd 9266 94bc ef6b e5bb f768 a53b
00000390: 72e8 ff3c 8599 34bc c8c9 4c3c bc7c 353b
000003a0: 9eb2 43bd 699b ec3a 986d 6bbd 7333 fd3c
000003b0: ae19 04bd d472 e1bb a2cc f73b 0222 d1bc
000003c0: f155 bfbc dd6b 19bc ae35 dbbc 229d 60bc
000003d0: 46cf c0bb 09c8 133d 5cc5 3ebc 15a4 3b3d
000003e0: 125f 7bbc d751 6e3c 18d6 3dbd d3bd 543d
000003f0: 154c 8fbd 4747 49bc 8987 7dbc ecba d039
-0.05787285 0.027041102 0.0018878184 0.022291277 0.0137252305 0.015198146 0.054745574 -0.111943975
0.027860718 -0.06142462 -0.043262728 0.08252817 0.071612135 0.055751264 0.021306181 -0.039509043
-0.093653224 0.033875193 -0.0053899405 0.07537903 0.07733793 0.02489691 0.0019206514 -0.016865939
0.014906319 0.040188894 0.051367927 0.06920833 -0.018178506 0.064824216 0.11939675 -0.05024108
0.030389255 -0.0012539743 0.09440587 0.026541365 3.2887456e-06 -0.008268664 0.0723222 -0.08370564
-0.0026627402 0.0666444 0.036751308 -0.03263008 -0.047355153 -0.053363338 0.07502613 -0.081498705
0.043664463 0.012339801 0.00068600936 -0.041312587 -0.01745454 0.08291618 0.065443374 0.01231301
0.021179006 -0.03920779 -0.098321766 -0.07497782 0.041846324 -0.10510538 -0.071579024 0.0261153
-0.013171772 -0.012271953 0.06768856 -0.03177818 -0.028732002 -0.07903821 0.04214233 -0.055708233
0.017116096 0.0033259424 0.046726484 -0.028575907 -0.03782916 -0.02411329 0.084797665 0.011034595
-0.03490182 -0.0070348117 0.013166747 -0.043757573 -0.008552909 -0.023363797 -0.003004912 0.04488678
-0.0063602454 0.028540444 -0.00714517 0.031396024 0.017509602 0.032711916 -0.059458457 0.01219633
-0.022711549 -0.053972922 0.018332226 -0.031875532 0.03341455 0.03394748 0.02940863 0.033810813
0.0025384945 -0.04096679 -0.049603652 -0.027132045 -0.013730494 0.04674995 0.048541725 0.013429496
-0.038161013 -0.04547202 0.020716053 0.043521114 -0.017930264 -0.0025104478 -0.024773536 0.039337836
-0.04022568 -0.003923404 -0.01733982 0.013913101 -0.0128523 -0.020237738 -0.0038338427 0.03350119
-0.018447265 0.019226035 0.103254415 0.0092672305 -0.032671675 0.055849474 0.021592874 -0.12070428
-0.04078867 -0.012598213 0.016882434 -0.006776806 -0.01688261 -0.024887346 0.11437668 0.038940907
-0.09534768 0.0022939232 -0.06806131 -0.018285487 -0.021292455 0.0102175865 -0.007169331 0.05576743
-0.04033591 0.049112342 0.02314845 0.0881426 0.06700846 0.103668876 -0.010233681 -0.04128259
-0.07876902 -0.06538793 0.018675568 0.07719905 0.02448281 -0.007865665 0.089378476 0.03214569
-0.05115624 0.012446523 -0.04039836 -0.028008886 0.0037463969 0.0004975101 -0.023682974 -0.036502466
0.030676037 0.047999617 0.0034235173 -0.009228453 0.0057524596 0.049434263 0.008600946 0.07661283
-0.032064177 0.0050962404 -0.044227824 0.04793776 -0.05327982 -0.07280911 -0.015836708 0.06326201
-0.026014311 -0.05327973 0.061381716 0.00332547 -0.007324952 -0.046248674 0.09629353 -0.10890311
-0.001983723 -0.032135487 0.009635024 0.0030323353 0.010761672 0.0263637 0.080562666 -0.029856404
-0.06888899 -0.01071382 -0.02230087 0.01799745 -0.027444927 0.0034751787 0.010346962 0.0579689
0.024131436 0.040164348 0.011987709 0.08114364 -0.011358763 0.052613374 -0.03001977 0.02400653
-0.041576978 -0.018115316 -0.007001392 0.005047913 0.031238768 -0.01102293 0.01249928 0.0027692756
-0.047777764 0.0018051687 -0.057477564 0.030908322 -0.032251053 -0.0068801437 0.007562236 -0.025528912
-0.02335641 -0.0093640955 -0.026758995 -0.013709338 -0.005884084 0.03607944 -0.011643734 0.045810778
-0.015342491 0.014545879 -0.046346754 0.051938843 -0.06996933 -0.01228506 -0.015474209 0.0003981212

encoder.gru.bias_ih_l0 f4 [192]
00000000: fd29 5abd 7ed4 1e3d 77f3 8c3d e8da 333d
00000010: fea4 14bd d257 493d e809 c83d 7731 253d
00000020: 2cbf 823d 0407 a83d 7b98 01bc 2732 32bd
00000030: 5cb8 c53d f36f 683d 5495 9c3d 41b4 273d
00000040: d37c 00bd 48b3 b23d 5d2a 5c3d c13c 57bb
00000050: b335 b8bc 4f08 43bd a673 3d3d 6ec2 053d
00000060: 1ab7 39bc f135 813d 909d a53d 1917 723d
00000070: d045 813d 53cf da3d 04f4 1d3d 5994 603d
00000080: 8725 273b e7b7 533b b913 013d 67f8 0fbd
00000090: 865d c43d 2b49 4c3c 9104 d53b 6000 8dba
000000a0: 1ce5 20bd 73d3 c33c 2d84 323d 58d4 733d
000000b0: 71b1 203c 2d8f 8f3d 694e 5cbc ce1a e33c
000000c0: 4d5f 7ebd e2fe 1d3d 6e48 803d 3a49 c5bc
000000d0: 385e 133d 21c7 8bbd 4304 823d 180e 923d
000000e0: 02ad e93d 7b47 fb3b ce28 973d f82c dcbc
000000f0: b18f 5c3c a5e6 013d 6c25 7e3b 820e a73d
00000100: c0f2 4c3e 22e4 d43d 509c a93e a19e 213e
00000110: acbb 373e db1a 593e cab0 643e 7568 2e3e
00000120: 2bfc 443e d728 513e 1c43 143e f6b1 9b3d
00000130: 92a8 043e c030 243e e7ed 603e a6d1 f03d
00000140: 58f9 503e 1b75 763e 6249 533e bd53 0c3e
00000150: aaf7 333e b2d7 423e f436 233e acaf 973e
00000160: 72a7 b13d f0a7 153e bb1b 0b3e 35bd 363e
00000170: 5990 643e ff42 9e3e a975 0f3e 1b31 7c3e
00000180: f5f0 193e 7238 963e 1e5f 033e 1c1c d03d
00000190: 41c5 213e 3d3b 563d 9b7b 603e b82e 103e
000001a0: ea16 253e 7901 de3d 414e 613e 0aba 343e
000001b0: 8bcf 1f3e 1b04 e33d bf9c 1e3e 0662 4e3e
000001c0: b52d 4a3e eefb c63d a7f8 d93d c779 453e
000001d0: c219 043e b2d6 773e 29d9 573e 1957 793e
000001e0: bedb 1e3e c55b 5d3e e16d 563e 4802 733e
000001f0: e8fc f63d 5682 c03d 1c42 2a3e dcf7 3a3e
00000200: f85d e0bd 4f00 32be 6012 8ebd 6c07 2fbd
00000210: 9362 4bbd 0a56 153d 6307 633d 41f5 033e
00000220: 1c9d ee3d a6d5 d43d b82d 383e d6a0 09be
00000230: 1833 4a3d 8fe2 d2bb 63ff 3e3d dbd2 e43d
00000240: c562 f1bd bfc4 363d 46e9 00bc c175 e5bd
00000250: f29d 353c e2d0 173d e8b8 8abc 26a6 f03c
00000260: 9902 833d 9ec4 833c 93ab 90bc 5d6c 8e3d
00000270: ed34 033e 55b6 f43d e807 69bd 6f64 b2bd
00000280: fa2c f6bd bbc3 85bd 74fb 313c 5872 03be
00000290: 3a42 d53c 1804 633d 1510 05be 98fd 463e
000002a0: dc0a 6abd a31c c5bd 19e7 9abd 64de eebd
000002b0: 8651 8d3d 4df7 6a3d e9dd 3dbd 33a6 a5bd
000002c0: 60df 1e3c b9e4 ccbd c768 8438 fcf6 f23d
000002d0: ad47 debd ee8f d43d c58b e0bd bff7 dc3d
000002e0: 6aeb fbbd 08b1 583d 35ae d8bc 341e 0a3d
000002f0: dee4 58bd b3eb edbc 8889 9b3d 9d74 9dbd
-0.0532627 0.038776867 0.06882375 0.043909937 -0.03629016 0.049156018 0.097675145 0.040330376
0.063841194 0.08204463 -0.007909889 -0.04350486 0.096543044 0.056747388 0.076456696 0.040943388
-0.03136904 0.087256014 0.05375134 -0.0032842609 -0.022486543 -0.047615346 0.04625287 0.032656126
-0.011335159 0.06309117 0.08086693 0.05910406 0.06312144 0.10684075 0.03856279 0.054828975
0.0025504546 0.003230566 0.03151295 -0.035149004 0.09588151 0.0124686165 0.0065007885 -0.0010757558
-0.039280996 0.023904538 0.043583084 0.05952868 0.00980793 0.070097305 -0.013446429 0.027722742
-0.062102605 0.038573153 0.06263815 -0.024082769 0.035978526 -0.0682509 0.06348469 0.071315944
0.11409952 0.0076684332 0.0738083 -0.026876912 0.013461993 0.0317141 0.003877963 0.08157064
0.20014477 0.103950754 0.3312707 0.15783168 0.17942685 0.21201651 0.22333065 0.17032035
0.1923682 0.20425735 0.14478725 0.07602303 0.1295493 0.16034222 0.21965753 0.11758737
0.20407617 0.2406811 0.20633462 0.13703819 0.17574945 0.19027594 0.15938932 0.29626215
0.08674516 0.14614844 0.13584797 0.17845614 0.2232069 0.3091049 0.14009728 0.24628107
0.15033324 0.2933994 0.12829253 0.101616114 0.15797903 0.052302588 0.21922152 0.14080322
0.16122022 0.10840125 0.22002508 0.17649093 0.15606515 0.110847674 0.15489481 0.2015458
0.19743998 0.097160205 0.1064313 0.19284736 0.12900451 0.24202994 0.21078934 0.24349631
0.15513512 0.21617039 0.20940353 0.23731339 0.12059957 0.093998596 0.16626781 0.18258613
-0.10955423 -0.1738293 -0.069370985 -0.042731687 -0.049654555 0.036459006 0.055426966 0.12886526
0.1165106 0.10392313 0.1798619 -0.1344026 0.049365133 -0.0064356993 0.046630275 0.1117303
-0.11786417 0.044621225 -0.007868117 -0.112041004 0.01108502 0.03706444 -0.016933873 0.0293761
0.0639698 0.016084965 -0.017659938 0.069542624 0.12813158 0.119488396 -0.056892306 -0.087105624
-0.12020297 -0.06531473 0.010863174 -0.12836587 0.026032556 0.055423826 -0.12994416 0.19432676
-0.057139263 -0.09624603 -0.0756361 -0.116635114 0.06900315 0.05736475 -0.04635421 -0.080883406
0.009696811 -0.10004563 6.313767e-05 0.11863515 -0.10853515 0.10379015 -0.10964159 0.10789441
-0.12300761 0.052903205 -0.026450256 0.03372021 -0.05295264 -0.029043054 0.075945914 -0.07688258

encoder.gru.bias_hh_l0 f4 [192]
00000000: 9991 603c a24b 683d d02c 9c3d cd50 d83b
00000010: 9f01 36bc 9409 673d 4b93 823d 2b25 463d
00000020: 12d7 4f3d 28df 003e 1c34 d1bb c661 1ebd
00000030: 6c12 863d 3920 f3bc 0e9a 903c 6aa4 9b3c
00000040: 642f b73d 7982 e63d 9b42 21bc 5fa8 64bc
00000050: 0667 2f3d a704 59bd f41b 0b3d 2e76 b83c
00000060: bb6e b23c 20b3 b3bb e008 703d 17c4 8ebc
00000070: 5bb6 733d 71e0 ec3d 343b b1bb 54fe 983c
00000080: bce4 af3d 07ac 813d a404 5f3d e2e7 34bd
00000090: 5534 a23d 28ed 6e3c a785 bd3d 7373 c2bb
000000a0: 1e09 a13d bb4c 2e3d 35dd 823d 2672 12bc
000000b0: 94b1 953c c909 c13c 9f0a 813c 26bc 283c
000000c0: bdab 28bc 2141 483d c46a fc3b dc36 433d
000000d0: 5e47 8f3c 241e 66bc 61b7 603c 1404 813d
000000e0: 0063 8a3d 3dc8 45bc 070a 663d 0760 733d
000000f0: 485f e93c 5531 0c3d 5240 f93b 8a27 c13d
00000100: 887e 223e b882 fc3d b637 853e dc89 fc3d
00000110: 6f4b 573e 8a1f 713e 06f6 6f3e e17a 333e
00000120: abd8 3a3e fd2c 5d3e 7af7 283e f67f c43d
00000130: 8c1e f23d 66a8 0a3e 887d 653e 6a31 eb3d
00000140: c722 2b3e 1413 533e 3b88 283e a159 0c3e
00000150: 9df3 423e 48d7 403e 69de 443e cb6e 653e
00000160: 0058 ad3d 930f 063e ca8f 1a3e 027f 363e
00000170: e3aa 5a3e b04b 8f3e 49e6 023e 0cdd 713e
00000180: 2193 413e 436a 8c3e e898 103e 24c0 af3d
00000190: 91b8 1f3e 2515 343d ac39 183e fe8d 213e
000001a0: 512f 203e d2f3 543e feb2 633e 3e3a 283e
000001b0: 29d6 0d3e 029e e23d a65f 4f3e e04e 353e
000001c0: df6e 573e 052e c63d 1a47 d23d 4860 e63d
000001d0: 5fd5 123e b439 5a3e 9a48 4f3e 6b6f 9c3e
000001e0: cf03 403e 0f16 603e f7eb 663e 7ed7 093e
000001f0: d6f6 1a3e adce d73d 447c 2a3e 5cda 1f3e
00000200: 19f7 8f3c 43ae fabc 6860 f53d 91f5 eabd
00000210: 2594 9c3d bd6b 8a3d c501 c03d c926 9b3c
00000220: 53e8 8bbc e145 14bb bf3e 0bbd c12f d137
00000230: b8d8 8cbd 3343 0a3e 21fd e23d 8942 1f3d
00000240: 7630 253d 3953 ab3d 1d14 4a3c cf07 0abe
00000250: cb34 cebc 392b edbd 8b27 823d 7fc4 d0bc
00000260: 6592 9fbc 3412 76bd f873 b43d d7ec 0f3e
00000270: 3780 a63d 6b84 d03d 6f6d 24be cc7a 2a3d
00000280: 5bfd 29bd b4ba eabc 9ae6 50bd 2219 1c3d
00000290: 252a 183e 88c7 923b ffe4 633d efa8 78ba
000002a0: f5d1 1a3c 9833 a2bd ece8 e4bd 7f5c e93c
000002b0: 56ed 6dbd 90bd 083e 148c f6bd b4cf 64bd
000002c0: 8135 9c3d 7093 9abd 5916 483d 9323 55bc
000002d0: c01e 54bd c6b8 2fbd 37fe 99bd ba99 143e
000002e0: acb0 31be ad1e 5f3d 4e56 a7bd e5ae d13d
000002f0: 92ce 4cbd 8a2b dbbd 81ec fd3c 07c6 e8bb
0.013706588 0.056712754 0.07625735 0.006601429 -0.011108785 0.05640562 0.0637575 0.04837529
0.050742216 0.12585127 -0.0063843857 -0.038667463 0.065464824 -0.02967845 0.017651584 0.018999297
0.08944586 0.112553544 -0.00984254 -0.013956158 0.04282286 -0.052982952 0.033962205 0.02251729
0.021781316 -0.005484 0.058602214 -0.017427487 0.05950008 0.11566246 -0.005408669 0.01867596
0.085885495 0.0633164 0.054447785 -0.044166453 0.07920138 0.01458291 0.09254008 -0.005934173
0.07863067 0.042553645 0.06389848 -0.008938348 0.018273152 0.023564236 0.015752135 0.010298764
-0.010294852 0.048890237 0.007703157 0.04765974 0.017490085 -0.014045272 0.013715596 0.06299606
0.06757164 -0.012071666 0.056161907 0.05941775 0.028487816 0.034226734 0.0076065445 0.094313696
0.1586858 0.1232962 0.26019067 0.12330982 0.2102487 0.23547187 0.23433694 0.17527343
0.18246715 0.21599193 0.16500655 0.09594719 0.118222326 0.13540801 0.22411168 0.11484034
0.16712485 0.20612746 0.16458218 0.13706066 0.19038244 0.18832123 0.19225468 0.22405545
0.0846405 0.13091879 0.15093914 0.17821887 0.2135425 0.27987432 0.1278316 0.23619479
0.18903781 0.2742482 0.14120829 0.0858157 0.1559775 0.043965477 0.1486575 0.15776822
0.1564305 0.20796135 0.22236249 0.16428468 0.13851227 0.11065294 0.2025133 0.1770587
0.21038388 0.09676746 0.10267468 0.11248833 0.14339207 0.21311074 0.20242539 0.30553755
0.18751453 0.21883415 0.22550951 0.1346111 0.15133223 0.10537467 0.16648966 0.15610641
0.01757388 -0.030600673 0.11981279 -0.11472619 0.07645444 0.06758831 0.093753375 0.018939393
-0.017078554 -0.002262466 -0.033995386 2.4936979e-05 -0.06877273 0.13502197 0.11083437 0.038881812
0.04032942 0.08365483 0.012333897 -0.13479541 -0.025171658 -0.1158051 0.063551985 -0.025484322
-0.019478986 -0.060075954 0.08811182 0.14055191 0.08129924 0.10181507 -0.1605737 0.041621014
-0.041501384 -0.02865348 -0.05100117 0.038109906 0.14859827 0.0044793524 0.05563831 -0.0009485622
0.009449472 -0.07919997 -0.11177239 0.028486488 -0.05808767 0.13353562 -0.120384365 -0.055862144
0.076273926 -0.07547653 0.048849437 -0.01300897 -0.051787138 -0.042900823 -0.07519191 0.14511767
-0.17352551 0.054472614 -0.08170758 0.102384366 -0.05000169 -0.10701664 0.030996563 -0.007103685

encoder.gru.weight_ih_l0_reverse f4 [192, 2]
00000000: 0f7f 0ebe fbb8 e83c 8a5c edbc 7726 6ebd
00000010: df79 3f3d f35c 4f3d d0e0 01bd 37e0 063d
00000020: e19c 543d da68 293e 0120 19bd c3ef 853d
00000030: d89a cb3d 2855 ddba ee8f 03bc ab5d b23d
00000040: b9bc 9d3d 7744 b23d d887 0e3e e65d b6bd
00000050: 63d4 a1bd 70fa 5b3d ebae 18bd c628 b2bc
00000060: c379 f5bc 2e25 fdbd 43e2 5e3d 90e0 963d
00000070: a83f 123d 81b5 f7bc 2e75 2dbc 8bbd 60bd
00000080: e692 f43c e62d 1fbe f563 bebc 29af 3e3c
00000090: c0d0 33bd ae5e bf3c e34f e4bd 010e cabb
000000a0: 30c0 cfbc 6b42 88bb 24c9 2dbe 7dc0 ddbc
000000b0: 66b1 64bc d4fd 6cbd 6b26 b03d 56d3 b2bd
000000c0: 1e2f 8cbd 855a 2c3b dd96 383e 265a 57bc
000000d0: 0491 cf3d 4500 95bc 7e42 2abd 55f8 8ebc
000000e0: b773 d73d f289 d33d 255f 90bd e47d 5bbd
000000f0: cba2 9abd c8d4 47bb 64ad e03c 60ca 3e3d
00000100: 5652 463c 2755 0fbe 6896 dabd ad7d a1bd
00000110: 05e3 b5bd 811f 043e 6738 db3b b848 373d
00000120: eee8 cabd ac09 3b3c 8988 483d 46b5 0dbe
00000130: 6ea5 9e3c 4a13 0dbe 9c10 70bc 58e0 773a
00000140: 1f7c 20bc 4227 293e 7080 353c 744c 453d
00000150: a6c0 85bd d551 acbd 6ace 6dbd 3bb9 a13d
00000160: dde6 3cbd 48be 3abe 35e9 483c f0b2 56be
00000170: 4986 8d3d 0dd2 6b3c ae24 43bd 132a 803d
00000180: 65c5 b73d 87b6 83bd dc9b 423d 269d dd3d
00000190: 927a 63bd 19e0 463c 5c2d aabc d41e 35be
000001a0: 51a0 4fbe 9904 96bd 92e5 06be 495a 813d
000001b0: d971 9fbd 743d 16be de62 2dbe 0c43 97bd
000001c0: 5eb3 c1bd 3f6d 59bd 9ad1 b73d e730 f63c
000001d0: b0b2 713d fcb8 b93d 7e83 283e 6b2a b1bc
000001e0: 1588 d4bd d175 963c 854d 9ebd b787 9c3d
000001f0: 1b15 5a3d 95d2 ac3c 2aab d1bd 2f22 a9bd
00000200: edd7 08bd ff51 17be 1fb6 753d 340a 293e
00000210: 61a6 1f3d 7252 acbd 81b6 903d 902b 37be
00000220: 68c8 453e f1ac df3c 7303 a438 54aa 94bc
00000230: c291 cbbd 22c9 afbd c987 183e 4083 12bd
00000240: 8fb9 c6bd 7a7d afbd a7eb 073c edd6 fdbd
00000250: f95c 0fbd b031 c23d 6c77 6e3d 6a07 e43c
00000260: 74c5 0c3e 610a a93b e964 4e3d 7120 29bc
00000270: c358 3d3d 6d66 dbbd 3e5e 7b3d aa2c 14be
00000280: 028d a83c 8c8c d3bd 3b50 cf3d 9a03 21bd
00000290: 65f0 9dbc 17f1 263e 7306 4abd 0e8e 113e
000002a0: c534 063d 0a37 dd3d 948c 6bbd 9f7d 1fbe
000002b0: d322 88bd 38da 78be 6be9 7b3c 8396 a2bd
000002c0: 4495 0bbd 8f3e 3b3d d3fd 663d ebc0 29be
000002d0: 4b74 8dbd 9c4c 3ebe 5914 e5bd 7944 b1bd
000002e0: f3f4 db3d 198d 363d 03bd 0c3e 872b 98bd
000002f0: 4133 2b3d 6ec2 1a3e 11b3 fa3c 976d 96bc
00000300: 57f2 403c a37b 3f3e 421f 9f3c 1c89 94ba
00000310: b903 d63d 71b8 943c 9e49 753d cd8c dc3c
00000320: a01a 09be 35ca 0fbc b783 503c 7c98 bc3c
00000330: 3060 e3bd 785f 0c3e 153f 023e 9968 87be
00000340: 8304 e83d 4419 953c 01cd 793d d0f6 b33d
00000350: d5e4 0f3e 07fb 983d 6b0f 28bd 2964 203e
00000360: 4da7 d3bd 7afd 21bd 8eb9 563e 9d9b fdbb
00000370: 720e 3dbe c781 f93c e235 703d d9d7 343e
00000380: bbe0 34bd 7046 c4bd 3644 063d 86d7 d7bd
00000390: e076 4e3d d97f ffbd 9d50 f73d afe6 2abe
000003a0: 9a5d 4dbe 0410 973a 066e 173e 2ac5 bbbd
000003b0: 707b c8bd 0e78 cdbd 4956 ab3b 81c5 11bd
000003c0: abcc 663d b1e5 2bbe a6b8 db3d 57dc 73bd
000003d0: 4aaa 803d 7819 9cbd 6f71 35bd d9d4 e7bd
000003e0: 57cc adbb 1a0a e6bd 24f6 49be 5187 b83d
000003f0: 7159 333e ff5b 15be 69dd 543d d983 5dbc
-0.13915657 0.028408518 -0.02897479 -0.05814215 0.046747085 0.050625753 -0.03170854 0.03292867
0.051907424 0.16543904 -0.037384037 0.065398715 0.099416435 -0.001688634 -0.008029921 0.08709272
0.077020116 0.08704465 0.13919008 -0.089046285 -0.07901838 0.053705633 -0.03727619 -0.021747958
-0.029965287 -0.12360607 0.054415 0.07367051 0.03570524 -0.030237915 -0.01058702 -0.054868262
0.029855203 -0.15544853 -0.023241023 0.011638441 -0.04390025 0.023360576 -0.1114805 -0.00616622
-0.025360197 -0.0041583083 -0.1697126 -0.027069325 -0.013958311 -0.057859257 0.08601078 -0.087317154
-0.068449244 0.002629907 0.180263 -0.013144052 0.101350814 -0.018188605 -0.04156732 -0.017452398
0.10520118 0.10329045 -0.070493974 -0.053586856 -0.075505815 -0.0030491818 0.02742643 0.04657972
0.012104591 -0.13997327 -0.10673219 -0.07885299 -0.08881191 0.12902643 0.0066900733 0.044747084
-0.09907709 0.01141588 0.048958335 -0.13838682 0.019365992 -0.1377689 -0.0146523975 0.0009455732
-0.009795218 0.16518882 0.011077985 0.048168615 -0.065308854 -0.08414046 -0.05805818 0.07896658
-0.046118606 -0.18236649 0.012262632 -0.20966697 0.069103785 0.014393342 -0.047642402 0.06258025
0.08973197 -0.06431299 0.04751192 0.10820989 -0.055536814 0.01213839 -0.020773582 -0.17687541
-0.20276 -0.07325096 -0.13173512 0.06316049 -0.077853866 -0.1467188 -0.16932246 -0.07385835
-0.0945804 -0.0530827 0.08975525 0.030052615 0.0590083 0.09068486 0.1645641 -0.021626672
-0.10377518 0.018366726 -0.077296294 0.07643073 0.053242784 0.021096507 -0.10237725 -0.08258473
-0.033409048 -0.14777373 0.059988137 0.16507798 0.03897703 -0.08414163 0.0706606 -0.17887712
0.1931473 0.027304145 7.820772e-05 -0.018147625 -0.099399105 -0.08583285 0.14895548 -0.0357697
-0.09703361 -0.08568855 0.00829593 -0.123945095 -0.035000775 0.094821334 0.05821936 0.027835567
0.13747197 0.005158708 0.050389204 -0.010322676 0.046227228 -0.107128955 0.061369173 -0.14470163
0.02057505 -0.103295416 0.101227246 -0.039310075 -0.019279668 0.16302906 -0.049322557 0.14214346
0.03276517 0.108015135 -0.057507113 -0.15575264 -0.06647267 -0.24301994 0.015375475 -0.07938864
-0.034077898 0.045713957 0.05639441 -0.16577499 -0.06906947 -0.18583912 -0.11185522 -0.08655638
0.1074008 0.044568155 0.13743977 -0.07430177 0.041796926 0.15113232 0.030602964 -0.018362803
0.011776528 0.18699507 0.019424085 -0.0011332366 0.10449929 0.018154355 0.05988466 0.026922608
-0.13389063 -0.008776237 0.012726716 0.023021929 -0.11102331 0.13708293 0.12719376 -0.2644699
0.113289855 0.018200524 0.060986523 0.0878731 0.14052136 0.07469755 -0.04103033 0.15663208
-0.103346445 -0.039548375 0.20969221 -0.007739498 -0.18462542 0.03045739 0.058645137 0.17660464
-0.044159632 -0.095837474 0.032779895 -0.10539155 0.050406337 -0.12475557 0.12075923 -0.16689561
-0.20055237 0.0011525159 0.14788064 -0.091684654 -0.09789169 -0.10032664 0.005228792 -0.035588745
0.05634753 -0.16786839 0.10728578 -0.059536304 0.0628248 -0.07622045 -0.04429763 -0.11319894
-0.0053039 -0.112323955 -0.19722801 0.090101846 0.17514588 -0.14585875 0.051968966 -0.013520204

encoder.gru.weight_hh_l0_reverse f4 [192, 64]
00000000: 6907 0d3c 92db 3fbd 82e8 993d ede1 a4ba
00000010: a82a 453d 0007 17bc 9955 bc3c 32e6 8d3d
00000020: 6443 d53c f956 87bc 876e 07bd e565 5a3c
00000030: a5cb adbd 796d 633b 8f3a 65bb 43da 91bc
00000040: 29c3 82bd 775f 223d 0667 2abd 678c abbc
00000050: 2905 1abb 8fd7 a63c 33f3 103d a032 f73c
00000060: 075d 88bd 9dc7 d03c 2b5f 4e39 832e 9c3c
00000070: 8878 4d3a efdf 633d 4335 63bc c1c1 9a3d
00000080: 4245 23bd 1a27 91bc 0e6c d339 8a35 bdbc
00000090: b353 913c 11f1 063d 8c45 55bd 2006 183b
000000a0: d269 543d b0fd 163d 606d 32bd baea 08bd
000000b0: a370 a33b eed7 e3bc 1290 d7bc 880c 4bbd
000000c0: 9170 e73c 5fd8 923d d033 c53c 0953 d13b
000000d0: a55f 22bd fb56 72bc 0065 c0bd e8d4 5c3c
000000e0: 8a05 163d 40af db3b 1af6 89bc 3454 c6bd
000000f0: 56ba a93d de83 883b 623a ff3c 3ff9 603c
00000100: c32e 10bd f44d 233d 849d 9bbb 84ee 2c3d
00000110: b130 d13d 5e48 f6bb bb0a 033c 316e cdbd
00000120: e5ea 793c 83bb dabc f079 15bd 92ed d13c
00000130: 371a d03c 7f11 863c eefb 793c 209f ff3b
00000140: 9e72 e73c f54d ce3c 4900 833c f6c6 04bd
00000150: 9ee9 103b 555e 303d d6c2 10bc eb6b c4bc
00000160: cd13 8fbd 18de 873b 7a62 d03c 8c45 2b3d
00000170: 1e95 d5bc e8b1 09bd 4f75 9d3c 85ce e6bb
00000180: 60e3 6a3c 07d1 93bc 2ad4 993c 7c5d 65bc
00000190: e11c d03a 3892 4dbb 74e6 413d a10d b13c
000001a0: e91b 12be 27a3 5cbd 5a41 c23b 7b6f 653d
000001b0: 37b1 573d 3088 963d a34b d23c d976 d43c
000001c0: 7487 a4b9 b487 903c 4558 c1bc c547 403d
000001d0: 6714 e5bc 3d22 77bc efce 1e3d 0a18 673c
000001e0: 2f2c 503d 8c2e 5dbb a466 97bd 675a 65bd
000001f0: 7fae e83b 83df 7fbc 9176 34bd ab5c 3bbc
00000200: 1eed 2dbd 2c4a 033d 5316 063c c86e f53c
00000210: 00c9 a73c 5f9f bcbc ea0f 4f3d 139f 2fbd
00000220: 599b d23b 5f26 653c a712 75bc 77b1 e93c
00000230: c8d1 783c aa42 93bc 05c1 4fbc 2a78 783d
00000240: d8a6 82bd 6ddc 383d 6d7c f3bb 05f5 01bd
00000250: 23e0 cabc dfbd a93c 6a75 f93b d5be 00bd
00000260: 0e42 34bd 43c8 95bb c9d4 75bd 67db ab3d
00000270: 1ec5 613c 6870 5cbd 5e92 2b3c 0448 fa3c
00000280: 0a0f bfbb 2736 4bbd a1f4 983c 5c2e 25bd
00000290: 1184 b4bd 7bcd ac3b 1f6b 273d b797 91bc
000002a0: 1ea3 8dbb 42fa 1ebd a782 1b3d c75a bd3c
000002b0: 6728 3fbd 919d 9b3d e555 82bc 97ce 80bc
000002c0: a90c 093c 45ec 43bd c8c5 463d 3edd 70bd
000002d0: 1595 88bd 7708 083d 3b8d 843d 8c42 58bc
000002e0: 8483 823c 9b0f 8c3c 78fc 5f3c dd08 1cbc
000002f0: bf05 b03b 351a 573d a199 01bd 99c9 9dbc
00000300: 93ba 67bb 1544 47bd 3230 d23c f6ac 37bc
00000310: 03d7 6fbd 1d54 903c c29b 8a3c 5aa2 243c
00000320: 2db7 c9bc e2bb 8b3d 1d57 523c 8d87 96bc
00000330: 8a3d 823c 817e 04bd 0c93 8c3c 67e2 b9bb
00000340: 514a 7f3c 889b 043c 074f 733d 842f 2ebd
00000350: 3be8 3dbd 3b4d 5b3c b832 a6bc 0147 22bc
00000360: e7fe 86bb 84ea b3bc 83a1 c43c 9d5b 41bc
00000370: 4f97 8bbc 3548 10bd 20ac 243d 061d 4bbd
00000380: d0c1 383d 6220 b9bc 377d 0b3d 52ec e8bc
00000390: c480 d43c 8ef3 883c e42e e6bc e4a4 56bc
000003a0: eb33 b0bc 3f35 e0bc 40a5 303d d7a1 71bc
000003b0: 8e72 983d 91b1 453b ce41 343d d416 bebc
000003c0: ca95 3d3d 6502 453c 4d0b aebb f727 8b3d
000003d0: 3e42 243d 79ae 163d 9d64 05bd 3f42 163c
000003e0: 9143 ce3b 41cf 96bc 9571 31bc e4cf 7c3c
000003f0: 9fc0 64bd 31f4 80bc dfd4 e2bc b354 92bc
0.008607724 -0.046840258 0.075150505 -0.0012579538 0.048136383 -0.0092179775 0.022990035 0.06928672
0.02603311 -0.016520964 -0.03306439 0.013329958 -0.08486108 0.0034702702 -0.003497753 -0.01780427
-0.0638488 0.039641824 -0.041602157 -0.020940972 -0.002350161 0.020366458 0.035388183 0.030175507
-0.066583686 0.025485808 0.00019681144 0.019065147 0.000783809 0.05563348 -0.013867679 0.07556487
-0.03986097 -0.01771884 0.00040325563 -0.023096818 0.017740106 0.032944743 -0.05206828 0.002319701
0.05185873 0.03686303 -0.04356134 -0.033426978 0.0049877926 -0.027812924 -0.026313815 -0.049572498
0.028251918 0.07170176 0.024072558 0.0063880724 -0.039641995 -0.014791246 -0.09394264 0.013478495
0.036626376 0.006704241 -0.016840983 -0.09684029 0.08287494 0.0041661104 0.031155769 0.0137313
-0.035200845 0.039869264 -0.004749002 0.042219654 0.10214365 -0.007515951 0.007998164 -0.10030783
0.015253757 -0.02670074 -0.03649324 0.025625978 0.025403125 0.016365765 0.015257819 0.0078009516
0.028252896 0.025183657 0.015991347 -0.032416306 0.0022111903 0.043058712 -0.008835515 -0.02397724
-0.069861986 0.0041463487 0.025437582 0.041814372 -0.026072081 -0.03361693 0.019220976 -0.007043662
0.014336437 -0.018044008 0.018777926 -0.013999339 0.0015877747 -0.003136767 0.047338918 0.021612944
-0.1426846 -0.05386653 0.0059282007 0.05601452 0.05265924 0.073501945 0.025670832 0.025935577
-0.00031381438 0.017642833 -0.02360166 0.046943445 -0.02796383 -0.015083847 0.038771566 0.014104852
0.050823387 -0.0033749668 -0.07392624 -0.055994418 0.0071008797 -0.015617254 -0.044058386 -0.011435668
-0.04246246 0.032053158 0.008184033 0.029960051 0.020481586 -0.023025213 0.050552286 -0.042876314
0.0064272103 0.013986199 -0.01495806 0.028527005 0.0151867345 -0.017976124 -0.012680297 0.060661472
-0.06379479 0.04513209 -0.007430604 -0.03172781 -0.02476508 0.02072042 0.007612874 -0.03143199
-0.044008307 -0.004570992 -0.06001738 0.08391457 0.013779907 -0.053818136 0.010471908 0.030551918
-0.00583065 -0.04961219 0.018671336 -0.040327415 -0.08814252 0.0052735186 0.040873643 -0.017772539
-0.0043224236 -0.038812883 0.037966397 0.023114575 -0.04666939 0.07598413 -0.015910098 -0.01572351
0.008364835 -0.047832746 0.048528463 -0.058804743 -0.0666906 0.033211198 0.0647225 -0.01319946
0.015931852 0.017097285 0.013671033 -0.009523598 0.0053717787 0.052515227 -0.031640653 -0.019261168
-0.003535901 -0.048648912 0.025657747 -0.011210671 -0.05855466 0.017618233 0.016919974 0.010048473
-0.024623478 0.06822945 0.012838152 -0.018375183 0.015898485 -0.032347206 0.017159961 -0.005672741
0.015581683 0.008093722 0.05940154 -0.042525783 -0.04636405 0.013385112 -0.020287856 -0.009904624
-0.004119742 -0.021962412 0.024002796 -0.011801627 -0.017039923 -0.035225112 0.040203214 -0.049588226
0.04510671 -0.02259845 0.03405496 -0.028432999 0.025940306 0.016717698 -0.028098531 -0.013100836
-0.021509131 -0.02736914 0.043126345 -0.014748058 0.074437246 0.0030165652 0.04400807 -0.023204245
0.046285428 0.012024497 -0.0053114058 0.06794732 0.040102236 0.036787484 -0.032566655 0.009171068
0.0062946756 -0.018409373 -0.010830303 0.015430424 -0.05584776 -0.01574144 -0.027689395 -0.017862653

encoder.gru.bias_ih_l0_reverse f4 [192]
00000000: 5a17 a33d ba35 563d ed61 033d ba7f 943d
00000010: 1197 353d d481 a53c b63c 903d e48e 993b
00000020: 3955 94bc 87da db3c ce3d d93b d82d 3abc
00000030: caec 483d 5112 da3c ee01 63bb 51c8 7b3d
00000040: 89ed f93d ecef ae3d 88e4 573d be94 ed3c
00000050: 88c4 8f3c f5b3 b53d 3ac9 043d 0eb9 e83c
00000060: 4be8 9c3c 7c20 c8bb c48d b03b d326 dd3d
00000070: 3204 383d 5453 823c 1444 1b3c 9c6b b7bc
00000080: 1188 3e3d 10df d63c 6a21 c93c b153 f3bb
00000090: 3060 383d 70ef 6bbd b423 f43c d922 e23c
000000a0: 227e 8b3d 33e9 033b de91 323c 45e5 ab3c
000000b0: 22be 463d f529 cf3c 0743 2b3d 3032 623d
000000c0: ffde 673c 1afc 193d e18d 663d 6d74 203d
000000d0: 7d06 45bc 1b8d 4d3c 0ed8 6e3c ea5d f4bc
000000e0: 500d 4d3d 0074 a23d 8148 ca3a fe00 4f3d
000000f0: 15c3 72bb 5768 253d 3eee c43d d879 893d
00000100: 46e2 ad3d 877e 6b3e e214 683e 5ca9 5f3e
00000110: 8c2c 003e adae 0f3e 4c3e d33d dd5d 8b3e
00000120: 6027 423e 37fa deb9 744b 3d3d 87e6 893e
00000130: 51f6 223e 26ea ca3c 07fc 6e3e d8d1 003e
00000140: 6770 3d3e 4bc4 2f3e 005a 14bc 92a8 ee3d
00000150: 87b2 7a3d 0b6c 793e d245 443e cb6b 0a3d
00000160: 0ac3 583e 4756 1e3e cf97 f13d 5253 8b3e
00000170: c7e1 323e 7b25 643e a317 0e3e ac7b 923d
00000180: 5e85 2e3d 6030 513e ea9b 473c 8719 f23d
00000190: 7d4b 483e 21d7 0e3e b55c 203e 1c0f 803e
000001a0: d780 823e bb3d 1d3e 69a3 df3d fe37 1d3e
000001b0: 8fc3 d83d 876d 6c3e 1851 823d 579a f93d
000001c0: a1ac 7a3e 68dc b03d 116d 6e3d 2e0a fc3d
000001d0: a10c 223e 61ec 8a3e 7069 423e 41b8 5e3e
000001e0: ac0f 723e 8593 643e 5e16 7b3d 7a95 243e
000001f0: 2279 683d b4cb 1d3e 272d 703e c72b 723e
00000200: 5e5a e43d 1d5f 71bc 12db 073d 4a96 ccb9
00000210: fc84 2ebd b1ac 9b3d 21e1 113e 03e7 8f3c
00000220: dbb5 ca3d ed32 8d3d 9478 c23c e47f a23c
00000230: 1b8a 0cbe 3d4c 15be cff5 603d a811 c7bc
00000240: bfd9 00be d81b ba3c cf6a 473d 88ee 5a3d
00000250: f32a d0bd 4057 a1bd 3f95 83bd d473 0cbe
00000260: 14a8 a03d 4d78 c93d 73e3 72bd 6e56 b1bc
00000270: 0a21 203e 6928 0a3d 2207 0f3c 534c ff3d
00000280: 3395 8b3d 01db 00bb 8e9d 81bc 95e4 643d
00000290: 49ee 89bd adb3 f93d 88c0 063e caa7 05be
000002a0: 1d52 243d 2738 babc e942 cd3c 5e62 d1bd
000002b0: bd39 b83a c35e 4f3d 7bc2 383c 1bd4 8ebd
000002c0: 8d37 2d3e 41a5 0cbd 3461 ab3d df9b 9bbc
000002d0: 5df7 26bc e1ef d13d ca3b 053d 767e 993d
000002e0: 7d85 50bd 84b2 01be 36c7 e73d f07f b73d
000002f0: d1fa 46be dfe3 513e fec5 843a b977 c13d
0.07963438 0.05229733 0.03207581 0.072509244 0.04433352 0.020203508 0.0704283 0.0046862233
-0.018107044 0.0268376 0.006629682 -0.011363469 0.049053945 0.026620062 -0.0034638601 0.061470333
0.12203509 0.08541855 0.05270818 0.02900159 0.017549768 0.08872215 0.032418467 0.028408553
0.019153735 -0.006107388 0.0053879935 0.10798421 0.044925876 0.015908875 0.00947668 -0.02239018
0.04651648 0.026229411 0.024552066 -0.0074257483 0.045013607 -0.057601392 0.02980218 0.027604507
0.06811167 0.0020128011 0.010899035 0.020983348 0.04852117 0.025288561 0.04181197 0.055223644
0.0141522875 0.03759394 0.05628765 0.039173532 -0.012025473 0.012545849 0.014577879 -0.029829938
0.050061524 0.079322815 0.0015432985 0.050538056 -0.0037042547 0.04038271 0.096157536 0.06712693
0.08490424 0.22997485 0.22664216 0.21841949 0.12516993 0.14031477 0.103146166 0.2722005
0.18960333 -0.00042529564 0.046214536 0.2693369 0.15914275 0.024769854 0.23338328 0.12580049
0.1849991 0.17164724 -0.009054661 0.11653246 0.061205413 0.24357621 0.1916726 0.033794206
0.21168151 0.154626 0.11796533 0.27212006 0.1746894 0.22279923 0.13876204 0.07152495
0.042607658 0.2042861 0.012183169 0.11821275 0.19560046 0.13949253 0.15660365 0.25011528
0.25488922 0.1535558 0.1091984 0.1535339 0.10584175 0.23088656 0.06363124 0.12187641
0.24479915 0.08635789 0.058209483 0.12306629 0.1582513 0.27133468 0.18985534 0.21749975
0.23638791 0.22321899 0.061300628 0.16072646 0.056756146 0.15409738 0.23454724 0.23649512
0.11150049 -0.014732149 0.033167906 -0.00039021886 -0.042607293 0.07601298 0.14246036 0.01756621
0.098979674 0.06894479 0.023739137 0.019836374 -0.13724558 -0.14579864 0.05492192 -0.024300411
-0.12583064 0.022718355 0.048685845 0.053450137 -0.10164442 -0.0787797 -0.06424951 -0.1371606
0.07844558 0.09837399 -0.059298944 -0.021647658 0.15637603 0.033729944 0.008729728 0.124657296
0.06815567 -0.0019661787 -0.015822198 0.055882055 -0.067349024 0.121924736 0.13159382 -0.13052288
0.04011737 -0.022731854 0.02505632 -0.1022384 0.0014055293 0.05062748 0.0112768365 -0.0697405
0.16915722 -0.034337286 0.083681494 -0.018995224 -0.010190812 0.102508314 0.032527722 0.07494824
-0.050908554 -0.12665755 0.11317293 0.08959949 -0.19431616 0.20497082 0.0010129807 0.094466634

encoder.gru.bias_hh_l0_reverse f4 [192]
00000000: e7f9 3b3d 54a5 1abd 1cdf 483d a81f a73d
00000010: 240b cfbc 63a0 953c e238 2f3d 693e 0a3c
00000020: 8281 34bc 3da1 113d 4ac7 6d3c c8e6 d8bc
00000030: 859d 823d 93a1 0ebd 8d17 463d d63f 5f3d
00000040: 87e7 1a3e 5a8e 4c3c dfa4 b33d 9a52 4d3d
00000050: 7f64 743c 5fbf 6d3d fdd2 ad3c 2daa a73c
00000060: cd1f 973c b660 2d3c 3bdb 34bc d5dc 843d
00000070: c85b a2bb 5b22 883d a72f 353d 2146 88bc
00000080: 5a5f ad3d 83ee 5c3d c624 d63c 40e5 b8bb
00000090: 3841 ee3b 048a 91bd 1fec 2b3d 94db 0c3d
000000a0: 4753 8cbc 6107 8e3a 3ecc ab3b 5bfa b13c
000000b0: 2ad0 f63d 67ce 743d 46e2 3f3d 0afb 593d
000000c0: 8e9d b53c 0206 4b3d b943 083c cfc1 c33d
000000d0: b985 74bc f868 4dbc 6bf1 e03d fa2e 6abc
000000e0: 1923 98b9 c213 353d f1a8 d03c df7b 4bbd
000000f0: b297 0bb9 3ee8 9f3d 9321 e73d 02c4 f43c
00000100: d41b 9b3d c354 5d3e 2503 833e 0792 653e
00000110: a7b4 f33d 2dce 0e3e 1d15 083e 2055 523e
00000120: 32c8 073e a3f2 e33b d3e6 3a3d a00c 693e
00000130: 259e 213e 6bbc bf3c bbf6 593e e514 ff3d
00000140: cfc6 573e 613d 183e 9765 aebc d502 443e
00000150: 9e65 473d de59 7c3e 0fab 6b3e 286d 0a3d
00000160: 1b4e 273e 213f 1a3e 6cc9 d73d 88f2 593e
00000170: eafb 463e 30a2 4c3e 59ec d73d 3a45 923d
00000180: de2f 0e3d 9cca 363e 1a2e 4e3c 6841 f73d
00000190: 8b4d 543e a75e 093e a8dd 103e e35f 503e
000001a0: 1799 733e 939e 053e 7ab1 d63d 2f8c 213e
000001b0: 8035 f83d 6acf 6c3e d5a0 593d 419d dd3d
000001c0: 5e1d 7a3e c7df b83d 9213 673d f21d d33d
000001d0: 0836 243e 00c5 853e 899d 5a3e 511b 393e
000001e0: 84ff 803e 0505 323e 52f5 a13d 6917 2e3e
000001f0: 0d28 8d3d effa 1d3e 7468 0a3e 9fe3 663e
00000200: b876 fcb8 10a2 dc3d 9c00 f83c 8112 efbd
00000210: ae5b fabd 2c58 853d 8899 183e 0919 c93d
00000220: 076c 163e 103a b1bc 4f03 20bd e200 a83d
00000230: 1d97 0abe 2e45 7fbd 5b0c 85bd d844 b83d
00000240: d778 0ebe 6383 c3bd 0b07 e33d be02 e53d
00000250: 51bc c2bd 7ac4 043d edc4 0abd eaad 703d
00000260: 7b2f 3ebd d4b6 30bd c59a c63c 3be4 183e
00000270: 68d9 403d 7c02 3b3d 7668 9fbd 11a8 45bd
00000280: 24e2 633d 53be 51bb 5ce6 f63d ac81 8bbd
00000290: 3a83 ccbd f17e 3cbd e030 863d 28bf b6bb
000002a0: 0d1b cb3d f5f9 4b3d a9b8 8a3d dff6 b13d
000002b0: e2f4 c1bd b61e c43c bfa2 37bc 17a4 ffbd
000002c0: 9e82 bdba 11aa 87bd 10f3 153e c38f 26be
000002d0: 5e1f acbc fea4 88bc 2a25 233e b0b8 55bc
000002e0: de46 95bc d8ee bdbd 15ce 63bc d838 df3d
000002f0: 3f96 89bd 0caf 403e dcb0 bdbd 9e86 093d
0.045892622 -0.037755325 0.0490409 0.08160335 -0.025273867 0.018264955 0.042778857 0.008437731
-0.011017205 0.03555416 0.014512846 -0.026477233 0.06377701 -0.034822058 0.048362304 0.054504238
0.15127383 0.012485111 0.08771681 0.050127603 0.014916538 0.058043834 0.021218771 0.020466888
0.018447781 0.01058214 -0.011038597 0.06487433 -0.004954789 0.06647178 0.044234898 -0.016635003
0.084654525 0.0539384 0.026140582 -0.005642563 0.0072709583 -0.071064025 0.04197323 0.034389094
-0.017129553 0.0010835939 0.0052428534 0.021725824 0.12051423 0.059767153 0.04684665 0.053217925
0.022169854 0.049566276 0.008316928 0.095584504 -0.01492446 -0.0125372335 0.10983547 -0.014293427
-0.0002901785 0.044208296 0.025471183 -0.04967868 -0.00013312584 0.078079686 0.11285701 0.02987862
0.07573667 0.21614365 0.25588337 0.22418986 0.11899691 0.13945837 0.13289304 0.20540285
0.13259962 0.006956415 0.045630287 0.22758722 0.15782984 0.023405274 0.21285526 0.12455157
0.21071933 0.14867164 -0.021288676 0.19141705 0.048680894 0.24643657 0.23014472 0.033795506
0.16338389 0.15063144 0.10536465 0.21283925 0.19432035 0.19983745 0.105431266 0.0714211
0.03471362 0.17850727 0.012584234 0.12073022 0.20732705 0.13415013 0.14147055 0.20349078
0.23788868 0.13048773 0.1048307 0.15776132 0.12119579 0.23125997 0.053131897 0.108210094
0.24425265 0.09027057 0.056415148 0.10308446 0.16036236 0.26126862 0.21349157 0.18076827
0.25194943 0.17384727 0.07908119 0.17001118 0.06892405 0.15427755 0.13516408 0.22547768
-0.000120384095 0.107730985 0.030273728 -0.11673451 -0.12224518 0.06510958 0.14902318 0.09819228
0.14689647 -0.021634132 -0.039065655 0.082032934 -0.13534208 -0.062321834 -0.06496497 0.08997506
-0.13913284 -0.095465444 0.11085328 0.11182164 -0.09508575 0.032413937 -0.03387921 0.058759607
-0.046432 -0.04314311 0.024243722 0.14930813 0.047082335 0.045656666 -0.07783596 -0.048255984
0.055635586 -0.0032004311 0.12055656 -0.06811842 -0.09985967 -0.0460195 0.06552291 -0.005576987
0.09917269 0.049798924 0.067735024 0.08689665 -0.09470536 0.023940425 -0.011208235 -0.124824695
-0.0014458483 -0.066242345 0.14643502 -0.16265778 -0.02101105 -0.016680237 0.15932146 -0.013044521
-0.018222269 -0.092740715 -0.013904114 0.10899514 -0.0671811 0.18816775 -0.09262249 0.033575647

encoder.norm.weight f4 [8]
00000000: b7be a33f 4e31 ba3f 16f1 b63f b637 973f
00000010: 1290 863f 085f 923f 3e29 9f3f 2298 b13f
1.2792577 1.4546297 1.4292324 1.1813877 1.0512717 1.1435251 1.2434461 1.3874552

encoder.norm.bias f4 [8]
00000000: 2014 383e de6c 663e cd5d c0bc aec7 07bd
00000010: 52ea a13c e697 23be 9bbc b6bd 82c4 5dbd
0.17976427 0.22502467 -0.023482228 -0.033149414 0.019765053 -0.15975913 -0.089226924 -0.054142483
