my_latent_sde/sdes/best_sde_0.pth (torch, 797282 bytes, 32 tensors)

encoder.gru.weight_ih_l0 f4 [384, 2]
0	0x3c674f0a	0.0141179655
1	0xbda19573	-0.07889833
2	0x3ca19eb3	0.019728994
3	0xbd849865	-0.064743795
4	0x3d09fa69	0.033686075
5	0x3b4a15d5	0.0030835767
6	0xbbe5ef62	-0.007017062
7	0x3d129f65	0.03579654
8	0x3ca97c31	0.020689102
9	0x3df63a4b	0.12022837
10	0xbd14af11	-0.03629977
11	0xbcf91435	-0.030405143
12	0x3c943aef	0.018094508
13	0xbc9315f9	-0.017954813
14	0x3c9b0c7a	0.018926848
15	0xbc83b314	-0.016076602
16	0xbcce4823	-0.025180882
17	0x3cc9c860	0.024631679
18	0x3d911358	0.07083768
19	0x3d8e161a	0.06937809
20	0x3abcc5d7	0.0014402223
21	0x3d04f3dc	0.032459125
22	0xbc08cd71	-0.008349762
23	0x3da2003a	0.079101995
24	0xbdb9d558	-0.09073895
25	0xbd9ce579	-0.07660956
26	0x3c33ace6	0.010966515
27	0xbd12f076	-0.035873853
28	0x3c4bc332	0.012436675
29	0xbc4e3452	-0.012585716
30	0x3d6c29f3	0.057657193
31	0x3bf1364e	0.00736121
32	0xbd11e262	-0.035616286
33	0xbd948aba	-0.072530225
34	0x3d7dba1c	0.061945066
35	0xbd826565	-0.06366996
36	0xbd90a7a5	-0.07063226
37	0x3d35701e	0.044296376
38	0xbdaf14c1	-0.0854888
39	0xbd6cd858	-0.05782351
40	0x3c8850ae	0.016640034
41	0x3d835f0b	0.064146124
42	0x3bb357ab	0.0054730973
43	0x3cb5f5ff	0.022212027
44	0x3d20aa4d	0.03922491
45	0x3c82f8bf	0.015987752
46	0x3cc945c5	0.024569402
47	0x3d344e08	0.04401973
48	0x3d80a3af	0.0628122
49	0x3d911dfa	0.07085796
50	0x3d38137b	0.044940453
51	0x3d949459	0.072548576
52	0xbcedd740	-0.029033303
53	0x3cb4f2fe	0.022088524
54	0x3b5f86ee	0.0034107524
55	0x3d70fe08	0.058836013
56	0x3d57a09c	0.052643403
57	0x39634224	0.00021673046
58	0x3cd4bf10	0.025970012
59	0xbae5c23a	-0.0017529198
60	0x3db9844b	0.09058436
61	0xbc53ff14	-0.012939233
62	0xbd9c8f3b	-0.076445065
63	0xbd8baca8	-0.06820041
64	0x3d087ea9	0.033323918
65	0xbd51a89e	-0.051186197
66	0x3d875ecc	0.06609878
67	0xbd72319c	-0.059129342
68	0xbd4af32c	-0.049548313
69	0x3d1cab4c	0.0382493
70	0xbd05dd3d	-0.032681692
71	0x3da58935	0.08082811
72	0xbb2937d5	-0.0025820632
73	0xbd80e4b8	-0.06293625
74	0x3d8c2444	0.068428546
75	0xbd7a8ae6	-0.06116762
76	0xbbb2723b	-0.0054457462
77	0xbd9c03e1	-0.07617927
78	0xbd77be5b	-0.06048427
79	0x3da0ae33	0.07845726
80	0x3c591045	0.013248508
81	0xbccde1e3	-0.025132125
82	0xbcc28edc	-0.023749761
83	0x3d17f9ca	0.03710345
84	0xbcf1acf6	-0.02950142
85	0x3c5e1f6a	0.013557294
86	0x3c311821	0.010808975
87	0x3cb8a072	0.022537444
88	0xbd51043e	-0.051029436
89	0x3d13747f	0.03599977
90	0x3c997bf2	0.01873586
91	0x3ce26388	0.02763535
92	0x3d07dfdb	0.03317247
93	0xbd763b79	-0.06011531
94	0x3d640245	0.055666227
95	0x3da2184e	0.07914792
96	0xbd9d4e93	-0.076810025
97	0xbd806ecf	-0.06271135
98	0xbc77c26e	-0.015122039
99	0x3d509b95	0.050929625
100	0x3dd66738	0.10468906
101	0xbd8bf72d	-0.068342544
102	0x3d42b1f2	0.047532983
103	0xbdd04943	-0.101702236
104	0xbda3cda5	-0.07998208
105	0x3cc82f1c	0.024436526
106	0xbc1bb847	-0.009504384
107	0x3ce4e400	0.02794075
108	0x3d71db98	0.05904731
109	0xbd294080	-0.041321278
110	0x3dbc085b	0.09181281
111	0xbd1eb15a	-0.038743354
112	0x3d1b97fc	0.03798674
113	0xbd1ed3d8	-0.03877625
114	0xbd27be6a	-0.040953077
115	0x3d0369d1	0.032083336
116	0x3da72af6	0.08162491
117	0x3965eaf4	0.00021926669
118	0xbd75b501	-0.059987072
119	0xbcc795ee	-0.024363484
120	0xbd717c3c	-0.05895637
121	0x3ca23385	0.019799957
122	0x3df47f86	0.11938386
123	0xbd2b9d5c	-0.041898116
124	0xbd63ecd2	-0.05564577
125	0xbd3e34bf	-0.04643702
126	0xbd1d1293	-0.038347792
127	0x3b9d52dc	0.0048011374
128	0xbd837c77	-0.06420224
129	0xbd7f3baa	-0.06231276
130	0xbd6e1d75	-0.05813356
131	0x3c8d1764	0.017223068
132	0xbd13ebee	-0.036113672
133	0xbddf6bf3	-0.109092616
134	0x3dc96de6	0.098354146
135	0xbbcd3815	-0.006262789
136	0x3ca03e4a	0.019560952
137	0xbd02fad2	-0.031977482
138	0xbcb956f1	-0.022624465
139	0xb943bf0d	-0.00018667821
140	0x3d30699b	0.043069463
141	0x3d41f2f6	0.047350846
142	0x3daaa4a9	0.08332188
143	0xbc6f56a4	-0.014608059
144	0x3d3aa33c	0.04556583
145	0x3d3c9410	0.04603964
146	0xbd4e1f02	-0.05032254
147	0x3d8c8c7e	0.06862734
148	0x3d15ecd9	0.03660283
149	0x3b2747a3	0.0025524877
150	0xbc512ff4	-0.012767781
151	0x3cb84b42	0.022496823
152	0x3cd895d4	0.026438631
153	0x3c883715	0.016627828
154	0xbd8188f2	-0.06324948
155	0x3d36df42	0.04464651
156	0xbc9f59b3	-0.019451952
157	0x3bbdd28d	0.005792922
158	0x3ccecbc0	0.02524364
159	0xbd536ff8	-0.051620454
160	0x3d44c0c7	0.04803541
161	0xbd1288c3	-0.035774957
162	0xbcf8e66d	-0.030383313
163	0x3d4323a1	0.0476414
164	0xbd11aa1c	-0.03556262
165	0xbdb41c6b	-0.08794483
166	0xbd70210b	-0.058625262
167	0xbcac6f64	-0.021049209
168	0xbca1e89a	-0.019764233
169	0xbde05bc5	-0.10955004
170	0xbc88ddb1	-0.016707273
171	0x3d5ed0dc	0.054398403
172	0xbcde425a	-0.027131248
173	0x3d88e5b5	0.06684438
174	0xbd04491a	-0.032296278
175	0xbd9bc941	-0.076067455
176	0xbd9b101b	-0.07571431
177	0xbcfb6d1d	-0.030691678
178	0xbd32ebe3	-0.04368199
179	0xbd11272b	-0.035437744
180	0x3d806cc9	0.06270749
181	0xbdb79a85	-0.08965019
182	0x3dd55dad	0.10418258
183	0x3d24da4a	0.04024724
184	0xbdc9d169	-0.09854395
185	0xbdb70389	-0.08936221
186	0xbcf691e2	-0.03009886
187	0x3d87af67	0.06625252
188	0xbd14ccb9	-0.03632805
189	0xbc3614cb	-0.011113356
190	0xbd36e95d	-0.044656146
191	0x3c4fbd3f	0.012679397
192	0xbd14a2b5	-0.036287982
193	0xbcfbe2aa	-0.03074773
194	0x3b4482e7	0.002998525
195	0x3cf16dca	0.029471297
196	0x3d640289	0.05566648
197	0xbd8d9407	-0.069129996
198	0xbc941900	-0.018078327
199	0xbc37899b	-0.011202241
200	0xbd0db82d	-0.03459947
201	0x3b735827	0.00371314
202	0x3dc8e86e	0.098099574
203	0x3d671a24	0.056421414
204	0x3d12786c	0.035759374
205	0xbce64da9	-0.028113203
206	0xbbdac4bd	-0.006676285
207	0xbd6c4fe8	-0.057693392
208	0x3d3ed96b	0.046594065
209	0x3ca4def6	0.020125847
210	0x3b63983a	0.0034728185
211	0x3df5d550	0.12003577
212	0xbd9870d0	-0.07443392
213	0x3c8ad9ba	0.016949523
214	0xbdad867b	-0.08472916
215	0xbd010a1f	-0.031503793
216	0xbdeb128e	-0.114781484
217	0xbbe5dac0	-0.0070146024
218	0x3d7e7585	0.062123794
219	0x3c3e270e	0.011605991
220	0xbd4c57b9	-0.049888346
221	0xbcaed2ba	-0.021340717
222	0x3d9df56f	0.07712828
223	0xbbfba84a	-0.0076799737
224	0xbd17b194	-0.037034586
225	0x3d2f334c	0.04277353
226	0x3c6ff62b	0.014646093
227	0x3c2149a3	0.0098442165
228	0x3d905ef0	0.07049358
229	0x3cc789bb	0.024357667
230	0x3d86c2bd	0.06580112
231	0xbd0d1b76	-0.034450017
232	0x3d6d095a	0.057870246
233	0x3ba8fd9d	0.005157186
234	0x3c836d58	0.01604335
235	0xbd5f2512	-0.054478712
236	0xbc1e3595	-0.00965633
237	0x3dbd4d2d	0.09243236
238	0xbbd94702	-0.0066307792
239	0x3cdcf652	0.026972923
240	0xbbcf47b7	-0.0063256877
241	0x3c1ae537	0.009454063
242	0x3d7de8f7	0.06198975
243	0xbd35d15d	-0.044389118
244	0x3c6b6d86	0.014369374
245	0x3c8d553e	0.01725256
246	0xbb888f1a	-0.0041674497
247	0x3b838e4e	0.004014767
248	0x3cc58b32	0.024114225
249	0xbd9135fb	-0.07090374
250	0xbdc85f6e	-0.09783827
251	0x3d3fa67c	0.04678963
252	0x3da9533f	0.08267831
253	0x3d5e9d90	0.054349482
254	0xbc98eefe	-0.018668648
255	0xbd8b60b8	-0.06805557

encoder.gru.weight_hh_l0 f4 [384, 128]
0	0xbc096cf8	-0.008387797
1	0x3dc5fdee	0.09667574
2	0x3d7812e4	0.06056489
3	0x3cc882cd	0.024476433
4	0xbdc1e982	-0.09468366
5	0xbb7558ae	-0.003743689
6	0xbd8389c5	-0.06422762
7	0xbd767cec	-0.06017773
8	0xbbf51396	-0.0074791415
9	0x3c6c11fe	0.014408587
10	0xbd69b313	-0.057055544
11	0xbdb99f4e	-0.09063588
12	0xbdcddac5	-0.100514926
13	0x3d9c12c0	0.07620764
14	0xbd2d84c5	-0.042362947
15	0x3cda23dc	0.026628427
16	0xbce9b472	-0.028528426
17	0x3dd57565	0.10422782
18	0xbd4aaef8	-0.04948327
19	0x3d8cc9dc	0.06874439
20	0xbdafb25b	-0.085789405
21	0xbdcfb7cc	-0.10142478
22	0xbcc26884	-0.023731478
23	0xbc3dc514	-0.011582632
24	0xbdad4cc4	-0.084619075
25	0xbd29ac45	-0.041424055
26	0x3c6e8c07	0.014559752
27	0x3c21efbe	0.009883819
28	0x3d7c481b	0.061592203
29	0x3de9d9b0	0.11418474
30	0x3c4ff7a9	0.012693324
31	0xbd1597c6	-0.036521696
32	0x3daa83da	0.0832593
33	0x3cd66b35	0.026174167
34	0xbd66abac	-0.056316063
35	0x3d5aabbf	0.053386446
36	0xbd724363	-0.059146296
37	0x3d85c45a	0.06531592
38	0xbc83953f	-0.016062377
39	0x3c589ee7	0.013221479
40	0xbd9b51c2	-0.075839534
41	0x3d31d82f	0.04341906
42	0x3d977df2	0.07397069
43	0x3d48df2a	0.04904095
44	0xbde627ac	-0.112380356
45	0x3d031dcc	0.03201084
46	0xbddf888f	-0.10914718
47	0xbc8f6fc7	-0.017509354
48	0xbd7168a2	-0.058937676
49	0x3da30593	0.079600476
50	0x3c376fbb	0.011196072
51	0xbc9b3697	-0.018946929
52	0x3d97b942	0.07408382
53	0xbde511f7	-0.11185067
54	0x3dbe38e0	0.09288192
55	0x3d2076b6	0.03917571
56	0x3ddff0bf	0.109345905
57	0x3d59bf18	0.053160757
58	0x3c2cf2aa	0.0105559025
59	0xbc273a39	-0.010206752
60	0x3d8617fd	0.06547544
61	0xbdb5c9bc	-0.088763684
62	0xbc6160d7	-0.013755999
63	0xbd18d98c	-0.037316844
64	0xbcc0a241	-0.023514869
65	0xbd881e8b	-0.066464506
66	0x3caabcf4	0.020842053
67	0x3c901718	0.017589137
68	0xbd817790	-0.06321633
69	0x3ae267af	0.0017273332
70	0x3cf94f77	0.0304334
71	0x3c04edf0	0.008113369
72	0x3d7cb8b5	0.061699588
73	0xbd6a3f53	-0.057189297
74	0xbcd20d46	-0.025641095
75	0x3d09d4c5	0.03365018
76	0xbdeec090	-0.11657822
77	0x3d304673	0.043035936
78	0xbc8b0bc6	-0.016973387
79	0x3d6f8516	0.05847653
80	0x3bf6d3f0	0.007532589
81	0x3d56f42d	0.052478958
82	0x3c43126b	0.011906247
83	0xbd5c0688	-0.053717166
84	0xbdb80f2e	-0.0898727
85	0x3d98dc8f	0.07463943
86	0x3cccfb37	0.025022132
87	0xbc1e1c7e	-0.009650348
88	0xbd4bebe0	-0.049785495
89	0x3dae0ba1	0.08498312
90	0xbcabe772	-0.020984385
91	0xbbc270e4	-0.005933868
92	0x3cab09fa	0.02087878
93	0x3c968324	0.01837308
94	0x3d9479c5	0.07249788
95	0x3a80c49f	0.0009824223
96	0xbc74b664	-0.014936063
97	0x3c8e333e	0.017358419
98	0x3c7e82f8	0.015534155
99	0xbd26aa51	-0.04068977
100	0xbd336cbf	-0.04380488
101	0x3c949584	0.0181377
102	0xbcbc6d98	-0.023001477
103	0xbd325180	-0.043534756
104	0x3cdccd93	0.026953494
105	0x3c8a642d	0.01689347
106	0xbcca2545	-0.024675975
107	0x3dc8c116	0.09802453
108	0xbc8976c8	-0.016780272
109	0x3d517b10	0.051142752
110	0xbdc6e5e4	-0.09711817
111	0xbceae55b	-0.028673818
112	0xbc1a1600	-0.009404659
113	0x3c28a899	0.010294103
114	0xbcd6cf90	-0.02622202
115	0xbd191c9f	-0.03738081
116	0xbdcfa7a1	-0.101393946
117	0x3d521664	0.051290885
118	0xbc933262	-0.01796836
119	0xbd5b8053	-0.053589176
120	0x3dc6da40	0.09709597
121	0x3db2285b	0.086991034
122	0xbcb929d5	-0.022602955
123	0xbd032a11	-0.03202254
124	0x3b9a9d81	0.004718483
125	0x3da4e6c4	0.080518275
126	0x3ddb2350	0.10700095
127	0xbce1dfa9	-0.02757247
128	0x3d421dbd	0.047391642
129	0x3d505540	0.05086255
130	0x3d28a9f7	0.041177716
131	0xbd9a9a15	-0.0754892
132	0x3d159239	0.036516402
133	0xbd602aec	-0.054728433
134	0x3cee88d8	0.029117987
135	0x3d40cae6	0.0470685
136	0xbc05fdb2	-0.008178161
137	0x3cb6ef8b	0.02233102
138	0xbd2db12c	-0.042405292
139	0xbcf61bb4	-0.030042507
140	0x3c1b4652	0.009477215
141	0x3cf0b8b9	0.029384958
142	0xbd288b9b	-0.041148763
143	0xbc460282	-0.012085559
144	0x3d6ad977	0.057336297
145	0x3dbab287	0.09116083
146	0x3c24ce73	0.010058987
147	0x3c10417f	0.008804678
148	0x3d6f1ce5	0.058377165
149	0x3d5a8e5f	0.053358432
150	0xbc8c969a	-0.017161656
151	0x3c4aed3d	0.012385664
152	0xbcfebff2	-0.031097386
153	0x3d32a2ce	0.043612294
154	0x3d4ec21f	0.050478097
155	0x3d7b4b6c	0.061351225
156	0xbcae4d96	-0.02127723
157	0xbd29d338	-0.0414612
158	0x3d5d76d6	0.05406841
159	0x3ce4f7d1	0.0279502
160	0x3c9e4b82	0.019323114
161	0xbd1f21d4	-0.03885062
162	0xbd8e8c99	-0.069604106
163	0x3d5da449	0.054111753
164	0xbd4910c0	-0.04908824
165	0xbceac5ed	-0.028658831
166	0x3c98f56d	0.018671716
167	0x3d0b5d20	0.034024358
168	0x3d3a97dc	0.04555498
169	0x3d984d5f	0.07436632
170	0x3dcca0ac	0.09991583
171	0xbd7bf8e1	-0.061516646
172	0xbd624a86	-0.055246852
173	0xbd6149f0	-0.055002153
174	0xbda130b2	-0.07870616
175	0x3d27d27d	0.04097222
176	0x3d296cbe	0.04136347
177	0x3bb8fcc2	0.0056453655
178	0x3d21f934	0.0395443
179	0x3cc2aa8e	0.023762967
180	0x3d6f60ce	0.05844193
181	0x3cf7e869	0.030262189
182	0x3cfd3f37	0.030913932
183	0x3d38747a	0.045032956
184	0x3dbd896d	0.092547275
185	0xbd2d6348	-0.04233101
186	0xbd2b314c	-0.04179506
187	0x3d439f92	0.0477596
188	0x3c654544	0.013993565
189	0x3c56a2f2	0.013100373
190	0xbde4a8cd	-0.11165009
191	0x3ba1db81	0.004939497
192	0xbd8af6bd	-0.06785343
193	0x3cdb8b88	0.026799932
194	0x3cc79f83	0.024368053
195	0xbd77b4fb	-0.06047533
196	0xbd5269e3	-0.051370513
197	0x3d642a2e	0.05570429
198	0x3d708c5f	0.05872762
199	0xbad377f0	-0.0016133767
200	0xbd3905fd	-0.045171726
201	0x3d5242b2	0.051333137
202	0x3d852953	0.065020226
203	0xbd6cfaea	-0.057856478
204	0xbd9299d5	-0.071582474
205	0x3d8f00ff	0.06982612
206	0x3ca83b4f	0.020536093
207	0x3d06a148	0.032868654
208	0xbc30d0df	-0.010791986
209	0xbd3b33e1	-0.045703772
210	0x3c69aedf	0.014262884
211	0xbdcb7517	-0.099344425
212	0xbdaf8424	-0.08570126
213	0x3af36ade	0.0018571278
214	0x3c2b9f6e	0.010475023
215	0xbda5b4d6	-0.08091132
216	0xbd77934c	-0.060443208
217	0x3d15d0fb	0.036576252
218	0xbc413a92	-0.011793749
219	0xb92aff3e	-0.00016307549
220	0xbd271027	-0.04078689
221	0x3d7a9380	0.061175823
222	0x3d5e6303	0.054293644
223	0xbd929675	-0.07157604
224	0xbcb43942	-0.021999959
225	0x3d1bea0d	0.038065005
226	0x3d66ecc4	0.05637814
227	0x3d1847f0	0.03717798
228	0xbcb5733d	-0.022149676
229	0x3b8109a9	0.003937919
230	0xb99119df	-0.0002767583
231	0x3d89d9d9	0.06731004
232	0x3d2cf5c7	0.04222658
233	0x3cbfb09a	0.02339964
234	0xbbf32e66	-0.0074213026
235	0xbc833d5c	-0.01602047
236	0x3d4e27d1	0.05033094
237	0x3d805145	0.06265501
238	0xbd964c21	-0.07338739
239	0xbb4a2bb7	-0.003084881
240	0xbd68f3c8	-0.056873113
241	0x3c798aa9	0.015230813
242	0xbd7f8394	-0.062381342
243	0x3d5a04fd	0.053227413
244	0x3d6bc820	0.0575639
245	0x3cbe5999	0.023236083
246	0x3d1f377b	0.03887127
247	0xbdb40a35	-0.08791009
248	0x3ce86d66	0.028372478
249	0xbd978e2a	-0.074001625
250	0xbc98c4b4	-0.018648483
251	0x3ce9b168	0.028526977
252	0xbce4d76f	-0.027934758
253	0x3ccf8062	0.025329772
254	0x3c41ae46	0.011821335
255	0x3d57488a	0.052559413

encoder.gru.bias_ih_l0 f4 [384]
0	0xbd500333	-0.0507843
1	0x3d839d6b	0.064265095
2	0xbd67324b	-0.056444447
3	0x3cd7a330	0.026322931
4	0x3d875ca9	0.066094704
5	0xbb50ce94	-0.0031861411
6	0xbc349371	-0.011021481
7	0x3d929a46	0.071583316
8	0xbcc16019	-0.023605393
9	0x3d5b2dc8	0.053510457
10	0x3d1559be	0.036462538
11	0x3c9da88b	0.019245407
12	0x3d3869d0	0.045022786
13	0xbc657d38	-0.014006905
14	0x3d82400c	0.06359872
15	0xbdab77cd	-0.083724596
16	0x3cb72ed4	0.022361197
17	0xbc657056	-0.014003834
18	0xbd73b55e	-0.059499137
19	0xbda2468e	-0.079236135
20	0xbcfd7fd8	-0.03094475
21	0xbc93366a	-0.017970283
22	0xbd34c0cd	-0.04412918
23	0xbc491649	-0.01227338
24	0xbd15dcc5	-0.036587495
25	0x3c7d93c6	0.015477126
26	0x3ce0d323	0.027444428
27	0x3d7f5972	0.06234116
28	0x3c9c7ca9	0.019102411
29	0x3dadc459	0.08484716
30	0x3c92bbb8	0.017911777
31	0x3dbd4629	0.092418976
32	0x3cf1e5b0	0.029528469
33	0x3db1a697	0.086743526
34	0xbcf40fab	-0.029792627
35	0xbbbb31d1	-0.0057127257
36	0x3d3a1d1d	0.04543792
37	0xbd5ac63f	-0.05341172
38	0xbd10dfbb	-0.035369616
39	0x3db1d2a8	0.086827576
40	0xbda1dd97	-0.07903593
41	0x3d78d487	0.060749557
42	0x3c554d05	0.013018851
43	0xbc8e25de	-0.01735204
44	0xbd83c4de	-0.06434034
45	0xbd5e54d3	-0.054280113
46	0xbd919aab	-0.07109579
47	0x3b57ad04	0.0032909522
48	0x3d4d4dca	0.050123014
49	0x3d7d0793	0.0617748
50	0xbd642671	-0.055700723
51	0x3bdab893	0.006674835
52	0x3da0c49e	0.07850002
53	0x3dddd5cc	0.10831794
54	0x3ce22469	0.027605252
55	0x3c0f425a	0.008743847
56	0xbd2b7a62	-0.04186476
57	0xbb007953	-0.0019603565
58	0xbc95dd5f	-0.018294035
59	0xbc4fa38d	-0.012673271
60	0xbd4b657f	-0.04965734
61	0x3d98ac9b	0.07454797
62	0x3d711810	0.05886084
63	0x3d03a698	0.032141298
64	0x3cde4965	0.027134607
65	0xbd105880	-0.03524065
66	0x3da2f8c6	0.07957606
67	0xbd1e61f9	-0.038667653
68	0x3d38ceac	0.045118973
69	0xbd4bf517	-0.049794283
70	0xbd8abeea	-0.06774695
71	0x3de2f185	0.110812224
72	0xbd7701a6	-0.060304306
73	0x3da67e94	0.081296116
74	0xbac14b95	-0.0014747257
75	0x3d67bcf3	0.05657668
76	0x3c2dd52c	0.010609906
77	0xbd62b771	-0.055350725
78	0xbd8953ec	-0.0670546
79	0xbbfab161	-0.0076505397
80	0xbc8895c8	-0.016672984
81	0xbd03337b	-0.032031517
82	0x3d760ed0	0.06007272
83	0x3dae8b2a	0.08522637
84	0x3c08dea3	0.008353862
85	0xbd13d300	-0.036089897
86	0x3d0a2c65	0.033733744
87	0xbdab3f7f	-0.0836172
88	0x3dcf4478	0.10120481
89	0x3d0af224	0.03392233
90	0x3d528ca6	0.051403664
91	0x3d2658aa	0.0406119
92	0x3d94f48b	0.07273205
93	0xbdba0d11	-0.090845235
94	0xbd91e786	-0.07124238
95	0xbb032ac5	-0.0020014506
96	0xbce388af	-0.027775137
97	0x3d8ca40f	0.06867229
98	0xbd074468	-0.03302422
99	0xbc8b41af	-0.016999094
100	0x3c1fa6ad	0.009744328
101	0xbd116488	-0.035496265
102	0x3d17be64	0.037046805
103	0x3d8373dd	0.064185835
104	0x3cb9b19f	0.022667704
105	0x3cdd0492	0.026979718
106	0x3d258dae	0.04041832
107	0x3db4539f	0.08805012
108	0xbd3f140a	-0.04664997
109	0x3dd01379	0.10159964
110	0x3bcaf435	0.0061936625
111	0x3d1e549f	0.03865492
112	0xbd8b3d06	-0.06798749
113	0x3c9668ed	0.01836058
114	0xbd50270f	-0.0508185
115	0xbd272ea5	-0.040815968
116	0x3d9ed017	0.07754534
117	0x3cf5b99d	0.029995734
118	0xbd8938aa	-0.06700261
119	0x3d275ba3	0.040858876
120	0xbd2353a0	-0.039874673
121	0xbd57eb51	-0.05271465
122	0x3d05cd40	0.032666445
123	0xbb20176a	-0.0024428018
124	0xbcab259e	-0.02089196
125	0xbd517a83	-0.051142227
126	0xbdf08476	-0.11744015
127	0x3d862c23	0.06551387
128	0x3e0cf1ec	0.13764161
129	0x3e4696f6	0.19393525
130	0x3e0cd1d9	0.13751926
131	0x3dae7bfc	0.08519742
132	0x3e14d1bb	0.14533131
133	0x3d6cefc9	0.057845864
134	0x3ce63531	0.028101536
135	0x3d2c21a3	0.042024266
136	0x3de9e95a	0.114214614
137	0x3de4af25	0.11166219
138	0x3d86b858	0.065781295
139	0x3dcb1c87	0.099175505
140	0x3e1715c5	0.14754398
141	0x3d255533	0.040364455
142	0x3e085767	0.13314591
143	0x3dfa7c37	0.12230723
144	0x3d88b883	0.06675818
145	0x3e2bc206	0.16773233
146	0xba7be1c8	-0.0009608534
147	0x3df47ca2	0.11937834
148	0x3dbaf202	0.091281906
149	0x3e0fb1b6	0.14032635
150	0x3db13fca	0.08654745
151	0xbdaa1086	-0.08303933
152	0x3e01967f	0.12655066
153	0x3e002daf	0.12517427
154	0x3e0ba561	0.13637306
155	0x3e465b03	0.19370656
156	0x3e1527ef	0.14566015
157	0x3df46109	0.119325705
158	0x3d6c8ca6	0.05775132
159	0xbc2ec3b4	-0.010666776
160	0x3d58fd67	0.05297604
161	0x3dadd06e	0.084870204
162	0x3d2733a0	0.040820718
163	0x3e3966ac	0.18105572
164	0xba9923b5	-0.0011683615
165	0x3e170b77	0.14750467
166	0xbd075b45	-0.033046026
167	0x3e04194b	0.12900274
168	0x3d44979f	0.04799616
169	0x3d68b112	0.056809492
170	0x3dfb943e	0.12284134
171	0x3e574914	0.21023971
172	0x3d5668f5	0.05234619
173	0xbd42af1b	-0.047530275
174	0x3d87468b	0.06605252
175	0x3db91fba	0.090392545
176	0x3d24434d	0.040103246
177	0x3d9cafa7	0.076506905
178	0x3d84f6f0	0.06492412
179	0x3e0e217a	0.13879958
180	0x3ccae276	0.024766188
181	0x3d818bd3	0.063254975
182	0x3cd9106a	0.026497085
183	0x3da0c8b2	0.078507796
184	0x3e01ece2	0.1268802
185	0x3dd80f72	0.10549821
186	0x3d9bbda3	0.0760453
187	0x3ddf2214	0.10895172
188	0x3e111c38	0.14170921
189	0x3e350189	0.17676367
190	0x3e030f97	0.12798916
191	0x3dfb3daa	0.12267621
192	0x3decb2a7	0.11557513
193	0x3e230787	0.1592084
194	0x3d7cbcc0	0.061703444
195	0x3dd269a2	0.10274054
196	0x3e0ae821	0.13565113
197	0x3e2d6dd8	0.16936433
198	0x3e1bb8e6	0.15207252
199	0x3e13adb3	0.1442173
200	0x3dd104e9	0.10206015
201	0x3e18e249	0.14930071
202	0x3e1242b7	0.14283262
203	0x3ca15789	0.01969506
204	0x3e10388f	0.14084075
205	0x3d3928f8	0.045205086
206	0x3df5efec	0.12008652
207	0x3d939f97	0.07208174
208	0x3d0caa81	0.034342293
209	0x3dace48e	0.08442031
210	0x3e0528ec	0.13003892
211	0x3e01973e	0.1265535
212	0x3e159c1b	0.14610331
213	0x3e198158	0.14990747
214	0x3e24fe6e	0.16112682
215	0x3e0d58e6	0.13803443
216	0x3da2d806	0.079513595
217	0x3de980c6	0.11401515
218	0x3d8be897	0.06831472
219	0x3da1174f	0.07865774
220	0x3d6f0081	0.05835009
221	0x3dd2b5cc	0.10288581
222	0x3e3cf532	0.1845291
223	0x3d1a4ec2	0.037672766
224	0x3dc87d0a	0.09789474
225	0x3e4282e7	0.18995248
226	0x3cb278d3	0.02178613
227	0x3e289e8f	0.16466735
228	0xbc1ca4e3	-0.009560796
229	0x3e463970	0.19357848
230	0x3d57ca64	0.05268325
231	0x3d897939	0.067125745
232	0x3dfa0986	0.12208848
233	0x3e2d862b	0.16945712
234	0x3df15d9c	0.11785433
235	0xbbe09cbd	-0.006854622
236	0x3e0ace17	0.1355518
237	0x3de5596a	0.11198695
238	0x3e46448d	0.19362088
239	0x3c7c0457	0.015381894
240	0x3e1545ae	0.14577362
241	0x3d763346	0.060107492
242	0x3dbf6c49	0.09346826
243	0x3ca523ba	0.020158637
244	0x3dca6a7b	0.09883591
245	0x3dda6849	0.10664422
246	0x3da03b79	0.078238435
247	0x3e067def	0.13133977
248	0x3e04a776	0.12954506
249	0x3d79627e	0.060884945
250	0x3d08db6c	0.033412382
251	0x3d90c7d6	0.07069366
252	0x3df1fa01	0.118152626
253	0x3dca6b77	0.098837785
254	0x3dc23570	0.09482849
255	0x3c796427	0.015221632

encoder.gru.bias_hh_l0 f4 [384]
0	0xbd74694c	-0.05967073
1	0xbcd3adfb	-0.025839796
2	0x3d8f60ce	0.07000886
3	0xbd473398	-0.048633188
4	0xbd21b9c2	-0.039483793
5	0x3d2b6548	0.041844636
6	0xbd63329d	-0.05546819
7	0xbd675800	-0.056480408
8	0x3d587264	0.052843466
9	0xbc1f81cb	-0.009735535
10	0x3db8c4b1	0.09021891
11	0xbdb278b0	-0.087144256
12	0xbd1374b6	-0.035999976
13	0xbd4d035a	-0.050052024
14	0x3d08c7bc	0.033393607
15	0x3d5b7743	0.053580534
16	0xbca49d63	-0.02009458
17	0x3cbf0b56	0.023320835
18	0xbd996a1f	-0.07490944
19	0xbcc2ccf7	-0.023779375
20	0x3c5f922e	0.013645692
21	0xbd73d72c	-0.059531376
22	0x3d7dcb74	0.061961606
23	0x3ddd1e57	0.107968025
24	0xbd4a355e	-0.0493673
25	0xbd6610e8	-0.056168467
26	0xbd129c24	-0.03579344
27	0xbc15fa51	-0.009153918
28	0xbd46880d	-0.048469592
29	0x3d068499	0.0328413
30	0x3cb81696	0.022471707
31	0x3d974f26	0.07388143
32	0xbc7364ab	-0.014855544
33	0xbbf13e65	-0.0073621743
34	0x3d9ae0fc	0.075624436
35	0x3c95befd	0.018279547
36	0x3b6a8979	0.0035787506
37	0x3d242a3a	0.040079333
38	0x3d0bb0dd	0.034104217
39	0xbd241089	-0.04005483
40	0xbd86a3b6	-0.06574194
41	0xbd73b251	-0.059496228
42	0xbd8b81a4	-0.06811836
43	0x3aeea7a2	0.0018207917
44	0x3b3d7d8e	0.0028913948
45	0x3cd6fb75	0.02624295
46	0x3c1e3a5b	0.009657468
47	0xbddd98de	-0.10820173
48	0x3d0532b0	0.032519042
49	0x3d90cfe9	0.07070906
50	0xbd4661a5	-0.048432965
51	0xbdf1f532	-0.118143454
52	0xbb981472	-0.004641109
53	0xbb8914db	-0.0041833944
54	0xbcef7393	-0.029229915
55	0xbce7a287	-0.028275741
56	0x3c2337f0	0.009962067
57	0xbd8fa9cd	-0.07014809
58	0xbd018ed7	-0.031630363
59	0x3dc84f42	0.09780742
60	0xbd047a08	-0.03234294
61	0xbccda316	-0.02510218
62	0x3cf59072	0.029976103
63	0x3d35019d	0.04419099
64	0x3d03ad4e	0.032147698
65	0x3d7df3f9	0.06200025
66	0x3d1a2828	0.037635952
67	0xbcdf5928	-0.027264193
68	0x3be1cc53	0.0068908124
69	0x3cadf1c9	0.021233456
70	0xbdb2e719	-0.08735485
71	0xbd4996dd	-0.04921614
72	0x3cb4a397	0.022050662
73	0xbca941fa	-0.020661343
74	0xbd624a0a	-0.05524639
75	0xbd1ad7b1	-0.037803356
76	0x3c11b388	0.008892901
77	0x3d3002d3	0.042971443
78	0x3d187c6c	0.037228033
79	0xbd611ac1	-0.054957155
80	0xbd968b8f	-0.073508374
81	0x3d91bbe4	0.071159154
82	0x3dd84695	0.105603375
83	0xbd049a51	-0.03237373
84	0x3d58a353	0.052890133
85	0x3c4a7e33	0.01235919
86	0xbce05234	-0.027382948
87	0xbd8eb405	-0.0696793
88	0x3df6fb16	0.120596096
89	0xbd437182	-0.04771567
90	0xbd62de76	-0.055387937
91	0xbcf9ba74	-0.030484416
92	0x3c34687c	0.011011239
93	0xbda78c1b	-0.0818102
94	0xbd1778fd	-0.036980618
95	0xbc210a2f	-0.009829088
96	0xbd46d182	-0.048539646
97	0xbbc8bccc	-0.006126022
98	0x3c274750	0.010209873
99	0xbd0b9251	-0.034075085
100	0x3d90c4e3	0.07068803
101	0xbc6f9ce1	-0.014624805
102	0xbcaed3c0	-0.021341205
103	0xbd16a940	-0.036782503
104	0xbc178c4b	-0.009249757
105	0xbd7f4a00	-0.06232643
106	0x3ca79331	0.020455929
107	0x3daedcc9	0.08538205
108	0xbd06b66a	-0.032888807
109	0x3da50cd0	0.080590844
110	0x3d311ce7	0.043240454
111	0xbcb136dc	-0.021632604
112	0x3d9d22b9	0.076726384
113	0xbbcc40cb	-0.00623331
114	0xbd10fbf3	-0.035396527
115	0x3ca6fd40	0.02038443
116	0x3d0d4c7f	0.03449678
117	0xbb95ef49	-0.004575644
118	0xbc8887c4	-0.0166663
119	0xbd0b479b	-0.034003835
120	0xbd8e18cd	-0.06938324
121	0xbd450569	-0.048100863
122	0xbd2be2e7	-0.041964438
123	0x3da7f991	0.08201898
124	0x3d85c4fc	0.065317124
125	0xbd91bf81	-0.071166046
126	0xbdd9df26	-0.10638265
127	0x3da4ec24	0.08052853
128	0x3e08af2e	0.13348076
129	0x3e0d5c7f	0.13804816
130	0x3dff396a	0.12462123
131	0x3e20b976	0.15695748
132	0x3d76bc98	0.06023845
133	0x3dfc13fd	0.123085
134	0x3dd2d074	0.102936655
135	0x3dfb3f9c	0.12267992
136	0x3d078c8c	0.03309302
137	0x3e11b4fa	0.14229193
138	0x3e328999	0.17435302
139	0x3c785e8c	0.0151592605
140	0x3e06b979	0.1315669
141	0x3e3ec13a	0.18628398
142	0x3d1f0daf	0.03883141
143	0x3e0998e7	0.13437234
144	0x3dac6b9f	0.084189646
145	0x3d84962a	0.06473954
146	0x3dc517ad	0.096236564
147	0x3e110dd7	0.14165436
148	0x3d930220	0.0717814
149	0x3e1a0770	0.150419
150	0x3e3590cf	0.17731021
151	0xbc18a6de	-0.009317128
152	0x3e0dd108	0.1384927
153	0x3dfd6ed5	0.12374655
154	0x3df35d19	0.11882991
155	0x3d3f8ac5	0.0467632
156	0x3d667f32	0.056273647
157	0x3e265c24	0.16246086
158	0x3e0c735d	0.13715883
159	0xbd0cb2b1	-0.0343501
160	0x3de9e899	0.114213176
161	0x3d33e3a5	0.04391827
162	0x3dec3643	0.11533787
163	0x3e165924	0.14682442
164	0x3d4ff189	0.050767455
165	0x3e1341af	0.14380525
166	0xbd0fc27d	-0.035097588
167	0x3e01e595	0.12685235
168	0x3e06b6b1	0.13155629
169	0x3e1659fc	0.14682764
170	0x3e17f85e	0.14840838
171	0x3e3887f9	0.1802062
172	0x3d82e43f	0.06391191
173	0xba5d93e0	-0.0008452516
174	0x3e24d5b4	0.16097146
175	0x3e0790bb	0.13238804
176	0xbae72884	-0.0017635976
177	0x3c27c47f	0.010239719
178	0x3d0a0c68	0.033703238
179	0x3e1385cd	0.1440651
180	0xbcb053ff	-0.021524427
181	0x3d1d6c2c	0.03843324
182	0x3e107277	0.14106165
183	0x3d69cd7e	0.05708074
184	0x3d218b5a	0.039439537
185	0x3dbeb152	0.09311165
186	0x3d9a3ef8	0.075315416
187	0x3dfb6bf7	0.12276452
188	0x3e0bac9f	0.13640068
189	0x3e42647d	0.18983646
190	0x3d5666bd	0.052344073
191	0x3e0fde87	0.14049731
192	0x3d64988f	0.055809554
193	0x3dea41f1	0.114383586
194	0x3d3bd297	0.04585513
195	0x3b898c7b	0.004197655
196	0x3e12f91a	0.14352837
197	0x3e0558d9	0.13022174
198	0x3da0bf3a	0.078489736
199	0x3de2606f	0.110535495
200	0x3d08c3dc	0.03338991
201	0x3d7b3adf	0.06133544
202	0x3dcd647c	0.100289315
203	0x3dbae1c1	0.091250904
204	0x3df57f13	0.11987128
205	0x3e46a959	0.19400539
206	0x3dcdac84	0.1004267
207	0x3d05afab	0.032638233
208	0x3db7670b	0.08955201
209	0x3d692361	0.056918506
210	0x3e2c416d	0.16821833
211	0x3d8424d1	0.06452335
212	0x3e01f773	0.1269205
213	0x3d8cd073	0.06875696
214	0x3db7b28d	0.08969603
215	0x3ddfd249	0.109287806
216	0x3db4695c	0.08809158
217	0x3d46b387	0.048511054
218	0xbb1888a1	-0.0023274797
219	0xbcc53cd2	-0.024076853
220	0x3dba64c6	0.09101252
221	0x3d58c213	0.05291946
222	0x3d9aa300	0.07550621
223	0x3dee52a7	0.116368584
224	0x3e36ca04	0.178505
225	0x3e2d3295	0.16913827
226	0x3dc22598	0.09479827
227	0x3db03af9	0.08604998
228	0x3b789c65	0.0037935015
229	0x3dc1566f	0.09440314
230	0x3d15215d	0.03640877
231	0x3c9e5a08	0.01933004
232	0x3e1ae081	0.15124704
233	0x3d928de0	0.07155967
234	0x3ce205ed	0.027590716
235	0x3d94c0f8	0.07263368
236	0x3dd8d8af	0.10588204
237	0x3e3485a4	0.17629105
238	0x3e0733c6	0.13203344
239	0x3da7fe3a	0.08202787
240	0x3e1ee741	0.15517904
241	0x3ce1b0a8	0.027550057
242	0x3da06f5c	0.0783374
243	0x3d842d72	0.064539805
244	0x3dbd688e	0.09248458
245	0x3e3e5fdd	0.18591256
246	0x3da8f30f	0.08249485
247	0x3e29aa75	0.1656893
248	0x3e271348	0.16315949
249	0x3d062293	0.032747816
250	0x3dc6ea5f	0.097126715
251	0x3cf5cb60	0.030004203
252	0x3d1764ce	0.03696137
253	0x3e0725e1	0.13198043
254	0x3e0ad235	0.1355675
255	0xbcb6a3c2	-0.022294883

encoder.gru.weight_ih_l0_reverse f4 [384, 2]
0	0xbd7241e2	-0.059144862
1	0xbcf33620	-0.029688895
2	0x3d05697a	0.032571293
3	0x3cea9e6f	0.02864
4	0x3daf2665	0.08552245
5	0x3d4ad4e8	0.04951945
6	0xbd439e48	-0.04775837
7	0x3ab8bcae	0.0014094317
8	0x3cc9c284	0.024628885
9	0x3d3be093	0.045868468
10	0xbdebedbc	-0.115199536
11	0xbd105eb3	-0.035246562
12	0xbd9c072b	-0.07618555
13	0xbe131a14	-0.14365417
14	0xbcb9ce20	-0.022681296
15	0xbcafd770	-0.021465033
16	0xbc79ba99	-0.015242242
17	0x3c8feafe	0.017568108
18	0xbc9a9425	-0.018869469
19	0xbdd0a096	-0.10186879
20	0x3db03a87	0.08604913
21	0xbd63f7f6	-0.055656396
22	0xbd979de8	-0.07403165
23	0xbdd43ba7	-0.1036294
24	0xbc8ef749	-0.0174519
25	0x3cc1d273	0.02365992
26	0xbdba7c7d	-0.091057755
27	0xbdbc9dc6	-0.092097804
28	0x3d069a3f	0.032861944
29	0xbdc62e64	-0.09676817
30	0xbd81c326	-0.0633605
31	0xbcb15018	-0.021644637
32	0xbdc3b294	-0.095555454
33	0xbc0936b0	-0.008374855
34	0xbc0f1d60	-0.008735031
35	0x3ccc83d1	0.024965199
36	0xbd890b4f	-0.0669161
37	0xbd3903a1	-0.045169476
38	0x3c576d25	0.013148581
39	0xbd133a63	-0.035944354
40	0xbd5fe1f8	-0.05465886
41	0x3d6ea730	0.05826491
42	0xbc647ef9	-0.013946288
43	0x3d926be3	0.07149484
44	0x3d9379fb	0.07201
45	0xbdb8c8b7	-0.09022658
46	0xbdde2475	-0.108467974
47	0xbd477a81	-0.048700813
48	0x3d49503a	0.049148776
49	0x3da7c787	0.08192354
50	0xbd038905	-0.032113094
51	0x3dd1bd35	0.102411665
52	0xbd8159aa	-0.0631593
53	0xbd3366c3	-0.043799173
54	0xbd0f432c	-0.03497617
55	0x3c85ff83	0.016357189
56	0xbd462eff	-0.048384663
57	0xbce31ff9	-0.027725207
58	0x3db03c4e	0.08605252
59	0xbd4b71db	-0.049669128
60	0x3d6cc58a	0.057805575
61	0x3c510d24	0.012759481
62	0xbd1a8532	-0.03772468
63	0xbd270c83	-0.040783416
64	0x3d02ebf9	0.031963322
65	0xbdbf4bb7	-0.09340613
66	0x3d8175f5	0.06321327
67	0xbd19ffac	-0.037597343
68	0xbcc497ee	-0.023998227
69	0x3d1df5a1	0.038564328
70	0x3d6b9b76	0.057521306
71	0x3dc54716	0.09632699
72	0xbd9a6484	-0.07538703
73	0xbd8d348d	-0.06894789
74	0x3dc474c5	0.095925845
75	0xbb3d4d23	-0.0028885088
76	0x3dbae5f1	0.09125889
77	0xbd3a196d	-0.045434404
78	0x3d29d090	0.041458666
79	0x3d0923a6	0.033481263
80	0xbdd39b1a	-0.10332318
81	0x3d20be26	0.03924384
82	0x3cb23ee7	0.02175851
83	0x3d04b0a6	0.032395028
84	0x3c0397c3	0.008031788
85	0x3d60b056	0.054855667
86	0x3da2f691	0.07957185
87	0x3c8ecbb8	0.017431125
88	0xbd73ff1b	-0.05956946
89	0xbcdaa701	-0.026690962
90	0x3dc4d5ea	0.09611113
91	0x3cfbd072	0.030739043
92	0xbcf10869	-0.029422956
93	0xbdaeed8f	-0.085414045
94	0xbc5fd991	-0.013662712
95	0x3dba518b	0.09097584
96	0x3d3df466	0.046375655
97	0xbd5e2648	-0.054235727
98	0x3d8f9ed0	0.07012713
99	0x3d073758	0.033011764
100	0x3d6228d8	0.055214733
101	0x3d94868b	0.072522245
102	0x3ccdf13c	0.025139444
103	0x3d26f48b	0.040760558
104	0xbdd5f80b	-0.10447701
105	0x3d54562b	0.05183999
106	0x3c0dd8ac	0.008657616
107	0x3d1cb373	0.038257074
108	0xbd1bfbad	-0.038081814
109	0xbccaa7d6	-0.024738234
110	0x3d820452	0.0634848
111	0x3d3ffcdc	0.046872005
112	0x3d283078	0.04106185
113	0x3d7f90d5	0.062393982
114	0xbd9b9f94	-0.075987965
115	0xbcc23a0c	-0.02370932
116	0xbc57af19	-0.013164305
117	0xbd69d075	-0.057083566
118	0x3d51f48f	0.05125862
119	0xbc34fa0a	-0.011045942
120	0xbd9043fb	-0.07044216
121	0x3d74d0a3	0.059769284
122	0xbd721353	-0.05910046
123	0xbcb5186a	-0.022106368
124	0x3d1e7105	0.038682003
125	0x3c06c66c	0.008226018
126	0x3cf99415	0.030466119
127	0xbdc759c0	-0.09733915
128	0x3d55bcbe	0.05218195
129	0x3dab71de	0.08371328
130	0x3cdab5ba	0.026697982
131	0x3d8f41e7	0.06994992
132	0x3d6fc33f	0.05853581
133	0xbcc4b005	-0.024009714
134	0x3d08e46e	0.033420973
135	0xbc50b69f	-0.012738853
136	0xbbbedf84	-0.005824985
137	0xbc82295a	-0.015888859
138	0x3bc7a83e	0.006093054
139	0x3d3b397d	0.045709122
140	0x3c33d37e	0.010975717
141	0xbc40db75	-0.011771073
142	0xbda74998	-0.08168334
143	0x3c7faa58	0.015604578
144	0x3c513f6d	0.01277147
145	0x3d9b3957	0.07579296
146	0xbd265c1e	-0.040615194
147	0xbd8fb02c	-0.07016024
148	0x3d3083c6	0.04309442
149	0xbca8a77c	-0.020587675
150	0xbde531b1	-0.111911185
151	0x3d3017e4	0.042991534
152	0xbc1ab908	-0.009443529
153	0xbc5cdd3b	-0.01348048
154	0x3defd087	0.11709695
155	0x3d29afeb	0.041427534
156	0xbc9a5961	-0.018841447
157	0xbd1826f9	-0.037146542
158	0xbd7f3021	-0.06230176
159	0x3d848718	0.064710796
160	0x3da4e0cc	0.08050689
161	0xbcef2c65	-0.029195974
162	0x3d72d3d0	0.05928403
163	0xbd78bed4	-0.060728863
164	0xbcee1795	-0.02906398
165	0x3c434b2e	0.01191978
166	0xbda5b9f4	-0.08092108
167	0x3d84d7c4	0.064864665
168	0x3d238119	0.03991804
169	0x3d898bd0	0.0671612
170	0xbdd4860e	-0.103771314
171	0x3d15c873	0.036568116
172	0xbd92def0	-0.07171428
173	0xbdcfe6a0	-0.1015141
174	0x3d6fe868	0.05857125
175	0x3d472213	0.04861648
176	0xbdb0ddbd	-0.08636043
177	0x3cc700c5	0.02429236
178	0xbdb4a7b2	-0.08821048
179	0x3d82043d	0.06348465
180	0xbbff0366	-0.0077823875
181	0xbb2e2348	-0.0026571322
182	0xbd73c8e5	-0.05951776
183	0xbd379884	-0.044823185
184	0x3d025752	0.031821556
185	0xbcbc4aab	-0.022984823
186	0xbdb6b507	-0.08921247
187	0x3d16a898	0.036781877
188	0xbca17d94	-0.0197132
189	0xba3e6eab	-0.00072644156
190	0xbbcb39b4	-0.006201947
191	0x3db5a28b	0.08868893
192	0xb96134a2	-0.0002147728
193	0xbd7f83d9	-0.0623816
194	0x3dab01b7	0.083499365
195	0x3d3c829e	0.046023004
196	0x3dd34509	0.10315902
197	0x3abd4aa0	0.0014441796
198	0x3c7082cb	0.014679621
199	0xbd898416	-0.067146465
200	0x3ca00e59	0.019538091
201	0xbd5ab82c	-0.053398296
202	0x3cce1767	0.025157643
203	0xbdd49734	-0.10380402
204	0xbb079646	-0.0020688935
205	0x3d8ff0de	0.07028364
206	0x3c9ead26	0.019369673
207	0xbd56d55b	-0.052449565
208	0x3d3b948c	0.045795962
209	0x3ccbfa22	0.024899546
210	0xbd85cb59	-0.06532926
211	0x3d202106	0.039093994
212	0x3d30b641	0.04314256
213	0xbc9fda0b	-0.01951315
214	0x3ae451b4	0.0017419369
215	0x3d94f811	0.072738774
216	0xbc308de5	-0.010776018
217	0x3dbd2d68	0.09237176
218	0xbd3c3453	-0.045948338
219	0xbd61b766	-0.055106543
220	0xbc5fa8fe	-0.013651131
221	0x3cb0af84	0.021568067
222	0xbda1401b	-0.07873555
223	0xbd49a1a6	-0.049226426
224	0x3ce02bae	0.027364578
225	0xbd13caf1	-0.036082212
226	0x3d251ef2	0.040312715
227	0x3d6e3fe0	0.058166385
228	0x3c0cf9af	0.008604451
229	0x3d413da1	0.047177915
230	0x3c6815af	0.014165326
231	0x3d8c6b03	0.06856348
232	0xbd07917e	-0.033097737
233	0x3c803c1a	0.015653659
234	0xbd7d23b4	-0.061801627
235	0x3d0b1a9a	0.033960916
236	0x3cc3fdf1	0.0239248
237	0x3cdc3f8b	0.026885768
238	0x3bd1cfc4	0.0064029414
239	0x3c357820	0.011076003
240	0x3daaaf6b	0.083342396
241	0x3db2cac4	0.08730081
242	0x3d6659e1	0.05623806
243	0x3d7873bc	0.060657248
244	0xbdb24414	-0.08704391
245	0x3d971ef8	0.07378954
246	0xbd0dbe0f	-0.034605082
247	0xbcc64137	-0.024201019
248	0xbd871a5b	-0.06596824
249	0xbcf8f918	-0.030392215
250	0xbcd054ac	-0.025431
251	0xbdbba860	-0.09162974
252	0x3b0faccb	0.002192306
253	0x3d450361	0.048098926
254	0xbcc81d6c	-0.024428092
255	0xbd6223e6	-0.055210017

encoder.gru.weight_hh_l0_reverse f4 [384, 128]
0	0x3c959e60	0.018263996
1	0xbd521382	-0.051288135
2	0xbd505a9c	-0.05086766
3	0xbd1c739f	-0.038196202
4	0xbd078bf3	-0.03309245
5	0xbd01944f	-0.03163558
6	0x3d0da8a4	0.034584656
7	0xbc8d5c81	-0.017256023
8	0x3c7bc1a9	0.015365996
9	0xbd6234b9	-0.05522606
10	0xbd14ce13	-0.03632934
11	0x3c1a3a4e	0.009413315
12	0x3d61438b	0.054996055
13	0x3d0a23c6	0.033725522
14	0x3cca3626	0.024684023
15	0xbd7e116b	-0.06202833
16	0x3d20e9ca	0.03928546
17	0xbb96d8cc	-0.004603481
18	0x3c9174cc	0.017755888
19	0xbd0e34d4	-0.03471835
20	0xbd2d1ae5	-0.042261977
21	0x3d40c230	0.04706019
22	0xbdab9404	-0.08377841
23	0xbd131d36	-0.03591653
24	0x3c10ed02	0.00884557
25	0x3c9a6809	0.018848436
26	0x3c14634f	0.00905688
27	0x3d84fc2b	0.0649341
28	0xbceba31b	-0.028764298
29	0xbc97fa5d	-0.018552
30	0xbcdfbe6d	-0.027312482
31	0xbc1fe31e	-0.009758739
32	0xbc9767ed	-0.018482173
33	0xbd9fa5ab	-0.077952705
34	0xbd41ec75	-0.047344644
35	0x3cec62ae	0.028855648
36	0x3c0a1e5e	0.008430092
37	0xbd0c09a6	-0.03418889
38	0xbb834b36	-0.0040067686
39	0x3d625ab4	0.055262282
40	0xbca19b4d	-0.019727373
41	0xbc8e50d2	-0.017372523
42	0xbd617649	-0.055044446
43	0xbc732f5e	-0.014842836
44	0xbcdd5f67	-0.02702303
45	0x3d3a62fe	0.045504563
46	0x3be8fdc7	0.0071103307
47	0xbc952019	-0.018203782
48	0xbda196a0	-0.078900576
49	0x3d4600af	0.048340496
50	0xbccb352b	-0.024805626
51	0xbd946df3	-0.07247534
52	0xbd404fb6	-0.04695102
53	0x3cd0dde8	0.025496438
54	0x3d73745b	0.059437137
55	0x3b68e26c	0.0035535349
56	0x3d1ddce0	0.03854072
57	0xbcb6f44d	-0.022333289
58	0xbcc6b8e4	-0.024258085
59	0x3d5cc458	0.053898185
60	0xbd59d805	-0.053184528
61	0x3d5b2ca3	0.053509366
62	0x3d09a207	0.033601787
63	0xbd161117	-0.036637392
64	0x3d34d405	0.04414751
65	0xbd1b8318	-0.037966818
66	0x3cbf0e9b	0.023322394
67	0xbcd667a4	-0.026172467
68	0xbbf4ee9c	-0.0074747335
69	0xbca52030	-0.02015695
70	0xbc8b30d0	-0.016991049
71	0xbcfc7f1b	-0.030822327
72	0x3d0030b9	0.031296466
73	0x3c15996a	0.009130815
74	0xbd1cc902	-0.038277633
75	0x3d7a3fb2	0.0610959
76	0x3d0a7f39	0.033812735
77	0x3b881580	0.0041529536
78	0xbd154887	-0.03644612
79	0x3c80fbe6	0.015745115
80	0xbd30703b	-0.04307578
81	0x3d28edd2	0.041242428
82	0x3d71c185	0.059022445
83	0xbd36973e	-0.04457783
84	0xbda97a64	-0.08275297
85	0x3d93ea66	0.07222442
86	0xbd13a6ab	-0.03604762
87	0x3d57ac2a	0.052654423
88	0x3a513204	0.000798017
89	0xbd0602f9	-0.03271768
90	0x3d9234cd	0.07138977
91	0xbd6aaa87	-0.057291534
92	0xbca7878f	-0.020450382
93	0x3b1cf8db	0.002395204
94	0x3ca3ead9	0.020009445
95	0xbc6ccb23	-0.014452728
96	0x3d03d4bb	0.032185297
97	0xbd9c9ccb	-0.076470934
98	0xbb2dff8e	-0.0026550028
99	0xbc4bc833	-0.012437868
100	0x3d255f62	0.040374167
101	0x3b8f492c	0.0043727364
102	0x3c9aea23	0.018910473
103	0x3cacb1e3	0.021080917
104	0xbc203c11	-0.009779946
105	0xbcb5bdfa	-0.022185314
106	0x3a4de892	0.0007854785
107	0x3d30835f	0.043094035
108	0x3cb62461	0.022234144
109	0xbd8c0206	-0.068363234
110	0xbc73d60e	-0.014882578
111	0x3d9d68ff	0.07686042
112	0xbce7f3aa	-0.02831443
113	0xbca05538	-0.019571885
114	0x3bc8c2b8	0.006126728
115	0xbd803735	-0.0626053
116	0xbc2a5d6a	-0.010398248
117	0x3b9b1b27	0.0047334614
118	0xbd018d41	-0.03162885
119	0xbd907dc0	-0.07055235
120	0xbd14d594	-0.036336496
121	0xbcea247c	-0.02858185
122	0x3da27d0d	0.07934008
123	0x3d9fe839	0.07807965
124	0xbd614f67	-0.055007365
125	0xbb9cb1f3	-0.0047819554
126	0x3d8bb9de	0.06822561
127	0xbd15245c	-0.036411628
128	0xbd330a6f	-0.043711122
129	0xbd8329a1	-0.064044245
130	0xbc674c03	-0.014117244
131	0xbd56ec49	-0.052471433
132	0xbc92a5cb	-0.017901322
133	0xbd061a45	-0.032739896
134	0x3d24da35	0.04024716
135	0x3be08f80	0.006853044
136	0x3d1bc753	0.038031887
137	0xbd85c6c8	-0.06532055
138	0xbcc23fba	-0.023712028
139	0x3b03334a	0.0020019584
140	0xbd915cf2	-0.07097806
141	0x3d431ce2	0.047634967
142	0xbd2909bd	-0.041269053
143	0xbd7fddf1	-0.06246752
144	0x3d697c50	0.05700332
145	0xbcf765b7	-0.030199869
146	0xbce3d20c	-0.02781012
147	0x3da7c0e2	0.08191086
148	0x3c98138b	0.018564006
149	0x3d380ef1	0.044936124
150	0x3d9aea24	0.0756419
151	0xbd45f24b	-0.04832677
152	0x3cd5035d	0.02600258
153	0xbd9120f9	-0.07086367
154	0x3d572e4c	0.052534387
155	0x3d4a4596	0.04938277
156	0x3d37fb44	0.04491736
157	0x3d3d18da	0.04616628
158	0x3bb4b874	0.0055151526
159	0xbd8210bb	-0.06350847
160	0x3d97865f	0.07398676
161	0x3d9be10c	0.07611284
162	0xbc85f535	-0.016352275
163	0x3c99b082	0.018760923
164	0xbd2bbc86	-0.041927837
165	0x3ca603ed	0.020265544
166	0xbd68421d	-0.056703676
167	0xbd29010b	-0.04126076
168	0xbd467dc3	-0.04845978
169	0xbcf7d3ef	-0.030252425
170	0xbbceb94b	-0.0063087097
171	0xbd6e9d52	-0.0582555
172	0x3d2ee04e	0.042694382
173	0xbd0459ec	-0.03231232
174	0xbd4011aa	-0.046891846
175	0x3d982f2b	0.074308716
176	0xbd8bb9ae	-0.06822525
177	0xbd7843c2	-0.060611494
178	0xbd31721e	-0.04332172
179	0x3d476e51	0.04868919
180	0x3cb34065	0.021881292
181	0xbd05a2a2	-0.0326258
182	0xbb3bc965	-0.0028653976
183	0xbd735331	-0.05940551
184	0x3d56793d	0.052361716
185	0x3d0519cb	0.0324953
186	0x3cef58fe	0.02921724
187	0x3c6c6887	0.014429218
188	0xbd92e4bf	-0.07172536
189	0xbbde6208	-0.0067865886
190	0x3cf4d24c	0.029885434
191	0xbcc06b47	-0.023488654
192	0x3d84738b	0.064673506
193	0xbcb04c3b	-0.021520725
194	0x3d5817cb	0.052757066
195	0x3da2b990	0.079455495
196	0x3d14e8e1	0.036354903
197	0x3d32258a	0.04349283
198	0xbd9abc84	-0.07555488
199	0x3d8c3287	0.06845575
200	0x3d62b2c1	0.055346254
201	0xbcd4f28a	-0.025994558
202	0x3c9742b4	0.018464424
203	0x3d1eb2aa	0.038744606
204	0x3db30b56	0.087423965
205	0xbd649273	-0.055803727
206	0x3d6732fa	0.0564451
207	0xbd06f37f	-0.03294706
208	0x384aee00	4.8382208e-05
209	0xbd015add	-0.031580795
210	0xbd25c4f8	-0.040471047
211	0xbcf8361a	-0.030299235
212	0x3d5dd1e9	0.054155264
213	0x3d618f5f	0.05506837
214	0xbcb2eb9c	-0.021840863
215	0x3d53f6bb	0.051748972
216	0x3cd900f1	0.026489707
217	0x3b1e460b	0.0024150636
218	0x3d283c00	0.041072845
219	0x3ce11729	0.027476864
220	0x3cbc6492	0.022997174
221	0x3c33d6a4	0.010976467
222	0xbc23f40d	-0.010006917
223	0xbd27af64	-0.04093875
224	0xbd82d947	-0.063890986
225	0x3afd302d	0.0019316726
226	0xbd76850d	-0.06018548
227	0xbbaa4ec1	-0.0051973765
228	0x3d8e7d57	0.069575004
229	0x3cab96a2	0.02094585
230	0xbd9241c8	-0.07141453
231	0x3bfeebc4	0.0077795703
232	0x3ca5ca2c	0.020238005
233	0xbc184730	-0.009294316
234	0x3d03782c	0.032097027
235	0x3c875829	0.01652153
236	0xbb048ac0	-0.0020224303
237	0xbd2f9022	-0.042862065
238	0x3cd4266f	0.025897233
239	0xbd4cc8ad	-0.049996067
240	0x3d23af9d	0.0399624
241	0xbd994281	-0.07483388
242	0xbd2f6a94	-0.04282625
243	0xbce5567f	-0.027995346
244	0x3d066f80	0.03282118
245	0x3da04b84	0.078269035
246	0xbd5e5c64	-0.05428733
247	0xbcac2995	-0.021015922
248	0xbbe21070	-0.006898932
249	0x3d6f509a	0.058426477
250	0xbca64e68	-0.020301059
251	0x3d6cbef1	0.057799283
252	0x3c52cda2	0.0128664095
253	0x3af5e1d8	0.0018759323
254	0x3d8bf5ea	0.06834014
255	0xbd323b26	-0.04351344

encoder.gru.bias_ih_l0_reverse f4 [384]
0	0xbd5b5be3	-0.053554427
1	0x3de5ce04	0.11220935
2	0x3da8ab13	0.08235755
3	0xbce7e6f5	-0.028308371
4	0x3ca48e07	0.020087255
5	0x3d08138f	0.033221778
6	0x3d819c06	0.06328587
7	0xbd2b4df9	-0.041822407
8	0x3d4cd6f6	0.05000969
9	0x3deefc7a	0.1166925
10	0x3db12ce9	0.08651144
11	0x3d57145e	0.052509658
12	0xbd9f4e8f	-0.07778656
13	0xbd969b64	-0.07353857
14	0x3d3dbe62	0.04632414
15	0xbd3ab476	-0.045582257
16	0x3dd51f43	0.10406353
17	0xbcfa076f	-0.030521123
18	0x3d3c0577	0.04590365
19	0xbd996996	-0.07490842
20	0x3dab3b84	0.08360961
21	0x3d8f7e6b	0.07006534
22	0x3d416c24	0.04722227
23	0x3d961f28	0.07330161
24	0xbcfb5ada	-0.03068297
25	0xbdb174d9	-0.08664865
26	0xbba43612	-0.0050113285
27	0xbc085c34	-0.008322764
28	0xbc6b7806	-0.014371878
29	0x3db0629f	0.086125605
30	0x3bc5b2e5	0.006033289
31	0x3bd2f31b	0.006437672
32	0x3c170968	0.009218551
33	0x3d6ac03b	0.05731223
34	0xbcbfc77d	-0.023410553
35	0xbc072fc3	-0.008251133
36	0xbccc9b0e	-0.02497628
37	0xbce7d42b	-0.028299412
38	0xbccddfbc	-0.025131099
39	0x3d75effa	0.060043313
40	0xbd8cbae8	-0.06871587
41	0x3d8687c9	0.06568868
42	0x3d543088	0.051804096
43	0x3d40a612	0.047033377
44	0x3d3fa2de	0.04678618
45	0x3dd7e58d	0.1054183
46	0x3d0063d6	0.03134521
47	0xbccf264b	-0.025286814
48	0x3d7728e9	0.06034175
49	0x3d6c9db3	0.05776758
50	0xbd7cd0fa	-0.061722733
51	0x3c7d94e8	0.015477397
52	0x3dbb9867	0.09159928
53	0xbc59d2cb	-0.013294886
54	0x3d78f049	0.06077603
55	0xbd16a64b	-0.036779683
56	0xbd27f406	-0.041004203
57	0x3d540701	0.051764492
58	0x3db3c7f1	0.0877837
59	0x3ce95354	0.028482117
60	0x3d8b8e3a	0.06814237
61	0xbc9bcbf3	-0.019018149
62	0x3b205191	0.002446268
63	0xbd7b60cf	-0.06137162
64	0xbd8310fd	-0.06399725
65	0x3dd69ae7	0.10478764
66	0xbc990d55	-0.018683115
67	0x3b9082aa	0.0044101076
68	0xbc97a572	-0.018511508
69	0xbd7550ea	-0.05989162
70	0x3cfcfc2e	0.030881967
71	0x3da4aa0e	0.08040248
72	0x3daeeff5	0.08541862
73	0x3d25edba	0.040509917
74	0x3d4fb60d	0.050710727
75	0xbc84cc22	-0.01621062
76	0x3c852715	0.016253987
77	0xbc885d9f	-0.016646205
78	0x3daa01c4	0.08301118
79	0x3d65ee38	0.056135386
80	0xbd8b9a1b	-0.06816503
81	0x3ceafa63	0.028683847
82	0xbda5e896	-0.08101003
83	0xbd22a71e	-0.039710157
84	0xb9650cc1	-0.00021843893
85	0x3d36318e	0.044480853
86	0xbd44a3cf	-0.048007783
87	0xbd3c4f73	-0.045974206
88	0x3d501f73	0.050811242
89	0xbd21a6b2	-0.039465614
90	0xbd54f92e	-0.05199545
91	0x3d548b9e	0.05189096
92	0x3d96f641	0.07371188
93	0x3ca64bd7	0.020299835
94	0xbc082743	-0.008310142
95	0xbd819622	-0.06327464
96	0xbda5d194	-0.080966145
97	0x3d0e1b3e	0.03469395
98	0xbd26a495	-0.0406843
99	0x3d3639b2	0.044488616
100	0x3d217d09	0.039425883
101	0xbcb448fe	-0.022007462
102	0x3d8c831a	0.06860943
103	0xbd213f8d	-0.039367247
104	0x3cb6669f	0.02226573
105	0x3b6c004e	0.0036010924
106	0xbca57f51	-0.02020231
107	0x3c5eb5ce	0.01359315
108	0x3d77eeab	0.060530346
109	0x3ce0d1e0	0.027443826
110	0x3cea7b50	0.028623253
111	0x3bfcf89e	0.007720067
112	0x3d2240ad	0.03961246
113	0xbd07c648	-0.03314808
114	0xbcc1944b	-0.023630282
115	0xbcecea7f	-0.02892041
116	0xbd890a14	-0.066913754
117	0xbd7074e1	-0.058705214
118	0x3cfa9081	0.030586483
119	0xbd9b5d11	-0.075861104
120	0x3d26a4d8	0.04068455
121	0xbd361698	-0.04445514
122	0x3d9d196f	0.07670867
123	0xbd5aa07f	-0.053375717
124	0xbd153460	-0.0364269
125	0x3cadb78f	0.021205692
126	0x3d5c8379	0.05383632
127	0x3d33cac9	0.043894563
128	0x3e097fef	0.13427709
129	0x3b7002d3	0.0036622777
130	0x3df91d7f	0.12163829
131	0xbb78b558	-0.0037949886
132	0x3e2a4610	0.16628289
133	0x3e244f63	0.16045909
134	0x3cfce1dc	0.030869417
135	0xbc7c8593	-0.015412706
136	0x3cffadd0	0.03121081
137	0x3cf53da7	0.029936625
138	0x3dd0ebce	0.10201226
139	0x3cf90e48	0.030402318
140	0x3e0c7f4d	0.13720436
141	0xbacd925a	-0.0015683875
142	0x3d35b6fa	0.044363953
143	0x3dc9210b	0.098207556
144	0x3e3d5727	0.18490277
145	0x3d08cbba	0.033397414
146	0x3cb35681	0.021891834
147	0x3e02c170	0.12769103
148	0x3df77fec	0.12084946
149	0x3c310104	0.010803465
150	0x3dba14d4	0.09086004
151	0x3dd93c5f	0.10607218
152	0x3c1a618f	0.009422674
153	0x3c088439	0.008332306
154	0x3d913819	0.07090778
155	0x3d22d0b7	0.039749827
156	0x3da591d7	0.08084457
157	0x3d0945ae	0.033513717
158	0x3d929b80	0.071585655
159	0x3dc0559e	0.0939133
160	0x3e1f4866	0.15554962
161	0x3e0f877c	0.14016527
162	0x3e229f14	0.15880996
163	0x3e1c9332	0.15290526
164	0x3c16bdb4	0.009200502
165	0x3e1093ca	0.14118877
166	0xbd05952d	-0.03261297
167	0x3e26892d	0.16263266
168	0x3ddd1978	0.107958734
169	0x3de18851	0.110123284
170	0x3cc0ecfe	0.023550507
171	0x3d3b1f8b	0.04568438
172	0x3dc1641a	0.09442921
173	0x3dc06972	0.09395112
174	0x3d95c0f3	0.07312193
175	0x3e0b7634	0.1361931
176	0x3dde0c9f	0.10842251
177	0xbb5c681e	-0.0033631395
178	0x3ce73848	0.02822508
179	0x3cdea7c6	0.02717961
180	0xbd7a6d28	-0.061139256
181	0x3dd3ec25	0.10347775
182	0x3d7c30de	0.06157004
183	0x3d9fdfe3	0.07806375
184	0x3d309bf2	0.04311747
185	0x3dde4ebb	0.108548604
186	0x3d9956ea	0.07487281
187	0x3d858d9a	0.06521149
188	0x3e0e6c99	0.13908614
189	0x3d76e093	0.060272764
190	0x3d9bbb32	0.07604064
191	0x3d4c1e71	0.04983372
192	0x3dcebc87	0.100945525
193	0x3d2341d9	0.03985772
194	0x3d58716e	0.05284255
195	0x3dffb224	0.124851495
196	0x3d96282b	0.0733188
197	0xbd39ba73	-0.045343827
198	0x3e040775	0.1289347
199	0x3e2f0ca3	0.17094664
200	0xbddfdf77	-0.109312944
201	0x3c091099	0.008365774
202	0x3d4bf0f3	0.049790334
203	0xbbba5ee5	-0.005687582
204	0x3d8c8c15	0.06862656
205	0x3dccc764	0.09998968
206	0x3e0ab874	0.13546926
207	0x3d804cd1	0.062646516
208	0x3e104986	0.14090547
209	0x3d72295f	0.059121486
210	0x3db938a3	0.09044006
211	0x3cec6900	0.028858662
212	0xbd2eb519	-0.042653177
213	0x3c0ae308	0.00847698
214	0x3e1fa86d	0.15591593
215	0x3d7fe582	0.062474735
216	0x3e1e1460	0.1543746
217	0xba90fa04	-0.0011060839
218	0x3d6e6a17	0.058206644
219	0x3da5e33d	0.08099983
220	0x3dd5a3b4	0.104316145
221	0x3da68131	0.0813011
222	0x3dae5ac7	0.08513408
223	0xbc062155	-0.008186658
224	0x3e01aa44	0.12662607
225	0x3e021071	0.12701584
226	0x3dc1d233	0.094639204
227	0x3ccad3b6	0.024759155
228	0x3e2c0715	0.16799577
229	0x3da501e6	0.08057003
230	0x3e0d428f	0.13794921
231	0x3af78ba3	0.001888622
232	0x3da0cb5c	0.07851288
233	0x3d850477	0.06494992
234	0x3db9acb4	0.09066144
235	0x3da2fbc6	0.07958178
236	0x3e0d4e38	0.1379937
237	0x3d10c6bb	0.035345774
238	0x3e0db1ac	0.13837308
239	0x3e06c7d6	0.13162169
240	0x3d9dff3a	0.07714696
241	0x3d665c49	0.056240354
242	0x3d2e025f	0.04248273
243	0x3d34d3c4	0.044147268
244	0x3db770ba	0.08957048
245	0x3dbe7dac	0.09301314
246	0x3d59559e	0.053060167
247	0x3e18aba4	0.14909226
248	0x3e1bb441	0.1520548
249	0x3e2e4dd1	0.17021872
250	0xbd1537b8	-0.03643009
251	0x3df624a2	0.12018706
252	0x3dda2c3f	0.106529705
253	0xbc733f12	-0.01484658
254	0x3df89afc	0.12138936
255	0x3e25a2ee	0.16175434
