my_latent_sde/sdes/best_sde_0.pth (torch, 214133 bytes, 28 tensors)

encoder.gru.weight_ih_l0 f4 [192, 2]
-0.005801063 0.05513732 0.02430808 -0.12290289 -0.10111852 -0.046278756 0.111842856 0.07821119
-0.07835844 -0.047554757 0.0031778228 0.032647938 0.050559327 -0.09000794 -0.08690818 -0.271034
-0.046455078 -0.039233457 0.07999637 0.023338117 0.023259543 -0.027553115 0.09020009 -0.08286836
0.0590841 -0.05717756 0.06195548 -0.12710807 0.04392874 -0.025500994 -0.011740989 -0.13230333
-0.028842172 -0.004117391 0.076357014 -0.0019088922 0.11302097 -0.07984215 -0.005694968 0.009465556
-0.0069077867 -0.007036127 -0.023101466 0.092375554 0.03977982 -0.041235045 0.0016233989 -0.09706752
-0.02414741 -0.019450013 0.17525761 -0.06747583 -0.036867082 -0.07413271 0.15852827 -0.12819156
0.05058303 -0.13214402 0.029300027 0.043914143 -0.02029196 -0.049783736 -0.05701122 0.017440364
0.11589951 0.050396185 0.022288952 0.083538815 0.016335303 -0.041456122 0.18528219 0.07458978
-0.04046085 0.015870653 0.020743951 0.068958625 0.00031137984 -0.08831824 0.023880221 0.03805315
-0.0052575762 -0.040970698 -0.061368424 -0.03758608 -0.03385413 0.016108945 -0.15931807 -0.064622894
0.018023586 -0.12739262 0.042107705 -0.08132504 0.010619127 -0.015425298 -0.09327035 0.07384384
-0.053411763 0.11311469 -0.06541242 0.030419305 0.0593868 -0.0309117 -0.0686099 0.009449337
-0.0023326557 -0.027881952 0.06726551 0.008891028 0.048650797 -0.019189475 0.007171422 -0.030511001
0.028325265 -0.07754389 0.028252982 0.0856929 0.0647213 -0.10240859 -0.011618424 -0.05594484
0.018841596 0.012285041 -0.02726783 0.13493773 0.0055747367 -0.05518058 0.018618861 -0.05278014
-0.10926235 -0.10394068 -0.016807025 0.039247073 -0.015814897 0.17105624 0.050602917 -0.11403446
0.04686133 0.0822407 0.042352177 0.07921585 0.010422862 0.10230982 -0.07345403 0.06063639
-0.076345734 0.056133613 0.021232324 -0.037737872 -0.11962064 0.10855856 -0.0765233 0.021828525
-0.13184646 -0.039908335 -0.06696258 0.050052077 0.0044413786 0.09009702 -0.0499376 -0.008663926
-0.07776962 0.12663749 -0.075979434 -0.013199365 -0.17385487 -0.046275944 -0.095053434 0.05793255
0.06658758 0.0698321 -0.097060494 0.00032564078 -0.2278882 -0.036533013 -0.046613768 -0.07298381
-0.03615982 0.108477876 0.097729966 -0.0926163 -0.046217717 -0.029418638 -0.043298792 -0.053404342
-0.009195715 -0.06538727 0.022537235 -0.003161869 0.034768876 0.076091155 0.07283884 0.13262533
-0.113739744 0.044689335 -0.11102841 -0.053801686 -0.11591871 0.003476754 -0.14897689 -0.02320509
-0.16338535 0.037667293 -0.0066348305 0.0010600925 0.03774141 0.054398224 -0.046078864 -0.051748686
-0.026318472 0.00022815244 -0.034394056 0.077295974 -0.12273017 0.1069216 0.034871142 -0.019769233
-0.073738866 0.062031053 0.111857094 -0.013326797 -0.04562405 0.0004327683 0.10563404 0.12809908
-0.06567991 -0.17687918 -0.15130185 -0.07760198 -0.04476328 0.023124147 0.18166728 0.11190578
-0.013533804 0.027731624 0.016697569 -0.08364596 0.001921286 0.05954557 0.021918913 0.047530316
-0.05200908 0.09589299 -0.057441566 0.02046218 -0.10962202 -0.081825204 0.03732231 0.027964253
0.04780099 -0.0008816636 0.059866726 -0.012952359 -0.00028710108 -0.024195936 -0.061901573 -0.0032599862
00000000: d816 bebb acd7 613d bd21 c73c 83b4 fbbd
00000010: 3a17 cfbd cb8e 3dbd de0d e53d 302d a03d
00000020: 647a a0bd c7c8 42bd 0543 503b d8b9 053d
00000030: 4c17 4f3d 1556 b8bd eafc b1bd f8c4 8abe
00000040: ae47 3ebd 43b3 20bd 23d5 a33d 942f bf3c
00000050: cc8a be3c 12b7 e1bc d3ba b83d e3b6 a9bd
00000060: 2b02 723d 0433 6abd 08c5 7d3d 9e28 02be
00000070: 9fee 333d 76e7 d0bc 475d 40bc 867a 07be
00000080: 6b46 ecbc 2eeb 86bb 1161 9c3d cb33 faba
00000090: 8a77 e73d 4884 a3bd db9c babb 6b15 1b3c
000000a0: b75a e2bb 508f e6bb 493f bdbc 652f bd3d
000000b0: 2af0 223d 14e6 28bd 3ac8 d43a 56cb c6bd
000000c0: cad0 c5bc a255 9fbc bb76 333e c530 8abd
000000d0: f001 17bd e4d2 97bd 3c55 223e a644 03be
000000e0: 2730 4f3d c350 07be 9c06 f03c 51df 333d
000000f0: 533b a6bc 08ea 4bbd 9984 69bd 18df 8e3c
00000100: b95c ed3d 3b6c 4e3d 5297 b63c 6616 ab3d
00000110: 9dd1 853c e5cd 29bd 9dba 3d3e 87c2 983d
00000120: 47ba 25bd 2c03 823c 38ef a93c 2e3a 8d3d
00000130: b240 a339 32e0 b4bd 74a0 c33c 9fdd 1b3d
00000140: bf47 acbb e4d0 27bd 755d 7bbd ddf3 19bd
00000150: a1aa 0abd e8f6 833c 4724 23be 0259 84bd
00000160: 33a6 933c 3673 02be 2179 2c3d be8d a6bd
00000170: d9fb 2d3c 64ba 7cbc 8604 bfbd 703b 973d
00000180: 4bc6 5abd ada8 e73d f2f6 85bd e831 f93c
00000190: 933f 733d 893a fdbc 5983 8cbd 64d1 1a3c
000001a0: 78df 18bb b168 e4bc 80c2 893d adab 113c
000001b0: 0f46 473d 3f33 9dbc 3ffe ea3b 35f2 f9bc
000001c0: 630a e83c 55cf 9ebd cc72 e73c c27f af3d
000001d0: 9a8c 843d 98bb d1bd 345b 3ebc 6b26 65bd
000001e0: b159 9a3c 3247 493c c960 dfbc 1e2d 0a3e
000001f0: 48ac b63b 0805 62bd 9586 983c fd2f 58bd
00000200: f0c4 dfbd dade d4bd e3ae 89bc 8ac1 203d
00000210: 3e8e 81bc 5e29 2f3e 0145 4f3d e68a e9bd
00000220: aaf1 3f3d d06d a83d 7a79 2d3d eb3b a23d
00000230: a7c4 2a3c d087 d13d 116f 96bd dd5d 783d
00000240: 275b 9cbd 5cec 653d 69ef ad3c 0793 1abd
00000250: abfb f4bd f353 de3d 3fb8 9cbd bcd1 b23c
00000260: c202 07be ec76 23bd ad23 89bd 6803 4d3d
00000270: fc88 913b c984 b83d 5e8b 4cbd 24f3 0dbc
00000280: ae45 9fbd 42ad 013e 1b9b 9bbd 2642 58bc
00000290: 0307 32be d88b 3dbd 60ab c2bd ae4a 6d3d
000002a0: 125f 883d 2204 8f3d a7c7 c6bd c4ba aa39
000002b0: 865b 69be a4a3 15bd 14ee 3ebd 8978 95bd
000002c0: 521c 14bd a629 de3d a626 c83d 9dad bdbd
000002d0: ca4e 3dbd 5bff f0bc 135a 31bd 83be 5abd
000002e0: a0a9 16bc c3e9 85bd 02a0 b83c 5c37 4fbb
000002f0: cf69 0e3d aed5 9b3d 882c 953d efce 073e
00000300: 62f0 e8bd 2a0c 373d dd62 e3bd 285f 5cbd
00000310: ca66 edbd 41da 633b 668d 18be 9a18 bebc
00000320: 7d4e 27be 0549 1a3d fe68 d9bb cdf2 8a3a
00000330: bd96 1a3d acd0 5e3d 31bd 3cbd 6ef6 53bd
00000340: d699 d7bc 343c 6f39 c8e0 0cbd 5a4d 9e3d
00000350: f559 fbbd b6f9 da3d 0bd5 0e3d 16f3 a1bc
00000360: 6704 97bd 4614 7e3d 5515 e53d a358 5abc
00000370: 49e0 3abd 2ee5 e239 a956 d83d 682c 033e
00000380: 3083 86bd d11f 35be dfee 1abe c9ed 9ebd
00000390: b359 37bd da6e bd3c fd06 3a3e dc2e e53d
000003a0: e3bc 5dbc 6e2d e33c 57c9 883c 934e abbd
000003b0: a9d3 fb3a 0ee6 733d 4b8f b33c 26af 423d
000003c0: 7907 55bd 8b63 c43d d947 6bbd 4da0 a73c
000003d0: 8281 e0bd f993 a7bd 47df 183d 4a15 e53c
000003e0: f9ca 433d 711f 67ba d036 753d 2236 54bc
000003f0: 0e86 96b9 8e36 c6bc 818c 7dbd 7ea5 55bb

encoder.gru.weight_hh_l0 f4 [192, 64]
-0.04563714 0.045560133 0.018789826 -0.08762058 -0.026531521 -0.05671487 -0.015106282 -0.009691317
-0.009046811 0.015512514 0.0051017143 -0.019376548 -0.03212623 -0.017356353 0.06966568 -0.0058880984
0.040210377 0.04022043 0.0026565848 -0.00055944204 0.017627664 -0.021678165 0.057188183 -0.0040854
-0.006082838 0.03881663 -0.04319566 0.043567985 -0.027586823 0.048320357 -0.03608118 -0.03488478
0.029078828 0.0021038982 0.016415907 -0.03246039 -0.041910727 -0.01390132 0.03794168 0.026821034
0.04969935 0.025977463 -0.07178987 0.01065024 0.036634266 -0.024011414 -0.008818304 0.0040371334
0.0008717593 -0.041085284 0.046552118 0.052381184 0.06270934 0.03379357 -0.03372062 -0.039680157
-0.034528673 -0.024029149 0.04597923 0.0053916825 -0.052807502 0.03131939 0.04206719 0.063268065
0.00030056614 0.1030695 0.047843043 -0.06649375 -0.000480269 -0.031201562 0.0139933955 -0.08117324
-0.021873495 -0.025130896 -0.024151918 0.02474425 -0.033684246 -0.08384073 0.034364816 -0.029711446
0.08353435 -0.045133233 -0.028118283 0.013986969 0.10430391 -0.04293777 0.08028401 -0.04862087
-0.034080338 0.026297104 -0.024352008 0.068030864 0.0052323746 -0.023941537 0.009309699 0.02759401
0.0018888437 -0.021296373 0.045657795 0.009790979 -0.006888117 -0.029958572 0.08491362 0.04203092
0.054945458 -0.05703789 -0.0765151 0.043832105 0.09165782 -0.0891608 -0.021748507 -0.0057753394
-0.00955117 -0.07509822 0.0386743 0.053441096 0.13702936 0.053831816 -0.017741736 -0.02863854
-0.008168069 0.006022374 0.03333511 -0.009237936 -0.0606055 -0.034812555 -0.023813639 -0.0063445494
-0.02224528 0.059881665 0.06567936 -0.046127092 0.00027063317 -0.032141447 -0.012619888 -0.029569153
0.00032451778 -0.06336953 -0.0154776415 -0.0384943 0.013437609 -0.042161427 0.025722867 0.03243385
0.062724255 0.03596341 -0.021642607 0.007231515 0.033129428 -0.031479172 0.07898102 -0.03193369
-0.018099373 -0.00017886198 0.03067612 0.017661823 -0.05064147 0.017925978 -0.030576749 -0.009806603
0.0072280867 0.0014906564 0.028381526 0.031694718 -0.048358504 -0.011719717 0.03957976 0.04903158
0.01670978 -0.02895881 -0.036203142 0.019470429 0.03724749 -0.029417684 -0.0035651042 -0.0030334594
0.028567847 -0.05838038 0.03542262 0.053008076 0.09504597 0.02561168 -0.013490195 -0.037928477
0.025842963 0.01627751 0.007661547 -0.008982943 -0.043136932 -0.03124774 -0.023815958 0.023434764
-0.06675937 0.048638288 0.030540593 -0.1251401 0.0048097493 -0.050429393 -0.029818807 -0.04350077
-0.018789975 -0.01053083 -0.0072152 -0.010253922 -0.02594578 -0.056443382 0.016448865 -0.02136824
0.06444394 0.041743044 -0.02883488 -0.016916879 0.075264595 -0.04753173 0.04272604 -0.0063139107
-0.031049466 0.043485463 -0.056831464 0.04184899 -0.02714909 0.05235148 -0.03130247 0.016541319
0.023730505 0.02460152 0.042196985 0.0139645785 -0.027170036 -0.01941594 0.08849756 0.09890886
0.020932857 0.021521512 -0.06162132 0.05547112 0.050229944 -0.057846718 0.008212173 0.0008496639
-0.0017315277 -0.0046617147 0.03871018 0.023415174 0.058436815 0.033745274 -0.024831256 -0.02148835
-0.010812862 -0.03151083 0.0007399065 0.00013476345 -0.064014524 0.0097177 0.09832481 0.04750531
00000000: 02ee 3abd 439d 3a3d 1fed 993c 6b72 b3bd
00000010: a258 d9bc da4d 68bd 5780 77bc 54c8 1ebc
00000020: 1339 14bc 3328 7e3c 482c a73b 91bb 9ebc
00000030: cb96 03bd e92e 8ebc e1ac 8e3d f3f0 c0bb
00000040: a3b3 243d 2dbe 243d 191a 2e3b 85a7 12ba
00000050: e467 903c 6896 b1bc 283e 6a3d d2de 85bb
00000060: 8b52 c7bb 30fe 1e3d efed 30bd 5874 323d
00000070: c3fd e1bc 91eb 453d dcc9 13bd 58e3 0ebd
00000080: b936 ee3c 8ee1 093b a77a 863c 30f5 04bd
00000090: 95aa 2bbd 5dc2 63bc bc68 1b3d c9b7 db3c
000000a0: 8c91 4b3d b0ce d43c 9106 93bd 587e 2e3c
000000b0: d00d 163d 96b3 c4bc a67a 10bc ee49 843b
000000c0: c786 643a 0b49 28bd 6fad 3e3d a78d 563d
000000d0: c16d 803d 206b 0a3d a21e 0abd a987 22bd
000000e0: f06d 0dbd c7d8 c4bc b854 3c3d b6ac b03b
000000f0: ae4c 58bd c348 003d a54e 2c3d b092 813d
00000100: 4e95 9d39 1a16 d33d 11f7 433d e02d 88bd
00000110: 9dcc fbb9 6b9a ffbc 8e44 653c 283e a6bd
00000120: 0b30 b3bc 4fdf cdbc 3eda c5bc 74b4 ca3c
00000130: 7ef8 09bd b0b4 abbd 1fc2 0c3d 6b65 f3bc
00000140: 0f14 ab3d a0dd 38bd 5058 e6bc 9a29 653c
00000150: 4a9d d53d 84df 2fbd f16b a43d ad26 47bd
00000160: d397 0bbd 066d d73c dd7d c7bc c453 8b3d
00000170: 5774 ab3b 0b21 c4bc b587 183c d50c e23c
00000180: 1493 f73a bb75 aebc ab03 3b3d 586a 203c
00000190: b7b5 e1bb ae6b f5bc 31e7 ad3d 9d28 2c3d
000001a0: 7d0e 613d 90a0 69bd f3b3 9cbd 4b89 333d
000001b0: 18b7 bb3d f099 b6bd ed29 b2bc 0f3f bdbb
000001c0: 837c 1cbc 18cd 99bd f168 1e3d 0de5 5a3d
000001d0: 6d51 0c3e c07e 5c3d 1e57 91bc 5f9b eabc
000001e0: 5dd3 05bc 5657 c53b 658a 083d b65a 17bc
000001f0: 793d 78bd 9c97 0ebd d214 c3bc f0e5 cfbb
00000200: bc3b b6bc 7a46 753d e682 863d c3ef 3cbd
00000210: c5e3 8d39 c0a6 03bd a6c3 4ebc 023b f2bc
00000220: 0a24 aa39 e2c7 81bd ef95 7dbc 33ac 1dbd
00000230: 6b29 5c3c 76b1 2cbd c3b8 d23c 5bd9 043d
00000240: 9375 803d 5e4e 133d d64b b1bc 58f6 ec3b
00000250: b9b2 073d 4ef0 00bd cdc0 a13d e7cc 02bd
00000260: 2345 94bc e68c 3bb9 7d4c fb3c 87af 903c
00000270: 6e6d 4fbd 80d9 923c 177c fabc e0ab 20bc
00000280: 96d9 ec3b 2162 c33a 6080 e83c 52d2 013d
00000290: 9113 46bd 0e04 40bc 631e 223d 57d5 483d
000002a0: f3e2 883c 073b edbc bf49 14bd 7380 9f3c
000002b0: d390 183d 5bfd f0bc 86a4 69bb 01cd 46bb
000002c0: 1e07 ea3c 4420 6fbd 4f17 113d ff1e 593d
000002d0: 76a7 c23d 96cf d13c fb05 5dbc e45a 1bbd
000002e0: 9fb4 d33c 6a58 853c b70d fb3b 322d 13bc
000002f0: 5ab0 30bd 43fb ffbc af19 c3bc 43fa bf3c
00000300: 23b9 88bd f138 473d 4430 fa3c ba24 00be
00000310: 1a9b 9d3b 0d8f 4ebd 9246 f4bc dd2d 32bd
00000320: 6fed 99bc 8189 2cbc 7c6d ecbb 1100 28bc
00000330: 3f8c d4bc 2d31 67bd c5bf 863c 720c afbc
00000340: 2ffb 833d c1fa 2a3d 2037 ecbc 4495 8abc
00000350: 5324 9a3d a2b0 42bd 8001 2f3d ece4 cebb
00000360: 735b febc d01d 323d 1cc8 68bd d969 2b3d
00000370: c567 debc 816e 563d 0537 00bd a981 873c
00000380: 7a66 c23c 2089 c93c bfd6 2c3d b0cb 643c
00000390: b293 debc 2d0e 9fbc 353e b53d ba90 ca3d
000003a0: 627b ab3c e24d b03c a366 7cbd af35 633d
000003b0: eabd 4d3d aef0 6cbd 5a8c 063c fbbb 5e3a
000003c0: 6ef4 e2ba 4cc1 98bb 918e 1e3d 2ed1 bf3c
000003d0: 715b 6f3d 7c38 0a3d eb6a cbbc 5608 b0bc
000003e0: 6e28 31bc 8011 01bd 49f6 413a 4a4f 0d39
000003f0: 0c1a 83bd fd36 1f3c 855e c93d ee94 423d

encoder.gru.bias_ih_l0 f4 [192]
0.039549448 -0.023473 0.01144554 0.026765184 -0.032991808 0.02559009 0.026836803 -0.00039146506
-0.013235702 0.037404835 0.02102515 0.040674195 -0.058626246 0.0041159634 0.063540176 0.1304684
0.03351901 0.06210322 0.101663835 -0.020762298 0.04173859 0.04324718 0.0089350315 -0.0763913
0.037189234 0.034325447 0.0107799275 -0.017410552 -0.04365359 0.03189188 -0.023876557 0.0047399243
0.12956321 0.01316883 0.008070299 -0.055900466 0.03131265 -0.014991797 -0.029751085 0.022123748
-0.036136102 0.012773725 0.018276663 0.006212854 -0.0050334935 0.059018645 -0.016520819 0.03752315
-0.031113297 -0.006128345 -0.026160376 -0.02161407 0.035336 -0.027985975 -0.018665677 0.0052832197
-0.0819806 -0.018567123 0.09918441 -0.009701577 -0.002781049 0.042770837 0.046568543 -0.009580996
0.23690021 0.30080706 0.2730351 0.4323902 0.2063932 0.31524572 0.13541305 0.19575988
0.20267028 0.2081103 0.21743613 0.08213936 0.196446 0.373391 0.35304147 -0.026185317
0.3447049 0.11222477 0.1942317 0.16702828 0.20757966 0.25214767 0.3550388 0.14447883
0.14169393 0.48902383 0.4053145 0.24561696 0.26941752 0.2849923 0.22411528 0.16738273
-0.024788741 0.23109172 0.3429459 0.17773911 0.21395925 0.16815846 0.26982757 0.3499821
0.2520983 0.19535203 0.38076913 0.21843001 0.3091415 0.23895745 0.19974995 0.1834953
0.22523695 0.29236042 0.27825618 0.27958685 0.41336402 0.3028044 0.25778598 0.25570995
0.21764253 0.120101 0.29411936 0.26106977 0.25752598 0.1800355 0.30513123 0.3407403
-0.082347095 -0.0026720571 0.15113294 0.062338054 -0.12959784 -0.013002595 -0.14605398 -0.053108342
0.08077427 0.12192593 0.07254615 -0.14580595 -0.064851694 -0.01862103 0.05438605 -0.26365992
-0.06129644 0.14064153 -0.09336715 0.053372245 -0.084525146 0.15193482 0.13661845 0.03205648
0.098717675 0.06640744 -0.1828502 0.019996632 0.023476053 0.13408434 -0.15765095 -0.02356132
0.26553082 0.033319883 0.088423915 -0.03904146 -0.0669557 0.09000231 0.035030436 -0.087979175
-0.1222053 0.0069025224 -0.05196668 -0.040076323 0.023285719 -0.021584943 -0.07570517 0.11615068
0.026402505 -0.026874859 -0.007793025 -0.11049648 -0.083715566 0.0272272 -0.04046317 -0.047329765
0.043369383 -0.16204107 0.1994966 -0.03371112 0.0005331319 0.11857655 0.07467397 0.07390303
00000000: 9afe 213d 734a c0bc 1386 3b3c a942 db3c
00000010: 6b22 07bd 4fa2 d13c dbd8 db3c 8d3d cdb9
00000020: 8fda 58bc d035 193d ef3c ac3c fc99 263d
00000030: 1322 70bd 34df 863b 5a21 823d 8299 053e
00000040: 3b4b 093d f25f 7e3d 2135 d03d b215 aabc
00000050: 15f6 2a3d f423 313d 3d64 123c 0b73 9cbd
00000060: bd53 183d d798 0c3d 4b9e 303c 93a0 8ebc
00000070: 1bce 32bd 0fa1 023d c598 c3bc 5e51 9b3b
00000080: 38ac 043e 14c2 573c 4a39 043c e3f7 64bd
00000090: b141 003d 27a0 75bc 8cb8 f3bc dd3c b53c
000000a0: 7303 14bd e348 513c f1b8 953c 3295 cb3b
000000b0: 01f0 a4bb 89bd 713d ab56 87bc e0b1 193d
000000c0: 50e1 febc 49d0 c8bb 494e d6bc fd0f b1bc
000000d0: 7bbc 103d d842 e5bc c3e8 98bc dc1e ad3b
000000e0: 72e5 a7bd 141a 98bc 3221 cb3d 5df3 1ebc
000000f0: 4342 36bb 7930 2f3d a8be 3e3d 9cf9 1cbc
00000100: f895 723e 6203 9a3e 42cb 8b3e 4062 dd3e
00000110: bd58 533e e367 a13e b8a9 0a3e 4775 483e
00000120: cc88 4f3e de1a 553e 94a7 5e3e ae38 a83d
00000130: 2429 493e 1b2d bf3e dac1 b43e 9782 d6bc
00000140: 297d b03e 1ad6 e53d ade4 463e 7609 2b3e
00000150: c38f 543e 8019 813e a5c7 b53e 42f2 133e
00000160: 3718 113e 5561 fa3e 6285 cf3e 0383 7b3e
00000170: 18f1 893e 83ea 913e 7a7e 653e 6166 2b3e
00000180: c211 cbbc 4fa3 6c3e 9b96 af3e 3e01 363e
00000190: 2218 5b3e bb31 2c3e d726 8a3e db30 b33e
000001a0: 0713 813e 5d0a 483e 2cf4 c23e 1eac 5f3e
000001b0: cb47 9e3e 43b1 743e 408b 4c3e 31e6 3b3e
000001c0: 84a4 663e 44b0 953e 9877 8e3e 0226 8f3e
000001d0: 73a4 d33e 2e09 9b3e 86fc 833e 6aec 823e
000001e0: afdd 5e3e 83f7 f53d d096 963e f0aa 853e
000001f0: 72da 833e 3a5b 383e 293a 9c3e 8375 ae3e
00000200: 98a5 a8bd ae1d 2fbb 98c2 1a3e 3056 7f3d
00000210: 4cb5 04be d608 55bc 2d8f 15be 2288 59bd
00000220: fb6c a53d 4db4 f93d 1393 943d 284e 15be
00000230: f7d0 84bd 218b 98bc e8c3 5e3d 6ffe 86be
00000240: fa11 7bbd 5504 103e 4737 bfbd db9c 5a3d
00000250: 851b adbd cd94 1b3e b5e5 0b3e a84d 033d
00000260: 7e2c ca3d a000 883d 153d 3bbe facf a33c
00000270: da50 c03c 684d 093e 406f 21be ab03 c1bc
00000280: a8f3 873e 6e7a 083d 9917 b53d f0e9 1fbd
00000290: 1220 89bd 2253 b83d 137c 0f3d 6d2e b4bd
000002a0: c646 fabd 8e2e e23b 03db 54bd 1227 24bd
000002b0: b1c1 be3c e8d2 b0bc 500b 9bbd 68e0 ed3d
000002c0: 114a d83c aa28 dcbc a25c ffbb fa4b e2bd
000002d0: 1173 abbd 940b df3c b5bc 25bd dbdc 41bd
000002e0: 18a4 313d 18ee 25be d648 4c3e ac14 0abd
000002f0: e0c1 0b3a 43d8 f23d abee 983d 795a 973d

encoder.gru.bias_hh_l0 f4 [192]
-0.0046241567 -0.06490299 0.00059038005 0.047808833 -0.02890316 0.024547534 0.027817618 -0.0087112505
0.036559645 0.06768222 0.03695981 0.06923764 -0.050072245 -0.016526196 0.0032307045 0.103187285
0.05671208 0.09418193 0.08698921 0.009250421 0.034264762 0.0060148886 0.044430446 -0.060863785
-0.02558302 0.027376736 0.047142036 -0.030401384 -0.020132648 -0.008574517 -0.033501167 -0.020742893
0.12454235 0.015627064 0.013806961 -0.05755956 0.017066523 0.026491242 -0.05711714 0.03713092
-0.015523952 0.013244362 0.0047061807 0.025201319 -0.036671136 0.087685645 -0.021070778 0.009615739
0.008236348 0.051932212 0.01577297 0.03924776 -0.008644388 0.010947153 0.0041219494 -0.0149811655
-0.059756353 -0.00513444 0.08866724 -0.014887787 0.014915062 0.038676184 0.013715344 -0.008604874
0.23477736 0.29863447 0.21756746 0.41803965 0.23090337 0.30848935 0.13403416 0.20983748
0.26276788 0.19853768 0.18091187 0.09308335 0.2227131 0.34278864 0.3466254 -0.026940875
0.37273932 0.118575506 0.21275553 0.18325138 0.2059429 0.19960767 0.39613375 0.14249669
0.17211375 0.48345664 0.3978577 0.25095752 0.275922 0.31284225 0.22279541 0.23824358
-0.024795452 0.2565965 0.3374032 0.20121112 0.21699409 0.18017003 0.27301043 0.34918737
0.25350377 0.19571112 0.39914048 0.2159584 0.3038248 0.2382002 0.21419713 0.13528235
0.21983342 0.2807823 0.24501127 0.28557333 0.36257496 0.2731775 0.271655 0.28018412
0.1714291 0.16675013 0.30192873 0.21798946 0.23161569 0.24173129 0.34216356 0.35592866
-0.08016083 -0.1152904 -0.04129012 -0.037102707 -0.07884843 -0.0027366437 0.04617864 -0.0224766
0.057327714 0.13484703 0.024600698 0.016483488 0.07810145 0.03074477 -0.09918978 -0.20876771
-0.16817436 0.12683801 -0.08495433 0.083812274 -0.00866948 0.13220464 0.14061181 -0.00521451
0.021472966 0.10638094 -0.10140059 0.07310337 -0.033800837 0.029097738 -0.11487029 -0.05332774
0.20349596 -0.11549495 0.10201695 0.114795476 -0.07896118 0.10226441 -0.11430319 -0.01918176
-0.04959017 0.07255582 0.13483591 -0.08945938 0.08714012 0.05911136 -0.0014952056 0.046334345
0.028697195 -0.03785494 0.06516899 -0.07634905 -0.01560688 -0.08263272 -0.115529425 0.045039386
0.01945899 -0.096731275 0.19310267 0.014583476 -0.12293136 0.09714598 0.046970367 0.057324413
00000000: 3d86 97bb dceb 84bd bcc3 1a3a 32d3 433d
00000010: 52c6 ecbc e917 c93c c6e1 e33c a2b9 0ebc
00000020: 91bf 153d fa9c 8a3d 2b63 173d 77cc 8d3d
00000030: 8e18 4dbd f261 87bc 3aba 533b db53 d33d
00000040: ed4a 683d 75e2 c03d 6627 b23d 148f 173c
00000050: 3559 0c3d 8b18 c53b b3fc 353d 4e4c 79bd
00000060: 7b93 d1bc 2d45 e03c 0218 413d 530c f9bc
00000070: 39ed a4bc 227c 0cbc 8538 09bd 00ed a9bc
00000080: 0f10 ff3d 5404 803c 9736 623c 93c3 6bbd
00000090: 18cf 8b3c 2904 d93c aaf3 69bd 9716 183d
000000a0: 2d58 7ebc e1fe 583c 4e36 9a3b ff72 ce3c
000000b0: 7934 16bd 8894 b33d a09c acbc 558b 1d3c
000000c0: bff1 063c dfb6 543d 5136 813c 42c2 203d
000000d0: 31a1 0dbc b05b 333c 6b11 873b 9073 75bc
000000e0: 14c3 74bd ce3e a8bb 2c97 b53d e8eb 73bc
000000f0: 4e5e 743c eb6a 1e3d 52b6 603c 75fb 0cbc
00000100: 7a69 703e 9ee6 983e 01ca 5e3e 4b09 d63e
00000110: ef71 6c3e 51f2 9d3e 4040 093e a3df 563e
00000120: 8389 863e 764d 4b3e f640 393e 7ca2 be3d
00000130: e70e 643e fe81 af3e e278 b13e 1cb3 dcbc
00000140: b0d7 be3e b7d7 f23d 96dc 593e 40a6 3b3e
00000150: b2e2 523e f465 4c3e 0bd2 ca3e a7ea 113e
00000160: 963e 303e a187 f73e 01b4 cb3e 817d 803e
00000170: a645 8d3e dc2c a03e 7b24 643e 20f6 733e
00000180: d51f cbbc 9e60 833e 1dc0 ac3e 4a0a 4e3e
00000190: b333 5e3e 7e7e 383e 06c8 8b3e b0c8 b23e
000001a0: 3fcb 813e 7f68 483e 245c cc3e 3324 5d3e
000001b0: ed8e 9b3e c1ea 733e 7e56 5b3e 7587 0a3e
000001c0: 031c 613e b3c2 8f3e 3ce4 7a3e ab36 923e
000001d0: 6da3 b93e ecdd 8b3e 5d16 8b3e 4b74 8f3e
000001e0: 1c8b 2f3e 8cc0 2a3e 6796 9a3e a138 5f3e
000001f0: aa2c 6d3e 6888 773e 1030 af3e 483c b63e
00000200: 5c2b a4bd 601d ecbd d41f 29bd 02f9 17bd
00000210: 497b a1bd 4359 33bb d025 3d3d d920 b8bc
00000220: 77d0 6a3d 5715 0a3e 6787 c93c 6108 873c
00000230: a7f3 9f3d 75dc fb3c 0324 cbbd 34c7 55be
00000240: e635 2cbe d3e1 013e 89fc adbd c5a5 ab3d
00000250: 6f0a 0ebc a760 073e 8bfc 0f3e 7bde aabb
00000260: 13e8 af3c 40de d93d 1dab cfbd 38b7 953d
00000270: bf72 0abd 615e ee3c 1d41 ebbd 306e 5abd
00000280: 3f61 503e 9e88 ecbd 43ee d03d e419 eb3d
00000290: 66b6 a1bd 0170 d13d ca17 eabd 1123 9dbc
000002a0: 101f 4bbd 2598 943d 6d12 0a3e 7b36 b7bd
000002b0: 8576 b23d c11e 723d c6fa c3ba 15c9 3d3d
000002c0: 6116 eb3c c80d 1bbd 5277 853d e45c 9cbd
000002d0: 00b4 7fbc 583b a9bd b19a ecbd 387b 383d
000002e0: 7668 9f3c 0c1b c6bd b5bc 453e 88ef 6e3c
000002f0: 70c3 fbbd 79f4 c63d 0064 403d 01cd 6a3d

encoder.project.0.weight f4 [64, 64]
0.10019091 -0.014365933 0.092758596 0.03309947 0.1579116 -0.0005516089 -0.020973418 -0.09225944
-0.010646296 0.092638396 0.06202217 0.14893796 0.08647688 -0.04027148 0.08291962 0.019966468
0.06219966 -0.04302117 -0.021619337 0.0109339915 0.06839718 -0.005911541 0.079630904 -0.06337012
0.14833704 -0.024698554 0.06788485 0.025541646 -0.108598806 0.042156745 0.05230217 0.10796678
0.06408455 0.08128527 0.06555361 0.09256586 0.00022207256 -0.05227245 0.031544115 -0.01960241
-0.12450582 -0.18878476 -0.01756318 0.15454248 0.009373476 -0.074588254 0.039706144 -0.078908004
0.014753533 -0.02739075 0.0296001 0.09694085 0.050869722 -0.0043292595 -0.03648462 0.028037801
0.18035886 -0.009349387 -0.06453347 -0.057509586 -0.082471274 -0.04431918 -0.03941978 -0.09544371
0.07884397 0.08208747 0.15735479 0.054478463 0.043544587 -0.05114847 0.028388178 -0.05573638
0.14150901 -0.045689777 -0.03250264 -0.082866885 0.08230882 -0.16050823 -0.07085542 0.03252053
0.038406435 0.06819436 0.12679265 -0.1117685 -0.032047633 0.033873785 -0.0950168 -0.15273426
0.018370774 -0.010817099 -0.12142728 0.08730978 0.085625656 -0.0012019144 0.042452037 0.050443504
0.0027024618 -0.05403972 -0.048226595 0.086232476 0.14987867 0.004145058 -0.0052776267 -0.07482001
-0.091826856 0.029829789 -0.06916083 -0.020162592 0.13390337 0.1161211 -0.08149792 -0.13727605
0.122926064 0.038071077 0.105654016 -0.027856918 0.031686764 0.010178432 -0.059141994 -0.08567386
-0.034046534 0.08692177 -0.1636754 -0.09426148 0.0324023 0.024573887 0.018626567 -0.10443055
0.023629965 -0.070085675 -0.169216 -0.10355617 0.01716332 0.043095086 0.029660938 0.19599521
-0.01448508 -0.041098244 -0.11253464 0.15704943 -0.21462435 0.0040667467 -0.054764234 -0.017718052
-0.022208106 0.06276069 0.06082875 -0.04886442 -0.17149082 -0.050656714 0.06770026 0.0065819486
0.048286803 0.012131222 0.058358435 0.002304506 -0.018377865 -0.037840657 -0.11220523 -0.09727554
0.053591054 0.04400824 0.042358488 -0.045130137 -0.06903246 -0.03496351 -0.080326356 0.011796281
0.052704632 0.14163586 0.06472616 -0.14872158 0.04130469 -0.019948335 0.023715017 0.06960297
-0.07386491 -0.08677468 -0.05408276 -0.010477409 -0.052922234 0.14392056 0.15584055 0.1276529
-0.2393243 -0.10845525 0.06482271 0.11977986 -0.02788771 -0.17710684 -0.051811516 0.0395904
-0.06697288 -0.14661165 -0.062277596 0.014773628 -0.061295368 -0.003985559 -0.15996242 0.10540981
0.15340436 -0.10098944 0.22988006 -0.15520765 -0.0942759 0.09685174 -0.024784684 0.075455904
-0.13969588 -0.056310266 0.23040503 0.16385266 -0.002970595 0.15327743 0.05225638 0.016761756
0.07501611 -0.010681988 0.08027916 0.010544033 0.009677634 -0.11688355 -0.029739078 -0.18052754
0.0032577172 -0.20715952 0.07053016 -0.12271668 -0.011397761 0.08827617 -0.12883885 -0.028405573
0.124599464 0.19731362 -0.01799878 -0.21173199 0.008903653 0.017290898 -0.020762123 0.119970165
-0.04870493 -0.005369666 0.082991175 -0.03917552 0.056766763 0.0015949531 -0.043814056 -0.038223814
-0.27938277 -0.0685522 0.025012363 0.067351624 0.038389593 -0.016139798 -0.119755104 0.04488399
00000000: e430 cd3d 175f 6bbc 38f8 bd3d 4f93 073d
00000010: 94b3 213e d999 10ba 72d0 abbc 84f2 bcbd
00000020: cd6d 2ebc 33b9 bd3d f50a 7e3d 3183 183e
00000030: ca1a b13d b5f3 24bd c3d1 a93d b890 a33c
00000040: 12c5 7e3d f736 30bd 091b b1bc 7c24 333c
00000050: d213 8c3d 9ab5 c1bb 8715 a33d 32c8 81bd
00000060: aae5 173e 9f54 cabc 3607 8b3d b73c d13c
00000070: 0d69 debd 8dac 2c3d cd3a 563d b01d dd3d
00000080: c33e 833d e478 a63d f940 863d 2b93 bd3d
00000090: 26dc 6839 a31b 56bd 6734 013d 3c95 a0bc
000000a0: e8fc febd cb50 41be a8e0 8fbc 6240 1e3e
000000b0: 3593 193c bac1 98bd e9a2 223d 859a a1bd
000000c0: cdb8 713c 9162 e0bc e97b f23c ed88 c63d
000000d0: c55c 503d 76dc 8dbb e670 15bd 88af e53c
000000e0: feaf 383e 2c2e 19bc 202a 84bd 2c8f 6bbd
000000f0: b3e6 a8bd 0788 35bd a376 21bd fe77 c3bd
00000100: f378 a13d 7a1d a83d 9d21 213e cf24 5f3d
00000110: cf5b 323d 0f81 51bd 538e e83c d54b 64bd
00000120: bde7 103e 3425 3bbd 7d21 05bd 1db6 a9bd
00000130: 8791 a83d 455c 24be a51c 91bd 3f34 053d
00000140: 1150 1d3d 7ca9 8b3d efd5 013e e2e6 e4bd
00000150: 6144 03bd 3dbf 0a3d 2b98 c2bd 5f66 1cbe
00000160: 4e7e 963c 343a 31bc deae f8bd 78cf b23d
00000170: 815c af3d 8e89 9dba 30e2 2d3d d99d 4e3d
00000180: c91b 313b c158 5dbd 4089 45bd a79a b03d
00000190: cb79 193e 44d3 873b f1ef acbb 3c3b 99bd
000001a0: b80f bcbd 9a5d f43c 31a4 8dbd 052c a5bc
000001b0: f71d 093e e6d0 ed3d 62e8 a6bd 1892 0cbe
000001c0: a9c0 fb3d 6bf0 1b3d 2261 d83d 3134 e4bc
000001d0: fbc9 013d 70c3 263c e03e 72bd c775 afbd
000001e0: 6174 0bbd 0a04 b23d 869a 27be 2a0c c1bd
000001f0: 46b8 043d 2d4f c93c be96 983c afdf d5bd
00000200: a193 c13c 1489 8fbd f646 2dbe 4215 d4bd
00000210: 179a 8c3c 7984 303d 7ffb f23c f8b2 483e
00000220: d452 6dbc a256 28bd 9078 e6bd 91d1 203e
00000230: 7cc6 5bbe 5842 853b 7650 60bd 7325 91bc
00000240: c6ed b5bc ad88 803d 9127 793d 0f26 48bd
00000250: 4a9b 2fbe 6a7d 4fbd 6fa6 8a3d 63ad d73b
00000260: 62c8 453d 08c2 463c 4109 6f3d 3207 173b
00000270: 2d8d 96bc cefe 1abd dbcb e5bd 6638 c7bd
00000280: 4b82 5b3d fc41 343d 1880 2d3d 61da 38bd
00000290: e460 8dbd e635 0fbd 2582 a4bd 3045 413c
000002a0: d0e0 573d fe08 113e 268f 843d 784a 18be
000002b0: 1b2f 293d b16a a3bc ff45 c23c 008c 8e3d
000002c0: 7c46 97bd ecb6 b1bd e285 5dbd 70a9 2bbc
000002d0: fcc4 58bd e95f 133e aa94 1f3e 71b7 023e
000002e0: 6e11 75be c91d debd c5c1 843d 254f f53d
000002f0: c474 e4bc 7f5b 35be 5038 54bd 8b29 223d
00000300: 1429 89bd 5d21 16be cb16 7fbd 160d 723c
00000310: da10 7bbd 4b99 82bb 30cd 23be 19e1 d73d
00000320: 0816 1d3e 8dd3 cebd ae65 6b3e c1ee 1ebe
00000330: b913 c1bd 345a c63d 4009 cbbc a088 9a3d
00000340: 700c 0fbe 98a5 66bd 4cef 6b3e fec8 273e
00000350: 50ae 42bb c2f4 1c3e c90a 563d f34f 893c
00000360: 0ca2 993d 8103 2fbc 6669 a43d e1c0 2c3c
00000370: f08e 1e3c a560 efbd 5e9f f3bc 36dc 38be
00000380: 6d7f 553b a021 54be 1e72 903d e252 fbbd
00000390: adbd 3abc 23ca b43d 55ee 03be ceb2 e8bc
000003a0: 012e ff3d 950c 4a3e 2d72 93bc 45d0 58be
000003b0: a1e0 113c a4a5 8d3c 5415 aabc ebb2 f53d
000003c0: d27e 47bd 06f4 afbb 47f7 a93d 8376 20bd
000003d0: 4484 683d bf0d d13a 5e76 33bd 9390 1cbd
000003e0: 420b 8fbe 1965 8cbd bae6 cc3c a6ef 893d
000003f0: 683e 1d3d 9c37 84bc 2a42 f5bd 46d8 373d

encoder.project.0.bias f4 [64]
0.015842734 0.071792975 0.021884074 -0.016656114 -0.11900219 0.0011236863 0.026501413 0.021050159
-0.009419909 -0.010876777 -0.001985732 -0.013604667 -0.10220086 0.011419198 0.025703425 -0.01118931
0.05251693 0.05594437 -0.03502684 0.12593122 0.05708645 -0.031004077 -0.05921322 -0.01577169
0.07526078 0.068135485 0.00025423124 0.03869254 -0.07268244 -0.060405347 -0.0148605015 0.03125805
0.08721939 0.04559799 -0.02557912 -0.13008492 0.13438764 0.09576683 0.06071036 0.01740699
0.042486496 0.13318874 0.019350806 -0.04203785 -0.01679108 -8.2795015e-07 0.08318157 -0.023708627
0.12455066 -0.04975453 -0.1267943 0.011469712 -0.06119813 0.0037070916 -0.035486303 0.041570406
0.026192158 0.12643905 0.0307946 0.109837554 0.03626971 0.017569423 -0.03366054 0.15138344
00000000: 9fc8 813c 3208 933d 3b46 b33c 6772 88bc
00000010: 6cb7 f3bd a848 933a 7e19 d93c 6271 ac3c
00000020: f655 1abc 8234 32bc 0e23 02bb 1ce6 5ebc
00000030: af4e d1bd 9617 3b3c fd8f d23c 5e53 37bc
00000040: fe1b 573d ec25 653d 4e78 0fbd 1df4 003e
00000050: 7bd3 693d 43fc fdbc 9089 72bd a233 81bc
00000060: 5322 9a3d 9e8a 8b3d 574a 8539 127c 1e3d
00000070: 88da 94bd 996b 77bd 7679 73bc 7108 003d
00000080: 14a0 b23d f5c4 3a3d 4d8b d1bc fb34 05be
00000090: ea9c 093e 6621 c43d 6dab 783d 1b99 8e3c
000000a0: 5206 2e3d a162 083e 9585 9e3c e12f 2cbd
000000b0: 728d 89bc 4d40 5eb5 195b aa3d 9838 c2bc
000000c0: 6b14 ff3d 68cb 4bbd 5dd6 01be 75eb 3b3c
000000d0: e4aa 7abd adf2 723b 165a 11bd bb45 2a3d
000000e0: f090 d63c 3d79 013e f544 fc3c 83f2 e03d
000000f0: 8c8f 143d c0ed 8f3c a2df 09bd 4304 1b3e

encoder.project.2.weight f4 [16, 64]
-0.02474411 0.09695015 -0.20407356 -0.25146282 0.0062509123 -0.26095843 -0.10786101 0.066421926
-0.18539622 -0.10617611 0.13062374 0.03850259 -0.08368502 -0.10368243 0.03399059 -0.011294762
-0.17761691 -0.10945226 0.04162039 -0.03208103 0.040686574 -0.009634191 -0.09464568 -0.10843668
0.0992434 -0.07290529 -0.00038622948 -0.13777955 -0.1639363 -0.1255984 -0.18666176 -0.0027969787
-0.04938427 -0.16829719 0.07377929 -0.09606876 -0.25466195 -0.19390091 0.0010266579 -0.026748281
0.0701711 -0.08336159 0.09148127 -0.1434613 0.06827511 3.2360583e-23 -0.1633297 0.16188753
-0.07775721 0.046952426 -0.09634665 0.059807517 0.06987409 -0.10080195 -0.22689164 -0.037144084
0.09745333 -0.08868133 -0.05853161 0.079411864 -0.16533965 -0.08945205 -0.09801473 0.00832017
0.029492399 0.12666093 -0.09258999 -0.052923642 0.052938256 -0.1836856 0.007275492 -0.013747895
-0.148214 -0.10992716 0.022017265 -0.04066928 -0.054259486 -0.033212006 -0.046469234 0.028872035
0.0955181 -0.26664108 0.101989396 -0.08938428 -0.04314687 0.059464276 0.032284986 -0.004700831
-0.12894142 -0.0053624953 0.00078241486 -0.050918795 -0.06708202 -0.048965935 -0.039245173 -0.04555619
-0.16734146 0.07450432 0.040597197 -0.20331453 -0.12677774 0.06788083 -0.07975202 -0.08848381
0.011677353 -0.05238899 0.09410282 -0.13978495 0.032893974 1.1622037e-22 -0.29503134 0.08118225
-0.017262744 -0.09929253 -0.21371114 -0.061945435 0.1149499 -0.044091687 -0.039424762 -0.07923271
-0.033375192 -0.07000313 -0.15457872 0.05884451 0.15394284 0.14081915 -0.018326823 -0.021932634
-0.14383492 -0.045924306 0.040082417 -0.008398715 -0.022066694 -0.21644782 -0.17544168 -0.014028726
-0.08463675 -0.16084212 -0.08044855 -0.095771775 -0.04454563 -0.113566436 -0.1886004 -0.22063744
-0.109344944 -0.08609242 -0.002219381 -0.24597621 -0.026440835 -0.08570024 -0.051260173 -0.20239331
-0.19513626 0.0068535237 -0.0027857802 -0.09487738 -0.20723327 -0.103699945 -0.19726959 -0.07060504
-0.07341704 -0.13568613 -0.080968335 -0.25454426 -0.07514191 0.028141145 -0.14227521 -0.19856246
-0.16797733 -0.07397697 0.020121593 -0.020625718 -0.15430811 -3.1955525e-23 -0.20742424 -0.061492343
-0.04673674 -0.044892725 -0.18830751 -0.2050631 -0.037114378 -0.21259272 -0.21300226 -0.02792832
-0.18379748 -0.20487031 -0.1275154 -0.11319168 0.0033131884 -0.031443838 -0.08228754 -0.028369708
0.062415678 -0.031035712 0.004584803 -0.06417506 0.029576946 -0.09067773 0.041998215 -0.057157427
-0.011933607 0.091875166 0.15439953 0.05541819 0.051696286 0.08714241 -0.03419608 0.14038348
0.06637644 -0.00036229426 0.1398367 -0.14300846 -0.11061885 -0.018626343 -0.04883116 0.013344506
-0.065194026 -0.006734667 0.0025532765 -0.04007095 -0.026199684 -0.14717856 0.05868459 -0.0704094
-0.08372153 0.04706332 0.15563156 -0.040966175 0.01757554 0.13389136 0.098382354 -0.04939334
-0.015729496 0.11812228 -0.034026008 -0.06450917 -0.0064067985 -2.328745e-34 0.010946651 0.13425264
-0.036926813 0.007183225 -0.1135855 0.031281397 0.13366538 0.17836814 0.024967607 -0.09193618
0.054865334 -0.106726535 -0.06626763 0.024254777 0.11259613 0.048717137 -0.08882956 0.04809951
00000000: 29b4 cabc cd8d c63d a9f8 50be bcbf 80be
00000010: 74d4 cc3b 589c 85be 3ce6 dcbd 3808 883d
00000020: 82d8 3dbe dc72 d9bd 3bc2 053e e4b4 1d3d
00000030: 0d63 abbd 7457 d4bd b839 0b3d aa0d 39bc
00000040: 35e1 35be 8228 e0bd 247a 2a3d 6667 03bd
00000050: f7a6 263d bad8 1dbc 98d5 c1bd 0d14 debd
00000060: 2040 cb3d 5e4f 95bd d87e cab9 1516 0dbe
00000070: ebde 27be de9c 00be 4324 3fbe 844d 37bb
00000080: 2947 4abd 1956 2cbe 9919 973d b3bf c4bd
00000090: 0d63 82be f68d 46be ec90 863a 361f dbbc
000000a0: deb5 8f3d 7bb9 aabd 885a bb3d 85e7 12be
000000b0: d2d3 8b3d 767c 1c1a e73f 27be d8c5 253e
000000c0: 2c3f 9fbd 3051 403d 6451 c5bd baf8 743d
000000d0: 261a 8f3d 4171 cebd 4856 68be 6524 18bd
000000e0: 9d95 c73d 8f9e b5bd d7be 6fbd b0a2 a23d
000000f0: cc4e 29be a332 b7bd f2bb c8bd 5351 083c
00000100: 0b9a f13c 67b3 013e d29f bdbd 76c6 58bd
00000110: c9d5 583d 1418 3cbe 4067 ee3b da3e 61bc
00000120: 69c5 17be 7e21 e1bd 8d5d b43c d594 26bd
00000130: 323f 5ebd 5009 08bd 8656 3ebd 0c85 ec3c
00000140: fe9e c33d 2e85 88be d1df d03d 1b0f b7bd
00000150: c6ba 30bd d090 733d 433d 043d 6e09 9abb
00000160: 3809 04be dfb7 afbb f91a 4d3a 3a90 50bd
00000170: 4c62 89bd 8190 48bd 8cbf 20bd 2199 3abd
00000180: 8f5b 2bbe b995 983d 3f49 263d af31 50be
00000190: 06d2 01be 1b05 8b3d 0755 a3bd 0037 b5bd
000001a0: 5e52 3f3c d695 56bd fbb8 c03d c923 0fbe
000001b0: d5bb 063d 7680 0c1b 590e 97be e142 a63d
000001c0: 996a 8dbc e259 cbbd 18d7 5abe 7fba 7dbd
000001d0: da6a eb3d 7c99 34bd dc7b 21bd c244 a2bd
000001e0: 6db4 08bd cd5d 8fbd e249 1ebe f106 713d
000001f0: 31a3 1d3e e532 103e 2222 96bc 11ac b3bc
00000200: 7649 13be 201b 3cbd 762d 243d c49a 09bc
00000210: 36c5 b4bc 7fa4 5dbe fca6 33be bed8 65bc
00000220: 0856 adbd ccb3 24be 36c2 a4bd fe23 c4bd
00000230: 7b75 36bd 8595 e8bd 7720 41be c8ee 61be
00000240: 3ef0 dfbd 3951 b0bd 0973 11bb 30e1 7bbe
00000250: 739a d8bc 9c83 afbd 30f6 51bd 3140 4fbe
00000260: cdd1 47be 8693 e03b a391 36bb 124f c2bd
00000270: f534 54be a360 d4bd 0a01 4abe 6099 90bd
00000280: ac5b 96bd 4ef1 0abe bad2 a5bd a053 82be
00000290: 00e4 99bd 4288 e63c 98b0 11be f553 4bbe
000002a0: 4002 2cbe 3d81 97bd 0ad6 a43c 44f7 a8bc
000002b0: f202 1ebe 0687 1a9a 0567 54be 65df 7bbd
000002c0: 066f 3fbd 6fe1 37bd afd3 40be 10fc 51be
000002d0: 3f05 18bd e8b1 59be 441d 5abe efc9 e4bc
000002e0: 6835 3cbe 86c9 51be 6693 02be 0ad1 e7bd
000002f0: 1422 593b 41cb 00bd 5f86 a8bd 9767 e8bc
00000300: 95a7 7f3d 9b3e febc 1d3c 963b 376e 83bd
00000310: 5a4b f23c 3fb5 b9bd 5206 2c3d e81d 6abd
00000320: 2d85 43bc 0c29 bc3d e91a 1e3e 2ffe 623d
00000330: 7cbf 533d b877 b23d 3011 0cbd b0c0 0f3e
00000340: 5ff0 873d 50f2 bdb9 5a31 0f3e cf70 12be
00000350: 238c e2bd 4696 98bc 2f03 48bd eaa2 5a3c
00000360: 7284 85bd 7bae dcbb df54 273b 7021 24bd
00000370: b8a0 d6bc fab5 16be 415f 703d ce32 90bd
00000380: 3276 abbd 78c5 403d e15d 1f3e 26cc 27bd
00000390: 94fa 8f3c d11a 093e b07c c93d ac50 4abd
000003a0: 25db 80bc 18ea f13d db5e 0bbd 621d 84bd
000003b0: 1ff0 d1bb 8bc5 9a87 9559 333c 8679 093e
000003c0: 9240 17bd 4261 eb3b 849f e8bd ec20 003d
000003d0: 94df 083e 23a6 363e de88 cc3c 0949 bcbd
000003e0: 79ba 603d 7193 dabd 53b7 87bd f4b1 c63c
000003f0: cd98 e63d 9f8b 473d 46ec b5bd fe03 453d

encoder.project.2.bias f4 [16]
-0.07745212 -0.070914514 -0.034468547 0.17316636 0.0048678545 -0.025701491 0.04148175 -0.033094704
0.030003943 0.0006624361 0.11257442 -0.06256864 -0.03039757 -0.020116448 0.08377318 -0.0039256783
00000000: 389f 9ebd a13b 91bd e42e 0dbd 8652 313e
00000010: 8682 9f3b ef8b d2bc c4e8 293d 508e 07bd
00000020: d4ca f53c 56a7 2d3a 6b8d e63d fd23 80bd
00000030: 5304 f9bc 40cb a4bc 4691 ab3d faa2 80bb

decoder.gru.weight_ih_l0 f4 [192, 17]
0.059992153 0.15046537 0.05839275 0.07491309 0.01845446 0.03872751 0.037298735 0.0994229
0.034730118 0.04108513 -0.016203608 -0.09113404 0.114401415 -0.04496467 -0.023365164 0.018926896
0.011643629 -0.1261613 -0.12602405 -0.16338123 0.03304043 0.036130887 -0.06543496 -0.13885303
-0.13324429 -0.1369954 0.048046462 -0.04659914 0.011053075 -0.01095824 -0.033942744 -0.08640988
-0.0070036524 -0.017649753 0.06644589 0.057736617 0.008022286 0.039927702 -0.022767 0.028845597
-0.03350089 0.056582965 0.1554741 0.045280565 -0.027665272 -0.10014015 -0.0049718996 -0.014226416
0.06269198 -0.007222677 0.042767677 0.0028824671 0.025253031 -0.12095565 0.05324737 0.08844673
0.0028274285 -0.22888182 -0.026566098 0.03744596 -0.19069126 0.022334242 -0.04173197 0.007529657
0.014080888 -0.09531857 0.034233034 -0.12841569 -0.05101154 0.03465582 -0.12152951 -0.043343827
0.07426387 0.006306383 0.034059346 0.032269735 0.046382274 0.113247596 -0.015430291 -0.05882424
-0.046926845 -0.046885602 0.0018613654 0.07236978 -0.07227082 0.0247311 0.05842088 -0.072475106
0.047750734 0.052674614 0.036348406 -0.12131966 0.024839744 0.0035212168 -0.10276622 0.10175888
-0.06566417 0.016711324 0.022221636 0.023112703 0.0691694 -0.01663933 0.011811459 0.021310855
0.02524687 -0.012885578 -0.03399734 -0.0083496105 0.10042296 0.03957558 0.058493134 -0.04033415
-0.047676083 -0.018790096 -0.039983544 0.071660206 0.060388584 0.07638275 0.016068306 0.019377504
-0.046688702 -0.07140688 -0.059868727 -0.0955901 -0.08355684 0.009259507 -0.021372646 -0.19297524
-0.018947495 -0.073529944 0.032471262 -0.013951223 0.06928217 -0.19317831 0.015306524 0.060983155
0.016707117 -0.006209 -0.104058646 -0.051890593 -0.023045903 -0.05412279 0.02009709 0.019868985
-0.029428147 -0.023031555 -0.022089755 -0.053779963 -0.0037284046 0.079030976 -0.17146593 0.045722645
-0.0018902356 -0.111333184 -0.0773546 -0.04871356 0.030755015 0.0052722204 -0.043283418 -0.033158235
-0.11249563 -0.1519031 -0.0701196 0.07833907 -0.008621239 0.049043335 -0.022409054 -0.10016875
0.026056482 -0.006419372 0.038492817 -0.1419741 -0.06640509 -0.15862285 -0.015189606 0.041493535
-0.069749065 -0.049785115 0.14249201 0.11878513 -0.074453615 0.05858425 -0.047546353 0.03014599
-0.12561698 -0.15382856 0.033030733 -0.08129945 -0.008229624 -0.022508949 2.3724708e-05 0.024477445
-0.042691167 0.0176175 -0.081951514 -0.251493 0.023586854 0.015332277 0.09096221 0.009991045
0.052933924 -0.10486859 0.08537234 0.033254497 0.021194153 -0.03162613 0.05064323 0.02997073
0.05250746 0.04606546 -0.003263068 0.021696107 0.06620041 0.13113095 -0.0038382702 0.021605793
0.039969653 -0.018964654 0.019876566 -0.07084928 0.037990555 -0.027038243 -0.06263302 -0.06179478
-0.11360334 0.025907412 -0.12861224 -0.0011264433 -0.07081872 -0.04476084 0.009817517 -0.038674075
-0.0072435774 -0.11906364 -0.0721722 0.025497565 0.037979744 0.013372074 -0.0061964695 0.03256095
-0.018102584 0.015327066 -0.042814467 -0.04653665 0.023588756 0.0030240563 -0.043071937 -0.013894988
-0.025981512 -0.00895166 0.039783914 0.002206125 -0.053550072 0.047210548 0.009708408 -0.060453556
00000000: 55ba 753d 9813 1a3e 3c2d 6f3d 096c 993d
00000010: cf2d 973c bda0 1e3d 8fc6 183d 3c9e cb3d
00000020: 2b41 0e3d e248 283d 6ebd 84bc 7ca4 babd
00000030: 4a4b ea3d e02c 38bd 4d68 bfbc 940c 9b3c
00000040: ebc4 3e3c 6e30 01be 730c 01be 694d 27be
00000050: 6755 073d fbfd 133d c402 86bd 7d2f 0ebe
00000060: 3171 08be 8648 0cbe 5ecc 443d bdde 3ebd
00000070: f517 353c 318a 33bc 8c07 0bbd aaf7 b0bd
00000080: e57e e5bb 3796 90bc c814 883d 3b7d 6c3d
00000090: e86f 033c 3b8b 233d dc81 babc 9a4d ec3c
000000a0: 3b38 09bd 8ac3 673d 9a34 1f3e 1d78 393d
000000b0: 48a2 e2bc 4716 cdbd 51eb a2bb ea15 69bc
000000c0: a764 803d 35ac ecbb 292d 2f3d c6e7 3c3b
000000d0: 72df ce3c 99b7 f7bd ea19 5a3d 8f23 b53d
000000e0: 614c 393b ff5f 6abe 25a1 d9bc ef60 193d
000000f0: 9244 43be 4df6 b63c 24ef 2abd 57bb f63b
00000100: 86b3 663c 6236 c3bd f037 0c3d 677f 03be
00000110: 7af1 50bd 43f3 0d3d 77e4 f8bd 4c89 31bd
00000120: a817 983d c6a5 ce3b d081 0b3d 452d 043d
00000130: 57fb 3d3d 5bee e73d 55cf 7cbc b0f1 70bd
00000140: 5d36 40bd 1e0b 40bd 0ff9 f33a 9b36 943d
00000150: b902 94bd e098 ca3c bc4a 6f3d d46d 94bd
00000160: 4696 433d 56c1 573d 11e2 143d 7176 f8bd
00000170: b87c cb3c 37c4 663b 1977 d2bd f666 d03d
00000180: f07a 86bd 30e6 883c 260a b63c da56 bd3c
00000190: b0a8 8d3d 344f 88bc da84 413c 1a94 ae3c
000001a0: 86d2 ce3c 081e 53bc cb40 0bbd cecc 08bc
000001b0: 8eaa cd3d 011a 223d 7f96 6f3d 6c35 25bd
000001c0: ff47 43bd b0ed 99bc c9c5 23bd 96c2 923d
000001d0: 055a 773d 8f6e 9c3d aea1 833c 92bd 9e3c
000001e0: a73c 3fbd c53d 92bd e938 75bd bec4 c3bd
000001f0: d91f abbd 30b5 173c b015 afbc 4d9b 45be
00000200: c737 9bbc de96 96bd 9600 053d ac93 64bc
00000210: cfe3 8d3d 89d0 45be 37c8 7a3c 79c9 793d
00000220: 5ddd 883c de74 cbbb b31c d5bd 3b8b 54bd
00000230: c3ca bcbc dcaf 5dbd a7a2 a43c 48c4 a23c
00000240: 4c13 f1bc acac bcbc 93f5 b4bc 6148 5cbd
00000250: 4058 74bb feda a13d c494 2fbe ab47 3b3d
00000260: c8c1 f7ba a702 e4bd 176c 9ebd df87 47bd
00000270: f1f1 fb3c 97c2 ac3b f449 31bd eed0 07bd
00000280: 1c64 e6bd 7c8c 1bbe dd9a 8fbd 3c70 a03d
00000290: 1940 0dbc aae1 483d 3193 b7bc 4625 cdbd
000002a0: 6774 d53c 9859 d2bb a5aa 1d3d a961 11be
000002b0: 64ff 87bd 076e 22be d3dd 78bc 20f5 293d
000002c0: 99d8 8ebd 7aeb 4bbd 6de9 113e 9e45 f33d
000002d0: 237b 98bd 0af6 6f3d f7bf 42bd b9f4 f63c
000002e0: bda1 00be 3c85 1dbe 3c4b 073d 5380 a6bd
000002f0: 8bd5 06bc b064 b8bc 6c04 c737 ec84 c83c
00000300: efdc 2ebd 9352 903c 32d6 a7bd b1c3 80be
00000310: 3839 c13c 3b34 7b3c 654a ba3d 7bb1 233c
00000320: 3ed1 583d 58c5 d6bd b2d7 ae3d de35 083d
00000330: 5c9f ad3c 678a 01bd 476f 4f3d 2d85 f53c
00000340: 1012 573d 23af 3c3d 32d9 55bb 09bc b13c
00000350: 1594 873d 3147 063e 7d8b 7bbb a2fe b03c
00000360: 38b7 233d c35b 9bbc 2ed4 a23c 6d19 91bd
00000370: fc9b 1b3d 4e7f ddbc be45 80bd 861c 7dbd
00000380: dea8 e8bd c83b d43c edb2 03be 2aa5 93ba
00000390: 6809 91bd 2457 37bd a7d9 203c b568 1ebd
000003a0: 885b edbb a3d7 f3bd 05cf 93bd 45e0 d03c
000003b0: a690 1b3d 8b16 5b3c c10b cbbb a15e 053d
000003c0: df4b 94bc 601e 7b3c 395e 2fbd 379d 3ebd
000003d0: 353d c13c 3f2f 463b 336c 30bd cea7 63bc
000003e0: 2ed7 d4bc fca9 12bc 75f4 223d a394 103b
000003f0: 5257 5bbd d95f 413d 0410 1f3c 269e 77bd

decoder.gru.weight_hh_l0 f4 [192, 64]
-0.049182113 0.0038229625 -0.0069985967 0.026286004 -0.012773962 0.07123007 0.032957908 -0.021881908
0.04289572 -0.0016294878 0.0010527399 -0.024054354 -0.0069686556 -0.054507434 -0.029859217 0.030990632
-0.0010423636 0.030282801 -0.008683132 -0.036879268 -0.012227413 -0.03291095 -0.07293953 -0.007405066
0.010582943 -0.035136327 0.020781651 0.01845111 -0.03936252 0.00018137119 -0.00032882096 -0.056728538
-0.02948148 0.003841772 0.029049307 0.05150852 0.008320914 -0.014105643 -0.009325678 -0.062240068
-0.030118195 0.04897708 0.043345403 0.01110429 0.008984755 -0.005097031 -0.0053577153 0.0028132142
-0.019204432 0.049620103 0.03433372 0.01366573 0.022171995 -0.011175326 -0.050873753 0.01616681
0.01714979 -0.02192536 -0.03349017 0.0036877121 0.011976799 0.0672275 0.027977057 -0.03237727
0.027055547 0.0031177963 0.089495204 -0.014814617 0.039815914 0.046530683 0.15652488 0.083808765
-0.026610127 -0.019519145 0.004677184 0.10003342 0.115676746 -0.038879953 0.049360372 -0.034363538
-0.05204969 0.02801804 0.0011327503 0.05175598 0.1857181 0.057182457 0.011123284 0.091061346
0.030077765 -0.023872469 -0.039575446 0.0032164634 -0.03819431 -0.004280866 -0.03654994 -0.09352419
0.07614856 0.047815744 0.012710717 -0.021030344 0.058548383 0.03098406 -0.053933464 0.12916866
-0.06202883 -0.068504706 0.050071143 -0.076244764 0.05044899 0.074597925 0.0729056 -0.004060126
0.02952799 0.0467736 -0.03464701 -0.08030583 -0.091779925 -0.03185709 -0.026068356 0.017415693
0.04655088 -0.02524259 0.01541103 -0.009337549 0.033791702 0.015535568 0.09170559 -0.046653334
0.021106884 0.030469457 -0.046205163 -0.0061989212 -0.022879193 -0.010861388 -0.01930838 0.00482879
0.012554024 0.024027443 0.0052696466 0.027864674 -0.009669147 0.016077695 -0.025734173 0.021209601
0.007785418 0.022431888 0.0030248344 0.003119075 -0.02881345 -0.020393033 0.0037517159 -0.013732531
-0.017159553 0.013077843 0.0049518407 0.034401633 0.015076271 0.024302315 -0.038263943 0.04581975
0.01790262 -0.038445763 -0.03238909 0.030651618 -0.04088106 -0.01558198 0.002879938 -0.017781306
-0.023676537 0.043184794 -0.0022031842 0.01531297 0.03739958 -0.018315343 -0.026386075 -0.040520452
0.0028419527 -0.0017557929 -0.009032733 0.008196093 -0.021342844 0.014324559 0.04800135 -0.003454921
-0.0018525617 -0.04340959 -0.008391048 -0.061836205 -0.025182582 -0.009485271 -0.050382026 -0.04654218
0.023575664 -0.022023307 0.17852823 -0.0046191374 0.010827117 0.030921245 0.058523413 0.0028678004
0.052775227 -0.10568922 0.06400496 -0.047958493 0.0374223 -0.03129045 0.043803975 -0.0027606825
-0.088566214 -0.040996395 0.06695434 0.06637393 0.042135075 -0.041020922 -0.00880195 0.085096866
0.045429524 0.014181549 -0.07740478 0.05045799 0.09072236 0.06200405 0.051479504 -0.079212196
-0.058272064 0.009561627 -0.028706998 -0.00848992 0.059138227 0.080020376 0.04518572 0.028046742
0.08693316 -0.0042800326 -0.0073447614 -0.076694146 -0.06776668 0.036188792 -0.0085478425 -0.09983103
0.067943126 -0.11967041 0.012882623 -0.087477796 0.0020881977 -0.015574988 0.06938285 -0.0072554033
-0.13865693 -0.061741702 0.027942998 -0.074567944 0.028537948 0.02053936 -0.096011505 0.052589197
00000000: 2f73 49bd ab8a 7a3b 7c54 e5bb bf55 d73c
00000010: e149 51bc 12e1 913d dffe 063d b041 b3bc
00000020: 6cb3 2f3d 8a94 d5ba 17fc 893a a30d c5bc
00000030: 5259 e4bb 3043 5fbd 519b f4bc 11e0 fd3c
00000040: eb9f 88ba a313 f83c b243 0ebc b70e 17bd
00000050: 7d55 48bc a2cd 06bd 5261 95bd 32a6 f2bb
00000060: 1564 2d3c 1ceb 0fbd 483e aa3c c826 973c
00000070: 983a 21bd 752e 3e39 9a65 acb9 2f5c 68bd
00000080: 2583 f1bc 3dc6 7b3b d0f8 ed3c 99fa 523d
00000090: 7154 083c 5b1b 67bc bbca 18bc 71ef 7ebd
000000a0: 6fba f6bc 319c 483d f38a 313d c5ee 353c
000000b0: cb34 133c ff04 a7bb c68f afbb e75d 383b
000000c0: 9d52 9dbc 733e 4b3d 84a1 0c3d 3ae6 5f3c
000000d0: 0ba2 b53c b718 37bc ff60 50bd 4270 843c
000000e0: b77d 8c3c d09c b3bc fd2c 09bd 8bad 713b
000000f0: 563a 443c 92ae 893d 2430 e53c 079e 04bd
00000100: 98a3 dd3c f153 4c3b 4349 b73d 02b9 72bc
00000110: 0316 233d f596 3e3d 0f48 203e eea3 ab3d
00000120: 7bfd d9bc 9de6 9fbc 1043 993b 52de cc3d
00000130: eee7 ec3d 9640 1fbd 1a2e 4a3d c8c0 0cbd
00000140: 0e32 55bd 1786 e53c cb78 943a 14fe 533d
00000150: e32c 3e3e 2738 6a3d 6f3e 363c 5f7e ba3d
00000160: a565 f63c 3290 c3bc dd19 22bd 4dcb 523b
00000170: a371 1cbd 8246 8cbb 64b5 15bd 9c89 bfbd
00000180: c7f3 9b3d 71da 433d 9c40 503c d447 acbc
00000190: 6ed0 6f3d 49d2 fd3c 56e9 5cbd ca44 043e
000001a0: f111 7ebd 324c 8cbd 6617 4d3d 3726 9cbd
000001b0: 9aa3 4e3d ccc6 983d 884f 953d ce0a 85bb
000001c0: afe4 f13c ad95 3f3d 06ea 0dbd 6277 a4bd
000001d0: 1df7 bbbd 947c 02bd 4e8d d5bc 5bab 8e3c
000001e0: 23ac 3e3d 8cc9 cebc 8b7e 7c3c 85fc 18bc
000001f0: 2b69 0a3d e588 7e3c 24d0 bb3d 9117 3fbd
00000200: 58e8 ac3c 159b f93c a041 3dbd 5220 cbbb
00000210: 256d bbbc f7f3 31bc 9c2c 9ebc d43a 9e3b
00000220: 65af 4d3c 33d5 c43c 00ad ac3b 7544 e43c
00000230: 586b 1ebc 5fb5 833c 79d0 d2bc c2bf ad3c
00000240: d21c ff3b 14c3 b73c 4d3c 463b 6569 4c3b
00000250: 2f0a ecbc 4a0f a7bc 59df 753b 69fe 60bc
00000260: 3192 8cbc 7344 563c 0d43 a23b bae8 0c3d
00000270: 7702 773c a615 c73c a7ba 1cbd 7dad 3b3d
00000280: 84a8 923c 4e79 1dbd 6caa 04bd 1a19 fb3c
00000290: e672 27bd 904b 7fbc 58bd 3c3b 1aaa 91bc
000002a0: 4cf5 c1bc 8ae2 303d 4c63 10bb 40e3 7a3c
000002b0: 4d30 193d 0f0a 96bc 9c27 d8bc c6f8 25bd
000002c0: 0e40 3a3b a222 e6ba 07fe 13bc e848 063c
000002d0: 30d7 aebc 8eb1 6a3c 109d 443d f56b 62bb
000002e0: a8d1 f2ba 41ce 31bd 9b7a 09bc f647 7dbd
000002f0: b44b cebc 1c68 1bbc 625d 4ebd 03a3 3ebd
00000300: c021 c13c 396a b4bc 1bd0 363e 225c 97bb
00000310: 3864 313c 8d4e fd3c 3fb6 6f3d b5f1 3b3b
00000320: d62a 583d 9773 d8bd 0815 833d 2070 44bd
00000330: 2048 193d 6a2a 00bd cc6b 333d 91ec 34bb
00000340: 3462 b5bd d6eb 27bd 5b1f 893d 0eef 873d
00000350: d495 2c3d 8e05 28bd 0e36 10bc 4447 ae3d
00000360: 4f14 3a3d ba59 683c 6686 9ebd 0aad 4e3d
00000370: a5cc b93d f5f7 7d3d 2cdc 523d 013a a2bd
00000380: b0ae 6ebd 5fa8 1c3c f02a ebbc 4e19 0bbc
00000390: ed3a 723d b9e1 a33d a914 393d 48c2 e53c
000003a0: 030a b23d 843f 8cbb 53ac f0bb d211 9dbd
000003b0: 42c9 8abd b33a 143d 400c 0cbc 3674 ccbd
000003c0: c425 8b3d c315 f5bd a311 533c 8f27 b3bd
000003d0: 25da 083b 3c2e 7fbc 9818 8e3d bcbe edbb
000003e0: 15fc 0dbe dee4 7cbd b7e8 e43c 14b7 98bd
000003f0: 6ac8 e93c 2942 a83c aea1 c4bd c567 573d
