my_latent_sde/sdes/best_sde_0.pth (torch, 811637 bytes, 28 tensors)

encoder.gru.weight_ih_l0 f4 [384, 2]
0	0x3d0a76b0	0.033804595
1	0xbc272510	-0.0102017075
2	0xbd48439b	-0.0488926
3	0xbd34c288	-0.044130832
4	0x3aeb85ca	0.0017968949
5	0xbccf2829	-0.025287705
6	0xbbb0f52f	-0.005400322
7	0x3ada6fe8	0.0016665431
8	0xbd8c282d	-0.068436004
9	0x3bdac785	0.0066766166
10	0xbd8abab2	-0.067738906
11	0xbcfda45e	-0.030962165
12	0x3d7de03c	0.061981425
13	0x3d19e6dd	0.037573684
14	0x3d1c68d8	0.038185924
15	0x3c1f5b2d	0.009726328
16	0x3d8daf2a	0.069181755
17	0x3b5b15b4	0.0033429684
18	0xbbd9cad8	-0.0066464953
19	0x3d5cd50f	0.053914126
20	0xbca8c2fa	-0.020600785
21	0x3d5ce5ab	0.053929966
22	0x39798d01	0.00023799019
23	0xbd6f4452	-0.058414765
24	0x39cd71d8	0.00039185467
25	0xbcb6caf2	-0.022313569
26	0xbcaff9a7	-0.021481348
27	0x3d14cb80	0.036326885
28	0x3d2fb865	0.04290046
29	0x3d85e8e8	0.06538564
30	0xbd75deb6	-0.060026847
31	0x399d52e1	0.00030007123
32	0xbca3ab57	-0.019979162
33	0xbc95ee59	-0.01830213
34	0xbd684457	-0.0567058
35	0x3d0fc73a	0.035102107
36	0x3ba6a13f	0.00508514
37	0xbd8f11e1	-0.06985832
38	0x3c53a6bf	0.012918173
39	0x3d088560	0.03333032
40	0xbd22c571	-0.039739076
41	0x3b1f6fb8	0.0024328064
42	0x3d50261a	0.050817586
43	0x3d80fcc6	0.06298213
44	0xbd7260b8	-0.05917427
45	0xbd89f12c	-0.06735453
46	0x3c705f1c	0.014671113
47	0xbd80901f	-0.06277489
48	0xbd3ac9f1	-0.045602743
49	0x3c128e72	0.008945094
50	0x3da0e1cd	0.07855568
51	0xbd73419e	-0.05938875
52	0xbc8dee13	-0.017325437
53	0x3c2309db	0.00995108
54	0x3d88d6a6	0.06681566
55	0xbd8d603a	-0.069031194
56	0xbc249afa	-0.010046715
57	0xbb8fafb7	-0.0043849605
58	0x3d88ab4b	0.066732965
59	0xbd6b12ce	-0.05739098
60	0x3cfb8af7	0.030705912
61	0x3cdf1f06	0.027236473
62	0x3d1715df	0.036886092
63	0x3c10041a	0.00879004
64	0xbd8afe50	-0.067867875
65	0x3d4ea8e8	0.05045405
66	0xbd800f33	-0.06252899
67	0xbcb623c8	-0.022233859
68	0x3b52262b	0.0032066207
69	0xbd6d2403	-0.05789567
70	0xbd5b2dc9	-0.05351046
71	0x3cc8dc16	0.024519008
72	0x3d7eb081	0.062180046
73	0xbc076390	-0.008263484
74	0xbda58633	-0.08082237
75	0x3d7afff0	0.061279237
76	0xbd6f82f4	-0.058474496
77	0x3d39c056	0.04534944
78	0x3c5558f9	0.013021701
79	0xbaf5427a	-0.0018711828
80	0x3cb18f8c	0.021674894
81	0xbd8a3d74	-0.067500025
82	0xbd76ae53	-0.060224842
83	0x3b2eedfc	0.0026692143
84	0x3d812741	0.06306315
85	0x3d589a0c	0.052881286
86	0xbd70de6a	-0.05880586
87	0xbbbd5277	-0.005777653
88	0xbd179e24	-0.03701605
89	0x3cda0f5a	0.026618648
90	0x3b62061e	0.003448851
91	0x3d7b3d14	0.061337546
92	0xbd8b695b	-0.06807204
93	0x3d8bd7aa	0.06828244
94	0xbc5ef01a	-0.013607049
95	0x3cbb0af4	0.022832371
96	0x3cd1f6cd	0.02563038
97	0x3d412afd	0.047160137
98	0x3d61c502	0.055119522
99	0x3c23930f	0.009983792
100	0xbcd14be7	-0.025548888
101	0x3b91e6d4	0.0044525657
102	0x3d432bc8	0.047649175
103	0x3b27e8b4	0.002562088
104	0xbd559e22	-0.05215276
105	0xbd81f612	-0.06345762
106	0xbb16c55c	-0.002300582
107	0x3d8c022e	0.06836353
108	0xbc22872e	-0.009919925
109	0x3d65631a	0.056002714
110	0x3c699e62	0.014258953
111	0xb9ecb360	-0.00045147073
112	0x3d51b5e7	0.051198866
113	0xbd87871f	-0.06617569
114	0x3d48ab9d	0.04899179
115	0xbd1bf1cf	-0.038072404
116	0x3c02a70d	0.007974398
117	0x3bd55c17	0.006511222
118	0xbd346e34	-0.04405041
119	0xbd264326	-0.04059138
120	0x3a743e90	0.0009317184
121	0x3a9c7b4c	0.0011938601
122	0xbb00d502	-0.0019658213
123	0xbd04b38a	-0.032397784
124	0xbc0df8b9	-0.008665257
125	0x3d4bc2b9	0.04974625
126	0xbd94590a	-0.07243545
127	0x3d710d7c	0.05885075
128	0xbd84d32f	-0.064855926
129	0x3d372ce5	0.04472055
130	0xbd795d64	-0.06088008
131	0xbd45360c	-0.048147246
132	0x3d670f48	0.056411058
133	0x3d8392d0	0.06424487
134	0xbd12f3d4	-0.035877064
135	0xbd8d226b	-0.0689133
136	0x3cfa2de3	0.030539459
137	0x3d9c5783	0.07633879
138	0xbd8b5d4a	-0.06804903
139	0x3cf15987	0.029461635
140	0x3d6dc1f2	0.05804629
141	0xbcf792c9	-0.03022136
142	0x3d4a5d54	0.04940541
143	0x3d5999dd	0.05312525
144	0xbc382019	-0.011238121
145	0x3c885442	0.01664174
146	0xbb86e771	-0.0041169454
147	0xbd5dc980	-0.054147243
148	0xbd323b3d	-0.043513525
149	0xbd90b211	-0.070652135
150	0xbd8e99be	-0.06962918
151	0x3d8a9a29	0.06767685
152	0x3d012407	0.0315285
153	0x3d588279	0.052858803
154	0xbabc2146	-0.0014353178
155	0x3d5285b7	0.05139705
156	0x3d3cef63	0.046126734
157	0xbcc4a03d	-0.024002189
158	0xbc12003a	-0.008911187
159	0xbcea10d4	-0.028572477
160	0xbae66f7e	-0.0017580835
161	0x3d0e5cda	0.03475652
162	0x396f87be	0.00022843384
163	0x3d8685b5	0.06568471
164	0xbcb88201	-0.022522928
165	0x3d39f94b	0.04540376
166	0xbb80ca46	-0.003930363
167	0x3b4fae0b	0.003168943
168	0xbce3151c	-0.027720027
169	0xbc0b5ac4	-0.008505527
170	0x3c322fba	0.010875637
171	0x3ad777ec	0.0016438938
172	0x3b1a033e	0.0023500468
173	0xbcc6fd6e	-0.024290767
174	0x3cc3145a	0.023813415
175	0x3d419c37	0.04726812
176	0xbd554f1d	-0.0520774
177	0xbd97b1b8	-0.07406944
178	0x3d33dbf6	0.043910943
179	0xbd015bd8	-0.03158173
180	0xbd978ab1	-0.073995
181	0xbd4f191b	-0.05056105
182	0xbd71e0b9	-0.059052203
183	0x3c104e74	0.008807767
184	0xbd29146e	-0.04127925
185	0x3ce72b3d	0.02821886
186	0x3bc03797	0.005866002
187	0xbcf8b358	-0.030358955
188	0xbc4b406b	-0.012405495
189	0x3c8bfd68	0.017088607
190	0xbc7433d0	-0.014904931
191	0xbcf669eb	-0.030079802
192	0xbd81517d	-0.06314371
193	0xbc26a559	-0.010171258
194	0x3d54e1f4	0.0519733
195	0xbd71d76c	-0.059043333
196	0xbd7390d5	-0.059464294
197	0x3c2613f6	0.010136595
198	0x3c308080	0.010772824
199	0xbc823b14	-0.015897311
200	0x3cbeb4ee	0.023279633
201	0xbac93138	-0.0015349751
202	0xbc2565a5	-0.010095035
203	0x3d3fdf9e	0.046844117
204	0xbcb3b66a	-0.021937568
205	0x3bcbd8cf	0.006220914
206	0xbcc2019d	-0.02368241
207	0xbd0af862	-0.033928283
208	0x3bc685bf	0.0060584242
209	0x3d7720b3	0.06033392
210	0xbd8be991	-0.06831659
211	0xbd1cee8e	-0.03831344
212	0x3cb0401f	0.02151495
213	0x3c930ab7	0.017949445
214	0x3cbfe43b	0.023424258
215	0x3d53a233	0.051668357
216	0xbd685135	-0.05671807
217	0x3c31a944	0.010843579
218	0x3beabda4	0.00716372
219	0xbc3df44a	-0.011593888
220	0x3d179501	0.037007336
221	0x3c1129da	0.008860076
222	0x3d2472ae	0.04014843
223	0x397c97f4	0.000240892
224	0xbd62a451	-0.055332486
225	0x3d8994e0	0.06717849
226	0x3c031347	0.008000202
227	0x3d139510	0.03603083
228	0xbd1e7754	-0.03868802
229	0xbd06550f	-0.032795962
230	0xbd5afd8a	-0.05346445
231	0x3cc40202	0.023926739
232	0xbd141d93	-0.036161017
233	0x3ca160fe	0.01969957
234	0xbd0d0210	-0.034425795
235	0xbd4c6b62	-0.049907096
236	0xbd6fa11b	-0.05850325
237	0x3d028ee5	0.031874556
238	0x3a9b9126	0.0011868819
239	0xbd3dfdf3	-0.046384763
240	0xba99facc	-0.0011747717
241	0xbd7936ed	-0.060843397
242	0x3c375974	0.011190761
243	0xbd3a544e	-0.045490555
244	0xbd32ab5d	-0.043620456
245	0xbb6c398c	-0.0036045043
246	0x3d4070c0	0.046982527
247	0x3d8d521e	0.06900428
248	0xbd3c4a48	-0.045969278
249	0xbb8762f8	-0.004131671
250	0x3d301159	0.042985294
251	0x3d8679dd	0.06566212
252	0x3bf59869	0.0074949753
253	0x3d1380f2	0.036011644
254	0xbc76a2f9	-0.015053504
255	0x3d7febe3	0.06248082

encoder.gru.weight_hh_l0 f4 [384, 128]
0	0x3cda1c50	0.026624829
1	0x3c41a472	0.011818992
2	0x3c5934ae	0.013257189
3	0x3cbdfe0f	0.023192434
4	0xbc891b9f	-0.016736804
5	0x397003b4	0.00022889563
6	0x3c9a077d	0.018802399
7	0xbd86ad04	-0.06575969
8	0x3ccf888d	0.025333667
9	0xbce780dd	-0.028259689
10	0x3cb70e6d	0.022345746
11	0x3d845ce2	0.064630285
12	0x3c8b6935	0.01701794
13	0x3d87ce52	0.06631149
14	0x3d1ebb57	0.03875288
15	0x3ccfa2b7	0.025346143
16	0xbcbbf1ae	-0.02294239
17	0xbb092968	-0.002092922
18	0xbd50adb4	-0.050946906
19	0xbcca74cb	-0.024713894
20	0x3b104d97	0.0022018903
21	0x3d4d159d	0.05006944
22	0xbca4946c	-0.020090304
23	0xbc812a6d	-0.0157673
24	0xbd00d0af	-0.031449016
25	0x3d925bb0	0.07146394
26	0xbcaf90c6	-0.021431338
27	0x3d0e366e	0.034719877
28	0xbd549fa8	-0.051910073
29	0xbd7661a4	-0.06015171
30	0xbb75c86d	-0.0037503496
31	0xbd1a6127	-0.037690308
32	0xbd6dd7d6	-0.058067165
33	0x3c0a0ea4	0.008426342
34	0x3c22ab22	0.009928497
35	0x3c5cce47	0.013476915
36	0xbb440ff1	-0.0029916728
37	0x3d3152e3	0.043291938
38	0xbacd0c22	-0.0015643875
39	0x3d3a8e3b	0.045545798
40	0x3d935cf3	0.07195463
41	0xbd7688da	-0.060189106
42	0x3cb94fbd	0.02262103
43	0xbd645709	-0.055747066
44	0xbd4158df	-0.047203895
45	0x3b851291	0.004061051
46	0x3c0a98ad	0.008459252
47	0xbd8881be	-0.06665371
48	0x3ab8f1ba	0.0014110126
49	0xbcee90b9	-0.029121744
50	0xbc920d9a	-0.017828751
51	0xbd0bc779	-0.03412578
52	0x3d857a4d	0.06517468
53	0xbb87a5f8	-0.004139658
54	0x3b0f1349	0.0021831563
55	0xbd79f323	-0.06102289
56	0xbb19e4e2	-0.0023482372
57	0xbc7861ac	-0.015160006
58	0x3c75639a	0.01497736
59	0x3d50153a	0.050801493
60	0xbd762062	-0.060089476
61	0x3d4e3e33	0.050352287
62	0x3c55211b	0.013008381
63	0xbd01aeb1	-0.03166074
64	0xbd5b0c1e	-0.053478353
65	0x3b8317f9	0.0040006605
66	0x3d1271bb	0.035752993
67	0x3bc61732	0.0060452456
68	0x3d8c65fe	0.06855391
69	0x3ce467c8	0.027881518
70	0xbd2f3b00	-0.042780876
71	0xbd200105	-0.039063472
72	0xbd8a86ba	-0.06763978
73	0x3ccbd139	0.024880039
74	0x3d82f1f4	0.06393805
75	0xbd0802a7	-0.033205654
76	0xbd38921d	-0.04506122
77	0xbd6f2e3c	-0.058393702
78	0xbd2fb795	-0.042899687
79	0x3d67f273	0.056627702
80	0xbd3fe640	-0.046850443
81	0x3d966e67	0.07345276
82	0x3cc7fc29	0.024412232
83	0x3b90e35b	0.004421634
84	0x3d74f191	0.05980069
85	0x3d57328b	0.052538436
86	0x3d920869	0.0713051
87	0xbd3d53ad	-0.046222378
88	0x3d30ac41	0.043133024
89	0x3abc3696	0.001435953
90	0xbc88830a	-0.016664047
91	0xbb5ddb05	-0.003385247
92	0x3cafe087	0.021469368
93	0x3cfa61bd	0.030564183
94	0xbb14b8c1	-0.002269313
95	0x3aaa35f1	0.0012986046
96	0x3d7cdf2d	0.061736275
97	0x3d087a87	0.033319976
98	0xbd68b607	-0.05681422
99	0x3d38b640	0.045095682
100	0xbc8b85b3	-0.017031526
101	0x3c70ef19	0.014705443
102	0xbd610c5c	-0.054943427
103	0x3b61cb1c	0.0034453338
104	0xbd8227a4	-0.06355217
105	0x3b5043c8	0.0031778682
106	0x3a08c968	0.0005218
107	0xbd788b10	-0.060679495
108	0xbd282d3d	-0.041058768
109	0x3d1c9787	0.038230445
110	0xbd238bde	-0.03992831
111	0xbd08c4f9	-0.033390973
112	0xbceb508a	-0.028724927
113	0x3d0b35e6	0.03398695
114	0xbd62edf7	-0.055402722
115	0xbd88aebf	-0.06673955
116	0x3c5612f1	0.013066039
117	0xbb6cde3a	-0.00361432
118	0xbd60532d	-0.054766823
119	0x3d8fc1eb	0.07019409
120	0xbd51d9a0	-0.051232934
121	0x3a2a0fbc	0.000648733
122	0x3d960f76	0.07327168
123	0x3c5e6c10	0.013575569
124	0xbcc7eae5	-0.024403999
125	0x3d60ed70	0.054913938
126	0x3d810c30	0.06301153
127	0x3b7304c2	0.0037081693
128	0x3d30efc3	0.043197405
129	0xbae90b86	-0.0017779924
130	0x3d0090b2	0.031387992
131	0x3b9d3b8f	0.0047983597
132	0x3c2af200	0.010433674
133	0x3be70e77	0.007051285
134	0xbd7b119f	-0.0612961
135	0xbd835adb	-0.06413814
136	0x3d3d4403	0.04620744
137	0x3cc6445a	0.024202514
138	0x3cb187be	0.021671172
139	0xbc12ef00	-0.008968115
140	0x3ccce99a	0.025013734
141	0xbcd65eaa	-0.026168186
142	0xbd5edb71	-0.054408494
143	0x3bc39745	0.0059689605
144	0xbd024e0c	-0.031812713
145	0xbb2c4cb3	-0.0026290833
146	0xbd543143	-0.051804792
147	0xbcf13eeb	-0.029448947
148	0x3c1e1be7	0.009650207
149	0xbd75ffd8	-0.060058445
150	0xbc8457eb	-0.016155204
151	0x3d2b176f	0.041770395
152	0x3c4b7b37	0.012419513
153	0xbb8cd777	-0.0042981463
154	0xbcbb9824	-0.022899695
155	0xba9a6f25	-0.0011782391
156	0xbd82c6db	-0.06385585
157	0xbd117b0c	-0.035517737
158	0xbc46efd8	-0.012142144
159	0xbd012d96	-0.031537615
160	0x3d325a74	0.043543294
161	0x3ceb5423	0.028726643
162	0xbd3e50d8	-0.046463817
163	0x3d8a7bcc	0.06761894
164	0x3c178967	0.009249068
165	0xbc831b9b	-0.016004374
166	0xb93adc9c	-0.00017820526
167	0xbd7c30b7	-0.061569896
168	0x3d7b2e69	0.061323557
169	0xbb400c50	-0.0029304214
170	0xbb322e2c	-0.0027188165
171	0x3d8b2c40	0.067955494
172	0x3a49c2ab	0.00076965493
173	0xbd82c1aa	-0.06384595
174	0x3c851e54	0.016249813
175	0xbd516593	-0.05112226
176	0xbd366623	-0.044531
177	0x3b7ef7ec	0.0038905097
178	0xbc3d75ec	-0.011563759
179	0x3d10388c	0.035210177
180	0x3d382fcb	0.044967454
181	0xbc4e7e46	-0.012603348
182	0x3d64b381	0.05583525
183	0xbd1730c9	-0.03691176
184	0x3c346bab	0.011011998
185	0xbd772c6f	-0.06034511
186	0xbc6b7678	-0.014371507
187	0x3cd7d2b7	0.026345594
188	0xbc97f87b	-0.018551102
189	0x3d1810fd	0.037125576
190	0x3bd4b97c	0.006491838
191	0x3b8b2f7f	0.0042476053
192	0xbb1bde9c	-0.0023783809
193	0xbd01ccbf	-0.0316894
194	0x3d6c478a	0.057685412
195	0x3b533ad7	0.0032231116
196	0xbba51330	-0.0050376877
197	0xbd00015e	-0.031251304
198	0xbcf49950	-0.029858261
199	0xbc4d749c	-0.012540009
200	0x3d898c7a	0.06716247
201	0xbbec56c8	-0.0072124936
202	0x3b565cb9	0.0032709076
203	0xbd9547d1	-0.072890885
204	0x3bbea822	0.005818383
205	0xbb09a00a	-0.0020999932
206	0x3c193624	0.009351287
207	0x3d89d122	0.06729342
208	0xbc95f9e7	-0.01830764
209	0x3d40045e	0.046879165
210	0x3b403393	0.0029327616
211	0xbd1f31ac	-0.03886573
212	0x3d37936b	0.044818323
213	0x3ad24744	0.0016042967
214	0x3d43201b	0.04763804
215	0xbd0b0e6f	-0.03394931
216	0xbd30f3b4	-0.043201163
217	0xbb348f8c	-0.002755138
218	0x3d5e47a7	0.05426755
219	0xbc2c4043	-0.010513368
220	0xbb722f85	-0.0036954593
221	0x3a779a23	0.00094452704
222	0x3d20a260	0.039217353
223	0x3c15c36d	0.009140831
224	0xbc6105c2	-0.013734283
225	0xbbff008f	-0.007782049
226	0x3c5e6199	0.013573074
227	0xbd84fd42	-0.064936176
228	0xbc871db4	-0.016493656
229	0x3d49b227	0.049242165
230	0xbc26bfaf	-0.010177537
231	0x3b4638e3	0.003024631
232	0xbcda6bd5	-0.026662746
233	0x3ba693d7	0.005083542
234	0xbce445b3	-0.027865266
235	0x3d58e3b5	0.052951533
236	0xbb1453b1	-0.0022632892
237	0x3c4bab1b	0.012430931
238	0x3d6192b8	0.055071563
239	0xbd688dd6	-0.05677589
240	0x3c4ba496	0.012429377
241	0x3ca94397	0.020662112
242	0x3d370eb4	0.044691756
243	0xbd451043	-0.04811121
244	0xbd5fdc34	-0.05465336
245	0x3d2f973a	0.04286883
246	0x3c96e374	0.018419005
247	0x3d0fb7c1	0.03508735
248	0x3c41b061	0.011821837
249	0xbd88951b	-0.066690646
250	0xbc1da089	-0.009620794
251	0xb9b79b98	-0.00035020406
252	0xbd651771	-0.05593056
253	0xbcd01bbf	-0.025403855
254	0xbcbcd855	-0.023052374
255	0x3cf39cbc	0.029737823

encoder.gru.bias_ih_l0 f4 [384]
0	0x3ab6226a	0.0013895754
1	0xbd34756e	-0.044057302
2	0x3c8f1906	0.017467987
3	0x3ce0fee4	0.027465291
4	0xbc9cc40b	-0.01913645
5	0xbcfba060	-0.030716121
6	0x3c66ae6e	0.014079673
7	0x3c1136e3	0.008863184
8	0x3c1eca61	0.009691806
9	0x3d40e1b4	0.047090247
10	0x3b160643	0.0022891916
11	0xbcab86ad	-0.020938242
12	0xbd55e6f9	-0.052222226
13	0x3c109b64	0.0088261105
14	0xbcfd0f68	-0.030891135
15	0xba2047a1	-0.0006114189
16	0x3c96e052	0.018417511
17	0x3d966a37	0.073444776
18	0xbd8badbe	-0.06820248
19	0x3d5fd9d9	0.054651115
20	0x3d17ad8a	0.037030734
21	0xbd102d13	-0.035199236
22	0xbca61b15	-0.020276586
23	0x3b6a0fa6	0.0035714894
24	0x3d2cc4b4	0.04217978
25	0xbd591466	-0.05299797
26	0x3c39e59f	0.01134625
27	0x3b81bfe0	0.003959641
28	0x3d272df7	0.04081532
29	0xbd52088c	-0.051277682
30	0x3c957671	0.018244954
31	0x3b59adb2	0.0033215103
32	0x3b523fc7	0.0032081471
33	0xbd07c7e4	-0.033149615
34	0xbb6da72a	-0.0036262968
35	0xbd0f2ee6	-0.034956835
36	0xbc71cdf9	-0.01475858
37	0xbce47f65	-0.027892778
38	0xbbb487ed	-0.0055093677
39	0xbc683a34	-0.014174033
40	0x3c935abb	0.0179876
41	0xbd865550	-0.06559241
42	0x3c954c94	0.018224992
43	0x3bc45f41	0.0059928005
44	0xbd8b5d4e	-0.06804906
45	0x3d6301f0	0.05542177
46	0xbd581c71	-0.0527615
47	0xbbc80083	-0.0061035766
48	0xbc7411db	-0.014896835
49	0x3d2eb95d	0.042657245
50	0x3d3bc2e9	0.045840178
51	0xbc1d049b	-0.009583618
52	0xbd00702e	-0.031356983
53	0x3b851fa8	0.0040626116
54	0x3c83fc6e	0.016111579
55	0xbd835c83	-0.064141296
56	0xbc63ffb6	-0.013915947
57	0xbd55f06c	-0.052231237
58	0x3d87aed2	0.06625141
59	0xbba11e37	-0.004916932
60	0xbd0c2ac8	-0.034220487
61	0x3c0695ad	0.008214396
62	0xbd381e34	-0.04495068
63	0xbd1bec84	-0.038067356
64	0xbd1c1a04	-0.038110748
65	0x3d354d86	0.044263385
66	0xbd415a76	-0.04720541
67	0x3cba762e	0.02276143
68	0x3b956188	0.004558746
69	0xbd8338e6	-0.06407337
70	0xbd028a40	-0.031870127
71	0x3d691858	0.05690798
72	0xbd0541c1	-0.03253341
73	0x3d909a4e	0.07060681
74	0x3d959b7e	0.073050484
75	0x3c8ca68c	0.01716926
76	0x3af1884a	0.0018427458
77	0x3cf6509a	0.03006773
78	0x3b99fe73	0.004699522
79	0xbbbd1efa	-0.005771515
80	0x3cb5d96f	0.022198407
81	0xbce73505	-0.028223524
82	0x3c44bbb4	0.012007643
83	0xbcf09d1d	-0.029371792
84	0xbd79ccbe	-0.060986273
85	0x3c73bc48	0.014876433
86	0xbc4d96f1	-0.012548194
87	0xba4445f6	-0.00074872316
88	0xbd866b88	-0.06563479
89	0xbd565610	-0.05232817
90	0x3c87d9c6	0.016583335
91	0xbd0fe50e	-0.035130553
92	0x3cd7e0a0	0.026352227
93	0x3d77df3f	0.06051564
94	0xbd8176f7	-0.06321519
95	0xbc03e4dc	-0.00805017
96	0xbd8463df	-0.064643614
97	0x3d0765f1	0.033056203
98	0x3c94bbc0	0.018155932
99	0xbd96e4c2	-0.07367851
100	0xbd8c0452	-0.068367615
101	0xbcbb807f	-0.02288842
102	0x3d90d034	0.070709616
103	0x3cd52307	0.026017679
104	0x393c7274	0.00017971714
105	0x3c817ba4	0.015806027
106	0x3d14b7fb	0.03630827
107	0xbb6b31c7	-0.0035887824
108	0x3d4916d3	0.049094032
109	0xbd0e1b5b	-0.034694057
110	0x3c31a096	0.010841509
111	0xbd5fc5fd	-0.054632176
112	0xbd65ad22	-0.056073315
113	0x3d07180c	0.032981917
114	0x3d7fcded	0.062452246
115	0xbd0e5e8d	-0.03475814
116	0x3a0e93a8	0.00054388726
117	0xbbb2c783	-0.0054559126
118	0x39d98561	0.0004148884
119	0x3c588caf	0.013217135
120	0xbd696b61	-0.05698717
121	0x3cc4cba1	0.02402288
122	0xbd4410cc	-0.04786758
123	0x3ce70625	0.028201172
124	0xbcdd22e6	-0.02699418
125	0x3c00e24f	0.007866456
126	0xbc142e1c	-0.009044196
127	0x3d15ce22	0.036573537
128	0x3d27281d	0.04080974
129	0xbcc7a193	-0.024369037
130	0xbd1f6059	-0.038910244
131	0xbca9c4d4	-0.020723738
132	0x3d4cb1dd	0.04997431
133	0xbae652a4	-0.0017572236
134	0xbd26ee58	-0.040754646
135	0xba895eae	-0.0010480487
136	0xbc26f662	-0.010190578
137	0x3d45099a	0.04810486
138	0xbd782c22	-0.060588963
139	0xbd3cf392	-0.046130724
140	0x3d1a72f5	0.037707288
141	0xbc8af544	-0.016962655
142	0xbd0187fc	-0.031623825
143	0xbaa0db84	-0.0012272452
144	0x3d818c6d	0.06325612
145	0x3d210e7a	0.039320447
146	0x3c7d20f8	0.015449755
147	0xbad60de8	-0.0016331049
148	0xb9ed0132	-0.00045205053
149	0x3caefa5c	0.021359615
150	0xb9183397	-0.00014515068
151	0xbb1a1465	-0.0023510691
152	0x3d011765	0.03151645
153	0x3d733ea5	0.059385914
154	0x3b41eb45	0.0029589694
155	0x3d0a2f41	0.03373647
156	0x3d83ab18	0.06429118
157	0x3d6f130e	0.05836778
158	0x3ca36459	0.01994531
159	0xbd6c206b	-0.057648104
160	0x3c9b48f1	0.01895568
161	0x3b4c373e	0.0031160857
162	0xbd04c79d	-0.03241693
163	0x3c683b57	0.014174304
164	0xbd1f02d3	-0.038821053
165	0xbd6ada5a	-0.057337143
166	0x3cbd8d12	0.023138557
167	0x3d8d905c	0.069123
168	0xbb84b1f2	-0.004049533
169	0x3d17e46a	0.037083067
170	0x3b9098d3	0.0044127493
171	0xbd4af91a	-0.049553968
172	0xbaf53a8c	-0.0018709465
173	0x3b5575a0	0.003257133
174	0x3b433230	0.0029784553
175	0xbd849702	-0.06474115
176	0xbc59d5e0	-0.013295621
177	0xbaf92ccc	-0.0019010543
178	0xbd8f43d8	-0.06995362
179	0x3d6c79c2	0.057733305
180	0x3d4f6618	0.050634474
181	0x3ce749cc	0.028233431
182	0x3d1e7633	0.038686942
183	0x3d80bb3d	0.06285713
184	0xbc990e55	-0.018683592
185	0x3cfacee9	0.03061624
186	0x3cd507e9	0.026004748
187	0x3d268bb1	0.040660564
188	0x3d250b66	0.040294074
189	0x3d88f413	0.066871785
190	0xbbc98f35	-0.006151105
191	0x3bf25472	0.0073953206
192	0x3d917381	0.07102109
193	0xbca501c2	-0.02014244
194	0xbd3e95ca	-0.04652957
195	0xbd0f85e6	-0.035039805
196	0x3b0b2631	0.002123248
197	0x3d42571d	0.04744636
198	0x3d069a65	0.032862086
199	0xb9320c00	-0.00016979873
200	0xbd395bcb	-0.045253556
201	0xbd18f3d9	-0.037341926
202	0x3c3367ef	0.010950073
203	0x3d45483a	0.048164584
204	0xbb24d066	-0.002514863
205	0xba695f17	-0.0008902414
206	0xbd92ce1f	-0.07168221
207	0xbd4379b1	-0.047723476
208	0x3c485ac1	0.012228669
209	0xbd89d386	-0.06729798
210	0xbcdb276c	-0.026752196
211	0x38cdef48	9.819731e-05
212	0x3c194090	0.009353772
213	0xbd104454	-0.035221413
214	0x3d63fa88	0.055658847
215	0x3d50978e	0.050925784
216	0xbccf50b2	-0.025307033
217	0x3d91c99f	0.07118534
218	0x3caaf831	0.0208703
219	0xbba05d00	-0.004893899
220	0x3b050d41	0.002030209
221	0xba87a1a9	-0.0010347861
222	0xbaab540d	-0.0013071314
223	0x3cfaff9f	0.030639468
224	0x3b02eda5	0.0019978073
225	0x3c35028c	0.0110479705
226	0xbd183e31	-0.037168685
227	0x3b3e5fb2	0.0029048738
228	0xbcdc3fcb	-0.026885888
229	0xbd1b7a37	-0.03795835
230	0x3b01355e	0.0019715647
231	0x3b052291	0.0020314793
232	0x3bca16d8	0.006167274
233	0x3d107316	0.035266005
234	0xbd838e23	-0.06423595
235	0xbc9c5dd5	-0.019087711
236	0xbc926cca	-0.01787414
237	0xbbe5246a	-0.0069928663
238	0x3ae5b636	0.0017525617
239	0x3b1d58c6	0.0024009212
240	0xbaa07ef9	-0.0012244872
241	0x3c52f733	0.01287632
242	0x3d7f5f27	0.062346604
243	0xbcc05500	-0.023478031
244	0x3b1d9bf5	0.0024049256
245	0x3d0ca094	0.034332827
246	0xbd5f2834	-0.0544817
247	0xbd904036	-0.07043497
248	0x3d6a5b09	0.057215724
249	0xbca585a0	-0.020205319
250	0xbd43f4b6	-0.047840796
251	0xbd804d97	-0.06264799
252	0xbd911641	-0.07084323
253	0xbd5af550	-0.053456604
254	0xbd8aed97	-0.06783598
255	0xbd17a620	-0.037023664

encoder.gru.bias_hh_l0 f4 [384]
0	0x3a5063ae	0.0007949424
1	0x3bc79ebf	0.006091922
2	0x3c2ea716	0.010659954
3	0xbca9cd26	-0.020727705
4	0xbd361315	-0.04445179
5	0xbd69f131	-0.057114784
6	0x3b13a445	0.0022528332
7	0xbcbd8c34	-0.023138143
8	0xbc605382	-0.013691785
9	0xbc73a247	-0.014870233
10	0x3d5dbf75	0.054137666
11	0xbd2e9410	-0.042621672
12	0x3d4756e7	0.04866686
13	0x3bd48212	0.006485232
14	0xbd859d03	-0.06524088
15	0xbb2f4e03	-0.002674938
16	0x3c87dc17	0.01658444
17	0xbd7dc7e6	-0.061958216
18	0xbd1d99fe	-0.038476937
19	0x3d897291	0.06711305
20	0x3d5bd2ba	0.05366776
21	0xbd957e96	-0.07299535
22	0xbd3ccb72	-0.046092458
23	0xbd81db57	-0.06340664
24	0xbd9364b1	-0.0719694
25	0xbc9a1f4d	-0.018813754
26	0xbd8e8d4b	-0.06960543
27	0x3bb431cf	0.0054991017
28	0x3d49ac94	0.04923685
29	0xbc1fcee7	-0.009753919
30	0x3d2a76e5	0.041617293
31	0xbd846d5d	-0.06466172
32	0xbd0f376d	-0.034964968
33	0x3d17ee11	0.037092272
34	0x3c823f02	0.015899185
35	0xbcc5245d	-0.02406519
36	0x3d14ce24	0.036329404
37	0x3c297887	0.010343677
38	0xbd76e858	-0.060280174
39	0x3ca81fbc	0.020522945
40	0x3d8933eb	0.06699356
41	0xbca02452	-0.019548569
42	0xbd59f2f8	-0.05321023
43	0xbd2e927f	-0.04262018
44	0x3c47e2f6	0.012200108
45	0x3bcb2d93	0.006200501
46	0x3cbe095e	0.023197826
47	0xbd26992c	-0.04067342
48	0xbc1ce7fb	-0.009576793
49	0xbd3d376d	-0.046195436
50	0xbd6f6cbd	-0.05845331
51	0x3b3c6a86	0.0028750016
52	0xbce0f375	-0.02745984
53	0xbd910fcf	-0.070830934
54	0x3d0a9ef8	0.03384301
55	0xbcf60491	-0.030031474
56	0xbd571f0c	-0.052519843
57	0x3d8bf1f6	0.0683326
58	0xbd85f3c3	-0.065406345
59	0xbc091904	-0.008367781
60	0x3d845b24	0.06462696
61	0x3d0b9e9d	0.034086812
62	0x3cb458d3	0.022015011
63	0xbc4bcd60	-0.012439102
64	0x3cbc55da	0.022990156
65	0xbd589013	-0.052871775
66	0xbd57e477	-0.052708115
67	0x3d6566c8	0.056006223
68	0x3b4b22e4	0.0030996138
69	0xbd14af1f	-0.03629982
70	0xbd5b382b	-0.053520363
71	0x3b818dd2	0.003953674
72	0xbbe9ec26	-0.007138747
73	0xbd26ca78	-0.040720433
74	0xbd1d0ae7	-0.038340475
75	0xbca0da9e	-0.019635495
76	0x3d8b9ee1	0.06817413
77	0xbd95df0e	-0.07317935
78	0xbd897a78	-0.06712812
79	0xbb4b372e	-0.0031008231
80	0x3cfdab98	0.030965611
81	0xbd89f5f2	-0.067363635
82	0xbd2d5d96	-0.04232558
83	0x3c49fad8	0.012327872
84	0xbcfad888	-0.030620828
85	0xbc7f6da5	-0.015590106
86	0x3b191424	0.0023357952
87	0xbb8b98d5	-0.0042601624
88	0xbc9b3798	-0.018947408
89	0xbd643e80	-0.055723667
90	0x3d860b3b	0.06545111
91	0xbd94abbd	-0.07259319
92	0xbcda1a2b	-0.026623806
93	0x3cc6686c	0.024219714
94	0x3d6bc8c7	0.057564523
95	0xbc885c31	-0.016645523
96	0xbccec58b	-0.02524068
97	0x3cdd6f77	0.02703069
98	0xbccff039	-0.025383102
99	0x3af8856a	0.0018960659
100	0x3d84e0b3	0.064881705
101	0x3d88db16	0.06682412
102	0x3d1f4d52	0.038892098
103	0xbc25c3eb	-0.010117511
104	0x3d5e7e60	0.05431974
105	0x3d04b9ed	0.032403875
106	0x3c7a12d5	0.015263279
107	0xbcf123de	-0.029436048
108	0xbc669025	-0.014072453
109	0x3d8d02d6	0.068853065
110	0x3adcd647	0.0016848528
111	0xbd6a3700	-0.05718136
112	0x3d52280d	0.051307727
113	0x3cbd3835	0.02309809
114	0xbd0d981c	-0.03456889
115	0x3d64c690	0.055853426
116	0x3d881d12	0.0664617
117	0xbb980299	-0.0046389815
118	0x3d257615	0.040395815
119	0x3c9029e7	0.017598106
120	0xbd816533	-0.0631813
121	0x3c83d8f4	0.016094662
122	0x3d75ae7f	0.059980866
123	0xbd4d23b4	-0.050082877
124	0x3d5b5d63	0.053555857
125	0x3cb9751a	0.022638846
126	0xbb931836	-0.00448897
127	0x3d64af88	0.055831462
128	0x3c61ad38	0.013774209
129	0x3caeca7c	0.021336786
130	0x3d18da91	0.037317816
131	0x3c8a4820	0.016880095
132	0xbd0a0838	-0.033699244
133	0x3b2d711a	0.002646512
134	0xbb170052	-0.0023040962
135	0xbd147453	-0.036243748
136	0x3a41fab3	0.0007399723
137	0x3c83dcf0	0.016096562
138	0x3d29c4ce	0.041447453
139	0x3d36acbc	0.044598326
140	0x3cd1e8a1	0.025623621
141	0xbd474843	-0.0486529
142	0xbad97190	-0.001658963
143	0xbc78e571	-0.015191422
144	0xbd2164ff	-0.039402958
145	0xbc45a754	-0.01206382
146	0x3acafb1d	0.0015486215
147	0x3d748d7d	0.059705246
148	0xbb279edd	-0.0025576868
149	0xbb4c5c80	-0.0031183064
150	0xbca917d3	-0.020641243
151	0x3c8332e6	0.016015481
152	0x3a469111	0.0007574717
153	0xbd6d5683	-0.057943832
154	0xbbf9d356	-0.00762407
155	0x3981f840	0.00024789758
156	0xbb111143	-0.0022135533
157	0x3b06d83a	0.0020575658
158	0xbd5b5760	-0.053550124
159	0x3d308b2e	0.043101482
160	0xbd509192	-0.050920077
161	0xbaa20564	-0.0012361226
162	0xbcaf92f4	-0.021432377
163	0xbcccef74	-0.025016524
164	0xbd4158a3	-0.04720367
165	0x3a9b78c8	0.0011861557
166	0xbac411b8	-0.0014958894
167	0x3d3e1a06	0.046411537
168	0x3cf04076	0.029327612
169	0xbd26f25b	-0.040758472
170	0x3b394c8a	0.002827438
171	0x3cece8eb	0.028919658
172	0x3d55b056	0.05217012
173	0x3c41899f	0.011812597
174	0x3d8b5518	0.0680334
175	0x3ac31805	0.0014884478
176	0x3aee18d2	0.0018165356
177	0xbaf5ba33	-0.0018747508
178	0xbd466ce5	-0.048443694
179	0xbce8b0fd	-0.028404707
180	0xbcb6b216	-0.022301715
181	0xbb301bc2	-0.0026872014
182	0xbbfc2326	-0.0076946197
183	0xbcc0b7fb	-0.023525229
184	0xbaf7a007	-0.0018892296
185	0xbcf38d01	-0.029730322
186	0x3d8d155a	0.06888838
187	0xbd3a4a51	-0.04548103
188	0x3cbc5cf4	0.022993542
189	0xbbaa783c	-0.0052023213
190	0xbb032193	-0.0020009025
191	0x3bb6a52f	0.0055738906
192	0x39da8416	0.00041678612
193	0x3d80a518	0.06281489
194	0x3d3f3442	0.046680696
195	0xbcb8836f	-0.02252361
196	0xbbfa88eb	-0.0076457164
197	0x3b2b6f1c	0.0026158756
198	0xbcf7d4f8	-0.030252919
199	0x3bac2382	0.0052532563
200	0x3d6bcfc4	0.057571188
201	0xbc9a3e1a	-0.01882844
202	0x3d964736	0.07337801
203	0xbd689efb	-0.05679224
204	0x3ba6641f	0.0050778533
205	0xbb0c0003	-0.0021362312
206	0x3cb8a677	0.022540314
207	0x3c92dc52	0.017927323
208	0x3caefcca	0.021360774
209	0x3d94dcb0	0.07268655
210	0x3c44dfee	0.01201628
211	0xbd723404	-0.059131637
212	0x3b36ceec	0.002789433
213	0xbd832219	-0.06402988
214	0xbcfa82cf	-0.030579953
215	0x3d93f88d	0.07225142
216	0xbaf8d7f5	-0.0018985259
217	0x3d3bc33b	0.045840483
218	0x3c78e775	0.015191902
219	0xbc7e47e4	-0.01552007
220	0x3c27134c	0.010197472
221	0xbd05de13	-0.03268249
222	0x3cfa651a	0.030565787
223	0x3cac09c5	0.021000752
224	0xbd8f43c9	-0.06995351
225	0xbd6bd97b	-0.057580452
226	0xbccb92c9	-0.024850266
227	0xbd91ae65	-0.07113341
228	0x3c8fddf3	0.017561888
229	0xbc35ea10	-0.011103168
230	0xbc08d7d7	-0.0083522415
231	0x3c6095a9	0.013707557
232	0xbb47a2df	-0.003046207
233	0x3a93eb33	0.0011285305
234	0xbd14bdff	-0.036314007
235	0x3d583b02	0.05279065
236	0xbd5c323b	-0.05375884
237	0xbd74f8c9	-0.059807573
238	0x3d010210	0.031496108
239	0xbab9056c	-0.0014115996
240	0x3d8b6093	0.068055294
241	0xbae1a13c	-0.0017214189
242	0xbd4344a1	-0.04767287
243	0xbd468a81	-0.04847193
244	0xbd7cabd3	-0.0616873
245	0x3ce3af18	0.027793452
246	0x3cb82d79	0.02248262
247	0xba903e62	-0.001100492
248	0xbd0a4f7c	-0.03376721
249	0xbd539d9f	-0.05166399
250	0xbd926a17	-0.07149141
251	0x3881d0a0	6.190059e-05
252	0x3b12a39b	0.0022375348
253	0xbd665e60	-0.056242347
254	0xbd67196a	-0.05642072
255	0x3d4e2044	0.05032374

encoder.project.0.weight f4 [128, 128]
0	0xbd842dc4	-0.064540416
1	0x3b013d3a	0.0019720332
2	0x3b695336	0.0035602576
3	0xbd9eaf89	-0.077483244
4	0xbd2faf02	-0.04289151
5	0x3d97a713	0.07404914
6	0xbd19cb55	-0.03754743
7	0x3d1ffa6d	0.039057184
8	0xbd82a00c	-0.06378183
9	0xbc390ec4	-0.011295024
10	0xbd0e857a	-0.034795262
11	0x3c84ed37	0.016226394
12	0xbd3fa1f9	-0.04678533
13	0x3d949ff0	0.07257068
14	0xbd891b23	-0.06694629
15	0xbd426ab5	-0.047465045
16	0xbc92ea16	-0.017933886
17	0x3c40f123	0.0117762415
18	0x3d48c17d	0.04901265
19	0xbc4be799	-0.012445354
20	0x3cca4b09	0.024693983
21	0xbd987d1e	-0.07445739
22	0x3d05b5a1	0.032643918
23	0x3c2de658	0.010614
24	0xbd9d2b65	-0.076742925
25	0xb9809c38	-0.00024530455
26	0xbd2c4a3a	-0.042062975
27	0x3cb6e1fe	0.022324558
28	0xbd116a8f	-0.035502013
29	0xbbda7419	-0.006666672
30	0xbd803f76	-0.06262104
31	0xbcdfc6e2	-0.027316514
32	0x3cfacfc1	0.030616643
33	0xbd9002dd	-0.07031796
34	0x3c5b367a	0.013379687
35	0x3d859f5b	0.06524535
36	0x3d027b7d	0.03185605
37	0xbd7e5d84	-0.062100902
38	0xbccbe6c4	-0.024890311
39	0x3d00f925	0.031487603
40	0x3d27f5b1	0.041005794
41	0x3cc7be8d	0.024382854
42	0xbd932b06	-0.071859404
43	0x3d819019	0.063263126
44	0xbce538c0	-0.027981162
45	0xbc24e72a	-0.010064879
46	0xbd856e83	-0.06515219
47	0x3d7e3286	0.0620599
48	0xbd6dfefd	-0.058104504
49	0xbd67a343	-0.056552183
50	0x3d7f8600	0.06238365
51	0xbcf746eb	-0.030185184
52	0xbc9d947b	-0.01923584
53	0x3d06b857	0.032890644
54	0x3c9f91af	0.019478647
55	0x3d3a7d05	0.045529384
56	0xbcfddb95	-0.030988494
57	0x3d94b90a	0.07261856
58	0xbd763e5c	-0.060118064
59	0xbd370ca0	-0.044689775
60	0xbd81a454	-0.06330171
61	0x3d770dae	0.06031578
62	0xbd3ecf6e	-0.04658454
63	0xbce50b85	-0.027959595
64	0xbd83608d	-0.064149
65	0xbc0f19e3	-0.008734199
66	0x3a03fdec	0.0005035091
67	0x3cfb6321	0.030686917
68	0x3c2a8fb7	0.010410241
69	0xbccdc871	-0.025119992
70	0xbcefc01b	-0.029266408
71	0xbd78f9d0	-0.060785115
72	0x3a885c77	0.0010403533
73	0xbd055698	-0.032553285
74	0xbd9c51d1	-0.07632793
75	0x3a4fb884	0.00079239183
76	0x3d09a832	0.03360767
77	0x3d8305ca	0.063975886
78	0xbd6602a4	-0.056154862
79	0x3c98be05	0.018645296
80	0xbccc518a	-0.024941225
81	0xbd4bba31	-0.049738113
82	0xbd1d54df	-0.038411018
83	0x3cf87312	0.030328307
84	0x3d664b30	0.05622405
85	0xbd24d5c2	-0.040242918
86	0xbd5cdf50	-0.053923905
87	0x3d8561a3	0.06512763
88	0xbd10ad9d	-0.03532182
89	0x3c4b7018	0.012416862
90	0xbd96391f	-0.07335114
91	0xbd4b0487	-0.049564864
92	0x3d34a52a	0.044102825
93	0xbd3c3da0	-0.045957208
94	0x3d48ba91	0.04900605
95	0xbd16ac38	-0.036785334
96	0xbd6dd293	-0.058062147
97	0x3c96e8f1	0.018421622
98	0x3c937ee0	0.018004835
99	0x3d04d182	0.032426365
100	0x3cd536b2	0.026027057
101	0xbda1e9be	-0.07905911
102	0x3d7beafa	0.061503388
103	0x3c8a08b4	0.016849853
104	0xbd92ae21	-0.07162119
105	0xbd2c2af8	-0.042033166
106	0xbd0a9f4d	-0.033843327
107	0x3d7b5411	0.06135947
108	0xbd6b24e8	-0.057408243
109	0xbd5c8bb2	-0.05384416
110	0x3d1047c8	0.035224706
111	0x3d8151ca	0.06314428
112	0x3d7d572d	0.061850715
113	0x3d2dab5d	0.042399753
114	0xbd42032a	-0.0473663
115	0x3d9d9f76	0.076964304
116	0x3cfd4cde	0.030920442
117	0xbce7651e	-0.028246459
118	0xbcc6dc09	-0.024274843
119	0xbd1c8d57	-0.03822073
120	0x3c9ba1e4	0.018998094
121	0x3cf2742d	0.029596413
122	0xbd80c3ca	-0.06287344
123	0x3d13d672	0.036093183
124	0x3c28a8d0	0.010294154
125	0xbd3a4581	-0.04547644
126	0xbd950b0e	-0.07277499
127	0xbd45588e	-0.048180155
128	0x3d0ef44f	0.03490096
129	0xbb95a499	-0.0045667407
130	0xbd48f2fe	-0.04905986
131	0xbd93b291	-0.07211793
132	0xbcfe46c4	-0.031039603
133	0xbd86e6ea	-0.06587012
134	0xbc559c43	-0.013037744
135	0xbd0dda86	-0.03463223
136	0xbd1d23ca	-0.03836421
137	0xbce2b5e9	-0.027674632
138	0xbb52612a	-0.0032101371
139	0x3d897d0a	0.067133024
140	0xbd3e6eb5	-0.046492297
141	0x3d93423b	0.07190367
142	0x3d7340c5	0.05938794
143	0x3cd4d66a	0.025981147
144	0x3d37a6ea	0.044836916
145	0xbd0b37f7	-0.03398892
146	0x3cccb75c	0.024989776
147	0x3d6ff4d7	0.058583107
148	0x3c6bf325	0.014401232
149	0x3d12af70	0.03581184
150	0xbd32d3c7	-0.043658998
151	0xbd76e649	-0.06027821
152	0xbc4c73e5	-0.012478803
153	0xbce6c381	-0.028169395
154	0x3d97ee3d	0.07418487
155	0x3d31f1a7	0.04344335
156	0xbcd34ddc	-0.025793962
157	0xbba3082f	-0.004975341
158	0x3d4f915f	0.050675746
159	0x3d33be10	0.04388243
160	0x3ce3e43c	0.027818792
161	0x3c620bfa	0.013796801
162	0x3d4c2a46	0.049845003
163	0x3d7318b6	0.059349738
164	0xbb0f0504	-0.0021823058
165	0xbd6c138f	-0.05763584
166	0xbd16fafa	-0.036860444
167	0xbcbb45c9	-0.022860425
168	0xbd8c67f7	-0.06855767
169	0x3d0fd2ad	0.035113025
170	0x3d8a54d3	0.0675446
171	0x3d0f8285	0.035036582
172	0xbd1e434c	-0.038638398
173	0x3d8f00ad	0.06982551
174	0xbca14ba3	-0.019689387
175	0xbbb324f3	-0.005467051
176	0xbd83502a	-0.064117745
177	0xba5a7e68	-0.0008334876
178	0x3b356419	0.002767807
179	0x3d655f47	0.055999067
180	0xbda40773	-0.08009233
181	0x3d68059e	0.056645982
182	0x3c875126	0.016518187
183	0xbc11cc7f	-0.008898853
184	0x3b0f0c8a	0.0021827542
185	0xbd8d90ae	-0.06912361
186	0x3d3856fb	0.045004826
187	0x3d8aaed4	0.06771627
188	0xbc2c2281	-0.010506273
189	0xbd5f75eb	-0.054555815
190	0x3b7be5b1	0.0038436467
191	0xbd84a1b7	-0.06476157
192	0x3c1f2139	0.009712511
193	0x3c18771b	0.009305741
194	0xbcac464d	-0.021029616
195	0x3be9f63c	0.007139949
196	0xbc686bea	-0.014185885
197	0x3d0775a2	0.033071168
198	0xbd84adb2	-0.06478442
199	0xbca3ee70	-0.020011157
200	0xbcdc4308	-0.026887432
201	0xbd86bfd1	-0.06579555
202	0x3aa999b6	0.0012939486
203	0xbc1847e8	-0.009294488
204	0xbd03861d	-0.032110322
205	0xbaee8bb6	-0.0018199596
206	0x3ca53994	0.020169057
207	0xbcb51ebb	-0.02210938
208	0x3d243ea4	0.0400988
209	0xbc92cfe1	-0.01792139
210	0x3cd55465	0.026041219
211	0xbc69778e	-0.014249695
212	0x3c6b4bd1	0.014361338
213	0xbd110e9a	-0.035414316
214	0x3c2f3570	0.010693893
215	0xbd91e2fe	-0.071233734
216	0xbcd53b5e	-0.026029285
217	0xbd019348	-0.0316346
218	0x3cdfc8c6	0.027317416
219	0xbd05f66a	-0.032705702
220	0x376fdb40	1.4296558e-05
221	0xbce81e92	-0.02833489
222	0x3d67e901	0.056618694
223	0x3b335484	0.0027363608
224	0xbc719cdc	-0.014746871
225	0xbbe6d15e	-0.0070440015
226	0xbd8364f3	-0.06415739
227	0x3d3b9b5e	0.045802467
228	0xbc9dcf83	-0.019263988
229	0xbd1d9643	-0.03847338
230	0x3d26676e	0.040625982
231	0x3d752296	0.059847437
232	0xbd9083dd	-0.07056401
233	0x3d2175c3	0.039418947
234	0xbd96d80f	-0.07365429
235	0x3d11bbc9	0.035579477
236	0xbc5b4835	-0.013383915
237	0xbd3c1e3c	-0.04592727
238	0x3cbc0ae2	0.022954408
239	0xbcd092a1	-0.025460543
240	0x3d7b4ba6	0.06135144
241	0xbc8bdc84	-0.017072923
242	0x3cb5fd48	0.0222155
243	0xbd22b42f	-0.039722618
244	0xbc9189fb	-0.01776599
245	0xbda30a17	-0.07960909
246	0xbcbb1a5c	-0.022839718
247	0xbc14351a	-0.0090458635
248	0x3bc87b3b	0.006118206
249	0x3d425d93	0.04745252
250	0x3cd34004	0.025787361
251	0xbd4f4e93	-0.050612044
252	0x3d332a36	0.043741427
253	0x3d2d1f6d	0.042266298
254	0x3d78fa9a	0.060785867
255	0xbd7c41cf	-0.061586197

encoder.project.0.bias f4 [128]
0	0xbba40ee9	-0.0050066602
1	0xbd6d458a	-0.057927646
2	0xbd17c8ff	-0.03705692
3	0x3d2c0f35	0.04200669
4	0x3c1aa873	0.0094395755
5	0xbc72f3f6	-0.014828673
6	0x3d9fcc2a	0.07802613
7	0xbbdb2f84	-0.006689014
8	0xbd158b55	-0.03650983
9	0x3ced8e27	0.028998448
10	0xbd71957d	-0.058980454
11	0x3c479b6f	0.012183054
12	0xbc7247dc	-0.01478764
13	0x3b8c140c	0.0042748507
14	0xbda48a46	-0.08034186
15	0xbd5e8c89	-0.054333244
16	0x3c53c3e8	0.012925126
17	0x3b8e3465	0.004339742
18	0xbd37afd6	-0.044845425
19	0xbc8cde0d	-0.017195726
20	0xbc717de6	-0.014739489
21	0xbca98928	-0.020695284
22	0xbd85155e	-0.06498216
23	0x3d16d157	0.036820736
24	0xbd6eb869	-0.058281336
25	0xbd5ff131	-0.054673377
26	0xbcb011de	-0.021492895
27	0x3d236e18	0.039899915
28	0x3cefeddc	0.029288225
29	0x3d9dfcf1	0.0771426
30	0x3d9a8c09	0.07546241
31	0x3d6dfdd9	0.058103416
32	0x3d7a89c2	0.061166532
33	0xbd53057b	-0.0515189
34	0x3da46fc9	0.08029134
35	0xbda1f990	-0.079089284
36	0xbd1805fb	-0.03711508
37	0x3cb28336	0.021791082
38	0x3d16933c	0.036761507
39	0x3d139c19	0.03603754
40	0xbd07b5fd	-0.033132542
41	0x3d8f83c8	0.07007557
42	0xbd93f560	-0.07224536
43	0x3c879a75	0.016553143
44	0x3d32180f	0.043479975
45	0xbd033209	-0.03203014
46	0x3bd434e5	0.006476032
47	0xbd252f58	-0.040328354
48	0xbc0aaffc	-0.0084648095
49	0x3c9d5819	0.019207047
50	0x3d622e49	0.055219922
51	0x3d3a6920	0.04551041
52	0x3cbe5482	0.023233656
53	0x3c2f03a2	0.0106820185
54	0xbd981c1d	-0.07427237
55	0xbd75955c	-0.059956893
56	0x3d812209	0.0630532
57	0x3c695bee	0.014243109
58	0xbc29c323	-0.010361466
59	0xbc80f325	-0.01574094
60	0x3c4d3be8	0.01252649
61	0x3c47058a	0.012147317
62	0x3d5de9c4	0.054178014
63	0xbd5bce19	-0.053663347
64	0x3c060ff3	0.0081825135
65	0x3c994290	0.018708497
66	0xbd36a8ef	-0.0445947
67	0x3dceba0f	0.100940816
68	0x3cdcc6c1	0.026950242
69	0xbc491208	-0.012272365
70	0x3c7e9ae5	0.015539859
71	0xbd9ae131	-0.07562483
72	0x3d8b985b	0.06816169
73	0x3c8cacf5	0.017172316
74	0xbc048af8	-0.008089773
75	0xbcef1008	-0.029182449
76	0xbabe6990	-0.001452731
77	0xbd13d79e	-0.0360943
78	0xbcd70400	-0.026247025
79	0x3c39e728	0.011346616
80	0xbd71d928	-0.059044987
81	0xbc901013	-0.01758579
82	0xbd221a1b	-0.039575677
83	0xbd9333ff	-0.07187652
84	0x3c80770e	0.01568177
85	0x3c3fbab1	0.011702226
86	0x3b1f5057	0.002430936
87	0x3da8c5e4	0.0824087
88	0x3d98b1c0	0.07455778
89	0x3bf71cc5	0.0075412714
90	0xbccfe110	-0.025375873
91	0x3c2587a7	0.010103143
92	0xb9e45200	-0.00043548644
93	0x3d696d2c	0.05698888
94	0x3cc6b209	0.024254816
95	0x3c3fe91a	0.011713291
96	0xbd9b7bd7	-0.0759198
97	0x3d2c1083	0.042007934
98	0xbd9656f0	-0.07340801
99	0x3ce5171b	0.02796512
100	0x3d8aa01c	0.0676882
101	0x3c950c52	0.018194351
102	0x3d2d3131	0.04228324
103	0xbd8f7ba0	-0.070060015
104	0x3d3a94fe	0.045552246
105	0x3d22f0cd	0.039780427
106	0xbcef7c87	-0.029234184
107	0x3d2a4bf7	0.041576352
108	0x3db6d057	0.089264564
109	0x3db13bf8	0.08654016
110	0xbd7f98fe	-0.062401764
111	0x3d7ea49a	0.062168695
112	0x3d39cd87	0.04536202
113	0xbc04acd6	-0.008097848
114	0xbc923b5e	-0.017850574
115	0x3d21442b	0.03937165
116	0x3d927df3	0.07152929
117	0xbd7caf66	-0.06169071
118	0xbbca4411	-0.006172665
119	0x3da899f6	0.08232491
120	0x3db7424b	0.08948191
121	0x3941c958	0.0001848092
122	0xbc2b1d77	-0.010444037
123	0xbd0cdd43	-0.0343907
124	0x3b3650ce	0.002781916
125	0xbbf2690e	-0.0073977774
126	0xbcaa3941	-0.020779254
127	0x3cac590f	0.02103856

encoder.project.2.weight f4 [32, 128]
0	0xbd13aa47	-0.03605106
1	0xbc9acc6e	-0.018896308
2	0xbd6d8782	-0.05799056
3	0x3cceb28e	0.025231626
4	0x3c585811	0.01320459
5	0xbd202454	-0.039097145
6	0x3ccc079f	0.024905978
7	0xbd03aea2	-0.032148965
8	0x3d9a1a71	0.075245745
9	0xbd65b56f	-0.05608123
10	0x3c90969a	0.017649937
11	0xbd834255	-0.06409136
12	0x3bf182f1	0.0073703458
13	0xbc5fab2c	-0.01365165
14	0x3d37624b	0.044771474
15	0x3c911ec2	0.017714862
16	0xbbe4e5db	-0.0069854087
17	0xbd44ce0c	-0.048048064
18	0xbd206a4a	-0.039163865
19	0x3d7337df	0.059379455
20	0x3cc0662f	0.023486225
21	0xbd072f1c	-0.03300391
22	0xbd4af0f8	-0.049546212
23	0x3dab7811	0.0837251
24	0xbd33bdb2	-0.04388208
25	0x3d9825fc	0.0742912
26	0xbb80be84	-0.003928961
27	0xbd422f15	-0.047408182
28	0x3d196aa3	0.037455212
29	0x3c21e339	0.009880834
30	0xbb93196d	-0.004489115
31	0xbd5587cd	-0.052131463
32	0x3dc2d8a2	0.09513976
33	0xbd840933	-0.06447067
34	0xbcead113	-0.028664147
35	0x3d6bf086	0.057602428
36	0xbce7b9d3	-0.02828685
37	0x3d1831da	0.037156917
38	0x3dc035c2	0.093852535
39	0x3da39a92	0.07988466
40	0x3d01c8c9	0.031685624
41	0xbd309312	-0.043109007
42	0xbd29b090	-0.04142815
43	0x3d34e5c9	0.044164453
44	0x3d8dac17	0.06917589
45	0x3caf4c41	0.021398665
46	0x3ced0ea8	0.028937653
47	0xbcec8bb4	-0.02887521
48	0xbbe9389a	-0.007117343
49	0xb7ac89a0	-2.0568084e-05
50	0x3dace894	0.08442798
51	0xbb5e7778	-0.003394572
52	0xbd917941	-0.071032055
53	0xbd8aec7d	-0.06783388
54	0xbcc1302e	-0.023582544
55	0x3d76bb2f	0.060237106
56	0xbd94762b	-0.07249101
57	0x3d274813	0.04084022
58	0x3d4129a8	0.047158867
59	0x3d9d18d4	0.07670751
60	0xbd14225a	-0.036165573
61	0x3d459235	0.048235137
62	0x3d0675cd	0.032827187
63	0xbc9291b5	-0.017891744
64	0x3d5a9ca8	0.053372055
65	0x3d92b9a3	0.07164314
66	0x3c224daf	0.0099062165
67	0xbcd07033	-0.025444126
68	0xbd9d4f0f	-0.07681095
69	0x3da14c8d	0.07875929
70	0x3d839559	0.0642497
71	0x3d8e950d	0.06962023
72	0x3c7dc8ae	0.01548974
73	0x3c2a8241	0.0104070315
74	0xbd4ac7ef	-0.049507078
75	0x3c9f9c1a	0.019483615
76	0xbd06cb92	-0.032908984
77	0xbc17ca90	-0.009264603
78	0xbd94ecdf	-0.07271742
79	0xbd94889b	-0.07252618
80	0xbd0f4435	-0.034977157
81	0x3d7ce54d	0.061742116
82	0x3d9b91ad	0.07596145
83	0x3be1d331	0.006891631
84	0x3d37a3b2	0.044833846
85	0xbb8c7dde	-0.0042874655
86	0xbc6806ac	-0.014161747
87	0x3d41d02b	0.047317665
88	0xbc5083d4	-0.012726743
89	0x3cad6b8b	0.021169445
90	0x3d370739	0.044684622
91	0xbd80a5b3	-0.062816046
92	0xbce64a7a	-0.028111685
93	0xbd216858	-0.03940615
94	0x3da96380	0.08270931
95	0x3c8810fd	0.016609663
96	0x3d6984ef	0.05701154
97	0xbd8f549f	-0.06998562
98	0xbd8f9e4f	-0.07012617
99	0xbcba249a	-0.022722531
100	0x3d2b8694	0.04187639
101	0x3c5956db	0.013265337
102	0x3ca5a68f	0.020221023
103	0x3bc1b032	0.0059108967
104	0x3d698e28	0.057020336
105	0x3c6180b6	0.013763597
106	0xbce01df1	-0.027358027
107	0x3d416256	0.04721292
108	0x3db6d020	0.089264154
109	0xbd661f45	-0.056182165
110	0xbd0ceb50	-0.0344041
111	0xbbcb7618	-0.006209146
112	0x3aaa0a19	0.001297298
113	0x3da9f9d0	0.08299601
114	0x3d50a56c	0.05093901
115	0x3d8ba426	0.06818418
116	0xbba5b496	-0.005056928
117	0x3cfee05a	0.031112839
118	0xbc9807f0	-0.018558472
119	0x3daeeb05	0.0854092
120	0xbcac46a7	-0.021029783
121	0xbb69b4fa	-0.003566085
122	0x3b739282	0.0037166183
123	0x3ca2e545	0.019884715
124	0x3d39be0e	0.045347266
125	0xbbc6c6ff	-0.0060662027
126	0xbd2313ed	-0.039813925
127	0x3dad1324	0.084509164
128	0xbd62286e	-0.055214338
129	0xbd264fcc	-0.040603444
130	0x3c178193	0.0092472015
131	0xbc9239f5	-0.017849902
132	0xbd691f47	-0.056914594
133	0xbd141b2a	-0.03615872
134	0xbd1a829f	-0.037722226
135	0xbd9647c6	-0.073379084
136	0x3c8eaf69	0.017417626
137	0x3d7fac6b	0.06242029
138	0xbced02a6	-0.028931927
139	0xbd9684c5	-0.073495425
140	0x3d3fe99d	0.04685365
141	0xbc0efa96	-0.0087267365
142	0x3d85ff6b	0.06542858
143	0xbd64841b	-0.055790048
144	0xbd83399a	-0.06407471
145	0x3ccc69ad	0.024952734
146	0x3bd3dfa4	0.006465869
147	0xbd010800	-0.03150177
148	0xbd58c35d	-0.052920688
149	0xbd5addb9	-0.053434107
150	0xbc0c018b	-0.00854529
151	0xbd111fb6	-0.035430633
152	0xbcb5b26b	-0.022179803
153	0xbc925c03	-0.01786614
154	0xbca4170c	-0.02003052
155	0x3d472ca4	0.048626557
156	0xbd96d408	-0.073646605
157	0x3c467544	0.012112919
158	0x3d70aac8	0.05875662
159	0xbd0c8a9f	-0.034311887
160	0xbd726e64	-0.059187308
161	0xbcf43f72	-0.02981541
162	0xbd810a2e	-0.0630077
163	0x3d85edb9	0.065394826
164	0xbd95be1b	-0.0731165
165	0x3c924ed7	0.01785986
166	0x3d562a10	0.052286208
167	0x3d0a60ea	0.03378383
168	0x3d121a45	0.035669584
169	0xbc09b718	-0.008405469
170	0xbd64a8c7	-0.05582502
171	0x3d16136c	0.036639616
172	0x3cabe0fb	0.020981302
173	0xbd834902	-0.064104095
174	0xbd247c9d	-0.040157903
175	0xbd9646ff	-0.0733776
176	0xbb87eb2e	-0.0041479087
177	0x3d1bfbc2	0.03808189
178	0x3d5c8de5	0.05384626
179	0x3ca091b2	0.019600723
180	0xbd858a2c	-0.06520495
181	0x3d70743c	0.0587046
182	0x3d04ff8c	0.03247027
183	0xbc0055fe	-0.007833002
184	0x3d7b31f7	0.061326947
185	0xbdb02257	-0.086003
186	0xbd0ef8cb	-0.034905236
187	0xbda5e149	-0.0809961
188	0x3c90029d	0.017579371
189	0x3d5c4fdc	0.053787097
190	0xbcb32938	-0.02187024
191	0xbd69d334	-0.057086185
192	0x3d728cd3	0.05921633
193	0xbd813e55	-0.06310717
194	0xbd24b2cf	-0.040209588
195	0xbd9252b8	-0.071446836
196	0xbd9a9b93	-0.07549205
197	0x3d202f7c	0.039107785
198	0xbd8b77b2	-0.068099394
199	0x3d8fb854	0.0701758
200	0x3c2a10bd	0.010379967
201	0xbd462230	-0.048372447
202	0xbc9dbd11	-0.019255193
203	0xbc403772	-0.011731969
204	0xbd89b887	-0.06724649
205	0x3cd2db06	0.025739204
206	0x3b434695	0.002979671
207	0xbc94f330	-0.018182367
208	0xbca35d97	-0.019942088
209	0xbc9ebf3a	-0.019378293
210	0xbbd80ab1	-0.0065930714
211	0x3d4f4956	0.050607048
212	0xbc6c43c8	-0.014420457
213	0xbd989319	-0.07449932
214	0x3d1ed7f4	0.038780168
215	0x3d6dea68	0.058084875
216	0xbcd2746e	-0.025690284
217	0xbdaedda2	-0.08538367
218	0xbcda79f2	-0.026669476
219	0xbb791f6a	-0.003801311
220	0xba013eb1	-0.0004930301
221	0x395e62a5	0.00021208318
222	0xbd64a7db	-0.055824142
223	0xbd7263ca	-0.059177198
224	0x3d92b985	0.07164291
225	0xbda9720c	-0.08273706
226	0x3ccb5de6	0.024825048
227	0xbcf5b2fd	-0.029992575
228	0x3c8e6ea6	0.017386746
229	0xbc441056	-0.011966785
230	0xbdb0cb0f	-0.0863248
231	0x3d72e6d4	0.059302166
232	0x3cfd2828	0.030902937
233	0xba8d3d5c	-0.0010775733
234	0xbc4d3720	-0.01252535
235	0x3d239f9c	0.039947137
236	0x3d910078	0.070801675
237	0xbcf8dc88	-0.030378595
238	0x3b39f672	0.0028375653
239	0x3d9ff558	0.078104675
240	0xbb0345df	-0.002003066
241	0x3b3e7367	0.0029060484
242	0x3b941602	0.004519225
243	0x3ab69010	0.0013928432
244	0xbc2a25ed	-0.010385019
245	0xba1280bc	-0.0005588641
246	0xbcc38fee	-0.023872342
247	0x3c4a1cec	0.012335997
248	0x3c802f88	0.015647665
249	0xbd28d9c6	-0.04122331
250	0xbc3b1b49	-0.0114200795
251	0x3d212c14	0.039348677
252	0xbd3a0411	-0.045414034
253	0xbd8bfe5b	-0.06835624
254	0xbccbcb23	-0.024877137
255	0x3cb7c38a	0.022432107

encoder.project.2.bias f4 [32]
0	0xbd01bbff	-0.031673428
1	0xbd716527	-0.058934357
2	0x3d023621	0.031789903
3	0xbd28a04d	-0.0411685
4	0x3d77f0ca	0.06053237
5	0x3cc2df4f	0.023788122
6	0x3c7b237d	0.015328285
7	0xbd286a67	-0.0411171
8	0xbd86ecd1	-0.06588138
9	0x3c2828ca	0.010263631
10	0xbd87c6b1	-0.06629694
11	0x3daba3c0	0.08380842
12	0x3cc0e051	0.023544462
13	0x3d97dcf3	0.074151896
14	0xbd936ee1	-0.07198883
15	0xbc846153	-0.016159689
16	0xbd7437ee	-0.05962365
17	0x3db4a7f4	0.08821097
18	0xbca28057	-0.019836588
19	0x3ad1153e	0.0015951765
20	0xbdab40c8	-0.083619654
21	0x3d8d2673	0.06892099
22	0x3b7c47ca	0.0038494938
23	0x3c86a7f0	0.0164375
24	0xbdb0d50d	-0.08634386
25	0xbab14cf3	-0.0013526961
26	0x3c07692a	0.008264819
27	0x3baca49b	0.005268646
28	0xbcda1b20	-0.026624262
29	0xbdaacbed	-0.08339677
30	0x3c427222	0.011868032
31	0x3d8c9231	0.06863821
