my_latent_sde/sdes/best_sde_0.pth (torch, 797282 bytes, 32 tensors)

encoder.gru.weight_ih_l0 f4 [384, 2]
00000000: dae6 14bc 4555 bb3d ff51 983d 12be f33d
00000010: 3592 a13d 184d ab3d c211 763d c3e6 21bd
00000020: 3bd4 6e3d 0826 05bc e431 7dbd 0577 823d
00000030: 8bbc b3bd b6e1 88bd 605f 1d3d 1111 a63d
00000040: 7d48 cdbd 5598 a5bd 88a5 a63d 2e14 143d
00000050: 1099 9abc eee5 123d 4a92 42bd e8d1 aa3b
00000060: 3912 523d bcab adbc a8b3 f03c 17cd 53bd
00000070: 915b a3bc ef18 a8bb bd0f 3bbd ef91 ccba
00000080: 9bbe f93c f829 2c3d f0cb 613d e008 0cbc
00000090: 15e1 94bd 62e9 103d d98f 6f3d 94b5 03bd
000000a0: 26fc 143d 554b ff3c e5eb b5bc a989 283b
000000b0: 0011 8fbd 8c1d 34bd 9adf 283d 8368 803d
000000c0: 1abe d4bc 5517 7e3d 78e6 333d a4af 923d
000000d0: 545c 56bd 554c 8dbc 597f 82bd 7d69 f03c
000000e0: 72bd a13d 9f38 b8bc 087c e43d f969 653b
000000f0: 30ba afbc b192 df3d e486 0abd 6d9c 923d
00000100: f0a2 abbc 9df2 c93c 4b51 86bc 3a3f 08bd
00000110: 6358 f83c 15e3 18bd 715e 803d 2e1c a43d
00000120: 225b 543c 3321 f23c a816 26bc f237 883d
00000130: e54c c33b bb8e 793d 4bf5 873d bac7 03bd
00000140: 86d1 1fbd 7be0 cc3d 937f 273c 38e4 563d
00000150: 61f1 fa3c 5792 403d b002 b13d 0ba6 8e3d
00000160: d5b8 9cbd 8f41 9abd 39f3 4d3d b712 963d
00000170: 602d 0fbd 9380 a3bd 3aea 3a3d 30c7 b0bd
00000180: 42e4 95bd 79d1 6abb 3a2c 813d 7f8a 353b
00000190: 8ec3 433d 312d 99bd 62d8 a4bc e468 663c
000001a0: cf93 e9bc b3a4 36bd 54ad 85bd 6f5b e5bc
000001b0: 5faa ad3d 0b8e 813d 6685 5dbd bc75 8ebd
000001c0: 3293 4b3d a2b4 b33d d816 3cbb 758d 533d
000001d0: c82d a03d 606b 293d 4589 a23a 0cc9 7abd
000001e0: a513 55bc c652 1b3d 24ff f33c 3fd8 d83b
000001f0: 5d37 7c3d 83be dcbc d3b2 1dbd 8afb 663c
00000200: 4f68 4fbc 81d9 6b3d 2831 59bd 260b a5bc
00000210: ed71 b8bd 457e 50bd a2b8 bf3d 3721 8b3d
00000220: db52 373d 11e5 2fbd 4185 2abd d675 99bd
00000230: e1c3 cebb 8964 813d b536 443d 88f7 323d
00000240: 85e8 2a3d de01 dfbd a911 433d 8c86 77bc
00000250: df65 e83d becf 513b 6ba4 d63c 00a7 123d
00000260: e393 61bd ee4a 813d b642 44bd 7ff0 923d
00000270: 4589 853d bc57 873c 350c 653c ea45 67bd
00000280: 23d5 743d 9609 79bd 04f6 053e 0001 003d
00000290: a384 d93c 4643 5e3d 91cc 4b3c 681f 1b3d
000002a0: 3ccf 873d 0847 a13d 7e13 b33d 986a dc3d
000002b0: d588 5cbd e2fb 19bd cec0 4ebd fb5e 94bd
000002c0: 262d 713d c56f c6bc d47c af3c ff05 68bc
000002d0: b532 763c 463c 9c3d c569 6a3d 9238 723d
000002e0: e5be b5bd 231e b538 ae37 60bd 9f8c 963d
000002f0: 5d8c ab3d 3d02 ac3d 469f 173c 7c0b 4abd
00000300: 8987 863d 6211 0a3d 50aa a93d 35aa 783d
00000310: 7811 a13d 4bee 9b3d b2b4 b43d daeb a0bd
00000320: da30 373d b723 403d e8f0 c23d 822b 9e3d
00000330: fd3b 11bd 5b10 b03c a360 6abd 1f25 083c
00000340: 0d59 213d 09a5 8dbd 6994 113d a76a c9ba
00000350: a6bb ad3d ac10 883d 84f9 4ebd 74d2 86bd
00000360: 3538 eb3d 9577 58bd 031c a43d fc55 323d
00000370: d8d2 693d bfcc adbd f660 42bd d0e7 863c
00000380: 3005 80bd 66f9 c0bc 00cf 04bd 3d79 0f3d
00000390: 5ff0 c1bd 7672 8cbd 901a 033d 8919 7ebc
000003a0: ad2a b23d 3e70 58bc d39b aabd df33 51bd
000003b0: b151 68bd 90f9 6abd eb11 763d cdf8 55bd
000003c0: 29f2 54bd 9e39 8fbd 81bb 4bbd bca4 773c
000003d0: d211 6dbd b093 99bd e36e 513d 6fa2 3fbd
000003e0: 6ace 853d 14ef c23d 666a 6a3d 228a 1abd
000003f0: b37d 3a3d de2b 51bc d9dc c93d aae9 c63c
-0.009088242 0.09147123 0.074375145 0.119014874 0.07889215 0.08364314 0.06007553 -0.039526712
0.058307867 -0.008126743 -0.061815158 0.063703574 -0.08776196 -0.06683676 0.038421035 0.08108724
-0.10023592 -0.08085696 0.08137041 0.036152057 -0.018871814 0.03586381 -0.047502793 0.005213011
0.05128691 -0.021200053 0.029382542 -0.05170926 -0.019941123 -0.0051299254 -0.045669306 -0.0015607456
0.030486396 0.042032212 0.05512613 -0.008547038 -0.072694935 0.03537882 0.058486793 -0.03215559
0.03637328 0.03116385 -0.02220721 0.0025716817 -0.06985664 -0.04397349 0.041228868 0.06269934
-0.025969554 0.06203397 0.043920964 0.07162407 -0.052334145 -0.017248312 -0.06371946 0.029347176
0.07897462 -0.022487937 0.111564696 0.0035005792 -0.021451086 0.10916651 -0.033820048 0.07158742
-0.020951718 0.02465182 -0.016396185 -0.033263423 0.030315584 -0.037325937 0.06268013 0.08013187
0.012961181 0.029556846 -0.010137238 0.06651296 0.0059600943 0.060927134 0.06638583 -0.032172896
-0.039018176 0.10003754 0.010223287 0.05246374 0.030632677 0.04701456 0.08643091 0.06965264
-0.076524414 -0.075320356 0.050280783 0.07327788 -0.034955382 -0.07983508 0.045633532 -0.08631742
-0.07318927 -0.0035830422 0.06307264 0.0027700958 0.047793917 -0.07479323 -0.02012271 0.014063094
-0.028512863 -0.044590663 -0.065272 -0.0279977 0.08479761 0.06325921 -0.054082297 -0.0695605
0.049700923 0.08774687 -0.002870014 0.051648576 0.07821232 0.041362166 0.0012400529 -0.06122689
-0.013005172 0.037920736 0.029784746 0.0066175754 0.061576236 -0.026946312 -0.03850062 0.0140980575
-0.012659146 0.057580475 -0.053025395 -0.020146918 -0.090061046 -0.05090167 0.09361388 0.067934446
0.04475675 -0.042943064 -0.041630987 -0.074931785 -0.0063099717 0.06318004 0.047903735 0.043693095
0.041725654 -0.10889028 0.047624264 -0.015107762 0.11347555 0.0032014693 0.026201447 0.035803795
-0.055072676 0.0631312 -0.047915183 0.07174777 0.06520323 0.016521327 0.013979961 -0.05646316
0.059773576 -0.060800157 0.13082129 0.031250954 0.026552504 0.054263376 0.012438909 0.03787175
0.06631324 0.07874876 0.08743952 0.10762519 -0.05384143 -0.03759373 -0.05047684 -0.072446786
0.058880948 -0.024223218 0.021421827 -0.014161586 0.015026738 0.07628684 0.057229776 0.05913598
-0.08874301 8.636366e-05 -0.0547406 0.0735104 0.083763815 0.083988644 0.009254282 -0.04932736
0.0656882 0.033707984 0.08284438 0.060709197 0.0786466 0.0761381 0.088235274 -0.07857485
0.044724323 0.04690906 0.095186055 0.07723142 -0.0354576 0.021492174 -0.057221066 0.008309632
0.039391566 -0.069162436 0.035541926 -0.0015366868 0.08483057 0.06643805 -0.050530925 -0.065831095
0.1148533 -0.052848417 0.08013155 0.043539032 0.057085842 -0.08486318 -0.04745575 0.016467959
-0.062509894 -0.023556422 -0.032423973 0.03502773 -0.09469675 -0.06857769 0.032007754 -0.015509018
0.08699546 -0.013210354 -0.08330502 -0.05107486 -0.056718532 -0.057366908 0.06007568 -0.052239228
-0.051988754 -0.069934115 -0.049739365 0.015114959 -0.057878323 -0.07498872 0.05113114 -0.046785768
0.06533511 0.09518257 0.057230376 -0.03772939 0.045530032 -0.012766806 0.098565765 0.024281342

encoder.gru.weight_hh_l0 f4 [384, 128]
00000000: 0256 613d ef48 68bd fa53 a13d 00a5 dfbb
00000010: f5c2 8d3d b2fd df3d e320 3cbd bbd4 34bc
00000020: e298 853d d37c e1bc 8fdb 6d3d 39cd d43c
00000030: d1dc bebc d6a0 473b 4852 6f3b 0ee0 043d
00000040: f401 bcbd aa35 103d d611 a1bc 2136 ab3c
00000050: ed8c 353d ad1c 193d 67e6 78bd 7006 8d3a
00000060: 44cb 2a3d d823 c03c 63b1 aa3d 0243 b5bc
00000070: 70d6 16bd 8deb 58bd ee29 433d cb4a 6b3d
00000080: 7506 8cbd 323f 583c a640 b13d e402 2d3c
00000090: 7b94 a93c 38ed 1cbd 8593 04bc 8b71 2cbd
000000a0: b24d 70bd 9190 e9bb e14f 6cbd 4887 83bc
000000b0: 451f 4c3d 876e 68bc 4c03 18bd 70bc f9bb
000000c0: 6719 1cbd 46f6 f2bc 1326 383d 3b9d c63d
000000d0: 9ec4 8b3d 3655 09bd 4411 993d f407 d33c
000000e0: 03b9 5f3d ad33 343d 8e3c ce3c 3481 53bd
000000f0: 60bf 333a 8bea febb 2e0b 4c3d 6d78 8b3d
00000100: 52e6 a43c 8509 38bb 43f7 50bb ee5d c53b
00000110: 1ab3 febc 36fa 62bd 2402 5fbc b59a 46bd
00000120: e04c 89bd 6b4c e63c 71c8 e6bc b974 3b3d
00000130: 19b9 e03c fbb6 2c3d 9d09 02bd 31ae a83d
00000140: 16eb fdbb 221b b7bd df84 953d 7106 573d
00000150: ee26 01bd 1fc9 803d 30a5 993d 28aa 8c3c
00000160: 410e e3bc 638c 0bbc 0f0d b83c 93fc b03d
00000170: 3a59 c1bd 69c5 343d e94b adbd e829 113c
00000180: 7e00 5abc 487c 1c3d 62f9 22bc c364 073d
00000190: 2d60 393d a183 e63b e4c4 69bc 9e10 063d
000001a0: 4408 fc3b a780 02bd 6d59 88ba cbac ba3c
000001b0: 93ef fa3b b21a 6c3c 8de5 50bd 804e 85bd
000001c0: 6537 163c fec8 8a3d 57ee bc3d 3614 8b3d
000001d0: 0166 cfbd ade6 5e3b 9202 f43c 1ea3 8c3c
000001e0: 767f ea3c 5916 ffbc ac96 053d b4db e43c
000001f0: c4dc b33d 3c20 053d 4a0d c23d fe3f c2bc
00000200: 2921 06bc 1038 0abd 340f a13d 0f28 37bc
00000210: 07a0 523d d6f2 d43b 56fc 8ebd f3a6 34bd
00000220: 2e66 793d 9f79 85bc d1d2 0a3d 6471 493c
00000230: 2ab4 8d3d 5c7c fdbc e1c9 23bc 54bc f2bb
00000240: cab2 5ebc 44ef e2bc a9f9 943d ac4b 96bd
00000250: 9af6 e639 27ae 61bd e788 8dbb 2561 43bd
00000260: 6454 ccbc 685b 50bd bde2 1d3d 66b1 b43c
00000270: c096 2b3c 2cbb f23c 4e6a ab3a 636e 4abc
00000280: 299b 223d 2bbf e63c 6c01 24bd c0e8 e03c
00000290: e2e8 6dbd 08a7 24bd 8e8e 023d 981f 36bc
000002a0: 472d aabd b460 62bc 9579 a13d 9212 813b
000002b0: 13d9 043d bf7e cabc 86b0 78bc 40b4 4fbd
000002c0: 4420 9e3b b24b c23c 3348 6abd c78c 2f3c
000002d0: 4ad9 0c3d a79f a2bd 1af3 643d 6e6d 683c
000002e0: aca4 b03d 6bab ba3d 8fe1 0e3d 38db c53c
000002f0: 970f 4f3d 8961 c1bc 5b6e 953d f9fd 4b3d
00000300: 4c46 ddbc fbd0 dd3c 58a5 23bd f054 c9bc
00000310: 33b8 46bd be43 a83d cef3 11bd a071 753c
00000320: ded9 8b3d c00a 93ba 506e c83b 0f9b 15bd
00000330: eb60 023c 7669 33bd 65fd 1bbd 35ef 8a3d
00000340: 517f b13d d9ac f73c 7735 1abd 4961 bb3c
00000350: 64de bb3c f0a8 213d 3acf 183d 56e3 07bd
00000360: ce28 5fbd 2a72 233d f86d 87bc 552f c83c
00000370: ff91 29bd f44f 95bd a4c6 85bc bde3 62bd
00000380: 2218 2c3d dc8c b9bc dbc1 b23d 52bb 9e3d
00000390: 8747 0dbb 51b6 85bc d890 433d 720d 043d
000003a0: b7c1 343d 1e43 a33c 4278 f03c afe4 8dbc
000003b0: 20f8 11bd f405 2ebd ceb1 a7bd 4d4f 1c3c
000003c0: 6d7b 71bd 2648 4c3d c8f9 c43c 9e71 52bd
000003d0: 5bd3 29bc 5e26 a43d 1409 cbbd 9f4a 863c
000003e0: 0085 c4bc 1380 78ba c3ac b1bc c5e0 d2bc
000003f0: c488 38bd aa9b 73ba ccd0 d33b 9d7f 283c
0.055013664 -0.05671018 0.078773454 -0.0068250895 0.06921951 0.109370604 -0.0459298 -0.011037047
0.06523301 -0.027525341 0.058070716 0.025976764 -0.023298653 0.0030460856 0.003651755 0.032440238
-0.0918006 0.035207428 -0.019661825 0.020899834 0.04432385 0.037380863 -0.060766604 0.0010759365
0.041697755 0.023454592 0.08334615 -0.022126678 -0.036825597 -0.052959014 0.04764741 0.057444375
-0.06837169 0.013198661 0.08654909 0.010559771 0.020700684 -0.038312167 -0.008091812 -0.04210047
-0.058667846 -0.0071278294 -0.057693366 -0.016055718 0.04983451 -0.014186508 -0.03711252 -0.0076213405
-0.038110163 -0.029658448 0.044958185 0.09697958 0.06824611 -0.03352853 0.07473996 0.025760628
0.0546198 0.043994594 0.02517536 -0.05163689 0.0006856825 -0.0077794245 0.04981535 0.06810079
0.020129357 -0.0028081846 -0.003188566 0.00602316 -0.031091262 -0.0554144 -0.01361135 -0.048487384
-0.06704116 0.02811261 -0.02817175 0.045765612 0.027432011 0.04216669 -0.03174745 0.082363494
-0.0077489717 -0.08940722 0.07300734 0.052496377 -0.031531267 0.06288361 0.0750221 0.01717098
-0.027716758 -0.0085173575 0.022467164 0.08641925 -0.09440847 0.044133577 -0.08461744 0.008860089
-0.013305781 0.03820446 -0.009947153 0.03305508 0.045257736 0.0070347344 -0.014268134 0.03273069
0.007691415 -0.031860974 -0.0010402628 0.022787472 0.007657954 0.0144106615 -0.051000167 -0.06509113
0.0091684805 0.067766175 0.09225147 0.06790964 -0.101268776 0.0034012005 0.029786382 0.017167624
0.028625231 -0.031138586 0.032614395 0.027936794 0.08782342 0.032501444 0.09475191 -0.023712154
-0.008186617 -0.03374487 0.07864228 -0.011178984 0.051422145 0.006498675 -0.06981723 -0.044104528
0.06088846 -0.016293345 0.033892456 0.012295101 0.06919129 -0.030943088 -0.009996862 -0.0074077044
-0.013592431 -0.027701981 0.072741814 -0.07338652 0.0004405275 -0.055097725 -0.0043192985 -0.047700066
-0.024942584 -0.05086842 0.038546313 0.022057246 0.010472953 0.029630266 0.0013077946 -0.01235542
0.039698754 0.028167328 -0.04004042 0.027454734 -0.058083422 -0.040198356 0.031874232 -0.011115931
-0.08309417 -0.013817001 0.07884518 0.0039389813 0.03243358 -0.02471864 -0.015178805 -0.05070901
0.0048256237 0.023717735 -0.05719776 0.010714716 0.03438691 -0.079406075 0.055895902 0.014186246
0.08625159 0.09114727 0.03488308 0.024152383 0.050551977 -0.023606079 0.07296439 0.049802754
-0.02701106 0.027077189 -0.039952606 -0.024576634 -0.04851551 0.08216046 -0.0356329 0.014980704
0.06828664 -0.0011218414 0.006116666 -0.03652483 0.007957677 -0.043801747 -0.038083453 0.06783906
0.08666862 0.030233787 -0.037648644 0.022873538 0.022933193 0.039467752 0.037307 -0.03317579
-0.054482274 0.039903797 -0.01653193 0.024436632 -0.041399 -0.072906405 -0.01633007 -0.05539297
0.042015202 -0.022650175 0.08728381 0.07750572 -0.0021557526 -0.016322287 0.047745556 0.032239385
0.044130053 0.019929465 0.029354218 -0.017320959 -0.03563702 -0.042486146 -0.081882104 0.009540391
-0.0589556 0.049873494 0.024044886 -0.051377885 -0.0103653325 0.080151305 -0.09913841 0.016393004
-0.0239892 -0.0009479534 -0.021688825 -0.025741944 -0.045052305 -0.000929291 0.0064640995 0.010284332

encoder.gru.bias_ih_l0 f4 [384]
00000000: 038a 8dbd 10a7 bc3c 1abd 273d 8782 42bb
00000010: fea2 903d f405 3f3d 1cda 94bd 2201 c03b
00000020: 1596 b63d 1425 ad3d 74f6 34bc aa26 8f3d
00000030: 2672 843d 1e64 5a3d 873e e03d 70f7 74bd
00000040: fe08 903c f8be 363c 47e2 25bc 74db 823d
00000050: 5b60 a73c 6c99 113d dc66 26bd 4487 e23c
00000060: ff11 363c 463b 123c 46dc 8d3d fb9a 6ebd
00000070: 4674 40bd d385 cabb 6f21 5ebc e9c5 debb
00000080: f224 523c 8255 483c 98b8 8fbd 96ee 9bbd
00000090: 16b5 013d 5aa9 5ebc 91f4 493d f36b 14bd
000000a0: 9391 b439 ef6f 9f3b dbc1 22bc 7594 abbb
000000b0: b353 00bd b530 82bd ba1b 44ba 30b6 0d3d
000000c0: 0658 58bd acbb 75bd 2ae8 953c d8cb f9bc
000000d0: 2d7d aebc f193 953c 7d06 3a3d 79bb 9fbc
000000e0: 8353 713d f963 733d 5617 243d b6ad 053d
000000f0: 0ba2 bd3d ce9f ce3a 73c9 67bd 299e 9b3d
00000100: 97b8 3e3d ef07 dabc 986f 1bbc 682c bbbc
00000110: 6550 45bd 474b 903d 60f8 863d 525b 883d
00000120: 9568 b7bc c420 0c3b 32f0 eabc df36 70bc
00000130: 906b 3dbc 040b c8bc 76b4 913d 3631 ad3b
00000140: ab16 81bd 5aab ea3c 65e7 3b3d 6347 a43d
00000150: c5aa 2a3d be95 febc 8bc5 6d3d 8544 5fba
00000160: 84cb 813d 3758 1cbd 4786 da3d ad09 85bd
00000170: 5e7d cebc 337e 443c fe99 723d 1ae7 25bd
00000180: f601 4f3d 1510 0e3c f1d5 4c3d c34d e53c
00000190: fa0e 34bd c723 bdbd 8da0 8f3a c08e 383b
000001a0: 64a5 9d3d c956 703d 4edb d73c 6f75 92bd
000001b0: 5608 a43d c935 0b3a 999a 08bd b46a 9aba
000001c0: dd4a 0a3d ce6a 8bba dea1 303d eef3 52bd
000001d0: 4a09 993d 0e5b 3bbd 2891 a63d e8c7 683d
000001e0: 7734 f2bb 4387 06bd 147b ea3c 9366 463d
000001f0: ef72 303d 963b 40bd fa8b 513d 7888 633b
00000200: ba4e 043d ebcb e93d 3e1e 31b9 7a84 273e
00000210: 99db 2d3e 4f51 2b3d cd7d 433d d504 5f3d
00000220: c09a 2b3e 548e 0f3e 0fca d53d 8664 d73d
00000230: 1670 493d 80c4 fa3d cf7d 31bb 525e a33d
00000240: 2e7f 613d 074e 1c3e 664f f03d 45c7 bc3d
00000250: 8996 243d b0be 553d b86e 123e 8b7a 5b3a
00000260: c4a1 043e e87d b93d d8b3 7e3c d344 8f3d
00000270: c3ee 723d 3721 9e3d d960 1f3e 67f0 11bb
00000280: 5c27 c03d ae86 903d e7eb 203e e717 733d
00000290: a90b 823c b892 813d 5ebb 2d3e 6c64 933d
000002a0: b011 f53d 7c79 083e baf0 0d3e 640f 0c3e
000002b0: c766 aa3d 9e22 da3d 609e 983d 05f4 02bc
000002c0: 7bfb 3b3e cb3b 0f3d 4909 4a3d 4dba 8e3d
000002d0: f6a3 db3d a927 113e 6f1d 1d3e 2e7c 573d
000002e0: bec4 c13d 902e 393e b785 0c3d 761c e33c
000002f0: 8a3e 903d 011b 913d 1f14 523e 160f d83d
00000300: 7e73 1f3e ea3d a03c 7c57 e83c c101 043e
00000310: e709 2f3e 0046 d93d beb6 b23d 5805 6f3d
00000320: a3c4 9a3d 1bae 8a3d 72e9 1d3e e3bf b43c
00000330: b631 2f3d 2b71 cb3d 08eb 0a3e 4c8b c33d
00000340: b90b 2b3e d1a3 c13d b34d 8b3d 4f32 053e
00000350: 3e31 4f3e 7ac4 263e 7435 de3d 747d 0e3e
00000360: d827 e53d ca4d 113e fb2e ef3d 90f4 e63d
00000370: 0e5a fc3d 42ff b63d 199a 263d 744c 2d3d
00000380: 3b7b a33c 2a09 613d fb7d 3f3d 8fa9 fa3d
00000390: 49bc f03c 628f ca3d 2307 b83d decd 193e
000003a0: 897f 1a3e a244 fe3d a960 943d 0438 2f3e
000003b0: 4c39 013e 1b56 e83d 80d9 2f3e 448c b93d
000003c0: 94e5 903d 5bf2 12bc dfaa 46bd c146 093e
000003d0: caf3 6a3d 3a02 fe3d 9172 c03d 2cac 063c
000003e0: 1b9c 453d c86a fb3d b135 fd3d 805f 0f3d
000003f0: 17a4 293d 05d4 df3d 340d 363e 0c28 e23d
-0.06911089 0.02302888 0.040951826 -0.002967985 0.07062338 0.046636537 -0.072681636 0.00585951
0.089153446 0.08454338 -0.011045087 0.069897965 0.064670846 0.053318135 0.10949426 -0.059806287
0.017582413 0.011153929 -0.0101247495 0.063895136 0.020431688 0.035546705 -0.040625438 0.02765239
0.011112689 0.008925265 0.069267794 -0.05825327 -0.046985887 -0.006180504 -0.013557776 -0.006798495
0.012826191 0.012227418 -0.0701763 -0.07613866 0.031666838 -0.013590181 0.049305502 -0.03623576
0.00034440737 0.0048656384 -0.009933914 -0.0052362033 -0.03132982 -0.063569464 -0.0007480938 0.034597576
-0.05281832 -0.05999343 0.018299181 -0.030492708 -0.021299923 0.01825902 0.045416344 -0.019498574
0.058917534 0.059421513 0.040061317 0.032636367 0.09259423 0.0015764178 -0.0565886 0.07598526
0.046562757 -0.026615111 -0.009487055 -0.022848323 -0.048172373 0.07045608 0.065903425 0.06658043
-0.022388736 0.0021381835 -0.028678987 -0.01466152 -0.011561289 -0.024419315 0.07114498 0.0052854074
-0.06303152 0.02864616 0.045874972 0.080214284 0.041666765 -0.031077262 0.05804972 -0.0008516985
0.06337646 -0.038170066 0.106701426 -0.06495986 -0.025206264 0.011992979 0.05922889 -0.0405036
0.05053898 0.008670826 0.050008718 0.027991181 -0.043959595 -0.092353396 0.0010957882 0.0028161258
0.076975614 0.058676515 0.02634969 -0.07151305 0.080094025 0.0005310444 -0.03335056 -0.0011781068
0.0337628 -0.0010636689 0.04312312 -0.05150216 0.07472475 -0.045741133 0.08133155 0.05683127
-0.007391508 -0.03284384 0.028623141 0.048437666 0.04307836 -0.046931826 0.051158883 0.0034718793
0.032301642 0.114158474 -0.00016891301 0.1635913 0.16978301 0.04182559 0.047727395 0.054447968
0.16758251 0.14019138 0.1043893 0.1051722 0.04917916 0.12244511 -0.0027083044 0.079769745
0.05505293 0.1526414 0.11733894 0.09217695 0.040182624 0.052183807 0.14300048 0.00083724473
0.12952334 0.09057218 0.015545808 0.06995549 0.059309732 0.07721179 0.15564288 -0.0022268535
0.09382507 0.07056938 0.1571499 0.059348967 0.0158747 0.063268125 0.16966006 0.07196888
0.11966264 0.13327593 0.13861361 0.13677746 0.083203845 0.10651134 0.07452083 -0.007992749
0.18357651 0.034969132 0.04932526 0.06969128 0.107246324 0.14175285 0.1534326 0.05260866
0.09461354 0.18084168 0.034307208 0.027723532 0.070431784 0.07085229 0.20515488 0.105497524
0.155714 0.019560773 0.028362028 0.12891294 0.17093621 0.106090546 0.087262616 0.058354706
0.07557037 0.06771489 0.15421084 0.022064155 0.042772017 0.099336945 0.1356622 0.09548053
0.1670369 0.094550736 0.06801929 0.13007472 0.20233628 0.16285887 0.10850039 0.13915044
0.1118924 0.1418983 0.11678883 0.11277115 0.12321864 0.08935405 0.040674303 0.04230924
0.019956222 0.05494038 0.046751004 0.12239372 0.029386656 0.09890629 0.08985736 0.15019938
0.15087713 0.124154344 0.07244999 0.17111212 0.12619513 0.11344548 0.17172813 0.09059957
0.070750386 -0.008968915 -0.0485028 0.13405897 0.0573614 0.124027684 0.09396852 0.00821976
0.048244577 0.12276226 0.123637564 0.035003185 0.041416254 0.109291114 0.17778474 0.110427946

encoder.gru.bias_hh_l0 f4 [384]
00000000: a1c8 d8bc 3961 66bd f04b db3b 9b4e 2c3d
00000010: 12f2 59bd c632 b93d 8950 d43b 9d25 dbbc
00000020: 6440 9c3d 1785 f4bc e331 c3bd 9958 a33d
00000030: 3d42 96bd d5d8 80bd 2e1f a43d 4fef 8f3d
00000040: 7f62 943d 7f52 75bc 7e31 5bbd bc76 253c
00000050: 7d23 ce3d 8024 8d3d 5184 5c3d 5c9f c4bd
00000060: 4918 eabc 47e3 e9bc 3b3e 60bd 7e64 c2bb
00000070: 4fc2 183d f94d 403d 5e66 7e3d 2e24 84bd
00000080: 18d3 d13c f82b 60bd 381a f63c 3023 c6bc
00000090: baef bb3b 1403 88bd 1410 8ebc 061f 8bbd
000000a0: d0ea 253d 7b20 40bd 60c9 893c b538 80bb
000000b0: aa68 df3d 651f a43d aea5 8d3d cdf9 8c3d
000000c0: 530e a33d c19c 0e3d 1c06 a5bd 6595 21bc
000000d0: af4c 4fbd d527 9f3d d926 953d 4021 9c3c
000000e0: f54b 963d 7f50 87bc 9df1 56bd 2c72 0abc
000000f0: c273 7dbd 42c5 573d 56dc 40bd 4af9 843d
00000100: 3b08 3b3d 9f3a 63bc ae9e 99bb 5e2c 663c
00000110: 4224 743d 0d39 ba3d 83ae 42bd f03c e73c
00000120: e3c8 3bbd 6abc 463d 6a17 e1bc 9665 943d
00000130: 81e2 a13c d81e 72bd fb56 453c 4589 aebc
00000140: f61a 78bb 7e22 adbd 35cb 883d e375 d13c
00000150: 3829 7d3d 4dd9 203d fea2 fabc 5064 b13c
00000160: 260a 3c3d a73c 313d 42d9 1dbd bfda 30bc
00000170: 9b62 5ebd 3e66 81bd b680 cb3d 9411 923d
00000180: 9f16 6fbd 821a 603c d6ec aebc 91eb 893c
00000190: fb1d 4fbd ec8c 353c 7d4b b63c 926b 4c3d
000001a0: 1249 413d 5032 8b3c 2f86 923d 2255 103c
000001b0: 5c39 03bd c514 cf3c b723 92bb 8bc5 b53a
000001c0: f159 dfbc 7184 a2bd 60ca 3abc 706a 47bb
000001d0: e6ab 873d ef1e bb3c 572f ecbc c636 263d
000001e0: c430 203d 047e b2bc ae29 6a3d 2462 653c
000001f0: 479f a8bd af02 42bd e039 883b 9261 a43d
00000200: 5ae7 973d fa28 2e3c d39f 3c3d 7942 d83d
00000210: a913 d83d 778d 843d 8b0b ec3d a917 003e
00000220: bd1d ab3d ee72 013e 321b b33d 39f2 da3d
00000230: 2355 f83d 4080 d83d a6a3 e8bb 2db0 b63d
00000240: 5204 d93d 07c6 813d 28bc b93d fb52 283e
00000250: 3ef1 0e3d 81d6 f13d 8abd 483d 2be5 8c3b
00000260: c409 cd3d f70a 8d3c 87b4 273d 59dd 2e3d
00000270: 908e fd3d 70b6 803d 6a27 093e 26a3 413d
00000280: a597 033e 1250 293e 89e2 d53d c8eb 743c
00000290: c584 ad3d 14de 903d 231f 3c3e a80f b73c
000002a0: d4e7 153e ed07 fd3d cbc4 483d aa78 a93d
000002b0: ef24 ec3d 2ecd c83d eba4 c83d bc5e 793b
000002c0: 501a 323e 1e3b 9c3d 7142 073e 1219 be3d
000002d0: e648 043e c742 d53d bf34 023e 9091 3f3c
000002e0: e5b3 b73d 2f54 063e 5edb 2a3c ed1a 123d
000002f0: 5517 443d 495f 193d 5c47 263e 59cb a9bb
00000300: 218e 8c3d 01b7 983d b53a f73d 5a3b fd3d
00000310: 10ea e03d 8136 423d 34a9 903d 4209 723d
00000320: 9d78 993d cffe d83d 2e18 0d3e 3dad c63b
00000330: 164e de3d 5a59 ec3d f0cd 5c3d e8cd 173d
00000340: ce48 043e 1daf 103e 6733 2e3e 3f9a eb3d
00000350: d1fb 613e 4223 083e b325 a33d c1d2 963d
00000360: 6844 113e 5367 ae3d 6d56 863d 5bf8 1e3e
00000370: bfcb e03d 6201 843d 7fc7 d63d 1cb8 9f3b
00000380: 9f8b ac3c 3c16 123c 93f7 313d 4e60 0d3e
00000390: 981b 063c 99b5 793d 0b0f a03c e88d 103e
000003a0: 9b7f 1f3d fca4 b73c 05ca f53d 6a48 dc3d
000003b0: 8aa3 203e 1ce6 333d 52c3 413e 11ad 2b3e
000003c0: 229b 2f3e 0260 ec3d f0fa 763d 5f83 4d3e
000003d0: 47fc 1d3d 4dfe 713d 7ed5 0bbb 4013 50bc
000003e0: 4c0b e53d 97a9 073e 6225 4e3e 48ca 733d
000003f0: 4d6d 15ba 20aa 123e 55c1 243e 4bac ce3d
-0.026462855 -0.056245063 0.006692402 0.04206715 -0.053209372 0.090428874 0.006479327 -0.026751334
0.07629469 -0.029848618 -0.095309995 0.07975883 -0.07336853 -0.062913574 0.080137596 0.07028066
0.07245349 -0.014973282 -0.053513996 0.010099109 0.100653626 0.068917274 0.053837124 -0.09600708
-0.028576033 -0.028550757 -0.054746848 -0.0059323898 0.037294682 0.04694936 0.062109344 -0.06452213
0.025613353 -0.054729432 0.030041799 -0.0241867 0.0057353647 -0.06641212 -0.017341651 -0.067930266
0.040507138 -0.046905976 0.016819656 -0.00391301 0.10908635 0.080138005 0.069163665 0.06883583
0.079617165 0.03481746 -0.08057806 -0.009862279 -0.05061024 0.07771269 0.072828 0.019058824
0.073387064 -0.016517876 -0.052476514 -0.008450072 -0.061877973 0.052678354 -0.04708513 0.064928606
0.045662146 -0.013868957 -0.0046881055 0.014048664 0.05960489 0.09092913 -0.04752971 0.0282273
-0.045845877 0.04851953 -0.027476985 0.072459385 0.019761326 -0.059111446 0.012044664 -0.02130569
-0.0037857867 -0.084538445 0.06679384 0.025568908 0.061806887 0.039269734 -0.030595299 0.021654278
0.045908116 0.043270733 -0.03853727 -0.010794341 -0.054293256 -0.06318329 0.09936659 0.07132259
-0.058371183 0.013678195 -0.021353167 0.01683596 -0.0505657 0.011080962 0.022252792 0.049907275
0.047188826 0.016991764 0.071545 0.00880936 -0.032037124 0.025278458 -0.004459824 0.0013868076
-0.027264567 -0.079354174 -0.011400789 -0.0030428432 0.06624584 0.022841899 -0.028831167 0.04057958
0.039109007 -0.021788605 0.057168655 0.014000449 -0.08233505 -0.04736584 0.00415729 0.080264226
0.07417174 0.010629887 0.046050858 0.10559554 0.10550625 0.06472295 0.11525639 0.12509026
0.083552815 0.12641498 0.087454215 0.106907316 0.121256135 0.10571337 -0.0070995865 0.089203216
0.10596527 0.06336599 0.09069091 0.16437905 0.034898035 0.118084915 0.049008884 0.00429978
0.10011628 0.017217143 0.04094365 0.042691562 0.12380707 0.06284797 0.13393942 0.04727473
0.12850817 0.1653445 0.10443599 0.014948793 0.084725894 0.07073608 0.18371253 0.022346333
0.14639217 0.12355027 0.0490158 0.08274968 0.11530482 0.0980476 0.097970806 0.003805085
0.1739285 0.07628463 0.13208939 0.092821255 0.12918434 0.104131274 0.12715434 0.01169242
0.08969859 0.13118051 0.010428278 0.03567021 0.047873814 0.037444387 0.16238159 -0.0051817116
0.068630464 0.0745678 0.12071744 0.12364836 0.10982144 0.04741526 0.07063523 0.05909086
0.07493708 0.10595476 0.13778755 0.006063132 0.108547375 0.1154048 0.053907335 0.037061602
0.12918398 0.141293 0.17011796 0.115040295 0.22068717 0.132947 0.07966175 0.07364417
0.14186251 0.08515801 0.06559453 0.15524428 0.109763615 0.06445576 0.104872696 0.0048742425
0.02106267 0.008916434 0.043448996 0.13806269 0.00818529 0.0609642 0.019538423 0.14116633
0.038940053 0.022417538 0.12001423 0.107559994 0.15687385 0.04392062 0.18922165 0.16765238
0.17149022 0.115417495 0.060297906 0.20069645 0.03857067 0.05908041 -0.0021336968 -0.012699902
0.11183795 0.13248287 0.20131448 0.059519082 -0.0005700186 0.1432271 0.16089375 0.10091456

encoder.gru.weight_ih_l0_reverse f4 [384, 2]
00000000: 8b6d 09bd c706 a33d 55dc 773d f21a 323c
00000010: e380 8b3d d574 bcbc 2660 be3d be4f 3fbd
00000020: 38b2 db3d 5cea a6bc 21f4 4dbd 08c0 c13c
00000030: 5ffe a53d 16f9 a0bd 2157 e8bd 78b3 043c
00000040: 1374 de3c be30 f9bb 32db 3fbd f86a 94bc
00000050: 0743 2abd 9bac b53b df82 abbd 899b cabc
00000060: 5442 b3bd 4f59 ae3c 06c7 bb3d 4dfb 28bd
00000070: dae8 70bd a6f8 11bd 6000 923c e3a2 ebbc
00000080: c94a 833d 84a3 0ebd eb7f 73bd c12c cdbd
00000090: 05e6 92bd 3e37 a7bd 4832 bf3c a959 84bd
000000a0: 9442 fa3c 5200 d3bd 2f5d 86bd af54 ae3a
000000b0: 54a2 82bd 5661 b23c 1b3a 9bbd fb74 483d
000000c0: 3123 1c3c d7c2 4c3d dcf6 e3bd 0878 a6bc
000000d0: 11f4 94bb df54 053d dea9 ce3c 33fc 8cbc
000000e0: a88a aa3d f423 9bbd 0e1a 6ebd c5fc c5bd
000000f0: 55ee 1dbd 8914 75bd 3cda 29bd 8340 463d
00000100: c2a0 833d 5683 b73c b039 9b3d 4eb1 00bd
00000110: 7a83 933b 66ef 95bd 1eda 323d 1573 1a3b
00000120: 4a22 13bc 960d 8d3c 1dc0 0c3d 1fe4 413c
00000130: e4bb bcbd f4e6 b1bd 697e 2cbd b613 72bd
00000140: ca17 97bd c855 95bc 9859 8a3d b74a 423d
00000150: 5520 61bd 6d77 9dbd 599f 86bd 8b6c 9fbd
00000160: 6aac 443d 3e67 a6bb 369e 423b 69cc f03c
00000170: 25a8 563c 0752 ce3d 1e2d 3cbd bf63 3a3d
00000180: b20d 553d d9b0 03bd 3fc4 853d ed45 e5bc
00000190: 515e a1bd 3db3 c03b 8d73 0c3d e730 b43d
000001a0: 0dac 5cbd e143 9b3d 8740 a0bd c927 d93a
000001b0: da79 763d b368 cc3d 317a 803b c817 b03d
000001c0: 3db3 81bc dc29 e1bb 5548 dfbc cfb3 653c
000001d0: dc99 efbc 09a2 5d3c aca7 be3c 0fb9 a33d
000001e0: 86d2 0ebd 5a61 7d3d 2de1 8fbc b485 abbd
000001f0: 66fb c33d 8674 ee3b d991 45bd 225d 343d
00000200: d69b 673c ac89 93bd 8f08 99bd 5feb 8bbd
00000210: 633f 173d 37a5 823d d885 a5bb 8d74 0bbd
00000220: 876a b9bd 7450 8fbd 776a f43c 4836 c3bd
00000230: c729 89bd 343e 45bd 8d00 833d 7bba 053c
00000240: 33ae 4bbd 7588 62bd 6010 273d a1d4 293c
00000250: 0a4a 4b3d 5ca0 afbd a359 b8bd db0a 853d
00000260: e834 03bd 8983 1d3d c254 efba e25f 103d
00000270: 7f1e 5a3b 55e6 913d 4ca5 533c 789a 703d
00000280: 1b6f 37bc b91f d4bc 72e4 5d3c b65f 443c
00000290: cd04 aa3d 2be2 113d 3c04 c93c 1228 7dbd
000002a0: 395e 963d 989e a53d fa99 543a fc30 213d
000002b0: a0bd 7abc 9df7 91bc dfa4 97bd d9a7 3abd
000002c0: d035 213d 4441 743c 91f9 7b3d cc31 66bd
000002d0: 82f8 d43c 0e30 9bbd ebd2 5e3d 3a22 92bb
000002e0: 7c3b 4d3d fd63 543d 2e85 c6bc 7874 8e3d
000002f0: 06cf 923c 3fda 9b3d 69c7 bd3b bad8 dcbd
00000300: ed92 30bd e4f4 a33d 4711 45bd 71eb a83d
00000310: b49e e9bb 60f3 8e3c 3230 9bbc 8597 c63d
00000320: 7780 38bd e174 1cbd 994b 4dbd 6404 443d
00000330: 6fee eabb ab2e aa3c 3944 a43d f081 8f3d
00000340: bc04 0fbd 203b f93c f19a 963c 5442 23bd
00000350: c037 333c 7084 41bd e299 89bd 9b89 a0bd
00000360: d565 8ebc 5323 703d aebf ba3d 2815 69bc
00000370: 0212 46bc 825e b7bd 4c9a 1fbd 0bd9 4f3d
00000380: a1a3 343d 5048 8d3d 5933 f03c 823a 273d
00000390: 6647 c33d ad9c 39bd 780e 59bb b8ec 9cbd
000003a0: 73b9 603a 2ef9 a2bb 4e91 e53c 192e 1ebd
000003b0: fd78 7dbd bc20 aabc 9234 923c acb1 f43c
000003c0: 10f3 60bd 615f 98bd c3b5 98bd 6892 b2bc
000003d0: 5f71 7e3c d596 c9bd e314 00bd 8d7e 533d
000003e0: 1a65 883d b4a3 403d dc28 233d 78cb 89bd
000003f0: 0374 f7bc 4492 7dbd 880c a73c 360e ae3c
-0.033551734 0.07960277 0.06051286 0.010870682 0.068116926 -0.023004929 0.092956826 -0.046706907
0.10727352 -0.020375423 -0.050281648 0.023651138 0.08105158 -0.07860009 -0.113447435 0.008099429
0.027154958 -0.0076046875 -0.0468399 -0.018117413 -0.04156783 0.005544258 -0.08374571 -0.024732368
-0.087528855 0.02128282 0.0916882 -0.041255284 -0.058815815 -0.03563752 0.017822444 -0.028764194
0.064107485 -0.03482391 -0.059448164 -0.10018302 -0.07172779 -0.081648335 0.023339406 -0.06462414
0.030549325 -0.103027955 -0.06560742 0.0013300384 -0.06378618 0.021774929 -0.07579442 0.048939686
0.009529875 0.0499905 -0.11131069 -0.020320907 -0.0045456965 0.032551643 0.025227483 -0.017210102
0.08327228 -0.07575217 -0.058130316 -0.096673526 -0.03855737 -0.059834037 -0.04146789 0.048401367
0.064271465 0.022401493 0.075793624 -0.03141909 0.004501757 -0.07321052 0.043665044 0.002356713
-0.008980343 0.017218392 0.0343629 0.011834173 -0.09215525 -0.08686629 -0.04211274 -0.05910083
-0.07377584 -0.01822938 0.0675537 0.047434535 -0.054962475 -0.07688794 -0.06573362 -0.07784375
0.04801599 -0.0050782254 0.0029696352 0.029394345 0.013101612 0.10074239 -0.045941465 0.04550528
0.052015014 -0.032151077 0.065315716 -0.027987445 -0.078793176 0.005880742 0.034289885 0.0879839
-0.053875018 0.07581306 -0.078248076 0.0016567643 0.0601748 0.09980907 0.0039208164 0.08598286
-0.015832538 -0.006871445 -0.02725617 0.0140199205 -0.02924817 0.013527402 0.023273312 0.079942815
-0.03486874 0.06186042 -0.017563427 -0.08375111 0.09569435 0.0072770743 -0.048234794 0.04403413
0.014136275 -0.07203993 -0.074723355 -0.06832003 0.036925685 0.063791685 -0.005051356 -0.0340467
-0.090535216 -0.06997767 0.029835923 -0.09531838 -0.066974215 -0.048155025 0.063965894 0.008162136
-0.049726676 -0.055305917 0.0407871 0.010365636 0.049631156 -0.08575508 -0.09001472 0.06496211
-0.032032877 0.03845552 -0.0018259513 0.03524769 0.0033282337 0.071240105 0.012917828 0.058741063
-0.011195923 -0.025894033 0.013543235 0.01198571 0.08301697 0.03561608 0.024538152 -0.061805792
0.0734219 0.0808689 0.00081101025 0.039353356 -0.015303999 -0.017818267 -0.074044935 -0.04557023
0.03935796 0.014908139 0.061517302 -0.056199834 0.025997404 -0.07577525 0.054400366 -0.0044596465
0.050105557 0.05185317 -0.024233427 0.069558084 0.017920982 0.076099865 0.005791594 -0.10783525
-0.04310887 0.080056936 -0.04811218 0.08248032 -0.0071295146 0.017450035 -0.01894388 0.09696869
-0.04504439 -0.038197402 -0.050120924 0.04785575 -0.007169537 0.020774206 0.08020825 0.070072055
-0.034916624 0.0304237 0.018384429 -0.039858177 0.010938585 -0.047245443 -0.06718804 -0.07838746
-0.017382542 0.058627438 0.09118591 -0.014226235 -0.012089254 -0.08953573 -0.03896551 0.050744098
0.04410136 0.06898558 0.02932136 0.04082728 0.095351025 -0.045315433 -0.0033120196 -0.07662338
0.0008572556 -0.004973552 0.028023388 -0.03861818 -0.06188296 -0.020767562 0.017847333 0.029869877
-0.054919302 -0.07440067 -0.07456543 -0.021798328 0.015529959 -0.09843222 -0.03126992 0.05163436
0.066599086 0.04703112 0.03983389 -0.06728262 -0.030206686 -0.061907068 0.020391718 0.02124701

encoder.gru.weight_hh_l0_reverse f4 [384, 128]
00000000: 94e0 4a3d be99 673c 42ba 303d 9d97 863d
00000010: 929c 6fbd 2e86 963c 351d 50bd a79c debc
00000020: c945 0a3d 9d04 88bd 337c d4bc f329 1cbd
00000030: 3585 84bd b4b0 353c 6a98 91bc e141 4fbc
00000040: 127d 3b3c d215 133d 7efa 593d 1f21 3b3d
00000050: dd23 82bd 2cd1 58bc 5465 733d ba37 5cbd
00000060: 9916 7d3d b082 81bc 4ebe 123c d13a 8b3c
00000070: 86c0 37bd a35f ebbc e469 97bd 44a9 4dbd
00000080: 24c5 72bd 436e 8a3d 477c 6e3d ab61 40bd
00000090: ab7c 143b 9d0a 97bd 59d2 873d 7326 7e3c
000000a0: 1e9b a8bd 856f 2b3d 318f 18bd 9dd4 05bd
000000b0: 1095 9a3d 36cd 633d 6abd b03c a4a8 213d
000000c0: 1841 20bc 4d79 58bd 5360 26bd 52fe 353d
000000d0: e4cf e4bc 3940 a3bc 7eed 4d3d 875e babc
000000e0: b4c3 2b3d 9178 883d 8d4b 6abd cccb af3b
000000f0: 9e03 74bd 5bfc 393d 9cd5 8e3b b304 78bd
00000100: fcd1 813d df6e 92bd 385c 17bd b052 503d
00000110: cf36 5c3d de64 003b 62cd 33bc 5935 3bbd
00000120: b4fb f73c b1a5 563d 6cc7 76bd e012 92bd
00000130: 678f 613c 00ef 6e3d bd5b 5dbc 7710 903c
00000140: d75f 05bc 2c9c 773d c336 a43d f592 56bd
00000150: 6eda 8ebc 8217 c73b 2976 57bd 402e 62bd
00000160: 7bc1 473c 8c43 67bd 65d3 683d dbcb c43c
00000170: 2efe 543d e4a8 80bc 7141 2d3b 7365 8e3d
00000180: f3c1 6c3d b5b1 9239 b055 66bd 0cbf 84bd
00000190: 2709 8dbd e077 4dbd fef9 8d3d 5b22 873c
000001a0: b238 973c c4bd a73c 7def 8f3b 25a2 bfbd
000001b0: 3c79 223b 6954 0bbd c58d c13c 7880 a2bd
000001c0: 590a 4a3b 60cc c93c 78f3 0bbc 5f32 873d
000001d0: c268 27bd 36ae 7fbd d8e3 833c 186e 683d
000001e0: b2e6 a7bc 5341 b4bd dcb0 3cbc fdba 8fbd
000001f0: fe6f b3bb 78f3 833d f5b3 3cbc 816f 7c3d
00000200: e559 473d c15d 82bc 0531 4f3c d2ae 513d
00000210: a301 0e3c b741 933d c663 713d d14e 263c
00000220: 442b 4d3d 6772 463d 8a06 c6bb 894f d7bc
00000230: 0d44 99bc e2c3 27bd 55e1 4abd 6fcf 953d
00000240: 83a2 cf3c 9c14 7f3d 5f96 c13c cb8d dabc
00000250: 35d6 30bd 340c ba3b c1cf dfbb 02b0 9b3d
00000260: e875 873d 324c 62bc c683 0a3b 3bd3 e8bc
00000270: 9814 a83c fa8a d3bc 72f7 1a3c 7f24 ff3c
00000280: 920b 93bd 317d 4abd 15fe bebc 8d34 82bd
00000290: 5f5e 6cbd b945 27bd 5a61 55bd 8e76 793d
000002a0: f081 e23c d2a7 82bd c8f9 80bd 72c4 5d3d
000002b0: a295 913d bc7a 39bc 1e70 f53c 7ca3 fdbc
000002c0: 317a 3ebd 4b1d 1c3d 9cf0 8ebd e73a 353c
000002d0: 922f 4ebb 2848 21bd e441 923c 746d e03c
000002e0: 51ef d6bb aa70 ecbc f15b 1fbc d155 d0bb
000002f0: ba98 45bd aaa2 ec3c 4de1 6abc 875d 6ebd
00000300: 5b43 503d 6345 3e3d 3c0b 20bc 57e7 a7bc
00000310: 2d39 1abc a41a 433c 7fb6 77bd a6dc 2dbc
00000320: d011 c23c 6d8e d23c d9dd 203d 1348 8d3d
00000330: 29a8 c13a 26bd 733d 496d 033d 4628 db3c
00000340: a737 d03b 1ee8 503d 6e40 063d 5993 70bc
00000350: d646 803d c70b 633c 8f69 96bc bae0 823d
00000360: c9be 4d3d 5b9f c3bc 923f 203d 3ddf 32bc
00000370: 1c2c 283c 0401 81bd 2d7f 53bd a78a c0bc
00000380: f0aa 133d 31c6 9b3c 5e67 0e3d 2ab2 38bd
00000390: d559 93bd 5bd0 913d 592b 68bd 7bd4 3c3d
000003a0: 644a 91bd a970 0a3c 5929 063a 58bd 11bd
000003b0: feda 723d 50ac d63b 5b8b 543d 1b0b d8bc
000003c0: 523b a53c f5cd 9fbc dc85 1fbd f7cc adbd
000003d0: f35b 70bc 9246 51bd a501 8bbd d5cc 113d
000003e0: 09f0 97bd ac21 5ebb 1c8b ec3c 693e a63c
000003f0: 2b51 babc cd9c 0abd df79 5dbd 2a44 273d
0.04953058 0.014135776 0.04314638 0.06571887 -0.058498926 0.018374529 -0.050809104 -0.027174307
0.03375796 -0.06641505 -0.025938129 -0.038125943 -0.0647072 0.011089493 -0.017772872 -0.012649984
0.011443393 0.03590948 0.053217404 0.045685884 -0.06354497 -0.013233464 0.059422806 -0.053764082
0.06178913 -0.015809387 0.008956505 0.01699582 -0.04486134 -0.028732127 -0.07393244 -0.050210252
-0.05927004 0.06759312 0.05822399 -0.046968143 0.0022657316 -0.07375071 0.066319175 0.015512097
-0.08232711 0.0418544 -0.037245933 -0.032673467 0.07547963 0.055615626 0.021574695 0.03946747
-0.009781145 -0.052850056 -0.040619206 0.044431992 -0.027931161 -0.019928085 0.05027532 -0.022750152
0.041934684 0.06663621 -0.057200957 0.0053648707 -0.059573762 0.04540668 0.0043589603 -0.060551357
0.063388795 -0.07150053 -0.03695318 0.050860107 0.053763207 0.0019591372 -0.01097426 -0.045705173
0.030271389 0.05240411 -0.060248777 -0.07132506 0.0137671 0.058333397 -0.013510642 0.017585976
-0.008140526 0.06045167 0.080182575 -0.052386243 -0.01743814 0.0060758004 -0.05260292 -0.05521989
0.012192125 -0.056460902 0.056842227 0.024022987 0.052000217 -0.015705533 0.0026436711 0.06952944
0.057802152 0.00027979692 -0.05623406 -0.06481752 -0.06886511 -0.05016315 0.06932448 0.016495874
0.018459652 0.02047623 0.004392563 -0.093570985 0.00247915 -0.034016047 0.023627171 -0.0793466
0.0030828922 0.024633586 -0.008541934 0.066014044 -0.04087139 -0.062422 0.016099855 0.05674562
-0.020495746 -0.08801522 -0.011516776 -0.07018087 -0.005475997 0.06442922 -0.0115175145 0.061629776
0.048669714 -0.015913846 0.0126459645 0.051192112 0.008667382 0.071902685 0.058933042 0.010150627
0.05009009 0.048448946 -0.00604326 -0.026283043 -0.018709207 -0.040958293 -0.0495313 0.073149554
0.025346046 0.062275514 0.023631273 -0.02667894 -0.043173034 0.0056777243 -0.006830186 0.0760193
0.06614286 -0.013812112 0.0021135672 -0.028421035 0.020517632 -0.025823105 0.00945841 0.031145332
-0.07179941 -0.049435798 -0.023314515 -0.063576795 -0.057707187 -0.040837977 -0.052094795 0.06090408
0.02764985 -0.063796654 -0.06297642 0.054142423 0.07108618 -0.011320766 0.029960688 -0.030961744
-0.04650325 0.038113873 -0.06979486 0.011061407 -0.003146146 -0.039375454 0.017853685 0.027395941
-0.0065592905 -0.028862316 -0.00972651 -0.0063578864 -0.048241355 0.028886158 -0.014335942 -0.058194663
0.050845485 0.04645289 -0.0097683035 -0.020496054 -0.009413046 0.011908207 -0.060476776 -0.010611689
0.023690134 0.02570268 0.03927407 0.06898513 0.0014774847 0.059506558 0.032086644 0.026752602
0.0063542905 0.051002614 0.03277629 -0.014683568 0.06263511 0.013857788 -0.018360881 0.063905194
0.050230775 -0.023879698 0.039123125 -0.010917482 0.010264423 -0.06299022 -0.051634956 -0.023503615
0.03605169 0.019015403 0.034766547 -0.045091785 -0.071948685 0.07119819 -0.056681965 0.046101075
-0.07094267 0.008449712 0.00051178556 -0.035580963 0.05929088 0.006551303 0.051890712 -0.026372483
0.020169888 -0.019507388 -0.038946018 -0.084863596 -0.01467036 -0.05109269 -0.06787423 0.035595734
-0.0741883 -0.0033894582 0.028874926 0.020293431 -0.022743782 -0.033840943 -0.054071303 0.04083649

encoder.gru.bias_ih_l0_reverse f4 [384]
00000000: 0bad 66bc 7212 de3c 4673 52bc ab1d f9bc
00000010: 5701 783c 8344 663d 967f 823d a875 1e3c
00000020: 2c9d 14bc 0f05 53bd e677 883a 8dc3 e03d
00000030: e123 a33d 8d14 d4bc bf28 493d 0a3f 733d
00000040: 91f6 903a 6727 0d3d fcec 353b e0c7 0ebd
00000050: 1355 6cbd f3b4 ab3c f6e2 99bd 1c97 5a3c
00000060: 8ea0 953d 2757 a73d d96b 053d b3f8 813d
00000070: cc1c 32bd b2ba 683d 74f0 bb3d 6dc1 9f3d
00000080: e065 d93c b529 84bd 34ae 8fbc a852 b33c
00000090: 4977 513c 19ac 92bc 3ed0 58bc 32ac ee3c
000000a0: fb86 bb3c bd33 d2bc c5a4 823c 03a3 2ebd
000000b0: ffdb e6bc b9df c23c dd5d 70bd e301 8d3d
000000c0: 768c 46bd 14d6 50bd 07bc 573c 1b47 873d
000000d0: de60 65bd eee2 11bd 63bc 9a3b b7de b63c
000000e0: 2fcb 973d 35e0 40bd 13e1 64bd 25a3 34bd
000000f0: 808a 51bd 42d9 353d de9c 103d a7e6 bfb9
00000100: 0fe0 543b 40f2 233d 7d48 c8bc 8acb 9ebc
00000110: bdd7 4f3d 8dd5 633d f289 b13c 383e f33a
00000120: 430a c6bc e80c 5bbd ec9c 263d 12a1 57bb
00000130: 11f7 603b 7d1f 8cbc 377f 95bd abae 23bd
00000140: e788 1dbd 974d d83c 3f8b b73d 1370 073d
00000150: 3876 3f3d d1a0 1f3d 3012 55bd b490 ee3d
00000160: 859a 823c 78b9 3abd 2054 07bc 48a8 0bbc
00000170: aca9 b73c 42c8 f23b ca51 91bd 47d1 af3d
00000180: d412 733b 7a71 a93d 68ce babc 7921 a0bc
00000190: b22a ef3c 1235 87bd a2ac 2bbd a696 8fbb
000001a0: fa57 70bd a2b6 923d ba99 ac3d c7b8 38bc
000001b0: 1323 1d3d 9fc6 18bd fbaf 84bb 4c4b d6bc
000001c0: 8289 853c f2d1 b83d 64ae b83d 402f cfbc
000001d0: 72c8 afbb 5054 e4bb 0556 07bd b09a 9b3d
000001e0: 8889 773d 380e 0cbd 0485 2bbd eea5 923d
000001f0: 3a11 933d 7601 37bb 9122 673d 6a1d 2a3d
00000200: fe20 2e3d b986 f33d cd65 9d3d f2c4 c33d
00000210: d052 e43d d178 2b3e a8b1 253e bb64 b33d
00000220: 236c b43d 9a7f 3f3c 1d16 203e 5e93 cb3c
00000230: cf66 203e 8857 d7bc 905a 9b3d 6541 103e
00000240: 48c2 183e 415e c53d 7fa2 133e bd8d 873d
00000250: be88 c33d 987d 69bb b019 bd3d 64f5 b63d
00000260: 788f 1f3d f67f 1b3e f65c f13d 57b0 f93d
00000270: 6066 273d 3ba4 193d 6984 3b3e f610 d23c
00000280: 010d 853c 674d 9d3d 95d5 173e 8c0a c63d
00000290: 79c7 f23c 32f3 ce3d 3f16 cd3d 15de 1d3e
000002a0: d381 523d 39e9 bf3d 1d1b 683d 04be fe3d
000002b0: 678a 683d 1867 273e 4270 b13d 4e59 1b3d
000002c0: 6ac4 073d 2499 6d3d 378d f33c abc4 003d
000002d0: b647 d23b 8642 683c 62c7 2e3b 2d66 2e3e
000002e0: 6ba2 bf3d feba c9bc 8396 823d ff75 4c3d
000002f0: 0e09 bb3d 89e7 fa3d daba a53d fe84 2b39
00000300: babc 193d 7474 0c3d 5cb5 043e 6371 8c3d
00000310: c1c3 9b3d a7fa 8d3d 8eaf 073e 5db4 fc3d
00000320: f05f 143e 7696 793d e76c 133e 97b7 893c
00000330: d8f9 543d 47b5 1f3d e773 173e ca42 96bc
00000340: eaf5 cbbc 3e7d 143d 2d91 d6bd b90e 9b3c
00000350: 2f4c e83d ac6b 243e e49e 273e 9849 043e
00000360: 8cbc 093b 5fa8 9e3d bde6 b43d a69a db3d
00000370: 9fc6 033e 72e0 183d 84a3 e43d fe9a 843d
00000380: cf1d 003e 6aa4 463d 5249 003e f8b3 403c
00000390: 5688 bb3d 2b9c 4e3d 3cb4 fa3d fcb6 fc3d
000003a0: b8ac f43d 1fcc a73d 7cde dd3d 0087 d13d
000003b0: d646 8c3d b63c f43d 944e 253d 2c5d 323d
000003c0: bf4a 4b3d 6b59 f43d 21a2 493d b3e6 873c
000003d0: 82c0 76bb 8fe1 d33d 5dae 203e 7dac 193e
000003e0: b1d6 043e dcdd f33d fd6e 98bc 8511 703d
000003f0: 3350 0d3e 9b09 813c 59c5 473c d674 853b
-0.014079343 0.027108405 -0.012844866 -0.030409655 0.015137038 0.05621768 0.06371991 0.009671606
-0.009070676 -0.051518496 0.0010411709 0.10974798 0.07965828 -0.025888706 0.049111124 0.05938629
0.0011059811 0.034461405 0.0027759662 -0.034858584 -0.05769832 0.020960307 -0.075139925 0.013341691
0.07306014 0.0817092 0.032573555 0.06346264 -0.043484494 0.05681867 0.09176722 0.07800565
0.026537836 -0.064532675 -0.017539121 0.02189 0.012784787 -0.017904328 -0.013233243 0.029134843
0.022891512 -0.025659436 0.015947709 -0.04263593 -0.028181074 0.02378832 -0.058683265 0.068851255
-0.048473798 -0.05098541 0.013167388 0.06605359 -0.056000583 -0.035616808 0.0047221645 0.022322996
0.07411801 -0.04708882 -0.05587871 -0.0441009 -0.051157475 0.044396646 0.03530585 -0.00036602208
0.0032482182 0.04002595 -0.024448628 -0.019384164 0.050742853 0.05562358 0.021672223 0.0018557971
-0.024174815 -0.053479105 0.040676996 -0.0032902402 0.003432695 -0.017104859 -0.07299655 -0.0399615
-0.03846064 0.026404185 0.08962106 0.033065867 0.0467436 0.038971726 -0.052019298 0.11648694
0.015942821 -0.045587033 -0.008259803 -0.008524008 0.022419773 0.0074091265 -0.07095678 0.08584838
0.003709008 0.08273597 -0.0228035 -0.019547211 0.029195163 -0.06601919 -0.041912682 -0.0043819724
-0.05867765 0.07163741 0.084277585 -0.011274523 0.038363528 -0.037298795 -0.004049299 -0.026158951
0.01630092 0.09024419 0.09017637 -0.025291085 -0.005364471 -0.0069680586 -0.03304102 0.07597864
0.060433894 -0.034193248 -0.0418749 0.07160555 0.0718102 -0.0027924455 0.05642945 0.041531958
0.042511933 0.11890931 0.076854326 0.09559049 0.11148608 0.16745307 0.16181052 0.08759447
0.08809688 0.011688137 0.15633436 0.024850544 0.15664218 -0.026286855 0.07585633 0.14087446
0.14917862 0.09637118 0.14417456 0.06618831 0.09547566 -0.0035627838 0.09233415 0.08933523
0.03895518 0.15185532 0.11785309 0.12191837 0.040869117 0.037510138 0.18312229 0.025642853
0.016241552 0.07680779 0.14827569 0.096699804 0.029636132 0.101049796 0.10014009 0.15416749
0.05139334 0.093706556 0.056666482 0.12438586 0.056772616 0.16347921 0.086639896 0.037926964
0.0331463 0.058007374 0.029730422 0.031437557 0.00641724 0.014176017 0.0026669134 0.17031164
0.09357151 -0.024625298 0.06376364 0.049917217 0.091325864 0.12251193 0.0809228 0.00016357374
0.0375335 0.034290746 0.12959808 0.06857564 0.076056965 0.06932574 0.13250563 0.12339089
0.14489722 0.060934506 0.14397012 0.016811175 0.051996082 0.03899124 0.14790307 -0.018342394
-0.024897534 0.036252253 -0.10476909 0.018927919 0.11342656 0.16056699 0.16369206 0.12918699
0.0021016924 0.07746958 0.08833072 0.10722856 0.12868737 0.037323423 0.11164001 0.06474875
0.12511371 0.04849664 0.1252797 0.011761658 0.091568634 0.050441902 0.12241408 0.12339589
0.11947006 0.0819323 0.10833451 0.10230827 0.068494484 0.11925642 0.04035814 0.043545887
0.04963183 0.119311176 0.049226884 0.016589498 -0.0037651365 0.10345756 0.15691514 0.15007205
0.12972523 0.11907551 -0.01860761 0.058610458 0.13800125 0.01575165 0.012193047 0.004072766
