my_latent_sde/sdes/best_sde_0.pth (torch, 193634 bytes, 30 tensors)

encoder.gru.weight_ih_l0 f4 [192, 2]
-0.06684701 0.048830487 0.06785622 0.07281799 0.09485974 0.007679019 0.010196965 -0.026189681
0.050326884 0.0029093158 0.027992124 -0.0051850257 -0.013713651 -0.120008096 0.08273203 0.14325893
-0.09234415 -0.026643481 -0.012055904 -0.07921892 0.060085837 -0.07825881 -0.020218622 0.1654537
0.11329398 0.16450015 0.06301182 0.085619494 0.020898148 0.06339787 -0.06812425 0.15427649
0.04777982 0.18282333 -0.015351932 0.029235182 -0.054358803 -0.11121179 -0.019331945 -0.07439696
-0.034240264 -0.07344694 0.021864695 0.060889445 0.18740231 0.01824002 -0.020997727 -0.08200412
0.045167536 0.062011566 0.09883633 0.11318633 -0.017887492 -0.099632904 -0.09619205 -0.012184541
0.026869196 0.15427093 0.04709947 0.008588868 0.1418463 -0.047096144 0.0227858 -0.18362106
0.036638383 -0.033366345 -0.034088522 -0.036241677 -0.01647213 -0.007320338 0.07596343 -0.095901616
0.015780212 -0.0399804 0.04496799 0.08211412 0.09517135 0.02636577 -0.0154082775 -0.021884229
0.14474155 0.12631859 0.08098086 -0.10055468 -0.038206473 -0.14629397 -0.10204983 -0.09400035
0.02261781 -0.05816933 0.023888804 -0.12811145 0.08922161 0.17777158 0.073892064 0.06084059
0.09359385 -0.06588699 -0.11653677 -0.015499045 -0.08929196 0.004024863 -0.02117872 -0.027527776
-0.005131899 -0.09225221 -0.065136105 -0.052560452 0.10859689 0.16544464 0.029532464 0.036193956
0.029269109 0.055781312 0.030633127 0.06742921 0.09970151 0.022323886 -0.12012408 0.038471606
0.012073781 -0.03938263 -0.09545485 -0.006520568 -0.049763612 -0.07465576 -0.081004165 -0.107211225
0.11391353 0.118851304 -0.15211923 0.10409652 -0.1759844 0.11086338 0.14542732 0.048329007
-0.020952806 0.14538777 -0.018985448 -0.025431296 -0.18491477 0.045461778 0.051262632 0.09258505
-0.013728811 0.0935575 0.14763209 0.16375564 -0.26694438 0.11223636 0.009528202 0.033107538
-0.059254028 -0.09148259 0.0495943 0.157937 0.09124665 0.21350306 -0.087110706 0.029645547
-0.0069225724 0.025693094 -0.122484215 0.083092526 -0.056245916 -0.101401486 -0.0959548 0.023020787
0.080759175 0.14122097 0.019420024 0.027508337 0.006246896 0.15567775 0.023893539 -0.023141243
0.03967655 0.006983704 0.1362629 0.08809254 0.11375539 -0.021296822 0.099334516 -0.076932445
0.12305909 -0.012294255 0.021300763 0.15696251 0.024102954 -0.10649596 0.07064387 0.12100417
0.10076738 0.14080957 0.06751225 0.031640477 -0.13248178 0.045999784 -0.21795742 -0.000115621464
0.09790805 0.045922793 0.056108538 0.09728904 0.03277396 0.16470468 -0.13777925 0.14954972
0.02969172 -0.077106915 0.17105077 0.064512044 -0.048568744 -0.031114232 -0.015282497 -0.062093075
0.11520868 0.03657911 0.08381871 0.094599746 0.15138258 0.011562547 -0.18527064 0.14169405
0.02669201 -0.01660055 0.08583135 0.18799847 0.142089 0.08331458 0.08406624 -0.07653051
0.043707732 0.11733653 0.043666847 0.11996876 0.06369539 0.065144196 0.13922648 0.15784284
0.15407324 0.19593163 0.13709871 -0.19660972 0.07818008 0.025600098 -0.1371018 0.12827282
0.18150078 0.07215535 -0.03401882 0.12299256 -0.07217298 0.08575529 0.026057415 0.047902934
00000000: 16e7 88bd 7a02 483d 34f8 8a3d 9921 953d
00000010: d345 c23d 48a0 fb3b 2c11 273c be8b d6bc
00000020: 9023 4e3d 38aa 3e3b bd4f e53c 26e7 a9bb
00000030: 39af 60bc cec6 f5bd 696f a93d 78b2 123e
00000040: ee1e bdbd 6e43 dabc 2086 45bc 873d a2bd
00000050: 911c 763d 2846 a0bd 86a1 a5bc b26c 293e
00000060: ad06 e83d ba72 283e 570c 813d 4659 af3d
00000070: 9832 ab3c bed6 813d ba84 8bbd a8fa 1d3e
00000080: c6b4 433d 0a36 3b3e ab86 7bbc 9f7e ef3c
00000090: 56a7 5ebd 02c3 e3bd 075e 9ebc 6f5d 98bd
000000a0: 853f 0cbd 596b 96bd 971d b33c 3667 793d
000000b0: 64e6 3f3e 186c 953c 6d03 acbc c7f1 a7bd
000000c0: 9801 393d d7ff 7d3d b46a ca3d 3cce e73d
000000d0: ca88 92bc 560c ccbd 5600 c5bd aba1 47bc
000000e0: ca1c dc3c 33f9 1d3e 60eb 403d 53b8 0c3c
000000f0: 2840 113e e3e7 40bd 49a9 ba3c 2907 3cbe
00000100: 2112 163d 26ab 08bd 68a0 0bbd 2772 14bd
00000110: 8ff0 86bc 72df efbb b792 9b3d 1168 c4bd
00000120: 8145 813c 7dc2 23bd 5b30 383d 732b a83d
00000130: 32e9 c23d 07fd d73c 0073 7cbc 8e46 b3bc
00000140: 2137 143e a959 013e 4bd9 a53d 9def cdbd
00000150: 647e 1cbd 16ce 15be 80ff d0bd 4183 c0bd
00000160: fc48 b93c f742 6ebd 74b2 c33c a62f 03be
00000170: d2b9 b63d c109 363e b954 973d fc33 793d
00000180: 22ae bf3d c2ef 86bd d4aa eebd b5ef 7dbc
00000190: b4de b6bd ffe2 833b ff7e adbc ee81 e1bc
000001a0: 7d29 a8bb baee bcbd 1466 85bd a149 57bd
000001b0: 0c68 de3d 526a 293e 11ee f13c 1d40 143d
000001c0: c5c5 ef3c f27a 643d 53f2 fa3c 5318 8a3d
000001d0: 4e30 cc3d 95e0 b63c 9d03 f6bd 6794 1d3d
000001e0: 1cd1 453c ae4f 21bd d57d c3bd 7daa d5bb
000001f0: eed4 4bbd 1ee5 98bd 83e5 a5bd 8f91 dbbd
00000200: 7f4b e93d 5068 f33d 25c5 1bbe 8e30 d53d
00000210: 4135 34be 570c e33d e6ea 143e a3f4 453d
00000220: 38a5 abbc 88e0 143e 5f87 9bbc 4b55 d0bc
00000230: 4c5a 3dbe 2136 3a3d c4f8 513d 3b9d bd3d
00000240: cfee 60bc 139b bf3d de2c 173e 8faf 273e
00000250: efac 88be 2ddc e53d 2d1c 1c3c c59b 073d
00000260: 5ab4 72bd 395b bbbd 6523 4b3d 3dba 213e
00000270: 86df ba3d 8ca0 5a3e 1967 b2bd 38db f23c
00000280: bfd6 e2bb 537a d23c 01d9 fabd 6a2c aa3d
00000290: 1e62 66bd 95ab cfbd f383 c4bd 1796 bc3c
000002a0: 1165 a53d 3b9c 103e be16 9f3c 2a59 e13c
000002b0: c3b2 cc3b fd69 1f3e 62bc c33c b492 bdbc
000002c0: e183 223d 8ed7 e43b 8088 0b3e dd69 b43d
000002d0: 96f8 e83d ac76 aebc e56f cb3d c28e 9dbd
000002e0: 6706 fc3d d86d 49bc f07e ae3c c8ba 203e
000002f0: 8f73 c53c 8e1a dabd bcad 903d 09d1 f73d
00000300: 215f ce3d 6230 103e dd43 8a3d 7299 013d
00000310: 4ea9 07be 456a 3c3d 3b30 5fbe cd79 f2b8
00000320: 0484 c83d 8a19 3c3d 11d2 653d 7a3f c73d
00000330: fd3d 063d 58a8 283e 0116 0dbe 9023 193e
00000340: 0d3c f33c 3bea 9dbd ef27 2f3e e41e 843d
00000350: 05f0 46bd 46e3 febc 7063 7abc 4f55 7ebd
00000360: 87f2 eb3d fad3 153d 25a9 ab3d 83bd c13d
00000370: 0904 1b3e d670 3d3c 96b7 3dbe 3f18 113e
00000380: 34a9 da3c e0fd 87bc 59c8 af3d ac82 403e
00000390: c77f 113e d6a0 aa3d ec2a ac3d 07bc 9cbd
000003a0: e106 333d 224e f03d 02dc 323d 2eb2 f53d
000003b0: bb72 823d 526a 853d 6391 0e3e 8ea1 213e
000003c0: 60c5 1d3e 4da2 483e 9b63 0c3e 0f54 49be
000003d0: e11c a03d 4cb7 d13c 6a64 0cbe f359 033e
000003e0: 57db 393e 2fc6 933d 5157 0bbd 86e3 fb3d
000003f0: 6dcf 93bd 78a0 af3d 5c76 d53c de35 443d

encoder.gru.weight_hh_l0 f4 [192, 64]
-0.017350804 0.020292686 -0.041485038 -0.0025636866 0.045416787 0.00045778675 -0.03990119 0.020475185
-0.0122688785 0.036565974 0.04236468 -0.028981563 0.050843216 0.06654779 0.045540746 0.054902315
-0.014543134 -0.035687093 -6.4726446e-05 -0.040316578 -0.08068814 -0.011018625 0.039568413 -0.07128662
-0.044389464 -0.07417908 -0.03750852 -0.0009860442 -0.01155842 -0.010025784 0.0050125946 -0.04692679
0.018195417 -0.024300868 0.028156972 0.032983392 0.019132076 0.009062648 0.051614866 -0.028421164
-0.03753552 0.05092913 0.029124904 -0.00071492174 -0.060599755 -0.021703577 0.023784367 0.014780733
-0.059243932 -0.061654497 -0.0021793924 -0.026748378 0.004229508 -0.06150824 -0.012218211 0.04479861
0.027223933 0.0452014 -0.023218447 0.043943632 0.04063099 0.05446668 0.021206418 0.040267136
0.034876622 0.11339815 0.037046157 -0.049146347 -0.00471975 0.078387834 0.05224293 0.03134307
-0.05481257 0.011583482 -0.003487656 0.058063984 0.13305277 -0.046712596 0.024521893 -0.1451145
0.06925041 0.029506886 0.062807135 0.045300517 -0.07816211 -0.03613775 0.026905952 -0.015137322
-0.003097792 0.020697342 0.0073609157 0.06798378 -0.0094428575 0.021874435 0.108647466 0.105003886
0.013447878 0.040179692 0.04975608 0.069119126 -0.020932091 -0.052272417 0.1012615 -0.044991605
0.0145275965 -0.011443059 0.06916401 -0.055584934 0.059905473 0.014934392 0.079507105 0.036898162
0.071141124 0.023959218 -0.040956862 0.11851214 0.00601467 0.012798517 -0.03752866 0.012953863
-0.037323635 -0.12766582 -0.0136506045 -0.052390955 -0.06454694 -0.065089956 0.01855241 0.028657274
0.01759909 0.039637834 -0.0758045 0.0073702754 0.001851726 -0.007179819 -0.037566006 0.0125262365
-0.026525853 -0.018338814 0.0456915 -0.024090806 0.034337003 0.04707707 0.011913095 -0.011016498
0.035907276 -0.072511755 0.013388195 0.03536626 -0.048466776 0.013510157 0.009250892 -0.0029800595
-0.03007593 -0.06952676 0.0045875716 -0.0058372575 -0.054352026 -0.056073185 0.015643995 0.01118237
-0.009492848 0.01465715 -0.039538477 0.0031081664 0.008712714 0.00965736 -0.05887506 -0.012671557
-0.015416395 -0.009123139 -0.03439307 -0.0035679375 -0.014264124 -0.0003753663 0.0014650768 -0.04670755
0.013749074 0.0025226069 0.034292396 0.043787837 0.03150448 -0.052328832 -0.030961553 0.035821117
0.043904357 -0.004462094 -0.020708544 0.04664355 0.058669012 -0.066176385 -0.046286017 -0.046375696
0.046240773 0.05658106 -0.06326243 0.0057878485 0.0730741 -0.08439034 -0.04661424 0.013559557
-0.06398607 0.015299285 0.08034296 0.014999677 0.0717898 0.11327531 -0.04374045 0.079202004
-0.023700582 -0.10043214 0.03846783 0.0066483202 -0.03900446 -0.025853753 -0.089923434 0.040677503
0.056380577 -0.096514985 0.074078254 -0.06392035 -0.091705754 -0.16054843 0.033550967 -0.10623713
0.08135165 0.023106404 -0.11792214 -0.0819936 -0.0036978836 0.110251494 -0.06325172 -0.029136423
0.001069542 -0.09804851 -0.06679735 -0.0071029183 -0.06146585 -0.012279115 0.04474924 -0.016519833
-0.051673196 0.024724156 0.11753285 0.031213729 0.03449319 -0.10602754 -0.124317 0.061860718
0.043586545 0.018608235 -0.12284796 0.02792768 0.07228185 0.026118826 -0.079058446 -0.07246364
00000000: 4623 8ebc d93c a63c 37ec 29bd 8603 28bb
00000010: f406 3a3d 1903 f039 6e6f 23bd 93bb a73c
00000020: 6803 49bc 34c6 153d 9686 2d3d be6a edbc
00000030: fa40 503d 354a 883d ef88 3a3d 40e1 603d
00000040: 5346 6ebc a12c 12bd bfbd 87b8 ff22 25bd
00000050: d33f a5bd 7787 34bc 7d12 223d b8fe 91bd
00000060: bad1 35bd 34eb 97bd 89a2 19bd 273e 81ba
00000070: 875f 3dbc 3043 24bc b140 a43b 4e36 40bd
00000080: 8e0e 953c 9d12 c7bc 73a9 e63c 9819 073d
00000090: dfba 9c3c 807b 143c 1c6a 533d 80d3 e8bc
000000a0: d8be 19bd 109b 503d 5a97 ee3c 9669 3bba
000000b0: 7337 78bd b3cb b1bc 6fd7 c23c e32a 723c
000000c0: c4a9 72bd 6d89 7cbd 23d4 0ebb 6a1f dbbc
000000d0: af97 8a3b 10f0 7bbd e42e 48bc bf7e 373d
000000e0: ba04 df3c 1a25 393d 9d34 bebc 3dfe 333d
000000f0: ae6c 263d 7418 5f3d 15b9 ad3c 27ef 243d
00000100: cada 0e3d 4a3d e83d b6bd 173d ae4d 49bd
00000110: 22a8 9abb cd89 a03d affc 553d 9761 003d
00000120: 2583 60bd a5c8 3d3c 2891 64bb 80d4 6d3d
00000130: fc3e 083e b555 3fbd 23e2 c83c e598 14be
00000140: 29d3 8d3d 6db8 f13c 07a1 803d 098d 393d
00000150: 7513 a0bd 2d05 14bd df69 dc3c 8802 78bc
00000160: 5304 4bbb 798d a93c d633 f13b 143b 8b3d
00000170: 37b6 1abc 0432 b33c 9082 de3d 470c d73d
00000180: 7d54 5c3c 7693 243d 08cd 4b3d 548e 8d3d
00000190: c779 abbc 9a1b 56bd 3062 cf3d 1e49 38bd
000001a0: 2805 6e3c ab7b 3bbc dca5 8d3d 07ad 63bd
000001b0: 715f 753d 61af 743c 9fd4 a23d 8722 173d
000001c0: 70b2 913d 1f46 c43c 62c2 27bd 7eb6 f23d
000001d0: b516 c53b dfb0 513c a7b7 19bd 703c 543c
000001e0: abe0 18bd d4ba 02be c9a6 5fbc e697 56bd
000001f0: 3031 84bd e24d 85bd 39fb 973c a9c2 ea3c
00000200: f72b 903c 485b 223d 643f 9bbd 5a82 f13b
00000210: 9db5 f23a b044 ebbb d0de 19bd d83a 4d3c
00000220: bf4c d9bc 483b 96bc 0327 3b3d 155a c5bc
00000230: f5a4 0c3d e3d3 403d 242f 433c 8b7e 34bc
00000240: 8213 133d 0b81 94bd 295a 5b3c 36dc 103d
00000250: 1985 46bd b559 5d3c 0e91 173c 1a4d 43bb
00000260: cc61 f6bc 0c64 8ebd 5753 963b 7746 bfbb
00000270: 3ba0 5ebd ffac 65bd d627 803c 4236 373c
00000280: e487 1bbc 8b24 703c 19f3 21bd 61b2 4b3b
00000290: c5bf 0e3c e739 1e3c fa26 71bd 5d9c 4fbc
000002a0: 0c95 7cbc 3879 15bc bfdf 0cbd 0fd4 69bb
000002b0: 13b4 69bc d0cc c4b9 d207 c03a 6a50 3fbd
000002c0: cc43 613c 5252 253b 2f76 0c3d e05a 333d
000002d0: d70a 013d c256 56bd 15a3 fdbc 2ab9 123d
000002e0: 0ed5 333d c236 92bb f7a4 a9bc 4f0d 3f3d
000002f0: eb4e 703d 7c87 87bd 6896 3dbd 71f4 3dbd
00000300: f766 3d3d 8bc1 673d bc8f 81bd fea7 bd3b
00000310: e0a7 953d d8d4 acbd 93ee 3ebd e728 5e3c
00000320: 210b 83bd daa9 7a3c da8a a43d 35c1 753c
00000330: 8806 933d e3fc e73d 3029 33bd a934 a23d
00000340: b927 c2bc 5eaf cdbd 7190 1d3d 27da d93b
00000350: 24c3 1fbd 40cb d3bc c729 b8bd 749d 263d
00000360: 52ef 663d a6a9 c5bd 57b6 973d ace8 82bd
00000370: 3ad0 bbbd cf66 24be bd6c 093d da92 d9bd
00000380: b29b a63d a449 bd3c 2a81 f1bd 43ec a7bd
00000390: 3158 72bb 89cb e13d 1e8a 81bd 82af eebc
000003a0: e02f 8c3a a8cd c8bd 0dcd 88bd 99bf e8bb
000003b0: 9dc3 7bbd 572e 49bc fb4a 373d 9a54 87bc
000003c0: 46a7 53bd 508a ca3c 10b5 f03d efb3 ff3c
000003d0: bb48 0d3d f824 d9bd e999 febd aa61 7d3d
000003e0: ce87 323d 4c70 983c b697 fbbd 97c8 e43c
000003f0: 8208 943d 26f7 d53c 65e9 a1bd d167 94bd

encoder.gru.bias_ih_l0 f4 [192]
-0.034729972 0.02474926 -0.031280015 0.048367053 0.11064101 0.14852303 0.07586707 0.022996115
-0.035945393 -0.030066315 0.00022832605 0.18240252 0.0031081922 0.025776636 -0.04695018 0.0213697
0.037173264 0.116968594 0.045605768 -0.055975012 0.02738269 0.0803055 0.121522695 0.005162935
0.09431299 0.060049523 0.11862691 0.12673299 0.10519208 0.12095612 -0.027723812 0.016261417
0.010828868 0.055980466 -0.00050246617 -0.048221905 -0.052753553 -0.0057836757 -0.037522446 0.017649313
-0.020472016 0.08753497 0.009831197 -0.017621286 0.10508929 -0.008080152 -0.0024757963 0.0034695934
-0.017917585 0.118056834 0.016864156 -0.02319859 -0.0019375056 0.080995835 0.051019534 0.06348838
0.0100758225 0.072340764 0.08212311 -0.022882959 0.093886 0.070932806 0.044671055 -0.055677596
0.111036874 0.1942129 0.20295891 0.032579362 0.26531848 0.29360363 0.11592373 0.029407151
0.23510963 0.14941312 0.12233357 0.27783796 0.121432476 0.16391587 0.22236381 0.15550992
0.25051105 0.10807737 0.13805379 0.22783607 0.33128026 0.18120022 0.08778523 0.004788793
0.268265 0.23818845 0.25225884 0.1755191 0.22277899 0.13215286 0.18724656 0.20743906
0.08249563 -0.0029425353 0.10238179 0.13914393 0.05038022 0.13181557 0.19026825 0.16378616
0.15278348 0.06926754 0.25281543 -0.0070129535 0.19209155 0.14407289 0.003876818 0.2822989
0.007379851 0.11494843 0.08268002 0.13826028 0.17514543 0.18440819 0.08468604 0.12637915
0.27079678 0.13647626 0.14614686 0.15286544 0.17048135 0.1944516 0.13555191 0.19742519
0.08630343 0.036547605 -0.16406935 0.04230157 -0.066424735 -0.07984936 0.043575007 0.011198289
-0.07675209 0.07967054 0.10258276 0.09725386 0.0074990294 0.12140021 -0.13744523 0.09043072
0.16345847 -0.0602191 0.03424142 0.10269689 0.122214936 -0.16875869 -0.13820373 -0.030642426
0.17077677 0.03566425 0.17303737 0.045841314 -0.16734354 -0.16127051 -0.002011114 -0.14757447
-0.026731683 0.117905766 -0.070413366 0.031686645 -0.15608548 0.20041451 -0.1763791 -0.020027686
0.07547535 -0.04401263 0.0003842254 -0.15257795 -0.009755838 0.02199446 0.0815713 -0.119985856
-0.058629222 -0.021289235 0.0776475 0.12341082 0.15231322 -0.012555714 -0.11090759 0.028202323
0.09118491 0.11254014 -0.114346884 0.122232474 0.14562504 -0.15480885 -0.010688673 -0.17239371
00000000: 0441 0ebd f6be ca3c 791f 00bd 881c 463d
00000010: c197 e23d 6c16 183e 3260 9b3d 5962 bc3c
00000020: 7a3b 13bd a24d f6bc cf6a 6f39 bac7 3a3e
00000030: d0b2 4b3b 8629 d33c d54e 40bd 820f af3c
00000040: fe42 183d 3b8d ef3d 1dcd 3a3d 0e46 65bd
00000050: aa51 e03c 3677 a43d e4e0 f83d d62d a93b
00000060: 2b27 c13d 7df6 753d aaf2 f23d 4bc6 013e
00000070: f26e d73d d8b7 f73d 0c1d e3bc aa36 853c
00000080: 906b 313c c64b 653d efb7 03ba 5584 45bd
00000090: 1c14 58bd fd84 bdbb 23b1 19bd 4b95 903c
000000a0: eeb4 a7bc 8945 b33d 0713 213c 845a 90bc
000000b0: 0e39 d73d 9d62 04bc f840 22bb 1e62 633b
000000c0: e6c7 92bc c8c7 f13d b326 8a3c f80a bebc
000000d0: e6f3 fdba 25e1 a53d dcf9 503d 3206 823d
000000e0: 1015 253c 6527 943d 2930 a83d 0b75 bbbc
000000f0: 4e47 c03d 3845 913d fff8 363d 310e 64bd
00000100: 4d67 e33d bfdf 463e 76d4 4f3e f071 053d
00000110: d3d7 873e 3753 963e 6c69 ed3d 44e7 f03c
00000120: 94c0 703e c1ff 183e 068a fa3d c740 8e3e
00000130: 97b1 f83d 90d9 273e 57b3 633e fe3d 1f3e
00000140: fc42 803e ab57 dd3d f95d 0d3e dc4d 693e
00000150: 919d a93e 8d8c 393e bec8 b33d 4feb 9c3b
00000160: 085a 893e ace7 733e 1228 813e 47bb 333e
00000170: 2d20 643e 1453 073e 90bd 3f3e e86a 543e
00000180: 78f3 a83d 8dd7 40bb 8bad d13d bf7b 0e3e
00000190: 7d5b 4e3d a9fa 063e aed5 423e 8fb7 273e
000001a0: 4673 1c3e 24dc 8d3d 0671 813e ebcc e5bb
000001b0: a6b3 443e d887 133e 3712 7e3b 7b89 903e
000001c0: add2 f13b 156a eb3d 2454 a93d 1a94 0d3e
000001d0: 5359 333e 80d5 3c3e e06f ad3d 8969 013e
000001e0: e0a5 8a3e 6fc0 0b3e 86a7 153e c288 1c3e
000001f0: aa92 2e3e 521e 473e 1fce 0a3e d429 4a3e
00000200: dabf b03d f1b2 153d cc01 28be 6944 2d3d
00000210: b109 88bd 1088 a3bd b57b 323d 0779 373c
00000220: 3330 9dbd 4f2a a33d e916 d23d 082d c73d
00000230: 6bba f53b aca0 f83d 71be 0cbe be33 b93d
00000240: a861 273e 4ea8 76bd bb40 0c3d bf52 d23d
00000250: d34b fa3d 14cf 2cbe 4785 0dbe d305 fbbc
00000260: 1be0 2e3e ad14 123d b530 313e 1ac4 3b3d
00000270: 1b5c 2bbe 1924 25be e5cc 03bb c31d 17be
00000280: 67fc dabc 9478 f13d e234 90bd dbc9 013d
00000290: dfd4 1fbe 7639 4d3e b99c 34be 1a11 a4bc
000002a0: d292 9a3d 9646 34bd dc71 c939 653d 1cbe
000002b0: f3d6 1fbc ba2d b43c db0e a73d 25bb f5bd
000002c0: 3225 70bd c366 aebc a705 9f3d d0be fc3d
000002d0: fff7 1b3e 7bb6 4dbc 8523 e3bd 8f08 e73c
000002e0: 27bf ba3d 727b e63d b32e eabd 0555 fa3d
000002f0: bb1e 153e 3686 1ebe 8b1f 2fbc fa87 30be

encoder.gru.bias_hh_l0 f4 [192]
0.0051046996 0.03376459 0.024821308 -0.02342403 0.036081955 -0.006665175 0.096148156 0.020646384
0.024693582 0.05652132 0.016965246 0.1466601 0.015587398 -0.027266057 0.029510742 0.026008815
0.007917099 0.099303104 -0.037636507 0.04689518 -0.010410885 0.031904176 0.04620204 0.09048015
0.10064895 -0.0068953987 0.09428783 0.10136782 0.052968103 -0.03492241 -0.01997547 0.02540783
0.09336362 0.039492786 0.026025498 0.050077904 0.0036088456 0.0003709593 0.06945904 -0.004128011
-0.02389994 -0.02193942 0.016723346 0.0163368 -0.06743021 0.0633768 0.09764056 0.00054721045
-0.0044545955 0.01657702 0.06266961 0.089598365 0.034912657 0.06899553 0.036778353 0.075249076
-0.009779301 0.017637564 0.16993253 0.09561547 0.008916172 -0.0121918 -0.03591748 0.024885682
0.14235732 0.24432117 0.24772932 0.03211847 0.26361683 0.17683657 0.12032964 0.023685314
0.19210105 0.09217626 0.13557138 0.18674403 0.061347432 0.12521861 0.2226384 0.19842008
0.16598432 0.15742305 0.13751298 0.21928668 0.26900092 0.19821954 0.1341657 0.0047711553
0.2164536 0.23038416 0.19962087 0.1727778 0.1519257 0.10987678 0.16599864 0.16289875
0.035433047 -0.0078255115 0.092376545 0.14648497 0.057076633 0.14450285 0.20036308 0.16062032
0.15280356 0.08049959 0.23740491 -0.0086525995 0.1917048 0.121040896 0.06180208 0.22636883
0.009790807 0.118523456 0.08727 0.13144155 0.20066424 0.23923028 0.09453799 0.08496502
0.26178995 0.17325887 0.15900844 0.095356084 0.21842602 0.1748163 0.08168943 0.26794916
0.18472445 0.044786684 0.040312648 -0.09708421 0.0124954395 -0.08385945 -0.09742056 -0.0004843105
0.052608788 0.16488507 0.009980975 0.1019612 0.14335887 0.06754072 0.001599906 -0.07186711
-0.013398104 -0.09372922 -0.11587268 -0.006557406 0.049299877 -0.03451202 0.010220339 0.10499088
-0.01921648 -0.08568074 0.15448354 -0.1127615 -0.13313675 -0.00033027277 0.04579828 -0.012785438
0.035881333 -0.045107443 -0.08711504 -0.12433001 -0.11521099 0.15862343 -0.07076287 -0.070382856
-0.026358208 -0.12893564 -0.02522854 0.010719677 0.100355476 0.19529156 0.07257304 -0.05882499
0.0065998486 0.14393902 0.15600288 0.11068212 -0.052651465 -0.02105639 -0.03301025 -0.07118561
0.03325721 0.10379831 -0.14519572 0.01622621 0.14316711 -0.07729513 -0.16439092 0.037660085
00000000: 5345 a73b bd4c 0a3d 0e56 cb3c c0e3 bfbc
00000010: acca 133d 8a67 dabb 53e9 c43d 9b22 a93c
00000020: 324a ca3c e682 673d b3fa 8a3c 112e 163e
00000030: 4962 7f3c 115d dfbc 83c0 f13c 7010 d53c
00000040: b8b6 013c 6d5f cb3d bd28 1abd 2915 403d
00000050: 6b92 2abc f4ad 023d 5a3e 3d3d a84d b93d
00000060: 0921 ce3d ccf2 e1bb fa19 c13d ee99 cf3d
00000070: 15f5 583d cd0a 0fbd 99a3 a3bc 1524 d03c
00000080: 6d35 bf3d 30c3 213d 6d33 d53c 7d1e 4d3d
00000090: 6282 6c3b 507d c239 8b40 8e3d 4444 87bb
000000a0: cfc9 c3bc 4cba b3bc 66ff 883c c1d4 853c
000000b0: da18 8abd b2cb 813d c6f7 c73d ac72 0f3a
000000c0: dbf7 91bb 88cc 873c ed58 803d 597f b73d
000000d0: 9300 0f3d 874d 8d3d e6a4 163d 301c 9a3d
000000e0: 5c39 20bc a77c 903c cb02 2e3e 0bd2 c33d
000000f0: 2315 123c 1ec0 47bc 351e 13bd 0fdd cb3c
00000100: 1ec6 113e 542f 7a3e c1ac 7d3e a88e 033d
00000110: c9f8 863e a514 353e 636f f63d b407 c23c
00000120: 23b6 443e e8c6 bc3d 39d3 0a3e d439 3f3e
00000130: 7247 7b3d 4f39 003e 52fb 633e a22e 4b3e
00000140: cbf7 293e 8233 213e 34d0 0c3e b08c 603e
00000150: 7dba 893e 10fa 4a3e bc62 093e 5a57 9c3b
00000160: 03a6 5d3e d3e9 6b3e 6a69 4c3e aaec 303e
00000170: 6992 1b3e 1407 e13d 8cfb 293e eece 263e
00000180: 3e22 113d 9336 00bc ea2f bd3d 2800 163e
00000190: 30c9 693d 8ef8 133e fb2b 4d3e a779 243e
000001a0: 8978 1c3e f8dc a43d 461a 733e a2c3 0dbc
000001b0: 434e 443e 4ae4 f73d 2e24 7d3d 3bcd 673e
000001c0: 9f69 203c 6dbc f23d 9dba b23d 9d98 063e
000001d0: ed7a 4d3e c8f8 743e 229d c13d 2402 ae3d
000001e0: 5509 863e c66a 313e 1cd3 223e 0d4a c33d
000001f0: 12ab 5f3e 0b03 333e ca4c a73d a230 893e
00000200: 6828 3d3e 3e72 373d e01e 253d 16d4 c6bd
00000210: acb9 4c3c 81be abbd 6e84 c7bd 0eeb fdb9
00000220: 507c 573d a2d7 283e 3e87 233c 09d1 d03d
00000230: abcc 123e ca52 8a3d f0b3 d13a 102f 93bd
00000240: b983 5bbc 1bf5 bfbd a84e edbd 82df d6bb
00000250: abee 493d 7a5c 0dbd 3573 273c 7505 d73d
00000260: e16b 9dbc 6279 afbd ef30 1e3e 80ef e6bd
00000270: 0055 08be 7628 adb9 fa96 3b3d 047a 51bc
00000280: 4ef8 123d 95c2 38bd 5f69 b2bd bba0 febd
00000290: bdf3 ebbd 2e6e 223e 20ec 90bd e324 90bd
000002a0: 2bed d7bc b407 04be 15ac cebc 96a1 2f3c
000002b0: 2c87 cd3d 83fa 473e 2da1 943d 79f2 70bd
000002c0: 8b43 d83b c064 133e 38bf 1f3e 4fad e23d
000002d0: 10a9 57bd 737e acbc c235 07bd c3c9 91bd
000002e0: b638 083d 3594 d43d 30ae 14be d4ec 843c
000002f0: 669a 123e e94c 9ebd 1856 28be 7641 1a3d

encoder.gru.weight_ih_l0_reverse f4 [192, 2]
-0.13991944 0.08314108 0.028986964 0.006010384 0.04122393 -0.07469362 -0.14773712 -0.03462338
-0.021419512 0.12021515 0.1308935 -0.0075330203 0.0521937 0.17267603 -0.12942 -0.10075225
0.1071387 -0.02556314 0.06982171 0.06391562 0.15117931 0.09825791 0.07154295 0.066134445
-0.012393136 -0.019186648 -0.034894742 -0.08901065 0.04775176 0.021152081 -0.11323405 -0.13449362
0.03566937 -0.0010623023 -0.15655766 -0.013481904 -0.0040673884 -0.018747447 0.05887246 -0.017233044
-0.065931305 0.006515752 0.08387724 0.049715076 -0.044069994 0.044510383 0.077471115 0.10654979
-0.03957621 -0.1524904 -0.082929425 -0.07343258 -0.14584233 -0.14789402 -0.13041636 0.08513749
-0.051366046 -0.06711223 -0.0679422 -0.1029871 0.08304421 0.10166165 0.011002401 0.0027001998
0.12692736 0.058202654 -0.1453496 -0.040363036 -0.045569398 -0.0994235 -0.094356924 -0.10340757
-0.1066958 -0.11319442 -0.045294773 -0.03453803 0.04055391 -0.06023933 0.05600545 0.13818803
-0.094778456 -0.013081927 -0.1419271 0.016235596 -0.017593462 -0.094384626 0.077924654 -0.05501519
-0.0064127548 -0.14636058 0.08625863 0.100458086 -0.0042958343 0.111978285 -0.0538135 -0.10064283
0.10840845 0.12140331 0.11838911 0.117965646 0.075890936 0.09745306 0.10587235 0.04571238
0.10665586 -0.014900779 -0.11609469 -0.061825357 0.044156235 0.0567859 -0.04756675 0.15792526
-0.008887844 -0.06271732 0.073568255 -0.03582082 -0.08622062 -0.14326438 -0.093178295 -0.08294706
0.08815616 -0.0037972163 -0.12953827 -0.11861679 -0.10528052 -0.079864725 -0.026140826 -0.11608346
-0.19114254 0.018587526 0.150697 -0.0551424 0.09242339 0.11213706 -0.06754316 0.14101529
-0.013238342 0.12051879 0.14057203 0.052174203 0.056286003 0.05482708 0.07058478 0.07737788
-0.08608946 -0.007585084 -0.06363667 -0.049434565 0.20105335 0.09901679 -0.08326914 -0.016674059
0.018787801 0.0016797356 -0.1662505 0.012109153 -0.0077543743 -0.1310839 -0.011487986 -0.018786324
0.13388741 0.098660424 -0.008358785 0.044512793 -0.04540452 -0.20291828 -0.11909114 0.11243925
-0.013039542 0.13539355 0.12284388 -0.089115694 0.022536067 0.027016103 -0.088780366 0.025810676
0.11891855 -0.099119924 0.037155382 0.026349245 0.0045166155 -0.061992377 -0.020770516 0.1649134
0.07891252 0.18927956 -0.07678572 -0.0066413414 -0.0743133 -0.049466874 0.063677266 0.15777802
-0.06441333 -0.11813869 0.005577576 0.10299981 -0.106691174 -0.09322497 -0.02726111 -0.117449194
0.1016294 0.067901574 -0.08579235 0.08386678 0.07487299 0.06612311 0.0620024 0.014133802
-0.04386962 -0.11593924 -0.0690887 0.10213166 0.11473837 -0.09718228 -0.032866217 -0.025440758
0.104881786 0.010723238 0.094185844 0.07856295 -0.003365564 -0.15523908 0.11257558 -0.043813437
-0.035694204 -0.11356661 -0.07721524 -0.0013283294 0.09721785 0.10408853 0.12381888 -0.110653
0.012108955 0.0046095843 0.06702172 0.17557353 -0.071917966 -0.106559746 -0.06237546 -0.06661251
0.02455737 0.18803363 0.054388057 0.024844304 -0.059715454 0.009621649 -0.040021747 -0.056303296
0.10133243 -0.03969599 0.03925174 -0.09510586 -0.0947404 -0.10379557 0.038956612 0.06356497
00000000: 0b47 0fbe df45 aa3d 1276 ed3c c1f2 c43b
00000010: 6cda 283d f8f8 98bd 6648 17be 3fd1 0dbd
00000020: f977 afbc 5c33 f63d f208 063e 8ed7 f6bb
00000030: 10c9 553d fcd1 303e ad86 04be 3257 cebd
00000040: 896b db3d ca69 d1bc affe 8e3d 31e6 823d
00000050: c0ce 1a3e 713b c93d 1c85 923d 7f71 873d
00000060: 940c 4bbc 512d 9dbc caed 0ebd 374b b6bd
00000070: 5997 433d 2147 ad3c 41e7 e7bd b2b8 09be
00000080: 0c1a 123d f33c 8bba a750 20be 34e3 5cbc
00000090: ba47 85bb 3f94 99bc 4024 713d 502c 8dbc
000000a0: fe06 87bd 1782 d53b d5c7 ab3d 09a2 4b3d
000000b0: bd82 34bd 8550 363d 2da9 9e3d c736 da3d
000000c0: aa1a 22bd 7226 1cbe e7d6 a9bd d263 96bd
000000d0: b157 15be 8871 17be de8b 05be 905c ae3d
000000e0: 3465 52bd 2372 89bd 4825 8bbd e7ea d2bd
000000f0: 1513 aa3d fc33 d03d 6a43 343c d6f5 303b
00000100: 3ff9 013e e865 6e3d 87d6 14be b653 25bd
00000110: faa6 3abd 8c9e cbbd 343e c1bd 59c7 d3bd
00000120: 5483 dabd 7ad2 e7bd 0387 39bd c077 0dbd
00000130: db1b 263d 84bd 76bd f965 653d 2a81 0d3e
00000140: 351b c2bd 9455 56bc 5655 11be 8300 853c
00000150: 2a20 90bc ba4c c1bd f696 9f3d 9c57 61bd
00000160: 1622 d2bb 8cdf 15be 5da8 b03d f8bc cd3d
00000170: 12c4 8cbb df54 e53d 8b6b 5cbd d41d cebd
00000180: 4005 de3d 4ca2 f83d fd75 f23d f997 f13d
00000190: b56c 9b3d 7895 c73d 9ad3 d83d e83c 3b3d
000001a0: 636e da3d 6622 74bc 0ec3 edbd 963c 7dbd
000001b0: 2bdd 343d 5598 683d 5ad5 42bd 29b7 213e
000001c0: 529e 11bc f071 80bd f4aa 963d dab8 12bd
000001d0: 7094 b0bd e6b3 12be 43d4 bebd 26e0 a9bd
000001e0: 388b b43d b8da 78bb aea5 04be 5ced f2bd
000001f0: 509d d7bd 1e90 a3bd 4925 d6bc 2abd edbd
00000200: dfba 43be de44 983c 5050 1a3e ffdc 61bd
00000210: 7948 bd3d 1da8 e53d 1154 8abd 5066 103e
00000220: a1e5 58bc 8ed2 f63d 1df2 0f3e 9eb4 553d
00000230: 278c 663d 5c92 603d c18e 903d 4b78 9e3d
00000240: ac4f b0bd 4c8c f8bb f153 82bd e67b 4abd
00000250: eee0 4d3e 51c9 ca3d 0389 aabd 0998 88bc
00000260: e0e8 993c 932a dc3a 923d 2abe 7865 463c
00000270: 6818 febb dc3a 06be 1b38 3cbc c7e5 99bc
00000280: c819 093e 7a0e ca3d 49f3 08bc 0c53 363d
00000290: 17fa 39bd cfc9 4fbe 0ee6 f3bd 8d46 e63d
000002a0: cea3 55bc 9ba4 0a3e 9295 fb3d 4a82 b6bd
000002b0: 8f9d b83c e050 dd3c 7bd2 b5bd e970 d33c
000002c0: 928b f33d 63ff cabd 3e30 183d 5fda d73c
000002d0: 1e00 943b b8eb 7dbd ee26 aabc 0fdf 283e
000002e0: e39c a13d 80d2 413e d541 9dbd 9c9f d9bb
000002f0: 9231 98bd c79d 4abd 3a69 823d 9090 213e
00000300: 23eb 83bd b3f2 f1bd 19c4 b63b 90f1 d23d
00000310: e780 dabd bcec bebd b152 dfbc 3489 f0bd
00000320: 1323 d03d fb0f 8b3d e6b3 afbd 59c2 ab3d
00000330: 0357 993d 8e6b 873d 3bf6 7d3d 7691 673c
00000340: a1b0 33bd 8d71 edbd 607e 8dbd 672a d13d
00000350: f3fb ea3d 8107 c7bd ba9e 06bd 2369 d0bc
00000360: 43cc d63d 85b0 2f3c 82e4 c03d 9de5 a03d
00000370: cb90 5cbb fef6 1ebe 078e e63d b875 33bd
00000380: 1634 12bd 9c95 e8bd 0623 9ebd 571b aeba
00000390: 271a c73d 5e2c d53d c194 fd3d 0a9e e2bd
000003a0: a364 463c ff0b 973b af42 893d 8cc9 333e
000003b0: ba49 93bd ff3b dabd 697d 7fbd 246c 88bd
000003c0: 8a2c c93c e38b 403e 03c6 5e3d 4886 cb3c
000003d0: 3198 74bd 1fa4 1d3c d8ed 23bd 499e 66bd
000003e0: 6187 cf3d 4398 22bd 6fc6 203d dcc6 c2bd
000003f0: 4107 c2bd c692 d4bd f890 1f3d 5a2e 823d

encoder.gru.weight_hh_l0_reverse f4 [192, 64]
-0.018272322 -0.013393349 -0.018163983 0.028258087 0.019261291 0.031616148 0.045196306 -0.069061056
-0.0005752387 -0.022511972 -0.0052961754 0.00082435535 -0.054040868 -0.00279732 -0.001929027 -0.021950634
0.0062949853 -0.05397143 -0.02553773 0.028002236 0.03298312 0.01140588 -0.03536274 -0.01815403
0.079575926 0.02791804 0.012662083 -0.02714756 -0.030684963 -0.0078004547 0.019173607 -0.018602213
-0.0010103605 -0.019348891 -0.008973969 0.002753283 -0.026038675 0.036931057 -0.037631866 0.032973867
0.0022441305 0.031479605 0.054654237 -0.03122259 -0.0047334884 0.0056746514 0.0020215665 -0.0038757008
0.023808042 0.013373364 0.0007788813 -0.025024327 -0.03522695 0.013624654 0.013597285 0.009921209
0.023800801 -0.02633436 0.02575492 0.0055087632 -0.007011366 0.012251813 0.017090594 -0.012723463
0.00949372 0.032496586 0.012809483 0.016191885 0.024166727 -0.033171266 -0.0215611 0.009996359
-0.011185398 0.01643695 -0.00053912605 0.004099184 0.030706685 -0.00452888 -0.0025126047 0.0075678113
-0.020288313 0.029755794 0.013321256 -0.013650899 -0.014117724 -0.02081821 0.028260909 -0.0067413454
-0.0122789405 -0.047467533 -0.01629882 0.0064833215 0.028781561 0.03183389 0.02089218 0.008809474
0.045412436 -0.007807433 -0.006207812 -0.010798772 -0.013473828 -0.028200813 -0.013726932 -0.007333604
-0.005663415 -0.015109628 -0.0053061363 -0.01102147 -0.012451954 -0.0008671811 -0.004712726 0.012145799
0.012575587 -0.056785952 0.012550541 0.008266464 0.019837959 -0.017106604 -0.013964567 -0.010350181
0.012845681 0.008095545 -0.005525056 -0.0017609159 0.013246791 0.010099002 0.009016478 0.0049553644
-0.034184005 0.011865477 -0.12395503 0.012709667 0.012622506 0.0791812 0.093980104 -0.10314749
0.025626464 -0.05008115 0.076605305 0.043440513 -0.054846067 0.03554237 0.1525919 -0.061509628
0.059589893 -0.11752171 0.058253173 0.105891064 0.020891894 0.08151803 -0.018617118 -0.06464943
0.030922592 0.001499894 0.15731402 -0.052294135 -0.1034355 -0.11192489 -0.048630066 0.010291837
-0.08820678 0.04569429 0.060362365 0.12309824 0.022781322 0.07675635 0.021905463 0.019831806
-0.01803198 0.0041769114 0.028622733 0.0078616105 0.091579355 -0.051232874 0.08883439 -0.017884057
-0.071982935 -0.013600517 -0.026880005 -0.07000835 -0.031387195 0.13064253 0.060640156 0.03692527
0.056029044 -0.08770525 0.11250429 0.09337891 0.01012422 0.04603741 0.1382027 -0.04610948
-0.0045035933 -0.012981035 0.08421674 -0.0029251364 -0.024926532 -0.013449189 -0.009686543 -0.03616979
0.06323269 -0.005795565 -0.07148356 0.019352658 -0.032787424 -0.03794114 0.0023746842 0.00033553524
-0.039858345 0.0016457466 -0.05174773 0.022209072 -0.03557975 -0.029772453 -0.087377995 -0.079289116
0.041687958 0.03091781 -0.012807254 0.04056725 0.007541382 -0.0018649196 0.008189115 -0.019389879
0.04125189 -0.04244325 0.0062205954 -0.01797414 -0.030036526 -0.03994902 0.014203653 0.02136644
0.051778816 0.01621372 -0.0017175119 0.037523348 -0.011396283 0.09023686 -0.02519488 0.0031009503
-0.020380585 0.0038337614 0.09017542 0.027383378 0.005633138 -0.03671693 -0.02498706 0.015417148
-0.06679171 0.0111033255 -0.012182622 -0.0038882217 0.058452018 0.02443109 0.032877065 0.051252816
00000000: d6af 95bc c76f 5bbc a2cc 94bc 817d e73c
00000010: dbc9 9d3c ef7f 013d c31f 393d e26f 8dbd
00000020: 9ecb 16ba 076b b8bc 8a8b adbb 8d19 583a
00000030: f559 5dbd 3e53 37bb 68d7 fcba d1d1 b3bc
00000040: 2a46 ce3b 2511 5dbd 8034 d1bc f264 e53c
00000050: 4f19 073d badf 3a3c 85d8 10bd c3b7 94bc
00000060: b4f8 a23d 60b4 e43c a074 4f3c 8f64 debc
00000070: 085f fbbc f59a ffbb f811 9d3c ab63 98bc
00000080: 136e 84ba 9181 9ebc 8e07 13bc 6c70 343b
00000090: 0f4f d5bc 0545 173d df23 1abd 9b0f 073d
000000a0: 4312 133b c2f0 003d 1fdd 5f3d 84c6 ffbc
000000b0: 611b 9bbb 6df2 b93b 427c 043b 78ff 7dbb
000000c0: 1509 c33c f41b 5b3c d72d 4c3a d1ff ccbc
000000d0: 224a 10bd f139 5f3c 26c7 5e3c 918c 223c
000000e0: e6f9 c23c 28bb d7bc fbfb d23c db82 b43b
000000f0: 9abf e5bb d4bb 483c 9301 8c3c 1276 50bc
00000100: 8c8b 1b3c 241b 053d dede 513c d8a4 843c
00000110: 4df9 c53c 98de 07bd e7a0 b0bc c5c7 233c
00000120: f642 37bc c8a6 863c 2354 0dba 7352 863b
00000130: 968c fb3c 0067 94bb 83aa 24bb 67fb f73b
00000140: ad33 a6bc 6cc2 f33c 6641 5a3c 05a8 5fbc
00000150: 074e 67bc f38a aabc 6c83 e73c 81e6 dcbb
00000160: 9c2d 49bc 516d 42bd 1a85 85bc 0b72 d43b
00000170: 4fc7 eb3c 4164 023d 1426 ab3c 9d55 103c
00000180: 6402 3a3d 7fd5 ffbb e76a cbbb 55ed 30bc
00000190: 55c1 5cbc 6405 e7bc ede6 60bc bb4e f0bb
000001a0: 2b94 b9bb 608e 77bc 19df adbb 6593 34bc
000001b0: 4803 4cbc 8a53 63ba 366d 9abb 2cff 463c
000001c0: d609 4e3c 6398 68bd c9a0 4d3c 1070 073c
000001d0: 3783 a23c 2623 8cbc a4cb 64bc ce93 29bc
000001e0: b176 523c 2da3 043c 870b b5bb 88ce e6ba
000001f0: 1209 593c 4976 253c dab9 133c 9c60 a23b
00000200: 8704 0cbd 6b67 423c 23dc fdbd 353c 503c
00000210: a1ce 4e3c c129 a23d a478 c03d fe3e d3bd
00000220: 97ee d13c e421 4dbd 3ee3 9c3d aeee 313d
00000230: 45a6 60bd e094 113d 0d41 1c3e 85f1 7bbd
00000240: 8814 743d 39af f0bd e19a 6e3d 6add d83d
00000250: 7a25 ab3c edf2 a63d ed82 98bc ec66 84bd
00000260: 6051 fd3c 1798 c43a ed16 213e 6032 56bd
00000270: fed5 d3bd e038 e5bd 5230 47bd 189f 283c
00000280: c2a5 b4bd f029 3b3d 873e 773d ee1a fc3d
00000290: e59f ba3c 6f32 9d3d 1673 b33c 5076 a23c
000002a0: ceb7 93bc 79de 883b 397a ea3c fccd 003c
000002b0: f58d bb3d 90d9 51bd ceee b53d 9681 92bc
000002c0: ca6b 93bd b4d4 5ebc 7533 dcbc 8a60 8fbd
000002d0: dc8f 00bd 28c7 053e d061 783d f43e 173d
000002e0: b67e 653d cf9e b3bd a668 e63d 713d bf3d
000002f0: 0ee0 253c b991 3c3d 0285 0d3e 4bdd 3cbd
00000300: e192 93bb 68ae 54bc d479 ac3d a5b3 3fbb
00000310: ba32 ccbc fd59 5cbc 4eb4 1ebc c626 14bd
00000320: 2480 813d b9e8 bdbb f965 92bd 7789 9e3c
00000330: 1b4c 06bd 2b68 1bbd 97a0 1b3b c7ea af39
00000340: 8142 23bd 18b6 d73a 6df5 53bd cdef b53c
00000350: 12bc 11bd 5ce5 f3bc 3cf3 b2bd 5562 a2bd
00000360: fec0 2a3d 5947 fd3c 84d5 51bc d829 263d
00000370: b31d f73b 5170 f4ba a32b 063c 86d7 9ebc
00000380: bef7 283d f9d8 2dbd 23d6 cb3b 813e 93bc
00000390: 290f f6bc 95a1 23bd 70b6 683c ac08 af3c
000003a0: 0616 543d a3d2 843c 231e e1ba 15b2 193d
000003b0: 7ab7 3abc 1ace b83d 7e65 cebc 5039 4b3b
000003c0: 2ff5 a6bc d83f 7b3b e4ad b83d 1b53 e03c
000003d0: 3096 b83b 7e64 16bd aab1 ccbc 3598 7c3c
000003e0: 18ca 88bd b9ea 353c 9f99 47bc 89d1 7ebb
000003f0: 626b 6f3d b623 c83c 1aaa 063d 79ee 513d

encoder.gru.bias_ih_l0_reverse f4 [192]
0.10507819 -0.018935082 0.04040262 0.044663735 0.051715795 0.09499326 0.033335153 0.030724939
0.021845564 0.067997515 0.06790062 -0.06498436 0.11548015 -0.021449935 0.061168507 0.0021889138
0.037699565 0.0060527422 0.0036320407 0.019776227 0.026723348 0.024318838 0.087064646 -0.022343218
0.0277874 1.9815345e-05 0.084260955 0.11372686 0.025426311 0.05521982 -0.040368896 0.075721756
0.040266406 0.08188806 0.040835414 -0.0757415 0.017540127 -0.046918493 0.029207444 -0.0403224
0.016701968 0.04120386 0.08969653 0.07895254 0.05648712 0.037289627 0.03513755 -0.011390096
0.03487842 0.10905512 0.007889689 0.10967665 0.06446541 -0.029639948 0.005383726 -0.07587376
0.050879672 -0.0350259 0.008564742 0.058092374 0.061889376 -0.049075965 -0.014026646 0.05415198
0.15310378 0.1986809 0.18374325 0.17783931 0.14507589 0.21797071 0.15979642 0.20275189
0.04916311 -0.051972467 0.18001181 0.10695562 0.06801474 0.19441181 0.21259625 0.06220511
0.12188239 0.05132254 0.1546158 0.06727585 0.08159548 0.11506346 0.12107228 0.11635557
0.13390857 0.014408078 0.11360321 0.006111115 0.11126093 0.1045102 -0.051764954 0.13768442
-0.007998932 0.10969409 0.0883 0.18687597 0.1693885 0.02824655 0.23650715 0.1218634
0.19310337 0.023002947 0.10682368 0.093387924 0.17788877 0.15422328 0.11320442 0.08700247
0.048558645 -0.050544314 0.17897502 0.12478413 -0.009818057 0.18332756 0.11452434 0.02599716
0.10557105 0.036889404 0.15016595 0.11081007 0.21507725 0.12980467 0.21822533 0.05504264
0.1447222 -0.08780792 0.15001756 0.15768237 -0.055739537 0.16671555 0.07763213 -0.058425374
0.13818973 -0.14015974 -0.1062999 0.0026255865 -0.11457383 0.031818848 0.13403752 -0.04025012
0.038533937 -0.1328403 -0.09057068 0.10995943 0.112367466 0.122645825 -0.16525589 -0.13134262
0.12159215 0.13138546 0.123509 0.040829953 -0.16143686 -0.102626055 0.029408494 -0.06264124
-0.06139397 -0.14891103 0.10807621 0.1914284 -0.05264832 0.12217203 -0.054438166 0.11605467
0.07676456 0.15604685 0.097492576 0.07554256 0.077922374 -0.0070201843 0.055528678 -0.006873355
-0.11406134 0.0035589165 0.0926085 -0.08830374 -0.1438236 -0.011911946 -0.059961505 0.08128112
-0.0012841967 0.009632045 0.13895169 0.08368982 -0.059789978 0.17380346 0.20497374 -0.03182118
00000000: 3c33 d73d bf1d 9bbc 387d 253d 52f1 363d
00000010: f1d3 533d d48b c23d 718a 083d deb2 fb3c
00000020: 78f5 b23c 4842 8b3d 7b0f 8b3d 8516 85bd
00000030: db80 ec3d c6b7 afbc d48b 7a3d e173 0f3b
00000040: dc6a 1a3d 1556 c63b 8807 6e3b c101 a23c
00000050: ecea da3c 4d38 c73c f34e b23d 2009 b7bc
00000060: 67a2 e33c 2139 a637 0291 ac3d a1e9 e83d
00000070: d74a d03c 2e2e 623d db59 25bd 0214 9b3d
00000080: 63ee 243d edb4 a73d 0943 273d 5c1e 9bbd
00000090: 50b0 8f3c 9b2d 40bd 7344 ef3c 1a29 25bd
000000a0: 91d2 883c 61c5 283d d0b2 b73d dfb1 a13d
000000b0: 0a5f 673d 02bd 183d 64ec 0f3d 869d 3abc
000000c0: addc 0e3d 4a58 df3d c143 013c 279e e03d
000000d0: 7106 843d 7acf f2bc f869 b03b b463 9bbd
000000e0: 3467 503d 5177 0fbd 2253 0c3c 45f2 6d3d
000000f0: b77f 7d3d e103 49bd 04d0 65bc 77ce 5d3d
00000100: 3dc7 1c3e 0173 4b3e 3127 3c3e 821b 363e
00000110: c68e 143e b733 5f3e aca1 233e 319e 4f3e
00000120: 425f 493d 15e1 54bd 0455 383e 8c0b db3d
00000130: 504b 8b3d e413 473e d5b2 593e c9ca 7e3d
00000140: 799d f93d 9537 523d 9b53 1e3e ecc7 893d
00000150: 881b a73d 64a6 eb3d bef4 f73d d44b ee3d
00000160: 541f 093e dc0f 6c3c cda8 e83d c03f c83b
00000170: c5dc e33d 7209 d63d 7d07 54bd 25fd 0c3e
00000180: f40d 03bc 4ca7 e03d a1d6 b43d 6a5c 3f3e
00000190: 2e74 2d3e 4f65 e73c ee2e 723e 8593 f93d
000001a0: e4bc 453e ad70 bc3c 60c6 da3d 2b42 bf3d
000001b0: 7928 363e b5ec 1d3e b8d7 e73d 5a2e b23d
000001c0: 6ee5 463d 8e07 4fbd 3a45 373e d28e ff3d
000001d0: eadb 20bc 38ba 3b3e bd8b ea3d fff7 d43c
000001e0: a235 d83d 5819 173d 1ac5 193e 64f0 e23d
000001f0: 363d 5c3e 84eb 043e 7676 5f3e 6474 613d
00000200: 0e32 143e a4d4 b3bd 349e 193e 7d77 213e
00000210: 244f 64bd 7bb7 2a3e 98fd 9e3d 724f 6fbd
00000220: 9c81 0d3e 0986 0fbe c3b3 d9bd 0812 2c3b
00000230: afa5 eabd 7b54 023d 2241 093e 4fdd 24bd
00000240: c3d5 1d3d 4a07 08be 1f7d b9bd 6932 e13d
00000250: ea20 e63d bc2d fb3d d738 29be ae7e 06be
00000260: 4e05 f93d e989 063e 49f2 fc3d 4f3d 273d
00000270: b44f 25be 9c2d d2bd 15ea f03c 0d4a 80bd
00000280: 3e78 7bbd 227c 18be 0f57 dd3d ce05 443e
00000290: c4a5 57bd 5435 fa3d 8efa 5ebd 12ae ed3d
000002a0: bd36 9d3d bfca 1f3e 30aa c73d 0fb6 9a3d
000002b0: c495 9f3d 9309 e6bb 0a72 633d e139 e1bb
000002c0: fe98 e9bd b63c 693b 86a9 bd3d 97d8 b4bd
000002d0: 7e46 13be 532a 43bc 329a 75bd b776 a63d
000002e0: 7e52 a8ba bacf 1d3c 5a49 0e3e 9165 ab3d
000002f0: 56e6 74bd 89f9 313e a3e4 513e ed56 02bd

encoder.gru.bias_hh_l0_reverse f4 [192]
0.093963556 -0.05600644 0.011345299 0.04768899 0.03822849 0.12511697 0.10267539 0.046912353
-0.025567386 -0.051115096 0.056231536 -0.043122105 0.081274755 -0.020003816 0.084249765 0.061418757
-0.035511237 0.014301641 -0.030447166 0.09615856 -0.01917858 0.05356843 0.065740496 -0.044997927
0.022235194 0.056866627 -0.0046464493 0.037222598 0.124716125 -0.040127963 0.003094246 0.12352961
0.03929956 0.09907435 0.07477464 -0.016183611 -0.020822264 -0.018809296 0.06282632 -0.036903683
-0.04626939 0.009252751 0.07642996 0.11068281 -0.033949886 0.018145252 0.020814642 0.026962541
0.073109925 0.099245995 0.052940372 0.0136779575 0.11301623 0.004576783 -0.0035251584 0.025166376
0.07019039 0.022064554 -0.00086002634 -0.06272866 0.06529322 -0.03943635 0.035519697 -0.0040342985
0.11296767 0.2748533 0.20394784 0.080052696 0.077560775 0.09220811 0.13207464 0.14001453
-0.01808644 -0.045557775 0.11957148 0.04885777 0.064370334 0.13628592 0.17152278 0.10180426
0.12044911 0.06587803 0.09106625 0.06306742 0.046641134 0.096725255 0.125925 0.08321208
0.10354741 -0.0012362017 0.20868582 -0.06009781 0.06318419 0.082836315 0.0028035592 0.23791656
-0.0073248474 0.11453396 0.16743217 0.07705645 0.039568666 -0.018517694 0.14114408 0.17475083
0.16847333 0.10244689 0.06902939 0.13551077 0.15792705 0.1727863 0.08718165 0.08265779
0.02618988 -0.043744043 0.17097205 0.13887613 -0.065843776 0.15253362 0.023780126 0.063015476
0.19179769 0.03787028 0.12081352 0.09649435 0.16857009 0.18834175 0.13388179 0.064683355
0.009472502 -0.050469827 -0.07955008 0.16916624 -0.080218345 0.15192994 0.10461098 0.0027423992
-0.073618524 -0.037692703 0.053529162 -0.012054668 -0.13053446 -0.060285784 0.10417128 -0.1268295
0.11996705 -0.14844923 -0.0011063103 0.15829167 0.12735683 -0.04907707 -0.05686412 -0.17501818
0.11667681 0.17451291 0.094221346 -0.12729463 -0.14201126 -0.13150738 -0.13704361 0.041248467
-0.106908694 0.051163103 0.135769 -0.011355238 0.056332234 0.042073913 0.034408763 0.06249286
-0.06349654 0.108136766 0.14002231 -0.05945419 0.057385076 0.016210733 0.03455279 -0.05366583
0.021882663 0.054301176 0.13734248 0.044435658 -0.16011378 0.021298978 0.07596913 -0.07735706
0.0492164 -0.045682333 -0.026594292 0.12773988 0.055479813 0.05218626 0.088449076 -0.039416853
00000000: f76f c03d 0267 65bd a2e1 393c 8855 433d
00000010: 7a95 1c3d aa1e 003e 7a47 d23d 2b27 403d
00000020: b272 d1bc 105e 51bd 0a53 663d cea0 30bd
00000030: 6173 a63d 0bdf a3bc 248b ac3d 3c92 7b3d
00000040: 3b74 11bd 6e51 6a3c 566c f9bc c7ee c43d
00000050: 661c 9dbc 926a 5b3d f4a2 863d bf4f 38bd
00000060: 9526 b63c fbec 683d 3e41 98bb b976 183d
00000070: 2b6b ff3d 385d 24bd d5c8 4a3b 18fd fc3d
00000080: 93f8 203d 7ee7 ca3d 7223 993d 7e93 84bc
00000090: 7493 aabc f415 9abc 16ab 803d 5128 17bd
000000a0: f984 3dbd da98 173c 5087 9c3d abad e23d
000000b0: 090f 0bbd 5aa5 943c 7883 aa3c 8ce0 dc3c
000000c0: a8ba 953d 7c41 cb3d 01d8 583d 8319 603c
000000d0: 0e75 e73d d7f8 953b 5806 67bb b729 ce3c
000000e0: fbbf 8f3d b9c0 b43c 6473 61ba e277 80bd
000000f0: 74b8 853d 0388 21bd 1a7d 113d 2632 84bb
00000100: 985b e73d 92b9 8c3e b4d7 503e abf2 a33d
00000110: 2fd8 9e3d 9bd7 bc3d 933e 073e f85f 0f3e
00000120: 042a 94bc ca9a 3abd e4e1 f43d 161f 483d
00000130: 98d4 833d 898e 0b3e aba3 2f3e c07e d03d
00000140: 06ae f63d 10eb 863d f180 ba3d 7e29 813d
00000150: c60a 3f3d e417 c63d 7cf2 003e 186b aa3d
00000160: aa10 d43d 0c08 a2ba bcb1 553e 1f29 76bd
00000170: b666 813d 16a6 a93d ebbb 373b 66a0 733e
00000180: 4605 f0bb c890 ea3d 5773 2b3e c6cf 9d3d
00000190: c112 223d 6bb2 97bc 1388 103e e2f1 323e
000001a0: 4684 2c3e adcf d13d 485f 8d3d 56c3 0a3e
000001b0: a1b7 213e e4ee 303e 4b8c b23d 7d48 a93d
000001c0: 298c d63c f42c 33bd 4c13 2f3e 8b35 0e3e
000001d0: 1ad9 86bd c631 1c3e 8ace c23c 420e 813d
000001e0: 9d66 443e de1d 1b3d 146d f73d d49e c53d
000001f0: a39d 2c3e a9dc 403e 4f18 093e b578 843d
00000200: 8e32 1b3c 73b9 4ebd 27eb a2bd ea39 2d3e
00000210: 8449 a4bd 8693 1b3e 483e d63d d3b9 333b
00000220: 4fc5 96bd aa63 1abd 6541 5b3d f180 45bc
00000230: d3aa 05be 3aee 76bd c157 d53d 98df 01be
00000240: 49b1 f53d 1303 18be 9d01 91ba 3617 223e
00000250: d469 023e 0a05 49bd 5aea 68bd f737 33be
00000260: 40f4 ee3d 83b3 323e 1ff7 c03d 8659 02be
00000270: 666b 11be dfa9 06be 2955 0cbe 27f4 283d
00000280: f2f2 dabd 6790 513d 0707 0b3e 520b 3abc
00000290: a1bc 663d b255 2c3d 34f0 0c3d 83f8 7f3d
000002a0: 790a 82bd cf76 dd3d 0262 0f3e 3d86 73bd
000002b0: 9d0c 6b3d 5fcc 843c 3a87 0d3d b4d0 5bbd
000002c0: 4543 b33c e96a 5e3d 82a3 0c3e 2a02 363d
000002d0: def4 23be 327b ae3c b495 9b3d 616d 9ebd
000002e0: 2397 493d 661d 3bbd 46dc d9bc 3ece 023e
000002f0: cd3e 633d 43c1 553d ca24 b53d 9173 21bd

encoder.norm.weight f4 [8]
1.3455179 1.2589192 1.2873931 1.1393243 1.3035775 1.2698717 1.1141645 1.1255678
00000000: ee39 ac3f 4424 a13f 4cc9 a43f 61d5 913f
00000010: a1db a63f 288b a23f f19c 8e3f 9b12 903f

encoder.norm.bias f4 [8]
0.028451897 0.11326336 -0.35137078 -0.01502095 0.24554335 -0.072474055 -0.05977333 -0.035412192
00000000: f413 e93c 9ff6 e73d dfe6 b3be 6e1a 76bc
00000010: b76f 7b3e 476d 94bd e1d4 74bd 600c 11bd
