my_latent_sde/sdes/best_sde_0.pth (torch, 369909 bytes, 22 tensors)

encoder.gru.weight_ih_l0 f4 [384, 2]
0	0xbd677063	-0.056503665
1	0x3c82dc14	0.015974082
2	0x3d0ac294	0.03387697
3	0x3c0d81e7	0.008636928
4	0xbd4f9ca5	-0.050686497
5	0x3c3fcc06	0.011706358
6	0x3d14c49d	0.036320318
7	0x3db44b5c	0.08803436
8	0x3d5c8b53	0.053843807
9	0x3cc33043	0.023826724
10	0x3d033154	0.032029465
11	0x3d8a1c26	0.0674365
12	0xbd5eaf0c	-0.054366156
13	0x3d02e63c	0.03195785
14	0xbd869410	-0.065712094
15	0x3a2acf2d	0.0006515857
16	0x3d38f098	0.045151323
17	0x3da421ba	0.08014245
18	0x3d9f66d5	0.077832855
19	0xbd156cf9	-0.036480878
20	0x3d17abf4	0.03702922
21	0x3a72b25c	0.0009258145
22	0xbd7681ee	-0.060182504
23	0x3d88117c	0.0664396
24	0xbcfbed6f	-0.030752866
25	0x3d30d6ea	0.043173708
26	0x3d282f96	0.041061006
27	0x3ccb4a83	0.024815803
28	0x3d91d353	0.07120385
29	0x3ca0c3c1	0.019624593
30	0x3d8f1938	0.06987232
31	0xbc6afbb1	-0.0143422345
32	0xbd828586	-0.06373124
33	0x3d924d62	0.07143666
34	0xbdabb88a	-0.083848074
35	0xbda900bf	-0.082520954
36	0x3c1e5e3e	0.009666024
37	0xbd9aa871	-0.07551659
38	0x3dc27c96	0.09496419
39	0x3d97888c	0.07399091
40	0xbd7987b8	-0.060920447
41	0x3d73c8a5	0.05951752
42	0x3cfb398a	0.030667085
43	0x3ce3b945	0.027798304
44	0xbb54b118	-0.003245419
45	0xbd9b1eae	-0.07574211
46	0x3cb2960a	0.02180006
47	0xbc9a8feb	-0.018867454
48	0x3da3b7e8	0.07994062
49	0x3c9e4176	0.019318324
50	0x3d3e6345	0.04648139
51	0x3cf1fdc4	0.02953995
52	0x3d07d3b0	0.033160865
53	0x3d8098ca	0.06279142
54	0xbd21a4ad	-0.039463688
55	0x3c5d2ff8	0.013500206
56	0x3d013eb9	0.031553958
57	0xbd8eb541	-0.06968165
58	0xbbe94166	-0.007118392
59	0xbc8c58b2	-0.017132137
60	0x3c96b076	0.01839469
61	0x3b41547a	0.0029499815
62	0xbd29ee4c	-0.041487023
63	0xbb89f23d	-0.0042097853
64	0xbda252d0	-0.079259515
65	0x3d894279	0.06702132
66	0xbd7d4bfe	-0.06184005
67	0xbd38d917	-0.045128908
68	0x3d7fc8d6	0.06244739
69	0x3c9eae77	0.0193703
70	0xbaa3bb96	-0.0012491818
71	0xbd46b8f9	-0.048516247
72	0x3c7177f2	0.01473807
73	0x3b71baf9	0.0036885126
74	0x3b2f4e72	0.0026749638
75	0xbd7edd24	-0.062222615
76	0xbcfe19ff	-0.031018255
77	0xbb6e5e11	-0.0036371986
78	0xbd96e1b3	-0.073672675
79	0xbd12a56a	-0.035802282
80	0x3d4c2fe2	0.049850352
81	0x3d250eb4	0.040297225
82	0xbb2ce306	-0.0026380434
83	0xbdc8b3f7	-0.097999506
84	0x39d62132	0.00040841993
85	0xbd2166ba	-0.03940461
86	0xba242a49	-0.00062624045
87	0xbd023dd1	-0.031797234
88	0x3c462b6a	0.012095312
89	0x3d4d813b	0.050172072
90	0x3ba590b8	0.005052652
91	0x3cf54a47	0.029942645
92	0xbd090f87	-0.033462074
93	0xbb922ff3	-0.0044612824
94	0x3d8ce850	0.068802476
95	0xbdab7f92	-0.083739415
96	0x3d1db0d5	0.03849872
97	0xbd988f95	-0.07449261
98	0xbd0dfc57	-0.03466448
99	0xbc847c27	-0.016172482
100	0xbcab2f6e	-0.02089664
101	0x3d912614	0.07087341
102	0x3da0d142	0.07852413
103	0xbb591e9e	-0.0033129822
104	0x3cd2a7e5	0.025714824
105	0x3ce73560	0.028223693
106	0xbcae9629	-0.021311836
107	0x3d1f4f47	0.038893964
108	0x3cc3083a	0.023807634
109	0x3c634a73	0.013872731
110	0xbd554415	-0.05206688
111	0xbca26ce1	-0.019827308
112	0x3cbbc2b8	0.022919998
113	0xbcdfd3e2	-0.027322713
114	0xbc987642	-0.018611077
115	0x3cf06a24	0.029347487
116	0xbd3c4f08	-0.045973808
117	0xbcef85aa	-0.02923854
118	0x3d56f678	0.052481145
119	0xbd1fb24a	-0.03898839
120	0x3da25ad8	0.07927483
121	0xbd164be3	-0.036693465
122	0x3d5cb00d	0.053878833
123	0x3a4228dc	0.0007406601
124	0x3d82df15	0.06390206
125	0x3da82a8b	0.082112394
126	0x3da40b5d	0.0800998
127	0x3d035628	0.032064587
128	0x3d547391	0.051868025
129	0xbd192ac5	-0.037394304
130	0x3d039385	0.032123107
131	0x3ccbd59f	0.024882136
132	0xb9a89bc4	-0.00032159511
133	0xbd08c906	-0.033394836
134	0xbd4ee490	-0.050510943
135	0x3d238f84	0.03993179
136	0xbcc4733c	-0.02398073
137	0x3dbaadc3	0.09115174
138	0x3cd68f4a	0.026191372
139	0x3b058182	0.0020371382
140	0x3ce5702d	0.028007591
141	0xbd5cc646	-0.053900026
142	0xbda93d3d	-0.082636334
143	0x3d2e295a	0.042519905
144	0x3d586044	0.05282618
145	0xbd9f1e32	-0.07769431
146	0x3d54c998	0.051950067
147	0x3dbd778e	0.09251319
148	0x3b53276a	0.0032219538
149	0x3d67c87c	0.05658768
150	0x3a9b13cb	0.001183146
151	0xbcfbbff0	-0.030731171
152	0x3c59c3a8	0.013291277
153	0x3c8ea88f	0.01741436
154	0xbd9b8163	-0.07593038
155	0x3c9875a8	0.01861079
156	0xbceb560a	-0.02872755
157	0xbd3f3822	-0.04668439
158	0x3d4ae751	0.049537007
159	0xbd84905a	-0.064728454
160	0xbc3283ba	-0.010895664
161	0x3d9df9e9	0.07713682
162	0x3d7dacb4	0.06193228
163	0x3cc130b3	0.023582792
164	0x3d83972e	0.064253196
165	0x3d0b9d46	0.034085535
166	0x3d841ea1	0.064511545
167	0x3d05c4f4	0.032658532
168	0xbdabb51a	-0.08384152
169	0x3d804665	0.06263427
170	0xbd85b259	-0.06528158
171	0x3d116c01	0.03550339
172	0xbcf4d028	-0.029884413
173	0x3c97a167	0.01850958
174	0xbd9c80aa	-0.07641728
175	0xbd8e92ef	-0.06961619
176	0xbc551d67	-0.013007498
177	0x3d1c632d	0.03818052
178	0xbc2421e8	-0.0100178495
179	0xbc09cdaf	-0.008410855
180	0x3ca06d02	0.019583229
181	0x3d64e495	0.055882055
182	0xbd82c84d	-0.063858606
183	0xbbb2e3a9	-0.005459268
184	0xbd06c5e2	-0.03290356
185	0xbd950165	-0.072756566
186	0xbbbde703	-0.005795361
187	0xbd556e21	-0.05210698
188	0xbd84919a	-0.06473084
189	0xbdba082f	-0.09083592
190	0xbd0ed8b0	-0.034874618
191	0xbb0fb93c	-0.0021930477
192	0x3d807350	0.06271994
193	0x3d9101bb	0.07080408
194	0x3d7e0ea1	0.06202567
195	0x3d0c869a	0.034308054
196	0xbbace18c	-0.0052759107
197	0x3d947c74	0.072503
198	0x3c79cbc2	0.015246334
199	0xbd9b942d	-0.07596622
200	0x3cd18940	0.025578141
201	0xbd1cafce	-0.038253598
202	0xbd0bed0d	-0.034161616
203	0xbc95d9b5	-0.018292287
204	0x3d3e0ba1	0.04639781
205	0xbce2a139	-0.027664768
206	0x3beb4149	0.0071794135
207	0x3d82fb46	0.06395583
208	0xbda01547	-0.07816558
209	0xbdac5e0c	-0.084163755
210	0x3d731175	0.05934282
211	0x3c291188	0.010319121
212	0xbd9c03fa	-0.07617946
213	0xbd1953f4	-0.03743358
214	0x3d1ec9eb	0.038766783
215	0xbd2a796f	-0.041619714
216	0xbd8ece7c	-0.069729775
217	0x3d95f0a4	0.07321289
218	0xbd3ed379	-0.046588395
219	0x3d507d7b	0.050900918
220	0xbd08cc6a	-0.03339807
221	0x3d97d355	0.07413355
222	0xbdb5cc3d	-0.08876846
223	0xbd2fdc34	-0.04293461
224	0xbd8c88ff	-0.068620674
225	0xbc064762	-0.00819573
226	0xbc068034	-0.008209277
227	0xbdad415d	-0.08459733
228	0xbd8e3e95	-0.0694553
229	0xbae26df8	-0.0017275205
230	0xbd3245d6	-0.043523632
231	0xbcddce74	-0.027075984
232	0xbd791904	-0.060814872
233	0xbbfc4028	-0.0076980777
234	0xbc8a021c	-0.016846709
235	0x3cc11579	0.02356981
236	0x3d9fc0a0	0.07800412
237	0x3d92a64d	0.071606256
238	0x3d837674	0.064190775
239	0x3d0e2671	0.03470463
240	0xbcbfb3fc	-0.023401253
241	0x3d084255	0.033266384
242	0xbcf3ffee	-0.029785123
243	0x3d4c3ea9	0.049864445
244	0xbd86ea94	-0.06587711
245	0x3d606d91	0.05479199
246	0xbd3260e6	-0.04354944
247	0xbd7cfca1	-0.061764363
248	0x3d3bf9bf	0.045892473
249	0x3be9356a	0.007116963
250	0x39b4dcfc	0.00034496922
251	0xbd3ef926	-0.046624325
252	0xbd42b0e4	-0.047531977
253	0x3c141b59	0.009039723
254	0x3d801c11	0.06255353
255	0xbce9ed40	-0.028555512

encoder.gru.weight_hh_l0 f4 [384, 128]
0	0xbd8b58ac	-0.06804022
1	0xbd1a7239	-0.037706587
2	0x3d85ba92	0.06529726
3	0xbd82a4e7	-0.06379109
4	0xbdb2e93a	-0.08735891
5	0x3d38fd8e	0.045163684
6	0xbc060936	-0.008180907
7	0x3d074f24	0.03303446
8	0xbdb59bdf	-0.08867621
9	0xbcec22aa	-0.028825123
10	0x3c02d8e3	0.00798628
11	0xbd038c93	-0.032116484
12	0xbd82ae85	-0.06380943
13	0x3cda6c04	0.026662834
14	0xbd452da9	-0.048139248
15	0x3d50f767	0.05101719
16	0x3d99eeb3	0.075162314
17	0x3d571180	0.052506924
18	0x3d96989b	0.07353326
19	0x3b7e0c2d	0.0038764582
20	0x3d091633	0.033468436
21	0x3daf7366	0.085669324
22	0xbd1448b1	-0.036202136
23	0xbd1978bf	-0.037468668
24	0xbd9b8d07	-0.07595258
25	0x3d587628	0.052847058
26	0xbc41bae2	-0.0118243415
27	0xbc47a66f	-0.012185677
28	0x3aac0444	0.001312383
29	0x3d9f861c	0.07789251
30	0xbc372c61	-0.011180014
31	0xbd6a6497	-0.057224836
32	0xbc61f6b5	-0.01379173
33	0xbd07df05	-0.033171672
34	0xbca57db7	-0.020201547
35	0x3d5db46d	0.054127146
36	0xbd8c83fc	-0.068611115
37	0x3d1bef89	0.038070235
38	0x3d897b03	0.06712916
39	0x3cff338d	0.031152511
40	0xbc06266a	-0.00818787
41	0xbda7950d	-0.08182726
42	0x3daf404c	0.085571855
43	0xbdabf460	-0.0839622
44	0xbcf86ac7	-0.030324353
45	0x3cfa8981	0.030583145
46	0x3d9f7b88	0.077872336
47	0xbd3e12c6	-0.046404622
48	0x3a94dbff	0.0011357068
49	0x3b826bf0	0.0039801523
50	0x3d982964	0.0742977
51	0x3dae9e2a	0.08526261
52	0x3c5ab880	0.013349652
53	0xbd2d2ddd	-0.042280067
54	0x3d9002d0	0.070317864
55	0xbcf79edb	-0.030227115
56	0xbd6cc044	-0.057800546
57	0x3ca54f9c	0.020179562
58	0x3cea8e25	0.028632233
59	0x3da1753d	0.078836896
60	0xbdbb139f	-0.09134602
61	0x3be68302	0.0070346603
62	0xbd939a3b	-0.072071515
63	0xbd3cc700	-0.04608822
64	0x3d9c0154	0.07617441
65	0xbc958e96	-0.018256467
66	0x3d71d476	0.05904051
67	0x3d480dbd	0.048841227
68	0x3d57c6f7	0.052679982
69	0xbb884d34	-0.004159594
70	0x3cd5cf97	0.026099963
71	0x3db30fc2	0.0874324
72	0xbcb2a98c	-0.021809362
73	0xbd543e96	-0.0518175
74	0x3db4877e	0.088149056
75	0xbd568bd9	-0.052379463
76	0x3d5876e1	0.052847747
77	0x3c61195f	0.013738959
78	0x3d8226c1	0.06355048
79	0x3ca08c17	0.01959805
80	0xbd389fa5	-0.045074124
81	0x3d9ee1ed	0.07757936
82	0xbdb5b001	-0.08871461
83	0x3af54c79	0.0018714807
84	0x3daf3f0d	0.08556948
85	0xbbf51395	-0.007479141
86	0x3d611972	0.054955907
87	0x3dabc3fa	0.08386989
88	0xbd00e3b1	-0.031467143
89	0xbdabc050	-0.0838629
90	0xbda376c8	-0.0798164
91	0x3d5cc727	0.053900864
92	0xbd884599	-0.066539
93	0xbcf7f566	-0.030268382
94	0x3cb2d94b	0.021832129
95	0x3d8c487f	0.06849765
96	0x3afdd1aa	0.0019364853
97	0x3bb49231	0.0055105914
98	0xbd272d7e	-0.04081487
99	0xbd6d8c3b	-0.057995062
100	0x3cc0a769	0.023517327
101	0x3c25e77a	0.010125989
102	0x3bb5a15c	0.005542917
103	0x3cc8732a	0.024468977
104	0x3b3bfef6	0.0028685904
105	0xbcc48219	-0.023987817
106	0xbd8ccdd2	-0.068751946
107	0xbd8c2c94	-0.0684444
108	0x3c4bf13a	0.01244765
109	0xbd646c1a	-0.055767156
110	0x3da60649	0.081066675
111	0x3cc2532f	0.023721306
112	0x3d2ea749	0.042640004
113	0x3cd2def3	0.025741076
114	0x3cb53aac	0.022122703
115	0x3d6dc260	0.0580467
116	0x3d548b44	0.051890627
117	0xbd4f197c	-0.050561413
118	0x3d702614	0.058630064
119	0xbd9c6326	-0.076360986
120	0xbc1baa14	-0.009500999
121	0xbd834ba1	-0.064109094
122	0x3da8b6c1	0.082379825
123	0x3d98a2ef	0.07452952
124	0x3c267aa0	0.010161072
125	0xbd64b996	-0.05584105
126	0x3cee5098	0.029091164
127	0xbd6a81df	-0.05725276
128	0x3b491e88	0.0030688364
129	0x3d13e1a3	0.036103856
130	0x3d5b3467	0.05351677
131	0xbd1d972a	-0.03847424
132	0xbcd7a52a	-0.026323874
133	0xbb47d394	-0.00304911
134	0x3c39999f	0.01132813
135	0x3cd959de	0.02653211
136	0x3dbeb049	0.093109675
137	0x3ba191de	0.004930719
138	0x3d3c9794	0.046042994
139	0xbcaab55d	-0.020838434
140	0xbd8ea209	-0.069644995
141	0x3cc2fe6e	0.023802962
142	0xbd19713d	-0.037461508
143	0xbc690a44	-0.014223639
144	0xbd90dcc3	-0.07073357
145	0x3d94c232	0.07263602
146	0xbab3eb70	-0.0013726782
147	0x3d60fe08	0.054929763
148	0x3d25cc73	0.04047818
149	0xbd6353eb	-0.055499952
150	0x3d9fdad1	0.07805408
151	0x3b4d8456	0.0031359396
152	0x3d751b5b	0.05984054
153	0x3d1d9fa1	0.038482312
154	0xbcb5e81e	-0.022205409
155	0xbcbb3652	-0.02285305
156	0xbd64ba07	-0.055841472
157	0xbd9ae44f	-0.07563078
158	0xbc6c1e75	-0.014411558
159	0x3c520965	0.012819623
160	0xbd8dcc91	-0.069237836
161	0x3b8e1d8d	0.004337019
162	0x3da255b7	0.07926505
163	0xbccb5255	-0.024819532
164	0x3dc6d79e	0.097090945
165	0x3d29c61d	0.0414487
166	0x3da1b792	0.078963414
167	0x3d526231	0.051363174
168	0x3c4cd96f	0.012503012
169	0x3b4ee9b4	0.0031572403
170	0xbd49bf3b	-0.049254637
171	0x3bb1cc2e	0.0054259514
172	0xbcf9eec7	-0.030509366
173	0x3c0cc18d	0.008591068
174	0x3d6571bd	0.056016672
175	0x3cf15381	0.029458763
176	0xbd5f266f	-0.054480013
177	0x3bf58445	0.0074925744
178	0xbd352889	-0.04422811
179	0xbd7fa010	-0.062408507
180	0xbd5c240c	-0.053745314
181	0x3d51e9b2	0.05124826
182	0x3d8344d8	0.06409615
183	0xbd8560fb	-0.06512638
184	0x3d3fd806	0.046836875
185	0xbc9ce81a	-0.019153643
186	0x3d93761d	0.07200263
187	0x3d8aca7b	0.06776901
188	0xbd5508e2	-0.052010424
189	0x3ca9ac5b	0.020712068
190	0x3d9d84f8	0.076913774
191	0xbd4fb25c	-0.050707206
192	0x3ca7ca28	0.020482138
193	0x3c60f3dc	0.013730016
194	0xbdb10b2f	-0.08644711
195	0xbdb149ea	-0.08656676
196	0xbd49aea2	-0.04923881
197	0xbd47f10d	-0.04881387
198	0xbd8f62d7	-0.07001274
199	0xbc9c162c	-0.019053541
200	0x3cede5f0	0.029040307
201	0x3d1e212d	0.038605858
202	0x3d94aa19	0.07259006
203	0x3b23eaf2	0.0025011864
204	0x3c1d8fed	0.009616834
205	0x3d53fada	0.051752903
206	0xbd84d4f0	-0.06485927
207	0x3d81967d	0.063275315
208	0x3d834ebb	0.06411501
209	0xbd932fca	-0.071868494
210	0xbba9ddae	-0.005183897
211	0x3c052766	0.008127069
212	0x3da849a9	0.082171746
213	0xbd0e945a	-0.034809448
214	0x3dbce12e	0.09222637
215	0xbd2b05b1	-0.041753475
216	0xbc77c6f0	-0.015123114
217	0x3cdcacbe	0.026937839
218	0x3d22c723	0.039740693
219	0xbda7e663	-0.0819824
220	0xbd6b4d9e	-0.05744707
221	0xbc77e5c8	-0.015130468
222	0xbd945f6d	-0.072447635
223	0x3d42de71	0.047575418
224	0x3d10c711	0.035346095
225	0x3d8a975e	0.06767152
226	0x3b5f7347	0.003409581
227	0x3c059a9f	0.00815454
228	0xbc63350c	-0.013867628
229	0xbdaaf5b1	-0.08347643
230	0x3dc2e068	0.09515458
231	0xbb5d6c44	-0.0033786455
232	0x3b01898a	0.0019765818
233	0x3b2a8805	0.0026021015
234	0xbd9596cc	-0.07304153
235	0xbd9482f8	-0.07251543
236	0xbb3245fe	-0.0027202363
237	0xbd43838c	-0.047732875
238	0x3d034eca	0.03205756
239	0x3d8e3490	0.06943619
240	0x3d96e0a5	0.07367066
241	0x3c91ef06	0.01781417
242	0x3d2e5673	0.042562913
243	0xbdab3530	-0.08359754
244	0xbd55f798	-0.052238077
245	0xbd5e8da5	-0.0543343
246	0x3d75add4	0.05998023
247	0xbd84626a	-0.064640835
248	0x3d62e3d3	0.05539305
249	0x3d921ffa	0.07135005
250	0xbd8fed63	-0.070277
251	0x3d8d9424	0.06913021
252	0xbcbb303f	-0.022850154
253	0x3d9df315	0.0771238
254	0xbd44352a	-0.047902264
255	0x3cf004ea	0.029299218

encoder.gru.bias_ih_l0 f4 [384]
0	0x3c923484	0.017847307
1	0x3ae416a1	0.0017401763
2	0xbcea8555	-0.02862803
3	0xbce580be	-0.02801549
4	0x3d44f470	0.048084676
5	0xbd06b548	-0.032887727
6	0xbccc07ec	-0.024906121
7	0xbd9e56a7	-0.077313714
8	0xbd95493a	-0.072893575
9	0x3b6b115e	0.0035868506
10	0xbd4c44ea	-0.04987041
11	0x3d74340b	0.059619945
12	0xbd8e1caf	-0.06939065
13	0x3cce6728	0.025195673
14	0x3d3457ec	0.04402916
15	0x3d28600d	0.041107226
16	0x3d9e9192	0.07742609
17	0x3cec18af	0.028820364
18	0x3d83ed25	0.06441716
19	0xbdb2abaa	-0.087241486
20	0x3d588b6f	0.05286735
21	0x3d424763	0.04743136
22	0x3d936aa0	0.071980715
23	0xbd40fc75	-0.04711576
24	0x3da0c2b1	0.078496344
25	0x3d946681	0.072461136
26	0x3d85308f	0.065034024
27	0x3dae60ab	0.08514532
28	0xbd271295	-0.040789206
29	0x3d82fbdd	0.06395695
30	0x3daa9735	0.08329622
31	0x3d27be63	0.04095305
32	0xbd6bb9e5	-0.05755033
33	0xb963d834	-0.00021728949
34	0x3b601903	0.0034194596
35	0xbd3088b5	-0.043099124
36	0x3d827cd5	0.06371466
37	0x3d457f08	0.04821685
38	0xbd8e325e	-0.069432005
39	0xbd8de3cf	-0.06928217
40	0xbce9e3b8	-0.028550968
41	0x3d20a055	0.039215405
42	0xbd217eb2	-0.039427467
43	0xbdb21ad9	-0.08696527
44	0xbc0d4be6	-0.008624053
45	0x3d1da200	0.038484573
46	0xbdae8e43	-0.08523228
47	0xbd7a025a	-0.0610374
48	0x3c8f77e6	0.017513227
49	0xbd2860d8	-0.041107982
50	0xbd8f0575	-0.06983463
51	0xbd15dbc7	-0.03658655
52	0x3d0e596d	0.03475325
53	0x3d2a295e	0.041543357
54	0x3d8b80f6	0.06811707
55	0x3d1c8d6e	0.038220815
56	0x3c46a87d	0.012125132
57	0x3d829114	0.06375328
58	0xbd1ec834	-0.038765147
59	0x3c3b811f	0.011444359
60	0xbd53cb86	-0.051707767
61	0x3cabdaf4	0.020978428
62	0xbd2541fa	-0.040346123
63	0xbd6b2d2f	-0.057416137
64	0xba24d6d1	-0.00062881137
65	0x3d2ac850	0.04169494
66	0xbc98ccda	-0.018652368
67	0xbd22572e	-0.039633922
68	0xbcb7c078	-0.022430643
69	0x3d2ab85d	0.04167973
70	0x3ce54854	0.02798859
71	0x3ca7ae4c	0.020468853
72	0x3afce2b2	0.0019293635
73	0x3d0a7906	0.033806823
74	0x3d8743b2	0.06604709
75	0x3d97c01e	0.0740969
76	0xbd7b50b1	-0.06135625
77	0xbda8eb96	-0.082480595
78	0xbcb2a94c	-0.021809243
79	0x3d258778	0.040412396
80	0x3bf94038	0.0076065324
81	0xbc1ff152	-0.009762125
82	0x3c31fff8	0.01086425
83	0x3d531113	0.051529955
84	0xbc26355b	-0.010144557
85	0xbd9a9d34	-0.07549515
86	0x3d3e62d1	0.046480957
87	0xbcbb1dc5	-0.022841344
88	0x3c3ec3fd	0.011643407
89	0x3cbf1534	0.02332554
90	0xbd51c494	-0.051212862
91	0x3d999900	0.074998856
92	0xbd24b803	-0.04021455
93	0xbc1b0a55	-0.009462913
94	0xbd9646b8	-0.07337707
95	0x3cb6c971	0.022312852
96	0x3d151a37	0.036401954
97	0x3d481448	0.048847467
98	0x3d2738ef	0.04082578
99	0x3d1dd8ea	0.038536943
100	0xbcb93b9e	-0.022611436
101	0x3c930640	0.017947316
102	0x3db59359	0.08865995
103	0x3da51610	0.08060849
104	0x3ba99f47	0.005176458
105	0x3dab2307	0.0835629
106	0x3c8045ff	0.015658377
107	0xbd37cfd3	-0.04487593
108	0xbd92d604	-0.071697265
109	0xbd6d74c2	-0.057972677
110	0x3d75607a	0.05990646
111	0x3d09e9ed	0.033670355
112	0x3cb312e3	0.021859592
113	0x3d94302b	0.0723575
114	0xbd62641e	-0.05527126
115	0xbd25994f	-0.04042941
116	0xbd727edf	-0.059203025
117	0x3cc8aec1	0.024497392
118	0x3bb73898	0.0055914633
119	0xbd926912	-0.07148947
120	0x3cd96a6e	0.026540007
121	0xbd970911	-0.07374776
122	0xbd0f975f	-0.035056468
123	0x3db77d4e	0.08959447
124	0xbd8e3c12	-0.06945051
125	0x3d8c0e05	0.068386115
126	0x3d313bc5	0.04326989
127	0xbda19fc4	-0.07891801
128	0xbc2f5e8d	-0.010703695
129	0x3da08eda	0.07839747
130	0x3d54add5	0.05192359
131	0xbd977d5f	-0.073969595
132	0xbd4c45e4	-0.04987134
133	0x3d7b4930	0.061349094
134	0x3d819048	0.063263476
135	0xbae715a5	-0.0017630352
136	0x3b6dd779	0.0036291762
137	0x3d172f6c	0.03691046
138	0xbcfcb11d	-0.030846173
139	0x3d5545df	0.052068587
140	0x3c3b252d	0.011422438
141	0xbd721bc9	-0.05910853
142	0xbd02c26f	-0.031923708
143	0xbd9a2443	-0.075264476
144	0xbca13220	-0.019677222
145	0x3d1a0502	0.037602432
146	0xbc6060b5	-0.013694932
147	0xbd10cf83	-0.03535415
148	0xbc9d103a	-0.019172776
149	0x3d8e3c48	0.069450915
150	0x3c1481a5	0.009064113
151	0x3d43d03c	0.04780601
152	0xbbe1dc3a	-0.006892708
153	0xbd81a22a	-0.063297585
154	0x3d652175	0.05594011
155	0x3d89c4d5	0.06726996
156	0xbd8a5336	-0.067541525
157	0x3d03dd26	0.032193325
158	0xbd367071	-0.044540826
159	0x3bd62d0f	0.006536133
160	0xbccf3aed	-0.025296653
161	0xbd422778	-0.04740092
162	0xbd2f4416	-0.04278954
163	0xbcdde316	-0.027085822
164	0x3d82df71	0.06390274
165	0x3d93fce0	0.072259665
166	0xbcd83db5	-0.026396612
167	0x3d3eb114	0.046555594
168	0x3d67aef1	0.05656332
169	0xbcb4bbc4	-0.02206219
170	0x3d319079	0.04335067
171	0x3d0c9310	0.034319937
172	0xbca43afa	-0.020047653
173	0x3cfefcec	0.031126462
174	0x3c3b48e0	0.011430949
175	0x3d65fb59	0.056147907
176	0xbd4d62de	-0.050143115
177	0xbbbba9e2	-0.0057270387
178	0xbd803088	-0.062592566
179	0xb9fb63e1	-0.00047948866
180	0xbd80d73f	-0.06291055
181	0xbd935a0e	-0.07194911
182	0xbd105541	-0.035237554
183	0xbdc15503	-0.09440043
184	0xbda1451a	-0.07874508
185	0xbd4252a7	-0.047442105
186	0xbdac5a24	-0.084156305
187	0x3cae8094	0.021301545
188	0xbd08fc26	-0.033443592
189	0xbd1fb33d	-0.038989294
190	0xbc931af7	-0.017957194
191	0xbcf9941f	-0.030466137
192	0xbc1a0cbc	-0.00940245
193	0xbd8fd058	-0.0702216
194	0x3ce5e244	0.028061993
195	0xbd99db31	-0.075125106
196	0x3da1f81f	0.079086535
197	0xbd96af2e	-0.073576316
198	0x3d3da3eb	0.046298902
199	0xbd8fa845	-0.07014517
200	0x3db3bd7f	0.08776378
201	0x3d964dbf	0.07339048
202	0xbdaceb29	-0.08443291
203	0x3d449533	0.04799385
204	0x3d9de70d	0.07710085
205	0xbc6123b2	-0.013741421
206	0x3d5a8fae	0.05335968
207	0x3d037fd3	0.032104325
208	0x3b837bd9	0.0040125665
209	0xbc34ec59	-0.011042678
210	0x3d6f05c6	0.058355115
211	0xbcbf1ecf	-0.02333012
212	0xbda4ae3a	-0.080410436
213	0x3da8c88e	0.08241378
214	0xbd2dd5cd	-0.042440224
215	0x3cc8b769	0.02450152
216	0x3dadb1df	0.08481192
217	0x3d9b8e8b	0.07595547
218	0x3d370162	0.044679053
219	0x3d5be5dc	0.053686008
220	0xbd16dd95	-0.03683241
221	0xbd048411	-0.03235251
222	0x3d0feb3d	0.03513645
223	0x3d2477ed	0.040153433
224	0x3cace25b	0.021104028
225	0x3d73c7bd	0.059516657
226	0x3d410b9a	0.047130205
227	0x3da0fd6c	0.078608364
228	0xbd2e0789	-0.042487655
229	0x3da8ae38	0.082363546
230	0x3d49a11e	0.04922592
231	0x3d293d64	0.041318312
232	0x3c18784e	0.009306027
233	0xbd81dd9d	-0.063410975
234	0x3c7aadf0	0.015300259
235	0xbda0e5d5	-0.07856337
236	0x3cb3a336	0.021928411
237	0x3cd3e8e6	0.02586789
238	0x3d6b765c	0.057485923
239	0xbd567f32	-0.052367397
240	0x3d7c0435	0.06152745
241	0x3da3dbd1	0.08000911
242	0xbdb1794d	-0.086657144
243	0xbd7288b7	-0.059212413
244	0xbcaf6ffb	-0.021415701
245	0x3d647ddb	0.055784088
246	0x3d9bd06c	0.07608113
247	0xbcd9ae8d	-0.02657249
248	0x3d627c31	0.05529422
249	0xbbae8b9f	-0.0053267027
250	0x3d7629bd	0.0600984
251	0xbd847156	-0.064669296
252	0xbcc4cbea	-0.024023015
253	0xbcfcdf01	-0.030868055
254	0xbd9ad3cf	-0.075599305
255	0xbd70543b	-0.05867408

encoder.gru.bias_hh_l0 f4 [384]
0	0x3d403beb	0.046932142
1	0x3d19030c	0.03735642
2	0x3d727e53	0.059202503
3	0xbdaa8100	-0.08325386
4	0x3daba92d	0.08381877
5	0xbcaf4e81	-0.021399738
6	0x3c68a283	0.014198902
7	0xbd92c779	-0.07166953
8	0x3b166f52	0.0022954536
9	0x3c46ee0f	0.0121417185
10	0x3d826977	0.06367772
11	0x3bde171d	0.0067776577
12	0xbc9d079d	-0.01916867
13	0xbcac5a5f	-0.021039186
14	0x3db573f0	0.08860004
15	0xbd843ec3	-0.06457283
16	0x3d9b6e17	0.07589357
17	0x3d4b90ff	0.049698826
18	0xbcaea622	-0.021319453
19	0xbd386e19	-0.045026872
20	0x3d14860e	0.036260657
21	0xbd32ae44	-0.043623224
22	0x3d10de39	0.035368178
23	0x3d1af544	0.03783156
24	0xbd7e9492	-0.062153406
25	0x3d8c9cf2	0.068658724
26	0xbc6a8ec1	-0.014316262
27	0x3da36999	0.079791255
28	0x3dae38a9	0.08506901
29	0xbd49d94d	-0.0492795
30	0xbd454512	-0.048161574
31	0xbd787d1d	-0.060666192
32	0x3c3d05ab	0.011536996
33	0xbba678dc	-0.0050803255
34	0x3d129d3d	0.035794485
35	0x3d333944	0.043755785
36	0xbc83d2db	-0.016091755
37	0xbd8349f4	-0.0641059
38	0xbceb94ff	-0.02875757
39	0x3d366b0b	0.044535678
40	0xbc02dba2	-0.007986935
41	0x3d20c84f	0.03925353
42	0xbd40a6b1	-0.04703397
43	0xbd56a7d9	-0.052406166
44	0x3bc48be2	0.0059981206
45	0x3d495e4d	0.049162198
46	0x3b446fe6	0.0029973923
47	0x3da0664a	0.0783201
48	0x3c1b2e9f	0.009471565
49	0x3d80f83c	0.06297347
50	0x3d866d68	0.06563836
51	0x3cc4452f	0.02395877
52	0x3ccad043	0.02475751
53	0xbd24e43e	-0.04025673
54	0xbcb6049e	-0.022218999
55	0x3d211c55	0.03933366
56	0xbd411299	-0.047136877
57	0x3cf092ef	0.029366938
58	0xbae3a0bb	-0.0017366627
59	0xbd520815	-0.05127724
60	0x3d407313	0.046984743
61	0x3d09588e	0.033531718
62	0x3d999ffb	0.07501217
63	0x3d3065b7	0.043065753
64	0xbd063198	-0.03276214
65	0x3d668c25	0.056285996
66	0xbd0a4419	-0.03375635
67	0xbd1eea39	-0.03879759
68	0x3c0685f7	0.008210651
69	0x3d516d84	0.051129833
70	0xbc9ebc54	-0.019376911
71	0xbd278209	-0.040895496
72	0x3cd2e3fe	0.02574348
73	0xbd479e0d	-0.048734713
74	0xbba6faa5	-0.005095797
75	0x3ca73788	0.020412222
76	0x3bf27d18	0.0074001662
77	0xbd8ab92e	-0.067736015
78	0x3d998d8c	0.07497701
79	0x3d0dbb99	0.034602735
80	0xbda0c913	-0.07850852
81	0xbc2ea577	-0.010659567
82	0xbd2dcdb2	-0.042432494
83	0x3cd57fa2	0.026061837
84	0xbcdd1fd3	-0.026992714
85	0x3cc85985	0.024456749
86	0x3dab5d0f	0.08367359
87	0x3da3e019	0.080017276
88	0x3dce6d4f	0.10079443
89	0xbd518f64	-0.05116214
90	0xbda14a22	-0.07875468
91	0x3d268a78	0.040659398
92	0xbcfdf496	-0.031000417
93	0xbd9159c5	-0.070972
94	0xbd84aafb	-0.064779244
95	0xb9e1dc9d	-0.00043079714
96	0x3d5ad676	0.053427182
97	0x3c0990ed	0.008396369
98	0x3c45b1d2	0.012066321
99	0xbc386d56	-0.0112565365
100	0x3d9c82d6	0.076421425
101	0xbd706e4d	-0.05869894
102	0xbc92f120	-0.017937243
103	0xbdafd50c	-0.08585557
104	0xbd87c20a	-0.06628807
105	0x3db1b955	0.086779274
106	0xbda1ebc0	-0.07906294
107	0xbdad447c	-0.08460328
108	0xbd11f85a	-0.035637237
109	0x3d1885f2	0.037237115
110	0xbcbddc1d	-0.023176247
111	0x3d523f49	0.051329885
112	0x3d05dbb3	0.032680225
113	0xbd34af7c	-0.044112667
114	0xbcb1a686	-0.02168585
115	0xbd702b27	-0.058634903
116	0x3dbb6aac	0.091512054
117	0x3d362814	0.044471815
118	0xbd62a7d0	-0.05533582
119	0x3d8bdaf6	0.06828873
120	0xbccd4061	-0.025055112
121	0x3c34ce9c	0.011035588
122	0x3d9162ce	0.070989236
123	0x3d7c4839	0.061592314
124	0xbd0c88c5	-0.03431012
125	0x3c0fd3b8	0.008778505
126	0xbd2e2d88	-0.04252389
127	0x3c6647b1	0.0140551785
128	0xbdbdde81	-0.09270955
129	0x3d91a193	0.07110896
130	0xbc78d843	-0.01518828
131	0x3d9e8a29	0.07741196
132	0x3d3f0b85	0.046641845
133	0x3d42beaf	0.04754513
134	0x3db1ab8b	0.08675297
135	0xbd4148de	-0.047188632
136	0x3d6de8a5	0.058083195
137	0xbc6477e7	-0.013944603
138	0x3d204e2d	0.039137054
139	0xbd12cb50	-0.035838425
140	0xbbbb6c39	-0.0057196883
141	0xbd262f13	-0.040572237
142	0xbce22d26	-0.02760942
143	0xbcca2d3b	-0.02467977
144	0x3d0c85d6	0.034307323
145	0xbd8fc958	-0.07020825
146	0xbc49417c	-0.012283679
147	0x3d9749a6	0.07387094
148	0x3cbc2227	0.022965504
149	0xbd98e0aa	-0.07464726
150	0xbd13b6c8	-0.036062986
151	0xbcc9cbc6	-0.0246333
152	0x3d9baf0a	0.076017454
153	0xbd53c2cf	-0.051699456
154	0xbbaea19d	-0.0053293244
155	0x3d9cbd62	0.076533094
156	0xbd6341fb	-0.055482846
157	0x3ce1b0d7	0.027550144
158	0xbd137106	-0.03599646
159	0xbdabd8d1	-0.08390964
160	0x3d618cef	0.055066045
161	0x3dacbc42	0.08434345
162	0xbd8743e8	-0.06604749
163	0xbd0cf520	-0.034413457
164	0xbd65f1de	-0.056138866
165	0xbc246f46	-0.010036295
166	0xbd6ec401	-0.058292393
167	0xbd66c0ce	-0.056336217
168	0xbd2238b1	-0.039604846
169	0xbd381e8d	-0.04495101
170	0xbdb414c5	-0.08793024
171	0x3c32b5f9	0.0109076435
172	0x3d7e6f06	0.0621176
173	0x3d374026	0.04473891
174	0x3d7775ef	0.060415205
175	0xbd988b6a	-0.07448466
176	0x3d9efacd	0.0776268
177	0xbdad7475	-0.08469478
178	0x3c972241	0.01844895
179	0xbd762a25	-0.060098786
180	0x3d41031f	0.047122117
181	0xbcae6aca	-0.021291155
182	0xbbc57eee	-0.006027094
183	0x3da24e75	0.07925121
184	0xbbd4662c	-0.0064819064
185	0x3cb0cab7	0.021581037
186	0xbd9cc556	-0.07654826
187	0xbd90fd3e	-0.07079552
188	0xbc54e2a9	-0.012993493
189	0xbc4eae67	-0.012614823
190	0x3c54d15e	0.01298937
191	0x3dbbdc47	0.09172874
192	0xbd7e7a61	-0.06212843
193	0xbce02c70	-0.02736494
194	0xbca01270	-0.019540042
195	0x3dbfd369	0.09366495
196	0xbcfacc9a	-0.03061514
197	0x3d1c267d	0.038122643
198	0xbd821670	-0.06351936
199	0xbd9ddab5	-0.07707731
200	0xbd0e837c	-0.034793362
201	0xbb890bdd	-0.0041823224
202	0xbd12976e	-0.035788946
203	0xbd8bfbc8	-0.06835133
204	0x3a8076c6	0.0009801022
205	0xbd9bf411	-0.07614911
206	0xbc13543f	-0.008992254
207	0x3da7fc26	0.082023904
208	0x3d282479	0.041050408
209	0x3dbf5c7b	0.09343811
210	0x3d860b49	0.06545121
211	0xbd9ae401	-0.075630195
212	0xbd4a5394	-0.049396113
213	0x3d091874	0.033470586
214	0x3d92219f	0.07135319
215	0x3c86f1b8	0.016472682
216	0x3d885651	0.066570885
217	0xbd9146ff	-0.070936196
218	0xbca6f61b	-0.020381024
219	0xbd09643c	-0.033542857
220	0xbd70448a	-0.058659114
221	0x3d8f82bc	0.070073575
222	0xbaa2e837	-0.0012428825
223	0x3d1f53ba	0.038898207
224	0x3c94a0ca	0.018143076
225	0xbcba9963	-0.022778219
226	0x3d4fee8a	0.050764598
227	0x3d8f9fc1	0.070128925
228	0x3ca4e955	0.020130793
229	0xbd087458	-0.03331408
230	0x3c7c1549	0.015385934
231	0x3d6c3ebf	0.057677027
232	0xbcd9ead1	-0.026601227
233	0x3da91c55	0.08257357
234	0xbd854aaf	-0.065083854
235	0xbc1bf11e	-0.009517936
236	0xbc9f6429	-0.01945694
237	0x3c98a771	0.01863453
238	0x3d5dac05	0.05411913
239	0x3cdd2e2b	0.026999554
240	0x3d91177b	0.07084557
241	0x3c49347b	0.012280579
242	0x3db083f5	0.08618919
243	0x3d22679e	0.0396496
244	0x3da3521b	0.07974645
245	0xbcc39481	-0.023874523
246	0x3cd4afe9	0.025962787
247	0x3ca8e061	0.020614805
248	0xbda4d2a6	-0.080479905
249	0x3c1adcab	0.009452025
250	0xbc7d1b85	-0.015448456
251	0xbc93c279	-0.018037068
252	0x3d4ff056	0.05076631
253	0x3c586c44	0.013209406
254	0x3da8bd79	0.08239264
255	0xbd103c15	-0.03521355

encoder.project.weight f4 [8, 128]
0	0xbdb8ddfa	-0.09026714
1	0xbce76db2	-0.028250549
2	0x3cafeae6	0.021474313
3	0x3da780ef	0.08178889
4	0x3d863c26	0.06554441
5	0xbc87c0cf	-0.01657143
6	0x37efb980	2.85774e-05
7	0x3d61e6f4	0.055151895
8	0xbcd5400c	-0.026031516
9	0x3dbc9453	0.09207978
10	0xbcc9aeb8	-0.024619445
11	0xbd3a5153	-0.045487713
12	0x3c526493	0.012841362
13	0x3cd6804a	0.02618422
14	0xbda14374	-0.07874194
15	0xbd6c1649	-0.05763844
16	0xbd8b4f50	-0.06802237
17	0xbc1a4688	-0.00941623
18	0xbd37d4a8	-0.04488054
19	0x3d222f1f	0.03959572
20	0x3da332df	0.07968687
21	0xbd507f12	-0.050902434
22	0xbcc91d7f	-0.024550198
23	0xbc64c9d7	-0.013964138
24	0xbd01d2d0	-0.031695187
25	0x3d1f83a6	0.03894391
26	0xbc56bfe6	-0.013107276
27	0x3dc956b7	0.09830993
28	0xbc5c7962	-0.013456674
29	0x3d5f92df	0.054583427
30	0xbdcceaea	-0.10005744
31	0x3da1ca75	0.07899944
32	0xbd2f8e53	-0.04286034
33	0xba9e9d9a	-0.0012101412
34	0x3d44b549	0.04802445
35	0xbdac39a2	-0.0840943
36	0xbd9b58fc	-0.07585332
37	0x3d7b7d10	0.061398566
38	0xbd3595a9	-0.04433218
39	0x3cabad2a	0.020956594
40	0xbc71d255	-0.01475962
41	0xbc2767f8	-0.010217659
42	0xbdaf6575	-0.08564273
43	0xbd7d06d8	-0.061774105
44	0xbd846d01	-0.06466103
45	0x3ccb6b46	0.024831425
46	0x3c7053bd	0.014668402
47	0x3cfbaa00	0.03072071
48	0x3d87d100	0.066316605
49	0x3da99589	0.08280475
50	0xbd8c11ec	-0.06839356
51	0xbcae8980	-0.0213058
52	0x3d7cc92b	0.061715286
53	0x3c7f9741	0.015600027
54	0xbd1acb50	-0.03779155
55	0xbd642bfe	-0.055706017
56	0x3cb3acbb	0.02193295
57	0xbb8ac138	-0.0042344593
58	0x3d9e97b2	0.07743777
59	0x3c19141e	0.009343175
60	0x3da79712	0.08183111
61	0xbc7b9751	-0.015355901
62	0xbc8a4fb5	-0.01688371
63	0xbd02c0e3	-0.031922232
64	0xbc752a59	-0.01496371
65	0xbd5e8a67	-0.05433121
66	0x3cae7fde	0.021301206
67	0xbd353e6d	-0.044248987
68	0x3cbafa2a	0.022824366
69	0x3d61fd41	0.055173162
70	0xbd022fb2	-0.031783767
71	0xbd02bc04	-0.031917587
72	0xbdb1c2b1	-0.086797126
73	0xbc80ce22	-0.015723292
74	0xbc2d3baf	-0.010573312
75	0x3d4e85ab	0.050420444
76	0xbdbef939	-0.09324879
77	0xbd42f52e	-0.047597103
78	0xbc1c02ce	-0.009522153
79	0x3ca8dff7	0.020614607
80	0xbca1a8ed	-0.01973387
81	0x3d9294fe	0.07157324
82	0xbd93da05	-0.07219318
83	0x3ca84e26	0.020545077
84	0x3d5e0335	0.054202277
85	0x3d0b2b18	0.033976644
86	0x3c6fa88c	0.014627587
87	0x39a2b886	0.00031036529
88	0xbc4a09b1	-0.012331412
89	0xbca642cc	-0.020295523
90	0x3cf0806f	0.029358117
91	0x3d8565d1	0.065135606
92	0xbd99bd65	-0.07506827
93	0x3d9d787c	0.07688996
94	0x3cfd66aa	0.030932743
95	0xbc5ef2e7	-0.013607717
96	0xbd487260	-0.0489372
97	0xbd73f1d2	-0.05955679
98	0xbd06be09	-0.032896075
99	0x3cfcb3b4	0.030847408
100	0x3d1a2156	0.037629448
101	0x3dbb6bfc	0.09151456
102	0xbdb5072c	-0.088392586
103	0x3d2bbf51	0.0419305
104	0xbdb6875c	-0.089125365
105	0x3dc0289d	0.09382746
106	0x3d93c1c3	0.072146915
107	0x3d5c5cb9	0.053799365
108	0x3d8e5d52	0.06951393
109	0xbdc6dec6	-0.097104594
110	0x3c55b9f4	0.013044823
111	0x3beb86f9	0.007187721
112	0xbc9d8dba	-0.01923262
113	0x3d19fee7	0.03759661
114	0xbcc2d668	-0.023783877
115	0xbd8f58da	-0.06999369
116	0x3caf314f	0.021385817
117	0x3d1844df	0.037175056
118	0x3d8760d5	0.06610266
119	0xbd137eec	-0.036009714
120	0xbd766240	-0.060152292
121	0xbbe07c1a	-0.0068507316
122	0x3bd5f8ab	0.0065298877
123	0x3d226b74	0.039653257
124	0x3d12ea7c	0.035868153
125	0x3c7ba238	0.0153585
126	0xbbc7e668	-0.0061004646
127	0xbd104ef1	-0.035231534
128	0xbd0c074b	-0.034186643
129	0x3ca28db5	0.019842962
130	0x3d870437	0.06592601
131	0xbd51611b	-0.051117998
132	0x3d335448	0.04378155
133	0xbd9a3bf0	-0.075309634
134	0xbd412bc0	-0.047160864
135	0xbd9d795b	-0.07689162
136	0xbcefced7	-0.029273434
137	0x3db627eb	0.088943325
138	0x3d92892e	0.07155071
139	0xbcd9af65	-0.026572892
140	0xbc81953a	-0.015818227
141	0xbcccea8a	-0.02501418
142	0x3db24967	0.08705407
143	0xbbdf244e	-0.006809748
144	0xbd2900ed	-0.04126065
145	0xbca8cf31	-0.020606609
146	0xbd15a169	-0.036530886
147	0x3d4f74c9	0.050648484
148	0xbce6394c	-0.028103493
149	0x3d4898ad	0.048973728
150	0xbd6021a3	-0.05471958
151	0xbdaa7af4	-0.08324233
152	0xbd9af8c4	-0.075669795
153	0x3d3e918b	0.04652552
154	0xbbd05a58	-0.006358426
155	0x3d63558f	0.055501517
156	0xbcf940f8	-0.030426487
157	0x3ba830fb	0.005132792
158	0xbd3d46fb	-0.04621027
159	0x3dbc3845	0.0919042
160	0xbd63b646	-0.05559375
161	0x3dae82d5	0.08521048
162	0x3cbea626	0.023272585
163	0xbc83a89a	-0.016071606
164	0x3b8d8970	0.0043193623
165	0xbd5c3691	-0.053762976
166	0xbd0cc852	-0.034370728
167	0xbd62406f	-0.05523723
168	0xbd286d4e	-0.041119866
169	0x3c8d76b9	0.017268525
170	0xbd5709c9	-0.052499566
171	0x3d9f9e7e	0.07793902
172	0xbda59c5a	-0.08086462
173	0x3d0a611b	0.033784013
174	0x3ca09b04	0.019605167
175	0xbd17d2c3	-0.037066232
176	0xbd9b8a7f	-0.075947754
177	0x3d76a272	0.060213514
178	0x3d356153	0.04428227
179	0xbc756df9	-0.014979833
180	0xbc26f52c	-0.0101902895
181	0x3d921040	0.07132006
182	0xbd6e0a70	-0.058115423
183	0xbc344ecf	-0.011005118
184	0x3d9d8639	0.076916166
185	0x3db79c89	0.089654036
186	0x3d0bf571	0.034169618
187	0xbcde7824	-0.027156897
188	0x3d2e0999	0.04248962
189	0xbd78b865	-0.060722727
190	0xbcb131cc	-0.02163019
191	0xbd97f54b	-0.07419833
192	0xbd00ed0b	-0.03147606
193	0xbbc29787	-0.0059384736
194	0x3d9f0dea	0.07766326
195	0xbd8aa3b5	-0.06769506
196	0xbc2d4034	-0.010574389
197	0x3ca4084d	0.02002349
198	0x3d0ff954	0.035149887
199	0xbcbcfae5	-0.023068855
200	0xbc25b782	-0.010114552
201	0x3da70879	0.08155913
202	0xbd6c0c74	-0.057629064
203	0x3cd73ee7	0.026275111
204	0xbba52a6c	-0.0050404575
205	0x3cff6251	0.03117481
206	0x3d14188f	0.036156233
207	0x3d1a13f9	0.037616704
208	0xbd8921bd	-0.06695888
209	0xbd0ff781	-0.035148147
210	0x3d5c1234	0.053728297
211	0x3d8c32d8	0.06845635
212	0x3bc9e4ce	0.006161309
213	0xbdb9406b	-0.0904549
214	0xbd01a014	-0.031646803
215	0xbc76fbe9	-0.0150747085
216	0xbcb1d006	-0.021705639
217	0xbc703bef	-0.014662727
218	0xbbf1c704	-0.007378461
219	0xbd1cb6a0	-0.038260102
220	0x3c5c9c5d	0.013465014
221	0xbd56bbf6	-0.052425347
222	0xbd334d83	-0.043775093
223	0xbc8beb64	-0.017080016
224	0xbcb688ae	-0.02228197
225	0x3c9c6717	0.019092126
226	0x3d91d92b	0.071215
227	0xbcc885b5	-0.024477819
228	0xbd577b89	-0.052608047
229	0xbd63b91c	-0.055596456
230	0xbd015559	-0.031575534
231	0x3d9ea498	0.077462375
232	0x3c17ab89	0.009257206
233	0xbbba29c7	-0.00568125
234	0xbd46a872	-0.048500486
235	0xbd7738b2	-0.060356803
236	0x3d2e1970	0.042504728
237	0x3d521894	0.05129297
238	0x3c3489ae	0.0110191535
239	0x3d12ba3a	0.03582213
240	0x3d7e7c5d	0.06213032
241	0x3cd128de	0.025532182
242	0xbd90992d	-0.07060466
243	0xbd32cbd5	-0.04365142
244	0x3d8a6d6c	0.06759152
245	0x3c20fc3a	0.0098257605
246	0x3bcaf8f5	0.006194229
247	0x3da0dc46	0.07854514
248	0xbcaf3784	-0.021388777
249	0xbc8d244c	-0.017229222
250	0x3d81a3a8	0.06330043
251	0x3d6b9be2	0.05752171
252	0xbda8bb04	-0.082387954
253	0x3ca25bf5	0.01981924
254	0x3d3a325e	0.04545819
255	0xbc671277	-0.014103523

encoder.project.bias f4 [8]
0	0xbb592cb5	-0.003313822
1	0xbd09ed16	-0.03367337
2	0xbcea557d	-0.028605217
3	0x3d22d160	0.039750457
4	0xbd9dec3a	-0.07711072
5	0xbd8f08b3	-0.06984081
6	0x3dc376b0	0.09544122
7	0xbd85b318	-0.065283

decoder.0.weight f4 [128, 8]
0	0xbba0739e	-0.004896595
1	0x3e9a12cf	0.30092475
2	0xbced4282	-0.028962377
3	0x3e1ab96f	0.151098
4	0xbd536273	-0.05160756
5	0xbeb45417	-0.35220405
6	0x3e4342fe	0.19068524
7	0xbe033fec	-0.12817353
8	0x3df158a8	0.11784488
9	0x3db00a24	0.08595684
10	0x3dd23c27	0.102653794
11	0xbeb62d1b	-0.35581288
12	0x3da08240	0.07837343
13	0xbe46ba10	-0.19406915
14	0x3e9a6604	0.30155957
15	0x3e59b1b8	0.212592
16	0xbdc980b4	-0.09839001
17	0xbdc69adf	-0.09697508
18	0x3e8cd443	0.27505693
19	0xbe515329	-0.2044188
20	0x3e388b15	0.18021806
21	0x3d9f02f3	0.077642344
22	0x3e0e7d16	0.13914904
23	0xbc5c6de5	-0.013453935
24	0x3c865c74	0.016401507
25	0x3e2fb20e	0.17157766
26	0x3e946e6b	0.28990492
27	0x3c41c000	0.0118255615
28	0x3d8fd684	0.070233375
29	0xbe718e36	-0.23589405
30	0xbeaf18c6	-0.34198588
31	0x3c1ef420	0.009701759
32	0xbcc7e04e	-0.024398949
33	0xbe66bce0	-0.22532988
34	0xbe88261c	-0.26591575
35	0x3ea2dec1	0.31810573
36	0xbe1b8832	-0.15188673
37	0x3c9afccb	0.01891937
38	0x3dcea627	0.10090285
39	0x3da18c96	0.07888143
40	0x3e936224	0.28785813
41	0x3e8b56aa	0.27214557
42	0xbe9eacd9	-0.30991247
43	0xbd92c49c	-0.071664065
44	0x3e7e8b55	0.24857838
45	0xbe932894	-0.28741896
46	0xbe9e20ae	-0.30884308
47	0xbe87ebf6	-0.2654721
48	0x3e856b4a	0.26058418
49	0xbe823b7f	-0.25436017
50	0x3d62f5d2	0.055410214
51	0x3e46b788	0.19405949
52	0x3c70a19d	0.014686969
53	0x3df088c7	0.11744838
54	0xbd9a145b	-0.07523414
55	0x3dcb9e72	0.099423304
56	0xbe88f536	-0.2674958
57	0x3e928e27	0.2862408
58	0xbd957559	-0.07297773
59	0xbe769d5d	-0.24083467
60	0x3e9e2bd6	0.3089282
61	0x3dfcd15f	0.12344622
62	0xbd93f1d6	-0.07223861
63	0xbe4b14c3	-0.19832139
64	0xbe63182f	-0.22177194
65	0x3c10068f	0.008790626
66	0xbc1b3293	-0.009472507
67	0x3d402457	0.046909656
68	0x3e640dd5	0.22270902
69	0xbe698342	-0.22803977
70	0xbd821a60	-0.06352687
71	0x3e6f8a5d	0.23392625
72	0x3e559c4b	0.20860402
73	0xbe69907d	-0.22809024
74	0x3e6b6464	0.22987515
75	0x3e0626d2	0.13100746
76	0x3ea9b4de	0.33145803
77	0x3e999c54	0.3000208
78	0xbdfcb136	-0.12338488
79	0xbe104eac	-0.14092511
80	0x3dd98256	0.10620563
81	0xbd322e71	-0.04350132
82	0xbe637a83	-0.22214703
83	0xbe5b5486	-0.21418962
84	0x3d0db8e4	0.034600154
85	0x3e3aa762	0.18227914
86	0x3e7f73f6	0.2494658
87	0x3e8c7e87	0.27440283
88	0x3e3ddc09	0.18540968
89	0x3e8a0d2f	0.26963183
90	0xbe66ed8f	-0.22551559
91	0xbe3f2d82	-0.18669704
92	0xbcb43073	-0.021995759
93	0xbe03e2f3	-0.12879543
94	0xbe977f87	-0.29589483
95	0x3dae66d3	0.08515706
96	0xbe2c1b47	-0.1680728
97	0xbc4fb727	-0.012677944
98	0x3e9599c9	0.2921889
99	0x3e86c659	0.26323202
100	0xbd2e695f	-0.04258096
101	0xbe8828b2	-0.26593548
102	0xbe6d21cd	-0.23157425
103	0xbd93cb01	-0.07216454
104	0x3d4c5b34	0.049891666
105	0xbdd1b1e0	-0.10239005
106	0x3eaac2f3	0.3335186
107	0xbe3ac51b	-0.18239252
108	0x3d8e755a	0.06955977
109	0xbdd25ee6	-0.10272007
110	0xbdefc030	-0.11706579
111	0x3e92be6d	0.28660908
112	0x3e8ab0ba	0.27087957
113	0x3ea54dab	0.32285818
114	0xbeb12c7b	-0.34604248
115	0x3d3f96a4	0.04677452
116	0x3c3d0a54	0.011538107
117	0xbe082e20	-0.13298845
118	0xbe3d4e26	-0.18486843
119	0xbd961acb	-0.07329329
120	0xbe7fe9ee	-0.24991581
121	0xbda9a630	-0.08283651
122	0x3e404727	0.18777142
123	0xbd359638	-0.044332713
124	0x3e374998	0.17899168
125	0x3d83a3b7	0.064277105
126	0xbde804ad	-0.11329017
127	0x3e610b1a	0.21976891
128	0xbe3d3f96	-0.18481287
129	0x3d098820	0.033577085
130	0x3e035c83	0.12828259
131	0x3c46f062	0.012142273
132	0xbeaa653a	-0.33280355
133	0x3ea83b5c	0.32857788
134	0x3e82df27	0.25560877
135	0x3db2fc52	0.087395325
136	0xbe10e855	-0.14151128
137	0xbd229ade	-0.039698474
138	0x3e78917b	0.24274246
139	0x3e12458f	0.14284347
140	0x3da92efa	0.08260913
141	0x3dcd4b93	0.1002418
142	0xbeace339	-0.33767107
143	0x3dad117f	0.08450603
144	0x3e82497d	0.25446692
145	0x3b8788df	0.0041361894
146	0xbe8be8eb	-0.2732614
147	0xbdc9bcdc	-0.09850475
148	0xbe9df961	-0.30854324
149	0xbeb33bea	-0.35006648
150	0xbdc0b2ef	-0.09409129
151	0xbe831538	-0.25602126
152	0x3cdfe81b	0.027332356
153	0xbe659c09	-0.22422804
154	0x3dd9e03f	0.10638475
155	0xbe92bc8a	-0.2865947
156	0xbe976f21	-0.29576972
157	0x3eb265b2	0.34843212
158	0xbe872002	-0.26391608
159	0x3e704a25	0.23465784
160	0xbe888468	-0.26663518
161	0xbe31c715	-0.173611
162	0x3e95fc50	0.29294062
163	0x3eb3d3d3	0.35122547
164	0x3e9d24a7	0.30692026
165	0xbe3f63a8	-0.1869036
166	0xbeb49194	-0.35267317
167	0x3e63031d	0.22169156
168	0xbe8f65be	-0.2800731
169	0x3e091d04	0.13389975
170	0x3e5197d6	0.20468077
171	0xbe93e3fc	-0.28884876
172	0x3dbd59d5	0.0924565
173	0x3d7043ea	0.058658518
174	0xbe29079a	-0.16506806
175	0x3e1e355d	0.15450044
176	0xbdc200c5	-0.09472803
177	0xbe24e51a	-0.1610302
178	0xbe8bbca7	-0.27292368
179	0x3eaf304d	0.34216538
180	0xbeae25f7	-0.3401334
181	0x3ea8c25b	0.3296078
182	0xbddd47c8	-0.10804707
183	0x3e925576	0.28580827
184	0xbe3a6094	-0.18200904
185	0x3e8981ad	0.26856747
186	0xbdb122ff	-0.08649253
187	0xbc1c9f85	-0.009559517
188	0x3dce4e74	0.100735575
189	0x3e8fe5b5	0.2810494
190	0x3e8f2782	0.2795983
191	0x3e8d40fb	0.2758864
192	0xbde583ab	-0.11206754
193	0xbe5c3153	-0.2150319
194	0xbea12438	-0.31472945
195	0xbe6c7c01	-0.23094179
196	0x3e33ae25	0.175469
197	0xbe6cbb1a	-0.23118249
198	0xbe9107a7	-0.2832615
199	0xbd65caf1	-0.056101743
200	0x3e496492	0.19667271
201	0x3d35d752	0.0443948
202	0x3eabe857	0.335757
203	0x3e44ba73	0.1921175
204	0x3da5a0c1	0.08087302
205	0x3de72afb	0.11287495
206	0xbdb7a6c7	-0.08967357
207	0x3e686091	0.22693087
208	0xbe2d552a	-0.16927019
209	0xbe27c2e7	-0.16382943
210	0xbe8e817d	-0.27833167
211	0xbe44ed36	-0.19231114
212	0x3da9d20f	0.082920186
213	0x3ca92e39	0.020651923
214	0x3e688f15	0.22710831
215	0x3e335637	0.17513357
216	0xbe5228aa	-0.20523325
217	0xbdea7f84	-0.11450103
218	0xbd3c5c7e	-0.045986645
219	0xbe484a35	-0.19559558
220	0x3eaee3e0	0.3415823
221	0xbe00718c	-0.12543315
222	0xbde0f250	-0.109837174
223	0xbd578842	-0.05262018
224	0xbe810455	-0.25198618
225	0xbe1724b6	-0.14760098
226	0x3d3b601f	0.045745965
227	0xbd6ee96b	-0.058328073
228	0xbeac5980	-0.33662033
229	0xbdaa96cb	-0.08329543
230	0xbe10a0eb	-0.14123885
231	0x3e349c77	0.17637812
232	0xbcb95e46	-0.02262796
233	0x3d7ebfb8	0.062194556
234	0x3e4c0bc6	0.19926366
235	0x3e556369	0.20838703
236	0x3d1bce82	0.038038738
237	0x3e04bf65	0.12963636
238	0x3e17d742	0.14828208
239	0x3e056c3f	0.13029574
240	0xbe0f95bf	-0.14021967
241	0xbe7d9217	-0.2476276
242	0x3e72464d	0.2365963
243	0xbe11e2e8	-0.14246714
244	0x3de75743	0.11295941
245	0xbe560845	-0.20901592
246	0xbe5ecb86	-0.21757326
247	0x3cc02c8d	0.023458743
248	0x3d2c64d1	0.042088334
249	0x3eac7a29	0.3368695
250	0xbe2ceaf6	-0.16886505
251	0xbe993799	-0.2992523
252	0x3e78c072	0.24292162
253	0xbe95f722	-0.2929011
254	0x3e45c5a0	0.19313669
255	0xbdf2f9a1	-0.11864019

decoder.0.bias f4 [128]
0	0xbe9e768f	-0.30949828
1	0x3e060be1	0.13090469
2	0xbe8e1aef	-0.27754924
3	0xbe31bb78	-0.1735667
4	0xbd86547d	-0.065590836
5	0xbe9a7d5b	-0.30173764
6	0xbc6bc4ee	-0.014390213
7	0xbeae0de2	-0.33994967
8	0xbea74e56	-0.32676953
9	0xbe80bb50	-0.25142908
10	0xbe6ece92	-0.23320988
11	0xbd951f96	-0.07281415
12	0xbe5c9d43	-0.21544366
13	0x3e8ca7c8	0.27471757
14	0xbea66d04	-0.32505047
15	0xbd0c7c87	-0.034298446
16	0xbe33d6fa	-0.17562476
17	0x3e5b1bec	0.2139737
18	0xbe1a486c	-0.15066689
19	0xbe2215ee	-0.15828678
20	0x3e90b562	0.28263384
21	0xbdbcf82d	-0.09227023
22	0x3e84b85e	0.2592191
23	0x3e224cea	0.15849653
24	0xbdf56ab0	-0.1198324
25	0x3e97080a	0.2949832
26	0xbe95969c	-0.29216468
27	0x3ea9acc4	0.33139622
28	0x3d8aff09	0.06786925
29	0xbe0d41ef	-0.13794683
30	0x3e7bcffe	0.24591061
31	0xbcd23b59	-0.025663065
32	0x3db3dd02	0.08782388
33	0xbe8c007d	-0.27344123
34	0x3d616dba	0.055036284
35	0xbe1b7c15	-0.15184052
36	0x3ea2c74b	0.31792673
37	0x3e992a87	0.29915258
38	0xbe23e619	-0.16005744
39	0x3dc7e0ac	0.0975965
40	0xbe0f22ab	-0.13978069
41	0x3e9a6a48	0.3015921
42	0xbdabd098	-0.083893955
43	0x3e9ed656	0.310229
44	0x3e8bd4ca	0.27310783
45	0x3e750722	0.23928502
46	0x3e86b6fd	0.26311484
47	0x3e931bd8	0.2873218
48	0xbe43afaf	-0.19109987
49	0xbe0f274e	-0.13979837
50	0xbe5719ed	-0.21005984
51	0xbeb0913e	-0.3448581
52	0xbeaaf70a	-0.333916
53	0xba5749a2	-0.0008212571
54	0x3e8f6674	0.28007853
55	0xbe89c05f	-0.2690458
56	0xbdac9a06	-0.08427815
57	0x3d9e9cdc	0.07744762
58	0x3c70c6fd	0.01469588
59	0x3e01cd44	0.12675959
60	0x3e6e5097	0.2327293
61	0xbde8bfae	-0.11364685
62	0xbe2798c5	-0.1636687
63	0xbe1f8487	-0.15577899
64	0xbd70f182	-0.05882407
65	0x3e8144ff	0.25247952
66	0x3df38ba0	0.11891866
67	0xbcb76db6	-0.022391181
68	0xbe739750	-0.2378819
69	0xbd0ea62f	-0.034826454
70	0xbe31b0e6	-0.17352638
71	0xbe420631	-0.18947674
72	0x3d9d288d	0.0767375
73	0x3eab68f3	0.33478507
74	0x3e73f2f2	0.23823145
75	0xbe284deb	-0.16435973
76	0x3e6d0b7f	0.23148917
77	0xbea1fc79	-0.31637934
78	0x3e7acaf6	0.24491486
79	0x3da86d5b	0.08223983
80	0xbd2bc10f	-0.041932162
81	0xbdf16190	-0.11786187
82	0xbe07b5f7	-0.13253008
83	0xbcb69c07	-0.022291197
84	0x3d591172	0.052995153
85	0x3e98a9af	0.29816958
86	0xbe4d88ef	-0.20071767
87	0xbea96092	-0.3308149
88	0xbe8a0514	-0.26957
89	0xbe9b734a	-0.30361396
90	0xbe8d5e02	-0.27610785
91	0xbe8e692e	-0.2781462
92	0xbd9be0eb	-0.07611259
93	0xbea4faa1	-0.32222465
94	0x3d8f3549	0.06992585
95	0x3e40d15e	0.18829867
96	0x3ddb985a	0.10722418
97	0x3e8b7fbd	0.27245894
98	0xbea1c4a1	-0.31595328
99	0x3bf211dc	0.007387383
100	0x3e825f2f	0.25463244
101	0x3e93a6de	0.28838247
102	0x3dc9437d	0.098273255
103	0xbe742a55	-0.23844273
104	0x3e679a70	0.22617507
105	0x3e7a09e5	0.24417837
106	0xbe380f67	-0.17974626
107	0xbdd0f3fd	-0.10202787
108	0x3cb85e7a	0.022505987
109	0xbe20588f	-0.15658782
110	0x3d811554	0.06302896
111	0xbe0d0d08	-0.13774502
112	0xbde5ce3f	-0.11220979
113	0x3e8576ba	0.26067144
114	0x3e7410ff	0.23834608
115	0x3e8aae9d	0.27086344
116	0xbc9d7114	-0.019218959
117	0xbdc2ea9a	-0.09517403
118	0xbd9a988d	-0.07548628
119	0xbea36a1b	-0.3191689
120	0x3ea5e6c8	0.32402635
121	0x3e70b72a	0.23507372
122	0xbd841a4e	-0.0645033
123	0x3daf3e4e	0.085568056
124	0x3c9af589	0.018915908
125	0x3eaa493e	0.33259004
126	0x3dcb9f4d	0.099424936
127	0xbe2f0839	-0.1709298
