my_latent_sde/sdes/best_sde_0.pth (torch, 461429 bytes, 24 tensors)

encoder.gru.weight_ih_l0 f4 [384, 2]
000000 e5 ef a9 3d 42 98 62 3d 82 fb 5d bd 59 c4 75 3d
       0.082977094 0.055320986 -0.054194935 0.060001705
000010 ed 7e a9 3c 75 3b 9a 3d 7b d6 e3 3b 28 52 a4 3d
       0.020690406 0.07530872 0.0069530583 0.080234826
000020 18 86 98 bd 06 1b 9c 3d 2e d5 a2 3d 2b 67 0c bd
       -0.07447451 0.07622342 0.07950817 -0.034278076
000030 88 ab 46 3d 76 50 cc 3c 19 5a b6 3a ca b5 09 3d
       0.04850343 0.02494071 0.0013912349 0.033620633
000040 98 af 87 bd 46 3f 27 bd 41 6e 09 3c 3c ca a4 3d
       -0.06625289 -0.040831827 0.008388103 0.08046386
000050 ab 74 80 bd ad a2 68 bd 71 31 18 3c be 2b b0 3d
       -0.06272253 -0.056795765 0.0092891315 0.08602093
000060 a9 cc ca bc c5 f5 44 bd 95 ee ce 3c d7 49 81 bd
       -0.024755793 -0.048085947 0.02526025 -0.06312912
000070 d5 e4 0b 3c 9a 29 84 3d ff 48 eb bb e8 00 df bb
       0.0085384445 0.06453247 -0.0071803327 -0.006805528
000080 66 a3 3d bd 51 d8 a3 3d 8a c1 20 bd ad 24 35 3d
       -0.046298407 0.080002435 -0.039247073 0.04422443
000090 8a ad 98 3c 8b ab 9d bd 4f 2a 37 3c b5 da 26 3d
       0.018637437 -0.07698735 0.011179521 0.04073592
0000a0 49 e6 79 bd 7a 00 a6 3d da cb 14 3d f8 5d 42 bc
       -0.061010633 0.0810556 0.03632722 -0.011863224
0000b0 c4 c8 13 bb fc 4d e3 3c 20 ff 45 bc c6 bf f9 bc
       -0.0022550086 0.027747147 -0.012084752 -0.030486953
0000c0 66 c7 aa 3d a1 b8 30 bd c0 fc 71 bd c4 b6 29 bd
       0.083388135 -0.043144826 -0.05907893 -0.041434065
0000d0 92 e1 7a bd ef 6e c9 bc 19 33 63 bd f3 c7 35 bc
       -0.061250277 -0.02458903 -0.055468652 -0.011095035
0000e0 bb 5b 98 bd 91 8a 13 bd 89 a2 4e 3d 24 e8 7b bc
       -0.07439371 -0.03602082 0.050447974 -0.015375171
0000f0 9f 0a 79 3d 00 5d 54 3d 00 57 da bb 93 0e 88 3b
       0.060801145 0.051846504 -0.0066632032 0.004152128
000100 81 7e a7 bd 99 2d 8e 3d 21 2a ad 3d 18 1d 33 bd
       -0.081784256 0.06942291 0.08455301 -0.043728918
000110 36 fa 9b 3d 59 95 d1 bc 2e 02 8d bd f9 f9 9c 3c
       0.07616083 -0.02558391 -0.06885181 0.019162165
000120 20 52 b3 3c 5c f5 44 3d be c6 09 bd 5f e9 95 3d
       0.021889746 0.048085555 -0.0336368 0.07319903
000130 10 7d 79 bd 8e 7f 24 3d 02 2c 24 3d e3 ef 87 bb
       -0.060910285 0.040160708 0.04008103 -0.00414847
000140 56 cc af 3d 06 21 82 bd 25 ec 98 bd 9a 83 71 bd
       0.08583896 -0.06353955 -0.07466916 -0.058963396
000150 be 96 d4 bc 9d 1c ad bc 83 48 b5 3d 42 b1 3f bc
       -0.025950786 -0.021131808 0.08851721 -0.011699976
000160 49 33 01 3d 92 e6 f7 bc 8e eb 89 bb 3e 3b 0a bd
       0.03154305 -0.030261312 -0.0042089885 -0.033747904
000170 03 4e ad bd 14 3d d2 3c 75 4b ae 3d dc ac a4 3d
       -0.08462145 0.02566389 0.08510486 0.08040783
000180 24 cc 58 bd 19 22 ae bd a6 d2 38 3d 09 4b 4e bd
       -0.05292906 -0.08502597 0.045122765 -0.050364528
000190 28 9e 22 bd 41 f0 bc 3c dc e6 64 bb ec eb 86 3d
       -0.03970161 0.02306378 -0.0034927642 0.06587967
0001a0 15 ef d3 bb b8 7e c8 3c ac 9a 80 3c 92 70 70 bd
       -0.00646771 0.024474487 0.015698753 -0.058701105
0001b0 90 31 8c 3d dd c9 08 bd ba 25 a0 ba fb 78 0e bd
       0.06845391 -0.033395637 -0.0012218275 -0.034783345
0001c0 b1 3e 41 3d 79 9a a4 3c 1f 99 62 bd ae b3 72 bd
       0.047178928 0.02009319 -0.05532181 -0.059253387
0001d0 be 2f 21 bc 90 c8 9a bd 6c db 08 3d 56 d9 5a bd
       -0.009838043 -0.075577855 0.033412382 -0.053429924
0001e0 5a 31 1f 3d 33 f7 74 3b 56 c3 f4 bc 3c 81 63 3c
       0.038865425 0.0037378788 -0.0298783 0.013885792
0001f0 24 ff 8f 3d 70 ed b5 3d 6b cd ad 3d 62 fa b7 bd
       0.07031086 0.08883178 0.08486446 -0.089833036
000200 a7 a6 2a 3d 4a 6f 9a 3d e4 21 dc 3b 02 af 98 3c
       0.04166284 0.07540758 0.0067179073 0.018638138
000210 09 cd a6 3c 65 fc 24 bc 02 4f 7d 3d 99 05 d2 bb
       0.02036144 -0.010069941 0.061842926 -0.0064093587
000220 d3 cb ec 3c 9a 72 62 3d 14 99 a8 bd 0c 07 02 bd
       0.028905785 0.055285074 -0.08232322 -0.031745
000230 83 27 fc 3c 96 62 70 3d 6d 93 b1 bd 8e 2c 7c 3d
       0.03078056 0.05868777 -0.08670697 0.06156593
000240 a9 30 9f bb 7f 14 41 bd a5 19 0e 3d 32 1a 87 3d
       -0.0048580957 -0.047138687 0.034692425 0.06596793
000250 2a 4f 3a bd 76 fd 5d bb cf 13 a4 3c 28 33 15 bb
       -0.045485653 -0.0033872998 0.020028977 -0.0022766087
000260 9b ce 99 3c ae 80 c3 ba a0 d9 46 bd 97 9d 5a bd
       0.018775275 -0.0014915669 -0.048547387 -0.053372946
000270 a1 20 a6 bd fd ce 88 3d f7 9e 4f bc f8 5e 3e bd
       -0.08111692 0.06680105 -0.0126721775 -0.046477288
000280 a0 f9 78 3c 07 cd e1 3a 97 46 88 3d c6 e0 9b bc
       0.015196234 0.0017227241 0.06654089 -0.019028079
000290 5a 6a 9d 3d 7f 01 d9 3c 97 89 86 3b 8c 34 f7 bc
       0.076863006 0.026489971 0.0041057575 -0.030176423
0002a0 be 03 2e bd 42 92 de 3c e8 a7 59 bd f8 82 8f bd
       -0.042484038 0.02716935 -0.053138644 -0.07007402
0002b0 96 90 9f bd 4d 38 b1 bd 88 02 2c bd d4 39 8a bd
       -0.077912495 -0.08653317 -0.0419946 -0.06749311
0002c0 3b 77 7e bd b9 ea 25 ba e4 3a ae 3d 2d 06 aa 3d
       -0.062125426 -0.0006329227 0.08507326 0.08301959
0002d0 85 70 65 3d fa 0b 99 bd 95 35 4e bd e5 f5 46 3d
       0.05601551 -0.074729875 -0.05034407 0.048574347
0002e0 61 fe be bc 6e 1f 94 bd 84 34 3c 3d 4c 81 b9 b9
       -0.023314657 -0.07232557 0.04594852 -0.00035382283
0002f0 55 4f 4a bd 1c 59 55 bc e6 68 37 bc bd fe b8 3c
       -0.049392063 -0.013021734 -0.011194443 0.022582406
000300 55 3e a0 bc a3 27 c0 3b 94 8a d4 ba a7 b5 3a bd
       -0.019560972 0.0058641 -0.0016215616 -0.045583393
000310 32 88 02 3d 78 01 a5 3d 22 48 20 bd 95 6e 5c bd
       0.031868167 0.08056921 -0.03913129 -0.053816397
000320 96 c5 a0 bd d9 be 5a bc f3 6c d9 bc 1c bb 78 bd
       -0.078501865 -0.013351166 -0.026541209 -0.060725316
000330 4b 76 52 bd b5 e7 a3 3d 7d fc 21 3c 3e 34 ea bc
       -0.051382344 0.08003179 0.009886858 -0.028589364
000340 c6 32 aa bd 6e e4 69 bb 3e 67 77 3d 25 dd 52 bd
       -0.083104655 -0.0035689133 0.060401194 -0.05148043
000350 61 dd 85 3d 1b 24 63 bd 4a 43 16 3d 64 aa 4f 3d
       0.06536365 -0.055454355 0.036685266 0.050699607
000360 40 8a 8b bb b3 c3 7e bd 80 c9 2c bc b8 b7 f0 3c
       -0.004258424 -0.062198352 -0.010546088 0.029384479
000370 c7 28 f4 3c bc e7 8d 3c be 35 03 bd 3a 6f ca bc
       0.0298046 0.017322414 -0.032033674 -0.02471124
000380 ab 97 94 bb 47 50 07 3c b5 d1 07 bd 43 a0 ac 3d
       -0.004534682 0.008258886 -0.033158977 0.08429005
000390 e2 68 97 bc 66 1d 06 3d 52 50 26 bd 2e c3 6c bc
       -0.01848263 0.03274288 -0.040603943 -0.014450831
0003a0 0b e2 a7 bd 06 61 80 3d cb 86 7f bb 26 b0 42 3d
       -0.08197411 0.06268506 -0.0038990255 0.04753127
0003b0 24 ad 34 3d ec e3 44 3d e5 9d 43 3c 87 d4 9e bd
       0.044110432 0.048068926 0.0119395 -0.0775538
0003c0 b2 be c0 bc 78 33 8f bd 89 9e 43 bd ab 46 96 bd
       -0.02352843 -0.06992239 -0.047758613 -0.073376976
0003d0 6e 2d cf bc 73 e3 ad 3d 6d e1 75 3d f9 a8 e1 3c
       -0.025290217 0.08490648 0.060029436 0.027546393
0003e0 74 f4 09 bd 09 07 0c 3d 8c 89 18 3d a7 65 6d 3d
       -0.033680394 0.034186397 0.03724055 0.05795827
0003f0 c3 ce 91 bb ad 7b 83 3d fa 39 14 bd e2 3c 17 3d
       -0.0044496967 0.06420074 -0.036188103 0.036923297

encoder.gru.weight_hh_l0 f4 [384, 128]
000000 db eb 91 3d 9d a8 46 3c 51 ad 38 3d 09 96 08 ba
       0.07125064 0.0121251615 0.045087162 -0.0005210345
000010 a8 06 89 3d 11 a5 92 bd d0 bb 1c 3d 1f 38 8f 3d
       0.06690723 -0.0716039 0.03826505 0.06993126
000020 28 e6 a9 3d b3 c8 34 3d 16 26 3f bd b6 54 7d 3d
       0.08295852 0.044136714 -0.04666718 0.061848365
000030 6a c5 70 bd 39 92 19 3d 0e b1 fe bc 8b 1c 12 bd
       -0.05878202 0.037492964 -0.031090286 -0.035671752
000040 81 aa 5f bd 28 bc b1 bc 36 f2 11 bd 45 ac a1 3c
       -0.054605965 -0.021696165 -0.03563138 0.019735465
000050 7a 92 7f bd 3b fd 66 3d b4 74 8b b9 80 34 46 3d
       -0.06239555 0.056393843 -0.00026599097 0.04838991
000060 48 2e 48 3d 58 be 8b 3d 70 07 92 bd 51 f1 02 bd
       0.048872262 0.068234146 -0.07130325 -0.03196842
000070 02 c9 ad 3d 3c 6d 8b bd 20 03 5d bd 38 59 89 bd
       0.08485605 -0.06807944 -0.05395806 -0.0670647
000080 6f ee 54 bd 10 7a 40 bd 4f 87 92 3d d7 09 65 bd
       -0.0519852 -0.046991408 0.07154714 -0.055917587
000090 8e 97 0f 3c 98 72 2c bc c5 fe 4c 3d 9a 31 1c bd
       0.008764161 -0.010525368 0.050047655 -0.03813324
0000a0 f3 60 4a 3c c3 25 9e bd 6b 46 86 bd 93 6a a4 bc
       0.012352216 -0.07722046 -0.065564 -0.02007035
0000b0 4d 59 ba bc 4a 9a df 3c 7a 34 af 3d 1c e8 ea 3c
       -0.02274766 0.02729525 0.08554931 0.028675131
0000c0 d5 e5 06 bd d5 90 c3 3b 6c 55 7e bd b0 ad 55 3d
       -0.03293403 0.005968193 -0.062093183 0.052167594
0000d0 29 d1 6b 3c e7 8b 5f bc 32 af b0 3d c7 e8 93 3d
       0.014393129 -0.013644195 0.08627166 0.07222133
0000e0 06 55 01 3d bf 50 9e bc 26 c9 b9 bc 01 40 92 3c
       0.031575225 -0.019325612 -0.022678923 0.017852785
0000f0 9a 1b 1f 3d 3f b7 ad 3d 36 17 7e bd 42 ab a5 3c
       0.038844682 0.08482217 -0.062033854 0.020223264
000100 03 9f 51 bd d6 ec 28 bd 76 f8 bc bc ae 29 2f bd
       -0.051177036 -0.04124149 -0.023067694 -0.04276436
000110 8f 03 19 bc 83 08 20 bd 98 a7 62 bd 94 26 4e bd
       -0.009339227 -0.039070617 -0.05533561 -0.05032976
000120 f1 48 12 3d a8 c7 7f 3d 65 70 ad 3d 5c 46 65 bd
       0.035714094 0.062446266 0.08468703 -0.055975303
000130 d7 06 63 bd f7 80 7c 3d 38 18 29 bb c0 69 e3 3c
       -0.055426445 0.061646428 -0.002580179 0.027760386
000140 ef 4a a0 3d 77 5d 8f 3d 3c 92 68 bd cf af 11 bd
       0.078267924 0.07000249 -0.056780085 -0.035568055
000150 4f ae af 3d 5d b9 a5 bd 44 6c 4e bd 80 4c 9b 3c
       0.085781686 -0.08091996 -0.05039622 0.018957376
000160 5c 17 a7 3d 0e 40 9f 3b 6c 70 d9 3c 54 1a d4 ba
       0.08158752 0.004859931 0.026542865 -0.0016182163
000170 ea 01 62 3d d4 50 3a bd 23 21 be bc 0f f5 43 bd
       0.055177607 -0.04548724 -0.02320916 -0.047841128
000180 73 e9 14 3d f4 4d 38 3c 4d dd 84 3d a3 f9 a4 bc
       0.036355447 0.011249054 0.06487522 -0.020138567
000190 45 7d a0 bd 98 44 a2 bd fa 10 a3 3d 09 9e b0 bd
       -0.07836393 -0.079232395 0.079622224 -0.08623893
0001a0 84 47 74 3d f5 f2 ac 3c b8 3b 56 bd fa c9 9f bd
       0.059638515 0.021111945 -0.052303046 -0.07802196
0001b0 3c 65 9c 3c 2a ae 12 3d 25 75 1b 3d 4c 79 3a bd
       0.019091241 0.035810627 0.037953515 -0.045525834
0001c0 c1 92 87 bd 66 b4 97 3d 2d 48 63 3d 5d 7f 29 bd
       -0.06619788 0.07407455 0.055488754 -0.04138123
0001d0 8b c9 2d bd 90 00 48 bc 9d 5b 0e bd 39 f4 35 bd
       -0.042428534 -0.012207165 -0.034755338 -0.044422362
0001e0 da 20 15 3d ab 5d 8c bd 30 14 00 3d c4 01 82 bd
       0.036408283 -0.06853803 0.031269252 -0.06347993
0001f0 36 4e 09 3d be 3a 02 3d 44 76 17 3d e6 a6 1e 3d
       0.033521853 0.031794302 0.03697802 0.038733386
000200 ac 62 53 3c bc 64 e7 bc e1 16 4f 3d f8 7f 1f 3d
       0.012901943 -0.028246276 0.05055893 0.0389404
000210 4e b6 16 3d a2 28 96 3d 1c 2e 14 3d 27 a2 03 bd
       0.036794953 0.07331969 0.036176786 -0.032137062
000220 ee d9 ce 3b d4 58 32 bd a5 0d 58 bd a0 14 34 bd
       0.0063126003 -0.043541744 -0.052747387 -0.043964982
000230 9e 27 40 bd ff 61 45 bd 16 7c a7 3b 5e 6c 22 bd
       -0.046912782 -0.04818916 0.0051112277 -0.03965413
000240 3b 61 73 bd 63 d0 96 bd c1 2b 84 bc fc 82 3c 3d
       -0.059418898 -0.07363965 -0.016134145 0.046023354
000250 a0 88 1b 3d 1b ce 2b bd bd e8 c2 3c 56 73 06 3d
       0.037972093 -0.041944604 0.023792619 0.032824837
000260 27 15 c7 3b dc 05 8b bc f1 b3 a2 3d 8c 0a 96 3a
       0.0060755196 -0.016970567 0.07944477 0.0011447235
000270 b7 9f 74 bd c0 25 6f bd cf a9 a0 3d 0c 9f 9e bd
       -0.05972263 -0.05838561 0.078448884 -0.077451795
000280 e1 6c 14 3d ff 8d 9f bc 9d 24 65 3d 43 ae 60 3d
       0.036236648 -0.019476889 0.05594312 0.05485369
000290 6e 49 1b bc d4 b2 29 bc ce 9e 95 bd ce 2c a3 3d
       -0.009477956 -0.010357577 -0.0730568 0.0796753
0002a0 94 97 cc bb 87 d9 83 3d d0 e4 86 3d 16 69 f0 bc
       -0.0062436555 0.064379744 0.06586611 -0.029346984
0002b0 02 fe ea 3c 2a a0 6b bd 5a 1e 70 bd 40 3a 4f bb
       0.028685573 -0.05752579 -0.058622696 -0.0031620413
0002c0 e3 a6 85 bd 76 c8 0c 3d 35 49 0d bc 8b fe 11 3d
       -0.06525972 0.034370862 -0.008623411 0.03564314
0002d0 2c 66 65 bd ae 99 25 3c 18 4f 2c bd d1 f8 86 bd
       -0.05600564 0.010107441 -0.042067617 -0.06590427
0002e0 4d 92 cc 3c 34 58 d9 bb 10 40 ff 3c 86 4f b2 3c
       0.024972105 -0.006632829 0.031158477 0.021766435
0002f0 8c 0e c3 bc f2 93 2b 3b 91 83 07 3d 60 65 a9 3d
       -0.023810647 0.0026180712 0.033084456 0.08271289
000300 6f 14 ea 3b d9 87 9d bd 7f c4 34 3d 13 58 20 3d
       0.007143549 -0.076919265 0.044132706 0.039146494
000310 32 9c a5 3d f5 27 2c bd bb a8 a7 3d 08 8a 8b bd
       0.080864325 -0.042030293 0.0818648 -0.06813437
000320 0c f3 a8 bd e8 97 4b 3d 0a d8 08 3d 36 97 30 bd
       -0.082494825 0.049705416 0.033409156 -0.043112956
000330 71 41 93 3b 33 dc 39 bd 1a b9 0f bb 8d cb 2a 3c
       0.004493885 -0.045376014 -0.0021930397 0.010424507
000340 49 21 8e bc ec b6 b2 3d fe bd 67 bd d6 a6 4e 3d
       -0.017349856 0.08726296 -0.056577675 0.050452076
000350 0e 25 f9 bc db 43 e8 bc 1b da a6 3d fe 77 ef bc
       -0.030413177 -0.028352669 0.08147069 -0.029232021
000360 29 8f ac 3d c8 c1 6c 3d 4e 27 20 3d 7a 7f 14 bc
       0.08425743 0.05780199 0.039099984 -0.009063596
000370 f3 af 74 3d e0 9a b0 bc b3 e5 98 3d 3d 70 04 bc
       0.05973811 -0.021558225 0.07465687 -0.0080834
000380 4b 8a 18 3d 39 01 c1 bc d8 c7 5c 3d 1f 10 94 bd
       0.03724126 -0.023560153 0.053901523 -0.07229637
000390 e0 c5 d2 bc a7 8c aa bd 27 1e 1d 3c a7 84 87 bd
       -0.02572912 -0.083276086 0.009589708 -0.06617098
0003a0 43 f2 b8 bc 2c 43 90 3a d7 a3 33 bd 6c aa 21 bd
       -0.022576457 0.0011006347 -0.04385742 -0.039469168
0003b0 04 9a 90 bd 20 d3 24 bd 32 2f 1e 3d 94 76 88 3d
       -0.07060626 -0.040240407 0.038619228 0.06663242
0003c0 fc f2 55 3d 72 2b 80 bd 53 af 7a bd 04 ba 20 bb
       0.05223368 -0.062582865 -0.06120236 -0.0024524936
0003d0 ed 51 85 bc 82 c0 fc 3c f6 e1 b4 ba 42 25 84 bb
       -0.016274417 0.030853514 -0.0013800252 -0.004032762
0003e0 a6 8b 90 3d ec 7d 23 bd 32 8d 5d 3d b2 c5 93 bd
       0.07057886 -0.03991501 0.054089732 -0.07215442
0003f0 4f 3b 6a bd 92 37 80 bd fb 3f 9d 3d 4a 33 29 bc
       -0.057185467 -0.06260599 0.07678219 -0.01032717

encoder.gru.bias_ih_l0 f4 [384]
000000 40 8f 05 bd ea 4f 2a bd 68 86 a6 3d 69 57 8f 3c
       -0.032607317 -0.04158012 0.08131105 0.017497735
000010 0b b9 6d 3d 17 26 eb bc 61 32 81 bc 4e a4 19 bd
       0.0580378 -0.028704686 -0.015771093 -0.03751021
000020 b4 1e 44 3d a7 e1 9b 3d 85 44 96 bd f3 9c 34 bd
       0.047880843 0.07611399 -0.07337288 -0.04409499
000030 31 92 4f 3b 4c e9 f0 bb be 00 47 bd a2 8b a4 3d
       0.003167283 -0.00735203 -0.048584692 0.08034445
000040 86 b3 7f 3c 41 b4 5b 3c 3e f1 6e 3b 34 65 92 bd
       0.015606767 0.013409675 0.003645971 -0.07148209
000050 1a c6 48 bd 64 b2 64 bc c6 66 3c 3c 85 e6 92 bd
       -0.04901705 -0.013958547 0.0114991125 -0.07172874
000060 5b a7 82 bd 45 b7 74 3d 26 f8 51 3d e4 63 1a 3d
       -0.06379577 0.059745092 0.051262043 0.03769292
000070 5e d8 a9 bc 7c dc dd bc fa 23 9d bc 7e 65 15 bb
       -0.020733055 -0.027082674 -0.019182194 -0.002279609
000080 03 bc 00 3d bf d5 0e bd 7a 57 4d bd 88 36 a3 bd
       0.031429302 -0.034871813 -0.050132252 -0.079693854
000090 6b 79 05 bd cb 38 f9 3c 3c 5e 80 bd 8f 4e 05 3d
       -0.032586496 0.030422589 -0.06267974 0.032545622
0000a0 39 49 ab 3d 0c 15 39 3d 86 33 2c bd 27 62 87 3d
       0.083635755 0.045186087 -0.042041324 0.06610518
0000b0 97 ae ce 3c d5 fc 72 bd 97 66 ee 3b f1 cd 74 3d
       0.025229735 -0.05932315 0.0072754133 0.059766714
0000c0 d2 25 8d 3c 67 58 91 3c be 4d ed bc ba 46 88 bd
       0.017229948 0.017742349 -0.028967734 -0.06654115
0000d0 e6 e5 53 bc 82 84 56 3d e0 35 c8 3c b2 c8 b2 bd
       -0.01293323 0.052372463 0.024439752 -0.08729686
0000e0 f8 80 a7 bd 06 1c ec 3c 28 f7 5b bd 7c f6 4f 3d
       -0.08178896 0.028821956 -0.053702503 0.050772175
0000f0 46 ed a4 bd bb 3d 8d bd 14 72 01 bd c5 6f 9b bc
       -0.08053069 -0.0689654 -0.031602934 -0.018974194
000100 a7 10 fc 3c 75 5c 92 bd f6 ba 36 3b 3b 53 3f 3c
       0.03076966 -0.07146541 0.0027882433 0.0116775585
000110 f4 ac ae bd 6c 63 f2 bc 15 a1 6a 3d 87 39 98 bd
       -0.08529082 -0.029588424 0.057282526 -0.074328475
000120 4a 7a ac 3b 38 57 66 bd 36 b2 a1 3c 05 6c 5e bd
       0.0052636014 -0.056235522 0.019738298 -0.054302234
000130 58 78 d1 ba 08 fd 34 bc 49 77 a8 bd 19 79 f0 bb
       -0.00159813 -0.0110466555 -0.08225877 -0.0073386547
000140 0e bd 3c bd 51 13 a5 3d ae 5f d0 bc 81 d7 a7 bc
       -0.046078734 0.08060325 -0.025436249 -0.020488502
000150 d8 54 4d bc a4 98 a0 3d 28 0b 9c bd 55 ce ba 3c
       -0.012532435 0.07841614 -0.076193154 0.022803465
000160 6f 9b f3 3c 34 c1 78 3d bc 80 9c bd e7 f9 9c 3d
       0.029737202 0.060731128 -0.07641742 0.076648526
000170 01 55 f6 3c 56 32 1e bd c0 be 83 3d 0a f5 75 bd
       0.03006983 -0.038622223 0.06432867 -0.06004814
000180 bb eb 42 3a 7e 7c b1 bc 23 f0 47 3d e1 0a 81 bd
       0.0007435639 -0.021665808 0.048812997 -0.06300903
000190 7b 9b 15 bc 6a 28 ad bd 87 b7 da 3c 1c f5 fe bc
       -0.009131308 -0.08454974 0.02669884 -0.031122737
0001a0 e4 a2 4e 3c 99 8c ae bd 3e e9 88 3d 19 9a f0 bc
       0.012612078 -0.085229106 0.066851124 -0.029370354
0001b0 d9 e1 4c 3d d4 cc 9b bd cb b4 26 3d 98 c3 b6 3d
       0.050020073 -0.07607427 0.04069976 0.08924025
0001c0 ca 0d 87 3c 82 94 95 bd 88 52 a1 bc 18 51 2d 3d
       0.016486067 -0.07303716 -0.019692674 0.042313665
0001d0 1d 0c 61 3d 01 3d 90 bb 6b 2c 96 3c b0 9c 75 3d
       0.054943193 -0.0044018035 0.018331727 0.059963882
0001e0 f8 23 4b 3d e7 95 7a bd 41 4b b8 3d 35 34 1d 3d
       0.04959485 -0.061178114 0.089987285 0.038379867
0001f0 66 6a 24 bd 5a 8d 05 3c 09 df eb bc 23 d9 df 3c
       -0.040140532 0.008151377 -0.028792875 0.027325219
000200 d8 f4 a8 bd 1c 98 34 bd 05 14 4b 3c e3 78 1c 3d
       -0.08249825 -0.044090375 0.01239491 0.038201224
000210 e5 27 82 bd e1 c7 2b 3d c3 c1 60 3d c8 5b 97 bd
       -0.063552655 0.041938666 0.054872286 -0.07390553
000220 89 96 92 bc f4 e9 36 bd d2 10 8d 3d 14 e4 36 bc
       -0.017894046 -0.04465671 0.06887974 -0.0111627765
000230 e9 7d 97 bd cb 75 5f 3c c3 9d 5d bd 32 a3 aa bc
       -0.07397062 0.013638924 -0.05410553 -0.02082977
000240 03 e8 0c 3d 20 1a 83 bd 04 2c 6e bd 2a 09 94 3a
       0.03440095 -0.06401467 -0.058147445 0.0011294235
000250 3c ac 01 3d 3d e5 a7 3d 54 b6 13 3d 7a 51 44 3d
       0.031658396 0.081980206 0.036062554 0.047929265
000260 9a fe 39 3d 23 a3 49 3d 5f 94 90 bc 8c 95 93 3d
       0.045408823 0.049227845 -0.017648874 0.07206258
000270 37 3e d9 bc d2 ff 30 bd 39 02 24 3d 84 a8 ae 3d
       -0.026518924 -0.04321272 0.040041182 0.085282356
000280 51 ac 62 bd c2 be fe bc 37 cc f6 bb a1 f2 75 bd
       -0.055340115 -0.03109682 -0.0075316685 -0.060045842
000290 06 fe c4 bc d2 85 99 bd 85 c6 9a 3d 06 c1 65 bd
       -0.024046909 -0.07496227 0.07557396 -0.056092285
0002a0 7e d8 42 3c 71 26 01 3d 7f 37 a4 bd 11 b1 44 bd
       0.011892436 0.0315308 -0.080183975 -0.048020426
0002b0 c9 2b 1f bd ed 6e d5 bc 93 a8 cd 3c fa 3b 8f bd
       -0.038860116 -0.02605387 0.025104797 -0.069938615
0002c0 86 75 39 bd c6 7b a3 bd c3 83 49 bd 5f ea 00 bd
       -0.045278095 -0.07982592 -0.049197923 -0.031473514
0002d0 27 57 0f bd a2 00 8e 3c 52 ac 51 3c f3 70 ce 3c
       -0.034995224 0.017334286 0.012797432 0.025200343
0002e0 57 cd 39 3b a2 b5 f4 ba 9e f8 43 bd b9 df 8d 3d
       0.0028351152 -0.0018669853 -0.04784452 0.06927437
0002f0 0d 41 a7 3b 22 dd b3 bd 08 9a 73 bd 56 55 1b bd
       0.00510419 -0.08782412 -0.059473068 -0.03792318
000300 1c ce 83 bc 72 60 47 bd 20 e0 60 3d a5 da bd 3b
       -0.016089492 -0.04867596 0.054901242 0.0057938867
000310 a9 6c 8f 3d f9 f7 ec 3b 12 fb 2d 3d 04 30 26 3c
       0.07003147 0.007231709 0.042475767 0.010143284
000320 56 c6 46 3d 13 9e 4e 3d 3a 08 ae bd 46 a3 85 bd
       0.04852899 0.05044372 -0.08497663 -0.065252826
000330 6a fa 7f bd 7f 6c 81 3d ab dd 2a 3d 52 8a 3f 3d
       -0.062494673 0.06319522 0.041715305 0.046762772
000340 18 0c 38 3c 9c 86 50 3d cc 0a 89 39 b9 7c e3 bc
       0.011233352 0.050909624 0.0002613872 -0.027769433
000350 d0 fb 24 3d 43 4b 6c bd 40 f8 3c bd e8 a6 c8 bc
       0.04027921 -0.057688963 -0.046135187 -0.02449365
000360 01 ad 96 3c 67 10 19 bb be 91 7e ba 8b 6f ad 3d
       0.018393042 -0.0023355724 -0.00097110483 0.08468541
000370 c9 ff 00 bd 3a 8b bb bc d0 c1 0f bc 21 b7 50 bd
       -0.031493936 -0.022893537 -0.008774236 -0.050955895
000380 c4 c4 a0 3c 12 5f a8 bd 0e 98 79 bd 87 c7 d6 3c
       0.019625075 -0.08221258 -0.060936026 0.026218189
000390 dd 97 a6 3b 77 70 5c 3d 32 35 b7 3d 53 e1 b8 3d
       0.0050840215 0.053818192 0.08945693 0.09027352
0003a0 72 44 41 3d 12 03 0f 3d 82 4f a9 bd 05 db 59 3d
       0.047184415 0.034915037 -0.08267118 0.05318739
0003b0 1e d6 9f 3d 66 db 68 ba 69 28 73 bb ee fe 2d 3b
       0.078045115 -0.00088827906 -0.0037102944 0.0026549655
0003c0 13 70 a0 bc d2 09 08 bd e7 7e 86 3d 44 0b a8 3d
       -0.019584691 -0.03321249 0.065671735 0.08205274
0003d0 ed 6e a3 bd 2c a9 97 3d 98 24 90 bd 40 f7 87 bd
       -0.07980142 0.07405314 -0.0703823 -0.06638956
0003e0 98 28 6b 3d 26 67 b7 bd 75 14 9d 3d 86 03 b8 bd
       0.05741176 -0.08955221 0.076699175 -0.08985047
0003f0 6b 40 9c bd 38 ae 22 3d 48 12 95 3d 4a 79 cc bb
       -0.07629474 0.03971693 0.072788775 -0.0062400447

encoder.gru.bias_hh_l0 f4 [384]
000000 40 df 91 bd 94 b1 0f 3d d7 c3 7c 3d ce e0 b0 bd
       -0.0712266 0.03508146 0.061710205 -0.08636628
000010 f2 67 1d bd 6d cd 94 bd 24 18 6c b9 1b c6 85 3b
       -0.038429208 -0.07265744 -0.00022515707 0.004082454
000020 8e 3b 7b bc e6 cc 1d 3d 64 04 ad bb f2 90 82 bd
       -0.015334023 0.038525485 -0.0052800644 -0.063753024
000030 63 d3 59 3d 5f 2c 25 bd 3b df 96 bd f3 52 15 bd
       0.05318011 -0.04032552 -0.073667966 -0.03645606
000040 e3 db 72 3d e1 63 e3 bc a9 85 1b bd 6b cf 8e 3d
       0.05929173 -0.027757587 -0.037969265 0.069731556
000050 6c 5c 9c bd ac 07 af 3c ef 9e 8c 3d 07 32 6a bd
       -0.076348156 0.021365963 0.06866252 -0.057176616
000060 40 a2 03 b9 27 b8 68 3d 10 8d 91 bd dc 69 c7 3c
       -0.00012553576 0.056816246 -0.07106984 0.02434247
000070 a6 9a ad bd b6 85 3d 3d 0b 6e a7 3c a4 fd 34 3b
       -0.084767625 0.046270095 0.020438215 0.0027617002
000080 0a 91 2e 3b 7a 27 06 bd 8f 02 95 3d 1b 27 94 bc
       0.0026636743 -0.03275249 0.07275879 -0.018085053
000090 22 0c 02 bd c2 4d a4 bd ce 81 81 bd 6e e7 8a bb
       -0.031749852 -0.080226436 -0.063235864 -0.0042390143
0000a0 3c 48 1b bc cc cc 51 bd 24 76 cf 3c 7e 4f ca bc
       -0.009477671 -0.0512207 0.025324889 -0.024696108
0000b0 bc 4f b8 bc 33 ff 14 3d 7b c6 b4 3d 14 3d ac 3c
       -0.022498958 0.03637619 0.0882692 0.021025218
0000c0 f9 15 4f 3c 64 8f a4 3d 5d 0f 58 bd 29 7b ac 3c
       0.012639516 0.08035162 -0.052749027 0.021054821
0000d0 6a b9 a4 3c 7f ec d3 bc 59 14 90 3d 4e 65 73 3d
       0.020107944 -0.025869606 0.07035131 0.059422784
0000e0 9e 66 d7 bb bd 81 44 bd f4 fb d6 bc 67 10 ae 3d
       -0.006573512 -0.04797529 -0.026243187 0.08499222
0000f0 53 b5 8e 3d 42 6e 82 bd f5 c9 10 bd 59 9d 42 3c
       0.069681786 -0.06368686 -0.03534885 0.011878335
000100 67 5b 97 bd a9 03 55 bc f2 e6 f6 3c 1a 34 20 bd
       -0.073904805 -0.013001361 0.03013942 -0.039112188
000110 cc 92 b0 bd 13 1d f9 3c 91 49 dd bc 83 52 b7 bc
       -0.08621749 0.030409371 -0.027012618 -0.022378212
000120 b6 e6 81 3c 20 e7 ec bb 82 e6 d6 bc fe ef 56 39
       0.015857082 -0.0072297007 -0.026232962 0.00020498034
000130 63 1d ed ba 2c 0f 2e bd bd c5 ad bd b5 f1 27 bc
       -0.0018090423 -0.042494938 -0.08484981 -0.010250499
000140 94 a5 26 3d 27 26 63 3d 07 ff d3 3c 39 06 a9 3d
       0.04068525 0.055456307 0.025878442 0.0825314
000150 3c f4 6a bc 35 eb 02 3d b2 0b 21 bd d9 71 13 bd
       -0.014340457 0.031962592 -0.039317794 -0.035997245
000160 32 0a 1c bd 42 7d a2 bb 4a 66 ac bd a4 54 75 bd
       -0.03809566 -0.0049587796 -0.084179476 -0.059895173
000170 46 5c 09 3c d4 55 60 3d da 1c 8f 39 0b ab f8 bb
       0.008383816 0.054769352 0.00027296582 -0.0075887493
000180 2b 5f 92 bd 87 53 9f bd 60 c2 a3 bc a0 f1 b1 3c
       -0.07147058 -0.077796035 -0.019990146 0.021721661
000190 ce 9b b0 3d b8 6e 52 bc 7a cb 9b bd a7 3d b9 bb
       0.086234674 -0.01284378 -0.076071694 -0.0056531015
0001a0 40 e0 be bc 49 c1 c0 bc 87 d2 25 3c 96 43 d6 3b
       -0.02330029 -0.023529666 0.010120994 0.0065388186
0001b0 f2 7e 2c bd 0c 2d 43 3d dc 40 c8 3c 70 fc a2 3c
       -0.042113252 0.047650382 0.02444499 0.019895762
0001c0 1a 38 30 3b 59 f8 ac bc e4 b6 61 3d ee 9f 86 bd
       0.0026888908 -0.021114515 0.05510606 -0.06573473
0001d0 da fc 60 bd db b3 87 bc f6 c2 ab bd d6 6c 91 3d
       -0.054928638 -0.016565254 -0.08386795 0.07100837
0001e0 77 41 1f bd 96 68 63 bd c5 9b 3e bd 0e 47 ec 3c
       -0.03888079 -0.055519663 -0.046535272 0.028842475
0001f0 0d 57 34 bd 2d 8a d0 bc 6d 06 44 bd fd 36 44 bd
       -0.04402833 -0.025456512 -0.04785769 -0.047904003
000200 5c 54 b7 bd a9 f5 56 3d 61 a0 c2 3c 41 a8 12 3d
       -0.08951637 0.052480374 0.023758115 0.03580499
000210 ea 6c 0d bb 06 58 7c 3d f3 81 87 3d 59 ec a2 bd
       -0.002157981 0.061607383 0.06616583 -0.07955236
000220 45 97 be bc 75 e5 64 bd fc 3d 27 3d 83 6a e3 bb
       -0.02326549 -0.05588289 0.040830597 -0.0069401874
000230 31 62 99 bd 91 a1 91 3d d5 16 23 bd 37 ee 7e 3b
       -0.07489432 0.071108945 -0.039816696 0.0038899311
000240 24 d6 04 bd 60 e7 08 ba 76 c7 3f 3d 78 1d 17 bd
       -0.032430783 -0.0005222466 0.04682108 -0.036893338
000250 1f 05 27 3d 96 1e 96 3d 66 f1 d2 3c 68 0e 04 3d
       0.04077637 0.073300526 0.025749873 0.0322403
000260 f1 c2 5b bd 64 98 ad bc 72 52 9d 3d 40 c6 f8 bc
       -0.053652707 -0.02119083 0.07681741 -0.03036797
000270 2d 2b 53 bc 29 e5 83 3d f7 fe 06 bd b4 68 7a bc
       -0.012888712 0.06440193 -0.032957997 -0.015283752
000280 a7 6a 9b bd a5 71 92 3d f3 a7 65 bc 3c 52 0e 3d
       -0.07588702 0.07150582 -0.014017093 0.034746394
000290 6d 2e b0 3d 69 df f2 bc d8 12 5a bc 46 3d 55 bd
       0.08602605 -0.029647546 -0.013310157 -0.052060388
0002a0 08 32 95 bb 03 90 89 bd c3 59 94 3c 2a 47 90 3d
       -0.0045530833 -0.06716921 0.018109208 0.070448235
0002b0 84 e5 ad 3d 24 06 36 3b d4 53 6a bd 1b e2 95 3d
       0.08491042 0.0027774656 -0.05720885 0.07318517
0002c0 08 c8 92 bd df d4 6e 3d d6 ce 9c 39 b0 92 b7 bd
       -0.07167059 0.05830848 0.00029908743 -0.08963525
0002d0 99 c0 27 bd a2 61 37 3d a1 a9 9c bc 25 57 df 3c
       -0.04095516 0.044770844 -0.019123854 0.027263233
0002e0 7d fc 9d 3d 85 46 c1 3b 2c c4 94 bd 7d f9 d2 bc
       0.07714174 0.005898299 -0.07263979 -0.02575373
0002f0 88 e8 0c 3d e2 a1 f4 3c fd 5d 90 3d 3c 28 fc 3c
       0.034401447 0.029862348 0.07049177 0.030780904
000300 59 d6 cb 3b 3b 66 34 bc bb be df bc db 46 b7 bd
       0.0062206206 -0.011010702 -0.027312627 -0.089490615
000310 cf d9 47 3b 35 de 02 3d 5d cf 83 ba 8e a7 e4 b9
       0.0030494814 0.031950194 -0.0010056306 -0.00043612387
000320 94 bd 7c 3d 61 22 e9 3c 29 e9 aa bd c1 d8 9e 3d
       0.061704233 0.028458776 -0.08345253 0.07756186
000330 98 04 47 bd 1e da 96 3d fa 8f c4 bc b0 b0 69 3d
       -0.048588365 0.07365821 -0.023994435 0.057053268
000340 ab 59 a1 3d 22 3e da 3c a3 e3 af 3d de 0a a6 bc
       0.07878431 0.026640955 0.0858834 -0.020268854
000350 1c 14 94 bd ac f3 93 3d 22 17 d0 bb 8a 4a 85 bc
       -0.07230398 0.07224211 -0.006350414 -0.016270895
000360 3e 47 d0 3b a4 2c 9f bd 28 e8 a9 3c a5 e9 89 3d
       0.006356149 -0.077721864 0.020740584 0.06734017
000370 28 b9 1e bd da 80 80 bd 4d 65 93 3c 96 26 4a bd
       -0.038750798 -0.062745765 0.01799264 -0.049353205
000380 66 ad cb bc e4 ff 27 bd d8 d6 83 bc 36 50 8f bd
       -0.024862956 -0.04101552 -0.016093656 -0.06997721
000390 56 45 8c bd 9a 87 4c bd bd 59 2b 3c ad e2 b2 3c
       -0.06849162 -0.049934007 0.010458407 0.021836603
0003a0 a9 3a 8a bd 15 f9 aa 3d d1 37 cc bc 35 8a 10 bd
       -0.0674947 0.0834829 -0.02492896 -0.035288054
0003b0 ed 00 83 bd d6 8d 4a bd 57 d7 83 3d 02 f7 0f 3d
       -0.06396661 -0.04945167 0.06437557 0.035147674
0003c0 d2 cd eb bc 6c f6 e7 bc 80 cd 38 3d 0f d5 41 3d
       -0.028784666 -0.028315745 0.045117855 0.04732233
0003d0 95 85 b5 bc 08 43 3d bc 77 66 34 bc 17 a6 69 bd
       -0.022158423 -0.011551626 -0.011010758 -0.05704316
0003e0 57 29 a7 bd 81 97 1c bc 58 27 d3 3c 43 b7 16 bc
       -0.08162182 -0.009557606 0.025775596 -0.009198966
0003f0 7e a1 7c 3d 1b 1d 6d 3d 04 e9 84 3d 45 e2 23 3b
       0.06167745 0.057889085 0.06489757 0.0025006693

encoder.project.weight f4 [16, 128]
000000 ca 36 7b bc c0 8c e1 ba a6 60 70 bd e9 57 d7 3b
       -0.015332887 -0.0017208084 -0.05868592 0.006571759
000010 80 8d 17 3b 58 b5 8a bd 11 38 5f 3d 84 bb a3 3d
       0.0023125112 -0.0677287 0.05449683 0.0799475
000020 49 c0 9b 3d e1 27 83 bd 38 45 3f 3d 03 19 0b bd
       0.07605035 -0.06404091 0.04669687 -0.0339594
000030 1a 9c b7 3c da a5 83 3b 59 b8 b1 3d bf d1 48 3d
       0.022413302 0.004017574 0.0867774 0.049028154
000040 54 72 03 bd 6f 27 56 3d 14 f2 19 bb d3 47 5e 3d
       -0.032091454 0.0522837 -0.0023490237 0.054267716
000050 21 32 fb 3c d1 11 b1 bd 2b 1b 6e 3d 76 c2 33 bd
       0.030663552 -0.08645976 0.05813138 -0.043886624
000060 97 7e 94 bd 16 14 e0 3c 40 b0 77 bd fe 6b 64 bc
       -0.072507076 0.027353328 -0.06047082 -0.013941763
000070 9e d7 9f 3d fc 66 89 bd 93 86 20 3c d6 b0 4c 3c
       0.078047976 -0.06709096 0.00979771 0.012493333
000080 7e d7 24 3d 61 26 3b 3d f5 e3 2b bd 76 83 8c 3d
       0.040244572 0.045690898 -0.041965444 0.06861012
000090 1f f5 b5 bd 30 85 ad 3c 66 ea 42 3d 2d b9 2e bb
       -0.08884644 0.021181673 0.04758682 -0.0026660666
0000a0 b6 fa bb bc 84 0b 96 bd d3 53 4a bd 75 f1 5e bd
       -0.022946697 -0.07326415 -0.049396347 -0.05442949
0000b0 87 1f 7a bd 00 bf 10 3c 09 07 9b bd c9 31 83 bd
       -0.061065223 0.0088346 -0.07569701 -0.0640598
0000c0 a3 0f 9c bd f5 15 1d 3c 12 20 85 bd 23 18 53 3d
       -0.0762017 0.0095877545 -0.065002576 0.05153669
0000d0 90 47 bb 3b 92 c1 35 3d 6f 3c 8c 3d b2 03 1a bd
       0.005715318 0.044374056 0.06847464 -0.03760118
0000e0 5e ae 1f 3d 02 8b aa 3d 62 ce cb bc 73 c7 5f 3d
       0.03898465 0.08327295 -0.024878684 0.05463357
0000f0 f6 2c 8f bc e9 54 d6 bc 41 28 a1 3d 44 9c 94 3d
       -0.017477494 -0.026163535 0.07869006 0.07256368
000100 28 a9 31 3d 63 91 ac bd 21 d9 ab 3d ef fd 4d bd
       0.04337421 -0.08426168 0.083910234 -0.050290998
000110 3a 82 4e 3d 17 d8 5e bd 0e d8 53 bc 95 39 8c bc
       0.050417162 -0.054405298 -0.012929929 -0.017117301
000120 1a df 6e bd b0 e2 21 3d ff ba 9b bd 59 e3 89 3d
       -0.058318235 0.039522827 -0.07604026 0.06732816
000130 ae 92 19 bd 8a b5 93 3c ac c6 75 3d ed 8d 14 bc
       -0.0374934 0.0180309 0.06000392 -0.009067041
000140 47 ef 37 bc d8 94 ac bd 24 95 55 3d e4 60 28 3d
       -0.011226482 -0.08426827 0.052144185 0.041108027
000150 b1 88 95 3c a2 c6 dc 3b 6a 73 4e 3d 15 c3 a3 bc
       0.018253656 0.006737546 0.050403036 -0.019990483
000160 a1 58 4e bd bf a8 a1 bc 44 3b 8a bd cb 67 a3 bd
       -0.05037749 -0.019733785 -0.06749585 -0.07978781
000170 e0 03 b6 b9 db c6 24 bc 8e e7 5f bd c2 9e 50 3d
       -0.00034716632 -0.010057176 -0.054664187 0.050932653
000180 f1 6a ad bd 26 1d 95 bd ae d6 30 bd f1 52 6c 3d
       -0.08467663 -0.0728095 -0.043173485 0.057696287
000190 72 1f 0b bd 2e 93 28 bd 34 07 2b bd 0c 5b 42 3d
       -0.033965535 -0.041155986 -0.041754916 0.04745011
0001a0 be ef 92 bb 68 fa a5 3d d0 64 48 ba 65 58 a4 3b
       -0.004484146 0.08104402 -0.0007644417 0.0050154203
0001b0 52 8e 6b bd 83 c9 c7 bc fd 55 4a 3d e8 08 bf bc
       -0.057508774 -0.02438808 0.04939841 -0.023319677
0001c0 b5 24 a9 bd bd e9 b5 3d 4a fd aa 3d c3 8a 63 bd
       -0.082589544 0.08882473 0.08349092 -0.055552255
0001d0 f8 f3 1d bd ab ea 03 3d 6e ee 41 bb f8 35 2a bc
       -0.038562745 0.03220622 -0.0029591578 -0.010388844
0001e0 65 1f 47 bc d8 1e a4 3d 48 b5 7d bd 62 d0 13 3d
       -0.012153481 0.080136955 -0.06194046 0.0360874
0001f0 69 79 53 3b f6 ec 4a 3d a3 6a 73 bd 74 8d 21 bc
       0.003226841 0.04954239 -0.05942787 -0.009860385
000200 84 e9 2a bd 7a 08 81 3d 34 80 58 3d fa ba 12 3c
       -0.041726604 0.06300445 0.05285664 0.0089557115
000210 2f ea 30 bd 91 de 69 3c 3c f8 80 3c 53 c6 a3 bd
       -0.043192085 0.014274255 0.015743367 -0.07996812
000220 be 0e b6 bd a8 b6 90 bd cc e0 a3 3d 6d 37 cf bc
       -0.088895306 -0.07066089 0.08001861 -0.025294984
000230 c3 27 8c bd ab fb e7 bb cc 43 33 bc e5 bd 7b 3c
       -0.068435214 -0.0070795617 -0.010941457 0.015365099
000240 a7 f6 2f 3c f7 5d 30 3d f3 87 90 bd 0c 8a ab bd
       0.010739959 0.04305836 -0.0705718 -0.0837594
000250 96 c4 6d bd d5 c6 98 3d 1f 3c 48 bd 67 43 aa bc
       -0.058048807 0.07459799 -0.04888546 -0.020784093
000260 ab 92 30 bd 73 6f 95 3d 95 3d 85 3d f1 4d 5b 3c
       -0.043108623 0.07296648 0.065058865 0.013385282
000270 ea 9c 6d bd ed 3f ab 3d f4 97 9e 3c b5 36 5d 3d
       -0.058010973 0.08361802 0.019359566 0.05400725
000280 d1 32 81 bd 5f e8 50 bd b7 ab 15 bc 61 ac 9b 3d
       -0.063085206 -0.051002856 -0.009135178 0.07601238
000290 57 97 45 3d b2 8f 91 bd f2 30 8c bd ef 53 29 3c
       0.048240032 -0.07107486 -0.06845273 0.010334953
0002a0 f5 43 8b 3d fa f6 11 3d 9c c0 9d bd 22 e7 f8 bc
       0.06800071 0.035635926 -0.07702753 -0.03038365
0002b0 c9 10 22 3c ea 32 c6 bc b2 71 46 bd 6f d6 9a bd
       0.009891697 -0.0241942 -0.048448272 -0.07560431
0002c0 7c 5a 9e 3d a7 e4 79 3d c4 0b 8b 3c d6 d0 4f 3c
       0.07732102 0.061009075 0.016973384 0.012684068
0002d0 0c 22 73 3d d2 62 4e bd b0 5b aa 3c 76 9c ac bd
       0.05935864 -0.05038721 0.020795673 -0.0842828
0002e0 83 7d ea bc 86 30 d9 3c 64 18 57 bd c8 cb 98 3d
       -0.028624302 0.026512396 -0.052513495 0.07460743
0002f0 5f 77 0c 3d f3 a1 3a 3d 8c f0 82 3d bc 28 8b 3d
       0.03429353 0.045564603 0.06393537 0.06794879
000300 bd 8e f3 bc cf 92 f5 3c 8b e2 67 bd f7 dd a8 3d
       -0.029731149 0.02997723 -0.056612533 0.082454614
000310 16 3c e8 bb ed bb 87 bd 93 3d 82 bd 83 c7 27 bd
       -0.007087241 -0.06627641 -0.063594006 -0.040961754
000320 85 ae c0 3c c9 ab 45 3d 62 ff 58 bd fe 5a 81 bd
       0.023520717 0.04825953 -0.052977927 -0.063161835
000330 be ff 60 bd d4 a1 9f bd 41 bb aa bd 8d 78 90 bd
       -0.054931395 -0.07794538 -0.08336497 -0.07054243
000340 48 7b 98 3b 3b 3e 6a 3d d6 76 65 3d 64 3e af bd
       0.004653368 0.057188254 0.056021534 -0.08556822
000350 f1 2e 39 bd b2 fa b2 bc a8 2e 61 bd 55 89 3d bd
       -0.045210782 -0.021848056 -0.054976135 -0.04627355
000360 c3 e2 67 bd a6 2d 87 3c a2 c6 1a bc d3 6f 96 3d
       -0.05661274 0.016501259 -0.009446772 0.073455475
000370 cd 89 52 3c 48 12 a2 bd 51 c5 9d bd c9 7b 8f 3d
       0.012850237 -0.07913643 -0.07703651 0.07006032
000380 3f 33 a6 3d 82 90 5d 3d 2b 8d 43 bd fd 02 b2 3b
       0.08115243 0.05409289 -0.04774205 0.005432485
000390 87 a1 ab 3d f8 ee 05 bc e1 81 af bd 07 0d 8d bd
       0.08380418 -0.00817465 -0.08569694 -0.068872504
0003a0 9b 88 0e 3d 56 e8 8d bd af 7f ce 3c 07 7c 53 3d
       0.034798246 -0.0692908 0.025207369 0.051631954
0003b0 17 1a 22 bd d6 a3 b0 3d cc 74 00 3d d9 95 a8 3c
       -0.039575662 0.08624999 0.031361386 0.020579265
0003c0 3d 26 3e 3d aa 26 1a 3b 89 86 55 bc c1 80 b0 3d
       0.046423186 0.002352158 -0.013032564 0.08618308
0003d0 b2 62 10 bc 23 e3 0f 3d c5 43 b3 bc a8 6c 23 bd
       -0.008812593 0.035128724 -0.021882901 -0.039898545
0003e0 28 a6 fd bc 16 19 65 bd 33 9f 4c 3d 56 bc f1 3c
       -0.030963019 -0.055932127 0.04995651 0.02950875
0003f0 1c 91 b6 bc 32 49 4b bd c9 6f 84 bc 0b 34 4b bd
       -0.02228599 -0.04963035 -0.016166585 -0.04961018

encoder.project.bias f4 [16]
000000 18 da 04 3d 91 b8 51 3d 6d 72 da 3c a1 66 55 bc
       0.032434553 0.051201407 0.02666589 -0.013024957
000010 09 30 9a bd 24 88 d9 bc c9 b8 14 3d 7b 54 7b 3d
       -0.07528693 -0.026554175 0.036309037 0.061359864
000020 f3 1a 3e bd bd 86 20 3c 37 75 23 bc 89 18 73 bd
       -0.04641242 0.009797749 -0.009976677 -0.05934957
000030 a1 8f df 3c a8 04 fd 3c 54 13 4f 3c e9 85 3b 3d
       0.027290167 0.03088601 0.0126388855 0.045782004

decoder.0.weight f4 [128, 16]
000000 a9 45 59 3e 0d 94 78 be 23 4b 54 bd d2 3a ed bd
       0.2121798 -0.24275227 -0.05182947 -0.11583485
000010 b2 4d 1e 3e a0 9b 59 be 86 3d ed bd 6a 09 17 3e
       0.15459326 -0.21250772 -0.11584 0.14749685
000020 f5 47 14 bd b5 91 27 3e dd 68 38 3e 25 c0 aa bc
       -0.036201436 0.16364177 0.18008752 -0.020843575
000030 8d 8d 65 be a2 66 44 bd 0b 23 5d 3e 77 68 85 3c
       -0.22417279 -0.04794944 0.21595399 0.016285164
000040 3e d2 56 3d f6 c7 52 3e 9b c2 30 3e 09 9e 24 be
       0.052446596 0.20584092 0.17261736 -0.1607591
000050 23 0d d8 3d db f9 9c bd d8 2f 54 3e ba 8d 79 bd
       0.10549381 -0.07664844 0.20721376 -0.060926177
000060 29 7b 7b 3e 94 f5 63 be 2e b9 61 be ff 1e c0 3d
       0.245587 -0.2226165 -0.22043297 0.09380912
000070 67 f2 00 3d cd 6b 87 3d 51 d4 f4 3d d0 6e 8f 3c
       0.031481173 0.06612358 0.11954559 0.017508894
000080 89 ed ef bc 66 85 39 bc 38 d2 ab bd b8 26 aa 3b
       -0.02928807 -0.011323309 -0.083897054 0.005192604
000090 9e 80 9c 3d 77 1a 2b 3e 3f 3a 3c 3e 6e 05 fc 3d
       0.07641719 0.16709314 0.18381594 0.12305723
0000a0 62 07 da bc 44 a7 60 3e 19 c5 17 be 27 e1 2a 3d
       -0.026614849 0.21938807 -0.1482128 0.04171863
0000b0 a7 5c 26 be 14 d6 fe 3d b2 7a d4 bd d8 f0 b5 bd
       -0.16246282 0.12443176 -0.10374965 -0.08883828
0000c0 fa 01 50 be 1b a2 12 be 06 34 b5 3d 95 ed ae bd
       -0.20313254 -0.14319651 0.08847813 -0.08541409
0000d0 fb 61 34 be b0 bd 9c bc 2c ca f2 bd ee ad 9d 3d
       -0.17615502 -0.019133419 -0.118549675 0.0769919
0000e0 04 48 c8 bc d0 5a 63 be 41 0b 46 3d 75 7a 41 3d
       -0.024448402 -0.22202611 0.048350576 0.047235925
0000f0 28 bd e7 bd bc c2 63 be f0 3b 4f 38 19 7d b1 3d
       -0.113153756 -0.22242254 4.9408467e-05 0.086664386
000100 a9 f9 46 bc 76 ac c3 3d 44 4b a3 bd fb d9 49 be
       -0.012144485 0.09554379 -0.0797334 -0.19712059
000110 00 a4 65 3e 9c fa 93 3d 7f c5 bd 3d 28 18 66 be
       0.22425842 0.07225534 0.09266185 -0.22470152
000120 69 1c b1 bd 69 a6 6f be 4b 55 f4 3d bf c9 c8 3d
       -0.08647997 -0.23403324 0.11930331 0.09804105
000130 5f e3 b4 3d f5 4e e5 bd 08 c3 b2 3d 02 71 e4 bd
       0.0883243 -0.111967005 0.087286055 -0.11154367
000140 e5 48 89 3d a7 c7 82 3d 50 a3 cd 3d 48 87 02 be
       0.06703357 0.06385737 0.10040915 -0.12746918
000150 c6 71 4c 3e 4f d5 13 3e c8 f5 78 3d 58 92 75 be
       0.19965276 0.1443684 0.06078127 -0.23981607
000160 7a 41 4d be 7c 87 20 bd be 2d a3 3d 9a b3 6d be
       -0.20044509 -0.039191708 0.07967709 -0.23213044
000170 34 95 05 3e 78 7f 74 be 7c 42 64 be 00 6b bd 3d
       0.13045198 -0.2387675 -0.22290987 0.09248924
000180 9e b4 b0 3b cd e4 26 3e ae 3a 7a 3d bc c2 ba 3d
       0.005392625 0.16298218 0.061091118 0.09119174
000190 cd 47 35 3e 20 d5 0a 3e c4 19 a7 3d 7b ce 39 3e
       0.17703171 0.13557863 0.08159211 0.18145172
0001a0 c4 82 29 be e7 d7 48 3e d7 07 2d bd d4 62 75 3c
       -0.1655379 0.1961361 -0.042243805 0.014977176
0001b0 b8 06 18 be 87 93 a5 3d 1b bf b6 bd f0 45 a3 3d
       -0.14846313 0.08084779 -0.08923169 0.07972324
0001c0 a4 b8 16 3d 5c 22 6b 3e 78 d7 fd 3c 99 77 5c 3e
       0.03679718 0.22962326 0.030986533 0.21529998
0001d0 82 af e7 3d c2 bf 18 bd d4 37 d0 3d cb 68 42 3e
       0.11312772 -0.03729225 0.10166898 0.18985288
0001e0 04 3e 18 be 91 6f 2f be 99 4b 4d be 69 2a 48 3e
       -0.14867407 -0.17132403 -0.2004837 0.19547428
0001f0 18 49 4d 3e f3 06 b2 3d ee 87 60 bb fc 49 80 3d
       0.20047414 0.08692732 -0.0034260708 0.062641114
000200 72 60 3a bd 88 c7 05 bc 4e c0 6f 3e 3a 20 0f be
       -0.045502134 -0.008165248 0.23413202 -0.13977137
000210 20 0b 1c 3e 05 3d 38 be 8a 30 dd 3d 43 8a 48 3e
       0.15238619 -0.17992027 0.10800274 0.19583993
000220 44 2f 1d bd c4 17 03 3d 08 be 71 bd 05 ff 34 3e
       -0.038375154 0.032005087 -0.05901912 0.17675407
000230 04 24 a9 bd 53 be c6 3d d8 1e e3 3d 06 68 a8 bd
       -0.082588226 0.0970427 0.11089867 -0.08222966
000240 f4 68 61 be 8d 7c 5c 3e f7 60 6f 3e 52 02 00 bd
       -0.22012693 0.21531887 0.23376833 -0.031252213
000250 a4 80 62 bd 03 8a 30 3e d4 75 b5 3d fa 6b b0 3c
       -0.055298463 0.17240147 0.088603646 0.021535862
000260 4c 20 22 be d8 0e 71 3e d4 83 63 3e a6 fa 34 3d
       -0.15832633 0.23540819 0.22218257 0.04418435
000270 70 88 fc 3d 25 1e 5b be aa d6 10 be 86 36 df 3c
       0.12330711 -0.21398218 -0.14144388 0.027247678
000280 f7 7d 16 3e dc 33 c2 3c 45 f4 d4 bd c6 d2 46 3e
       0.1469649 0.02370637 -0.10398153 0.19416341
000290 bf 48 2b 3e f6 99 80 be e1 e6 36 3d 66 1b 09 3e
       0.16726969 -0.25117463 0.044653777 0.13389358
0002a0 80 4d 5e 3e b1 ce a8 3d ee dc 4c bd 4a 53 fd bd
       0.21709251 0.08242548 -0.050015382 -0.12369402
0002b0 e1 1b 12 3d a5 d8 49 3e 1f 96 08 3e d8 e4 d5 3d
       0.03567112 0.1971155 0.13338517 0.10444039
0002c0 29 80 64 be f0 de 08 3c bd ad 45 3e 44 51 e2 3d
       -0.22314514 0.008353934 0.19304557 0.110506564
0002d0 0d 19 0a be cb e9 61 3e 52 f6 7a 3e 02 4f 6d 3e
       -0.13486119 0.22061841 0.24508026 0.2317467
0002e0 5c 31 73 3c c3 db 32 be 39 0b 91 3d 40 79 e4 3d
       0.014843311 -0.17466645 0.07082219 0.11155939
0002f0 a7 5b a3 3d 23 55 f6 bd 1d 32 48 3e 00 eb 2a 3e
       0.07976466 -0.12027957 0.19550367 0.16691208
000300 b8 48 54 3d a7 f4 3b be 02 d3 c6 3c 92 31 62 be
       0.051827163 -0.18355046 0.024270538 -0.22089222
000310 6f f2 1d be 98 f6 89 3d f5 3b 80 3c 33 fb 6e 3e
       -0.15424512 0.06736487 0.01565359 0.23338012
000320 d8 b2 43 3e 4e fd 6f be 43 df 6a 3e 87 49 1e be
       0.19111192 -0.23436472 0.2293673 -0.15457736
000330 a1 0d 26 3e cd 14 1b 3e fa 1b 62 3d 0f 47 2e 3e
       0.16216137 0.15144654 0.05520246 0.17019294
000340 d3 8c aa 3d 1f 40 2b be 4c 14 ed bc 6b 9f 53 be
       0.08327641 -0.16723679 -0.028940342 -0.20666282
000350 7c af b8 3d 1e 76 62 3e c5 5a 1f be 66 81 e3 3d
       0.09017846 0.2211537 -0.1556197 0.11108665
000360 1e 82 cb 3d 97 68 a3 3c 0b c0 db 3d 6e 73 77 3e
       0.09936927 0.019947333 0.10729989 0.24165127
000370 4e aa 5b be 36 52 d6 bd ff 77 5f 3e 8a 3d 0b be
       -0.21451685 -0.10464899 0.21823119 -0.13597694
000380 3b c1 e7 3d 1f 62 13 3e fd 39 b0 bd e3 dc 39 bd
       0.11316153 0.14392899 -0.086048104 -0.04537667
000390 49 62 50 3e 31 20 44 be 72 85 6d 3d 12 6e 87 bd
       0.20349993 -0.19152905 0.05798859 -0.06612791
0003a0 93 3e 40 be 7d b6 54 3e 17 62 cf bd 9a 38 ef bd
       -0.1877387 0.20772739 -0.10126131 -0.11680718
0003b0 cf 42 76 be bc 63 73 be b7 c3 b1 3c 32 ba e4 bd
       -0.24048923 -0.23768514 0.02169977 -0.111683264
0003c0 09 a4 cf 3d 44 24 6c 3e 53 28 d4 bd 4c 39 40 be
       0.10138709 0.23060709 -0.10359254 -0.18771857
0003d0 f6 43 12 be e1 44 f6 3d d2 72 21 3e ed ae 07 be
       -0.14283738 0.12024856 0.15766457 -0.13250323
0003e0 dd 3f 16 bc f4 4f b8 bd e9 7e 0c be 81 b2 1a be
       -0.0091705 -0.08999625 -0.13720287 -0.15107156
0003f0 b8 05 d1 bd 3a 02 20 bd c9 73 37 be 80 a8 7c 3e
       -0.10206169 -0.039064623 -0.17915262 0.24673653

decoder.0.bias f4 [128]
000000 7b 3b 43 3e 8b 65 3c 3d 5a e9 43 3e 12 d3 8f 3d
       0.19065659 0.045995276 0.19131985 0.0702268
000010 ed 2e c1 3d 3b 84 0e bd c0 b9 a3 bd 2f 19 20 3e
       0.094327785 -0.034794074 -0.079944134 0.15634607
000020 54 4e 80 bb 20 bd 37 be b5 5e 7c bc b5 82 16 be
       -0.0039155874 -0.17943239 -0.015403439 -0.14698298
000030 b1 9e 0a 3e 50 6b 05 bd 37 e5 03 3e f7 3a af 3d
       0.13537098 -0.032573044 0.12880407 0.085561685
000040 24 fb fd bc d2 0f 92 3d 6f 82 c4 3d cb d1 56 3e
       -0.031003542 0.07131924 0.09595191 0.20978467
000050 cc 16 2c bc 6f 30 1b be d6 7f 3a 3e 30 bf 19 bd
       -0.010503482 -0.15155195 0.18212828 -0.037535846
000060 37 26 2b 3e 5c 4a c5 bc 48 62 d0 3d 2e ff 1f bd
       0.16713797 -0.024083309 0.10174996 -0.039061718
000070 09 86 79 bd 89 15 62 3e 45 c3 48 bd 9d cb 49 be
       -0.06091884 0.22078528 -0.04901435 -0.19706579
000080 ea 1b 05 3e cc e5 ae 3d 08 cc 76 3e 44 9e 06 3e
       0.1299893 0.08539924 0.24101269 0.13146311
000090 b8 65 58 3e 1a 13 a4 3d 14 ad 04 be 68 50 4f be
       0.21132553 0.08011456 -0.12956649 -0.20245516
0000a0 88 4e 0b 3b 27 af 55 be 47 cb 36 3e 47 53 cf bd
       0.0021256525 -0.20867597 0.17850982 -0.10123306
0000b0 db 04 c4 3b 46 9c cc 3d a1 4e 0b be 6c d5 01 3e
       0.005982024 0.09990744 -0.13604213 0.1267907
0000c0 fd 60 d5 bd 0d 8a 9d 3d 35 52 9e bd 84 53 44 3e
       -0.1041889 0.07692347 -0.077305235 0.19172484
0000d0 a9 33 3e 3e c3 4d 9c 3d fb bc 30 bd 68 c2 15 3e
       0.18574394 0.07632019 -0.043148976 0.14624941
0000e0 0c a1 2f 3e b6 5c 8b bd 55 cd 57 3d 28 19 a6 bc
       0.17151278 -0.068047926 0.052686054 -0.020275667
0000f0 9f a9 21 3e 74 57 f1 3c b1 82 e1 3d 4f 97 0b be
       0.15787362 0.029460646 0.110112555 -0.13631938
000100 92 2e c9 3d 1b 09 62 3e de d4 43 3d b5 f0 c8 3d
       0.09823336 0.22073786 0.047810428 0.09811536
000110 d6 97 3e be 65 a4 c8 3c 99 18 21 3e cc d6 76 be
       -0.18612608 0.024492452 0.1573204 -0.24105376
000120 18 10 54 3e 62 55 5f bc ca c8 72 be 3a 2c 49 3d
       0.20709264 -0.013631197 -0.23709407 0.049114443
000130 b1 20 ff bc 03 cb 1b bd 1c 0c 15 3d 2a 8a be 3d
       -0.031143518 -0.038035404 0.0363885 0.093036965
000140 20 ff 17 be 70 cf 33 bd 71 38 5f bd aa 29 19 bc
       -0.14843416 -0.043899 -0.054497186 -0.009348312
000150 16 d1 5a 3e 62 3f aa 3d be c0 37 3d 5a 55 38 be
       0.21368822 0.083128706 0.044861548 -0.18001309
000160 51 b0 69 be 1b bd f8 bd 7e c4 9f 3c 38 5f 71 be
       -0.22821166 -0.12145444 0.019502874 -0.2357148
000170 04 3d 54 3e 60 35 36 3b 41 84 52 3e 02 3c 2e bd
       0.207264 0.002780281 0.20558263 -0.042537697
000180 e7 96 6f 3e 60 86 37 3d 84 30 45 3e a0 21 60 3e
       0.23397408 0.044805884 0.19256788 0.21887827
000190 3b eb 1e be b6 7c 1b 3e e0 72 6c be e6 87 ba 3d
       -0.15519421 0.15184292 -0.23090696 0.09107952
0001a0 30 5d 46 38 85 f3 74 3e b2 57 b8 3d b4 2c a8 bd
       4.7293666e-05 0.2392102 0.090011016 -0.082116514
0001b0 f4 88 15 be 4e 3b 25 3d ce ba 48 be 55 e4 2c be
       -0.14603025 0.04033976 -0.1960251 -0.16883977
0001c0 c2 30 0e 3e 41 b4 34 3e aa a8 5d bd a1 a1 40 bd
       0.13885787 0.17646886 -0.05411593 -0.04702914
0001d0 97 7e 77 be 6e 8e 0f 3e 36 bd 70 3e c4 d9 0a 3d
       -0.24169384 0.14019176 0.23509678 0.033899084
0001e0 09 4e e5 3c fe 75 25 3d 31 ec 54 3e 39 c7 6c be
       0.027991312 0.04039573 0.20793225 -0.23122872
0001f0 12 78 31 bd b2 4c fb bd 33 e5 02 be e7 03 68 3e
       -0.0433274 -0.12270488 -0.12782745 0.22657739
