my_latent_sde/sdes/best_sde_0.pth (torch, 214133 bytes, 28 tensors)

encoder.gru.weight_ih_l0 f4 [192, 2]
0	0xbdbf5492	-0.093423024
1	0x3d99c2fb	0.07507893
2	0xbdafa748	-0.08576828
3	0xbc6063e5	-0.013695692
4	0xbc7418bd	-0.014898476
5	0x3dd0050a	0.10157211
6	0x3c89cbbe	0.016820785
7	0xbdbf19fc	-0.09331128
8	0x3d829810	0.0637666
9	0x3dc9a0c7	0.09845119
10	0xbae0ea55	-0.001715968
11	0xbdc2f34e	-0.09519063
12	0xbcb72ae2	-0.022359315
13	0x3c72c9cc	0.01481862
14	0xbcc5ed4a	-0.024161
15	0xbdaa6541	-0.08320094
16	0x3d79fbc8	0.061031133
17	0xbba66449	-0.005077873
18	0x3dcc58a2	0.09977843
19	0xbda2a618	-0.07941836
20	0xbd2ccec6	-0.042189382
21	0xbd7d7818	-0.06188211
22	0x3dbf50f1	0.0934161
23	0x3d7bdfe8	0.06149283
24	0xbc8f8ab2	-0.01752219
25	0xbccb3c3f	-0.024809001
26	0x3d665aaa	0.056238808
27	0xbd9941b3	-0.07483234
28	0xbca277de	-0.019832548
29	0xbaa51afa	-0.0012596541
30	0xbcbf1dde	-0.023329671
31	0x3dbcf213	0.092258595
32	0x3c6439f5	0.013929834
33	0x3cb30f76	0.021857958
34	0x3aabc0a0	0.0013103671
35	0x3cd04003	0.025421148
36	0x3d09465d	0.03351437
37	0xbbed5227	-0.0072424593
38	0xbb80d088	-0.003931109
39	0xbdc47b7d	-0.09593866
40	0xbdcc0572	-0.09961976
41	0x3d51db07	0.05123427
42	0xbc17596d	-0.009237629
43	0x3d4a06f1	0.049323026
44	0x3d8f93fe	0.07010649
45	0xbdc16974	-0.09443942
46	0xbda1162a	-0.078655556
47	0xbcb42da3	-0.021994418
48	0xbdc88299	-0.097905345
49	0xbc0e96bf	-0.008702933
50	0xbce56375	-0.028001526
51	0xbd9be066	-0.0761116
52	0x3d90c76c	0.07069287
53	0xbd9a23fa	-0.07526393
54	0x3da3231c	0.07965681
55	0x3d5a2749	0.05326012
56	0x3c4080ae	0.01174943
57	0xbd34a85b	-0.04410587
58	0xbd0a8a9d	-0.0338236
59	0xbd0b6542	-0.034032114
60	0xbd854ab3	-0.06508388
61	0xbd64c2d4	-0.055849865
62	0x3d98a4e6	0.07453327
63	0x3c18cf41	0.009326757
64	0x3ca1b942	0.019741658
65	0xbd36a9f7	-0.044595685
66	0x39c0e720	0.00036793295
67	0xbbc3101e	-0.005952849
68	0xbb675ae9	-0.003530199
69	0xbd0f74a7	-0.035023358
70	0x3c4d69cf	0.012537434
71	0x3ba77662	0.005110548
72	0x3d266e8e	0.040632777
73	0xbb5aa01e	-0.0033359597
74	0xbd132ac8	-0.03592947
75	0xbb0dcf12	-0.0021638316
76	0x3d98455d	0.07435105
77	0xbda8d8f3	-0.08244505
78	0x3d6464cc	0.05576019
79	0x3d285761	0.041098956
80	0xbd68383a	-0.056694247
81	0xbda6a50b	-0.08136948
82	0xbca8cccc	-0.020605467
83	0xbdbfb95f	-0.093615286
84	0x3aff9199	0.0019498348
85	0xbcb35240	-0.021889806
86	0x3dae67dc	0.08515903
87	0xbd80fb6d	-0.06297956
88	0xbdba0203	-0.09082415
89	0xbd04aa0f	-0.032388743
90	0xbcd0db7d	-0.025495285
91	0x3c325f4c	0.010886978
92	0x3c7a3f4a	0.015273878
93	0xbdb01815	-0.08598343
94	0x3cc8198d	0.024426246
95	0x3ccceadd	0.025014335
96	0x3b214a26	0.0024610846
97	0x3d929a40	0.07158327
98	0xbae6b296	-0.001760083
99	0x3ce7fd8a	0.028319139
100	0xbd4f4590	-0.05060345
101	0x3db67f3c	0.08910987
102	0xbd5a1cd9	-0.053250168
103	0xbda6d3e3	-0.08145883
104	0xbd9861f0	-0.07440555
105	0x3d4c3830	0.049858272
106	0xbcacd50c	-0.021097682
107	0xbd85c1e9	-0.06531126
108	0x3d660e0b	0.056165736
109	0x3c0f0afd	0.008730647
110	0x3dbddc96	0.09270589
111	0xbc5a1be8	-0.013312317
112	0xbdcdfcba	-0.100579694
113	0xbaab467b	-0.001306727
114	0x3cc5c0bf	0.02413976
115	0xbdb1663b	-0.08662077
116	0x3bbdfac3	0.0057977154
117	0xbc6a1b56	-0.014288744
118	0x3d5fcf87	0.054641273
119	0x3c2fee56	0.010737976
120	0xbd7fa80b	-0.062416118
121	0x3d5f2f89	0.054488692
122	0xbd97ac0f	-0.074058644
123	0x3c805ff5	0.015670756
124	0x3d0c7264	0.03428878
125	0x3d080980	0.033212185
126	0xbd47895e	-0.048714988
127	0x3db8386a	0.08995135
128	0x3d96e2d7	0.07367485
129	0x3d51759e	0.05113756
130	0x3d3add09	0.04562095
131	0x3c9d9e38	0.019240484
132	0xbcdaac9c	-0.026693635
133	0xbd5b37a7	-0.05351987
134	0xbd5f9adb	-0.05459104
135	0x3d8110cf	0.06302034
136	0xba5f01fb	-0.000850707
137	0xbd953ad4	-0.07286611
138	0xbd639194	-0.055558756
139	0x3c671720	0.0141046345
140	0xbcfa24a8	-0.030535057
141	0xbce7cfe7	-0.028297378
142	0x3d339fba	0.0438535
143	0xbd9297a4	-0.071578294
144	0xb7156898	-8.905445e-06
145	0xbd1d0b5d	-0.038340915
146	0x3ac522b1	0.0015040246
147	0xbcff900f	-0.031196622
148	0xbd94a452	-0.07257904
149	0x3da37583	0.07981398
150	0x3d01a52c	0.03165166
151	0xbcaa5573	-0.020792698
152	0xbda561b0	-0.08075273
153	0x3c4f2d5f	0.012645095
154	0x3c6754ce	0.01411934
155	0x3c0d0167	0.008606291
156	0xbc068afd	-0.008211848
157	0x3d598089	0.053101096
158	0x3d82e749	0.063917704
159	0xbc7edaba	-0.015555078
160	0x3c917fe9	0.017761188
161	0x3c00db12	0.00786473
162	0x3d5bbb0d	0.053645182
163	0xbd538ee5	-0.051649947
164	0x3c146c7d	0.009059069
165	0xbd453f4e	-0.048156075
166	0xbdb91d4e	-0.090387926
167	0xbbc787dd	-0.006089194
168	0xbd96c825	-0.07362393
169	0xbccee089	-0.025253551
170	0xbcbb4e04	-0.02286435
171	0x3d668c35	0.056286056
172	0xbd91f92b	-0.07127603
173	0x381fd9c0	3.811135e-05
174	0xbc04c544	-0.008103672
175	0xbb432d00	-0.002978146
176	0x3db87fe3	0.090087675
177	0x3d9d1d1e	0.07671569
178	0xbd6a9e05	-0.057279605
179	0x3d2b7880	0.041862965
180	0x3d8eafb6	0.06967108
181	0xbd1ac289	-0.03778318
182	0x3d2540eb	0.040345114
183	0x3dc02f33	0.093840025
184	0xbbb76866	-0.005597162
185	0xbbe8b18a	-0.0071012424
186	0xbca8377e	-0.020534273
187	0xbc9c9177	-0.019112332
188	0x3ce8cb84	0.028417356
189	0xbcb7be0e	-0.022429492
190	0xbd3f7936	-0.046746455
191	0x3d914f60	0.07095218
192	0x3aab6e89	0.0013079207
193	0xbca7de83	-0.020491844
194	0x3c4b4a39	0.012407833
195	0x3c8222ea	0.015885789
196	0xbdb3f33f	-0.0878663
197	0xbc13eef3	-0.009029138
198	0xbc15f8a7	-0.009153522
199	0xbc25d498	-0.010121487
200	0xbd32aeb3	-0.043623637
201	0xbd820a40	-0.06349611
202	0x3d8f96f1	0.07011212
203	0x3cddc79a	0.027072717
204	0x3bed9326	0.0072502075
205	0xbbb129bc	-0.0054065865
206	0xbd7c13a8	-0.061542183
207	0xbcf572d8	-0.029961988
208	0x3d1da2ec	0.038485453
209	0x3c004ac9	0.00783033
210	0xbdb42130	-0.087953925
211	0x3d9745d8	0.073863685
212	0xbd85af6b	-0.06527599
213	0xbd32a3ea	-0.043613352
214	0x3cec0f69	0.028815942
215	0x3ade00ae	0.0016937458
216	0x3c2f6f57	0.010707698
217	0xbb2a529a	-0.0025989176
218	0x3c1cd82b	0.009573023
219	0xbd739243	-0.059465658
220	0xbdbafe2e	-0.09130512
221	0xbcf7049b	-0.030153563
222	0xbd70638d	-0.05868869
223	0xbc103834	-0.008802462
224	0x3d94199e	0.072314486
225	0xbd8fe130	-0.07025373
226	0x3d888157	0.066652946
227	0xbdbe7882	-0.09300329
228	0x3d70f486	0.058826946
229	0x3daa8dd4	0.08327833
230	0x3bae6a07	0.005322698
231	0xbd7c269d	-0.061560262
232	0x3d97173c	0.073774785
233	0x3ba34a7a	0.0049832435
234	0xbab78b9c	-0.0014003399
235	0x3d318185	0.04333641
236	0xbdb4a4da	-0.088205054
237	0x3caba865	0.02095432
238	0x3cfadc6c	0.030622683
239	0x3d81e1cc	0.063418955
240	0x3db4c39e	0.088263735
241	0xb7dc0360	-2.6227615e-05
242	0xbdbf4ddc	-0.09341022
243	0xbce1a34d	-0.027543688
244	0xbc1518f7	-0.00910019
245	0xbb372851	-0.0027947614
246	0x3d93d510	0.07218373
247	0x3ba15e76	0.0049245907
248	0x3daf2701	0.08552361
249	0xbb3c4faa	-0.0028734007
250	0xbdb6611a	-0.089052394
251	0xbd290455	-0.041263897
252	0x3d81a621	0.06330515
253	0x3ab20ec1	0.0013584719
254	0x3d9af688	0.07566553
255	0x3a1a50f4	0.0005886697

encoder.gru.weight_hh_l0 f4 [192, 64]
0	0xbd804a79	-0.062642045
1	0x3ce385bf	0.027773736
2	0x3ced2a70	0.0289509
3	0x3b0316b1	0.0020002539
4	0x3cbf3c38	0.023344144
5	0xbd3779e7	-0.04479399
6	0xbd153bd6	-0.036434017
7	0x38dcb581	0.00010524225
8	0xbdc1d76a	-0.09464915
9	0x3dc1cd53	0.094629906
10	0xbb77a8a9	-0.0037789738
11	0x3cdacd2a	0.026709158
12	0x3d3eba1b	0.046564203
13	0xbc924395	-0.017854491
14	0x3d48572b	0.048911255
15	0xbd8cce05	-0.068752326
16	0xba8a4f11	-0.0010552128
17	0xbba9b8ba	-0.005179492
18	0xbdc328e7	-0.09529286
19	0xbaf47c3a	-0.0018652745
20	0xbb2a6182	-0.002599806
21	0xbd94557d	-0.07242868
22	0xba653b39	-0.00087444816
23	0x3b6b8536	0.0035937554
24	0xb9f3aa39	-0.00046475398
25	0x3ac52140	0.0015039816
26	0xbd051ce5	-0.03249826
27	0x3c292b22	0.010325225
28	0xbd762b88	-0.06010011
29	0x39a34e18	0.00031147967
30	0xb9b3545e	-0.000342044
31	0x3daf272f	0.085523956
32	0x3d368eac	0.044569656
33	0x3b54de79	0.0032481237
34	0x3d0bfed8	0.034178585
35	0x3c04fdf4	0.008117188
36	0xbdba0ed0	-0.090848565
37	0x3d55ccd8	0.052197307
38	0x3c8ffc48	0.017576352
39	0x3d714487	0.058903243
40	0xbd14a8ce	-0.036293797
41	0x3d4879cf	0.04894429
42	0x3dbfd742	0.09367229
43	0x3dc39c5c	0.095513076
44	0xbc869094	-0.016426362
45	0xbd8b7022	-0.06808497
46	0xbbc6cc2a	-0.0060668187
47	0xbaf47285	-0.0018649852
48	0xbd3d34f5	-0.046193082
49	0xbdb02ee7	-0.08602696
50	0xbd9bc0ef	-0.076051585
51	0xbd0b70a1	-0.03404296
52	0xbd44f57e	-0.048085682
53	0xbdba538f	-0.09097969
54	0xbbfeaa5e	-0.007771774
55	0x3aa758a0	0.0012767501
56	0xbaa18513	-0.0012322984
57	0xbd26a11a	-0.040680982
58	0xbd1e386d	-0.03862803
59	0xbcca750d	-0.024714017
60	0xbd98c48d	-0.07459364
61	0x3d9286b7	0.07154601
62	0xbd67c3ef	-0.05658334
63	0x3dc319f4	0.095264345
64	0xbb3aa309	-0.0028478524
65	0xbd84e588	-0.06489092
66	0xbd252153	-0.040314984
67	0x3d58a50f	0.052891787
68	0x3b73537c	0.0037128618
69	0xbcaa6bb8	-0.020803317
70	0xbcd02c08	-0.02541162
71	0x3be7a954	0.007069746
72	0x3a729324	0.0009253493
73	0xba83df84	-0.001006112
74	0x3ba326eb	0.0049790046
75	0xbb223031	-0.0024747963
76	0xbcbe9886	-0.023266088
77	0xbd3c3341	-0.045947317
78	0x3b88cba8	0.0041746683
79	0x3b821388	0.0039696135
80	0x3d9a8fd4	0.07546964
81	0xbb3796b8	-0.002801342
82	0xbd0dc8f2	-0.034615465
83	0xbaa46c33	-0.0012544453
84	0x3b4226bc	0.0029625138
85	0xbc9eac70	-0.019369334
86	0x3afcf8a8	0.001930018
87	0x3d5be820	0.05368817
88	0xbb8c5842	-0.004282982
89	0x3d9bf2c7	0.076146655
90	0x3be53278	0.0069945417
91	0xbda72547	-0.08161407
92	0x3b5f98ba	0.0034118132
93	0x3a4d6946	0.00078358164
94	0x3d5d062f	0.053960975
95	0x3d88f786	0.06687836
96	0x3d2fb50c	0.04289727
97	0xbd9047a6	-0.07044916
98	0xbbadf128	-0.005308289
99	0xbd9e323e	-0.07724427
100	0x3d908091	0.07055772
101	0x3cd5247a	0.02601837
102	0x3cb310a7	0.021858526
103	0x3d413376	0.047168218
104	0x3b9bb9e2	0.0047523836
105	0xbd1f88a0	-0.038948655
106	0x3d509336	0.05092164
107	0xbadc82b7	-0.0016823624
108	0x3d3290b2	0.043595023
109	0xbd3ba676	-0.045813046
110	0xbd999496	-0.07499044
111	0x3b4578f2	0.0030131903
112	0xbd52d4fb	-0.051472645
113	0x3ce75d9e	0.028242882
114	0xbda4e49c	-0.08051416
115	0xbd0c7fca	-0.034301557
116	0xbbecac81	-0.0072227125
117	0x3db138a0	0.086533785
118	0x3d13afb7	0.036056247
119	0x3c526a89	0.012842783
120	0x3b33273b	0.0027336616
121	0xbc10484b	-0.0088062985
122	0x3cde495d	0.027134592
123	0xbdbc2cab	-0.09188207
124	0x3c716630	0.014733836
125	0xba211327	-0.00061445165
126	0x3c9cfcc5	0.019163499
127	0xbd14246f	-0.03616756
128	0x3d9098df	0.07060408
129	0x3d89c569	0.06727106
130	0xbd1e58bf	-0.038658854
131	0x3d683188	0.05668786
132	0xbda12adf	-0.07869505
133	0x3c416076	0.011802783
134	0x3dbbbb13	0.09166541
135	0x3cc3e3ce	0.023912337
136	0x3d07117f	0.03297567
137	0xbd96bc87	-0.073601775
138	0xbc3c9ebe	-0.011512456
139	0xbbc97cf7	-0.00614893
140	0xbca77745	-0.020442614
141	0xbdb4ed33	-0.08834305
142	0xbdb41e64	-0.08794859
143	0x3d29d0c0	0.041458845
144	0x3d42ea81	0.04758692
145	0x3d9f6335	0.07782594
146	0xbc473aff	-0.012160062
147	0x3b728294	0.00370041
148	0xbbc3a1f3	-0.0059702336
149	0xbbe0f442	-0.0068650553
150	0xbc27989b	-0.010229255
151	0x3a5d828c	0.0008449934
152	0xbd8747d5	-0.06605498
153	0x3dbf7d1f	0.09350037
154	0x3d8e68f1	0.0695361
155	0xbcd78216	-0.026307147
156	0x3d8f53fb	0.0699844
157	0x3b82be08	0.0039899386
158	0x3c5e192b	0.013555805
159	0xbc849fee	-0.016189542
160	0x3bc6adc9	0.0060631973
161	0x3c4cb6b2	0.01249473
162	0xbcb7faef	-0.022458522
163	0xbd160ba9	-0.036632214
164	0xbad7d42f	-0.0016466434
165	0xbd81f2e9	-0.063451596
166	0xbcea3858	-0.02859132
167	0xbbe637b7	-0.0070256847
168	0xbd66398b	-0.05620722
169	0xbb8c6ea7	-0.0042856517
170	0xbdaf9aa1	-0.08574415
171	0xbdc615d4	-0.09672132
172	0x3db928e6	0.09041004
173	0x3db88fad	0.09011779
174	0xbdbf97a1	-0.09355093
175	0xbc57e312	-0.013176696
176	0xbd8207a8	-0.063491166
177	0xb95ac4a8	-0.0002086336
178	0x3d858b97	0.06520765
179	0x3dbab6da	0.091169074
180	0xbd4b5aae	-0.049647026
181	0xbdad4d35	-0.08461992
182	0x3d7b8dc0	0.06141448
183	0x3cad1d5d	0.021132166
184	0xb9f0fc2c	-0.0004596425
185	0xbd63423e	-0.055483095
186	0x3d2a4848	0.04157284
187	0xbd8a0b3b	-0.06740423
188	0x3d205575	0.039144
189	0x3a6b77ab	0.00089823705
190	0xbc7cc7d8	-0.015428506
191	0x3dae2e5e	0.085049376
192	0xbd2041ea	-0.03912536
193	0x3d8f303f	0.06991624
194	0xbd058fd6	-0.032607876
195	0xbcad2df7	-0.021140082
196	0xbd4ca5d4	-0.049962834
197	0xbc3e4b41	-0.011614622
198	0x37e82fb0	2.7678761e-05
199	0x3d5be41d	0.053684343
200	0x3c09616a	0.008385042
201	0x3db76cf0	0.08956325
202	0xbcaa4f88	-0.020789877
203	0xbd0f85a6	-0.035039566
204	0x3b2842d4	0.0025674598
205	0x3d961a88	0.07329279
206	0x3dc02ad6	0.0938317
207	0xbd845b0e	-0.0646268
208	0x3d9dc4f2	0.0770358
209	0xb8e068ec	-0.000107006956
210	0xbd8b8de0	-0.0681417
211	0xbc981652	-0.01856533
212	0xbd8c7dca	-0.0685993
213	0x3d071cd8	0.032986492
214	0x3b0f3db7	0.0021856853
215	0x3af91929	0.0019004691
216	0xbd827f3f	-0.063719265
217	0xbd9df3ce	-0.07712518
218	0x3c5c6d4b	0.013453792
219	0xbd88a2b0	-0.06671655
220	0xbc104151	-0.008804635
221	0x3ad565f7	0.0016280998
222	0xb9301362	-0.00016791889
223	0x3a29edff	0.00064823026
224	0x3b2b306a	0.0026121386
225	0xbd148fb3	-0.036269855
226	0x3dbc88aa	0.09205754
227	0xbbf20174	-0.007385427
228	0xbdafde90	-0.08587372
229	0x3c947632	0.018122766
230	0xbc5aac0b	-0.013346682
231	0x3bc864e4	0.0061155427
232	0x3d88d793	0.066817425
233	0x3bc1a85c	0.0059099626
234	0xbaf54d4e	-0.0018715055
235	0xbaab4fc1	-0.0013070033
236	0x3d9ada50	0.07561171
237	0x3b18aee6	0.0023297607
238	0x3db93698	0.09043616
239	0xbae2051a	-0.0017243952
240	0xbd4d2683	-0.050085556
241	0xbd146196	-0.036225878
242	0x3c917bce	0.01775923
243	0xbda28a69	-0.07936556
244	0xbd31ad2f	-0.04337805
245	0xbd88c271	-0.06677712
246	0x3d9e429d	0.07727549
247	0xbc07b793	-0.008283514
248	0xbdc446ce	-0.095838174
249	0xbd5bdd72	-0.053677984
250	0xbd99b94f	-0.07506048
251	0xbaf0f8e6	-0.0018384724
252	0x3d9f52dc	0.07779476
253	0x3d5fc545	0.05463149
254	0xbd28289c	-0.041054353
255	0xbdb18a4f	-0.086689584

encoder.gru.bias_ih_l0 f4 [192]
0	0x3d238fa3	0.039931905
1	0x3d182635	0.037145812
2	0x3d47d40d	0.04878621
3	0x3d9cd700	0.076581955
4	0xbd9c6c97	-0.07637899
5	0xbc3aafa0	-0.011394411
6	0xbdc1ddd3	-0.09466138
7	0x3db43d7b	0.08800789
8	0x3c331555	0.010930379
9	0x3c590c22	0.013247522
10	0x3d12d32d	0.035845924
11	0xbd14cb1a	-0.036326505
12	0xbdadb106	-0.0848103
13	0x3b811138	0.00393882
14	0x3cf61739	0.03004037
15	0xbd908e78	-0.07058424
16	0x3ca08f4e	0.019599583
17	0x3c537118	0.012905382
18	0xbdbb700f	-0.09152233
19	0x3d232685	0.039831657
20	0x3c8a9e6e	0.016921248
21	0xbc537a82	-0.012907626
22	0x3d947c4f	0.072502725
23	0x3bca6b83	0.006177367
24	0x3d1c2fbe	0.038131468
25	0xbdc3b859	-0.09556646
26	0xbd18a14b	-0.037263196
27	0x3d0b7d79	0.034055207
28	0xbd8b080e	-0.06788646
29	0xbd814251	-0.06311477
30	0xbda1a8f0	-0.078935504
31	0x3d26d5d2	0.04073126
32	0x3d5249c3	0.051339876
33	0x3d872951	0.06599677
34	0xbc76c503	-0.01506162
35	0x3d85b8a8	0.06529361
36	0x3c9cfd89	0.019163864
37	0x3cc83e94	0.024443902
38	0xbd5e9006	-0.05433657
39	0x3d880a9f	0.06642651
40	0xbd2198ab	-0.039452236
41	0x3bf1d386	0.007379952
42	0x3dbff343	0.0937257
43	0x3d7afccf	0.061276253
44	0xbd9dbabc	-0.077016324
45	0xbdc1e148	-0.09466797
46	0x3d5ecf07	0.054396655
47	0x3c2bc94c	0.010485005
48	0xbc42a840	-0.011880934
49	0xbb4a2d54	-0.0030849772
50	0x3d4a4fe2	0.04939259
51	0x3d8c381b	0.06846639
52	0xbdc0a9d9	-0.09407396
53	0xbce47734	-0.027888872
54	0x3be32f59	0.0069331345
55	0x3ba15c6b	0.004924347
56	0xbd1bd898	-0.038048357
57	0x3c8c3a4a	0.017117638
58	0x3d8404ed	0.06446252
59	0x3d9a3193	0.07528987
60	0xbd81884f	-0.06324827
61	0x3db4bd26	0.0882514
62	0x3ce929a3	0.028462237
63	0x3d9395b8	0.07206291
64	0xbd30e06b	-0.04318277
65	0xbd49b706	-0.04924681
66	0xbbde3e3c	-0.0067823213
67	0x3d8551f3	0.06509771
68	0xbcb3b258	-0.021935627
69	0xbd3f0685	-0.046637077
70	0x3dbe904f	0.093048684
71	0x3d61045a	0.05493579
72	0x3a925f4e	0.0011167319
73	0x3be0a679	0.0068557826
74	0x3a74f38d	0.0009344153
75	0xbd3ff46e	-0.046863966
76	0x3b980704	0.004639508
77	0xbd6621e9	-0.056184683
78	0x3beed019	0.007287991
79	0x3cb6b4ad	0.02230295
80	0x3aa9c8ae	0.0012953484
81	0xbcd0b6b5	-0.025477747
82	0x3d6e452e	0.058171444
83	0x3b92d522	0.004480974
84	0x3d9670d4	0.07345739
85	0xbcbb56d7	-0.022868557
86	0xbda69bd4	-0.081351906
87	0x3bd4cd13	0.0064941733
88	0x3d91c8bf	0.071183674
89	0x3d4f9dee	0.050687723
90	0x3dc212d5	0.09476248
91	0x3b77afdb	0.0037794027
92	0xbc923e87	-0.017852081
93	0xbbd06b55	-0.006360451
94	0xbc89bc0c	-0.0168133
95	0x3d084668	0.03327027
96	0x3bb3860d	0.0054786266
97	0xba615597	-0.0008595823
98	0x3cbb2002	0.022842411
99	0xbd704466	-0.05865898
100	0xbd9fe27c	-0.0780687
101	0xbd1b434f	-0.037905987
102	0xbdb3a1ec	-0.087711185
103	0x3d7424c2	0.059605367
104	0x3d8b34ed	0.06797204
105	0x3da639d8	0.081165016
106	0x3cc7f440	0.02440846
107	0x3cf288b4	0.0296062
108	0xbb7d1f41	-0.0038623365
109	0xbdb2339f	-0.08701252
110	0xbd99ae65	-0.07503966
111	0xbc1267cd	-0.008935881
112	0xba71feb4	-0.0009231374
113	0x3dae249e	0.08503078
114	0x3d379883	0.04482318
115	0x3d993b64	0.07482031
116	0x3dbfa10a	0.09356888
117	0x3da1ba17	0.07896822
118	0xbcb1125b	-0.021615198
119	0xbd2886bb	-0.041144114
120	0x3caf3268	0.02138634
121	0xbcaf65c6	-0.021410834
122	0xbd5d8669	-0.05408326
123	0xbda8f9c7	-0.08250766
124	0xbd22855b	-0.03967796
125	0xbda88341	-0.0822816
126	0x3b1d183e	0.0023970748
127	0x3b25a792	0.0025276882
128	0x3d3e71fd	0.046495426
129	0xbdef4631	-0.1168331
130	0x3d10af98	0.03532371
131	0x3ceba23c	0.028763883
132	0xbdb3a209	-0.0877114
133	0xbc583034	-0.013195086
134	0x3deb1e22	0.11480357
135	0xbc98a340	-0.018632531
136	0xbcee9a3d	-0.02912628
137	0x3d6bf17a	0.057603337
138	0x3d80ce7c	0.06289384
139	0xbd9f261f	-0.07770943
140	0x3e0a5267	0.13507996
141	0x3d7a1b67	0.06106129
142	0x3d4fc05b	0.050720554
143	0xbc2d9ebe	-0.010596929
144	0xbdb846f1	-0.08997906
145	0x3da4e385	0.080512084
146	0x3d7548a4	0.05988373
147	0x3cf3810e	0.029724624
148	0x3d302d61	0.043012027
149	0xbdd0638a	-0.101752356
150	0x3d4eb7bd	0.050468195
151	0xbd6a0d22	-0.05714143
152	0xbdd32197	-0.10309141
153	0xbd766a3a	-0.0601599
154	0x3d10edf2	0.035383172
155	0xbb4e426c	-0.0031472696
156	0xbd8870c3	-0.066621326
157	0xbd2caa83	-0.0421548
158	0xbd9d639c	-0.076850146
159	0x3d9b9e76	0.075985834
160	0x3d51e075	0.05123945
161	0xbd560f35	-0.052260596
162	0x3dcddd92	0.10052027
163	0xbd452446	-0.048130296
164	0xbd3307a1	-0.043708447
165	0x3df000bd	0.11718891
166	0x3d87f7a0	0.066390276
167	0xbd72cb60	-0.059275985
168	0x3daf30c3	0.085542224
169	0x3c951435	0.018198112
170	0xbb8aed93	-0.004239747
171	0xbd859d6b	-0.06524166
172	0x3cc1363e	0.023585435
173	0x3da33f25	0.07971028
174	0xbdcacf16	-0.0990278
175	0xbdc5e202	-0.09662248
176	0xbbf1703a	-0.007368115
177	0x3d36c3d8	0.044620365
178	0xbd9ed697	-0.077557735
179	0xbd213c24	-0.039363995
180	0x3d2709da	0.04078088
181	0x3d9e91be	0.07742642
182	0x3d3527b2	0.04422731
183	0xbdd22bf4	-0.1026229
184	0xbd45de7b	-0.048307877
185	0xbd92afd3	-0.07162442
186	0x3decea14	0.11568084
187	0x3db4e2ba	0.08832307
188	0x3c7b6d50	0.015345886
189	0x3c67ed37	0.0141556775
190	0xbd97a236	-0.07403986
191	0x3cde09c5	0.027104268

encoder.gru.bias_hh_l0 f4 [192]
0	0x3d5e088d	0.054207373
1	0xbdc2327f	-0.094822876
2	0xbd687244	-0.056749597
3	0xbd6d237b	-0.057895165
4	0x3cc62569	0.02418776
5	0x3d5ef0e3	0.054428946
6	0x3d88af29	0.06674034
7	0xbdbd99be	-0.092578396
8	0x3c24b960	0.0100539625
9	0xbdba50fa	-0.09097476
10	0xbda8bdd3	-0.08239331
11	0x3b6c9466	0.0036099195
12	0xbcb8d6d0	-0.022563368
13	0x3d0b5c6b	0.034023684
14	0x3be27e16	0.0069120033
15	0x3ba1bebd	0.004936068
16	0xbb4dc09c	-0.0031395322
17	0x3d7752a3	0.060381543
18	0xbd44c518	-0.048039526
19	0x3da1ef48	0.079069674
20	0x3d0cb448	0.034351617
21	0xbc078275	-0.0082708495
22	0x3ca1d699	0.019755648
23	0xbd8ef9ba	-0.06981225
24	0x3ca05ab9	0.01957451
25	0xb7051bc0	-7.933879e-06
26	0xbd4f01ec	-0.050538942
27	0xbd851070	-0.06497276
28	0xbb5a8943	-0.0033345975
29	0x3c200bf7	0.009768478
30	0x3d0eb5bf	0.034841295
31	0x3da85657	0.08219593
32	0x3d9a817c	0.075442284
33	0xbc6b739c	-0.014370825
34	0xbc7dec58	-0.015498243
35	0x3b0a1a05	0.0021072638
36	0x3cba3db9	0.02273451
37	0x3cdc3245	0.02687944
38	0xbd8e998c	-0.069628805
39	0xbd280316	-0.041018568
40	0xbced5c32	-0.028974626
41	0xbd34b4b9	-0.044117663
42	0xbc0ae186	-0.008476621
43	0xbd13ee0f	-0.036115702
44	0xbd7d3969	-0.06182233
45	0x3cd6a4e1	0.026201667
46	0x3cca9066	0.024727058
47	0xbdbd481b	-0.09242269
48	0x3d0751d1	0.03303701
49	0xbc6df684	-0.014524106
50	0x3a847e08	0.0010108361
51	0xbd8c3ea0	-0.06847882
52	0xbc9b166f	-0.018931596
53	0x3c47eb1a	0.012202049
54	0x3d158898	0.03650722
55	0xbdc22fce	-0.09481774
56	0x3db29948	0.08720642
57	0xbc4d4b96	-0.012530228
58	0x3cff7f66	0.031188678
59	0x3c624147	0.013809509
60	0xbd0ade05	-0.03390314
61	0xbd3d3ee6	-0.046202563
62	0xbbd462e8	-0.006481517
63	0x3c0f5ac7	0.00874967
64	0x3db45ce8	0.08806783
65	0x3d6a1676	0.057150327
66	0x3cfaa05c	0.030594043
67	0x3b6cdc81	0.0036142173
68	0x3b354bc0	0.0027663559
69	0x3dc28e45	0.09499792
70	0x3dc26f55	0.09493891
71	0x3c906032	0.017623994
72	0x3c83805d	0.01605242
73	0xbdb6d339	-0.08927006
74	0x3a791d9c	0.00095030083
75	0x3afa4c53	0.0019096233
76	0x3cc47e9e	0.023986157
77	0xbdabaf7c	-0.0838308
78	0xbdc3bfb2	-0.09558047
79	0x3bdfd624	0.0068309475
80	0x3d890f8c	0.066924185
81	0xbbe3e943	-0.006955297
82	0x3c70bfe7	0.014694191
83	0x3b4f5a7c	0.0031639626
84	0xbd91e993	-0.07124629
85	0x3b3b2dd2	0.0028561247
86	0x3c871f87	0.016494526
87	0x3dafe3b1	0.085883506
88	0x3d2119a1	0.039331082
89	0x3d551da3	0.052030217
90	0x3afdf1fa	0.0019374483
91	0x3b62dc60	0.0034616217
92	0x3cecaea3	0.028891867
93	0x3bfb1850	0.0076628104
94	0x3db94702	0.09046747
95	0x3b3d6f12	0.0028905314
96	0xbd5310b7	-0.051529612
97	0xbd7b8f1e	-0.061415784
98	0x3da80211	0.08203519
99	0x3d9ec4af	0.07752358
100	0x3dbeaa06	0.09309773
101	0x3acb9dc6	0.0015534691
102	0xba62a8c3	-0.0008646363
103	0xbb8bab68	-0.0042623766
104	0xba2c32b4	-0.00065688347
105	0x3d83ab07	0.06429105
106	0xbdc4e528	-0.096140206
107	0xbbf3a507	-0.0074354443
108	0xbc67be3a	-0.014144475
109	0x3daff0f7	0.08590882
110	0xbc4e0563	-0.0125745265
111	0x3c365cb5	0.0111305015
112	0x3d4bd56e	0.04976409
113	0xb93a7bd3	-0.0001778447
114	0xbdbb35c0	-0.091411114
115	0x3dbdf558	0.09275311
116	0xbdbef77a	-0.09324546
117	0xbd6123da	-0.05496583
118	0x3d8c5adb	0.06853267
119	0x3d9af152	0.075655594
120	0xbc601b53	-0.01367839
121	0x3da36803	0.07978823
122	0x3af66cc8	0.001880073
123	0x3d675423	0.056476723
124	0xbca95bdd	-0.020673687
125	0x3c6e4cf3	0.014544713
126	0xbd5c45a1	-0.05377734
127	0x3d6f81d8	0.058473438
128	0x3d8ac5c0	0.06775999
129	0xbd33059c	-0.04370652
130	0xbdc0e136	-0.094179556
131	0x3d844450	0.06458342
132	0xbd11104f	-0.035415944
133	0x3db63be5	0.08898143
134	0xbc5fce6e	-0.0136600565
135	0xbc9fc6fb	-0.019504061
136	0x3dc2d5b9	0.095134206
137	0xbd050482	-0.032475002
138	0xbd250d75	-0.040296037
139	0x3cdd7d16	0.027037185
140	0x3d84f484	0.0649195
141	0xbd64fab6	-0.05590316
142	0x3cfc8bdc	0.030828409
143	0xbd03ce82	-0.032179363
144	0x3dc3d084	0.095612556
145	0x3ae8a848	0.0017750347
146	0xbdb7de4f	-0.08977949
147	0xbb86d181	-0.0041143303
148	0xbc379a25	-0.0112061845
149	0xbd8ab53f	-0.06772851
150	0x3c0f132a	0.008732596
151	0x3b767654	0.003760715
152	0xbe010384	-0.12598997
153	0x3dae65ed	0.085155345
154	0x3da0359d	0.07822726
155	0xbdbb82f0	-0.09155834
156	0x3d7bac7f	0.061443802
157	0xbd18ca5d	-0.037302364
158	0x3d9dfdae	0.07714401
159	0x3de8c3ea	0.11365493
160	0x3d59668a	0.053076304
161	0xbd84fca6	-0.06493501
162	0xbd9c9988	-0.07646471
163	0xbd86caaa	-0.06581624
164	0x3d30f837	0.043205466
165	0x3d9ada93	0.07561221
166	0x3de8d299	0.11368293
167	0xbdbed3ec	-0.09317765
168	0x3db619df	0.08891653
169	0xbb8e6e95	-0.0043466785
170	0x3d81e852	0.0634314
171	0xbc947855	-0.018123785
172	0xbd27a8fb	-0.040932637
173	0xbd9e175c	-0.07719299
174	0xbb3b4619	-0.0028575717
175	0x3d5594ed	0.05214398
176	0x3c147162	0.009060236
177	0xbc6ed62f	-0.014577433
178	0x3dac3bde	0.08409856
179	0xbddd7795	-0.10813824
180	0x3d85ffd2	0.065429345
181	0x3d04f5af	0.032460865
182	0xbd64bd1f	-0.055844422
183	0xbd547342	-0.05186773
184	0xbc55ed94	-0.013057131
185	0xbd9f4db0	-0.077784896
186	0xbd7e0537	-0.062016692
187	0xbb897041	-0.00419429
188	0xb956b688	-0.00020476629
189	0x3d928015	0.07153336
190	0x3d77a6b1	0.060461704
191	0x3dc435e2	0.0958059

encoder.project.0.weight f4 [64, 64]
0	0xbd3b90b6	-0.045792304
1	0xbc0f628d	-0.008751524
2	0x3d356840	0.044288874
3	0x3d0328eb	0.032021444
4	0x3d226066	0.039642714
5	0xbd7dd908	-0.061974555
6	0xbdc76ac8	-0.09737164
7	0xbde8c4a7	-0.113656335
8	0x3bffde6b	0.0078084967
9	0x3dac8573	0.08423891
10	0xbdc7f099	-0.09762687
11	0xbdc59a83	-0.096486114
12	0xbb87b55a	-0.004141492
13	0x3d961abb	0.07329317
14	0x3c279f79	0.010230892
15	0xbd6e47bc	-0.05817388
16	0x3d9c2010	0.07623303
17	0x3d845902	0.064622894
18	0x3b254cf8	0.002522288
19	0xbb225458	-0.002476951
20	0xbd9e2acd	-0.07723007
21	0x3c906bf0	0.017629594
22	0xbda31f9a	-0.07965012
23	0xbd70c4a2	-0.058781274
24	0x3d91f8dc	0.07127544
25	0x3cbe05b9	0.023196088
26	0xbdd52db4	-0.10409108
27	0x3da39545	0.07987455
28	0x3d9989e8	0.07497007
29	0x3d898ae0	0.067159414
30	0x3cfeb186	0.03109051
31	0xbcccafe2	-0.024986211
32	0xbd9228e1	-0.07136703
33	0xbd90bb78	-0.07067007
34	0x3d888395	0.06665722
35	0x3dbe3a0b	0.092884146
36	0xbdcd1b30	-0.10014951
37	0xbd2ea8d4	-0.042641476
38	0x3d220167	0.03955212
39	0x3c0dde28	0.008658923
40	0xbd81626d	-0.06317601
41	0x3dcdc2e3	0.10046937
42	0x3d1ba0fb	0.03799532
43	0x3da29063	0.07937696
44	0x3d22e32e	0.039767437
45	0x3d95bc43	0.07311299
46	0xbd908840	-0.070572376
47	0x3d271030	0.040786922
48	0xbc34bdc1	-0.011031569
49	0xbd93a031	-0.072082885
50	0xbcc5d3b3	-0.024148798
51	0x3d147887	0.036247756
52	0xbd060853	-0.032722782
53	0x3ddd8f3a	0.10818334
54	0xbd8664a1	-0.06562162
55	0xbd57a565	-0.052647967
56	0x3d69f2ad	0.0571162
57	0x3dc213af	0.094764106
58	0xbdafff69	-0.085936375
59	0xbc517b4a	-0.012785742
60	0x3c31b039	0.010845237
61	0xbe001bf7	-0.12510668
62	0xbdb715a6	-0.08939676
63	0xbdb4ed91	-0.08834375
64	0xbd81d657	-0.0633971
65	0x3d8cd30f	0.06876194
66	0xbd7728a5	-0.060341496
67	0xbd561226	-0.0522634
68	0xbd4abed0	-0.04949838
69	0xbd34c0cb	-0.044129174
70	0x3dd8f883	0.10594275
71	0x3d0ed441	0.03487039
72	0x3dca6134	0.09881821
73	0x3d017268	0.031603247
74	0x3d3931fa	0.045213677
75	0xbc1f079a	-0.009706402
76	0xbd040858	-0.03223452
77	0xbd5aca5f	-0.053415652
78	0x3dcc97e6	0.0998991
79	0x3d04d0ea	0.0324258
80	0xbdd3cb78	-0.10341543
81	0xbcc1c17e	-0.023651835
82	0x3db18ec5	0.08669809
83	0x3dedf428	0.11618835
84	0x3c3534e5	0.011059974
85	0x3c2c9da8	0.010535635
86	0x3dad6131	0.084658034
87	0xbce03917	-0.027370973
88	0x3d2126a1	0.03934348
89	0x3dc2fb85	0.0952063
90	0x3bb3d704	0.0054882783
91	0xbda85a6b	-0.08220371
92	0x3dd984b4	0.10621014
93	0xbc2bbb71	-0.010481701
94	0xbd1019e8	-0.035180956
95	0x3c524368	0.012833454
96	0x3dc97033	0.098358534
97	0x3da75b6d	0.08171735
98	0xbc96739c	-0.018365674
99	0xbd3cf84b	-0.046135228
100	0x3dc66bb5	0.09688512
101	0x3dd53d6f	0.10412108
102	0x3d9763df	0.07392096
103	0xbd901cf1	-0.0703677
104	0x3da0ea68	0.078572094
105	0xbd94a02a	-0.07257111
106	0xbd52b0cf	-0.05143815
107	0x3d0dc603	0.034612667
108	0xbda4198c	-0.08012685
109	0xbcf0349d	-0.029321963
110	0xbcfca567	-0.030840589
111	0xbd3e37ef	-0.04644006
112	0x3bff1d7c	0.0077854972
113	0x3dbcbdc2	0.09215881
114	0xbcd6c4c6	-0.026216876
115	0xbdb01714	-0.08598152
116	0xbda7e601	-0.08198167
117	0xbbeab35a	-0.0071624937
118	0x3d9ab0b3	0.07553234
119	0xbd7939de	-0.060846202
120	0x3d88bb3a	0.06676336
121	0x3ca14dc6	0.019690406
122	0xbc5917b7	-0.013250283
123	0xbdcd8160	-0.10034442
124	0x3d420a90	0.047373354
125	0xbdab9be9	-0.08379347
126	0xbc85230d	-0.016252065
127	0xbd3fefbe	-0.046859495
128	0xbddc58e0	-0.10759139
129	0xbca951c6	-0.020668875
130	0xbcc02fc0	-0.023460269
131	0x3dafcefe	0.085844025
132	0xbdaaf2ce	-0.083470926
133	0x3e07b5f5	0.13253005
134	0x3dfa53e5	0.12223033
135	0xbbc93c4f	-0.0061412225
136	0x3d3f3f5e	0.04669129
137	0xbdfeb796	-0.1243736
138	0xbd0d0e95	-0.034437735
139	0xbd310a7c	-0.04322289
140	0x3df25604	0.118328124
141	0x3c2a2d59	0.010386788
142	0x3ca212c0	0.019784331
143	0xbdb22946	-0.086992785
144	0xba9ab196	-0.0011802192
145	0xbcdc3991	-0.026882919
146	0xbda8da29	-0.08244736
147	0x3d4a788b	0.049431365
148	0x3b2afb8f	0.0026089882
149	0xbdf843ff	-0.12122344
150	0x3d0be60b	0.034154933
151	0xbafd1723	-0.0019309263
152	0xbe082412	-0.1329501
153	0xbdc2f358	-0.095190704
154	0x3cd32af1	0.025777312
155	0xbdceb642	-0.10093357
156	0x3daf3b4e	0.08556233
157	0xbda825f4	-0.08210364
158	0xbdb7fe2c	-0.08984026
159	0x3d6ba7a5	0.057532925
160	0x3e0f47af	0.13992189
161	0xbaa66a4a	-0.0012696472
162	0x3c8801d0	0.016602427
163	0xbdc273aa	-0.094947174
164	0xbdd64e71	-0.1046418
165	0x3d93cdb8	0.07216972
166	0xbc0ce6ef	-0.008599981
167	0xbdf0605f	-0.11737131
168	0xbce0c4e7	-0.02743764
169	0xbcaf5452	-0.021402512
170	0x3db90cf4	0.09035674
171	0x3d819225	0.06326703
172	0x3e04d12d	0.12970419
173	0xbdaeb12e	-0.08529888
174	0xbd3ab07f	-0.045578476
175	0x3da7a3dc	0.081855506
176	0x3e027701	0.12740709
177	0x3ddfa9df	0.10921072
178	0xbdd4cda8	-0.10390788
179	0x3d1755bd	0.036947
180	0x3ca30292	0.019898687
181	0xbe039529	-0.12849869
182	0xbc3d7207	-0.011562831
183	0xbd1f4db9	-0.03889248
184	0x3c85f2b4	0.016351081
185	0xbcd24987	-0.025669826
186	0x3cc4ea57	0.024037523
187	0xbc9a7925	-0.018856594
188	0x3d9f2203	0.07770159
189	0x3d8bffbc	0.06835887
190	0x3c7be306	0.015373951
191	0x3d28d7f4	0.041221574
192	0xbde359d8	-0.11101121
193	0xbdae5c1d	-0.08513663
194	0xbcfb1c7e	-0.030653235
195	0xbd78a6b1	-0.060705844
196	0xbb595a90	-0.0033165552
197	0x3c80ec01	0.015737535
198	0xbd17d38b	-0.037066977
199	0x3db2e95a	0.087359145
200	0x3c4eb0b2	0.01261537
201	0xbda7e89a	-0.08198662
202	0x3b73f427	0.0037224384
203	0x3d2d0f9f	0.042251226
204	0x3daa2d3b	0.08309408
205	0xbd7fe7a9	-0.062476788
206	0x3dd0253e	0.101633534
207	0x3d1293d2	0.035785504
208	0x3dba06a7	0.090833
209	0x3d7638b7	0.06011268
210	0xbc758e4a	-0.014987538
211	0xbd99a469	-0.07502062
212	0xbd88813c	-0.066652745
213	0x3cbf5c6e	0.023359504
214	0xbda463df	-0.080268614
215	0x3d9bfbd6	0.07616393
216	0x3d9dd69d	0.0770695
217	0x3d0a5858	0.033775657
218	0x3c2b98fd	0.010473487
219	0xbdaf92db	-0.08572932
220	0x3d36e4c9	0.04465178
221	0x3ca5365c	0.020167522
222	0xbd234178	-0.039857358
223	0x3d29148e	0.041279368
224	0xbd0fa446	-0.035068773
225	0xbdd1beb1	-0.102414496
226	0x3d6c10ee	0.057633333
227	0x3d032d3b	0.032025557
228	0xbd57ee2d	-0.052717377
229	0xbd2a337b	-0.041553
230	0xbd80c926	-0.06288366
231	0x3dca49f6	0.09877388
232	0xbb23a509	-0.0024970195
233	0x3b98ac2d	0.004659197
234	0x3d9174d6	0.07102363
235	0xbd00d5f5	-0.031454045
236	0xbdd27aec	-0.10277352
237	0x3d5f0cb6	0.05445548
238	0xbd3a9d54	-0.045560196
239	0xbd3bbbd1	-0.045833413
240	0x3d319e78	0.04336402
241	0x3d487215	0.048936922
242	0x3baf238c	0.0053448137
243	0x3da85379	0.08219046
244	0xbda8aaac	-0.08235678
245	0xbd090596	-0.033452593
246	0x3d1421ad	0.03616493
247	0x3d3e2152	0.046418495
248	0xbdafc32e	-0.085821494
249	0x3cfe4d79	0.031042801
250	0xbd5f14ed	-0.054463316
251	0xbdcf7a6a	-0.101307705
252	0xbcbbeade	-0.022939142
253	0xbdbb5fd9	-0.09149141
254	0x3dc507e3	0.09620645
255	0x3dd20036	0.102539465

encoder.project.0.bias f4 [64]
0	0xbdac78ed	-0.08421502
1	0xbd7700ac	-0.060303375
2	0x3dcdb4e8	0.10044271
3	0x3bbcb51c	0.0057588946
4	0xbbf654b0	-0.0075174198
5	0x3cf6cb96	0.030126374
6	0x3df58191	0.119876035
7	0xbd9caeeb	-0.076505505
8	0xbdd85520	-0.10563111
9	0xbd8281f9	-0.063724466
10	0xbd128511	-0.035771433
11	0x3d9d38cc	0.07676849
12	0x3df8a143	0.12140133
13	0xbd8d0c60	-0.06887126
14	0xbda52726	-0.080641076
15	0x3d72be65	0.059263606
16	0x3c95fc84	0.018308885
17	0xbb9fb7a4	-0.0048741866
18	0x3df443c1	0.119269855
19	0x3d90d00c	0.07070932
20	0xbc964294	-0.018342294
21	0xbdb5ccf3	-0.088769816
22	0xbd90b36f	-0.07065474
23	0xbde05b8d	-0.10954962
24	0xbca60c0a	-0.020269413
25	0x3de7710b	0.11300858
26	0xbdb74d2f	-0.089502685
27	0xbda0827b	-0.07837387
28	0xbdbe709f	-0.092988245
29	0x3e00d18f	0.1257994
30	0xbccbf59f	-0.024897395
31	0x3c85fec8	0.01635684
32	0xbd3b401e	-0.045715444
33	0xbd848daf	-0.064723365
34	0x3db613df	0.08890509
35	0x3dbade5c	0.09124443
36	0x3a53979b	0.0008071602
37	0x3cb65faf	0.022262422
38	0x3d7918cc	0.060814664
39	0xbceaf31f	-0.028680382
40	0x3d6e1e51	0.05813438
41	0xbcece8d2	-0.028919611
42	0x3dee9e23	0.11651256
43	0x3dbba34b	0.09162005
44	0xbc2ecf10	-0.010669485
45	0x3df39528	0.11893684
46	0xbd237907	-0.039910343
47	0xbdd867a7	-0.10566645
48	0x3e09b2f1	0.13447167
49	0x3d3862c6	0.045016073
50	0x3dde1f2a	0.10845788
51	0x3d9ac85e	0.07557748
52	0xbd874852	-0.06605591
53	0x3c9a3b07	0.018826975
54	0xbd6a8d43	-0.057263624
55	0xbc2516a9	-0.010076203
56	0xbdb17f47	-0.08666854
57	0xbd8801ac	-0.06640944
58	0xbcd08dcf	-0.025458245
59	0xbdcd4274	-0.100224406
60	0xbdd794dc	-0.105264395
61	0xbc6f9803	-0.014623645
62	0xbd9ab922	-0.075548425
63	0x3d0f5d5f	0.035001155

encoder.project.2.weight f4 [16, 64]
0	0xbc6d89a8	-0.014498152
1	0xbd966014	-0.07342544
2	0x3da6daf7	0.08147233
3	0xbc8eaa76	-0.017415266
4	0x3d8d4cde	0.06899427
5	0x3d75b656	0.059988342
6	0x3de9e5bb	0.11420771
7	0x3c48bfca	0.012252757
8	0x3ce19412	0.027536426
9	0x3c9eda9a	0.019391347
10	0xbcbd0c2d	-0.023077095
11	0x3c9465bf	0.018114923
12	0xbda08c9a	-0.078393176
13	0x3dd5d3d1	0.104407914
14	0xbc46a43c	-0.012124117
15	0xbcbe9901	-0.023266317
16	0xbde93577	-0.11387151
17	0x3d820116	0.063478634
18	0x3d5690d8	0.052384228
19	0xbd6bd63d	-0.05757736
20	0xbd80e304	-0.062933
21	0xbabe30a8	-0.001451035
22	0x3d2a0025	0.041504044
23	0xbd435e4b	-0.047697347
24	0x3a84de9a	0.0010137141
25	0xbdc85731	-0.097822554
26	0x3c1d1bb0	0.009589121
27	0xbc9eb3ab	-0.019372782
28	0x3df0b3f5	0.11753074
29	0xbdcd64dd	-0.10029004
30	0x3dc26249	0.09491403
31	0xbdcd6666	-0.100292966
32	0x3daa6b1b	0.0832121
33	0xbad7a478	-0.0016452214
34	0x3d9cad05	0.07650188
35	0x3d8f3bce	0.06993829
36	0x3d999632	0.074993506
37	0x3d7baa9a	0.061441995
38	0x3ca82af9	0.020528303
39	0x3c7db211	0.015484349
40	0xbd5f82f9	-0.054568265
41	0xbaebb9ba	-0.0017984428
42	0x3d90b18d	0.07065115
43	0x3e0ab732	0.13546446
44	0xbd379976	-0.044824086
45	0xbe0b4900	-0.13602066
46	0x3d273d9e	0.040830247
47	0x3de96754	0.113966614
48	0xbdc7c538	-0.09754413
49	0xbdca9777	-0.09892171
50	0xbd83f1e3	-0.064426206
51	0xbdaa8626	-0.08326368
52	0xbd14b466	-0.036304854
53	0xbd2d80fb	-0.042359333
54	0x3df84dce	0.12124215
55	0x3c478bd9	0.012179338
56	0x3da8b6c4	0.08237985
57	0x3dee31e2	0.11630608
58	0xbcee74da	-0.029108454
59	0xbc0e66f8	-0.008691542
60	0x3c70f932	0.01470785
61	0xbdc50a38	-0.0962109
62	0xbded786b	-0.115952335
63	0xbd41362d	-0.047170807
64	0xbcb1247d	-0.021623844
65	0xbdcd7dcf	-0.10033762
66	0xbdef18e1	-0.11674667
67	0xbd40e147	-0.04708984
68	0xbda003f4	-0.07813254
69	0x3d8d9e1c	0.069149226
70	0xbd4b2f0d	-0.049605418
71	0x3db67a7c	0.08910081
72	0x3dc2f8cb	0.0952011
73	0xbb9983f7	-0.004684921
74	0x3d76d311	0.060259882
75	0x3d39cdcd	0.045362283
76	0x3ca6f8a4	0.020382233
77	0xbddac293	-0.10681643
78	0xbb730bc0	-0.003708586
79	0x3c6ebb51	0.014571027
80	0x3c34febe	0.011047063
81	0xbcc89abd	-0.024487847
82	0xbc9b113e	-0.01892912
83	0x3cb554af	0.022135107
84	0xbb5a726c	-0.003333236
85	0xbd298b33	-0.041392516
86	0x3dba1ad1	0.09087146
87	0x3d067add	0.032832015
88	0xbd590384	-0.05298187
89	0xbd9a12ed	-0.07523141
90	0x3c8be8b5	0.017078737
91	0xb968b72c	-0.00022193481
92	0x3bd1f895	0.006407807
93	0x3d60346b	0.05473749
94	0xbd89316d	-0.0669888
95	0x3dceeeeb	0.10104164
96	0x3c731e16	0.014838716
97	0x3de81fae	0.113341674
98	0x3e0676b0	0.13131213
99	0xbe0a2453	-0.13490419
100	0x3d6f0b9b	0.058360677
101	0xbdf14f49	-0.117827006
102	0x3d2f3f7e	0.04278516
103	0xbc8847af	-0.016635744
104	0xbe023982	-0.1271725
105	0x3d957fb7	0.0729975
106	0x3d34c811	0.04413611
107	0xbd8a27d2	-0.06745876
108	0x3c41d907	0.0118315285
109	0xbbabfbbd	-0.0052485154
110	0xbd098b4e	-0.033580117
111	0xbdb2d37b	-0.08731743
112	0xbdadc538	-0.08484882
113	0x3de15941	0.11003352
114	0x3dad4529	0.08460457
115	0x3d918f69	0.071074314
116	0x3d93eea2	0.0722325
117	0x3d8e6928	0.06953651
118	0xbbbe4ccb	-0.0058074943
119	0x3dbfb3ee	0.09360491
120	0xbcf3d12d	-0.029762829
121	0xbdbb6986	-0.091509864
122	0x3c130131	0.008972452
123	0xbdb47ae5	-0.08812503
124	0x3dc63234	0.09677544
125	0xbd67190b	-0.056420367
126	0xbdbd3390	-0.092383504
127	0x3cc27dec	0.023741685
128	0xbd880913	-0.06642356
129	0x3dc2129b	0.09476205
130	0xbd8c7e3d	-0.068600155
131	0x3dabab36	0.08382265
132	0x3cc0e25a	0.023545433
133	0xbcb394d1	-0.021921547
134	0xbd296709	-0.041358028
135	0x3dc79450	0.09745085
136	0xbd126961	-0.03574503
137	0xbb50385b	-0.0031771872
138	0x3d955b20	0.07292771
139	0x3e04debf	0.12975596
140	0x3ce76027	0.028244091
141	0x3d8a5590	0.06754601
142	0x3d2a5cb7	0.041592326
143	0xbc323771	-0.010877476
144	0xbd74533b	-0.059649687
145	0x3d3510ed	0.044205595
146	0x3dec93e8	0.115516484
147	0x3c901124	0.017586298
148	0x3ddeca9d	0.10878489
149	0xbdc4f02a	-0.0961612
150	0x3d8536ea	0.06504615
151	0xbc822ffa	-0.015892018
152	0xbd82cd35	-0.063867964
153	0x3d460a7a	0.048349835
154	0x3dc624c5	0.09674982
155	0x3d0e8fd9	0.034805153
156	0xbdd53b70	-0.104117274
157	0xbd11f554	-0.035634354
158	0x3dbd1573	0.09232607
159	0x3ce66726	0.028125357
160	0x3ddb63d0	0.10712397
161	0x3cb31cdf	0.021864353
162	0x3cd4cda0	0.025976956
163	0x3dc96b1d	0.09834883
164	0xbd6e0ee7	-0.05811968
165	0x3d24ae33	0.04020519
166	0x3dd3da04	0.103443176
167	0xbdc6ebf0	-0.0971297
168	0xbdc892d7	-0.097936325
169	0x3df6bf33	0.12048187
170	0x3ddce5da	0.10786028
171	0xbd9fa515	-0.07795159
172	0x3c840388	0.016114965
173	0x3de5c37f	0.112189285
174	0xbdceed88	-0.10103899
175	0x3d4599c8	0.04824236
176	0xbbb4eb1b	-0.005521191
177	0x3c30fe55	0.010802825
178	0x3d972f6e	0.07382093
179	0x3d582329	0.052767906
180	0x3e03c5d1	0.1286843
181	0x3d17c661	0.037054423
182	0xbd6baefb	-0.05753992
183	0x3ce0d339	0.027444469
184	0xbcf5af5e	-0.029990848
185	0xbcb6b445	-0.022302756
186	0x3ce99782	0.028514627
187	0xbc4f324d	-0.01264627
188	0x3ddda266	0.10821991
189	0x3c9a3d34	0.018828012
190	0xbc891dcc	-0.016737841
191	0xbdcab032	-0.09896888
192	0x3d198a71	0.037485544
193	0x3dd86065	0.10565261
194	0xbcebd58a	-0.028788347
195	0xbdb7b510	-0.08970082
196	0xbd17c04e	-0.03704863
197	0xb8d0e7d8	-9.961397e-05
198	0xbe08eb78	-0.13371074
199	0x3d0148bf	0.031563517
200	0x3e0052c7	0.12531577
201	0xbbd663db	-0.0065426654
202	0xbca3ab57	-0.019979162
203	0x3d0011a2	0.031266816
204	0x3e04d11e	0.12970397
205	0x3d9becc6	0.0761352
206	0xbd720ca5	-0.05909409
207	0xbdaf733c	-0.08566901
208	0x3cc21deb	0.023695907
209	0xbb6ea7b8	-0.0036415886
210	0x3e03351d	0.1281323
211	0xbdea81bb	-0.114505254
212	0xbbbfa0da	-0.0058480324
213	0x3c8bbf81	0.01705909
214	0xbd7882bf	-0.060671564
215	0x3d243640	0.0400908
216	0xbc4b3766	-0.012403345
217	0x3dbb55f3	0.09147253
218	0xbd5a441e	-0.053287618
219	0x3aeb334d	0.0017944366
220	0xbc8d41d0	-0.017243296
221	0xbd99df36	-0.07513277
222	0x3cc4320f	0.023949651
223	0x3dbe130f	0.09280979
224	0xbc4b2208	-0.01239825
225	0x3cae7515	0.021296063
226	0x3d15bc7c	0.036556706
227	0xbbeec2c5	-0.007286402
228	0xbcf67f93	-0.030090129
229	0x3d959e2e	0.07305561
230	0x3e06a2a5	0.13147981
231	0x3d13c6e6	0.036078356
232	0x3d92cc11	0.07167829
233	0xbceba318	-0.028764293
234	0x3d851802	0.0649872
235	0x3d33d934	0.043908313
236	0x3dd59b6e	0.104300365
237	0x3d2f4c6d	0.042797495
238	0xbd729805	-0.05922701
239	0x3c90bbf6	0.017667752
240	0xbc1850ab	-0.0092965765
241	0x3c7f4779	0.015581005
242	0xbe00b949	-0.1257068
243	0xbd050acd	-0.032481004
244	0x3dd09882	0.101853386
245	0xbc66272b	-0.014047424
246	0x3aa60d2f	0.0012668724
247	0x3d12432c	0.03570859
248	0xbcfcbc4c	-0.030851506
249	0xbdc9a4be	-0.09845875
250	0x3cf0f390	0.029413015
251	0x3c4de18f	0.012565984
252	0xbdacb20f	-0.084323995
253	0xbe073246	-0.13202772
254	0xbe00a78e	-0.12563917
255	0x3d8a7bcf	0.06761896

encoder.project.2.bias f4 [16]
0	0x3da9da5f	0.08293604
1	0x3dda0a4a	0.10646494
2	0xbaecbf1f	-0.001806233
3	0x3bc7c94c	0.0060969945
4	0xbd5aefd9	-0.053451393
5	0x3ba8ee3d	0.0051553533
6	0x3c7c779e	0.015409378
7	0x3abe01c9	0.0014496382
8	0x3d8f6b25	0.07002858
9	0xbdf21763	-0.11820867
10	0xbcc29c89	-0.023756282
11	0xbe12418f	-0.14282821
12	0xbdee23ee	-0.11627947
13	0xbcdce21d	-0.026963288
14	0x3db90a75	0.09035198
15	0x3d9febf1	0.07808674

decoder.gru.weight_ih_l0 f4 [192, 17]
0	0xbd99de1a	-0.07513066
1	0x3d84fccd	0.064935304
2	0x3d8ab6ec	0.06773171
3	0x3cbebcd9	0.023283409
4	0xbc7a2a67	-0.015268899
5	0x3daa502f	0.08316075
6	0xbd100322	-0.035159238
7	0x3dacbdcc	0.084346384
8	0xbda3213d	-0.07965324
9	0x3d4ecbc8	0.05048731
10	0x3c964724	0.01834447
11	0x3c467c22	0.0121145565
12	0x3be89c96	0.0070987446
13	0xbd956934	-0.072954565
14	0x3dc9fbdf	0.09862494
15	0x3dad668a	0.084668234
16	0xbd88811d	-0.066652514
17	0x3c9220fc	0.017837994
18	0x3c803fc1	0.0156554
19	0x3c914ecc	0.017737769
20	0xbd61d5a6	-0.05513539
21	0x3dcf5197	0.10122984
22	0x3d406360	0.04696977
23	0xbc8518b4	-0.01624713
24	0xbd76ca95	-0.06025179
25	0x3b400194	0.0029297816
26	0xbd15033d	-0.03638004
27	0xbc20e19f	-0.009819417
28	0x3c6f300b	0.014598857
29	0x3cca265b	0.024676492
30	0x3d4e87c5	0.05042245
31	0xbd3e2776	-0.04642435
32	0x3d621bf8	0.055202454
33	0x3dc2c854	0.09510866
34	0xbc2ebc3a	-0.010664994
35	0xbdab0a02	-0.08351518
36	0xbdbbea3c	-0.09175536
37	0x3dc23bbb	0.09484049
38	0x3db282e5	0.087163724
39	0xbd8f5568	-0.06998712
40	0x3d8b5317	0.068029575
41	0x3d9925bc	0.074779004
42	0x3ca8fc5b	0.020628145
43	0x3d7e185b	0.062034946
44	0x3d048792	0.032355852
45	0x3da70d50	0.08156836
46	0x3d93d60a	0.07218559
47	0x3db3e8ad	0.08784614
48	0xbcc55ee4	-0.024093099
49	0x3c9d2d31	0.019186588
50	0xbc177882	-0.00924504
51	0x3b835a59	0.004008573
52	0xbcdbb343	-0.026818877
53	0xbc2310d2	-0.009952741
54	0xbda121aa	-0.07867749
55	0x3b2e3993	0.002658461
56	0xbdb44cd0	-0.08803713
57	0x3c3e6ea8	0.011623062
58	0x3d8081ab	0.06274732
59	0xba98e1b2	-0.0011663942
60	0xbd725c39	-0.05916998
61	0x3d53bc53	0.05169327
62	0xbdaa7242	-0.08322574
63	0x39387d4a	0.00017594281
64	0x3d9d6dc0	0.07686949
65	0xbd3cf562	-0.046132453
66	0xbcadf0ce	-0.021232989
67	0xbdc130af	-0.09433114
68	0xbb2a0cff	-0.0025947688
69	0x3d2beeb5	0.041975696
70	0xbd3d6429	-0.0462381
71	0x3db02fb2	0.08602847
72	0xbdc80eef	-0.09768473
73	0x3d82d57e	0.06388377
74	0xbd4d254f	-0.05008441
75	0xbde245ea	-0.11048491
76	0x3cba6c42	0.0227567
77	0x3d9bf862	0.07615735
78	0x3d4f4ed7	0.050612297
79	0x3ca26e6d	0.019828046
80	0x3aa7a1c9	0.0012789305
81	0x3dbbfded	0.09179292
82	0x3c5053a4	0.012715254
83	0xbdbd73e4	-0.0925062
84	0xbb9775b4	-0.0046221856
85	0x3d938300	0.07202721
86	0x3da1ed82	0.07906629
87	0xbd187c4f	-0.037227925
88	0xbd79c162	-0.06097544
89	0xbdb85032	-0.08999671
90	0xbc123076	-0.008922687
91	0xbd91ea24	-0.07124737
92	0x3cccafba	0.024986137
93	0xbc2944a1	-0.010331304
94	0x3ca7e7da	0.020496298
95	0xbdb86f9a	-0.09005661
96	0xbcf807fe	-0.030277248
97	0x3d9d813b	0.076906644
98	0xbca5c1e0	-0.020234048
99	0xbcaa3fd5	-0.02078239
100	0x3b560207	0.0032655017
101	0xbd6d6dd6	-0.057966076
102	0x3d96c4dc	0.07361767
103	0xbdcf8890	-0.10133469
104	0xbc1ae378	-0.009453647
105	0xbd16eb1b	-0.036845308
106	0x3d12b003	0.03581239
107	0xbd3da6f9	-0.046301816
108	0xbd4b7ef8	-0.049681634
109	0xbb9e0a4f	-0.004823006
110	0x3d6933b3	0.05693407
111	0x3c552377	0.013008944
112	0x3cc3f6e6	0.023921441
113	0x3d655fdc	0.05599962
114	0x3d80a62f	0.06281697
115	0x3dd4a10e	0.10382281
116	0x3cb0c3c2	0.02157772
117	0x3d3f5e3a	0.04672072
118	0x3d15bb05	0.03655531
119	0xbd5dc2cf	-0.054140862
120	0xbca4f1da	-0.020134855
121	0xbdd49eb6	-0.10381834
122	0x3cae7486	0.021295797
123	0xbd21dcc5	-0.039517183
124	0x3da00780	0.078139305
125	0x3c770b5e	0.015078394
126	0xbdc20ba4	-0.094748765
127	0xbd167b51	-0.036738697
128	0x3db024d6	0.08600776
129	0x3b4c8e5a	0.0031212778
130	0xba342a7c	-0.0006872786
131	0xbcebfdd7	-0.028807564
132	0xbdaed53b	-0.08536764
133	0x3c335c41	0.010947288
134	0x3d92d550	0.071695924
135	0x3c5c4dd6	0.013446292
136	0xbdc68869	-0.09693987
137	0x3d288012	0.041137762
138	0xbd9e7458	-0.077370346
139	0xbd278b33	-0.040904235
140	0xbd60ec6f	-0.05491298
141	0x3d419872	0.047264524
142	0xbd6f8ceb	-0.058484
143	0xbdb0385b	-0.08604499
144	0xbd98a100	-0.07452583
145	0x3caa7909	0.020809667
146	0xbd72874d	-0.059211064
147	0x3c389fad	0.011268538
148	0xbc8571fe	-0.016289707
149	0x3dc91eaf	0.098203056
150	0xbc9dcbde	-0.01926225
151	0x3dc189ff	0.09450149
152	0xbb74821c	-0.0037308997
153	0x3da700d8	0.08154458
154	0xbdb9df37	-0.09075778
155	0x3b24e5a1	0.0025161284
156	0xbd917d5b	-0.07103988
157	0x3b98ca66	0.0046627996
158	0x3ccd4017	0.025054974
159	0xbda1dab5	-0.07903043
160	0x3cdd624a	0.027024407
161	0xbd4d26f9	-0.050085995
162	0xbceb54a9	-0.028726893
163	0xbdc306fd	-0.09522817
164	0xbd59fd12	-0.053219862
165	0x3ba1be92	0.004936048
166	0x3c6a75f2	0.014310347
167	0xbda716e5	-0.08158664
168	0xbdbbb57e	-0.09165476
169	0x3bce06e8	0.0062874444
170	0xbc0ce08a	-0.008598456
171	0xbcf32122	-0.029678885
172	0xbb0f4440	-0.0021860749
173	0xbce8ea8b	-0.028432151
174	0x3cafa778	0.02144216
175	0xbdb419e7	-0.08794003
176	0x3db59a26	0.08867292
177	0xbd04b3b0	-0.032397926
178	0x3d641546	0.05568435
179	0xbd21ea32	-0.039529987
180	0x3da87b01	0.08226586
181	0x3d9b2f1f	0.07577347
182	0x3d4d5997	0.050134268
183	0xbd67385e	-0.05645024
184	0xbd0776f7	-0.033072438
185	0xbd8dc6b7	-0.069226675
186	0xbd80fca0	-0.062981844
187	0x3d0e83c2	0.034793623
188	0x3d968ebc	0.07351443
189	0xbd6222e0	-0.05520904
190	0xbd5dc37a	-0.0541415
191	0x3c75c7d6	0.015001258
192	0x3cbdf498	0.02318792
193	0xbcc16e9e	-0.023612317
194	0xbd84e0da	-0.064881995
195	0x3db839b9	0.08995385
196	0xbca647dd	-0.020297939
197	0xbd940358	-0.072272
198	0x3d1f90df	0.03895652
199	0xbc083618	-0.008313678
200	0xbdd1e35f	-0.10248446
201	0xbd9f2b1e	-0.07771896
202	0x3a8d0de9	0.0010761592
203	0x3df34e32	0.11880149
204	0xbdcba4f5	-0.099435724
205	0xbd98e5f5	-0.07465736
206	0x3c7fc200	0.015610218
207	0xbd1d14fe	-0.038350098
208	0x3d6764c5	0.056492586
209	0x3dc8ce81	0.098050125
210	0x3d6014b1	0.054707233
211	0xbd1ef0e7	-0.03880396
212	0x3c7b17be	0.015325485
213	0xbd4b8a75	-0.04969259
214	0x3d44338c	0.04790072
215	0xbcff36de	-0.031154092
216	0x3c999c00	0.018751144
217	0xbafd8655	-0.0019342402
218	0xbc00c187	-0.0078586405
219	0xbd8e5dee	-0.069515094
220	0x3d94cda7	0.072657876
221	0x3dc96e52	0.09835495
222	0x3c89ee48	0.016837254
223	0x3c1c8d91	0.009555236
224	0x3cd65d65	0.02616758
225	0x3bb09150	0.0053884163
226	0x3d76d705	0.060263652
227	0xbcf2a2de	-0.029618677
228	0xbda74383	-0.08167174
229	0x3da31fd1	0.07965053
230	0xbd6a9b36	-0.057276927
231	0xbdbaa9c3	-0.09114411
232	0xbd938502	-0.072031036
233	0x3cc10c38	0.023565397
234	0x3cd48457	0.02594201
235	0x3dcb4a08	0.0992623
236	0xbc68879f	-0.014192491
237	0xbce22f78	-0.027610525
238	0x3d836487	0.064156584
239	0xbd19dcb6	-0.037564002
240	0x3d936236	0.071964666
241	0xbd041086	-0.03224232
242	0x3db46334	0.08807984
243	0x3cd3d9c2	0.025860671
244	0x3c5a6392	0.0133294035
245	0x3c86eda0	0.01647073
246	0xbdcb959a	-0.099406436
247	0x3d8e242b	0.06940492
248	0x3dc54d2f	0.09633862
249	0x3d27b0d1	0.04094011
250	0x3c0a07e9	0.0084247375
251	0xbd400ecd	-0.046889115
252	0x3c89114d	0.016731882
253	0xbd666cfc	-0.05625628
254	0x3c722dc1	0.014781416
255	0x3cd49e25	0.025954315
