my_latent_sde/sdes/best_sde_0.pth (torch, 124450 bytes, 26 tensors)

encoder.gru.weight_ih_l0 f4 [192, 2]
-0.06535401 -0.18024306 -0.081201814 -0.05076865 0.11518434 0.01333692 -0.123672895 0.01604733
0.183261 0.039045416 -0.10328571 0.1597548 -0.052507762 0.09731663 0.0048848786 0.1945412
-0.031421833 -0.066197954 0.07263667 0.19826914 0.0747729 -0.013399625 0.07983056 -0.007303487
0.011890117 0.0003550855 -0.045273792 0.20711048 -0.088134214 0.044612125 0.11865578 0.0864513
-0.07005042 -0.034324292 0.07500249 0.0987019 -0.10183702 0.08760925 0.16608307 0.0402136
0.0045446004 0.045566246 0.07588969 0.21006635 -0.05893366 0.0062971823 0.001587158 0.16048
-0.03333606 -0.0013382115 -0.024076099 0.010876416 -0.0714415 -0.046541974 -0.078046046 0.12847245
0.12580083 0.075776696 0.058377333 0.07689467 0.02221765 -0.04383678 -0.025441123 -0.117507346
-0.1105215 -0.032597166 0.061895356 0.10416392 -0.041851867 0.076303385 0.036136854 -0.011263076
0.0733486 0.14169116 0.08583462 -0.034777842 0.116039805 0.12097487 -0.033020683 0.009412918
0.04174769 0.11532539 -0.0908233 -0.09903167 0.051706474 -0.004363018 0.041162748 0.011508594
0.078441344 0.11266138 0.061614774 0.103518456 0.015755245 -0.075638816 -0.07697024 0.045758937
-0.08329703 0.061446007 0.067338526 0.018084854 -0.052988965 -0.041660104 -0.02012143 -0.074902736
-0.026315968 0.08827008 0.00029451438 -0.010512935 0.08970939 0.11207376 -0.044168 -0.111031905
-0.004230083 0.119300745 -0.008971356 -0.16850017 0.03135567 -0.11489255 -0.0675962 0.036371298
0.02117018 -0.08674442 0.0022798846 -0.10520132 0.084883876 0.03461558 0.0037614158 0.0017750243
0.1587998 0.090860605 -0.06509356 0.11770814 -0.10471817 0.18051015 -0.17135535 0.12676059
-0.07499654 0.3812321 0.15341859 -0.09861274 -0.04328823 0.12055076 -0.11250836 -0.05021074
0.06521092 0.155664 -0.025439482 -0.0011438506 0.081680275 0.006411581 0.021649014 0.119883604
-0.036970407 0.12272343 -0.16394828 0.07866355 -0.013341986 0.062603354 -0.08542861 0.014630139
0.007877606 0.08997626 0.0040404554 0.01693245 0.07172123 0.039799888 -0.06661691 -0.0041258624
-0.01051178 0.012099989 -0.019581953 -0.02493733 -0.025152877 0.067674525 0.022937499 0.031504367
-0.037678394 -0.029489925 -0.057963002 -0.10116515 -0.08522289 -0.14490658 -0.20851156 0.08055093
0.20117043 0.24197364 -0.0035828797 -0.010814838 0.1330985 -0.028517216 0.020282267 -0.019986957
-0.10362416 0.22110583 0.053700343 0.08190541 -0.08286425 0.3179446 -0.13320805 -0.22310582
-0.22876959 0.018935671 -0.13657999 -0.13543095 0.11910062 -0.07272689 -0.1693716 0.10344339
-0.12868886 0.14407381 -0.024368936 -0.06469906 -0.09846744 0.019545896 -0.0016346443 0.25934663
0.07380949 0.06821812 0.0354604 0.13194567 0.0076901373 0.07294701 -0.026421245 0.0429158
-0.02884997 0.07616039 -0.010455393 0.10781411 -0.01459502 -0.074583195 -0.0037349078 0.15938832
-0.041899376 0.2504134 -0.074461095 0.016113512 0.13189073 0.14992005 0.13576777 -0.05698421
-0.020431722 0.0688074 0.08992925 -0.05393808 0.0695683 0.057385076 -0.12740402 0.05900869
0.005240424 -0.015001392 0.015835121 0.12269725 0.001024564 0.13006634 0.096578814 -0.021013549
00000000: 53d8 85bd a391 38be 234d a6bd caf2 4fbd
00000010: c4e5 eb3d 1983 5a3c 3748 fdbd b175 833c
00000020: c6a8 3b3e 16ee 1f3d 7587 d3bd c396 233e
00000030: 6112 57bd f14d c73d 5511 a03b cf35 473e
00000040: 2eb4 00bd cb92 87bd 89c2 943d 1107 4b3e
00000050: 8922 993d 1a8a 5bbc 347e a33d 1752 efbb
00000060: c4ce 423c c52a ba39 0371 39bd c514 543e
00000070: b67f b4bd 34bb 363d cd01 f33d 610d b13d
00000080: 9876 8fbd a197 0cbd e89a 993d 3924 ca3d
00000090: ed8f d0bd 7a6c b33d ae11 2a3e 04b7 243d
000000a0: dfea 943b aca3 3a3d 0e6c 9b3d a21b 573e
000000b0: 6c64 71bd 9858 ce3b 2f08 d03a de54 243e
000000c0: 648b 08bd ed66 afba 3d3b c5bc ff32 323c
000000d0: ec4f 92bd cca2 3ebd 9bd6 9fbd 488e 033e
000000e0: efd1 003e d030 9b3d 121d 6f3d f47a 9d3d
000000f0: ca01 b63c 328e 33bd e769 d0bc b1a7 f0bd
00000100: 1959 e2bd 9b84 05bd fc85 7d3d e553 d53d
00000110: dd6c 2bbd f344 9c3d 3d04 143d c488 38bc
00000120: ca37 963d 7d17 113e 10ca af3d 3673 0ebd
00000130: 47a6 ed3d acc1 f73d b240 07bd a438 1a3c
00000140: a0ff 2a3d b82f ec3d 9101 babd 1ed1 cabd
00000150: 2bca 533d a6f7 8ebb 459a 283d 8b8e 3c3c
00000160: dba5 a03d 02bb e63d c65f 7c3d 7c01 d43d
00000170: 2511 813c 86e8 9abd 93a2 9dbd b96d 3b3d
00000180: a297 aabd cfae 7b3d c8e8 893d b026 943c
00000190: f50a 59bd c9a3 2abd b2d5 a4bc 9b66 99bd
000001a0: 9694 d7bc f2c6 b43d 0d69 9a39 723e 2cbc
000001b0: 8fb9 b73d ed86 e53d 81e9 34bd b264 e3bd
000001c0: 829c 8abb f353 f43d 98fc 12bc 4f8b 2cbe
000001d0: ce6e 003d c94c ebbd e06f 8abd 12fa 143d
000001e0: 166d ad3c 0fa7 b1bd 1e6a 153b ca73 d7bd
000001f0: 99d7 ad3d 11c9 0d3d 1682 763b efa7 e83a
00000200: 6a9c 223e 2015 ba3d c64f 85bd f710 f13d
00000210: 7b76 d6bd a7d7 383e c777 2fbe 87cd 013e
00000220: c997 99bd db30 c33e c319 1d3e 7af5 c9bd
00000230: 004f 31bd 51e3 f63d c86a e6bd c7a9 4dbd
00000240: 4e8d 853d 6266 1f3e 7666 d0bc 42ed 95ba
00000250: fd47 a73d 3d18 d23b 4659 b13c 8985 f53d
00000260: 486e 17bd 6c56 fb3d 0fe2 27be 5b1a a13d
00000270: 5898 5abc 3036 803d 32f5 aebd 40b3 6f3c
00000280: 1311 013c 7945 b83d cc65 843b ecb5 8a3c
00000290: 95e2 923d 3505 233d 726e 88bd 3e32 87bb
000002a0: 9a39 2cbc 083f 463c 556a a0bc 5f49 ccbc
000002b0: 680d cebc f198 8a3d 6ce7 bb3c b90a 013d
000002c0: a954 1abd db94 f1bc 9d6a 6dbd ad2f cfbd
000002d0: 5789 aebd 6462 14be 0e84 55be e3f7 a43d
000002e0: 9fff 4d3e f0c7 773e bfce 6abb b830 31bc
000002f0: f94a 083e f09c e9bc ff26 a63c b0bb a3bc
00000300: e738 d4bd 9169 623e e4f4 5b3d 06be a73d
00000310: bbb4 a9bd a2c9 a23e b167 08be da75 64be
00000320: 9342 6abe fb1e 9b3c a0db 0bbe 69ae 0abe
00000330: 07eb f33d d6f1 94bd c06f 2dbe 21da d33d
00000340: 03c7 03be 1688 133e 5da1 c7bc f180 84bd
00000350: 4ca9 c9bd b71e a03c 9041 d6ba 15c9 843e
00000360: 6e29 973d f1b5 8b3d ed3e 113d c41c 073e
00000370: 8cfd fb3b 3e65 953d 5e71 d8bc 7ac8 2f3d
00000380: c656 ecbc fbf9 9b3d 194d 2bbc a5cd dc3d
00000390: f31f 6fbc 13bf 98bd 5bc5 74bb b136 233e
000003a0: ae9e 2bbd 2f36 803e 0f7f 98bd 7c00 843c
000003b0: 5d0e 073e a484 193e b506 0b3e 4668 69bd
000003c0: 6d60 a7bc e5ea 8c3d d42c b83d 2dee 5cbd
000003d0: d379 8e3d 9d0c 6b3d 3376 02be 19b3 713d
000003e0: ddb7 ab3b 66c8 75bc a8b8 813c b248 fb3d
000003f0: aa4a 863a 1c30 053e 1dcb c53d 9b24 acbc

encoder.gru.weight_hh_l0 f4 [192, 64]
-0.049073048 0.06801177 -0.079181716 -0.041551877 -0.02912684 0.057434563 0.013301325 0.09317525
0.0031038285 0.048519135 -0.015013695 0.038249012 -0.01836097 -0.030116275 -0.0058820164 -0.0005805397
-0.03375459 -0.06451925 0.018304532 -0.03585034 0.023731878 0.017170252 0.13431814 -0.018327354
0.092164055 -0.07000616 0.0806036 -0.0026611048 -0.04724002 -0.038736735 -0.0470848 0.015077374
0.034471143 0.06341513 -0.053385083 -0.032177288 0.03487382 0.023789873 -0.0135401 0.004598361
-0.016558157 -0.05375982 -0.03269712 0.029707229 0.10623074 0.022142932 -0.084308855 0.058027633
0.07974516 0.03859469 0.016213654 0.011144948 0.010590831 0.026917348 0.024148086 -0.00079836446
0.023266682 -0.07009367 0.008523693 -0.06418274 0.061675783 0.06006039 -0.005584745 0.02942056
0.06209331 0.05763485 -0.0535716 -0.017875921 -0.013459135 0.011678167 0.023926923 -0.06703493
-0.058080133 0.013245075 -0.026070423 0.05147517 0.009235455 -0.011562923 -0.027642416 -0.058954988
0.017643292 0.0816429 -0.011041953 -0.0019889483 0.026536921 -0.0267615 0.0022890237 0.009309641
-0.03374584 0.05320783 -0.033377174 0.06589419 -0.015334392 0.009935885 -0.059070732 0.034023624
-0.028090378 -0.026494458 0.020340592 0.050846852 -0.058508728 0.014888065 0.07808346 -0.021514844
-0.018619725 -0.0061439234 0.06019565 -0.059420563 0.02141009 0.021621145 -0.023594515 -0.005529349
-0.0827299 0.058559217 -0.027923945 0.01618427 -0.030200806 -0.036208674 0.012665067 -0.04990022
-0.0011027424 -0.0090940045 0.055509288 0.01597182 0.059628986 -0.009866541 -0.05670523 0.0054681585
-0.06183617 -0.001069616 -0.027368953 0.007747467 -0.00071271847 -0.0022036158 0.03145982 -0.052515596
0.03701258 0.013323817 -0.037851427 0.022142801 0.05342535 0.01930445 -0.006195219 -0.09771996
-0.026238047 0.038942307 0.06629784 0.043366294 0.028221978 0.06396048 -0.075240664 0.15798868
-0.030354207 0.008576291 0.00748572 -0.03688431 0.054158162 -0.037377905 -0.008356936 0.05702685
-0.026075538 0.056097 -0.009142423 0.033198055 -0.020312684 0.049437024 0.046016946 -0.074155115
0.029163701 0.045099225 0.06485884 -0.025830222 0.07120133 -0.09918904 -0.0817332 0.030167451
0.0018088297 -0.00061379647 0.04966013 -0.042197384 0.061990485 -0.02802099 0.075754434 0.00044879253
-0.05736197 -0.017680986 -0.0374279 -8.6809574e-05 0.029874688 -0.0024167239 0.0995359 0.032828327
0.0006835839 0.09866306 -0.08523274 -0.02386071 -0.021298353 -0.029017782 0.026768524 -0.04559081
-0.01775524 0.0045515215 0.0034237283 0.006312287 0.028946461 0.016637169 -0.08529844 0.008549964
0.040004928 0.01001979 0.037294988 0.043946892 0.024849348 0.016353192 -0.10098201 -0.03825086
-0.0067282543 0.055010132 -0.059554845 -0.043459523 -0.031079907 0.05223177 -0.028718747 -0.04482427
-0.10135674 -0.012736478 0.060591143 0.09678986 -0.0051952503 -0.0609278 0.0068794074 -0.04955265
0.06322785 -0.022438275 0.05362044 -0.0002920672 -0.035610247 0.033341773 0.04247751 -0.012810824
-0.015902001 -0.009240721 -0.044293378 -0.0208623 -0.11606181 0.01198121 -0.026644537 -0.010996601
-0.05096379 0.006764363 0.0111026475 0.029785512 -0.012588791 -0.045244448 -0.059352648 0.033692554
00000000: d200 49bd c149 8b3d 062a a2bd 4d32 2abd
00000010: 699b eebc 8140 6b3d cded 593c aad2 be3d
00000020: 9a69 4b3b 00bc 463d 00fc 75bc ffaa 1c3d
00000030: bf69 96bc 68b6 f6bc eebd c0bb 5c2f 18ba
00000040: 4142 0abd ab22 84bd 63f3 953c ced7 12bd
00000050: 5b69 c23c a1a8 8c3c b28a 093e 3f23 96bc
00000060: 82c0 bc3d 645f 8fbd 8013 a53d ee65 2ebb
00000070: c07e 41bd 69aa 1ebd fedb 40bd 1707 773c
00000080: 9d31 0d3d cbdf 813d 51aa 5abd 55cc 03bd
00000090: dad7 0e3d fbe2 c23c 4cd7 5dbc d9ad 963b
000000a0: f9a4 87bc 4233 5cbd 6aed 05bd 935c f33c
000000b0: 818f d93d 1865 b53c 1faa acbd 62ae 6d3d
000000c0: 6e51 a33d 7715 1e3d 7fd2 843c 4d99 363c
000000d0: 2a85 2d3c c581 dc3c 35d2 c53c 5549 51ba
000000e0: c599 be3c 458d 8fbd f6a6 0b3c 3e72 83bd
000000f0: bf9f 7c3d e201 763d 3d00 b7bb 6303 f13c
00000100: 8e55 7e3d 8512 6c3d e56d 5bbd 8670 92bc
00000110: b483 5cbc c855 3f3c 6502 c43c 9c49 89bd
00000120: 6fe5 6dbd df01 593c a491 d5bc a1d7 523d
00000130: 4e50 173c 6a72 3dbc 5972 e2bc c97a 71bd
00000140: aa88 903c 6534 a73d 4fe9 34bc 0459 02bb
00000150: f563 d93c ef3a dbbc 7203 163b 7787 183c
00000160: 1439 0abd 74f0 593d 81b6 08bd 88f3 863d
00000170: 1a3d 7bbc 1fca 223c 27f4 71bd 5b5c 0b3d
00000180: cb1d e6bc e80a d9bc 50a1 a63c ca44 503d
00000190: d9a6 6fbd 12ed 733c 39ea 9f3d e63f b0bc
000001a0: 6588 98bc f752 c9bb b78f 763d fa62 73bd
000001b0: 3764 af3c d41e b13c 4949 c1bc 8b2f b5bb
000001c0: 4b6e a9bd cadb 6f3d c2c0 e4bc e094 843c
000001d0: ae67 f7bc 8c4f 14bd 2481 4f3c 2c64 4cbd
000001e0: e589 90ba 05ff 14bc b55d 633d 56d7 823c
000001f0: 863d 743d 46a7 21bc be43 68bd 3d2e b33b
00000200: ec47 7dbd 5b32 8cba db34 e0bc 77de fd3b
00000210: bad5 3aba 8a6a 10bb 03dc 003d 981a 57bd
00000220: 819a 173d 244c 5a3c 190a 1bbd d264 b53c
00000230: 8ad4 5a3d 5e24 9e3c 4301 cbbb 6721 c8bd
00000240: 2cf1 d6bc f881 1f3d 29c7 873d dba0 313d
00000250: c731 e73c b6fd 823d c717 9abd c9c7 213e
00000260: 63a9 f8bc 9283 0c3c c54a f53b 0114 17bd
00000270: f3d4 5d3d 9319 19bd 88eb 08bc fc94 693d
00000280: 5e9c d5bc f8c5 653d 1aca 15bc affa 073d
00000290: c966 a6bc 7a7e 4a3d 447c 3c3d a3de 97bd
000002a0: b7e8 ee3c f7b9 383d b6d4 843d e799 d3bc
000002b0: 01d2 913d a023 cbbd bc63 a7bd bb21 f73c
000002c0: 4116 ed3a 2fe7 20ba 6c68 4b3d 2ad7 2cbd
000002d0: bce9 7d3d 468c e5bc 2425 9b3d ea4b eb39
000002e0: 63f4 6abd b7d7 90bc ff4d 19bd 890d b6b8
000002f0: c3bb f43c e661 1ebb 7ad9 cb3d ff76 063d
00000300: 8a32 333a dc0f ca3d 818e aebd 8977 c3bc
00000310: e279 aebc b3b6 edbc aa49 db3c 6ebd 3abd
00000320: 7073 91bc ee24 953b a160 603b 4dd7 ce3b
00000330: 2121 ed3c ac4a 883c f3b0 aebd 2615 0c3c
00000340: 35dc 233d 0c2a 243c a1c2 183d a801 343d
00000350: dc90 cb3c 21f7 853c a8cf cebd efac 1cbd
00000360: b078 dcbb 4e52 613d c8ef 73bd 9d02 32bd
00000370: 4a9b febc fbf0 553d 9443 ebbc a799 37bd
00000380: 1f94 cfbd a9ac 50bc 6b2e 783d c339 c63d
00000390: eb3c aabb 6e8f 79bd a76c e13b b8f7 4abd
000003a0: 9a7d 813d 79d0 b7bc 1ba1 5b3d 9920 99b9
000003b0: 0ddc 11bd 6291 083d e6fc 2d3d 7ee4 51bc
000003c0: ea44 82bc 6566 17bc f96c 35bd 6ae7 aabc
000003d0: d0b1 edbd d64c 443c a545 dabc 162b 34bc
000003e0: 68bf 50bd 97a7 dd3b e1e7 353c bf00 f43c
000003f0: 3741 4ebc 3e52 39bd c31b 73bd 3401 0a3d

encoder.gru.bias_ih_l0 f4 [192]
-0.086052135 0.016338639 0.013600825 0.04926823 0.01857812 0.07087085 -0.0106847575 0.063007966
-0.017667206 0.12145845 0.06552841 -0.07560148 0.046694566 0.0038613859 0.035962872 -0.02855099
0.018598862 0.041615266 0.09278834 0.007881327 -0.015314461 -0.011709478 -0.052478246 0.14522924
0.021564689 0.0017833923 0.091853805 -0.020632286 -0.018428395 0.012693486 0.002763372 0.0352623
0.11406722 0.010917263 0.12428279 0.0810571 0.095822684 0.018142825 0.055298254 0.020760762
0.06654963 0.0933569 -0.036176212 0.026837505 -0.010710502 -0.010218916 -0.045528006 0.0070687737
0.12140414 0.10494398 -0.016698796 0.0506275 0.036535338 0.068369575 0.02238654 0.06536393
0.05196391 0.017464448 -0.04128109 0.0009658195 -0.022722801 0.078424774 0.093868025 -0.027171029
0.05917835 0.10511295 0.23440973 0.14376426 0.18240476 0.13823006 0.11763366 0.14472456
0.11229736 0.12512922 0.17757463 0.08704509 0.12942074 0.1866785 0.15984409 0.035007145
0.12073633 0.12738098 0.10285542 0.18760829 0.12597951 0.110219575 0.17975293 0.23069668
0.15090941 0.23437917 0.08179617 0.10093423 0.29613364 0.062098857 0.12650177 -0.008718841
0.14334902 0.25237894 0.18461238 0.074938804 0.19747098 0.12947029 0.15538223 0.20224082
0.18091655 0.07651584 0.22844777 0.19211854 0.1734694 0.15525001 0.19206572 0.121333554
0.11153939 0.09518659 0.03474341 0.09660109 0.13428211 0.060819812 0.1827672 0.17229998
0.09245704 -0.007212261 0.07923316 0.16361089 0.22006917 0.10548112 0.11667828 0.093663275
0.10601024 -0.14332171 0.13016437 -0.09534718 0.05638839 0.011107637 -0.075350754 -0.10695223
-0.19461873 -0.020299027 -0.10842826 -0.041593805 0.06645243 -0.042701807 0.088651784 0.055779845
-0.1120093 0.1877165 0.113387816 -0.05019643 0.10022337 0.034034517 0.09118169 0.054845527
-0.14287585 0.00945803 0.12306437 -0.022228315 0.006092238 -0.043004528 0.027901467 0.11551967
-0.025159203 -0.14624298 -0.06832469 -0.11575338 -0.02699954 0.11020784 0.06896685 0.04298814
-0.05890421 0.15916719 -0.094261184 -0.19031876 0.14573886 -0.030625103 -0.15870638 0.16010903
-0.15631591 0.13965869 0.15930097 0.07565131 -0.028508678 -0.15062222 0.07473673 -0.041193865
0.01617641 0.11232175 0.07926918 0.111070365 0.15826285 -0.10829235 0.061096925 -0.023568826
00000000: 1a3c b0bd 9cd8 853c ffd5 5e3c 7ccd 493d
00000010: 2431 983c bc24 913d 1f0f 2fbc 520a 813d
00000020: d1ba 90bc 35bf f83d c233 863d f3d4 9abd
00000030: cd42 3f3d 4e0f 7d3b ce4d 133d c4e3 e9bc
00000040: a45c 983c c574 2a3d d007 be3d ae20 013c
00000050: 81e9 7abc 1cd9 3fbc 6ef3 56bd f9b6 143e
00000060: 6ea8 b03c b7c0 e93a d91d bc3d 0a05 a9bc
00000070: 25f7 96bc 57f8 4f3c b019 353b 346f 103d
00000080: 139c e93d 52de 323c fa87 fe3d 4401 a63d
00000090: af3e c43d 43a0 943c 6c80 623d 7912 aa3c
000000a0: 2c4b 883d e731 bf3d 822d 14bd 54da db3c
000000b0: 1a7b 2fbc 3e6d 27bc 937b 3abd 2ca1 e73b
000000c0: bca2 f83d dfec d63d eacb 88bc c85e 4f3d
000000d0: 14a6 153d 5905 8c3d fa63 b73c 86dd 853d
000000e0: 1cd8 543d 9a11 8f3c 5c16 29bd 0d2f 7d3a
000000f0: 2b25 babc 2b9d a03d e13d c03d c795 debc
00000100: ff64 723d 7545 d73d 1b09 703e f036 133e
00000110: 50c8 3a3e 2e8c 0d3e ebe9 f03d ad32 143e
00000120: 29fc e53d e021 003e 20d6 353e b244 b23d
00000130: df86 043e a628 3f3e 2bae 233e a763 0f3d
00000140: 9c44 f73d 2970 023e dda5 d23d 631c 403e
00000150: c600 013e cdba e13d 2711 383e c03b 6c3e
00000160: ff87 1a3e 1801 703e c084 a73d 9bb6 ce3d
00000170: d49e 973e 5f5b 7e3d ae89 013e 78d9 0ebc
00000180: 16ca 123e d037 813e 070b 3d3e 8479 993d
00000190: d535 4a3e dc93 043e 851c 1f3e 3818 4f3e
000001a0: 3042 393e 56b4 9c3d 36ee 693e b9ba 443e
000001b0: f6a1 313e dcf9 1e3e e0ac 443e ba7d f83d
000001c0: c46e e43d 30f1 c23d 1b4f 0e3d cbd6 c53d
000001d0: 4081 093e 321e 793d 5327 3b3e 686f 303e
000001e0: 1e5a bd3d d554 ecbb ff44 a23d 9d89 273e
000001f0: d059 613e 7c06 d83d 06f5 ee3d 88d2 bf3d
00000200: e61b d93d edc2 12be cf49 053e 6245 c3bd
00000210: 83f7 663d cefc 353c 7f51 9abd c509 dbbd
00000220: 224a 47be 254a a6bc a30f debd 445e 2abd
00000230: 3618 883d 17e8 2ebd 118f b53d 6879 643d
00000240: 2265 e5bd c138 403e df37 e83d c69a 4dbd
00000250: e941 cd3d c767 0b3d 77bd ba3d b4a5 603d
00000260: 0c4e 12be daf5 1a3c 2c09 fc3d 2818 b6bc
00000270: 65a1 c73b 8425 30bd 9e91 e43c 9495 ec3d
00000280: ac1a cebc b8c0 15be d1ed 8bbd 1c10 edbd
00000290: 242e ddbc a6b4 e13d 7e3e 8d3d 5514 303d
000002a0: 8a45 71bd b9fc 223e 020c c1bd ece2 42be
000002b0: 913c 153e 7fe1 fabc ed83 22be 9ff3 233e
000002c0: 4711 20be b002 0f3e cb1f 233e 13ef 9a3d
000002d0: 088b e9bc b63c 1abe 920f 993d e6ba 28bd
000002e0: 6484 843c f208 e63d e157 a23d dc78 e33d
000002f0: a80f 223e 61c8 ddbd c540 7a3d 6913 c1bc

encoder.gru.bias_hh_l0 f4 [192]
-0.10190022 0.041969437 -0.010576488 0.064691775 -0.012103035 0.02179575 0.08409614 -0.06093391
0.02551201 0.090044595 0.015471232 0.051997308 -0.030475223 -0.05204793 0.15591796 -0.027753342
0.08434857 0.16931789 0.0981565 0.010169784 0.044130825 -0.022675661 0.0959169 0.06522995
-0.046157807 0.12475215 -0.027574593 0.07845899 -0.031079754 0.0014702316 0.09290883 0.0011250272
0.085234426 0.0070401384 0.06059061 -0.010890366 0.022363227 0.008169388 -0.02847112 0.11747885
0.058139727 0.047147743 -0.017582985 0.08994589 0.062273405 0.046585143 -0.010196496 0.019375322
-0.017417802 0.033168264 -0.015934085 0.09639325 0.05218186 0.031831052 0.0055669155 0.14397156
0.05410218 0.08625869 0.060962476 -0.08238258 0.007817315 0.104583554 0.027398186 0.031733185
0.04745114 0.14793856 0.12797004 0.1255054 0.12137741 0.09879555 0.0816033 0.15791444
0.069606 0.1711471 0.17005084 0.06616481 0.15177436 0.17505306 0.18681842 0.034704957
0.084046885 0.12494455 0.18303202 0.17629118 0.08608942 0.111377135 0.17229807 0.19803503
0.13984643 0.22532636 0.06844099 0.22878686 0.27334338 0.055465594 0.13482812 0.024505815
0.12732989 0.2458322 0.15089008 0.12995233 0.22968918 0.1702756 0.14583223 0.124650635
0.086969554 0.07681752 0.17565387 0.14575745 0.071481794 0.11028055 0.21558961 0.14214376
0.11288315 0.08164189 0.040666718 0.09783809 0.12790924 0.024212498 0.21769927 0.16256069
0.17951705 -0.013851678 0.074089 0.19535315 0.19984181 0.10559589 0.1160693 0.100054964
0.036634035 -0.09277157 0.023891512 -0.0073849694 0.12430788 0.08794585 -0.15393391 -0.06716075
-0.077456266 0.10294854 -0.023787938 0.12724608 0.1162349 0.04896327 0.08655159 -0.062114332
-0.08854545 0.17578527 0.099614635 -0.06955857 0.112865336 0.13554093 0.12854202 0.07169822
-0.0892324 0.049783118 0.059449285 0.025400084 -0.093219966 -0.04186679 -0.15821719 0.041597053
0.11610147 0.03937352 -0.15269737 0.01726826 0.091837905 0.053109568 0.050123356 0.07686849
-0.106775284 0.07509 0.012914541 -0.049805578 0.04995528 0.055806514 -0.026465334 0.14811777
0.0066719986 0.04673549 0.159935 -0.03612001 0.023055464 0.06272905 -0.0317595 0.036803212
-0.023649216 0.01644072 0.13119721 -0.028188257 0.11686514 -0.06415387 -0.07011028 -0.077229604
00000000: 10b1 d0bd 25e8 2b3d 0249 2dbc 1f7d 843d
00000010: cf4b 46bc 008d b23c 993a ac3d d695 79bd
00000020: 90fe d03c 4d69 b83d 0d7b 7d3c 21fb 543d
00000030: 2da7 f9bc 3630 55bd f5a8 1f3e fa5a e3bc
00000040: f1be ac3d ab61 2d3e 4606 c93d 2a9f 263c
00000050: 86c2 343d 4fc2 b9bc 1470 c43d 4897 853d
00000060: f80f 3dbd 0e7e ff3d 1de4 e1bc 1baf a03d
00000070: f89a febc c9b4 c03a fc46 be3d a675 933a
00000080: 638f ae3d f6b0 e63b dc2d 783d 816d 32bc
00000090: 1633 b73c e6d8 053c 443c e9bc c098 f03d
000000a0: ec23 6e3d fe1d 413d 310a 90bc 8d35 b83d
000000b0: 6612 7f3d 10d0 3e3d 340f 27bc ffb8 9e3c
000000c0: c7af 8ebc 72db 073d 3388 82bc d369 c53d
000000d0: a5bc 553d 4761 023d ac6a b63b 486d 133e
000000e0: 3f9a 5d3d 65a8 b03d cab3 793d 33b8 a8bd
000000f0: 3214 003c e72f d63d 2972 e03c a8fa 013d
00000100: 205c 423d 357d 173e 940a 033e 7d84 003e
00000110: b894 f83d 5255 ca3d a21f a73d 53b4 213e
00000120: 978d 8e3d 2f41 2f3e cf21 2e3e 6a81 873d
00000130: bd6a 1b3e 1c41 333e 544d 3f3e c926 0e3d
00000140: c620 ac3d eee2 ff3d bf6c 3b3e ad85 343e
00000150: a64f b03d b219 e43d e86e 303e b2c9 4a3e
00000160: e733 0f3e f4bb 663e ca2a 8c3d 1a47 6a3e
00000170: aaf3 8b3e e42f 633d 6210 0a3e 6bc0 c83c
00000180: c462 023e 70bb 7b3e ee82 1a3e 3912 053e
00000190: a433 6b3e ba5c 2e3e 0b55 153e d548 ff3d
000001a0: 181d b23d 8152 9d3d 9cde 333e 7141 153e
000001b0: 0c65 923d c5da e13d 86c3 5c3e 228e 113e
000001c0: 482f e73d dd33 a73d 2592 263d 565f c83d
000001d0: a4fa 023e 4a59 c63c 8fec 5e3e 4f76 263e
000001e0: 51d3 373e 26f2 62bc f9bb 973d a80a 483e
000001f0: 55a3 4c3e a842 d83d beb5 ed3d 9ee9 cc3d
00000200: 920d 163d 05ff bdbd 22b8 c33c 9dfd f1bb
00000210: 2195 fe3d f41c b43d daa0 1dbe 938b 89bd
00000220: 64a1 9ebd afd6 d23d ecde c2bc cc4c 023e
00000230: 900c ee3d b68d 483d f641 b13d 996b 7ebd
00000240: 5157 b5bd 0e01 343e c202 cc3d b974 8ebd
00000250: f125 e73d 3ecb 0a3e 85a0 033e 84d6 923d
00000260: 7abf b6bd 62e9 4b3d 1881 733d d613 d03c
00000270: 1cea bebd 837c 2bbd b003 22be ac61 2a3d
00000280: 9cc6 ed3d 2146 213d b35c 1cbe 2a76 8d3c
00000290: 8315 bc3d 6b89 593d 264e 4d3d 3a6d 9d3d
000002a0: 00ad dabd c9c8 993d 8397 533c ef00 4cbd
000002b0: e89d 4c3d 5f95 643d d4cd d8bc 2fac 173e
000002c0: c8a0 da3b b76d 3f3d 00c6 233e 93f2 13bd
000002d0: d0de bc3c 1778 803d 4016 02bd f7be 163d
000002e0: 00bc c1bc b0ae 863c 9058 063e 0feb e6bc
000002f0: fe56 ef3d 1b63 83bd fa95 8fbd 8e2a 9ebd

encoder.norm.weight f4 [8]
1.107675 1.1787033 1.271778 1.2466266 0.99346656 1.2744542 1.2359431 1.1483086
00000000: 4bc8 8d3f c0df 963f 9fc9 a23f 7691 9f3f
00000010: d353 7e3f 5121 a33f 6233 9e3f c7fb 923f

encoder.norm.bias f4 [8]
-0.08390349 -0.046389513 -0.25574812 0.06963438 -0.059188567 -0.0292823 0.060486257 0.09386095
00000000: 98d5 abbd ee02 3ebd 6bf1 82be 789c 8e3d
00000010: b66f 72bd 6fe1 efbc 70c0 773d 2b3a c03d

encoder.project.0.weight f4 [64, 64]
-0.11651658 0.028897882 -0.05627777 -0.10455186 0.047662765 -0.12593794 0.09782635 -0.024875557
-0.0840675 0.09934428 0.00021948399 0.0030667721 0.035124682 0.09849186 0.010002445 0.09926351
0.0029856553 -0.057485726 0.04279225 -0.03393525 0.11423318 0.055108942 -0.03565637 0.038727432
0.08500509 -0.001260003 -0.040108133 0.032770373 -0.03807168 0.025867475 -0.007531775 -0.014377853
-0.06540154 -0.09731038 0.042241715 0.07014172 0.10809539 -0.14408016 -0.072342284 0.053326536
0.08381738 -0.03188571 0.12327514 0.08194209 0.024209984 0.08607461 -0.02174794 0.103615955
0.08993956 0.04076528 -0.06503369 -0.009533509 0.010418109 0.004184803 -0.033305597 0.10764477
0.07205332 -0.020042224 -0.05293717 0.07067614 -0.06461089 -0.018049851 -0.020069653 0.12117424
-0.071853116 -0.041252945 0.06779266 0.078995675 -0.036029294 0.008204363 -0.03865705 -0.12745248
-0.08930909 0.05174273 0.004798015 0.11684359 0.045430616 0.06579988 -0.011603188 0.09809615
-0.06895598 0.07449589 -0.043888602 0.03338032 0.030166175 0.08920499 -0.06050103 -0.06507685
0.005361077 0.040105958 0.039607834 -0.06517088 -0.03902299 0.006825405 0.026311716 0.044451196
-0.01314458 0.09042547 -0.079965815 -0.0433495 -0.0063413596 -0.08306721 0.085770585 0.10983826
0.14062724 0.057295628 -0.07242775 -0.04664055 -0.07204437 -0.1355627 0.13156319 0.062000085
0.07406714 0.069033444 0.025319789 0.08668789 -0.10402176 0.11726002 -0.0049542515 -0.07378666
0.08043174 0.069856465 0.07033084 -0.037289165 -0.08163526 0.12592815 -0.07274464 0.0768726
-0.022325492 0.054908797 0.10115403 -0.07113879 0.014248507 0.006077043 -0.0058200182 -0.11392175
0.057586115 0.05167905 0.052894644 0.060790207 0.008171055 0.12940113 0.013148143 -0.0450914
0.123106696 0.07006016 0.018035928 -0.027781583 -0.034683898 0.10242936 -0.21461743 -0.06943708
0.07261891 0.054055363 -0.13086365 -0.05661176 0.010607812 0.06682742 -0.07380884 -0.050036505
0.045985043 -0.03064289 0.09312985 0.09223817 -0.06919486 -0.13649517 -0.028542032 -0.0861638
0.18709996 -0.053333946 -0.03433155 -0.07128763 -0.019583816 -0.085681126 0.07395753 -0.115299
-0.025999514 -0.04267228 0.005041925 -0.0016134545 -0.077234134 -0.08745314 0.04144316 -0.052796654
-0.20488024 0.07825741 0.031807628 0.115494624 -0.088177115 0.08289553 0.022599513 -0.09942217
-0.15510051 -0.0024323065 -0.104283534 -0.04448354 -0.07233121 0.09045966 0.056870736 0.1460497
0.07199061 0.049610253 -0.060057167 -0.022021584 0.033922356 -0.074954405 -0.106374666 0.021219993
-0.055738077 -0.030858383 -0.10468318 -0.068097286 -0.08106158 0.024229845 0.086873345 0.099602364
-0.058992032 -0.012558332 0.07583507 -0.07786974 0.012695898 0.10435218 0.09784399 -0.11104239
-0.08699292 0.036883518 0.08774535 -0.07338569 0.15120664 -0.14949036 -0.00031258003 0.025406139
0.02648548 -0.12557843 0.13665001 0.055008516 -0.12268848 -0.13517158 0.0016571877 -0.004718759
0.07264647 -0.04507639 0.03394872 0.12933657 0.07261586 0.11982615 -0.07887658 0.0350923
-0.08458868 0.06598592 0.10975775 -0.014595574 -0.07353277 0.021402681 0.07645448 -0.0018921687
00000000: 3fa0 eebd 40bb ec3c 8583 66bd 491f d6bd
00000010: 083a 433d e0f5 00be 2e59 c83d d3c7 cbbc
00000020: 952b acbd 0475 cb3d 4925 6639 e6fb 483b
00000030: e6de 0f3d 1ab6 c93d 4ce1 233c ab4a cb3d
00000040: fcaa 433b 2776 6bbd ed46 2f3d b0ff 0abd
00000050: 16f3 e93d eab9 613d 6a0c 12bd a8a0 1e3d
00000060: 2617 ae3d af26 a5ba 6d48 24bd 3a3a 063d
00000070: 0df1 1bbd 07e8 d33c 1ccd f6bb 1691 6bbc
00000080: 3ef1 85bd aa4a c7bd a605 2d3d 76a6 8f3d
00000090: 1e61 dd3d c089 13be 3128 94bd ed6c 5a3d
000000a0: 72a8 ab3d 979a 02bd ad77 fc3d 41d1 a73d
000000b0: 0454 c63c e347 b03d bc28 b2bc 9a34 d43d
000000c0: 3b32 b83d 7ff9 263d 6230 85bd 6f32 1cbc
000000d0: b7b0 2a3c ac20 893b 736b 08bd dc74 dc3d
000000e0: b190 933d 972f a4bc a5d4 58bd a7be 903d
000000f0: b752 84bd 48dd 93bc 1d69 a4bc 332a f83d
00000100: ba27 93bd d9f8 28bd e1d6 8a3d 7cc8 a13d
00000110: 7493 13bd 986b 063c db56 1ebd e782 02be
00000120: afe7 b6bd 2ff0 533d ab38 9d3b b14b ef3d
00000130: 7415 3a3d 16c2 863d 4c1b 3ebc a2e6 c83d
00000140: cb38 8dbd 4d91 983d 89c4 33bd cdb9 083d
00000150: 0e1f f73c 1bb1 b63d eecf 77bd 0347 85bd
00000160: f9ab af3b 2546 243d d33b 223d 4f78 85bd
00000170: 92d6 1fbd a6a7 df3b ab8b d73c 7512 363d
00000180: 5d5c 57bc fd30 b93d 1ec5 a3bd 3f8f 31bd
00000190: 2ecb cfbb 241f aabd 7da8 af3d e2f2 e03d
000001a0: 9600 103e d2ae 6a3d 0055 94bd 290a 3fbd
000001b0: 008c 93bd f3d0 0abe 80b8 063e cdf3 7d3d
000001c0: 83b0 973d 6861 8d3d 726b cf3c 6c89 b13d
000001d0: 5c09 d5bd 0526 f03d 4657 a2bb 761d 97bd
000001e0: 65b9 a43d e810 8f3d 9e09 903d 86bc 18bd
000001f0: 6330 a7bd 4ff3 003e 24fb 94bd 626f 9d3d
00000200: f3e3 b6bc 0ce8 603d d829 cf3d 37b1 91bd
00000210: 9272 693c ee21 c73b dab5 bebb ce4f e9bd
00000220: 6bdf 6b3d 69ad 533d 0ea8 583d 27ff 783d
00000230: e3df 053c bb81 043e 4f6b 573c c3b1 38bd
00000240: 5d1f fc3d b37b 8f3d 15c0 933c 3496 e3bc
00000250: b410 0ebd 7cc6 d13d acc4 5bbe 0735 8ebd
00000260: 39b9 943d 2869 5d3d 1f01 06be bce1 67bd
00000270: 63cc 2d3c d0dc 883d 1729 97bd 14f3 4cbd
00000280: d05a 3c3d cc06 fbbc ddba be3d 5ee7 bc3d
00000290: 09b6 8dbd 64c5 0bbe fbd0 e9bc a576 b0bd
000002a0: 2297 3f3e b274 5abd 3d9f 0cbd 40ff 91bd
000002b0: 3d6e a0bc 9679 afbd 0c77 973d e221 ecbd
000002c0: effc d4bc 21c9 2ebd bb36 a53b 8d7a d3ba
000002d0: ee2c 9ebd a21a b3bd 4ec0 293d 4e41 58bd
000002e0: 20cc 51be 6c45 a03d b748 023d 7288 ec3d
000002f0: 3496 b4bd 22c5 a93d 9d22 b93c da9d cbbd
00000300: abd2 1ebe 5567 1fbb 9b92 d5bd 5f34 36bd
00000310: 6322 94bd ea42 b93d 4af1 683d 0d8e 153e
00000320: d06f 933d 1f34 4b3d 81fe 75bd 9c66 b4bc
00000330: 2bf2 0a3d b281 99bd f6da d9bd 8dd5 ad3c
00000340: 9c4d 64bd b8ca fcbc 2364 d6bd 9776 8bbd
00000350: 9d03 a6bd ab7d c63c a7ea b13d 53fc cb3d
00000360: a1a1 71bd 76c1 4dbc 6b4f 9b3d 2c7a 9fbd
00000370: 7502 503c 99b6 d53d 6e62 c83d 316a e3bd
00000380: 5829 b2bd 2c13 173d d6b3 b33d 3d4b 96bd
00000390: ead5 1a3e 0014 19be c8e1 a3b9 8920 d03c
000003a0: 14f8 d83c a297 00be fbed 0b3e 9c50 613d
000003b0: 1944 fbbd 6b6a 0abe fe35 d93a d29f 9abb
000003c0: acc7 943d 05a2 38bd d00d 0b3d ce70 043e
000003d0: a0b7 943d 6a67 f53d 0b8a a1bd f2bc 0f3d
000003e0: d43c adbd a023 873d acc8 e03d 4622 6fbc
000003f0: 5998 96bd ad54 af3c 2b94 9c3d a502 f8ba

encoder.project.0.bias f4 [64]
-0.09993756 -0.0047225403 -0.06608348 -0.10555632 -0.009335423 -0.048639316 -0.15681182 0.034128536
-0.071657985 -0.12118862 -0.0129794935 -0.063797496 -0.108795755 0.11272903 0.0016366114 0.103174984
-0.12074366 -0.08901363 -0.12899199 0.043297905 0.021329356 0.034404516 -0.093574025 -0.07803098
0.00505894 0.03908688 -0.13256696 -0.08015645 -0.13848971 -0.11423439 -0.0033311916 -0.12346608
0.047774646 0.05688389 -0.03492068 0.13056785 -0.035065692 -0.0959405 -0.12059094 -0.055936176
0.104068406 -0.01968957 0.0978548 -0.12914625 -0.11877596 -0.08800996 -0.01916831 -0.032526117
-0.0338638 0.014388118 0.077845864 -0.075751774 0.054204576 0.08199484 0.051837742 -0.040865425
0.043967176 -0.036134325 -0.029030802 -0.112238325 0.06862412 -0.0969599 -0.05483609 0.03860407
00000000: 10ac ccbd 8abf 9abb c756 87bd e92d d8bd
00000010: 9af3 18bc 053a 47bd 4793 20be 5dca 0b3d
00000020: 6cc1 92bd bd31 f8bd f1a7 54bc 43a8 82bd
00000030: 4fd0 debd 7ade e63d 9183 d63a 684d d33d
00000040: 7448 f7bd c74c b6bd 7a16 04be 2559 313d
00000050: e7ba ae3c c0eb 0c3d bda3 bfbd b5ce 9fbd
00000060: 77c5 a53b 9019 203d a2bf 07be 1129 a4bd
00000070: 3fd0 0dbe b8f3 e9bd 1f50 5abb c9db fcbd
00000080: 59af 433d 15ff 683d fd08 0fbd 94b3 053e
00000090: 0ba1 0fbd 747c c4bd 62f8 f6bd 551d 65bd
000000a0: d121 d53d 054c a1bc 1968 c83d ea3e 04be
000000b0: cf40 f3bd 913e b4bd dc06 9dbc 1b3a 05bd
000000c0: c5b4 0abd 24bc 6b3c a76d 9f3d bf23 9bbd
000000d0: 9e05 5e3d e9ec a73d d053 543d 8162 27bd
000000e0: ed16 343d 9601 14bd 01d2 edbc 35dd e5bd
000000f0: cd8a 8c3d e992 c6bd cf9b 60bd 4d1f 1e3d

encoder.project.3.weight f4 [8, 64]
-0.026797032 -0.11791835 -0.12070109 0.071232125 -0.10709998 0.036980573 0.116937116 0.042969115
0.009367206 -0.041567475 -0.112402454 -0.07469058 0.14250027 -0.07362079 0.038457375 0.06385396
0.015041152 0.022369204 0.15080856 -0.002259593 0.16242103 -0.038035285 -0.0102421185 -0.030131213
0.043287087 0.10539747 0.03943414 -0.026451245 -0.10265263 0.026256641 0.07794292 0.07231543
-0.16466248 -0.017551601 -0.08187946 -0.053370584 -0.034694225 -0.08892137 -0.07696678 -0.040780332
-0.011225425 0.005450239 -0.0730726 0.12362439 -0.10721343 0.015265602 -0.048949488 -0.09951689
-0.08203171 0.13428219 -0.056826226 0.01676591 0.0039992556 0.0019052192 0.059917234 0.07907591
-0.123943456 0.15911306 0.116202936 0.11097242 0.16061778 -0.035692453 0.11099744 -0.01310594
0.002146216 0.08861294 0.033841666 -0.09546528 0.05470597 -0.1310904 -0.109297074 0.06922198
0.12495247 0.056172546 0.060360216 0.16840255 0.06629262 0.07578564 -0.04350656 -0.04283931
-0.07332799 -0.033704218 -0.107666284 -0.16728866 -0.1267059 0.035093427 -0.0928272 -0.059385747
0.06723966 -0.11588632 0.1269173 -0.1469898 -0.01564347 0.00088955916 -0.12253858 -0.07434595
-0.06763648 0.17739072 0.09723196 -0.12177139 -0.05977238 0.121748045 -0.08394908 0.12796178
-0.010721758 -0.027249703 0.13275401 -0.06989485 0.054933157 -0.011231007 0.08484398 0.09848108
-0.122624725 -0.12293661 0.023372179 -0.03281772 0.093668655 0.21764773 -0.014330628 -0.10141705
0.124363765 -0.09677558 -0.093882956 -0.12950262 -0.082645506 -0.088089496 -0.014470678 0.0067383233
-0.018381141 0.046972346 -0.057702165 -0.04041757 0.042963192 0.066951595 -0.027207647 -0.15880159
0.0490714 -0.061818272 -0.030345704 0.09583351 0.015822038 0.0022444883 -0.27573743 0.021035135
-0.12997083 -0.024219671 0.1059811 -0.07622039 0.010517443 -0.10624091 0.021441417 0.07061039
-0.084580846 0.011201329 -0.040630244 -0.119767815 0.0049513443 0.026513701 -0.09666797 -0.030298049
0.057980817 -0.057814993 -0.106091045 0.09479901 -0.013317375 0.09905111 -0.022635527 -0.07635724
0.09422803 -0.10593872 0.10369857 -0.094173096 -0.05883058 -0.1437495 -0.19441372 0.033637606
-0.11482396 -0.020689057 -0.12739253 -0.07032629 -0.073837236 0.025592487 -0.005743618 -0.059789397
-0.11522127 -0.04001117 -0.06566186 -0.00423018 0.096997626 0.19620585 -0.101825744 0.012530371
0.004642026 0.061934285 0.095610045 0.018352916 0.07516755 -0.025463788 0.11115889 0.13277073
0.06430783 0.01684866 -0.083311915 0.08952149 -0.17116301 -0.007577614 0.092712454 -0.09694262
-0.006122892 0.0054344255 -0.0015003979 -0.055288766 -0.009481064 -0.03140851 -0.085285336 0.11911771
-0.0037938324 0.04132445 -0.05893049 0.145367 0.12296217 0.109731875 0.09295939 -0.019614998
0.037102934 0.0126947565 0.13675766 -0.040480547 -0.04531382 0.06278237 0.12753908 0.050942898
-0.04935489 -0.074267566 -0.052866176 -0.04717934 -0.12762365 -0.013193821 0.05913516 -0.0148215685
0.12831303 0.009609606 0.07465753 -0.06454404 0.08797849 0.03118427 -0.036371153 0.021536727
0.06669257 -0.048456464 0.047130596 -0.103143215 -0.024728077 -0.17486484 0.090969756 0.04481451
00000000: 7385 dbbc 2d7f f1bd 2232 f7bd 26e2 913d
00000010: 3c57 dbbd f178 173d ba7c ef3d 6200 303d
00000020: e978 193c a842 2abd 4233 e6bd 60f7 98bd
00000030: 97eb 113e 7fc6 96bd 7b85 1d3d ddc5 823d
00000040: 2a6f 763c 9f3f b73c 8f6d 1a3e ae15 14bb
00000050: b351 263e e3ca 1bbd 8fce 27bc bcd5 f6bc
00000060: cd4d 313d a1da d73d b185 213d 48b0 d8bc
00000070: 8b3b d2bd 2b18 d73c 8aa0 9f3d 1d1a 943d
00000080: 489d 28be 60c8 8fbc 6bb0 a7bd 1d9b 5abd
00000090: 881b 0ebd 681c b6bd c2a0 9dbd 4709 27bd
000000a0: d8ea 37bc eb97 b23b 16a7 95bd c92e fd3d
000000b0: b792 dbbd 931c 7a3c 427f 48bd 83cf cbbd
000000c0: 3e00 a8bd 4581 093e 9ec2 68bd a958 893c
000000d0: 300c 833b 8cb8 f93a c66b 753d 8df2 a13d
000000e0: 11d6 fdbd 89ee 223e cefb ed3d 8245 e33d
000000f0: fd78 243e 4032 12bd a052 e33d 4cba 56bc
00000100: 88a7 0c3b b37a b53d 8f9d 0a3d 4d83 c3bd
00000110: 5e13 603d 903c 06be 25d7 dfbd 41c4 8d3d
00000120: 15e7 ff3d 2f15 663d 463c 773d b871 2c3e
00000130: 6dc4 873d 8035 9b3d ef33 32bd 4678 2fbd
00000140: fc2c 96bd 6f0d 0abd 2480 dcbd b84d 2bbe
00000150: 31bf 01be 20be 0f3d 301c bebd 783e 73bd
00000160: f2b4 893d cf55 edbd 9cf6 013e 7e84 16be
00000170: bc26 80bc 4e31 693a 82f5 fabd b042 98bd
00000180: ff84 8abd eaa5 353e 8d21 c73d 4763 f9bd
00000190: e2d3 74bd 0a57 f93d 7fed abbd 6a08 033e
000001a0: 50aa 2fbc c53a dfbc abf0 073e 0825 8fbd
000001b0: 9701 613d 4202 38bc aec2 ad3d 73b0 c93d
000001c0: ac22 fbbd 30c6 fbbd 0377 bf3c e06b 06bd
000001d0: 5ad5 bf3d 0cdf 5e3e 03cb 6abc beb3 cfbd
000001e0: 6eb2 fe3d 4632 c6bd b545 c0bd 569c 04be
000001f0: 0c42 a9bd 4468 b4bd 6c16 6dbc 27cd dc3b
00000200: 0c94 96bc 1366 403d 1b59 6cbd e58c 25bd
00000210: 2cfa 2f3d eb1d 893d 92e2 debc e29c 22be
00000220: 18ff 483d 2835 7dbd 8e97 f8bc 5c44 c43d
00000230: 389d 813c 4418 133b 752d 8dbe e051 ac3c
00000240: 1317 05be 5568 c6bc 9e0c d93d 7019 9cbd
00000250: 5a51 2c3c d694 d9bd e9a5 af3c 2e9c 903d
00000260: b938 adbd c785 373c e66b 26bd d448 f5bd
00000270: e33e a23b 4333 d93c dbf9 c5bd 9d33 f8bc
00000280: 4b7d 6d3d 6acf 6cbd 4346 d9bd fc25 c23d
00000290: 1f31 5abc 4fdb ca3d 246e b9bc 2f61 9cbd
000002a0: a0fa c03d 66f6 d8bd ea5f d43d d3dd c0bd
000002b0: 56f8 70bd 1233 13be 6414 47be 96c7 093d
000002c0: d328 ebbd 197c a9bc 3073 02be 3b07 90bd
000002d0: fa37 97bd 56a7 d13c f634 bcbb bae5 74bd
000002e0: 21f9 ebbd c1e2 23bd ba79 86bd 529d 8abb
000002f0: b1a6 c63d 30ea 483e 048a d0bd 2f4c 4d3c
00000300: 231c 983b ceae 7d3d 33cf c33d db58 963c
00000310: 72f1 993d 6f99 d0bc 46a7 e33d 0df5 073e
00000320: d3b3 833d 3306 8a3c 709f aabd 0b57 b73d
00000330: 5b45 2fbe a24d f8bb 07e0 bd3d da89 c6bd
00000340: 8aa2 c8bb 4413 b23b 00a9 c4ba 7976 62bd
00000350: 7756 1bbc 36a6 00bd 14aa aebd fcf3 f33d
00000360: f2a1 78bb d443 293d 1961 71bd 16db 143e
00000370: 97d3 fb3d 1bbb e03d 7e61 be3d a2af a0bc
00000380: 3ff9 173d abfd 4f3c 330a 0c3e eece 25bd
00000390: fc9a 39bd 0b94 803d 9b99 023e 80a9 503d
000003a0: 5a28 4abd 9819 98bd 348a 58bd 203f 41bd
000003b0: c6af 02be e52a 58bc b637 723d 2ad6 72bc
000003c0: 7e64 033e 9c71 1d3c 0ce6 983d aa2f 84bd
000003d0: 112e b43d 2776 ff3c ebf9 14bd ca6d b03c
000003e0: 1d96 883d 497a 46bd 030c 413d c03c d3bd
000003f0: 8992 cabc c50f 33be 5a4e ba3d 6b8f 373d

encoder.project.3.bias f4 [8]
-0.14063123 0.016968917 -0.005695657 -0.13490526 -0.069083266 -0.029659664 -0.08618554 0.10270976
00000000: a201 10be 6602 8b3c a2a2 babb 9b24 0abe
00000010: 877b 8dbd d3f8 f2bc 0b82 b0bd 7f59 d23d

decoder.0.weight f4 [64, 8]
-0.34470087 -0.07483344 0.18494494 0.25575057 -0.09772188 -0.0052563483 -0.22489394 0.29489392
0.21002306 0.1511463 0.2631081 0.25412247 -0.15811396 0.18297769 0.11462636 0.085253745
-0.23390615 0.44177556 -0.1580584 -0.41577664 -0.3196925 -0.050848838 0.33355755 0.06132603
0.05836341 0.106957324 0.18497705 -0.23544487 -0.016551096 0.012140725 -0.14733227 -0.33310068
0.30640888 -0.30538508 -0.0012866191 -0.45321724 -0.13708353 0.5790087 -0.52664894 0.106051914
-0.32842904 -0.2869923 -0.3493614 -0.0014486482 0.26185405 -0.23563452 -0.19418281 0.03520254
0.23456015 0.21467848 0.44669062 -0.39360458 -0.03606629 -0.30488744 0.2679644 0.12380856
0.3400274 0.31363413 0.023021227 0.07553147 0.3959905 0.08435943 -0.11518119 -0.18084268
0.058396306 -0.18677576 0.35489073 0.22843511 -0.34358212 0.15907325 -0.00089838257 -0.01801936
0.05740379 -0.06307579 -0.20892318 0.29433724 -0.05379348 -0.4976437 0.5502031 0.14370996
-0.01634222 0.18511385 0.037061434 0.04448606 -0.121921204 0.02587985 -0.3909489 0.24408898
0.2571346 0.03855963 0.043676637 0.25134337 -0.27221328 0.015366428 0.1451402 0.25280192
-0.20425355 0.062153533 -0.19237565 -0.18379898 -0.16487564 -0.33327976 0.5705002 -0.35464188
-0.26209334 -0.24417496 0.06494026 -0.28097695 0.16108412 -0.3222817 0.43557402 -0.19766682
0.35018495 -0.39942506 -0.27925587 0.14778475 0.2959748 0.022808414 -0.39546263 0.35988563
-0.073015876 -0.31307116 0.2684902 -0.22987838 -0.1594617 0.2883922 0.34587216 -0.12808129
0.23227772 -0.12824859 -0.08807531 -0.12534647 0.02813138 -0.22234765 -0.36209783 -0.3244099
-0.01887835 0.05498201 0.22348826 0.25954163 -0.11727113 -0.38369402 0.33613268 0.239712
0.15041524 -0.02766114 -0.05951769 -0.18268584 0.30903485 -0.13806392 -0.01573494 0.18245457
0.30746076 -0.355463 -0.25486085 0.21641539 -0.0012545688 0.43835756 -0.14951646 0.11258745
-0.0797852 0.021532236 0.21745148 -0.32343355 0.22374265 -0.06115155 -0.467622 -0.12128205
0.2561809 -0.018635089 0.106850214 -0.25580895 -0.30500355 0.105508186 0.48603427 -0.2617354
-0.29016158 0.43340412 0.13954133 0.09558609 -0.22846994 -0.22710669 -0.0124092065 -0.44684398
-0.02579582 0.06449578 -0.2212077 0.034804735 -0.017610956 -0.5081066 0.52769643 -0.35802746
0.12047618 0.0869653 -0.301333 0.12356059 -0.115021355 -0.5541194 0.5764412 -0.22171831
-0.056955628 0.16457641 -0.07612636 0.38705808 0.16521873 -0.2533174 -0.06851367 0.40203646
0.072645985 0.23661155 0.088418104 0.4123652 0.054540552 -0.26200473 -0.1354696 0.46350482
0.002243623 0.22986762 -0.7084646 -0.1636828 0.0134045575 0.46454653 0.2492244 0.3613039
0.045682132 -0.26359752 -0.7242193 -0.09038454 -0.27419806 0.3911342 -0.28591087 -0.11360981
0.123516925 -0.29703116 -0.02025495 0.057173155 0.37011042 0.12515847 0.1132174 0.3212264
0.35662955 0.28321797 0.34329924 0.26293638 0.37074217 -0.254054 -0.31994912 -0.28282
-0.18043558 -0.02950169 -0.09550143 0.06689045 -0.2056863 0.36582133 -0.36308438 0.3498134
00000000: a27c b0be 4642 99bd 3562 3d3e bdf1 823e
00000010: 6922 c8bd 723d acbb 994a 66be 56fc 963e
00000020: 4910 573e 18c6 1a3e 1bb6 863e 571c 823e
00000030: a0e8 21be 815e 3b3e 3ac1 ea3d 8499 ae3d
00000040: 1885 6fbe 6830 e23e 10da 21be ade0 d4be
00000050: bcae a3be df46 50bd 0ec8 aa3e 0131 7b3d
00000060: 790e 6f3d 710c db3d a06a 3d3e 7618 71be
00000070: 2a96 87bc e4e9 463c 45de 16be 2c8c aabe
00000080: a0e1 9c3e 6f5b 9cbe c6a3 a8ba 170c e8be
00000090: a05f 0cbe ea39 143f 77d2 06bf bf31 d93d
000000a0: da27 a8be a8f0 92be 7fdf b2be 91e0 bdba
000000b0: bc11 863e 2d4a 71be dcd7 46be 8a30 103d
000000c0: 8930 703e add4 5b3e a2b4 e43e 8a86 c9be
000000d0: 3fba 13bd 351a 9cbe a132 893e 588f fd3d
000000e0: 1218 ae3e a794 a03e 0397 bc3c 3eb0 9a3d
000000f0: 44bf ca3e a3c4 ac3d 1ee4 ebbd d32e 39be
00000100: f730 6f3d 2542 3fbe 3db4 b53e e5ea 693e
00000110: ffe9 afbe 19e4 223e 6f81 6bba 569d 93bc
00000120: 3d20 6b3d e12d 81bd f5ef 55be 5fb3 963e
00000130: 8d56 5cbd 28cb febe 1cda 0c3f b428 133e
00000140: 1fe0 85bc 7c8e 3d3e bbcd 173d 0437 363d
00000150: d3b1 f9bd fb01 d43c 742a c8be 76f2 793e
00000160: 25a7 833e b4f0 1d3d 46e6 323d 14b0 803e
00000170: 8a5f 8bbe 78c3 7b3c a29f 143e 416f 813e
00000180: d827 51be b494 7e3d 1ffe 44be cd35 3cbe
00000190: 29d5 28be a5a3 aabe 4d0c 123f 9f93 b5be
000001a0: 1931 86be 0009 7abe 66ff 843d 36dc 8fbe
000001b0: 3cf3 243e 1b02 a5be 8f03 df3e 2c69 4abe
000001c0: 714b b33e 7181 ccbe a0fa 8ebe e354 173e
000001d0: 028a 973e b6d8 ba3c 147a cabe ee42 b83e
000001e0: 5989 95bd dd4a a0be 8c77 893e 3d65 6bbe
000001f0: ee49 23be 24a8 933e 2816 b13e be27 03be
00000200: 36da 6d3e 9953 03be d460 b4bd d35a 00be
00000210: c873 e63c 1aaf 63be e364 b9be 0e19 a6be
00000220: c5a6 9abc d134 613d 1bda 643e a4e2 843e
00000230: d92b f0bd 8b73 c4be 9519 ac3e 1077 753e
00000240: 7406 1a3e 9d99 e2bc d2c8 73bd ff11 3bbe
00000250: d139 9e3e a160 0dbe 90e6 80bc 5fd5 3a3e
00000260: 7f6b 9d3e 3fff b5be 1f7d 82be ff9b 5d3e
00000270: 5870 a4ba 6770 e03e d81a 19be 4094 e63d
00000280: 6c66 a3bd 5f64 b03c 9aab 5e3e 1599 a5be
00000290: cb1c 653e 0c7a 7abd 276c efbe b962 f8bd
000002a0: 252a 833e 9da8 98bc 49d4 da3d 64f9 82be
000002b0: 6d29 9cbe ad14 d83d 7cd9 f83e 2f02 86be
000002c0: 0f90 94be 25e7 dd3e ece3 0e3e a4c2 c33d
000002d0: 06f4 69be a88e 68be fc4f 4bbc bcc8 e4be
000002e0: c151 d3bc 5d16 843d 4584 62be 698f 0e3d
000002f0: da44 90bc 4613 02bf 1d17 073f 604f b7be
00000300: 37bc f63d dd1a b23d 5248 9abe 560d fd3d
00000310: 5190 ebbd c5da 0dbf a791 133f 200a 63be
00000320: 4e4a 69bd b886 283e 23e8 9bbd 7a2c c63e
00000330: 192f 293e d1b2 81be e550 8cbd b9d7 cd3e
00000340: 6bc7 943d 4c4a 723e 8d14 b53d 8821 d33e
00000350: ea65 5f3d 7c25 86be 8bb8 0abe 8150 ed3e
00000360: bf09 133b 6b62 6b3e f05d 35bf 779c 27be
00000370: ca9e 5b3c 0bd9 ed3e ae34 7f3e d3fc b83e
00000380: 301d 3b3d 41f6 86be 7066 39bf 881b b9bd
00000390: b063 8cbe be42 c83e e962 92be 43ac e8bd
000003a0: 71f6 fc3d 7814 98be b5ed a5bc 662e 6a3d
000003b0: 1d7f bd3e 8b29 003e 86de e73d c977 a43e
000003c0: 2698 b63e f201 913e ebc4 af3e 999f 863e
000003d0: ebd1 bd3e 5e13 82be 5fd0 a3be c8cd 90be
000003e0: 1bc4 38be 87ad f1bc 4196 c3bd dcfd 883d
000003f0: 6e9f 52be ef4c bb3e 32e6 b9be be1a b33e

decoder.0.bias f4 [64]
0.005432527 -0.060786888 0.36708456 -0.06098003 0.41256115 0.54299515 -0.49820426 0.03144472
-0.39812982 0.3105398 0.37776253 0.0021810816 0.2096662 0.42929628 0.5145802 0.21089663
-0.13035984 0.08289973 -0.31722394 0.41784936 0.20435834 0.14921205 -0.009566054 0.38869494
0.26824898 0.28836104 -0.24766694 0.01853994 0.37161237 0.19211234 -0.42007256 -0.06545387
0.1007858 0.111869514 0.20283902 0.07277885 0.2768415 -0.09101464 -0.07943573 0.21367045
0.060655504 0.1037285 -0.03534851 0.4003352 -0.44351813 0.52763265 -0.15300578 0.27949962
-0.0591178 -0.45325154 0.1386699 0.39627287 -0.18263145 0.33097893 0.11522378 -0.083477624
0.1621595 -0.14062424 -0.040356457 -0.21563509 0.56049407 0.3145358 -0.06935369 -0.25871345
00000000: 5703 b23b acfb 78bd 82f2 bb3e 32c6 79bd
00000010: 373b d33e bb01 0b3f a114 ffbe 2ecc 003d
00000020: acd7 cbbe 13ff 9e3e 176a c13e 7af0 0e3b
00000030: bdb2 563e b9cc db3e 87bb 033f 49f5 573e
00000040: 0d7d 05be 55c7 a93d 2d6b a2be 5af0 d53e
00000050: 5043 513e 0bcb 183e f0ba 1cbc 0603 c73e
00000060: ee57 893e 0fa4 933e 679c 7dbe 12e1 973c
00000070: fa43 be3e 19b9 443e c013 d7be ae0c 86bd
00000080: c968 ce3d d81b e53d 08b5 4f3e 140d 953d
00000090: 2bbe 8d3e e265 babd 33af a2bd 6dcc 5a3e
000000a0: e871 783d 9c6f d43d 99c9 10bd bcf8 cc3e
000000b0: cf14 e3be ef12 073f 8cad 1cbe 931a 8f3e
000000c0: 8225 72bd 9610 e8be 7bff 0d3e 47e4 ca3e
000000d0: bd03 3bbe 1276 a93e 72fa eb3d 51f6 aabd
000000e0: 240d 263e cdff 0fbe d04c 25bd 72cf 5cbe
000000f0: 8a7c 0f3f d60a a13e 4f09 8ebd 1776 84be

decoder.3.weight f4 [2, 64]
0.104986586 0.03344507 0.041875426 -0.09407422 0.19347167 -0.10287176 -0.15210447 -0.09095603
0.044450756 0.1682829 -0.049464703 -0.001401928 0.31288677 0.24986067 -0.12804082 -0.17579783
-0.17918275 0.12690032 -0.17170058 -0.34970108 -0.012539208 0.07529649 0.068204135 0.2832328
0.34855193 -0.12567733 -0.13694102 -0.31894848 -0.41797897 -0.1617672 -0.1337451 0.01113361
-0.032582853 -0.22798884 0.22392245 -0.15488167 0.30215898 -0.028653141 -0.16331074 0.268878
-0.12310489 0.025423246 0.040019337 -0.39629963 -0.123763375 -0.111705564 0.206557 -0.07977962
0.19479918 -0.10419512 -0.01128244 -0.2242454 0.08040722 -0.28816584 0.050053224 -0.124027625
-0.1891211 0.0024950858 -0.09586591 0.08300987 0.090425074 0.059857693 -0.28053838 -0.16982992
-0.02513597 0.06485704 0.23487477 -0.05999308 -0.4092922 -0.2655147 0.15320665 -0.06629136
0.19069642 -0.0035114703 -0.19262327 -0.051494382 0.05165008 0.17177483 -0.23892888 0.14222854
-0.16285777 0.15469232 0.0295174 -0.29559535 -0.14764169 0.27852646 -0.22634108 0.0014522295
-0.011962749 -0.044818006 0.15218422 0.1737913 -0.052733183 -0.24849865 0.036061294 -0.13881442
0.10018382 0.010977989 0.123688444 0.18426724 0.09397561 -0.14736858 -0.1272988 -0.1861797
0.36156738 0.23010212 0.16209811 0.20020849 0.0770425 -0.2974704 -0.12343459 -0.310352
-0.21782437 -0.040337835 0.05989679 -0.29856825 -0.046560954 -0.022172533 0.243993 -0.00043011675
0.15979128 0.1404364 0.13845202 0.11847393 -0.20712617 -0.35414472 -0.03903476 0.07219878
00000000: 3503 d73d b3fd 083d 9185 2b3d fca9 c0bd
00000010: 701d 463e 6eae d2bd 46c1 1bbe 2847 babd
00000020: ff11 363d 5a52 2c3e 809b 4abd e6c0 b7ba
00000030: b232 a03e 7adb 7f3e 221d 03be 5904 34be
00000040: af7b 37be 28f2 013e 47d2 2fbe 050c b3be
00000050: 4071 4dbc 0c35 9a3d 9cae 8b3d e403 913e
00000060: 6675 b23e 8fb1 00be 443a 0cbe 374d a3be
00000070: 5701 d6be 4da6 25be 7af4 08be bf69 363c
00000080: 9975 05bd e875 69be ed4b 653e 4d99 1ebe
00000090: 95b4 9a3e feb9 eabc ee3a 27be 61aa 893e
000000a0: 6b1e fcbd 6944 d03c 51eb 233d c9e7 cabe
000000b0: a777 fdbd e3c5 e4bd ae83 533e 7f63 a3bd
000000c0: 7079 473e 4064 d5bd fcd9 38bc 96a0 65be
000000d0: 8aac a43d 798a 93be 9c04 4d3d 3202 febd
000000e0: f6a8 41be 9884 233b 5955 c4bd 1401 aa3d
000000f0: c830 b93d 572d 753d baa2 8fbe e5e7 2dbe
00000100: f3e9 cdbc c5d3 843d 0383 703e 4ebb 75bd
00000110: bf8e d1be 8bf1 87be 34e2 1c3e c4c3 87bd
00000120: ec45 433e b220 66bb 093f 45be c6eb 52bd
00000130: 098f 533d bee5 2f3e c6a9 74be 5ca4 113e
00000140: 30c4 26be aa67 1e3e 79ce f13c 4658 97be
00000150: 622f 17be 059b 8e3e f5c5 67be bc58 be3a
00000160: 68ff 43bc 1693 37bd 2ed6 1b3e 59f6 313e
00000170: c0fe 57bd 6e76 7ebe 02b5 133d 5e25 0ebe
00000180: 2d2d cd3d 06dd 333c 5e50 fd3d 8db0 3c3e
00000190: 4976 c03d cae7 16be 9e5a 02be e4a5 3ebe
000001a0: 5c1f b93e e49f 6b3e 0cfd 253e 7403 4d3e
000001b0: 75c8 9d3d 0a4e 98be 46cb fcbd 75e6 9ebe
000001c0: 5a0d 5fbe 4939 25bd 5656 753d f0dd 98be
000001d0: b3b6 3ebd 2ca3 b5bc 4dd9 793e 4b81 e1b9
000001e0: 53a0 233e 8fce 0f3e 5ec6 0d3e 76a2 f23d
000001f0: e218 54be 7552 b5be eae2 1fbd f4dc 933d

decoder.3.bias f4 [2]
-0.013184896 -0.13349131
00000000: 7605 58bc f2b1 08be
