my_latent_sde/sdes/best_sde_0.pth (torch, 198389 bytes, 28 tensors)

_orig_mod.encoder.gru.weight_ih_l0 f4 [192, 2]
000000 bb 2d 66 3d 8c 91 c9 ba 15 51 93 3c cd d2 18 bd
       0.056195956 -0.0015378459 0.017982999 -0.03731041
000010 f6 53 e7 bd 8a 38 bc 3c c8 17 87 3d 8f ba 43 3d
       -0.11295311 0.022976179 0.06596333 0.047785338
000020 24 82 98 3d 37 34 ee bd 05 51 1e bb f9 ca 8d 3c
       0.07446697 -0.11631053 -0.0024157178 0.017308699
000030 84 0a 8f bc 4c c1 71 3d b3 38 b2 bd a6 57 1d 3c
       -0.017461069 0.059022233 -0.08702221 0.009603417
000040 c6 4e 7c 3d eb 1f 82 3d 77 21 75 bd 1e f9 30 3c
       0.06159856 0.06353744 -0.059846368 0.010801582
000050 a8 6b f5 bd 69 9e dd 3d b9 21 5e bd dc e9 4a 3d
       -0.119834244 0.1082123 -0.05423138 0.049539432
000060 b7 f7 46 3d bc ac ac bd 0f 27 d2 bd 1e 80 4a bd
       0.048576083 -0.08431384 -0.10261356 -0.04943859
000070 d6 5c 2f bb 10 f1 3a bb a5 cb 56 3d 50 06 c5 3d
       -0.0026758215 -0.0028525032 0.052440304 0.09620345
000080 59 41 de 3c 16 b1 9c bd 21 91 a3 3d da 18 73 3d
       0.02713077 -0.07650964 0.079866655 0.059349872
000090 fe 99 8b 39 ec 61 b1 3c 61 e3 c4 3c 1b ed da bd
       0.0002662688 0.021653138 0.024034204 -0.106897555
0000a0 d5 1b b9 3d c6 d2 df bb f9 bb 24 b9 0f 1f fb bc
       0.09038512 -0.006830546 -0.00015710284 -0.030654458
0000b0 30 7c a2 bd 93 3d a6 bd 53 28 61 3d cc 4f 04 3d
       -0.07933843 -0.08117213 0.054970097 0.032302663
0000c0 62 48 9a 3d 97 74 aa bd 5a 4a 8d bd 6c 98 ef 3c
       0.07533337 -0.08323019 -0.06898947 0.029247485
0000d0 83 61 93 bd d4 36 34 3d c2 56 ab bd 10 b1 3d bd
       -0.07196333 0.0439976 -0.08366157 -0.046311438
0000e0 88 ae 0c bd ff 39 b9 bd b6 28 b4 bd 08 25 a2 bd
       -0.034346133 -0.09044265 -0.087968275 -0.079172194
0000f0 60 e7 4a 3d c5 54 5d 3c fc 0c ba bd 5b 91 94 3d
       0.049537063 0.01350898 -0.09084508 0.07254287
000100 1a 18 e9 bb 3e d9 8d bd 31 4b 87 bc 80 ea c9 3d
       -0.007113469 -0.06926201 -0.016515346 0.098591805
000110 1e b7 8e bc d8 c6 7f bc 7e fa 1d 3d 42 cb 78 3d
       -0.017421301 -0.015611373 0.038568966 0.060740717
000120 52 9e ae bd 41 e2 ff bc d9 a9 b2 3b 0b fa 8a bb
       -0.08526291 -0.031235816 0.0054523763 -0.004241233
000130 1a a9 d9 bd e5 eb 03 ba 51 62 cb 3d 61 ca 9c 3c
       -0.10627957 -0.00050324044 0.09930862 0.01913947
000140 a7 8a 84 3d 7e cb dc 3d 43 d6 c0 3b 22 4a a5 3d
       0.06471758 0.107810006 0.005884917 0.0807078
000150 c4 15 10 3c ab eb b9 bc 0d 00 c5 bc 0b 43 77 bd
       0.008794252 -0.022695383 -0.024047876 -0.06036667
000160 6b 2a 97 3c 7d 71 bf bd 13 c7 e2 bd e9 a9 39 bd
       0.018452844 -0.09347818 -0.11073127 -0.045328055
000170 fc d7 19 bc 57 f1 bd 3d fc eb 45 bd 5c b7 05 3d
       -0.009389874 0.092745475 -0.048320755 0.03264557
000180 0f 47 17 bd d2 f6 2a 3c 20 a8 1a bd d4 71 91 3d
       -0.036933 0.010434823 -0.037757993 0.07101789
000190 95 e5 d2 bd c9 29 aa bd 6c b8 d4 bd 65 99 5f 3b
       -0.102976955 -0.08308751 -0.10386738 0.003411853
0001a0 26 e6 83 bd 66 5d 79 3d 60 6c b6 3d 4d 31 05 bd
       -0.06440382 0.060880087 0.0890739 -0.03251772
0001b0 88 98 16 bd e4 cc 90 3d 7d 57 d2 bd 58 d9 77 bc
       -0.03676656 0.0707033 -0.10270593 -0.015127502
0001c0 94 59 d1 3d a1 c7 29 3d 5e 6e 9a bd 65 19 ce 3d
       0.10222164 0.041450147 -0.07540582 0.10063437
0001d0 be 2d ba bd 1c 8e 86 bd bd 02 4a bd 3c 92 56 bc
       -0.09090756 -0.06570074 -0.049319018 -0.013096388
0001e0 fe 21 a1 bd 7a 28 76 bb 92 41 e1 3c 5d f6 a9 3c
       -0.078678116 -0.0037560747 0.027497087 0.020747358
0001f0 67 09 9d bd 54 f4 85 bd d9 ac 14 3d 0f b6 e7 3d
       -0.07667809 -0.065407425 0.036297653 0.11314022
000200 3b 3f 90 bd c9 90 e5 3d 9e d8 ca bc 4b 75 02 3a
       -0.0704331 0.11209256 -0.024761494 0.00049765845
000210 d5 16 9b 3d 68 fd a8 bd f0 2d 5e 3d f6 97 12 bd
       0.07572714 -0.082514584 0.05424303 -0.035789452
000220 9f ff 87 3d 91 64 92 3d f7 eb d2 3d 0d 1e 8d bc
       0.06640553 0.07148088 0.10298913 -0.017226243
000230 20 3c df bc 75 b8 cf bd ae ce 96 bd b1 8c d4 bd
       -0.02725035 -0.10142604 -0.0736364 -0.10378397
000240 b1 53 05 3d 4e 6c 8a bd e5 fc ea bc b0 b0 9a 3b
       0.032550517 -0.06758939 -0.028685043 0.00472077
000250 68 b1 fe 3c fe b0 55 bd 4b 91 9b bd 02 bd 11 3d
       0.031090453 -0.052170746 -0.07596072 0.035580643
000260 d1 24 3b bd 80 84 c3 bb a8 55 89 bd 27 e8 27 3d
       -0.045689408 -0.005966723 -0.06705791 0.040992882
000270 5d d2 8c bb 1f aa 45 bd a2 a3 5e 3d 87 f7 cf bd
       -0.004297538 -0.048257943 0.05435527 -0.10154634
000280 57 ee 1f 3b 5c 90 25 bd db ed b7 3d c9 1d 35 bd
       0.0024403536 -0.040420875 0.08980914 -0.04421786
000290 d8 d6 d5 bc 7a ef a8 bd a1 22 ae 3d 33 8c eb bd
       -0.026103422 -0.082488015 0.08502699 -0.1150135
0002a0 fd a1 4a bd 01 b6 b0 3d b0 8c b4 bd e8 b7 7f 3c
       -0.04947089 0.086284645 -0.088158965 0.0156078115
0002b0 f8 a3 8e bd 09 a3 23 3d a8 60 de 3d b7 51 72 bd
       -0.06964868 0.039950404 0.108582795 -0.05915996
0002c0 6e 5c e0 bb 42 9d ad 3c d5 15 e5 bd b2 d9 8b 3c
       -0.006846956 0.02119315 -0.11185805 0.017071579
0002d0 8c cf 8a 3d 41 59 e2 ba 83 91 ba 3d bf 97 33 bc
       0.06777868 -0.0017269031 0.091097854 -0.010961472
0002e0 85 f5 80 3d 56 7f ea bd 64 94 e3 bd 2f 49 0c bd
       0.06296829 -0.11450069 -0.11112288 -0.03424948
0002f0 61 7d ef 3d d4 c0 bf bd 9a 37 6b 3c 15 c6 8b 3d
       0.11693836 -0.09362951 0.014356518 0.068248905
000300 03 06 f1 3a e5 ea c2 bd 34 d3 30 bd f1 48 d6 3c
       0.0018388632 -0.09517459 -0.04317017 0.026157828
000310 49 94 ba bc 61 c7 67 bd b3 25 ec 3c 4f 8b d6 3d
       -0.022775786 -0.056586627 0.02882657 0.1047579
000320 68 b5 e2 bd 43 eb 07 bd 3e b3 df bb 3f 9f a3 3d
       -0.11069757 -0.033183347 -0.0068267873 0.07989358
000330 d4 0f d7 bc ff 43 42 3b 61 72 24 bc 7d 25 b3 bc
       -0.026252665 0.002964258 -0.010037036 -0.021868462
000340 45 6e e9 3d 3f 74 9a bd 43 30 17 bd fb 86 a4 3d
       0.11397985 -0.075417034 -0.03691126 0.08033558
000350 b4 3e e2 3d 5b 2b 3c bd af 4a cc 3d 8f 52 8d bd
       0.11047116 -0.045939784 0.09975182 -0.069005124
000360 6c 70 c8 3d b7 6f a3 3d b0 13 b2 bd 56 6c d6 bd
       0.09787068 0.07980292 -0.08695161 -0.10469882
000370 1d df de 3d ff 13 b2 bd 57 25 9e 3c ec 4a fa 3b
       0.10882399 -0.0869522 0.019304914 0.007638326
000380 0f 64 2b bd 09 3a e2 bd 2c 26 c6 bd 7b f1 30 3d
       -0.04184347 -0.110462256 -0.096752495 0.043199044
000390 61 e1 3e bd e3 20 55 bd ac 9b ae bc 58 d3 6a bc
       -0.046601657 -0.052033316 -0.021314465 -0.014332615
0003a0 b2 f0 d7 bd 6e 26 f4 bb ee 31 ca 39 1c b4 de bd
       -0.10543956 -0.0074508702 0.00038565643 -0.10874197
0003b0 ee aa 5e 3d f6 ce de 3d d2 a0 84 bc 80 fd 68 bd
       0.05436223 0.108793184 -0.016189966 -0.05688238
0003c0 16 88 48 3c 26 10 a6 bc e2 00 c3 bb de 87 61 3d
       0.012239477 -0.020271372 -0.005951033 0.055061214
0003d0 49 fd 86 bd aa 15 5b bd 8a f2 25 bd 76 f7 3e bd
       -0.06591279 -0.053487457 -0.040514506 -0.046622716
0003e0 83 8c b2 3c 78 1a 2e 3c ac bc 3a bc dc 56 36 bd
       0.021795517 0.010626428 -0.011397522 -0.04451643
0003f0 52 ee 4e bd 5e 14 e5 bd 3e c1 a4 3d e7 da 95 3d
       -0.05052025 -0.11185525 0.080446705 0.07317143

_orig_mod.encoder.gru.weight_hh_l0 f4 [192, 64]
000000 b5 41 9c bc c8 ec ed bd 28 cc d7 bd ec 20 df bd
       -0.0190743 -0.11617428 -0.105369866 -0.10894951
000010 34 8c 41 bb be 4e ab 3d 82 59 98 3d 81 4f a4 bd
       -0.002953303 0.08364628 0.07438947 -0.08022977
000020 11 a8 39 bd 35 8f 96 3c e4 6d fd bb 49 6b 02 bd
       -0.045326296 0.018378833 -0.0077340472 -0.031840596
000030 f4 1b c4 3d 1c 5a 9c bd 33 d4 d5 3d 41 a6 b3 bd
       0.09575644 -0.076343745 0.104408644 -0.08771945
000040 2a 36 9d bc 90 f4 82 3b 5e 23 37 3d 74 66 d2 3d
       -0.019190867 0.0039964393 0.044711463 0.10273448
000050 06 ef 08 3b de 22 55 3d c2 bf 26 3d 2d 6c c0 ba
       0.0020894422 0.052035205 0.04071022 -0.0014680676
000060 3c 7c 46 bd f8 e3 7c 3c f1 4e c6 bc f0 39 de 3d
       -0.048458323 0.015435211 -0.024207564 0.108508945
000070 bd b3 5d 3d b8 02 43 3c ec 89 6f bd 83 f9 82 3d
       0.05412649 0.011902504 -0.058481142 0.06395247
000080 44 c1 7c bd 86 b0 e0 3d 1c 1b c4 ba 9b 57 1d bc
       -0.06170775 0.10971169 -0.0014961693 -0.009603406
000090 27 f8 71 bc a1 87 9b bd ad 20 5e 3d 72 88 79 3d
       -0.014768637 -0.075942285 0.05423038 0.06092114
0000a0 06 e2 c4 3d 1b 00 97 3d 43 54 b1 bd 10 75 04 bc
       0.09613423 0.07373067 -0.0865865 -0.0080845505
0000b0 fc fb 45 3c 1d 8a 1b 3d a5 15 ad bd 9c bd 9f bd
       0.012084004 0.037973512 -0.08451394 -0.07799837
0000c0 3d e2 5f 3c 2b e6 c3 bc 20 1a 67 b8 3f 3b e3 3d
       0.013664779 -0.023913464 -5.5099023e-05 0.11095285
0000d0 33 b8 7d 3c aa 95 36 3d 5a e3 76 bc d1 59 b9 3c
       0.015485811 0.044576325 -0.015068853 0.022625836
0000e0 5f 78 e5 3d ed b5 4a 3d af 99 51 bc f1 c6 30 3d
       0.112045996 0.049489904 -0.012792989 0.043158475
0000f0 ba 60 38 3c fc 86 84 3d 76 e6 b8 3d 6c 18 5a bc
       0.01125353 0.06471059 0.09028332 -0.013311487
000100 dd 32 6b bd 52 80 7b 3c 83 75 b5 3c 90 80 72 bd
       -0.057421554 0.015350418 0.02215076 -0.059204638
000110 24 a4 31 3d 27 84 a2 3d 5e b5 ec bd 88 2d ac bc
       0.043369427 0.07935362 -0.115580305 -0.021017805
000120 f5 03 9e bd 59 c4 ab 3c 8e 18 55 3d fc 66 d6 bd
       -0.077155985 0.02096765 0.05202537 -0.104688615
000130 a0 b8 0f 3d 93 95 ce bd db 06 fe 3c f1 6f 95 bd
       0.03508818 -0.10087123 0.031009128 -0.07296742
000140 87 bd ff 3c b2 20 8f 3c 72 ab db 3d 89 8d 34 bd
       0.031218303 0.017471645 0.1072606 -0.04408029
000150 8c 56 0f 3b 24 31 a0 bb ef 64 c2 3d 83 be a5 bc
       0.0021871654 -0.0048886705 0.09491908 -0.020232445
000160 22 30 03 bc 50 48 ef bc da 21 4e bb 22 66 91 bc
       -0.008007081 -0.029209286 -0.0031453283 -0.017748896
000170 16 83 07 3d 61 bc 9c 3d 34 13 f3 3a a1 78 ce bd
       0.033083998 0.07653118 0.0018545152 -0.10081602
000180 61 94 5b 3a ae 49 88 bc c3 bc 26 3d 3f ab 65 3d
       0.0008376297 -0.016636696 0.04070736 0.056071516
000190 1a d4 3c 3d bd d3 e2 3c 2d a8 10 3d 9e 5d 96 bd
       0.046100713 0.027688855 0.035316635 -0.07342075
0001a0 6f 19 9a 3c 46 4c 78 bd b4 2c cf bd 06 e8 e0 bd
       0.018810956 -0.060619615 -0.10115948 -0.10981755
0001b0 a8 cb e3 bc 98 5d 87 bc 8c e3 95 bc 8d 6b a5 bd
       -0.027807072 -0.016524121 -0.01829698 -0.08077154
0001c0 37 20 2b 3c 68 cd 42 3d e0 45 af bc 56 4e 6b bd
       0.010444692 0.047559172 -0.021395624 -0.057447754
0001d0 2e ee ca 3a 18 66 86 bd 00 cf 7e bc 0d ff 0b bc
       0.001548236 -0.065624416 -0.015552282 -0.008544696
0001e0 3f a0 9f bd ef b8 2c 3c 8f 68 40 ba a3 5f 37 3d
       -0.077942364 0.0105421385 -0.0007339799 0.04476894
0001f0 37 eb e3 bb b5 21 65 bb 19 84 b1 3d 25 e7 9e 3d
       -0.00695553 -0.0034962718 0.08667774 0.07758931
000200 2a 79 9e 3d 64 6a 56 3c 93 52 d7 3b 04 70 97 bd
       0.07737954 0.013086889 0.006571123 -0.07394412
000210 be 40 b2 3c c8 01 5a 3b 2e ba d9 bd 41 ae 98 3d
       0.021759387 0.0033265222 -0.10631214 0.07455111
000220 e5 1a 0b bb 80 18 71 3d eb c4 08 3b ca 78 06 3d
       -0.0021225747 0.058861256 0.0020869325 0.032830037
000230 94 8b 95 3c b2 98 57 3d 18 80 ae bd 14 4c 8d bd
       0.018255033 0.052635856 -0.08520526 -0.068992764
000240 d0 a9 ec bd c2 5e bc bb 99 e5 ca 3c fb 2c 97 3d
       -0.11555827 -0.0057486007 0.024767684 0.07381626
000250 ac 1e b3 3b bf d9 62 3d 19 68 33 3d bd d3 83 ba
       0.005466303 0.05538344 0.043800447 -0.001005761
000260 1f a9 04 3d 19 2f 32 bd af 48 44 bd 36 c1 32 bc
       0.03238785 -0.043501947 -0.04792088 -0.010910323
000270 78 67 63 bd 0f 9d ba 3d f9 73 2d bd da 6b e9 3d
       -0.055518597 0.09111988 -0.04234693 0.11397524
000280 a2 01 91 bd a6 f6 d1 b9 1a 8c 53 3d 26 1a c0 bd
       -0.070803896 -0.00040047354 0.051647283 -0.093799874
000290 69 cd a9 bd 59 4d bd 3c 2c 35 1a bd 2c 17 50 bd
       -0.08291132 0.023108171 -0.037648365 -0.05080335
0002a0 38 14 02 3b 98 c3 80 bc 14 51 ab 3d 71 a9 db 3d
       0.0019848477 -0.015718266 0.08365074 0.10725678
0002b0 0b bb 94 bd 17 05 c9 bc eb 39 ca bd a6 2e ce 3d
       -0.07262238 -0.02453856 -0.09874328 0.10067491
0002c0 f2 a6 33 3d dc f3 78 3b f4 d7 8d bc 3b 78 e9 3d
       0.043860383 0.0037987148 -0.017314889 0.11399885
0002d0 0f 05 ae bd dc c7 e7 bd c5 85 3d bd 67 83 a2 3d
       -0.084970586 -0.11317417 -0.04627015 0.07935219
0002e0 50 f3 fc ba 28 a0 de 3b e8 42 66 bb a3 45 2e bd
       -0.0019298587 0.0067939945 -0.0035135094 -0.04254688
0002f0 14 8d 61 ba 95 bc f7 3c 1a 71 e2 bc aa 31 a9 bd
       -0.0008604091 0.03024129 -0.027641822 -0.08261426
000300 85 0a c5 3c ef b7 5e 3d 01 f0 64 3d 64 4b bd bd
       0.024052868 0.05437463 0.055892948 -0.09242895
000310 91 72 01 3d 40 e9 cc 3d fd 3c 3a 3d 0f dd 61 bc
       0.0316034 0.100054264 0.04546832 -0.013785615
000320 a9 8c 8a bc cb 80 eb bc 0e 82 e1 bd a8 f0 02 3d
       -0.016912775 -0.028747937 -0.11011134 0.03196779
000330 6f 72 e7 bd dd 33 d4 bd 13 ec b3 bd aa be 8f bc
       -0.11301123 -0.10361455 -0.08785262 -0.01754697
000340 ed cf a3 3d c4 a5 c4 3d fe 72 9c 3d bb 50 0b 3b
       0.07998643 0.0960193 0.076391205 0.0021257836
000350 3f 06 d6 bd 54 ee d3 3b 89 80 64 3d 8a da f3 3c
       -0.1045041 0.00646762 0.055786643 0.029767293
000360 4f 71 ca 3d 62 35 cb bd c4 10 a2 3b 5e 79 03 3b
       0.09884893 -0.09922291 0.0049458463 0.0020061354
000370 10 f8 c7 3c 01 35 6c bd 25 44 92 3d 64 b5 da 3d
       0.024410278 -0.057667736 0.07141904 0.10679129
000380 18 85 a2 3d 8d 73 8b bd 12 44 0f 3d 87 d5 aa bd
       0.07935542 -0.06809149 0.034977026 -0.08341508
000390 c9 7f 9a bd d7 91 bc bd f7 f6 25 bd 34 4d 69 3d
       -0.07543904 -0.09207504 -0.040518727 0.056958392
0003a0 29 89 b6 bd d7 14 72 bd 04 a2 ce 3d 1e f7 0c 3d
       -0.0891288 -0.059101906 0.10089496 0.034415357
0003b0 c6 62 03 3d 2d 32 67 3d 4d f0 98 bd 22 b3 da bd
       0.03207662 0.056444336 -0.07467709 -0.10678698
0003c0 2d 42 e6 3d 40 d6 2d bd 43 ad df 3d 44 b5 e6 3d
       0.11243091 -0.042440653 0.10921719 0.112650424
0003d0 7c 29 48 3d 2f a3 90 bd 96 7e c6 3d 3a 69 c6 bd
       0.048867688 -0.07062375 0.09692113 -0.09688039
0003e0 d2 0c c8 3d 3c ac fe bb 16 49 29 3d 18 5e e7 3d
       0.0976807 -0.007771997 0.041329466 0.11297244
0003f0 7c 4b 64 bd 9c b0 ff ba ce f8 ba 3d 3e 30 36 3d
       -0.05573605 -0.001950759 0.09129487 0.0444796

_orig_mod.encoder.gru.bias_ih_l0 f4 [192]
000000 10 81 e6 bd 39 c9 98 3d 1e 91 bd 3d 9d 7f e5 bc
       -0.112550855 0.07460255 0.092561945 -0.028014952
000010 96 53 38 bd ef 03 a4 bd cf ce 1f 3b 41 81 90 3c
       -0.04500159 -0.08008563 0.0024384742 0.017639758
000020 f6 d5 7e bc 60 47 40 bd 25 e0 c4 3d e2 5e 97 3c
       -0.015553942 -0.04694307 0.09613065 0.01847786
000030 5a 44 93 bd ed 34 3f bd 50 f4 00 3b ff 3b e5 3d
       -0.071907714 -0.046681333 0.0019676872 0.11193084
000040 5d c3 3a 3c de 35 9f 3b c3 7a 56 3c 36 31 c3 bd
       0.011399117 0.0048587164 0.013090792 -0.095308706
000050 34 22 a2 3d 6b ac 89 bd c4 8c a3 3c 49 b8 85 bd
       0.0791668 -0.06722339 0.019964583 -0.0652929
000060 35 3c ca 3b 17 57 0f bd 7b a2 e9 bb cc b4 b7 bc
       0.006171728 -0.034995165 -0.007129965 -0.022425078
000070 0d b1 2b 3d 70 67 a1 3d 6c 32 17 3d a9 00 ca bd
       0.041916896 0.07881057 0.03691332 -0.09863407
000080 1f 55 3a bc f3 2b 30 ba dc 57 dd 3d 0c 2f e7 bd
       -0.0113728335 -0.0006720416 0.108077735 -0.1128827
000090 e4 98 a2 3a 7c 3e 04 3c 4d 0a 90 3c f1 0d c0 3d
       0.0012405184 0.008071538 0.017583037 0.09377659
0000a0 60 52 86 3c f7 45 40 bc 66 02 f5 39 a9 f1 6e bd
       0.016396701 -0.011735431 0.00046731828 -0.058335934
0000b0 44 b1 ba bd 2f dd cf 3d 84 00 98 3c 6e 7a a8 bd
       -0.09115842 0.10149609 0.018554933 -0.082264766
0000c0 c4 63 39 bd ba b4 4c 3d a3 e9 10 bd 3b ef b2 bd
       -0.04526116 0.04997704 -0.035379063 -0.08737036
0000d0 e0 00 a6 bd e9 b8 ce bd 62 58 ba bc 0e 0d 4a bd
       -0.08105636 -0.100938626 -0.022747222 -0.049328856
0000e0 c8 6b 74 bc c1 3b 86 3d 2e ff f7 3b fd 5a a2 3a
       -0.014918275 0.06554366 0.0075682616 0.0012386736
0000f0 e8 50 d4 3d a3 64 a4 bd 54 c7 bf bd f1 63 83 bc
       0.10366994 -0.080270074 -0.09364191 -0.016038867
000100 6a 3d ac 3d 94 b5 a9 3d db e8 00 bd af 4e 0e 3d
       0.08410151 0.082865864 -0.03147207 0.034743007
000110 50 1c 4e 3c 51 69 55 bd b3 48 94 bb c9 3b a6 bd
       0.012579992 -0.05210239 -0.004525268 -0.08116872
000120 27 3a da bd 85 40 b6 bd 6b d1 d1 ba 0b 2e 84 bd
       -0.10655623 -0.08899025 -0.0016007846 -0.064540945
000130 29 cc 5a 3d 76 0f be 3d 7b 92 d1 3c e6 18 79 3d
       0.05341736 0.09280293 0.025582543 0.06081476
000140 e4 cf a0 3d 35 d4 e0 3c 1a ac 8f bb 8c bc c2 3d
       0.07852152 0.027444938 -0.00438453 0.09508619
000150 1d db 4d bd 53 3c 1d bd bf 02 d0 3d e1 79 96 3c
       -0.05025779 -0.038387608 0.10156774 0.018368663
000160 36 19 7b bd 26 6a 84 3c 9e ee 07 3d 70 f8 83 3d
       -0.06130334 0.016163897 0.033186547 0.0644387
000170 1b b2 c2 3c 10 e8 e3 bd e5 d9 f7 3a 20 a2 25 3d
       0.023766568 -0.11128247 0.0018909542 0.040437818
000180 06 0f 83 3d 46 3b ec bd 5e eb 28 bd 19 a0 d7 3c
       0.0639935 -0.11534743 -0.04124009 0.026321458
000190 6b 49 57 bd dc f6 a5 3c 14 f9 88 3b 7a 71 6e bd
       -0.05256025 0.020259313 0.004180083 -0.05821369
0001a0 80 66 3e 3d 95 5f 70 3d f5 47 9a 3d 5f 27 b3 3c
       0.04648447 0.058684904 0.07533256 0.02186936
0001b0 d8 bf 3c bd 6e d8 82 bd 9a 18 6b 3d c6 86 bb 3d
       -0.046081394 -0.06388937 0.05739651 0.09156565
0001c0 7b 4b d0 3d 63 5f 67 3c 60 d3 54 bd e9 c1 f2 bc
       0.10170647 0.014121863 -0.051959395 -0.02963348
0001d0 92 87 af 3d 7b d4 55 3d 55 b4 43 bd 39 6c 1d 3a
       0.0857078 0.05220459 -0.0477794 0.0006005201
0001e0 e5 89 9b 3d 62 9a 3f 3d 5e 8e 37 3d ec a5 e5 bc
       0.07594661 0.04677809 0.044813506 -0.02803322
0001f0 55 20 b0 bc 6d 2b 50 bd 00 83 68 36 e9 a3 b9 3d
       -0.021499792 -0.050822664 3.4646946e-06 0.090644665
000200 76 e5 b4 bc 60 40 99 bd 51 ae 3c bd 4e 1c 62 3c
       -0.022082072 -0.07482982 -0.04606468 0.013800694
000210 e4 9a ed 3d 88 b3 9d bd 5d 8d 87 3c 89 b5 73 3c
       0.11601809 -0.077002585 0.0165469 0.014874824
000220 34 03 ed 3d ec b3 ad 3d 4b 5f e1 3d bb c0 c5 3b
       0.115728766 0.08481583 0.11004504 0.006034938
000230 13 c2 b0 3b a6 dc 53 bd 39 9c d7 3d 37 ab ab bd
       0.005394229 -0.0517241 0.10527844 -0.08382266
000240 33 0d a3 bd cb 09 9d 3c 20 63 af bd 74 ab d8 3d
       -0.07961502 0.019169709 -0.085638285 0.10579577
000250 8e 2a c1 bc f0 ac a7 3d c9 2b 3c bd 60 a0 4b bd
       -0.023579862 0.08187282 -0.045940194 -0.049713492
000260 ea a7 cb 3d ad 42 42 3c 74 8a d7 bb 70 05 6d bc
       0.099441364 0.011856717 -0.006577784 -0.014466628
000270 c6 8b 92 bd 45 d6 18 3c 53 81 f2 3d 04 0b 5d 3d
       -0.07155566 0.00932843 0.11841073 0.053965583
000280 eb 6b 55 3b fe 98 ac bd cb b5 79 bd 28 43 57 3d
       0.0032565545 -0.084276184 -0.060964387 0.05255428
000290 0e 31 e8 bd f2 2a 82 3d e0 4c 3d 3d 24 b6 58 3d
       -0.113374814 0.063558474 0.04621589 0.052908078
0002a0 6c bd 5d 3d cb 1e 50 3d f3 63 9d 3d 4f a1 c3 bd
       0.054135725 0.050810616 0.076850794 -0.095522515
0002b0 59 e1 0b bd 4d 4c 88 bc a6 fb b7 3d c4 70 93 3d
       -0.034150455 -0.016637946 0.08983545 0.07199243
0002c0 46 e1 d6 bd 67 de 30 3c 07 8e 9f 3d 15 b1 c2 3d
       -0.10492186 0.010795212 0.077907614 0.09506432
0002d0 cf 5e f7 3d e1 35 b0 3d ac 1c b9 3d ce dd ce bd
       0.1207863 0.086040266 0.09038672 -0.101009
0002e0 7f 4f da 3c 87 19 21 3d e1 7f 81 3c 75 93 79 bd
       0.026649235 0.039330985 0.015808048 -0.06093164
0002f0 85 95 96 3d 03 39 f3 3b a6 42 40 3c 35 ab 16 bd
       0.07352737 0.007422568 0.01173464 -0.03678437

_orig_mod.encoder.gru.bias_hh_l0 f4 [192]
000000 68 71 39 bb 34 4d b6 39 99 54 8f 3d 1e b8 f7 bc
       -0.0028296355 0.00034771266 0.069985576 -0.030239161
000010 47 a5 01 bd e1 83 75 3d e7 c2 c9 bc c5 0a 8b bd
       -0.03165176 0.059940223 -0.02462907 -0.067891635
000020 34 24 a2 bd 90 c8 1a bd 28 2b 51 3d 9c 05 cb 3d
       -0.079170614 -0.037788928 0.051066548 0.09913179
000030 b2 ba 9a 3d 8a b4 b8 ba 02 6f ad bd bb d7 eb 3b
       0.075551406 -0.0014091891 -0.08468439 0.007197348
000040 e9 04 32 3d de 2e e1 bd ba 3f 69 bd 82 51 c4 3d
       0.043461714 -0.10995267 -0.05694554 0.09585859
000050 09 cf 07 bd 57 b0 20 bd b0 55 47 bd 3c 0b d9 3d
       -0.03315643 -0.03923067 -0.048665702 0.10597846
000060 0f 7e 33 3d ba 03 5b bd 8a 9a ee 3c f6 0c 5b 3c
       0.04382139 -0.05347035 0.029126424 0.013369789
000070 04 7e d3 bd ab dd 3c bd e0 10 c5 3d f8 bd 92 bd
       -0.1032677 -0.046109837 0.09622359 -0.0716514
000080 06 77 a0 3d 03 db 97 3c a0 fc 65 bd 8f f1 7d 3c
       0.07835202 0.01853705 -0.056149125 0.015499487
000090 ee 80 2f 3d 71 10 a8 bd 97 94 dc bb 0c db 95 3d
       0.042847566 -0.08206261 -0.0067315805 0.073171705
0000a0 a1 ab 56 3d 71 d4 9e 3d 7f 37 eb 3c b2 c3 96 bd
       0.05240977 0.07755364 0.028712986 -0.07361545
0000b0 1b c3 9d bd d6 92 c4 3d 66 4c 8f bd c0 67 d9 bd
       -0.07703229 0.09598319 -0.06996994 -0.10615492
0000c0 82 17 68 bd 68 26 d8 3c 6a 14 fa ba 75 db 9a bd
       -0.056663044 0.026385501 -0.001907957 -0.07561389
0000d0 07 92 e5 ba 84 0e 7f bd f7 27 6f ba a0 21 c5 bd
       -0.0017514833 -0.062269703 -0.00091230817 -0.09625554
0000e0 c0 27 c7 b7 17 d1 42 bd c3 8a dd 3c dd 3e c2 3b
       -2.3741159e-05 -0.047562685 0.027043706 0.005927904
0000f0 e3 79 9b bd bb 41 2f bd 12 4d 06 3d c5 71 18 3d
       -0.075916074 -0.042787295 0.032788344 0.037217874
000100 8c e9 ce bd b5 4f da bd b4 fd a3 3c 87 ec 78 3a
       -0.10103139 -0.10659734 0.020018436 0.00094956945
000110 60 75 cf bc 14 95 b6 bd 7d 56 6d bd 4c 43 5a 3d
       -0.025324523 -0.08915153 -0.05794381 0.053286836
000120 a4 fa a1 3d 34 b7 16 3b 7e 8c 93 3a 60 ab 6c bd
       0.07909134 0.0022997381 0.001125708 -0.057780623
000130 37 05 e2 bd 55 c2 41 bc 7e aa e2 bd b2 00 b7 3c
       -0.11036151 -0.0118261175 -0.11067675 0.022339199
000140 ab c8 30 bd 74 d6 bc 3d 85 1e 99 ba 1f a1 a3 bd
       -0.043160122 0.09220591 -0.0011682069 -0.07989716
000150 a0 f2 cb 3d 37 e1 61 bd 5a a8 6f 3d ed c3 0a bd
       0.099583864 -0.055146422 0.058510162 -0.033878256
000160 8d 59 bf bd ba cc c8 3d 47 e0 10 3c 66 31 42 bd
       -0.09343252 0.098046735 0.008842534 -0.04741039
000170 cf ed 76 bc 4b 1b 9c bd 28 06 67 bd 75 b5 ea bd
       -0.015071346 -0.07622393 -0.056402355 -0.114603914
000180 c1 9f b3 bd 73 03 7d 3d bb 75 79 3d a7 c5 5e 3d
       -0.08770705 0.061770868 0.060903292 0.054387715
000190 17 4e bf bd 6c 08 65 3a c9 08 9f 3d 2d f1 85 3d
       -0.09341066 0.00087369117 0.077653475 0.06540141
0001a0 42 37 2d 3d b3 f5 a9 bb 26 58 fa 3b 65 51 8c bd
       0.042289026 -0.0051867603 0.0076399026 -0.06851462
0001b0 cf af cf bd 08 b2 73 bd ca de bd bd 2b 5f 75 3d
       -0.10140955 -0.059495956 -0.09271009 0.059905212
0001c0 4f 6b c4 3d 97 52 38 3a 79 e2 24 3d f7 5b b6 bc
       0.0959078 0.000703135 0.040255044 -0.02226065
0001d0 15 37 d8 bd c3 09 65 bd cf 87 80 3c 43 91 5d 3a
       -0.10557381 -0.055917513 0.015689759 0.00084521266
0001e0 71 6e 7c bd b1 44 b6 3d dd 47 3b 3a f6 ec 6a 3d
       -0.061628763 0.088998206 0.00071441924 0.05735489
0001f0 01 69 71 bd eb 6a c8 3a 19 18 04 3d b4 f0 cd 3d
       -0.05893803 0.0015290653 0.032249544 0.10055676
000200 2f 2d 37 3d fc 9d b6 bd f6 ae a3 bc 5e ef 5f 3d
       0.044720825 -0.08916852 -0.019980889 0.054671638
000210 3d f4 c0 bd 44 2f 91 bd f2 bd aa 3b 22 fb 36 3d
       -0.09421585 -0.07089093 0.0052106315 0.044673093
000220 02 62 a6 3d 6f 2b fa 3c 03 a6 4d bd 33 29 9d 3d
       0.08124162 0.030538289 -0.05020715 0.07673874
000230 5a bc 94 3d d2 db b7 bd 15 01 f6 bc 68 48 2f bd
       0.07262488 -0.08977474 -0.030029813 -0.04279366
000240 cc ae c2 bd c2 35 d9 bd c9 fc af 3d ce e7 59 bd
       -0.09505996 -0.106059566 0.08593137 -0.05319958
000250 c2 7c c6 bc d8 15 a1 bc 53 b5 d7 bd 28 a1 c1 3d
       -0.024229411 -0.019663736 -0.10532632 0.09454566
000260 ab df ec 3d d5 dd 95 bd 58 08 02 3d 1e 63 5f 3c
       0.11566099 -0.07317702 0.03174624 0.013634471
000270 ff 0c 8e bd 1a dd 5c 3c 30 45 b3 bd 8c 27 1b 3d
       -0.069360726 0.013480449 -0.08753431 0.03787951
000280 20 eb b8 bd 40 06 4a 3d 84 e7 eb 3d 36 65 2c 3d
       -0.090292215 0.049322367 0.115187675 0.04208871
000290 18 e4 cf 3b af 9c 16 bd 18 c5 e6 3d f5 f3 ec bd
       0.0063443296 -0.03677052 0.112680614 -0.115699686
0002a0 8a 53 9f bc ca d1 a6 3d 47 a0 64 bd 83 1f c2 bb
       -0.019449014 0.08145483 -0.055816915 -0.0059241666
0002b0 cc 8c 3b bb 71 aa ad 3b c6 a5 d7 bc 1d 2b e1 bd
       -0.0028617857 0.005299859 -0.026324164 -0.10994551
0002c0 7f dc b6 3d b8 ea 06 bc cf fa 5b 3d 29 50 16 bd
       0.08928775 -0.008234672 0.053705987 -0.03669754
0002d0 af b4 ed bd c8 21 92 bd 67 71 ad 3d f1 d5 7a 3d
       -0.11606728 -0.071353495 0.084688954 0.061239187
0002e0 a8 f2 8d 3d b4 d1 88 3d 91 c6 84 bd 1e 48 24 bd
       0.06931049 0.06680623 -0.06483186 -0.04010784
0002f0 ab fe 53 3d 0f 46 a9 bd 20 8d 28 3d 66 a1 06 bd
       0.051756542 -0.08265316 0.041150212 -0.032868765

_orig_mod.encoder.project.0.weight f4 [64, 64]
000000 ce 43 85 bd 7c 53 b2 bd 30 81 e5 3b ef ac b7 3c
       -0.06507073 -0.0870733 0.0070039257 0.022421328
000010 d7 8e c5 bd 94 ab 9d bd 19 57 54 3d a0 9d 28 b9
       -0.09646385 -0.076987416 0.051840875 -0.00016080448
000020 d0 45 c7 bd 52 7c da bd 93 63 0c 3d d7 73 56 3c
       -0.097301126 -0.106682435 0.03427465 0.013089142
000030 01 2c 0e 3d b8 02 11 bd b2 95 fb 3c 41 50 21 3d
       0.034709934 -0.035402983 0.030711029 0.039383177
000040 11 c9 1a bd 3e d2 db 3d cd 01 e3 3d b5 30 23 bd
       -0.037789408 0.1073346 0.11084328 -0.039841373
000050 ec ab 32 bd bd bc d2 bd 8d 02 aa bd fe b0 4e 3d
       -0.04362099 -0.10289905 -0.08301268 0.05046176
000060 de 9f c5 bc c9 9e 8d bc f9 34 e1 3d 3e 28 d9 3d
       -0.024124082 -0.017287629 0.10996432 0.10603379
000070 d8 be bd bd 7c 59 00 3d a4 fa 95 3d dd e5 ab bc
       -0.09264916 0.03133534 0.073231965 -0.02098363
000080 2f 11 16 3d 99 07 d7 3c 5f c8 69 bd 55 64 91 bd
       0.03663748 0.02624874 -0.057075854 -0.07099215
000090 1f 2c c0 3c cb 19 b4 bd db d1 da bd 1e 6e 19 bd
       0.023458539 -0.08793982 -0.10684558 -0.03745853
0000a0 a9 e0 e8 bd c7 6e 0c bc d3 63 99 3b 49 e8 ac bc
       -0.113709755 -0.008571333 0.0046810894 -0.021106856
0000b0 7c 16 c9 3d 78 77 cb 3d a2 b4 ab bd a7 17 be 3c
       0.09818742 0.09934896 -0.08384062 0.023204638
0000c0 72 d1 11 bc f3 14 ae bd 20 dd e5 bc 37 38 3c 3d
       -0.008900033 -0.085000895 -0.028059542 0.04595205
0000d0 3f 45 48 3d f9 8b 8e 3d c4 69 90 3d e5 64 26 3d
       0.048894163 0.069602914 0.07051423 0.040623564
0000e0 f5 e0 97 bd 1a a2 ba bd e0 28 91 3d 49 73 11 bd
       -0.07415954 -0.0911295 0.070878744 -0.035510335
0000f0 5d c1 dc 3c 2f bb 0a bc 06 9d ce bd 02 b0 e4 bd
       0.026947672 -0.00846748 -0.100885436 -0.11166383
000100 13 0a 90 bd 04 18 f3 bc 8d 88 eb bd d7 97 b0 3d
       -0.070331715 -0.029674537 -0.11500654 0.08622711
000110 17 d7 94 3d 2d ce d7 3d 43 7f dc 3d cf 6c 73 bc
       0.07267588 0.10537372 0.10766461 -0.014857485
000120 ec ba 42 bd c7 fe c8 3d 5d 42 95 bd 85 d2 9d bd
       -0.047541544 0.0981422 -0.072880484 -0.07706169
000130 b8 9a ac bc cc 95 b0 bd aa 96 00 be 77 42 5d 3d
       -0.02106987 -0.086223215 -0.12557474 0.054018464
000140 62 11 d5 bd e5 f5 81 bd 94 f1 d4 3d d1 0e c4 bc
       -0.10403706 -0.06345729 0.1039764 -0.023932846
000150 b1 16 2a 3d b2 f0 ec 3b 90 6d c3 bc 88 24 39 3b
       0.041525546 0.0072308416 -0.023855954 0.0028250534
000160 8d cf d2 3d 39 72 46 3c 4e 02 98 bd 38 28 c2 bd
       0.102934934 0.012112194 -0.074223146 -0.09480327
000170 5e 6e dd 3d c1 07 13 3b b0 f3 c8 3b ac 58 ed 3c
       0.108120665 0.0022435042 0.0061325654 0.028972946
000180 2b d6 04 bc 1c 7b ae bd 76 ca 42 bc 29 37 95 bd
       -0.008107702 -0.08519575 -0.011889091 -0.072859116
000190 84 4c d9 3c 1e db 6e 3d 87 02 1f 3c e2 30 b4 bd
       0.026525743 0.058314435 0.009705192 -0.08798386
0001a0 0b af 7e bd 85 af ee 3d 24 1a d9 bd b8 d9 9c 3c
       -0.062178653 0.116545714 -0.10600689 0.019146785
0001b0 c2 96 e3 3d 87 29 e4 3d 7e 84 a8 3d ff 7e 46 3b
       0.11112739 0.11140733 0.08228396 0.0030288098
0001c0 12 17 b6 3a d2 e3 8e bd bc be e7 bd a5 b8 98 bc
       0.0013892374 -0.06977047 -0.113156766 -0.018642733
0001d0 60 70 b0 bd 9a 05 97 3c 0a 8f e0 bd a0 c7 f0 3d
       -0.08615184 0.018435288 -0.109647825 0.117568254
0001e0 01 d8 38 bc 9d 9e 99 bd 24 a0 bd 3d 0a bb a9 bd
       -0.011281968 -0.07500956 0.0925906 -0.08287628
0001f0 71 5e 12 3d 68 bf 0b bd 2e 21 af 3c 55 2d 9a bd
       0.035734598 -0.034118086 0.021378126 -0.07528178
000200 d0 72 f4 bc 6b b9 84 3d bd 4d a9 bd 79 00 b2 3d
       -0.029839903 0.06480678 -0.082667805 0.086914964
000210 02 92 b5 3c 64 44 83 3c 1f 4a e2 3d a5 e4 86 3d
       0.022164349 0.016023822 0.11049294 0.06586579
000220 10 2b 7c 3d df 21 71 3d 1b 9a 69 bd 93 8f b2 bd
       0.061564505 0.058870193 -0.057031732 -0.08718791
000230 91 fc b5 bd e4 41 93 3c ac 74 7e bd d0 8a 93 bd
       -0.08886064 0.017975755 -0.062122986 -0.07204211
000240 c6 9a cc 39 88 2f d3 3d f7 65 e1 bd ab 52 9c bd
       0.00039025227 0.103118 -0.110057764 -0.07632955
000250 f7 ba ab 3d d3 ae 72 bd 93 41 69 bd 2a ca 64 3d
       0.0838527 -0.059248757 -0.056947302 0.05585686
000260 ef 68 99 3c 40 49 50 3d 8a e2 ea bd 21 8f 28 3d
       0.018726794 0.050851107 -0.1146899 0.041152123
000270 c9 a4 8b 3d 60 7e d1 bd fe 8e be bd 13 62 c8 bd
       0.0681854 -0.10229182 -0.09304617 -0.09784331
000280 c7 00 9a 3c 45 c1 2c 3c b8 78 64 3d d5 4e ff bb
       0.018799199 0.010544126 0.05577919 -0.00779138
000290 1c c3 38 3d eb 42 ef 3c 0f 16 b6 3d 86 c2 dd bd
       0.045107946 0.029206714 0.08890926 -0.10828118
0002a0 3f dc fb 3c e7 f1 85 3d 99 91 cb bd 18 ee d6 bd
       0.03074467 0.0654028 -0.0993988 -0.104946315
0002b0 f5 0f 49 bd d0 fa a7 3d 15 2b e0 bd e7 1f b1 bd
       -0.049087483 0.082021356 -0.10945717 -0.08648663
0002c0 d2 56 88 3d 4b 6c 87 bd 1b d0 c5 3c 51 35 32 bd
       0.06657185 -0.06612452 0.024147084 -0.043507878
0002d0 46 f0 8b 3d 30 09 4d 3c 10 58 d3 3c 47 44 93 bd
       0.06832938 0.0125143975 0.025798827 -0.07190757
0002e0 f9 e4 59 bd 45 d3 91 bd be 92 9e bc d4 18 94 3d
       -0.05319688 -0.071203746 -0.019357082 0.07231298
0002f0 2b c8 49 bc a9 95 f2 bc 87 d2 84 3d 4e 00 ae bd
       -0.01231579 -0.02961238 0.064854674 -0.08496152
000300 0e 0e d4 3d 55 bf dd bd fa c7 72 bb de 62 22 bd
       0.10354243 -0.10827509 -0.0037045465 -0.03964507
000310 67 8d bb bc 92 68 48 bd b0 68 99 3d fa 16 80 3d
       -0.022894574 -0.04892785 0.07490671 0.062543824
000320 ce ac 8d 3d 8c ee b2 bd ab 59 c1 bd 4b a6 47 bd
       0.069177255 -0.087369055 -0.09440931 -0.048742574
000330 9f 95 c0 bd 35 05 a8 bd e6 bb a3 bd b6 41 90 bd
       -0.09403538 -0.08204118 -0.07994823 -0.07043783
000340 af 21 cf 3d 84 7d 09 bd 67 b9 d1 3c d6 fd b2 bd
       0.101138465 -0.033566967 0.025601102 -0.087398216
000350 3d 65 a8 bd 66 0d d8 bd a8 98 00 bc 48 45 af bd
       -0.08222435 -0.105494305 -0.007848896 -0.08558136
000360 5a fb 9b 3d c6 a1 1c bd 16 11 b8 bd e7 9a 97 3c
       0.07616301 -0.038240217 -0.08987634 0.01850648
000370 55 04 a6 bd 4e 4c bb 3d 92 da c1 3d 6d 18 06 3d
       -0.08106295 0.09145413 0.09465517 0.032738138
000380 b1 8e 29 bd fc c3 5f bc 6b 35 49 3d e6 83 7d 3d
       -0.041395847 -0.013657566 0.04912321 0.061893366
000390 ff 90 88 3d cf c0 84 3d c9 7d 9f bc d8 d1 d2 bc
       0.06668281 0.06482088 -0.019469159 -0.025734827
0003a0 e8 df 22 bd cf ef a0 bc ce 64 ed 3c 70 e4 14 bd
       -0.039764315 -0.0196456 0.028978731 -0.036350667
0003b0 4d f0 a2 bd 81 31 a3 3c 11 fa f5 3d 0d 00 88 bb
       -0.0795599 0.019921066 0.12010587 -0.0041503967
0003c0 56 9e 66 3d 59 4a ce 3d e9 ca bd bc a8 97 b6 3d
       0.056303345 0.100727744 -0.023168044 0.08915645
0003d0 d0 1a b7 bd e0 d4 be bd 50 f8 f9 3c c5 d4 e2 bd
       -0.08940661 -0.093179464 0.030513912 -0.11075739
0003e0 43 f6 12 3d c3 28 e6 3d db a1 e6 3d 47 94 d2 3d
       0.035879385 0.112382434 0.1126134 0.10282188
0003f0 f0 ef ba 3d 53 1a 1d bd 89 7b ce bd 87 d6 c4 3c
       0.09127796 -0.038355183 -0.10082156 0.024028076

_orig_mod.encoder.project.0.bias f4 [64]
000000 a2 27 95 3c 61 d2 ec 3d f8 ab 9d 3d 28 88 85 bd
       0.018207375 0.11563564 0.07698816 -0.0652011
000010 c3 c3 c1 bd 45 34 c5 bd 9a 8f a3 bd 30 58 d5 bc
       -0.09461167 -0.0962911 -0.07986374 -0.026043028
000020 da f8 25 3d 39 b1 3f 3d 20 6d 85 3d a4 07 44 3d
       0.040520526 0.046799872 0.065149546 0.04785885
000030 03 9e c2 3c d4 80 a6 bd b8 8a eb ba e3 26 99 3b
       0.023756986 -0.08130041 -0.0017970419 0.004673825
000040 fc 16 d3 bd b4 ee 35 3d 2b 22 06 3d a4 ef 9a 3d
       -0.10307118 0.0444171 0.03274743 0.07565239
000050 64 2b 82 3b fd 3d b6 3d 42 36 d6 3d a4 e0 05 bd
       0.0039724577 0.08898542 0.104595676 -0.032684937
000060 ef 53 a4 3c 13 82 eb bd d3 44 75 bd cb 96 d6 bd
       0.020059554 -0.11499419 -0.05988009 -0.1047798
000070 f9 e3 14 3c cb f3 ee 3d 78 c7 d8 3d 21 01 3f bd
       0.009087556 0.116675936 0.10584921 -0.046631936
000080 51 67 50 3d 79 fe 9d bc 3a cf 31 3d 30 82 b9 bd
       0.05087978 -0.019286381 0.043410517 -0.090580344
000090 f9 73 92 bc 91 be a1 3d 2f ec 49 3d e0 b5 c3 3d
       -0.017877566 0.07897676 0.049297508 0.09556174
0000a0 24 b0 a8 bd 22 8c 21 bc bd e6 8e bd 69 08 19 3d
       -0.08236721 -0.00986007 -0.069776036 0.037361536
0000b0 ae a6 ab 3d 37 8d 8b bd 03 de cb bb 80 7c c7 3c
       0.08381401 -0.06814044 -0.006221534 0.024351358
0000c0 7a f4 33 3c 13 c9 9d 3d b0 0f ec 3d e9 45 9a 3d
       0.010983581 0.077043675 0.1152643 0.075328656
0000d0 1a c0 9c 3a dc e9 d2 bd 25 c9 88 bd a0 e5 c3 3d
       0.0011959106 -0.102985114 -0.0667899 0.09565282
0000e0 f7 e1 85 3d 03 cc d9 3c 35 22 63 3d 56 9e be 3d
       0.0653724 0.026586538 0.055452544 0.09307544
0000f0 bc 72 1f 3d e3 1b bf bd 77 4f c4 3d a2 9e 1c bc
       0.03892778 -0.09331491 0.09585469 -0.009559305

_orig_mod.encoder.project.3.weight f4 [8, 64]
000000 ca 18 17 bd 6b 35 df 3c 41 90 24 3d 2f e7 c7 bd
       -0.036888875 0.027247151 0.040176634 -0.09760892
000010 63 92 df bd b7 e1 87 bc 5c 36 9b bd 1d 95 a0 bd
       -0.10916593 -0.016587121 -0.075787276 -0.07840941
000020 b1 af 91 bd 52 59 57 bd d5 36 e2 3d f2 49 c1 3d
       -0.071135886 -0.052575417 0.11045615 0.09437932
000030 82 43 8d bd b7 35 61 3d 6b ab 55 bc 17 06 7b 3d
       -0.06897642 0.054982867 -0.0130413575 0.061285105
000040 81 e9 e2 bd 78 cc 3c 3b 0e 4c 81 3d e9 27 c2 bd
       -0.110796936 0.0028808396 0.063133344 -0.094802685
000050 0b f5 98 bd 14 e3 df bd 9f 26 21 3d b7 61 cc 3d
       -0.07468613 -0.109319836 0.039343473 0.09979575
000060 88 52 da bd 10 2e 3f bd dc f8 8b 3a 2c 1e 91 3d
       -0.10660273 -0.046674788 0.0010679024 0.07085833
000070 3f dd 50 3d 72 79 6b bd af e1 35 bd ed d7 ea bd
       0.050992247 -0.057488866 -0.04440468 -0.11466966
000080 23 cb 0f bd ab 5b 97 bd a4 b4 b6 bd 60 db 8d bd
       -0.035105836 -0.07390531 -0.08921173 -0.06926608
000090 45 eb d2 bd 7f d1 f0 3b 8b 30 29 bd b7 cb f6 3c
       -0.1029878 0.0073491926 -0.04130606 0.030126436
0000a0 44 1b 57 bc 28 a3 eb bd 6c c9 f3 3d e2 52 eb bc
       -0.013129059 -0.11505729 0.119036525 -0.028726045
0000b0 99 64 cd bd 73 03 06 bd 7b 19 c1 bd f3 a3 3f bd
       -0.10028953 -0.032718133 -0.09428688 -0.046787214
0000c0 bb b4 06 bc b4 4b 7a bd 44 c0 cd 3d ba c4 5f 3d
       -0.0082218 -0.061107352 0.100464374 0.054630972
0000d0 ea 2b 39 3d 97 a7 d2 3d b1 4a 38 3d 7a 97 eb bd
       0.045207895 0.102858715 0.044993106 -0.11503501
0000e0 f4 04 13 3d fc 2a 1b bd d1 73 ed bd fd b8 b2 bd
       0.035893396 -0.03788279 -0.11594356 -0.0872669
0000f0 ba 56 8e bd ee 84 bc bd b5 be 96 bc 78 64 b8 3d
       -0.069501355 -0.09205042 -0.018401483 0.09003538
000100 f2 7c ca 3b 06 8d c3 3c e1 dd 8f bd f3 c1 ce 3d
       0.0061794454 0.023870956 -0.07024742 0.10095587
000110 d8 e2 1c 3d 07 74 b0 3a bf cc e2 bd 2e 44 9b 3d
       0.038302273 0.0013462313 -0.110742085 0.075813636
000120 af 3c b5 bd 5d d0 ca bd 45 12 20 3c 7d bd ca bd
       -0.08849465 -0.099030234 0.009769981 -0.09899423
000130 7e a5 98 bb 2e db 8a 3d c8 ee fe 3c de 14 b5 bd
       -0.0046584 0.067800865 0.03111972 -0.08841871
000140 93 f2 d6 bd be 91 58 bd 40 7e 59 3c 57 19 c9 3d
       -0.10495486 -0.052873366 0.013274729 0.09819286
000150 06 13 78 3d 58 91 8f 3c a8 c6 af 3d 02 e8 af 3d
       0.060565017 0.01752536 0.085828125 0.08589174
000160 89 9f 49 bb 2e 61 31 bd 97 a8 ce bd b7 86 54 3d
       -0.0030765256 -0.04330557 -0.1009075 0.051886287
000170 d9 bd 3a 3d 84 e4 d3 bd 8b 4c d3 3d 84 77 b0 bd
       0.04559121 -0.1034632 0.10317334 -0.08616546
000180 a7 f4 cc bd 22 2c d1 3d 60 cc be 3c a7 60 89 3d
       -0.10007601 0.10213496 0.023290813 0.06707888
000190 31 2f bd bd 9a bf 65 bd 9c 33 d2 3d ac 39 81 bd
       -0.09237517 -0.05609093 0.1026375 -0.06309828
0001a0 a1 7d de 3d eb f6 d2 3c ff 95 de bd 92 78 3b bd
       0.108638056 0.025752505 -0.10868453 -0.04576928
0001b0 be 2f 03 3d 9b 3a 8a bd 82 ff ee 3d 7a 2f b9 bd
       0.032027952 -0.06749459 0.11669828 -0.090422586
0001c0 32 46 d9 bb 73 ee 92 3d 0c 33 8d bd 4a 54 75 3a
       -0.0066306824 0.07174387 -0.06894502 0.00093585683
0001d0 cc f9 55 bc 01 0e f7 bc e6 e9 85 bd d5 ce 95 bc
       -0.0130600445 -0.030158045 -0.06538753 -0.018287102
0001e0 55 60 e4 bd ad 56 f9 bc d7 3f 9f bd 6e 6e 39 3b
       -0.111511864 -0.030436838 -0.07775848 0.002829458
0001f0 5a 96 f3 bc 4e 18 4d bd 79 0e 6b 3b f3 b4 43 3d
       -0.02973478 -0.050072007 0.003586678 0.04777999
000200 9a 94 00 be 8b ad c6 bd b3 05 b0 3d d4 2c b3 3d
       -0.12556687 -0.097010694 0.08594837 0.08748785
000210 69 ce 47 bd 4c ea b7 3d ff 09 01 3e 97 42 54 3d
       -0.048780832 0.089802355 0.1260147 0.051821318
000220 5e d2 7c 3c 2e 38 09 3d a7 3d 01 3d c3 a1 94 3d
       0.015431015 0.033500843 0.031552937 0.07257416
000230 df 61 6b bd 6b 4b 6d 3d 67 51 22 bd 19 0b 98 bd
       -0.057466384 0.057933252 -0.039628413 -0.07423992
000240 91 d4 86 3d 2c 08 b1 bd 82 39 05 bd bc 6c 87 bd
       0.065835126 -0.08644137 -0.032525547 -0.06612536
000250 f9 37 83 3d 95 70 ad 3d de 0f ad 3d 94 ba fe 3b
       0.0640716 0.08468739 0.08450292 0.0077737067
000260 e0 10 8e 3d 9f aa dd bd b9 6d a7 3c b3 80 0b bc
       0.069368124 -0.10823559 0.020438062 -0.008514571
000270 b4 17 8c bc d1 4e b7 bd 50 e9 a5 bd c2 33 8a 3d
       -0.017101146 -0.0895058 -0.081011415 0.06748153
000280 d1 ac 55 bd 60 e7 e8 3d 89 20 d9 3d 7a cd 34 3d
       -0.052166764 0.11372256 0.10601909 0.04414127
000290 15 6d e3 bd dc 6d 15 3c 4c de 65 3b 81 d0 ed 3d
       -0.1110479 0.009120431 0.0035075126 0.116120346
0002a0 37 ac d1 3c 71 53 ae bd e5 1b db bd fc 1d e0 3c
       0.025594814 -0.08512009 -0.1069868 0.027358048
0002b0 7c 84 ab bc 33 93 cc bd 30 a0 a5 3d 45 ce 00 be
       -0.020937197 -0.099890135 0.08087194 -0.12578686
0002c0 86 51 af bd f3 1c da bd 26 2f 07 bb 6d 9e b2 bd
       -0.08560471 -0.10650053 -0.0020627468 -0.087216236
0002d0 30 64 d0 bb b6 5c c9 3d 0a 98 cc bc 52 5c 74 3d
       -0.0063595995 0.09832136 -0.024974842 0.059658356
0002e0 30 0c c0 ba 14 ea 46 bb c6 2b 10 3d 6f c1 dd 3d
       -0.001465207 -0.0030351924 0.035197996 0.1082791
0002f0 29 70 4c bd 3f 10 c1 3c af 72 88 bd b7 29 ac 3d
       -0.04991165 0.023567317 -0.06662499 0.08406394
000300 7b c8 fc bb e7 5e 1d bd 8c 6d 5b bb 6a ec bc 3d
       -0.007714329 -0.038420584 -0.0033482043 0.0922478
000310 4c 82 e3 3d ea 8f c7 3d 6b 95 48 3d be 40 e8 3a
       0.111088365 0.09744246 0.04897062 0.001771949
000320 24 5b a9 bd d5 f6 f2 bc 72 54 f0 bd cd 31 2b bd
       -0.08269337 -0.029658714 -0.11734857 -0.04179554
000330 3a 3b 8f bb 51 f5 3a 3d 68 ae 7f bd 02 75 58 bc
       -0.004371074 0.04564411 -0.062422186 -0.013211491
000340 11 e5 aa bd 69 d0 2b 3c 8b 07 fb 3c 88 85 e1 3d
       -0.08344472 0.010486701 0.030643245 0.11011797
000350 c3 32 00 bd 0d 11 00 3e 3c e8 aa 3c 2a f0 05 bd
       -0.03129841 0.12506504 0.020862691 -0.03269974
000360 d5 15 f0 3c c0 e7 a5 bd fa da 5c 3c f7 16 4e bc
       0.029307285 -0.081008434 0.013479942 -0.012578717
000370 20 c8 5b bd ed d7 92 3d 96 b5 69 bc 60 ce 37 3d
       -0.05365765 0.07170091 -0.014264485 0.04487455
000380 47 16 5e bd b0 78 bb bc d0 be 08 3d 89 e6 b3 3d
       -0.054220464 -0.022884697 0.033385098 0.087842055
000390 97 4d fe 3d ef f0 4b 3d 2b d3 0f bd 51 68 8a 3d
       0.12417143 0.04979032 -0.035113495 0.06758178
0003a0 cb a3 93 3d 97 11 f5 bd c7 7b 01 be 5b 85 b5 bd
       0.072089754 -0.119662456 -0.12644874 -0.08863326
0003b0 87 bf 8c bd 9c a8 b1 bd 7c 92 c1 bd 0c bd da bc
       -0.068724684 -0.08674738 -0.09451768 -0.026701473
0003c0 65 01 b6 3c 52 84 f9 3d 68 8c 6a 3d 46 c5 f5 bc
       0.022217462 0.12183441 0.057262808 -0.030001294
0003d0 ed 8e b4 bd 70 85 01 bd b2 d3 79 bd a8 ab 04 be
       -0.088163234 -0.031621397 -0.060992904 -0.12956107
0003e0 80 a5 8b 38 10 1d f5 3b d6 bb be bd a1 78 d5 bd
       6.658863e-05 0.007480271 -0.093131706 -0.10423399
0003f0 a6 26 0b bd a5 39 a5 bd 3a 68 46 bc 87 19 e8 bd
       -0.033972405 -0.080676354 -0.0121098105 -0.11332994

_orig_mod.encoder.project.3.bias f4 [8]
000000 88 f8 99 bd 9d 57 6e 3d 04 c4 17 bc 48 c0 8f bd
       -0.07518107 0.058189023 -0.009263042 -0.070190966
000010 fa fe 93 bd 40 7b 82 3d 9f b6 ec 3d 66 67 c8 bd
       -0.07226367 0.06371164 0.1155827 -0.09785347

_orig_mod.decoder.gru.weight_ih_l0 f4 [192, 9]
000000 eb 6a 84 bc 5f 98 6e bd fd fa ce bd 68 70 79 bc
       -0.016164264 -0.05825078 -0.10106466 -0.015224554
000010 b9 be 32 bd 0a 4b c7 bd 12 87 c0 3d 00 5b cc 3d
       -0.04363892 -0.097311094 0.094007626 0.099782944
000020 4b c6 f2 3d df 5f 6b bd e3 63 27 bd 0f 23 ee 3b
       0.11854228 -0.057464477 -0.040866744 0.007267363
000030 a1 b2 b5 bd 93 65 81 bb 8d 43 5c bc 3c a8 a7 3d
       -0.088719614 -0.003948876 -0.01344384 0.08186385
000040 62 1a 53 3b fc 1f 7c bd 64 54 80 3c 3d d9 3b 3d
       0.003221177 -0.06155394 0.01566524 0.04586147
000050 10 c7 9b bd 2c 02 4e bd 77 8e f3 3c b7 de ec bc
       -0.076063275 -0.05029504 0.029731018 -0.028914792
000060 5e b2 af bc f4 3b 07 3d 0c cf 19 3d 4f db aa 3c
       -0.021447357 0.03301616 0.03755097 0.020856528
000070 51 66 d6 3d 04 c3 87 bc 82 a6 97 3d d9 30 e6 3d
       0.10468734 -0.016572483 0.07404806 0.11239786
000080 e2 cb 53 3d 54 77 ca 3d b7 54 55 3d a2 09 cd bd
       0.05170811 0.09886041 0.052082743 -0.10011603
000090 38 18 8f bd ba 08 30 3a ab 8a e2 bd 6f c0 d7 ba
       -0.06987041 0.00067151675 -0.11061605 -0.0016460548
0000a0 74 c9 77 bd 71 63 7d 3c 2d c7 5a bd e2 c6 15 3d
       -0.060494855 0.015465603 -0.053412605 0.036566623
0000b0 a7 a9 85 bc 00 28 b0 bd f2 89 7e bd e8 54 07 bd
       -0.016316248 -0.086013794 -0.062143274 -0.033039957
0000c0 1e bd e9 bd 41 16 90 3d a8 d6 b4 3d c0 a4 7d bc
       -0.11413024 0.070354946 0.08830005 -0.015481174
0000d0 40 e3 d5 3d ec cc 57 bd 3b b7 82 bd 46 b6 d5 3c
       0.10443735 -0.052685663 -0.06382605 0.026087891
0000e0 24 57 e0 bc b2 1d 03 3c 9f a5 eb 3d 19 cc e0 bb
       -0.027385302 0.008002685 0.11506199 -0.006860268
0000f0 17 1e ac bc ea 41 11 3d 7c c7 fa bc 69 17 a3 3d
       -0.021010442 0.03546325 -0.0306127 0.079634495
000100 ab b7 6c bd 64 d5 c0 3d ef 7a a4 bd 6c 44 b6 3d
       -0.057792347 0.09415701 -0.0803126 0.08899769
000110 09 70 d3 bc 80 4d 15 bc c3 30 fb 3c 15 19 2c bd
       -0.025810258 -0.009112716 0.0306629 -0.042016108
000120 00 9e 94 bd 41 75 93 3d 52 a7 62 bc 3d 0d 8b bd
       -0.072566986 0.07200099 -0.013833838 -0.067896344
000130 98 1e 05 3d fc 88 39 3d 1c 9f e5 bd 92 67 8f 3d
       0.03249988 0.045296654 -0.11211988 0.07002176
000140 bd a2 86 bc d9 b6 f9 ba 6c 38 9c bd 3e 36 87 3c
       -0.016435022 -0.0019051685 -0.07627949 0.016505357
000150 9e af ad bd 0c c6 9b 3d 14 e9 5a b9 bc 37 14 bd
       -0.08480762 0.07606134 -0.00020876928 -0.036185965
000160 7e e7 16 bc ac 36 b9 3c 3b c2 50 bd 93 e2 9d bd
       -0.0092104655 0.022609077 -0.050966483 -0.07709231
000170 2d 91 87 3d a5 d0 a4 3d f4 8c 3b bd 1b 31 0b 3d
       0.06619487 0.08047608 -0.04578872 0.033982377
000180 8d 61 8f 3d b0 9a cd 3d fd 92 a0 3d a2 47 e7 bc
       0.07001028 0.1003927 0.07840536 -0.0282324
000190 9a 33 c1 bd 44 d0 92 3d ab ca dd 3d 4d a8 73 3d
       -0.0943367 0.0716863 0.108296715 0.059486676
0001a0 07 62 30 bd d3 70 4e 3d eb 59 b9 bc 7a f2 d9 3d
       -0.043062236 0.050400566 -0.022625884 0.10641952
0001b0 cc 4b cd bc 2b 26 eb 3c 89 1c 5c bc 3a b3 de ba
       -0.025060557 0.028704723 -0.013434538 -0.001699067
0001c0 18 9e b9 3d 4f 0d a6 bd 17 d0 c9 3d 52 fc 3f 3c
       0.09063357 -0.08108007 0.09854143 0.011717873
0001d0 08 1d f7 bb e6 b9 b6 bc fc 08 ba bd 45 2d 8c bd
       -0.0075413026 -0.02230544 -0.09083745 -0.06844572
0001e0 53 bb 4f bd 67 4b ec 3d a4 f4 96 bb 53 e2 fa 3b
       -0.050715756 0.11537819 -0.0046068 0.0076563745
0001f0 59 6a cb 3d e8 ae 87 bd 63 19 e4 bc 12 97 b1 3d
       0.099323936 -0.066251576 -0.027844137 0.086713925
000200 c3 5d 46 bc 59 a1 dd bd cd cb c6 bc 9e ea 09 bd
       -0.0121073155 -0.1082179 -0.024267102 -0.033671014
000210 ac 75 b7 bd 43 56 20 3d 0a b6 81 3d 51 5c dd bd
       -0.08957991 0.039144766 0.06333549 -0.108086236
000220 a4 06 a4 3c 83 1b 84 3c d9 24 d0 3d b7 b4 b5 3c
       0.020022698 0.0161264 0.10163278 0.022180898
000230 56 4c 03 bd 1c a3 54 bd 12 42 83 bd 60 30 32 3d
       -0.03205522 -0.051913366 -0.06409086 0.043503165
000240 44 8f a6 bd 24 24 42 bd 9a 9d d4 3c ad c2 84 bd
       -0.081327945 -0.047397748 0.025954057 -0.06482444
000250 90 d8 d7 bd e7 6b c9 bd a5 a0 dd bd 36 de 53 bd
       -0.10539353 -0.09835034 -0.10821656 -0.05172559
000260 1b e2 8a bd c0 b3 93 3c f0 ea 69 bc a7 de 2b 3d
       -0.067814074 0.018030047 -0.014277205 0.041960385
000270 83 c5 69 3d 93 8f 5a bc 3f f3 b8 3d 82 1a 37 bb
       0.057073127 -0.013339895 0.090307705 -0.0027939384
000280 fb 38 a1 bd cd 17 dc bc 6e 1d 89 3d b1 ea ce bd
       -0.07872196 -0.026866818 0.066950664 -0.101033576
000290 45 c0 6a bd 33 04 9a 3d 65 c8 b0 bc 8c a3 4f bd
       -0.05731227 0.07520332 -0.02157993 -0.05069308
0002a0 14 55 76 bc 51 f1 6d bd 90 eb f3 bb 84 d3 e2 bd
       -0.015034933 -0.058091465 -0.0074438527 -0.110755
0002b0 fc 98 33 3d 94 55 03 bc b9 27 6d 3d c7 a9 2a bd
       0.04384707 -0.008016009 0.05789921 -0.04166582
0002c0 56 fc 46 bc fb 4c ac bd d3 bb 1f bd 2d 84 c8 3d
       -0.0121451225 -0.0841312 -0.038997483 0.097908355
0002d0 90 2a 67 bd d8 d6 6c bd c6 01 9c bd 7b 0e 1c bd
       -0.056437075 -0.05782208 -0.07617526 -0.038099747
0002e0 72 6e d9 bd b9 dc 0b bd e8 63 57 3d 22 a8 ce 3d
       -0.10616769 -0.034146044 0.052585512 0.100906625
0002f0 7d 92 1e bd 84 a5 c4 3d a0 b8 2c 3c 52 24 34 bd
       -0.03871392 0.09601882 0.010542065 -0.04397995
000300 68 fe 0b bc 0c e0 56 bc 49 c7 e5 bd 7c 80 dc 3d
       -0.008544542 -0.01311494 -0.11219651 0.10766694
000310 fa 13 f6 bb f8 31 af 3d ab 77 35 3d 03 e3 bf 3b
       -0.0075097056 0.08554453 0.044303577 0.0058559193
000320 eb 0a 54 3d e0 e5 2c 3d ce ac c3 bd 75 15 1c bc
       0.051768225 0.042211413 -0.09554444 -0.0095266
000330 5b 55 43 3d d6 2d 03 bc e3 99 f3 bd 41 73 a4 bb
       0.047688823 -0.008006534 -0.11894586 -0.005018622
000340 e9 2a d0 3d 2a af 08 bb 4e d6 21 3d 1f 52 7b bd
       0.101644345 -0.002085636 0.039511018 -0.061357614
000350 83 3f 0f 3d 3b ca 4f 3d f5 35 95 bc ff 80 b2 3d
       0.03497268 0.05072997 -0.018214205 0.0871601
000360 c5 8b 70 3d a0 c5 24 bd 30 9a 6b 3d 28 98 e6 bd
       0.058727045 -0.040227532 0.05752009 -0.1125949
000370 c7 7f d5 3d ec b0 80 bd a8 f8 c8 bd 7c 7a a1 3d
       0.10424762 -0.06283745 -0.098130524 0.0788469
000380 c2 54 d5 3d 66 cb 05 3d 54 88 16 3d 84 42 8e bd
       0.10416557 0.03266468 0.036751106 -0.069462806
000390 57 d7 8a bd 82 ba 49 3d 0b 64 bb bd fe bf c4 3d
       -0.06779354 0.049250133 -0.09149941 0.09606932
0003a0 c7 6c 4c 3b cf d8 dd bd 8b 43 be bd d6 94 8e 3c
       0.0031192766 -0.108323686 -0.092902265 0.017404955
0003b0 6a cb b7 bd 3d 87 e0 bd bb 50 34 3d 06 d2 ca bd
       -0.08974345 -0.10963295 0.044022303 -0.0990334
0003c0 e5 51 e7 3d cd 54 e0 3d 1c ce 28 3d 59 5b 94 3d
       0.11294917 0.109536745 0.041212186 0.07243986
0003d0 a8 f2 4e bd d7 7a 81 bd d2 cc 8b 3d 5e 35 43 3d
       -0.050524384 -0.06322258 0.06826176 0.047658317
0003e0 78 21 bc bc 4a 91 de bd a6 f3 c7 bd f9 72 9e bd
       -0.022965178 -0.108675554 -0.09763269 -0.07736773
0003f0 6b 54 71 bd f0 75 36 3d 12 66 bc 3d 6e 73 4c bd
       -0.058918398 0.044546068 0.09199156 -0.04991477
