latent_sde_pytorch/best_latent_sde_0.pth (torch, 573571 bytes, 216 tensors)

pz0_mean f4 [1, 16]
000000 1b 34 33 3e 08 4e 35 be 11 17 8e bf de c4 9b 3f
       0.17500345 -0.17705548 -1.1100789 1.2169454
000010 1b 43 d0 bf 3c 5c 8e bd b0 57 29 bf 39 ee 23 3f
       -1.6270479 -0.06951186 -0.66149426 0.64035374
000020 78 fb f9 3e 9a 9b d4 bf bd 09 62 3e 10 bf 0c be
       0.48824668 -1.6609986 0.22074027 -0.1374476
000030 05 5d b5 bf 53 0b 0f bd f0 1d 00 3e 6e 30 96 be
       -1.4169012 -0.03492291 0.1251142 -0.29333824

pz0_logstd f4 [1, 16]
000000 0c 49 cc be da e5 0f 3e 8c e0 89 bb d3 67 cb bd
       -0.3989948 0.14052525 -0.0042076763 -0.09931912
000010 5b 1e 14 bf 57 42 05 bf b2 79 8f bf a5 de 89 bf
       -0.5785882 -0.5205435 -1.1209013 -1.0771071
000020 c0 78 b2 be ea d3 2a 3e 71 55 98 3e a1 2f 75 bd
       -0.3485775 0.16682401 0.29752687 -0.059859876
000030 b9 f1 20 bf 24 ac 77 3e f4 a4 3c be 90 c2 85 3d
       -0.6286884 0.2418676 -0.184223 0.065312505

encoder.gru.weight_ih_l0 f4 [192, 2]
000000 9a d4 11 3e 9e 44 af 39 8f b3 cd 3d 75 aa 09 3e
       0.14241257 0.00033429725 0.10044014 0.1344393
000010 e4 b8 18 be d4 39 c9 3d 7f ab 82 3b be 72 d2 3c
       -0.1491428 0.09825483 0.003987729 0.025689479
000020 d1 c2 3a 3d ce d4 48 3d 09 03 a2 3d a4 74 c2 3d
       0.045595948 0.04903107 0.07910735 0.09494904
000030 71 f0 38 3d 1a 1e c0 3d c4 c7 1b be c5 12 e4 bb
       0.045151178 0.093807414 -0.15212923 -0.0069602453
000040 6b d1 f7 bd 1c 96 4c 3d c9 49 82 3e 81 a3 89 3d
       -0.1210049 0.049947843 0.2544692 0.06720639
000050 74 4f 22 3e 43 dd 21 3e 5d f9 12 3d 1d eb cb 3d
       0.15850621 0.15807061 0.035882343 0.09956954
000060 43 e2 05 bd 45 99 38 3e b1 b0 2d 3e 58 cb af 3d
       -0.032686483 0.18027218 0.16961934 0.085837066
000070 f6 7a d1 3d ed 09 a4 3c bc b1 25 3d ad 65 16 3d
       0.10228531 0.020024264 0.040452704 0.03671806
000080 9b f5 99 bd 1d 7a 22 3e a9 5a 60 3d 23 c3 27 bb
       -0.07517549 0.15866895 0.05477396 -0.0025598488
000090 11 cd a8 3d bc 23 0f 3e 96 76 91 3d 95 a5 e4 3d
       0.08242238 0.13978475 0.071026966 0.11164395
0000a0 62 93 29 be cf a7 4c 3e f7 f0 5e 3e e1 90 3d 3e
       -0.16560128 0.19985889 0.21771608 0.18512298
0000b0 32 24 77 bd 78 50 47 bd 35 1d b7 3d e3 37 2d bd
       -0.060337253 -0.048660725 0.08941118 -0.042289626
0000c0 06 d7 a4 bd 56 1f dd 3c 59 3c a2 3d 2b 96 22 3c
       -0.08048825 0.026992481 0.07921667 0.009923498
0000d0 89 44 d5 bb 79 ce 06 3e 3c c1 26 3e 2e 0f 9f bd
       -0.006508414 0.131647 0.1628465 -0.07766567
0000e0 23 e9 99 3c 3d d1 8f 3d fa ad 0b 3e 2f 75 4f 3e
       0.018787926 0.07022331 0.13640586 0.20259546
0000f0 76 da d2 bc b7 e2 0f 3d 15 16 11 3d e0 95 fd 3d
       -0.025738936 0.03512832 0.03542145 0.12382102
000100 35 4b 0d 3d 65 1d c4 3d 54 cb 1e 3d b8 81 27 3e
       0.03449555 0.09575919 0.038768128 0.16358078
000110 12 12 79 3d 78 a0 8f 3c 43 f9 e4 3d a9 93 26 bd
       0.06080825 0.017532572 0.111803554 -0.040668163
000120 96 1b ef 3c 1d ab ce bd ca 64 29 bd d5 68 db 3d
       0.029187959 -0.10091231 -0.041355886 0.107133545
000130 d9 60 09 3e 66 43 b7 3d dd 4b fe 3d 60 23 12 3e
       0.1341585 0.08948402 0.124168135 0.14271307
000140 53 22 5b bd 2a a7 c6 ba e2 13 07 bc 2d 0b 17 bd
       -0.05349953 -0.001515602 -0.0082444865 -0.036875892
000150 80 71 d6 bc ab f2 17 3d 70 05 b0 3d 32 28 ab 3c
       -0.026177168 0.03709666 0.08594787 0.02089319
000160 c1 f5 48 3e f2 9f cc bd 21 4c ae 3c d6 2e aa 3d
       0.19624998 -0.09991445 0.021276535 0.083097145
000170 d3 ec be bd 20 20 50 bc c7 f4 00 3e 6c b1 56 3d
       -0.093225144 -0.012702972 0.12593375 0.052415296
000180 90 fb f7 3d a0 4e 9f bc df 85 52 bd 14 83 51 bd
       0.121085286 -0.019446671 -0.0513972 -0.051150396
000190 4c 74 24 bd 2f 8e ef 3d c9 67 4d bb 7d ab d9 3c
       -0.04014997 0.11697041 -0.0031342378 0.02657103
0001a0 dd 86 59 3e fe ab 85 3d 61 1e a2 3d 73 0d bc 3c
       0.21242853 0.065269455 0.079159506 0.022955632
0001b0 cd be 07 3e 40 11 39 3e 27 c0 11 3e d5 af 13 bd
       0.13256378 0.18072987 0.14233457 -0.03605636
0001c0 ed f6 a0 bd 81 66 ec bc 7d 2a ff 3d e7 f1 21 3e
       -0.07859597 -0.028857471 0.12459276 0.15814935
0001d0 85 a1 05 be 59 f3 70 3d 12 52 6e bd e6 9c c6 bd
       -0.13049896 0.058825824 -0.058183737 -0.09697895
0001e0 e8 61 3b bd 6d 94 5f 3d 27 45 e1 bd 7f e9 01 bd
       -0.045747668 0.05458491 -0.10999518 -0.03171682
0001f0 02 f3 2f be eb 65 98 3d 3a 81 e1 bd 37 af e1 3d
       -0.17182544 0.07441314 -0.11010976 0.11019748
000200 4b 15 ae 3d 9c 47 c0 3c 2e 4b ed 3d fc e2 d9 bd
       0.08500155 0.023471646 0.11586605 -0.10638997
000210 23 f5 e9 bc 51 4b 1f 3e ae 87 61 bd 2e 43 b9 bc
       -0.028559273 0.15556075 -0.055061035 -0.022615042
000220 d4 f2 72 3d 86 91 8b bc 30 8a 38 3d bd e9 36 bd
       0.05931361 -0.017037164 0.04505366 -0.044656504
000230 85 87 35 bb 3f 71 ab bc 2e d3 3e 3d 8b 37 04 be
       -0.0027699184 -0.020928023 0.046588115 -0.12911813
000240 b7 4c c7 bc 92 bf b2 3c 23 cf 6c ba 4e 57 4f bd
       -0.024328573 0.021819863 -0.00090335513 -0.05062037
000250 72 64 31 3d c9 26 67 bd 70 24 5a 3b 50 3c a5 bd
       0.043308683 -0.056433473 0.0033285879 -0.08068144
000260 f3 00 8b bd 1f 07 bd bc ae 77 11 3d e9 30 1a ba
       -0.067872904 -0.023074685 0.035514526 -0.0005881922
000270 7b 1b ca 3d 90 f9 96 bd 4c 50 30 3d dd b9 85 bc
       0.09868523 -0.07371819 0.043045327 -0.016323978
000280 a9 23 ef 3d b5 e8 0a 3e f4 ca 49 3e 37 8c fc 3d
       0.116767235 0.13565333 0.19706327 0.12331431
000290 d4 6a 66 3d df 38 18 3e 03 26 95 3d 83 7e d7 3c
       0.056254223 0.14865445 0.07282641 0.026305443
0002a0 2d 72 b6 bb 3c 88 3d 3a 54 f4 e3 3c aa c2 70 bd
       -0.00556781 0.00072300783 0.027826466 -0.058779396
0002b0 ab 43 34 bd 70 65 81 bd 2c 14 91 bc 73 9b a6 bd
       -0.044009846 -0.06318176 -0.017709814 -0.08135118
0002c0 16 09 d1 bd 27 23 b2 3d 3d fa 8e 3d 4f 3d f6 bc
       -0.10206811 0.08698111 0.06981323 -0.030058531
0002d0 9a c0 aa 3d 2b ed a1 bc 45 88 0a be 4e e5 9a 3d
       0.08337517 -0.01976641 -0.13528545 0.07563268
0002e0 a3 aa b7 bc 05 9f 6b 3d 16 bb a4 bd 6a 2f bf bd
       -0.022420233 0.0575247 -0.08043496 -0.093352154
0002f0 8a b1 ec 3b 5a 84 07 3d c6 d0 69 3d 09 cc c6 3c
       0.0072233127 0.033085205 0.057083867 0.024267213
000300 fa 60 91 bd 68 d1 87 bd 12 29 8f bd c4 50 dd bd
       -0.07098575 -0.06631738 -0.069902554 -0.108064204
000310 e8 ea 16 bd 10 ad 46 3c 38 fe c2 bd f0 e0 74 3d
       -0.036845118 0.012126222 -0.09521145 0.05978483
000320 5c 76 9c 3d 7b d6 27 bd 87 6a ff bc 29 99 31 3d
       0.07639763 -0.04097603 -0.031178726 0.043358956
000330 ba b1 2c bd ed f3 b8 bd f1 d7 16 bd 6f ee 0d bd
       -0.04216168 -0.090309 -0.03682703 -0.034651216
000340 ec 53 c8 bc 59 f9 c9 3d 88 bb d2 bc 80 e3 31 3e
       -0.02445408 0.098620124 -0.025724187 0.1737194
000350 75 3c 16 3d 80 83 a5 bd ce b2 ce bc 1e 2e d3 bc
       0.03667875 -0.08081722 -0.025231745 -0.025778826
000360 4e 3e 04 bd 13 ab 60 3d c9 fe 0d bc 44 e5 5b bd
       -0.03228598 0.05485065 -0.008666703 -0.05368544
000370 41 9b 25 3d 30 c0 71 3e e6 74 5f 3d 6c da bd 3d
       0.040431265 0.2360847 0.054554842 0.09270176
000380 a4 07 9f 3d e6 65 6d bd d8 44 84 bd 56 56 11 3d
       0.07765129 -0.057958506 -0.064584434 0.035482727
000390 a2 b7 ad 3c ea de d2 3d eb 96 3c 3d 12 75 45 3e
       0.021205727 0.10296424 0.046042364 0.1928294
0003a0 d8 3a 47 3a a9 64 d6 3c 32 b2 d3 bc 28 5d 11 3e
       0.0007600016 0.026171045 -0.025841806 0.14195693
0003b0 43 8e 06 3e 07 9c c2 3d 06 6a 04 3b bf bf 91 bc
       0.13140206 0.09502416 0.0020204796 -0.017791627
0003c0 da 2f f7 bd 66 48 bf 3d 8b 08 fc 3d 67 a0 5d 3d
       -0.12069674 0.09339981 0.12306317 0.05410805
0003d0 77 f9 78 3d d0 84 22 3b 22 b4 6f 3d 02 54 8a 3d
       0.060784783 0.00247984 0.058521397 0.067543045
0003e0 6a 3f 86 3d e0 15 ba 3b dc 75 3d bd ff 9e 55 3d
       0.06555064 0.0056788772 -0.046254978 0.052153584
0003f0 59 6c c9 3b 27 e7 01 3d a3 3c b9 bd 13 7c 0b 3d
       0.0061469493 0.031714585 -0.09044769 0.034053873

encoder.gru.weight_hh_l0 f4 [192, 64]
000000 15 3f 2e 3e f5 65 f2 bd d7 10 f6 bd 76 a1 04 3e
       0.17016251 -0.11835853 -0.12014931 0.12952217
000010 46 9a 0c 3e 5b 9a b4 bd bf 77 45 bd 89 7d 84 bd
       0.13730726 -0.088185035 -0.048209902 -0.064692564
000020 9c e0 ae 3c a3 fd db bc 39 bb 13 3e 95 9a f1 bd
       0.021347336 -0.026854342 0.14426889 -0.11797062
000030 c2 1d 33 3e 49 cf e0 3d ac 0a 71 3d d5 19 0b 3d
       0.1749182 0.109770365 0.058848068 0.033960182
000040 9c 9d e0 3d 4f f3 2e 3d 46 4b 58 3c 7b 8e 60 be
       0.109675616 0.042712506 0.01320154 -0.21929352
000050 24 c0 80 3d 1b cd 8a bd 75 29 07 be a6 f5 07 bd
       0.06286648 -0.06777402 -0.13199408 -0.033193253
000060 ce 57 6f bb 12 78 1d 3e 7f 33 b3 3d ab 2f b5 bd
       -0.0036520842 0.15377834 0.087500565 -0.088469826
000070 69 4a 32 be a4 d6 0d 3e d2 63 08 be 28 20 03 bd
       -0.17411198 0.1385141 -0.13319328 -0.03201309
000080 bb c4 f1 3d 62 3d b2 3d 3d 09 bb bd 93 dd 95 bd
       0.118051015 0.08703114 -0.091326214 -0.073176526
000090 06 e7 d5 3c dd cc 44 3d 81 ef b0 3d 35 91 f6 bc
       0.026111137 0.048046935 0.08639432 -0.030098537
0000a0 f2 88 51 ba 59 0e 62 bd 1b 38 13 be 03 ca 11 bd
       -0.0007993124 -0.055189464 -0.14376871 -0.035593044
0000b0 68 3b 9e 3d 97 d5 11 3e 9a f1 06 3e 6a 5e 8e 3d
       0.077261746 0.14241634 0.13178101 0.06951602
0000c0 69 36 1a 3e 5f ee 2d 3e f4 cc e5 3d 74 ef 1d 3e
       0.15059818 0.16985463 0.11220732 0.15423375
0000d0 10 42 02 bd c2 97 61 bc 9b ac 1f 3e 0c cb 85 bc
       -0.031801283 -0.013769092 0.15593188 -0.016332172
0000e0 7f a6 7a bd 1d 85 52 3d 06 b2 73 be cc 6e 6b 3d
       -0.06119394 0.051396478 -0.2379838 0.05747871
0000f0 4a e8 04 3d d2 34 ea bd 6b 46 d6 bd 1f 58 13 3d
       0.03244809 -0.11435856 -0.1046265 0.03597271
000100 b7 72 bb bc 60 85 b4 bd ea d0 56 3d 60 e6 9b 3d
       -0.022881849 -0.08814502 0.05244533 0.076123
000110 9c fb e4 bd 8e 45 4c 3d 07 57 83 bd dc 9e a0 3a
       -0.11180803 0.04987102 -0.064130835 0.0012254375
000120 b7 21 03 be 15 19 17 3b 0e df 05 be de 46 32 3e
       -0.1280583 0.0023055722 -0.1307337 0.17409846
000130 b0 f5 9e bd c3 c6 35 bd 4c 7b 07 bc e5 ff bf 3d
       -0.07761705 -0.044379007 -0.008269142 0.0937498
000140 93 b4 95 bc e5 56 3f bd 26 e8 15 3e 7f 1a 02 be
       -0.018274581 -0.04671373 0.14639339 -0.1270542
000150 43 bf de 3c 3f 3c ca bd 47 b9 f5 3d d2 fd 2f 3e
       0.02719081 -0.09874772 0.119982295 0.17186669
000160 26 f7 b0 bd b1 ee 7d 3c 78 3b 51 3d 05 7a a0 3d
       -0.0864089 0.015498803 0.051082104 0.078357734
000170 03 f2 32 3e 65 d5 2f 3e cd f0 01 3d 07 9e ad 3d
       0.17475133 0.17171247 0.031723786 0.08477407
000180 be 83 dd bd 72 df ab bd ac 47 07 3e d9 b9 3f bd
       -0.108161435 -0.08392228 0.13210934 -0.046808098
000190 50 c2 0a bd ab a2 a3 bc 8d de 54 3c 56 29 3f 3d
       -0.033876717 -0.019975027 0.012992513 0.04667028
0001a0 10 b0 ea bd 91 58 84 3e 82 31 ff 3d e0 f5 a3 bc
       -0.114593625 0.2584882 0.12460615 -0.020014703
0001b0 19 69 43 3e 99 b8 ea 3c dc d2 71 3c ab d6 17 be
       0.1908306 0.028652476 0.014759745 -0.14827983
0001c0 ad b8 c1 ba aa a5 0c bc d8 37 b7 bd 24 22 3a 3d
       -0.0014779769 -0.008584419 -0.08946198 0.045442715
0001d0 f1 8f b3 3d fe 2d 59 3d 8d 2e aa 3d e6 33 01 be
       0.08767689 0.053022377 0.0830966 -0.12617454
0001e0 cd 68 f2 3d 94 9f 08 bd c9 09 8c bc 0f e2 1e 3d
       0.118363954 -0.03335531 -0.01709451 0.038789805
0001f0 25 f1 2c 3c ae 4e 73 bd 13 fc e2 bd 4a 53 c3 bb
       0.01055554 -0.059401207 -0.110832356 -0.0059608566
000200 57 33 d4 bd 2b 07 1f 3c ad ff af 3b bb 0e cf 3d
       -0.10361355 0.009706299 0.005371055 0.101102315
000210 01 0f d6 3d fe fc e1 bd 7d 8a 94 bc e1 4d 46 3d
       0.104520805 -0.110345826 -0.018132443 0.048414115
000220 5b 3d 01 bd e1 2c 85 3d 7e b4 ea bc 0d 82 54 bd
       -0.031552654 0.065027006 -0.028650519 -0.05188184
000230 09 aa ab 3c 45 86 9f 3d 74 6e d9 bd d0 cb 22 bd
       0.020955103 0.07789282 -0.106167704 -0.039745152
000240 43 4b d5 bd 7a e5 af bd cb 0a d3 bd 73 fc 2c 3e
       -0.10414746 -0.08588691 -0.10304793 0.16893177
000250 ad 81 1b 3d 5e bd a1 bd 29 f7 e8 bd 72 f4 b1 3d
       0.037965465 -0.07897447 -0.11375267 0.08689202
000260 a0 85 e2 bd 5a c5 a2 bd 3f cd e5 bd 6f 11 e1 bd
       -0.11060643 -0.07947798 -0.11220788 -0.10989653
000270 fe 33 de 3b 4a d8 b3 3d 85 04 b1 bc 39 e1 8c bd
       0.0067811003 0.08781488 -0.0216086 -0.06878895
000280 86 22 07 3d 94 b7 df 3c 64 b4 ac bd d8 a3 07 3d
       0.03299191 0.027309217 -0.08432844 0.033115238
000290 c1 30 17 bd 0c 1e ea bd 30 d3 b6 3b c6 f5 59 3d
       -0.03691173 -0.11431512 0.0055793747 0.053212903
0002a0 4d 9f 18 3d 94 29 09 be b3 99 8d bd 12 8b 31 3d
       0.037261296 -0.13394767 -0.069140814 0.04334552
0002b0 68 53 4a 3d c3 ce 1c 3d 78 14 12 3e 64 b8 17 bd
       0.04939595 0.03828312 0.1426562 -0.037041083
0002c0 10 b1 c3 3d f6 72 a3 3d e7 8d 22 3d e5 77 02 be
       0.09555256 0.079809114 0.03968611 -0.12741049
0002d0 07 4a 08 3e b1 28 55 bd da a7 06 3e bc 31 7f 3d
       0.13309489 -0.05204076 0.13149968 0.06230329
0002e0 aa ef 00 be 2a d8 95 3d e4 4d 1d 3e 23 03 1c be
       -0.12591425 0.07316621 0.15361744 -0.15235572
0002f0 2a f5 c1 3d f8 61 03 be 77 2c 84 3d e3 fd 75 bc
       0.094705895 -0.12830341 0.064537935 -0.015014145
000300 b2 97 88 bb 12 94 9f bd e7 89 1a 3e 26 01 69 3c
       -0.004168474 -0.07791914 0.15091668 0.014221465
000310 c2 77 e9 bd f2 af dc 3d 7c 6e 9f 3d da 68 e5 3d
       -0.11399795 0.107757464 0.07784745 0.112016395
000320 c4 0b bd 3d 9e 2c 75 3d 66 3c b2 bd 7c 1f b4 bd
       0.0923076 0.059857003 -0.08702926 -0.08795068
000330 14 dc e8 bc a3 b2 06 3d 5e e6 ff 3c cd 1c cf 3d
       -0.028425254 0.032885205 0.031237777 0.10112915
000340 39 e6 c3 bd 1b e8 9f 3d 5f 97 b3 3d b8 72 b8 bc
       -0.09565396 0.078079425 0.08769106 -0.02251564
000350 4e 93 28 3a 20 4e 81 3d c9 e2 7a 3b 0b ff 2c 3e
       0.00064306415 0.06313729 0.0038282147 0.16894166
000360 a0 9b 25 bd d9 20 40 3d 8d c8 fa 3d 6b fd f8 bc
       -0.04043162 0.046906326 0.12245283 -0.030394277
000370 07 ec 6b 3d 18 1d 00 bc 4f 60 27 be 22 38 e6 bd
       0.05759814 -0.0078194365 -0.16345333 -0.11241175
000380 08 e1 44 bd 85 c9 83 bd ee 25 80 bc a5 b3 98 bd
       -0.04806617 -0.06434921 -0.015643086 -0.074561395
000390 1c d6 5c 3d fc 00 db bd 49 9a 89 3d d6 94 ee bd
       0.053915128 -0.10693547 0.06718881 -0.11649482
0003a0 7b b7 35 be a8 62 74 3d 98 81 89 3c 9c 3b 8e 3d
       -0.17745773 0.0596644 0.016785428 0.06944963
0003b0 8a 84 23 3e 5c 6e 00 3c 73 ae 9d 3d dc 6e 1d 3d
       0.15968528 0.007838812 0.07699289 0.038435802
0003c0 82 c1 d7 bd 1a b1 03 be 6c 13 1e 3b 20 9a 36 3d
       -0.105349556 -0.12860528 0.0024120463 0.04458058
0003d0 42 09 fc 3d 8e fb 47 3e 47 49 5a bd c1 6a 9f 3d
       0.12306453 0.19529554 -0.05329254 0.077840336
0003e0 e6 71 18 3e 27 d6 c9 3c 95 e0 90 3d 17 cc 07 3e
       0.14887199 0.024638249 0.070740856 0.13261448
0003f0 26 17 9c bd 4b 8a 7c bd 4a 44 90 3c 03 14 dc bd
       -0.07621603 -0.061655324 0.017610688 -0.107460044

encoder.gru.bias_ih_l0 f4 [192]
000000 e7 95 66 bd d9 36 1f bd 18 96 7e bd 28 37 31 3e
       -0.0562953 -0.038870666 -0.06215486 0.17306197
000010 97 d4 a2 3d 75 94 a8 3c 99 f8 9d 3d bd de 37 3e
       0.079507045 0.020578602 0.07713432 0.17956062
000020 d0 d9 28 3c 9a 4e 09 bd 42 9c 7b bd 1e 89 0d 3e
       0.010305837 -0.033522226 -0.061428316 0.13821837
000030 c8 e5 ac 3d 62 55 36 3d 69 07 e9 3d 79 1d 03 bd
       0.08442265 0.04451502 0.113783665 -0.03201053
000040 02 78 86 bc 40 5f 2d 3d 99 92 bf bc 3a 0c bd 3c
       -0.016414646 0.042327166 -0.023385333 0.02307712
000050 ee 29 b0 bd ab 20 bb 3d dc 2c 87 3d dc 27 66 3d
       -0.086017475 0.0913709 0.06600353 0.056190357
000060 4a c5 8c bd 6a c0 da bd 08 24 3c 3d fa d7 01 3e
       -0.068735674 -0.10681231 0.0459328 0.12680045
000070 48 db cc bd de 6b 36 3d 21 f8 7f 3e 98 b6 dd 3a
       -0.10002762 0.044536464 0.24996997 0.0016915379
000080 c6 42 08 3e f5 f7 21 3e d6 f9 d4 bc 64 23 d1 bd
       0.13306722 0.15817244 -0.025998037 -0.10211828
000090 7a 74 23 3c 0c 11 04 be 6f 77 1e bb 5b 57 08 3d
       0.009976501 -0.12897128 -0.0024180075 0.033286434
0000a0 a7 79 f2 3d 61 5a 6f 3d 8e 53 c1 3d 52 12 9d 3d
       0.118396096 0.0584358 0.09439765 0.0766951
0000b0 f2 3d 8a bb 3c 84 27 3d 76 73 95 3d 63 19 89 3d
       -0.0042188102 0.040897593 0.07297413 0.06694295
0000c0 42 36 82 bd e7 7f 0c 3e b2 3f f4 3c 37 97 bf 3d
       -0.06358005 0.13720666 0.029815529 0.09355014
0000d0 e7 b0 03 3d 40 5b 18 3e 6f e7 43 3d 9c 63 3e 3a
       0.03215113 0.14878559 0.047828134 0.0007262768
0000e0 48 77 37 3c bf 34 23 3e c2 e2 2c bc fd 8f 89 3d
       0.011197872 0.1593809 -0.01055211 0.06716917
0000f0 0e 4e c0 3d 42 35 23 3d 9e 62 3d bd 87 38 b3 3d
       0.09389888 0.039845712 -0.046236627 0.08751016
000100 3d b4 78 3d 70 05 20 bc c9 09 50 3d ff 3f fc 3d
       0.060718764 -0.009766921 0.05079058 0.12316894
000110 31 33 78 bd 84 cf 78 3d 83 b4 5b bd a7 a4 38 bd
       -0.060595695 0.060744777 -0.053638946 -0.0450789
000120 0e e8 15 3e fc 92 1e 3e 82 3f cd 3d 0c be 4c bb
       0.14639303 0.15485758 0.10021879 -0.0031241206
000130 db 3d 08 bc bb 05 1c 3e 47 e3 1d 3e d0 f2 82 3d
       -0.008315529 0.15236561 0.1541873 0.06393969
000140 d5 a7 94 3e a5 e2 89 3e 0a dc 96 3e 32 db 64 3d
       0.29034296 0.2693073 0.2946475 0.055873103
000150 ef e2 14 3d 5f 17 b7 bc 02 b5 2c 3e 20 46 88 be
       0.036349233 -0.022350011 0.16865924 -0.26616
000160 38 b5 a0 3d 63 4c c4 bc a7 e2 8a 3d 41 d5 df bd
       0.07847065 -0.023962205 0.06781512 -0.10929347
000170 f5 c1 22 3d 07 4c 10 3d 2f d5 6b 3c d1 fa 30 3e
       0.039735753 0.035228755 0.014394089 0.17283179
000180 c3 9c 22 3d a7 fb 3f 3e 84 82 44 bd f2 86 68 bd
       0.03970028 0.18748342 -0.047976032 -0.05676932
000190 3b f7 57 bd c1 53 a0 bd 42 fc 9b 3d a5 2d e1 bd
       -0.05272601 -0.07828475 0.07616474 -0.10995034
0001a0 23 14 03 bc 17 30 76 3e 89 fc 39 be 0d 15 99 3b
       -0.008000406 0.24041782 -0.18162741 0.004671699
0001b0 51 43 23 be e6 4f 7a bd 22 e7 bc 3d a2 a8 60 3e
       -0.15943648 -0.061111353 0.092237726 0.21939328
0001c0 f7 69 ce 3d 38 9f 9c bc a1 94 cf 3d f4 f1 f1 3d
       0.10078805 -0.01911889 0.101357706 0.11813727
0001d0 33 4e 2f 3e e6 fe 1f bd 12 40 ae 3b a4 65 4f 3d
       0.17119674 -0.03906145 0.0053176964 0.05063404
0001e0 8d 68 12 3e 79 de c9 3c da 0d 15 3e aa 78 fd 3d
       0.14297695 0.024642216 0.14556065 0.123765305
0001f0 da 79 d2 bc 0d 69 b2 3c 7c a1 df 3c 19 bd 23 3e
       -0.025692869 0.021778608 0.027298681 0.15990104
000200 5d 73 61 3e ea d9 2f 3e 48 17 00 3d 3b a0 fa bb
       0.22016664 0.17172971 0.031272203 -0.0076484955
000210 b3 58 e8 bc 79 7b 62 3d 43 0c 0b 3e e3 58 ae 3d
       -0.028362608 0.055293534 0.13578896 0.085130475
000220 e4 c7 d0 3d f2 84 48 3d e7 03 aa 3b 9e 7a 72 3d
       0.10194376 0.04895491 0.0051884535 0.059198968
000230 bc cc 32 bd 6c 9e dd 3d 01 05 44 3e ba 95 db 3d
       -0.04365228 0.10821232 0.19142534 0.107219175
000240 66 40 f7 3d bf fd a0 bd 1e f1 4c 3e a4 d4 6f bd
       0.1207283 -0.07860898 0.20013854 -0.0585524
000250 8b 6e be 3c 6b c9 19 be d9 77 19 3e b9 94 4d 3e
       0.02324607 -0.15018241 0.14987125 0.20076264
000260 57 9e ad 3d ee 24 16 3d 28 b8 26 3e f1 c4 03 3e
       0.084774666 0.036656313 0.16281188 0.12868096
000270 50 2b b7 3c 7a 1d d8 3d d0 eb 46 bc 7e cb fa bc
       0.02235952 0.10552497 -0.012141183 -0.03061461
000280 2f 14 2b be d0 06 44 be 9e c6 67 3c bb 9b 83 be
       -0.16706918 -0.19143224 0.014146475 -0.2570475
000290 71 4f 46 3e ca 20 9e bd ee 88 eb bc 63 d2 12 be
       0.19366242 -0.07721098 -0.028751817 -0.14338069
0002a0 e7 d7 13 be ff a4 63 3c c9 9c 5a 3e 9a 01 67 3d
       -0.14437829 0.013894319 0.21348871 0.05639801
0002b0 01 b5 1f 3e 85 7b 26 be 94 24 e4 3d 05 12 32 be
       0.15596391 -0.16258056 0.11139789 -0.17389686
0002c0 17 ec f9 bd dd 7d 7b bb f1 6b 11 bd fb 6a b4 3c
       -0.12203234 -0.003837458 -0.03550333 0.022023669
0002d0 7c f1 6e 3e 1b b2 32 3e 2f 56 5d 3c 28 53 63 bd
       0.23334306 0.17450754 0.013509317 -0.055499226
0002e0 bd aa 2f 3e e2 b8 18 bd 79 87 ee 3d d0 93 f6 3d
       0.17154975 -0.037285693 0.11646933 0.12039912
0002f0 38 53 13 3e ce 63 35 3d 52 23 b8 bb 7c 9d 8e 3d
       0.14387214 0.044284634 -0.005619445 0.069636315

encoder.gru.bias_hh_l0 f4 [192]
000000 26 90 df bc 5d 87 07 3e 7b 71 87 bc 73 f6 c2 3c
       -0.027290415 0.1323523 -0.016533604 0.023799157
000010 ae 9b 62 3d fe ef 95 bd 73 83 ce bd 4a e6 ca 3d
       0.05532425 -0.073211655 -0.10083666 0.099072054
000020 69 08 02 bc 2f 9a 92 3d e5 7f 7e 3c 6b 48 38 3d
       -0.007936575 0.071583144 0.015533422 0.04499094
000030 a8 55 11 bd c7 d3 a4 3d 56 5f 14 3e 87 c7 06 3e
       -0.03548208 0.08048206 0.14489493 0.13162051
000040 54 6c 0a 3e dd f0 ae bd 01 12 a3 3d 74 26 f4 bd
       0.13517886 -0.08542035 0.07962418 -0.11921397
000050 d1 c7 ec bd 56 0b ff 3d 84 fc fa bc a0 d4 27 3e
       -0.115615495 0.12453334 -0.030637987 0.16389704
000060 ee e4 a6 3d 9d f2 16 be a6 2c 8f 3c 78 08 46 3e
       0.081491336 -0.14740987 0.017477345 0.19339168
000070 2b 5f 59 bc d2 29 ac bd 54 f5 f2 3d 33 3f 8d 3d
       -0.013267319 -0.08406414 0.11863199 0.0689682
000080 75 0a 8b 3d c0 e2 03 bd 65 b1 8c 3d d5 92 92 3d
       0.06789104 -0.032198668 0.06869773 0.07156912
000090 fa 1e a9 bc 16 05 bc bd ef 98 cb 3c 92 ce bb bc
       -0.020644654 -0.091806576 0.024853198 -0.022925649
0000a0 9c b3 5b 3d 86 6f 62 bd ea f9 53 3e d7 ba 29 3e
       0.053638086 -0.05528214 0.20700803 0.1657518
0000b0 60 b2 4e 3e 25 d6 c6 ba 04 e9 03 3e e0 e5 ac ba
       0.20185232 -0.0015170021 0.12881857 -0.0013191067
0000c0 b1 88 b6 3d 82 b8 92 3b 5b 61 78 bc 21 61 bf 3d
       0.089127906 0.0044775615 -0.01515993 0.09344698
0000d0 58 86 b1 3d d5 c0 3d 3e ee 0f c6 bb 37 1e 2c bc
       0.08668202 0.18530591 -0.0060443794 -0.010505251
0000e0 0a 34 f3 3d 60 11 04 3e b0 5f 40 bb 3e 5d bc 3d
       0.1187516 0.12897253 -0.002935391 0.09197472
0000f0 ef c5 76 3c ac 90 0a 3e 1a eb b0 3c 4e 8d c0 bc
       0.0150618395 0.1353175 0.02159648 -0.02350488
000100 45 a3 2f 3e d7 ad a8 3d 7e 7e 67 3e 7c 03 a7 3d
       0.17152126 0.08236282 0.22606847 0.081549615
000110 79 bc e8 3c 70 e0 85 3d c6 3e ec 3d 2a 44 97 3d
       0.028410183 0.06536949 0.115354106 0.07386048
000120 2f 8b fd 3c 75 96 b2 3d 98 4b a2 bb 4c 45 8a bd
       0.030950157 0.08720104 -0.004952859 -0.067514986
000130 a8 5e 1e be 96 99 58 3e 16 d6 97 3d 6d 69 89 3d
       -0.15465796 0.21152338 0.074138805 0.067095615
000140 fd 38 a8 3e 9a bf d8 3e ef 10 27 3e 35 16 61 3e
       0.3285598 0.4233368 0.16315053 0.21981128
000150 be 26 60 3d 38 e5 b9 3d 60 4b 01 3e b2 fc 0a be
       0.054724447 0.09076923 0.1262641 -0.13572958
000160 d4 9f 2b 3e 15 94 39 3d e8 24 de bc cd be ea 3d
       0.16760188 0.045307238 -0.027117208 0.114621736
000170 ae a8 36 3d 18 52 3f 3e dc 29 ce 3c 22 a8 e8 3c
       0.04459446 0.1868366 0.025166444 0.028400484
000180 09 65 f2 3d 77 4a 2b 3e 31 8f eb 3d b4 00 c4 bd
       0.11835677 0.16727625 0.11501921 -0.095704466
000190 7f b9 09 be c9 fd bb 3d e3 4c 2a 3e 46 88 b0 bc
       -0.13449667 0.09179265 0.16630892 -0.021549355
0001a0 05 65 86 3d 22 f4 81 3e d2 5e 19 be 92 2d 4f 3d
       0.06562237 0.2538157 -0.14977577 0.05058057
0001b0 3a a7 e8 3c 09 27 db 3d b9 1f 4d 3e 7d 4b 4c 3e
       0.028400052 0.10700805 0.20031632 0.19950671
0001c0 9a a0 18 3e 9f 81 24 3e 6d 9e a9 3d 96 39 b1 3e
       0.14905015 0.16065072 0.082821704 0.34614247
0001d0 80 8a 53 3d 61 92 c9 bb ea b5 16 3d 01 02 10 3e
       0.051645756 -0.006151483 0.03679458 0.14063264
0001e0 0e b1 a4 3d 47 d4 1a 3e f7 6b 24 3e 2f 7d ce 3d
       0.08041583 0.1512004 0.1605681 0.100824706
0001f0 90 12 f7 3c 5f 96 40 bd cc b2 87 3d 21 63 46 3e
       0.030160218 -0.047018405 0.066259 0.19373752
000200 11 c2 53 3d 84 75 48 bd d1 4a 30 bc 66 ef c6 bc
       0.051698748 -0.048940197 -0.010760025 -0.024284076
000210 6b 91 a1 bd fb 5b 99 bb 8f 4c 68 3d cf 83 ba 3d
       -0.078890644 -0.0046801544 0.056713637 0.09107172
000220 03 d2 fb bc dc aa 25 3e b7 da 96 bd ca a6 85 3d
       -0.03073979 0.16178459 -0.07365935 0.06525953
000230 f7 28 38 be ea b0 2a bb 56 a6 83 3e 93 0b 3c 3e
       -0.17984377 -0.002604539 0.25712842 0.1836379
000240 a2 38 ec 3d ef 2f 63 bd e9 dc fc 3c 1a d7 02 bd
       0.11534239 -0.055465635 0.030867057 -0.031943418
000250 c1 b4 55 bd 52 af 12 be 20 ce e8 3d 7a 65 ce bb
       -0.052174333 -0.14324692 0.1136744 -0.006298718
000260 fa c5 20 3d 94 de e0 bd f7 cd 5a 3a 4c 44 c7 3d
       0.039251305 -0.109799534 0.0008346731 0.097298235
000270 63 89 37 3d 85 31 8b 3c 2c a7 e0 bd f4 f7 e4 3d
       0.044808757 0.016991386 -0.109693855 0.11180106
000280 41 b7 0f be d8 5f bb bd 1e 4a 20 3e af d5 5f be
       -0.1403475 -0.0914914 0.15653273 -0.21858858
000290 22 1c 3e 3d 2d f0 3c 3d 83 56 34 be 43 fc 28 be
       0.04641355 0.046127487 -0.17611127 -0.1650248
0002a0 c2 bc 71 be d7 82 8e 3d 7c a9 5d 3e d3 be 47 3d
       -0.23607162 0.069585495 0.21646684 0.04876597
0002b0 f2 92 71 3e ae 11 1a be 7a 44 20 bd 9b 2c 07 be
       0.23591211 -0.15045807 -0.039127804 -0.1320061
0002c0 a7 39 2b be 59 75 3f be de 8c 67 3c b3 65 91 bd
       -0.16721211 -0.18697108 0.014132706 -0.07099476
0002d0 c8 d9 8b 3e 56 4a 6d bc ab c4 b3 3c 8d bd df 3c
       0.2731459 -0.014483055 0.021944365 0.027312065
0002e0 db 0b 0b 3d e9 f5 c5 3d 8f 72 a7 bb 62 6a 20 3d
       0.033946853 0.09666044 -0.005110092 0.039163955
0002f0 8d 39 d0 3d 75 ef 4a 3d cd 9a 0b be 4b 56 b8 bd
       0.10167227 0.04954477 -0.1363327 -0.09000834

encoder.lin.weight f4 [64, 64]
000000 26 d2 f9 bd 2b 6c 57 3d 38 81 42 3c 4a 24 27 bc
       -0.12198286 0.05259339 0.011871628 -0.010201523
000010 41 01 12 be 06 61 3b bd c5 cb ec 3c 2e 21 f3 bd
       -0.14258291 -0.045746826 0.028905759 -0.11871563
000020 0f 83 2e be ac cd 01 be 13 9d 15 3b 9c de 9c 3c
       -0.17042182 -0.12676114 0.002282922 0.019149117
000030 e7 bb 5b 3d 83 d8 45 3e 23 91 d7 bd 0b d0 0e bd
       0.053645995 0.19320874 -0.105257295 -0.034866374
000040 91 26 f6 bd 6c b3 07 3e a2 83 a2 bc 37 50 0d 3e
       -0.12019075 0.13252038 -0.019838158 0.13800131
000050 56 eb 98 3d b8 d4 93 3d 90 e7 38 3c 5b 34 6b be
       0.07466762 0.07218307 0.011285678 -0.22969191
000060 3e 71 4c 3c d4 59 3f 3d 56 b8 bc 3c e3 de 73 3d
       0.012478171 0.046716526 0.023037117 0.059538733
000070 1b ce 9b bd c0 9f ab bd 3e da 70 3b 21 bc 0c be
       -0.07607671 -0.08380079 0.0036751176 -0.1374364
000080 4d 02 86 3d 45 c1 be 3d eb 66 d2 3d dd 48 a0 3d
       0.065434076 0.09314207 0.10273536 0.078263976
000090 c0 ff 70 bd f3 39 3d 3d c6 f1 22 be 80 f5 13 be
       -0.058837652 0.046197843 -0.15912542 -0.1444912
0000a0 81 32 7b 3b ed 78 c4 3d 8c d0 6f bd 83 84 31 3e
       0.0038329663 0.09593377 -0.058548495 0.17335705
0000b0 6e 8e 2e be 3e 17 ac bd bf 7a 2d 3e 14 52 ef bd
       -0.1704652 -0.084028706 0.16941355 -0.11685577
0000c0 5f 99 00 bd e3 0f 84 bc 06 13 1d 3c ce d5 4e be
       -0.031396266 -0.016120857 0.009587055 -0.20198748
0000d0 cb be 96 3d 58 a2 28 be e7 3f 63 bd ee f4 e5 bd
       0.073606096 -0.16468179 -0.055480864 -0.11228357
0000e0 38 cf d8 3d 46 2a 24 3e d4 5e ee bd 89 29 21 be
       0.10586399 0.16031751 -0.11639181 -0.157385
0000f0 be 13 5e 3e bd 78 6d 3c 9d a1 69 be ba 3f 19 3e
       0.21687219 0.014494118 -0.22815557 0.14965716
000100 4d 5f 03 be 36 cc 35 3e 9b 87 46 bd c1 03 eb bd
       -0.12829323 0.17753682 -0.048469167 -0.114753254
000110 6a 36 55 bd b9 ce 1e bc 5d 60 ef 3d 29 61 47 3e
       -0.052053846 -0.009692841 0.11688302 0.19470657
000120 e1 c6 5c bc f7 81 3b 3e b0 05 04 3c 16 d1 53 bd
       -0.013475151 0.18311296 0.008057997 -0.05171307
000130 04 78 f8 bd 70 be 96 3d 3e 7f da 3c a9 b7 97 3d
       -0.12132266 0.07360542 0.026672002 0.07408077
000140 06 87 a8 bc 34 cc 18 bc f6 8f 5c 3e 14 f7 8e bd
       -0.020572197 -0.00932603 0.21539292 -0.0698072
000150 83 0e 95 ba 4c eb 5a be 3f 33 57 3e 02 bc 52 3e
       -0.0011372123 -0.21378821 0.21015643 0.20579532
000160 8e 45 cd 3c e4 e7 5d 3c b5 35 2a 3e af 4b 65 3d
       0.02505758 0.013544057 0.1662205 0.05598038
000170 9e 0d e0 3c 4c b9 e7 3d 15 00 dd 3c 36 56 79 3d
       0.027350243 0.113146394 0.026977578 0.060873233
000180 ce 6c a4 bd ca 8f 0f 3c 17 c0 03 bd 04 e5 49 be
       -0.08028565 0.008762309 -0.032165613 -0.19716269
000190 a4 45 55 3e 11 35 27 3e 56 b8 5b be 95 e9 90 bd
       0.20827347 0.16328837 -0.21457037 -0.07075802
0001a0 69 8a 14 be ed 05 7c bd a9 31 5c 3e 80 9c d4 3d
       -0.14505924 -0.06152909 0.21503319 0.103814125
0001b0 5b 89 af 3e 6c f9 34 be 44 34 42 3e 34 97 69 be
       0.3428448 -0.17673272 0.1896525 -0.22811586
0001c0 94 c8 d6 bd b5 70 c1 bd 9c 4d 81 bd 10 2a 00 be
       -0.10487476 -0.09445325 -0.06313631 -0.12516046
0001d0 bb 1e ec 3d b4 f7 22 be 10 26 9b bc 60 4a 06 bd
       0.11529299 -0.15914804 -0.018939048 -0.032785773
0001e0 92 3a f9 3d eb 42 37 3e 77 fb 35 bc 8b d4 c5 3b
       0.121693745 0.17896621 -0.011107317 0.0060373
0001f0 08 1d cf 3d 8a 6a 2c 3d 8d 7d 0c bd 43 35 a5 bc
       0.10112959 0.04209379 -0.034299422 -0.020166999
000200 15 eb 33 3c a0 42 aa 3c 56 28 65 bd 33 b7 a3 3c
       0.010981341 0.020783722 -0.05594667 0.019984817
000210 ec a7 05 bd 73 5f 13 3d 58 3a a6 bd 6a 62 a0 3d
       -0.032630846 0.0359797 -0.08116597 0.07831271
000220 3b d0 3c bd 10 6b 3e be 69 4c 45 bd 26 03 96 bc
       -0.04609702 -0.18595529 -0.048168574 -0.018312048
000230 08 75 e8 3d 5d 46 07 be ae cd 86 bc 7e a4 06 3d
       0.11350447 -0.13210435 -0.016455498 0.032871716
000240 4a 5b 35 bd 1b 52 a3 bd 1f 79 d3 bd 2e 30 5b 3d
       -0.044276513 -0.07974645 -0.103258364 0.053512745
000250 4b c9 9c 3d c7 fe 48 3d 3b 71 12 bd 68 9d ec bd
       0.07655581 0.0490711 -0.035752516 -0.1155346
000260 7a b7 f4 bc 4a 77 c5 3d f6 33 83 3d 05 1f 14 bd
       -0.029872645 0.09641893 0.06406395 -0.036162395
000270 09 d3 19 bc 32 10 d1 3c c3 9d de 3d 38 aa 82 3d
       -0.009388694 0.025520418 0.108699344 0.06380123
000280 84 3d e7 3d 00 88 9d 3d 0f 7a 91 3d 07 7c 05 3e
       0.1129103 0.076919556 0.07103359 0.13035594
000290 39 14 ae bd ab 7a 59 3b 86 cf bb bd e2 1a 81 3a
       -0.08499951 0.0033184688 -0.09170441 0.0009849931
0002a0 28 d8 e4 3d 1f 7a a7 bd 3a e3 bb bd d4 59 8a bd
       0.11174041 -0.081775896 -0.091741994 -0.067554146
0002b0 99 b6 22 be 7c d6 90 3d 73 a4 2c bd ce f2 9c bb
       -0.15889968 0.0707216 -0.04214902 -0.0047896868
0002c0 5d 09 e2 bd 1c ec 5d 3d f1 89 f4 bd 40 01 08 3b
       -0.11036942 0.05418025 -0.11940373 0.0020752698
0002d0 77 fc 90 3d 42 a2 81 bd 39 01 ee bc 32 6f ae 3d
       0.07079404 -0.06329776 -0.029053317 0.085173026
0002e0 ef cf 30 bd 31 9e e3 bd 57 b1 59 3c 06 cb be 3d
       -0.04316705 -0.11114157 0.01328691 0.093160674
0002f0 5d 02 c5 bc ea 73 2d bc 24 bd 8b bd 6d 98 67 bd
       -0.024048978 -0.010586718 -0.06823185 -0.05654185
000300 68 42 89 be ae a7 6a be d0 fd 6c 3e bd 09 03 be
       -0.26808476 -0.22915527 0.23143697 -0.12796684
000310 ef 9d 23 3c 1d 5f 2d 3e ca cf 91 3d 28 41 a9 be
       0.009986385 0.16930814 0.07119711 -0.33057523
000320 74 7e 54 be 0d 8e 12 3b 7b 90 48 be 42 db 29 3d
       -0.20751363 0.00223625 -0.19586365 0.041468866
000330 4e 67 28 be fa fd f3 3d 55 cc 79 be 86 8f 54 3e
       -0.16445658 0.119136766 -0.24394353 0.20757875
000340 56 98 82 be de cf 8e 3d f4 5c 21 bd 7a d0 2f 3e
       -0.25506848 0.06973241 -0.039395288 0.17169371
000350 18 d4 80 bd 2e 9c 7e 3d c1 98 e0 3d 43 98 d9 bd
       -0.06290454 0.062160663 0.109666355 -0.10624745
000360 0c 99 4d 3e 1e c6 59 be e1 04 27 be 62 2f cb 3d
       0.20077914 -0.21266982 -0.16310455 0.09921147
000370 95 d3 69 3b c7 b3 93 3d f2 83 20 3e 47 90 9d 3d
       0.0035679091 0.07212024 0.15675333 0.07693534
000380 eb 5a 4f 3d fe 54 07 be 01 2e 1c 3c 6a 4a 2d 3e
       0.050623816 -0.13216016 0.009532453 0.16922918
000390 ce 4d 08 be c5 28 fe 3d 33 3c 4b be 1d 5b fb 3c
       -0.1331093 0.1241012 -0.19847183 0.030683095
0003a0 b5 d9 f4 3d 19 bd 41 3e c5 82 41 bd 97 b5 d2 3d
       0.11955587 0.18919791 -0.047243852 0.10288542
0003b0 24 15 b1 bc 65 3d f6 bd 07 17 16 3c df eb b7 bd
       -0.021616526 -0.12023429 0.009160764 -0.08980536
0003c0 2f 0b a9 bd c3 0d ce bb 71 67 a5 3e 01 be 1b be
       -0.08254086 -0.0062882616 0.32305482 -0.152092
0003d0 cd 5e e9 3d 66 9b 0f bd 9d 57 51 bd 75 20 ef bd
       0.11395035 -0.03506031 -0.051108945 -0.116761126
0003e0 f0 50 05 bd 6f d8 dc 3d 3f 13 2a 3e 0c e1 25 be
       -0.03254789 0.10783469 0.16608904 -0.1619913
0003f0 3f 11 53 3e 60 1a 5a 3d fa 56 1e bd 05 9f 18 3d
       0.20612048 0.05324781 -0.038657166 0.037261028

encoder.lin.bias f4 [64]
000000 1d 2f fc 3d 4b e2 a8 3e b1 11 97 be 13 04 ae 3d
       0.12313674 0.32985148 -0.29505685 0.08496871
000010 26 9e 05 be 9d 15 40 3e f1 6e 71 3e 25 56 c3 bc
       -0.1304861 0.18758245 0.23577477 -0.023844788
000020 70 63 b5 3e 0d 0f 81 be 97 82 32 3e dd fa c6 bd
       0.35427427 -0.25206795 0.17432629 -0.09715817
000030 62 95 c1 be 3f 27 5a bc ea d8 77 3b 26 d1 1f be
       -0.37809283 -0.013315021 0.00378185 -0.15607128
000040 b8 0e 98 bd a1 c6 37 3e e5 88 19 be bc 6e a3 3e
       -0.074246824 0.17946865 -0.14993627 0.3192042
000050 eb 38 67 3e 27 19 7d 3e df b9 a8 3e e9 10 89 3e
       0.22580306 0.24716626 0.32954308 0.26770714
000060 f1 e8 84 be 35 fc 11 3e 9d bc 60 be 2d c7 86 bd
       -0.2595897 0.14256366 -0.2194695 -0.065809585
000070 83 f8 90 3e 93 8b 47 be ef f5 62 3e 48 a7 99 3e
       0.283146 -0.19486837 0.22164129 0.30010438
000080 29 12 b7 bd 6d 3e e8 bd 10 16 82 be 1e 8b 58 be
       -0.08939011 -0.11340032 -0.25407457 -0.21146819
000090 5f b0 9a 3d 36 de af 3e 21 53 62 3e d9 c4 ad be
       0.07553171 0.3434922 0.22102024 -0.33939245
0000a0 29 cd 2d be 0a 3d c7 3d c7 98 84 3e 6c 6c bd 3e
       -0.16972794 0.09728439 0.2589781 0.36996782
0000b0 f9 56 84 3e d1 06 7c be 28 19 f4 bc 38 e9 70 3e
       0.25847605 -0.24611975 -0.029797152 0.23526466
0000c0 10 d2 95 be d4 2b 2d 3e da 08 be 3e f3 9a de bd
       -0.29261827 0.1691125 0.37116128 -0.10869398
0000d0 1f a3 ad 3e f0 31 9d be 4a 50 6b be b5 ce a5 3d
       0.33913514 -0.30702162 -0.22979847 0.08096067
0000e0 3c 66 55 3e 6e 87 85 3e a8 6e 4f be 0f 12 16 3e
       0.2083978 0.26079887 -0.20257056 0.14655326
0000f0 c8 0d 0d 3e 8e c3 e3 be 00 54 17 be 58 73 77 bd
       0.13774788 -0.44485134 -0.14778137 -0.060412735

qz0_net.weight f4 [32, 64]
000000 4c 64 b8 bd 45 cb 66 3d e6 38 0d 3c d7 c0 b5 bc
       -0.09003505 0.056346197 0.008619523 -0.02218668
000010 a6 0d c8 bd 0a 92 84 3d 2e 27 d5 3d e0 15 a9 bd
       -0.09768228 0.06473167 0.104078636 -0.082561255
000020 5e a3 6a bd 9d c3 c5 bd f6 4d 96 3d 80 82 f5 bd
       -0.057284705 -0.09656451 0.073390886 -0.119877815
000030 d2 2f 05 3d 82 c7 80 bd 48 6a 4e 3c ae 80 c3 3d
       0.032516308 -0.06288053 0.012598582 0.09546028
000040 7f 01 36 3e 03 0c 8b 3b fa c6 9d bd 6b 98 bd 3d
       0.17774008 0.0042433753 -0.077039674 0.09257587
000050 45 9e 95 bd 41 40 b0 bd 15 31 09 bd 1d 51 62 bd
       -0.07305578 -0.086060055 -0.033494074 -0.055253137
000060 ad 2e 9a ba 17 7c ba bd 7f af 46 bd cf b9 1d bd
       -0.0011763178 -0.091056995 -0.04850721 -0.03850728
000070 21 06 a8 3d f1 c8 3d 3c 46 3b 22 3e 5d 95 f0 bc
       0.08204294 0.011583553 0.15842924 -0.029368097
000080 ef fe e3 bd 07 c6 be bd a1 84 75 3d df 6b 17 3e
       -0.11132609 -0.093151145 0.059940938 0.14787243
000090 a1 18 7c 3d 8c 70 16 be e9 44 48 3e d7 06 cd 3d
       0.061546925 -0.1469137 0.19557537 0.1001107
0000a0 5a fb 46 bb 79 ef a0 3d 6a 23 d8 bc 00 54 b5 3d
       -0.003036222 0.07858176 -0.026384074 0.08853912
0000b0 e0 63 e6 3d 20 5d b1 bd af ce 98 3c bd 78 d2 bc
       0.112495184 -0.0866034 0.018653242 -0.025692338
0000c0 e2 f2 2b bd 41 eb a0 bd 6d ba e6 bd 07 3f 01 3e
       -0.041979678 -0.07857371 -0.11266027 0.126217
0000d0 0b 9a 5d bd 62 2e 53 bd 02 f3 f9 bd ed 5b 4d 3d
       -0.054101985 -0.051557906 -0.12204553 0.050136495
0000e0 e3 81 24 3e ad 13 45 3d ee a2 08 be 4e 9c 6c bd
       0.16065173 0.048114467 -0.13343403 -0.05776625
0000f0 04 ad 7c 3c 05 c9 6f bd f6 4c b5 bc 51 fb c0 3b
       0.0154221095 -0.058541317 -0.022131424 0.0058893343
000100 69 71 9c 3d 23 2f 5e bd ba f9 02 3e 99 f4 de bd
       0.07638819 -0.05424417 0.12790576 -0.10886497
000110 83 62 ba 3d 6e 8c c0 bd ee 9a b5 bd 5a 4c e8 3b
       0.09100821 -0.09401785 -0.08867441 0.00708918
000120 1e bf 55 3e 6f c7 54 3c 51 33 86 bd b4 0d c4 3c
       0.20873687 0.012987002 -0.065527566 0.023932315
000130 ad bd ce 3d 9e f4 5b 3e 53 73 20 3d 27 c0 07 3e
       0.100947715 0.21480033 0.03917248 0.13256894
000140 2a df c9 bd 76 ce 32 be 25 df 4c 3e a8 0c 44 3d
       -0.09857018 -0.17461571 0.20006998 0.047863632
000150 a4 09 52 bd dc 91 15 3e 4e 86 ea 3d 0c ea d9 bd
       -0.051278725 0.14606422 0.11451398 -0.10640344
000160 ac 45 49 3d 23 0a 3c bd bf 44 18 3e ae ee 0d 3e
       0.04913871 -0.045908105 0.14869975 0.1386058
000170 7e 7d 9e bd a8 59 33 3e 32 e6 7f bd 9e 2b 42 3e
       -0.077387795 0.1751467 -0.06247539 0.18961951
000180 37 c6 f1 3d 23 35 30 3e 13 e0 d4 3c b6 c5 af bd
       0.118053846 0.1720777 0.025985753 -0.08582632
000190 58 88 d5 3d 79 a8 8d 3d 99 60 11 be b3 4a 95 bd
       0.10426396 0.06916899 -0.14197005 -0.07289638
0001a0 d0 6e 84 bc ba 98 5f be 4d c4 97 bc 24 de a6 3c
       -0.01616612 -0.21835604 -0.01852622 0.020369597
0001b0 99 f3 1e be e4 55 a2 3d ac 4e 68 3c 48 be 1d be
       -0.15522613 0.079265386 0.014178913 -0.15404618
0001c0 c3 e9 fd bc 60 11 8c ba 7f 77 f1 3d cc 31 dd bc
       -0.030995255 -0.001068633 0.1179037 -0.027001284
0001d0 15 df c6 3d 9f a9 e2 bd 83 34 d0 3d 04 50 8f bd
       0.09710518 -0.11067509 0.10166266 -0.06997684
0001e0 30 5e b4 35 89 4d 2f be 04 36 9b 3d b6 89 ad 3c
       1.3438457e-06 -0.17119421 0.07578662 0.02118383
0001f0 52 21 07 3b 56 f0 09 be 97 4e 2f 3d 7b 30 45 be
       0.0020619226 -0.13470587 0.04279956 -0.19256775
000200 21 75 1e be 6f 96 0b bd 85 f0 a7 3b d5 6e a3 3d
       -0.15474369 -0.03407901 0.0051251077 0.07980124
000210 d7 e4 17 be b1 03 9c bd 8e 45 9d bd 90 95 93 bd
       -0.14833389 -0.076178916 -0.07679282 -0.07206261
000220 dd 31 ca be 5c 65 cd 3d 6f 2f d9 3d fa f0 fe bb
       -0.39491168 0.100290984 0.1060475 -0.0077801915
000230 86 04 17 3e da 57 74 bd a1 f4 2d 3e a2 6a 2c be
       0.1474782 -0.059654094 0.1698785 -0.16837552
000240 70 82 fe 3b f4 a1 9c 3d 98 fe 4d 3d c5 5d 8d bd
       0.007767014 0.076480776 0.050291628 -0.06902651
000250 75 cd 23 bd 22 b2 b5 3c 6b 52 ab be a5 62 4f bd
       -0.03999086 0.022179667 -0.33461317 -0.050631184
000260 2a 0c b1 bd da d2 9c bc df db da 3d c6 27 92 bd
       -0.08644898 -0.01914351 0.10686468 -0.071364924
000270 24 f5 06 be 2e 84 aa bd 2c 76 44 3d eb b2 82 be
       -0.13179451 -0.083259925 0.04796426 -0.2552713
000280 d6 a3 29 be 2f 7c 07 bb e7 54 32 3e a8 16 b4 3d
       -0.16566405 -0.0020673384 0.174152 0.08793384
000290 46 7b c2 bd 37 38 82 be 72 67 01 3e d8 33 c5 3d
       -0.09496169 -0.25433514 0.12637118 0.09629029
0002a0 e2 6b 50 bd c0 b7 5f 3e ba 9d 74 bc bd 4d 4e be
       -0.050884135 0.21847439 -0.014930183 -0.20146842
0002b0 09 62 7f 3e 51 43 27 bd f2 e9 07 3e b1 99 2d 3d
       0.24939741 -0.040835682 0.13272837 0.0423829
0002c0 8d 52 f2 3d 05 88 08 3a 5e 15 b8 be 44 66 20 3e
       0.118321516 0.0005208257 -0.35953802 0.15664011
0002d0 25 3c 7b be 86 04 46 3e d8 60 68 3d 05 bf 67 bd
       -0.24534662 0.19337663 0.056732982 -0.056578655
0002e0 5e 0f 03 bd a4 41 3a 3e 52 f3 6c 3d 91 b1 3c be
       -0.031997077 0.18189102 0.057849236 -0.18427111
0002f0 87 3a 3e be 82 83 95 3e 9e b5 3e be 2f 63 42 3e
       -0.18577014 0.29201895 -0.18623969 0.18983148
000300 2b cd 6d bc 60 92 07 bd 61 3d 24 bc ae 7b 0c bb
       -0.014514248 -0.03309858 -0.0100243995 -0.0021436024
000310 12 05 c4 38 e1 98 da bc 07 02 27 bd 2b 40 bf 3d
       9.346953e-05 -0.026684226 -0.040773418 0.09338411
000320 38 28 83 39 21 78 87 be e4 5f 39 3d 84 96 9b 3d
       0.00025016232 -0.2645884 0.045257464 0.07597068
000330 f8 dc 9d bc 82 86 02 3e ea 7c 9e bd 00 b3 cc 3d
       -0.019270405 0.12746623 -0.07738669 0.09995079
000340 f0 e9 55 be fa 19 83 bd 86 4a 3b bd f3 b9 1f 3e
       -0.20890021 -0.06401439 -0.045725368 0.15598278
000350 30 8b 3b 3d 2e d7 f7 3d f9 90 20 3e de 6c 5a 3e
       0.045787036 0.12101589 0.15680303 0.21330592
000360 3f a4 53 bd 48 96 3a 3e 2d af 3d bd 47 82 c6 3d
       -0.05167031 0.1822139 -0.04630964 0.09692817
000370 f1 a5 8d bd 3e 84 61 bd a1 a1 c2 bd b0 f2 ff 3c
       -0.069164164 -0.055057757 -0.095034845 0.031243652
000380 9a 7b a3 bd 18 e3 75 bd 54 0e 82 bd 40 0d 3f be
       -0.079825595 -0.060031027 -0.06350389 -0.18657398
000390 33 fb cb 3d 42 6e 43 3e 19 13 98 bd ba 5a 59 be
       0.09960022 0.19085029 -0.074255176 -0.21226016
0003a0 2a ed 04 be 38 10 9d 3d 0d 4b 0a 3d da ab 0f 3e
       -0.12981096 0.07669109 0.03376298 0.140304
0003b0 bd 4c a1 bc 17 b0 ea bd ed 92 47 3d 2d 75 26 3e
       -0.019689912 -0.11459368 0.048724104 0.16255637
0003c0 5a 7a ee 3d 66 16 d2 bd 6f b8 9d 3e 92 70 4b bd
       0.116444305 -0.102581784 0.30804774 -0.049667902
0003d0 a1 13 26 3e e1 4d 99 bd ca 03 55 bd 82 4a 39 bd
       0.16218425 -0.07485557 -0.052005567 -0.04523707
0003e0 42 75 d5 3d ad 44 72 bd 70 26 88 bd d3 01 45 3e
       0.10422756 -0.059147526 -0.06647956 0.19238977
0003f0 e1 f2 c1 3d b0 30 e7 3c d1 47 d0 3d 18 de 83 3c
       0.094701536 0.028221458 0.10169948 0.016097113

qz0_net.bias f4 [32]
000000 a9 e3 42 bd 7d 67 73 3e 40 50 84 be 2f 21 43 3e
       -0.047580395 0.23769946 -0.25842476 0.19055627
000010 db 12 f2 be 50 8a db ba 53 ba dc bd b6 a1 74 3e
       -0.4728001 -0.0016749594 -0.10777726 0.23889813
000020 17 00 06 bd 9f d7 f7 be c0 15 99 bd 84 80 83 bc
       -0.03271493 -0.48406693 -0.074748516 -0.016052492
000030 ee 53 d3 be 82 36 8c 3e 0b 86 cd 3d 63 be e2 3d
       -0.4127497 0.27385336 0.10035332 0.1107147
000040 d0 76 0b be 5a 6f dc bd 42 bc 25 bd 38 ce 59 be
       -0.13619542 -0.10763426 -0.04046274 -0.21270072
000050 a4 c9 c4 bc 52 3b 78 be 4f f9 35 be 90 3a 94 bd
       -0.024021931 -0.24241379 -0.17770885 -0.072377324
000060 c9 11 ad be d0 2f 00 bd b1 f7 2a be ab d4 e5 bd
       -0.33802631 -0.031295598 -0.1669605 -0.11222204
000070 97 95 7e bd a6 38 1c be b2 85 a1 bd a9 18 8c be
       -0.06215438 -0.15255985 -0.078868285 -0.27362564

f_net.0.weight f4 [64, 80]
000000 c2 47 16 3d 0a a4 5d bd e0 b4 0f 3e 78 8b b5 bd
       0.036689527 -0.054111518 0.14033842 -0.08864492
000010 3d b5 b4 bd 02 01 8b bd be 3c b8 bd 5d 89 ff 3d
       -0.08823631 -0.067873016 -0.08995961 0.12477372
000020 90 7c b7 bd 2b c8 7e 3d 26 6a 80 3e 49 b3 7e 3e
       -0.08959305 0.062202614 0.25080985 0.2487308
000030 e3 68 fd bc 3f f0 6c be 06 22 2b 3e 8b b3 96 bd
       -0.030933803 -0.23138522 0.16712198 -0.07358464
000040 46 a7 86 be 94 85 9d 3d ce 96 2a ba c8 87 85 be
       -0.26299495 0.07691494 -0.0006507457 -0.26080155
000050 2d c8 a6 bc 60 59 c8 bd cc 30 39 3c d9 5e 87 3e
       -0.020359123 -0.09782672 0.011303138 0.2643955
000060 ee 31 e3 3c 21 59 96 be b4 9f ba 3d bb 1e 3c 3d
       0.02773377 -0.29364875 0.09112492 0.045927744
000070 c9 44 03 bc 2e ed b6 3d d7 24 18 be 8e 89 b9 3d
       -0.008012005 0.08931957 -0.14857803 0.090594396
000080 94 25 98 be f2 60 13 be 86 fa 66 bd 4a b8 1c 3e
       -0.2971617 -0.1439245 -0.05639126 0.15304676
000090 1a 86 20 3e c4 2b 4e 3e fb b2 35 3e d7 d0 57 3d
       0.15676156 0.20133883 0.17744057 0.0526894
0000a0 b9 b1 d3 3d 83 4e eb 3d 53 82 1a bd 9b b5 59 3e
       0.10336632 0.11489584 -0.037721943 0.21260683
0000b0 ac ce 72 bd d0 3e 66 bc 93 6b 1d 3c e9 6a 0a bd
       -0.05927913 -0.014053062 0.009608167 -0.033793364
0000c0 0e 8f a2 bc d5 19 56 3d 0c 63 6c 3e 5d fd 81 be
       -0.019843604 0.05227073 0.23084658 -0.25388613
0000d0 e4 e8 a2 3d c8 f3 11 3e c1 47 8d 3c d7 07 08 be
       0.079545766 0.14253151 0.017246129 -0.1328424
0000e0 66 10 78 bd 28 b3 fc bc fb 4d 95 bc 74 75 c5 3d
       -0.060562514 -0.030847147 -0.01822566 0.09641543
0000f0 08 13 1b 3c 7a f9 63 3d 37 36 1a 3c db 52 0d 3e
       0.009464987 0.05565784 0.00941234 0.13801138
000100 44 7e 90 bd 1c 83 3c 3d bf 63 10 3e 85 d7 66 be
       -0.07055333 0.046023473 0.1410055 -0.22543152
000110 6f 23 e6 3d 92 5a 28 be 82 13 86 3d 0e 16 58 be
       0.11237227 -0.164408 0.065466896 -0.21102163
000120 e3 b8 b7 3d 95 b3 7d be 09 b9 13 3e 80 51 42 3e
       0.08970811 -0.24775536 0.14426054 0.18976402
000130 88 b5 1c 3e ad 65 c2 bd df c4 cc bc 85 27 06 3e
       0.15303624 -0.09492049 -0.02499622 0.13101013
000140 8f b4 2c 3d c5 2f 9c bd 68 bf 72 3d 4f f3 96 bc
       0.04216438 -0.07626299 0.05926457 -0.018426565
000150 33 d7 e5 bd a7 2e 61 be f2 f8 da 3c 7f 03 89 bb
       -0.112226866 -0.21990453 0.026730035 -0.004181325
000160 84 21 5c bd 03 86 02 3e 96 56 76 3e 0b 98 4c 3e
       -0.0537429 0.12746434 0.24056467 0.19979875
000170 ee ce b4 3c a4 72 d5 bd 42 8a 1f 3e 1b f8 24 be
       0.022071328 -0.104222566 0.15580085 -0.1611027
000180 56 3d 82 be be ab 9b 3d d0 0b 7d bd 49 05 5d be
       -0.2543742 0.076011166 -0.061778843 -0.21584047
000190 bf 22 31 bd 4e 16 52 bb b9 f3 37 be 33 1f 03 3e
       -0.043246027 -0.0032056752 -0.17964067 0.1280487
0001a0 2c 23 6c bc 3e 8a 56 be 1c c8 32 3e ce 1d a7 bd
       -0.0144126825 -0.20951173 0.17459148 -0.08159982
0001b0 08 b0 36 be 87 67 b3 3d 4b 98 1c 3b 62 3a 44 bc
       -0.17840588 0.08759981 0.0023894485 -0.01197681
0001c0 f4 33 80 be f1 4f a4 bd 93 47 9c 3d 4a 14 e9 3d
       -0.25039637 -0.0802306 0.07630839 0.11380823
0001d0 d1 b7 b9 3d f7 2b 39 3e 33 05 5a 3e 62 90 64 3d
       0.09068263 0.18083178 0.21291046 0.055801757
0001e0 ca c3 16 be d0 8d 32 3e f9 35 6f bd ae 22 20 3e
       -0.14723125 0.1743691 -0.05840108 0.15638229
0001f0 f2 46 9b bd 48 4a 58 bd 9e 03 dc 3d 42 7b 1e 3e
       -0.07581891 -0.052805215 0.107428774 0.15476707
000200 54 64 9d bd d8 06 b1 3d 95 4c 5a 3d 0b d8 28 be
       -0.07685152 0.086438835 0.05329569 -0.16488664
000210 b0 5e 40 3e ac 58 d0 3d 2f e3 1d 3d 72 26 e7 bd
       0.1878612 0.10173163 0.038546737 -0.1128663
000220 61 6c 22 be 54 1f 13 3e 81 43 92 3d 6e 71 0d 3e
       -0.15861656 0.1436742 0.071417816 0.13812801
000230 e3 8a 47 3c 06 62 2e 3d 7f b9 38 3d 7f 7f a7 3d
       0.012179109 0.04257395 0.045098778 0.08178615
000240 d0 f3 83 bc 2b 64 26 be a9 4d 22 3d 31 6b bd bd
       -0.01610747 -0.16249149 0.039624844 -0.09248961
000250 76 f3 b9 3d bc f5 59 be 05 91 d3 3d c9 71 55 be
       0.090796396 -0.21285146 0.10330395 -0.20844187
000260 ef 77 44 3d e2 07 be 3c 79 bd 4c 3d 0d d2 2d 3e
       0.04796594 0.023197118 0.049985383 0.1697466
000270 49 71 70 3e 84 8a 7c bc f6 86 c2 bc bb 2c 06 3e
       0.23480715 -0.015413884 -0.023745995 0.13103001
000280 7b e1 71 3d bf 75 2c be 2b d3 3f 3e f4 20 0b 3e
       0.059052926 -0.16841792 0.18732898 0.1358679
000290 3d a6 10 3f dd 0e 2d bd b3 d7 18 3c e8 36 22 be
       0.5650366 -0.042250503 0.00932877 -0.15841258
0002a0 7f b8 08 3d e3 a3 06 3e b4 8c a2 bc e8 57 a2 3d
       0.033379074 0.13148455 -0.019842483 0.07926923
0002b0 d5 89 a1 3e 7c 41 0b be eb fa d8 3d e4 dc 8e 3d
       0.3155047 -0.13599199 0.10594734 0.06975725
0002c0 a1 67 9c 3d 07 a9 5a 3e 09 07 00 3d 95 8a f1 bd
       0.07636953 0.21353541 0.03125671 -0.117940105
0002d0 66 c8 8f 3e b4 84 58 be 81 ba c0 bd af cf 9f 3e
       0.2808258 -0.21144372 -0.09410573 0.31213138
0002e0 6b b0 19 3e 40 b0 0e be 12 da 04 3e 94 99 bd bd
       0.15008704 -0.13934422 0.12973812 -0.09257808
0002f0 4c 45 19 be 57 3c 87 3d 92 67 3a be e8 70 9c 3e
       -0.14967841 0.06603306 -0.18203571 0.3055489
000300 b4 b7 08 bd 92 75 9f bd 9e be b6 bc 97 06 12 3e
       -0.033378318 -0.07786097 -0.02230769 0.14260326
000310 a6 d7 ec 3c 47 05 08 3e e8 ca 13 3c 01 e7 65 3e
       0.028911423 0.13283263 0.009020545 0.22451402
000320 8f 7a f1 3e 41 28 09 3e 05 1e 2d be ac 55 6f 3d
       0.47163817 0.13394262 -0.16905983 0.058431312
000330 14 49 d8 bd dc 81 25 be 9d 27 5f 3e 8b 52 80 3c
       -0.105608135 -0.16162819 0.21792455 0.01566436
000340 d8 4f 92 be 6f d1 ac be 05 bb 2d 3e 21 00 90 bd
       -0.2857654 -0.33753535 0.16965874 -0.070312746
000350 e1 bf 20 3e 6b 30 e5 3b f9 1a bb 3c 53 1d b2 bd
       0.15698196 0.0069942973 0.02284001 -0.086969994
000360 d6 38 2a be fc f2 05 3e db c2 8d 3e 95 5d ef 3d
       -0.16623244 0.13080972 0.27687725 0.11687771
000370 15 4b 19 be 76 b1 64 3b 48 75 29 bd 8e 1e 80 3d
       -0.14970048 0.0034895814 -0.041371614 0.06255828
000380 21 82 50 be 9e 0d 06 be 9b f7 3b 3e f6 d1 f9 bd
       -0.2036214 -0.13091132 0.18356173 -0.1219825
000390 2f 2d 31 3d 5e 84 67 be 11 e5 34 3e 80 4c e4 bd
       0.04325598 -0.22609088 0.17665507 -0.11147404
0003a0 92 87 28 3e 6b 37 c1 be a6 5e d9 3d 73 e7 ef 3d
       0.16457966 -0.37737593 0.10613756 0.11714067
0003b0 ba 23 18 3e 5f 83 90 be eb 40 b2 3e 6f d7 8c 3e
       0.14857379 -0.28225228 0.34815153 0.27508113
0003c0 44 de 36 3e b1 0d 31 be b1 b2 a2 3c 90 a2 21 bd
       0.17858225 -0.17290379 0.019860597 -0.039461672
0003d0 25 27 e5 be 30 e6 53 be d3 64 d7 bd 49 54 e1 3d
       -0.44756427 -0.20693278 -0.105172776 0.11002404
0003e0 48 f8 0e be d3 10 18 be 67 be eb 3d c7 74 5d 3e
       -0.139619 -0.14850168 0.11510926 0.21626578
0003f0 f5 96 0d be bd af 44 be ea 16 c3 3c b0 f4 67 be
       -0.13827117 -0.19207664 0.023814637 -0.22651935
