latent_sde_pytorch/best_latent_sde_0.pth (torch, 573571 bytes, 216 tensors)

pz0_mean f4 [1, 16]
0.20049861 -0.19380584 0.13683033 -0.17758635 -0.15668705 0.18985519 0.17930405 -0.19473016
-0.089623466 0.18880144 -0.08090809 0.18739964 -0.026758814 -0.14758544 -0.20769458 0.16108546
00000000: 824f 4d3e 0a75 46be 401d 0c3e 32d9 35be
00000010: 9272 20be 6669 423e 7b9b 373e 5867 47be
00000020: 828c b7bd 2a55 413e 24b3 a5bd b1e5 3f3e
00000030: 4d35 dbbc a320 17be e3ad 54be 96f3 243e

pz0_logstd f4 [1, 16]
-0.15044469 -0.18378772 -0.17706895 -0.19156222 -0.17269912 -0.1899983 -0.1132484 -0.17762946
-0.15283725 -0.09648513 -0.120154224 -0.08371919 -0.17299029 -0.17143466 -0.1499469 -0.17473106
00000000: 2c0e 1abe d932 3cbe 9051 35be e328 44be
00000010: 0ad8 30be ea8e 42be c7ee e7bd 7fe4 35be
00000020: 5e81 1cbe ff99 c5bd 6b13 f6bd f774 abbd
00000030: 5e24 31be 918c 2fbe ae8b 19be b3ec 32be

encoder.gru.weight_ih_l0 f4 [192, 2]
-0.04841709 0.013342152 0.10017958 0.018398333 -0.02379597 -0.05536898 0.0708952 0.013644974
0.0750419 0.15775083 0.102145396 0.0013094668 0.10460153 -0.12613527 -0.051470455 0.1274039
-0.0040250695 -0.02731855 0.027657587 -0.083240025 0.10646239 0.03497855 -0.03549618 -0.009552831
-0.04806505 -0.011578694 0.04419465 0.10387234 0.006194171 -0.005812749 0.023656955 0.04746153
-0.04259087 -0.0042546573 -0.075130664 -0.06585429 0.11867226 -0.061962776 -0.11351734 0.0070796437
0.07702327 0.0778625 -0.07273155 0.065440655 0.013036469 -0.14074175 0.13525924 0.086844355
0.06390412 -0.09674235 0.025538158 0.042775642 0.02005618 0.03165481 -0.08701848 0.03727776
0.075373404 0.013359374 -0.009883264 -0.042029474 -0.008470229 -0.1478198 -0.021599377 0.03864575
-0.112272486 0.04872622 0.015176118 0.14320923 -0.037906997 0.061319258 -0.04729631 0.036750305
-0.00057982944 0.028579025 0.021598773 0.07837679 0.083253525 -0.124618754 -0.043443408 0.13282771
0.027524127 0.025825204 -0.058686588 -0.056951262 0.07037099 0.15625872 0.00029003347 0.11368004
0.020944959 0.11256544 0.14937872 -0.09220273 -0.010028755 -0.16804756 0.011024098 -0.08895722
-0.13238348 0.07064189 -0.036135484 0.045060694 0.06950503 -0.021757292 -0.034521557 -0.13696364
-0.0455236 0.09933864 0.007158623 -0.051823046 -0.08608577 0.05182995 0.0051577864 0.17232479
0.020198457 -0.092363246 -0.14615162 -0.13682337 -0.009109798 -0.07098319 -0.14150977 0.0018386273
0.026168514 -0.051518355 0.022354858 0.14499246 -0.07678998 -0.040044878 0.0064732805 -0.1008248
-0.050533373 -0.059759565 -0.088218376 -0.07120356 -0.089125104 -0.059597693 -0.07269519 -0.1312563
0.046668123 0.09460307 -0.055964615 0.044984743 0.053600285 0.08719262 0.075614005 0.06752822
-0.10590966 0.14935751 -0.106713295 0.0059843883 -0.06926451 -0.011706709 0.057778165 -0.020989079
-0.12642448 0.023041043 0.06922271 0.094164014 -0.06653973 0.08656383 0.060160443 -0.024931079
-0.10024281 -0.02939025 -0.044827964 -0.033902504 -0.047019977 -0.052479554 0.060583428 0.052588172
-0.022353757 0.03345374 0.12561391 -0.1047651 -0.09775691 0.13262375 0.07383781 0.046092745
-0.023866264 -0.080179974 -0.09818797 -0.075974256 -0.1270625 -0.115957074 -0.02672575 0.08004086
-0.049135346 -0.12523574 -0.09696779 0.11309275 0.1160438 0.0043491255 0.013152466 0.0018303653
-0.06706897 0.13053373 0.006888547 -0.084494084 -0.09637498 0.07756104 0.039642345 -0.0873249
0.08970186 0.0124614155 -0.011203458 -0.0059975344 0.09345578 0.037084244 0.023947144 0.029464265
0.027388234 0.00058287324 0.003602616 0.077500224 -0.09988993 0.1289482 -0.05861804 -0.10964185
0.041186176 0.08810071 0.071467765 -0.009962937 0.073748976 0.019124892 0.14470664 -0.043621805
-0.063176505 0.051260572 -0.13426806 -0.028374473 -0.05208894 -0.050840683 0.0021499866 -0.0019801857
-0.055365495 -0.024971625 -0.071275294 0.04369012 0.036367577 0.1084633 0.12086868 -0.07558119
-0.05538353 0.1398489 -0.0018417338 -0.04780159 0.06788541 0.05641707 0.08497685 -0.021914328
0.07094354 0.13436098 -0.04658062 0.006256053 -0.06926473 -0.10586768 -0.051881045 0.11302246
00000000: 0051 46bd 0b99 5a3c f42a cd3d 1ab8 963c
00000010: c4ef c2bc 95ca 62bd 8131 913d 2b8f 5f3c
00000020: 91af 993d 6f89 213e 9b31 d13d 6aa2 ab3a
00000030: 5439 d63d 9b29 01be afd2 52bd 2b76 023e
00000040: bbe4 83bb 27cb dfbc 2a92 e23c bf79 aabd
00000050: f408 da3d ab45 0f3d 7164 11bd 7a83 1cbc
00000060: dcdf 44bd 90b4 3dbc 7305 353d 05bb d43d
00000070: 79f8 ca3b df78 bebb 3bcc c13c 0567 423d
00000080: c473 2ebd a76a 8bbb 1bde 99bd 9dde 86bd
00000090: 710a f33d aecc 7dbd c77b e8bd 5bfc e73b
000000a0: 60be 9d3d 6076 9f3d 47f4 94bd c005 863d
000000b0: ea96 553c 9b1e 10be 6681 0a3e 74db b13d
000000c0: 2ae0 823d da20 c6bd 6635 d13c 8335 2f3d
000000d0: dc4c a43c 79a8 013d bf36 b2bd 91b0 183d
000000e0: 5f5d 9a3d 47e1 5a3c 6aed 21bc 1927 2cbd
000000f0: b7c6 0abc 135e 17be 2df1 b0bc 024b 1e3d
00000100: 1eef e5bd 2595 473d 41a5 783c 71a5 123e
00000110: 5e44 1bbd e729 7b3d c7b9 41bd 7d87 163d
00000120: b2ff 17ba 8f1e ea3c e9ef b03c 0384 a03d
00000130: d380 aa3d 1e38 ffbd b7f1 31bd fd03 083e
00000140: 477a e13c 618f d33c 5961 70bd ba45 69bd
00000150: aa1e 903d 4902 203e a20f 9839 15d1 e83d
00000160: c394 ab3c b688 e63d bcf6 183e c9d4 bcbd
00000170: a64f 24bc a914 2cbe 6b9e 343c 342f b6bd
00000180: 898f 07be b2ac 903d cd02 14bd 9091 383d
00000190: a758 8e3d 593c b2bc 7a66 0dbd 3240 0cbe
000001a0: f476 3abd 0f72 cb3d e292 ea3b 6744 54bd
000001b0: bc4d b0bd a44b 543d a602 a93b e975 303e
000001c0: 3c77 a53c f128 bdbd c5a8 15be 6d1b 0cbe
000001d0: 4341 15bc a25f 91bd f0e7 10be 18fe f03a
000001e0: 5a5f d63c e904 53bd 8921 b73c e778 143e
000001f0: 1144 9dbd 1906 24bd d01d d43b 3c7d cebd
00000200: 15fc 4ebd 72c6 74bd d6ab b4bd 2cd3 91bd
00000210: 3987 b6bd b61c 74bd 37e1 94bd 0d68 06be
00000220: 1327 3f3d 41bf c13d 273b 65bd ec41 383d
00000230: f98b 5b3d 0b92 b23d 84db 9a3d 3c4c 8a3d
00000240: 2ae7 d8bd 2df1 183e 808c dabd b018 c43b
00000250: 8dda 8dbd 7fcd 3fbc cca8 6c3d 4af1 abbc
00000260: 6b75 01be 92c0 bc3c a3c4 8d3d 10d9 c03d
00000270: fb45 88bd 6148 b13d cc6a 763d 433c ccbc
00000280: 1a4c cdbd d2c3 f0bc 879d 37bd 5add 0abd
00000290: 0598 40bd cdf4 56bd 5426 783d b266 573d
000002a0: 3a1f b7bc ca06 093d efa0 003e 168f d6bd
000002b0: c634 c8bd 85ce 073e 4738 973d bfcb 3c3d
000002c0: 2f83 c3bc 6635 a4bd c616 c9bd 6498 9bbd
000002d0: ac1c 02be e77a edbd f6ef dabc 76ec a33d
000002e0: 2542 49bd cc3d 00be 0c97 c6bd 2c9d e73d
000002f0: 5fa8 ed3d 1c83 8e3b 717d 573c dee8 ef3a
00000300: 755b 89bd a2aa 053e 52b9 e13b 3c0b adbd
00000310: 3f60 c5bd 53d8 9e3d 0360 223d 66d7 b2bd
00000320: 9cb5 b73d f72a 4c3c b58e 37bc f786 c4bb
00000330: be65 bf3d a6e5 173d cd2c c43c 0b5f f13c
00000340: 4a5d e03c f6cb 183a de19 6c3b 70b8 9e3d
00000350: 1793 ccbd ff0a 043e 7819 70bd e88b e0bd
00000360: d6b2 283d 256e b43d b15d 923d 963b 23bc
00000370: b409 973d ceab 9c3c fa2d 143e c7ac 32bd
00000380: af62 81bd 9bf6 513d 917d 09be 9571 e8bc
00000390: 365b 55bd 523e 50bd cae6 0c3b 01c6 01bb
000003a0: eec6 62bd 4b91 ccbc c8f8 91bd 69f4 323d
000003b0: 2bf6 143d 0222 de3d 008a f73d 50ca 9abd
000003c0: d7d9 62bd 8d34 0f3e 5566 f1ba 9acb 43bd
000003d0: 8107 8b3d 9615 673d 5808 ae3d ad85 b3bc
000003e0: d94a 913d ed95 093e 52cb 3ebd 94ff cc3b
000003f0: abda 8dbd 27d1 d8bd 3881 54bd 5278 e73d

encoder.gru.weight_hh_l0 f4 [192, 64]
-0.03734699 -0.122319475 -0.093706764 -0.0767644 -0.11169968 0.010955792 0.10028055 0.06313911
0.061176397 -0.06071004 0.0360513 -0.051584497 -0.088695675 -0.007986886 0.018623313 0.03671849
-0.090483494 -0.0028340407 0.055927753 0.124283925 0.058655012 -0.019477423 -0.08377508 -0.00045529444
0.03910107 0.0839848 -0.052321624 -0.11514721 0.17981777 0.0086288415 -0.03725416 0.055390578
-0.075698994 0.08691417 -0.12515992 -0.07541162 -0.063919105 0.101054914 -0.06729624 -0.11664699
-0.0678659 0.044308033 -0.022365838 -0.06563389 0.12741762 0.056907166 -0.17801009 0.056086577
0.14300947 0.046849977 0.15333372 0.1079287 0.10091445 0.09617158 0.053908832 -0.16583042
-0.04552306 0.028420515 0.06789419 -0.0458419 0.11047763 -0.07209311 0.1066963 -0.048675083
-0.14759046 -0.05106138 0.037450448 -0.028180998 -0.12071664 0.08634945 0.054743353 -0.12796263
0.12069889 0.0869024 0.06525934 0.0060971393 -0.107857175 0.011842113 -0.113054335 0.020738652
-0.058068775 0.07947826 0.10143227 -0.097589985 0.042048577 0.079314776 0.092519015 -0.14341736
0.016561273 0.1034569 0.13844836 -0.07989882 -0.17316571 0.10574472 -0.06593423 0.12977913
0.08694443 -0.08298358 0.13855603 -0.07110589 0.052674457 -0.008574845 -0.11258862 -0.058943585
-0.013605193 -0.03662437 0.026861437 -0.033673193 -0.09386628 0.08638861 0.12520051 0.10496952
0.12991223 0.04141395 0.05278765 0.012805855 -0.019904057 -0.06798965 0.062592305 -0.05437455
0.094855756 -0.14546615 0.005479614 -0.089167334 -0.008817814 -0.15292034 -0.117561385 -0.006174714
0.13371038 -0.04446242 -0.14975266 -0.066565774 -0.10332818 -0.043681245 -0.12477713 0.11042179
-0.056711152 0.04283594 0.03585539 -0.03426803 0.0421788 -0.0028117574 -0.13181777 -0.09688041
-0.15947104 0.117504 -0.0647583 0.08935907 0.0078019374 -0.03542133 0.06285875 -0.04851041
0.08322147 -0.10060096 -0.11614462 -0.050041497 -0.010489849 -0.05713385 -0.064265065 -0.058785535
0.11583871 0.09534657 0.041762955 -0.036623873 -0.01204528 -0.050491203 -0.0020770375 -0.008182685
0.07985911 0.10510425 0.016128268 0.087178566 0.07855241 -0.11102305 0.07827226 -0.06337563
0.13181363 0.051833853 -0.119900584 -0.030853 -0.06906615 0.025460184 0.008824204 -0.03808211
-0.057673454 0.0055174427 -0.13571788 0.0921366 0.09896843 0.07424603 0.03165327 -0.109225586
-0.16187182 0.123091534 0.103148244 0.0058060773 0.031793725 -0.036501676 -0.0647794 0.00681717
-0.036924433 -0.15683287 -0.13181143 -0.01960349 0.024239598 0.13625573 0.05085218 0.018861994
-0.015932845 -0.048704244 -0.04623132 -0.016187463 0.05057448 0.023264604 0.12757263 -0.13506418
-0.11426787 0.035597153 0.034208994 -0.046377324 0.019977164 0.10519885 0.12654486 0.07559884
0.014864141 -0.16268212 0.084014125 0.06951228 -0.04187009 0.12892966 -0.02972013 -0.023551485
-0.061412666 -0.079961605 -0.008692686 0.06983722 -0.121257134 0.09844371 -0.031530276 -0.02342339
-0.14654674 0.031176958 -0.09036025 -0.055007543 0.0002953385 -0.13563187 -0.07716128 -0.053122155
0.09892491 0.09191023 0.034350555 0.08592532 0.052614015 0.06935193 0.11260797 0.16528623
00000000: 28f9 18bd a282 fabd 55e9 bfbd a736 9dbd
00000010: cdc2 e4bd ec7f 333c e45f cd3d 144f 813d
00000020: 1a94 7a3d 17ab 78bd 87aa 133d 444a 53bd
00000030: 14a6 b5bd 6edb 02bc eb8f 983c 2166 163d
00000040: 694f b9bd 50bb 39bb 8014 653d 9288 fe3d
00000050: 3d40 703d 1e8f 9fbc 4592 abbd 96b4 eeb9
00000060: 7228 203d 3900 ac3d 334f 56bd 4dd2 ebbd
00000070: 2622 383e fc5f 0d3c d197 18bd 3be1 623d
00000080: 1308 9bbd 0e00 b23d ec29 00be 6871 9abd
00000090: 05e8 82bd e1f5 ce3d 9cd2 89bd 9ee4 eebd
000000a0: 47fd 8abd 577c 353d 9038 b7bc 106b 86bd
000000b0: c479 023e 7d17 693d 4748 36be 0abb 653d
000000c0: 1371 123e c3e5 3f3d 8403 1d3e b909 dd3d
000000d0: 3cac ce3d 9bf5 c43d 82cf 5c3d 73cf 29be
000000e0: 6376 3abd 24d2 e83c 1c0c 8b3d b7c4 3bbd
000000f0: 1842 e23d 8da5 93bd 9783 da3d 865f 47bd
00000100: f421 17be bd25 51bd a465 193d d6db e6bc
00000110: 493a f7bd fbd7 b03d 913a 603d a308 03be
00000120: fb30 f73d e3f9 b13d b0a6 853d 83ca c73b
00000130: 39e4 dcbd 6c05 423c 0889 e7bd 1be4 a93c
00000140: 86d9 6dbd 7fc5 a23d b9bb cf3d 42dd c7bd
00000150: 213b 2c3d c96f a23d 9c7a bd3d 00dc 12be
00000160: 82ab 873c 36e1 d33d 68c5 0d3e fea1 a3bd
00000170: 5a52 31be b090 d83d 8708 87bd d2e4 043e
00000180: ec0f b23d 4cf3 a9bd a2e1 0d3e f79f 91bd
00000190: 2cc1 573d 827d 0cbc dd94 e6bd d46e 71bd
000001a0: 51e8 5ebc 6f03 16bd 840c dc3c e7ec 09bd
000001b0: f73c c0bd 83ec b03d 9034 003e 42fa d63d
000001c0: b607 053e ada1 293d dd37 583d a6cf 513c
000001d0: d50d a3bc 283e 8bbd 6530 803d d9b7 5ebd
000001e0: bc43 c23d 14f5 14be 558e b33b 5d9d b6bd
000001f0: 9878 10bc 2697 1cbe 06c4 f0bd 4155 cabb
00000200: 60eb 083e 3a1e 36bd c358 19be a353 88bd
00000210: ba9d d3bd 1beb 32bd 278b ffbd d224 e23d
00000220: f449 68bd bd74 2f3d 1add 123d a25c 0cbd
00000230: adc3 2c3d 7645 38bb 3dfb 06be 3d69 c6bd
00000240: 604c 23be f0a5 f03d 00a0 84bd e301 b73d
00000250: 65a7 ff3b f515 11bd 17bc 803d dab2 46bd
00000260: 0570 aa3d e007 cebd 3bdd edbd 50f8 4cbd
00000270: 9edd 2bbc 2f05 6abd 679d 83bd 1ac9 70bd
00000280: d83c ed3d 1045 c33d a20f 2b3d ea02 16bd
00000290: 9159 45bc ddcf 4ebd e81e 08bb ab10 06bc
000002a0: 2c8d a33d e640 d73d 6e1f 843c ad8a b23d
000002b0: 16e0 a03d 0e60 e3bd 354d a03d 15cb 81bd
000002c0: 27fa 063e bc4f 543d 708e f5bd 6ebf fcbc
000002d0: 8e72 8dbd e091 d03c 6593 103c fdfb 1bbd
000002e0: 003b 6cbd aacb b43b a1f9 0abe 1db2 bc3d
000002f0: f6af ca3d 4d0e 983d dca6 013d aab1 dfbd
00000300: bac1 25be 6a17 fc3d 633f d33d e840 be3b
00000310: 233a 023d c882 15bd 10ab 84bd 9162 df3b
00000320: 133e 17bd cc98 20be 93f9 06be 8097 a0bc
00000330: 1f92 c63c 9f86 0b3e 604a 503d 7884 9a3c
00000340: 9985 82bc 1a7e 47bd 0d5d 3dbd 929b 84bc
00000350: 3027 4f3d 6995 be3c 66a2 023e 444e 0abe
00000360: 4605 eabd 52ce 113d bb1e 0c3d 26f6 3dbd
00000370: 26a7 a33c 7f72 d73d fa94 013e 91d3 9a3d
00000380: ba88 733c 2496 26be 990f ac3d 745c 8e3d
00000390: f97f 2bbd 2306 043e a177 f3bc 0bef c0bc
000003a0: d98b 7bbd e9c2 a3bd c56b 0ebc d106 8f3d
000003b0: a955 f8bd db9c c93d e425 01bd 69e2 bfbc
000003c0: 5910 16be d266 ff3c cb0e b9bd 974f 61bd
000003d0: aad7 9a39 15e3 0abe bc06 9ebd 9e96 59bd
000003e0: 2599 ca3d 6e3b bc3d 2bb3 0c3d 9df9 af3d
000003f0: cb81 573d 6208 8e3d 029f e63d cb40 293e

encoder.gru.bias_ih_l0 f4 [192]
-0.060863413 0.14773478 -0.08827628 -0.04841122 0.0502013 0.039565615 0.008868446 0.07150832
-0.00029098 0.07819633 -0.026112672 0.08375617 0.10234674 0.042587087 -0.0010791773 -0.06428484
0.08054094 -0.069844835 -0.08500491 -0.014131896 0.116845965 0.091736056 -0.042130098 0.058201034
0.03202949 0.10670316 0.070401005 0.009097792 -0.06045182 0.07133006 0.004875969 0.023786593
-0.058687393 0.1484917 -0.014822408 0.09354281 0.026311416 0.048176773 0.021869034 -0.040673275
-0.09099738 0.10504864 -0.013855914 0.13688888 0.046979796 -0.03070269 -0.14539701 0.08510564
-0.040218435 0.10028179 0.045851737 0.047889326 0.13845648 0.05195424 -0.099155195 0.068854675
0.09636674 0.070841394 -0.004174265 -0.03360599 -0.08308918 0.15178742 0.052839074 -0.016263708
0.07945095 0.06684381 -0.011444632 -0.08196973 0.05237235 0.07055748 -0.05786537 0.120055385
0.13475324 -0.010493608 0.13504328 0.010332936 0.0006563942 0.15772507 0.13700148 -0.03167799
-0.05762588 -0.018854631 0.05475435 -0.025694069 0.07854642 -0.0144537315 0.0053318753 0.1727603
0.04125156 -0.082106665 0.019140372 0.1374841 0.10242586 -0.061439045 -0.005613478 0.10931592
-0.078538045 0.118871555 -0.024002887 0.15471536 0.008544584 -0.014629204 -0.06414882 0.021426424
-0.023586122 0.032595746 0.10819377 -0.09315535 0.07297913 0.04278596 -0.092680044 -0.023933494
-0.04999175 -0.07909386 -0.090661205 -0.029378714 -0.07523177 0.19574499 0.10473367 0.095105134
0.14686753 -0.039120585 -0.041941907 0.015324453 -0.021497574 0.11284547 -0.082588725 -0.017646387
-0.09804859 0.04208537 -0.13444717 -0.16026159 -0.04129439 0.007960133 -0.005655476 -0.074226074
0.095429696 0.10260792 -0.093334936 0.11398502 -0.14531742 0.07815731 -0.10451774 0.073817596
0.10660894 0.02926654 -0.09950263 -0.022637516 -0.09459259 -0.08667781 0.15154321 0.078917325
-0.024812883 -0.065789245 -0.044981364 -0.10729459 -0.086223535 0.049979754 -0.02331788 0.07238992
0.1352544 -0.051772732 0.015288879 -0.08638023 0.07317841 -0.096440785 -0.026173132 0.1664544
-0.0893614 -0.09771627 -0.0009907968 -0.08373643 -0.00031683414 0.17641915 0.10122494 -0.12599574
0.061053667 0.139537 -0.07254041 0.0075212657 -0.0048181177 -0.0610085 -4.0684798e-05 0.06253222
-0.0010401745 0.0009362354 0.13546468 -0.00061953615 -0.0073493174 -0.04898055 -0.10108872 -0.1125014
00000000: ea4b 79bd c947 173e 32ca b4bd d84a 46bd
00000010: e19f 4d3d 8e0f 223d f54c 113c f472 923d
00000020: ad8e 98b9 6625 a03d 3eea d5bc 5b88 ab3d
00000030: 2b9b d13d cc6f 2e3d 2e73 8dba c5a7 83bd
00000040: a6f2 a43d cf0a 8fbd 0e17 aebd 7889 67bc
00000050: f04c ef3d 1de0 bb3d 9c90 2cbd 3564 6e3d
00000060: 5b31 033d 3087 da3d 672e 903d e80e 153c
00000070: 549c 77bd 7f15 923d 98c6 9f3b 1adc c23c
00000080: 3162 70bd 350e 183e afd9 72bc 5f93 bf3d
00000090: 0a8b d73c 0255 453d b026 b33c 0599 26bd
000000a0: d65c babd be23 d73d ea03 63bc 992c 0c3e
000000b0: e36d 403d 3584 fbbc f4e2 14be de4b ae3d
000000c0: 16bc 24bd 8a60 cd3d 08cf 3b3d 9927 443d
000000d0: 89c7 0d3e f8cd 543d e111 cbbd ae03 8d3d
000000e0: ed5b c53d 4b15 913d 46c8 88bb 6fa6 09bd
000000f0: a92a aabd 296e 1b3e c96d 583d 783b 85bc
00000100: 2eb7 a23d 68e5 883d 4482 3bbc bfdf a7bd
00000110: 6484 563d 7180 903d 3d04 6dbd 99df f53d
00000120: c1fc 093e 62ed 2bbc c948 0a3e 7a4b 293c
00000130: de11 2c3a ae82 213e 1e4a 0c3e c8c0 01bd
00000140: 1d09 6cbd 0775 9abc 1946 603d 5e7c d2bc
00000150: f2dc a03d 58cf 6cbc 03b7 ae3b 13e8 303e
00000160: 65f7 283d 8a27 a8bd 45cc 9c3c a2c8 0c3e
00000170: a6c4 d13d 82a7 7bbd 44f1 b7bb 06e1 df3d
00000180: 8ed8 a0bd ee72 f33d b4a1 c4bc b46d 1e3e
00000190: 95fe 0b3c 54af 6fbc 7560 83bd 7886 af3c
000001a0: af37 c1bc 1e83 053d b294 dd3d 3bc8 bebd
000001b0: 1576 953d 5540 2f3d 09cf bdbd 2d10 c4bc
000001c0: 26c4 4cbd f6fb a1bd 95ac b9bd a1ab f0bc
000001d0: 1d13 9abd 6071 483e 9b7e d63d 7bc6 c23d
000001e0: 7164 163e e83c 20bd 47cb 2bbd 6a13 7b3c
000001f0: ae1b b0bc 871b e73d 4724 a9bd 288f 90bc
00000200: b3cd c8bd b561 2c3d 85ac 09be 9d1b 24be
00000210: 4e24 29bd 386b 023c 9251 b9bb d703 98bd
00000220: a570 c33d 1a24 d23d 6326 bfbd fa70 e93d
00000230: 17ce 14be f110 a03d 660d d6bd ae2d 973d
00000240: ca55 da3d 62c0 ef3c 09c8 cbbd 5072 b9bc
00000250: c3b9 c1bd 2384 b1bd 252e 1b3e 689f a13d
00000260: 6344 cbbc 83bc 86bd 613e 38bd 44bd dbbd
00000270: f795 b0bd 92b7 4c3d 2405 bfbc 2b41 943d
00000280: 2180 0a3e a50f 54bd 357e 7a3c 1ee8 b0bd
00000290: 90de 953d bf82 c5bd 0969 d6bc 0673 2a3e
000002a0: 1c03 b7bd 781f c8bd a0dd 81ba 017e abbd
000002b0: c21c a6b9 39a7 343e 054f cf3d 0705 01be
000002c0: 6913 7a3d cae2 0e3e 1190 94bd f374 f63b
000002d0: 4de1 9dbb 0de4 79bd f8a4 2ab8 e410 803d
000002e0: 7756 88ba b26d 753a 41b7 0a3e 5e68 22ba
000002f0: 8bd2 f0bb d49f 48bd 9a07 cfbd 2267 e6bd

encoder.gru.bias_hh_l0 f4 [192]
-0.051958192 0.0042466014 0.06996288 -0.013586961 -0.026192505 0.018934738 0.110148005 0.12839098
-0.0878504 0.022632688 0.048052933 -0.06329871 -0.07542863 0.10510196 0.17554669 0.089353316
0.089338474 -0.12331068 -0.04544956 -0.10873092 -0.038051214 -0.097452804 0.012574383 0.004413949
-0.08397517 0.07781337 0.0925901 0.02687581 0.0014773192 -0.004993767 0.09494113 -0.059530575
-0.064946875 0.013226115 0.05217269 0.1574004 0.064569905 0.070810944 -0.038798045 0.12430773
0.057503846 0.118150525 -0.05422069 0.13740747 0.07789431 -0.021668304 -0.07594328 0.0817077
0.11030446 -0.0118681835 -0.03782278 -0.07997458 0.010951343 0.098721616 -0.13249844 0.00563901
0.15987815 0.0906568 0.07772737 0.034585122 -0.099727824 0.08038786 -0.015664035 0.06028547
-0.058127396 -0.012083302 -0.008801434 0.06117231 -0.052167088 0.014872646 -0.001644907 -0.090878755
0.14356998 0.06525302 0.09341054 -0.011877637 -0.035268523 -0.0330339 0.14418188 -0.09593998
-0.027127434 0.06851344 0.010543603 0.025874512 0.15940353 -0.021544257 0.09606862 0.18681799
0.072306655 0.11709074 -0.019865474 0.11163027 0.07198547 0.124987155 0.0500321 0.048211668
0.029910823 0.1668919 -0.0032165083 0.19827147 0.16372982 -0.08735845 -0.054726448 0.094843544
0.013219191 -0.0526419 0.10422263 0.03950794 -0.04842387 0.015803663 -0.09142965 0.06100679
0.06566726 0.108018845 -0.08636079 -0.12955737 0.117573746 0.15771565 0.09903846 0.049760185
-0.04348524 0.0122380825 -0.030153487 0.010406565 0.09783931 0.03340044 -0.030267382 0.14112356
0.00046287166 -0.009024352 -0.049785286 -0.013623492 -0.18568254 0.035169095 0.052569427 0.011509423
0.08829396 0.09951685 -0.09916809 -0.04501977 -0.094460525 -0.09761011 -0.07151712 -0.1125305
0.074735604 -0.021404251 -0.09723445 -0.058688655 0.06233199 -0.028411627 -0.033064287 -0.075240545
-0.024586821 -0.1531319 -0.07968581 0.01452681 -0.019286145 0.049683426 -0.033954285 0.015423906
0.04512407 0.089450404 0.021903018 -0.09546199 0.074691825 -0.16227548 -0.04261763 0.043844644
-0.126696 -0.09689576 -0.17651172 -0.009382383 0.01996895 -0.057223335 -0.020983646 0.019444453
0.011092906 0.0711581 -0.13200518 0.06884991 -0.10528214 0.12805915 -0.06230259 0.10414542
0.001757012 -0.14279923 0.15094274 0.13599783 -0.051668674 -0.053553708 -0.007193813 0.03303541
00000000: 1dd2 54bd 1327 8b3b b348 8f3d d89b 5ebc
00000010: aa91 d6bc 061d 9b3c 4795 e13d ed78 033e
00000020: e9ea b3bd 3068 b93c 27d3 443d c1a2 81bd
00000030: 537a 9abd b23f d73d 83c2 333e dffe b63d
00000040: 17f7 b63d 4f8a fcbd 5129 3abd 51ae debd
00000050: 97db 1bbd 5695 c7bd c904 4e3c e3a2 903b
00000060: 2dfb abbd 9e5c 9f3d e19f bd3d a92a dc3c
00000070: 9ba2 c13a c1a2 a3bb 7f70 c23d 55d6 73bd
00000080: de02 85bd 59b2 583c 08b3 553d 922d 213e
00000090: 3a3d 843d 5405 913d b3ea 1ebd 0d95 fe3d
000000a0: 2789 6b3d e7f8 f13d 8416 5ebd 8bb4 0c3e
000000b0: 0d87 9f3d ba81 b1bc 2688 9bbd 5e56 a73d
000000c0: 4ee7 e13d c572 42bc 0fec 1abd b6c9 a3bd
000000d0: 436d 333c 8f2e ca3d acad 07be 72c7 b83b
000000e0: 19b7 233e 46aa b93d 872f 9f3d 21a9 0d3d
000000f0: 1a3e ccbd 64a2 a43d dd51 80bc e6ed 763d
00000100: fe16 6ebd 0bf9 45bc e433 10bc d18f 7a3d
00000110: 28ad 55bd 66ac 733c ec99 d7ba a41e babd
00000120: 0204 133e 60a3 853d 064e bf3d 6c9a 42bc
00000130: ba75 10bd 8e4e 07bd 6aa4 133e 2e7c c4bd
00000140: 5a3a debc c650 8c3d 14bf 2c3c c9f6 d33c
00000150: ae3a 233e 957d b0bc a0bf c43d 374d 3f3e
00000160: 8315 943d 45cd ef3d ebbc a2bc 699e e43d
00000170: 1e6d 933d 44f9 ff3d 76ee 4c3d 9979 453d
00000180: 8b07 f53c b6e5 2a3e 0ecc 52bb ad07 4b3e
00000190: caa8 273e fde8 b2bd d728 60bd 553d c23d
000001a0: 4e95 583c 089f 57bd ad72 d53d 14d3 213d
000001b0: 1c58 46bd af76 813c 783f bbbd 41e2 793d
000001c0: 8e7c 863d fc38 dd3d eddd b0bd b0aa 04be
000001d0: 81ca f03d 3680 213e add4 ca3d 56d1 4b3d
000001e0: 941d 32bd 3d82 483c 7204 f7bc 4c80 2a3c
000001f0: fa5f c83d e6ce 083d 4df3 f7bc b282 103e
00000200: 95ad f239 e0da 13bc a8eb 4bbd 1135 5fbc
00000210: 9023 3ebe 780d 103d 0a53 573d 0592 3c3c
00000220: 77d3 b43d 7ecf cb3d a418 cbbd a666 38bd
00000230: 8574 c1bd cfe7 c7bd 9177 92bd 6476 e6bd
00000240: fb0e 993d f857 afbc db22 c7bd 8463 70bd
00000250: d44f 7f3d 80bf e8bc 6b6e 07bd b717 9abd
00000260: 4d6a c9bc 9cce 1cbe 5032 a3bd db01 6e3c
00000270: fafd 9dbc d980 4b3d a613 0bbd 8db4 7c3c
00000280: 04d4 383d c631 b73d f56d b33c 9381 c3bd
00000290: 07f8 983d 8b2b 26be d38f 2ebd 7196 333d
000002a0: 99bc 01be 4971 c6bd 7dbf 34be 91b8 19bc
000002b0: ec95 a33c 0463 6abd e5e5 abbc f949 9f3c
000002c0: 05bf 353c 57bb 913d 5e2c 07be 2e01 8d3d
000002d0: 2a9e d7bd f021 033e 0031 7fbd 324a d53d
000002e0: 8a4b e63a f639 12be bc90 1a3e 0443 0b3e
000002f0: 88a2 53bd 225b 5bbd 14ba ebbb 2350 073d

encoder.lin.weight f4 [64, 64]
0.09408812 0.05331191 -0.015017927 0.1316344 0.07769918 0.0019569586 0.06764532 0.101770036
-0.10214546 -0.050812542 -0.014118303 0.06997283 0.060907256 -0.068280086 0.067887194 -0.03005282
0.06963548 0.093481794 -0.0155534325 -0.0068182936 -0.009376107 -0.039184287 -0.12828645 -0.0518965
0.11035068 -0.029749893 0.038280662 0.11438953 0.08850063 -0.079439215 -0.1175544 -0.066492386
0.11855663 0.08387594 -0.12094949 -0.121499635 -0.075174615 0.10465499 -0.0757642 -0.09058741
-0.043593835 -0.081286065 0.13506545 0.047676492 0.12058487 -0.06941925 -0.06737383 -0.09475087
0.09750766 0.0043720817 0.028422356 0.07177864 0.113285825 -0.070025705 -0.10136154 0.086839944
0.11140899 0.108666375 0.085719295 0.0037555 0.06723394 0.08471928 0.13826668 -0.03684886
0.115387365 -0.11866944 -0.10589091 0.07023312 0.03656811 -0.07159165 -0.09667718 0.114543565
-0.051916193 -0.09402312 -0.09087384 0.021449098 -0.06588865 -0.051242314 -0.017733468 -0.03416782
-0.030861935 -0.023661893 0.014944235 0.08157323 -0.08336544 0.11312705 -0.07816359 0.016101366
-0.11352134 -0.08923778 0.10877553 0.07898021 0.08356992 -0.016658459 0.0022884093 -0.052385878
-0.077411145 0.060573615 -0.01930471 -0.06964894 -0.117632166 0.08814267 -0.04918323 0.099332884
-0.0026564384 0.1025397 0.017132016 -0.058296718 0.07139717 0.05868856 0.0090773655 -0.07306278
-0.036114905 -0.021938948 -0.08286457 0.033653367 -0.055052247 0.0034147112 -0.11327617 -0.058102556
0.11401699 0.028319022 -0.099182576 -0.09908195 0.03532775 0.024286821 -0.101319335 -0.117027536
-0.101835065 -0.11989762 0.09730588 -0.10756526 -0.055607688 -0.044454347 0.066010214 0.083142534
-0.13632709 0.113695 0.13755229 0.017776359 -0.09741746 -0.026197964 0.14268664 -0.0013258937
-0.109669745 0.051888544 -0.068232656 0.062198006 -0.020264354 -0.0427583 0.024720278 0.14375462
-0.08165723 -0.0746286 0.0038165557 -0.10462918 0.09975215 0.07806338 0.013673524 -0.06883761
0.05723537 -0.07826958 -0.05391999 -0.097689904 -0.10244162 -0.10592979 -0.044200294 -0.03494952
0.0051163244 -0.12533747 -0.030643368 -0.10156099 -0.068931885 0.040537193 -0.05941451 0.12132437
0.0010872224 -0.13459238 0.06500711 0.09166732 -0.0068521276 0.035262268 0.008974229 -0.12275833
-0.037433702 0.1223044 -0.07352901 0.10630417 -0.10730266 -0.086877845 0.059461303 -0.009579088
0.022088075 -0.045179527 -0.06425614 -0.06432402 -0.06316773 -0.017005187 0.012800889 -0.06564618
-0.08253542 -0.085499704 -0.05585395 0.09472391 -0.09733637 0.08196237 -0.08484666 -0.028830865
0.09971839 0.0050938767 0.0027222903 -0.047697976 0.08288486 -0.018686999 0.061506826 -0.0069380584
0.036357798 0.11683784 -0.04537601 -0.038749892 0.059407562 -0.11060019 -0.0626744 -0.07603414
-0.099279806 -0.0599957 -0.01315709 0.026037667 0.0976745 -0.015559635 0.0546121 0.078176364
0.040191974 0.111875765 0.029071141 0.05094789 0.018747706 -0.07744539 -0.067069285 -0.07321221
-0.011203953 -0.03410008 -0.13079098 -0.03078848 -0.07040309 0.052464902 0.01434041 0.14224792
-0.03920656 -0.01209256 0.11240158 -0.12630711 -0.11846543 -0.084267154 0.040953416 -0.008297088
00000000: 46b1 c03d 975d 5a3d c00d 76bc 2bcb 063e
00000010: bf20 9f3d 5140 003b a189 8a3d cf6c d03d
00000020: a431 d1bd d020 50bd 7450 67bc ea4d 8f3d
00000030: e379 793d 6ed6 8bbd 7108 8b3d 5531 f6bc
00000040: 0c9d 8e3d 6273 bf3d d3d3 7ebc fe6b dfbb
00000050: 3e9e 19bc b47f 20bd 865d 03be 6d91 54bd
00000060: 8aff e13d 0cb6 f3bc 2fcc 1c3d 0f45 ea3d
00000070: d13f b53d 07b1 a2bd 5cc0 f0bd 292d 88bd
00000080: d2cd f23d 26c7 ab3d 5eb4 f7bd cdd4 f8bd
00000090: 26f5 99bd 5b55 d63d 432a 9bbd e485 b9bd
000000a0: 738f 32bd 4f79 a6bd 994e 0a3e 6d48 433d
000000b0: 33f5 f63d ae2b 8ebd 4afb 89bd be0c c2bd
000000c0: 19b2 c73d ae43 8f3b 00d6 e83c ae00 933d
000000d0: 6602 e83d a369 8fbd a496 cfbd 24d9 b13d
000000e0: 662a e43d 7a8c de3d 998d af3d d61e 763b
000000f0: f3b1 893d 4d81 ad3d c895 0d3e d5ee 16bd
00000100: 3650 ec3d f708 f3bd 55dd d8bd 62d6 8f3d
00000110: 71c8 153d a59e 92bd affe c5bd d195 ea3d
00000120: 13a6 54bd 328f c0bd 101c babd 05b6 af3c
00000130: a1f0 86bd 76e3 51bd c745 91bc 8ef3 0bbd
00000140: 2bd2 fcbc 96d6 c1bc aad8 743c de0f a73d
00000150: 80bb aabd 28af e73d 3b14 a0bd 03e7 833c
00000160: e07d e8bd 4cc2 b6bd b4c5 de3d 60c0 a13d
00000170: b526 ab3d 5277 88bc 23f9 153b 9392 56bd
00000180: bc89 9ebd 0a1c 783d e924 9ebc 1aa4 8ebd
00000190: 22e9 f0bd 2584 b43d 5b74 49bd 0a6f cb3d
000001a0: a417 2ebb 5600 d23d 7158 8c3c 8ac8 6ebd
000001b0: ae38 923d 6a63 703d 3bb9 143c f0a1 95bd
000001c0: 39ed 13bd 4fb9 b3bc e6b4 a9bd 1dd8 093d
000001d0: 777e 61bd 59c9 5f3b 56fd e7bd f2fc 6dbd
000001e0: bd81 e93d 4bfd e73c 3c20 cbbd 7aeb cabd
000001f0: d5b3 103d 28f5 c63c 8380 cfbd 22ac efbd
00000200: e78e d0bd e28c f5bd 4e48 c73d 2d4b dcbd
00000210: e3c4 63bd c315 36bd 5d30 873d a246 aa3d
00000220: 5499 0bbe edd8 e83d 82da 0c3e ba9f 913c
00000230: ce82 c7bd 1d9d d6bc 721c 123e 9cc9 adba
00000240: 889a e0bd 1589 543d 90bd 8bbd 56c3 7e3d
00000250: 6e01 a6bc 5423 2fbd 2e82 ca3c 6934 133e
00000260: e83b a7bd e1d6 98bd 2e1f 7a3b d347 d6bd
00000270: db4a cc3d b2df 9f3d eb06 603c bcfa 8cbd
00000280: a36f 6a3d cd4b a0bd 35db 5cbd a511 c8bd
00000290: e9cc d1bd b8f1 d8bd 5e0b 35bd 3a27 0fbd
000002a0: d7a6 a73b 7758 00be cd07 fbbc 35ff cfbd
000002b0: 292c 8dbd 540a 263d a15c 73bd e978 f83d
000002c0: 2181 8e3a 96d2 09be 7322 853d 13bc bb3d
000002d0: d087 e0bb 2b6f 103d a508 133c b868 fbbd
000002e0: 1554 19bd bb7a fa3d 6196 96bd 00b6 d93d
000002f0: 7fc1 dbbd 03ed b1bd b28d 733d 9bf1 1cbc
00000300: 0df2 b43c 2b0e 39bd b998 83bd 50bc 83bd
00000310: 155e 81bd 764e 8bbc d2ba 513c 8171 86bd
00000320: 5508 a9bd 781a afbd 1dc7 64bd 9cfe c13d
00000330: 4a58 c7bd e3db a73d 16c4 adbd b52e ecbc
00000340: 2839 cc3d 89ea a63b 7468 323b f45e 43bd
00000350: 8abf a93d 7a15 99bc 95ee 7b3d a758 e3bb
00000360: eaeb 143d ad48 ef3d 32dc 39bd 35b8 1ebd
00000370: 5855 733d 5a82 e2bd 705b 80bd cab7 9bbd
00000380: 3653 cbbd 0dbe 75bd d690 57bc f24c d53c
00000390: 9109 c83d d7ed 7ebc f0b0 5f3d ee1a a03d
000003a0: 57a0 243d 1f1f e53d 9a26 ee3c bcae 503d
000003b0: ca94 993c b09b 9ebd 9f5b 89bd 48f0 95bd
000003c0: c990 37bc 87ac 0bbd 12ee 05be 1f38 fcbc
000003d0: 7f2f 90bd 70e5 563d 0af4 6a3c 70a9 113e
000003e0: 0f97 20bd df1f 46bc cd32 e63d a756 01be
000003f0: 019e f2bd 4294 acbd c5be 273d 82f0 07bc

encoder.lin.bias f4 [64]
-0.1359742 0.14672029 0.18283343 -0.17905226 0.18012501 0.14964736 -0.10160705 -0.23080066
0.0935338 0.14919478 0.14888155 0.040517103 -0.14629233 0.23022832 0.0036092594 0.22396022
-0.13506113 0.16766107 0.17655212 -0.17921053 0.18278058 -0.064581916 -0.12824115 -0.07208658
0.137297 0.121254556 -0.16406636 -0.1517136 0.19183576 0.18341617 0.024006333 0.1757412
0.1675325 -0.23682834 -0.12941784 -0.09790885 0.09823359 0.06593635 0.13437673 -0.1449351
0.09009879 -0.2246665 0.20867032 0.18722145 -0.22761095 0.15023017 0.13959642 -0.20332743
0.17969084 -0.20589437 0.10207287 -0.15886241 -0.096908174 -0.16100141 -0.10546464 0.04092005
-0.0014629115 0.19396955 -0.11736353 -0.14225122 0.07891592 -0.15377298 0.19758314 -0.030025238
00000000: d23c 0bbe d83d 163e b038 3b3e 7a59 37be
00000010: b172 383e 283d 193e 5b17 d0bd 0257 6cbe
00000020: a68e bf3d 84c6 183e 6874 183e 43f5 253d
00000030: a8cd 15be f9c0 6b3e 5389 6c3b d455 653e
00000040: 774d 0abe 58af 2b3e 14ca 343e f782 37be
00000050: d52a 3b3e 8643 84bd a651 03be 21a2 93bd
00000060: 9697 0c3e 4f54 f83d 0301 28be cf5a 1bbe
00000070: 9870 443e 73d1 3b3e eea8 c43c 80f5 333e
00000080: a48d 2b3e 2183 72be 1c86 04be 6f84 c8bd
00000090: b12e c93d a309 873d 0e9a 093e de69 14be
000000a0: b785 b83d fa0e 66be acad 553e fbb6 3f3e
000000b0: d812 69be f0d5 193e 5df2 0e3e 1135 50be
000000c0: e000 383e f9d5 52be 950b d13d d4ac 22be
000000d0: cb77 c6bd 8edd 24be d8fd d7bd c89b 273d
000000e0: 2abf bfba f49f 463e 4a5c f0bd 4eaa 11be
000000f0: ab9e a13d aa76 1dbe 3c53 4a3e 7df7 f5bc

qz0_net.weight f4 [32, 64]
0.03909491 -0.008016926 0.056352686 -0.18606453 0.17896652 0.04991594 -0.0021818972 0.034031287
-0.04210809 0.17449832 0.09475654 0.111829184 0.07566231 0.079823755 0.101051286 0.18357848
-0.080194086 0.19022895 0.08037608 -0.077585615 0.073637605 -0.053144928 0.0025943825 -0.16862813
0.17428781 0.06300205 0.08461882 -0.17311724 0.10063375 0.1737597 -0.04480301 0.13491257
0.1574435 -0.18752693 -0.0040500015 -0.07769707 0.08506775 0.00030411268 -0.04719069 -0.05566112
-0.06751639 -0.05730672 0.037035353 0.03183916 0.08553919 0.046130825 0.06927136 -0.054914486
0.1495268 0.005549043 0.076748654 0.020603683 -0.08774246 0.040420834 -0.063294955 -0.08145039
-0.05361478 0.007319478 -0.054508317 -0.2011912 0.021618608 -0.082903266 -0.061125163 -0.009573161
-0.08313007 -0.10261654 0.0402419 -0.032703713 0.022666542 -0.15396397 0.11858166 0.12385079
-0.11383732 -0.018098826 -0.09598198 -0.15860902 -0.015829189 0.046271652 0.112234816 -0.039368443
0.12870546 -0.1013176 -0.11679301 -0.027208671 0.037618935 -0.061287124 0.11538156 0.027692432
-0.020544793 -0.1341952 -0.0106604695 -0.024054596 -0.081657074 -0.15033977 -0.10494249 -0.011870736
0.07409733 0.12002836 0.035807 -0.055637125 -0.091576345 -0.12703319 -0.10605861 0.12904316
-0.047781657 0.14852919 0.010098228 0.059228662 0.009243676 0.014769522 0.06664509 0.13091102
-0.0027717287 -0.06517982 -0.025836667 -0.06126648 -0.07691415 0.17672592 -0.034628347 0.11061401
-0.08758754 0.04610653 0.17321205 -0.03280555 0.06261108 0.11276929 -0.11455536 -0.021659737
0.043936986 0.0015833861 -0.035820622 -0.12703784 0.033798236 -0.06307416 0.039320186 -0.104552455
0.105896264 0.14167893 0.11858366 -0.021130271 0.003884526 0.13341144 0.077689335 0.056258604
0.062327716 0.0910934 -0.07043526 -0.06817495 0.13639897 -0.018321434 0.029260326 0.013892606
0.03145456 -0.019771207 -0.096063435 -0.0853469 0.031708214 -0.092533894 0.13431203 -0.052116178
-0.0035495157 -0.012689196 0.08767643 0.089373425 0.05503308 0.016671516 0.034274783 -0.14986767
0.14957012 -0.08336841 0.12345945 -0.082134396 -0.0062891943 -0.099627115 -0.08965699 0.06978477
-0.0445542 -0.12012745 0.012144705 0.019613795 0.09892788 0.029996537 -0.105872914 -0.055718936
-0.005442295 0.057041984 -0.08521836 -0.053304452 0.034649897 0.027045349 0.031372 -0.044268847
-0.015861673 -0.1205997 0.010179009 -0.014423392 -0.07916892 0.029768337 0.0060917386 0.12095399
-0.12273583 0.01410205 -0.104872 0.01526523 -0.11057611 0.04290627 0.12027309 0.006280349
0.13781072 -0.020301666 -0.08942482 0.0089107985 0.028128378 -0.07262701 0.011354051 0.14609419
-0.029149784 -0.09173348 0.01691956 0.015093096 -0.07571571 -0.0051242644 -0.09661017 -0.055549033
0.022912074 -0.07870284 0.03469732 0.0712385 0.0021777803 0.08202498 -0.12441521 -0.11641108
0.1161878 0.06753669 0.022587825 -0.03751389 0.073879324 0.07836569 -0.069357246 0.0196675
-0.025704157 -0.06618038 0.030195996 0.06515435 -0.0765869 -0.052128162 -0.04987387 0.01953918
-0.14216194 -0.017898405 -0.098009415 0.017146643 0.05586147 0.13967928 -0.05410016 -0.009898598
00000000: fc21 203d 6d59 03bc 13d2 663d b387 3ebe
00000010: 0043 373e a874 4c3d 29fe 0ebb 6464 0b3d
00000020: 8879 2cbd b0af 323e b80f c23d b306 e53d
00000030: d7f4 9a3d a37a a33d faf3 ce3d fffb 3b3e
00000040: cc3c a4bd 61cb 423e 379c a43d 35e5 9ebd
00000050: 50cf 963d 7fae 59bd 8406 2a3b daac 2cbe
00000060: 8178 323e 3807 813d a24c ad3d a545 31be
00000070: 1119 ce3d 10ee 313e 5c83 37bd 8526 0a3e
00000080: de38 213e 0f07 40be e0b5 84bb a41f 9fbd
00000090: 0038 ae3d 5071 9f39 064b 41bd eafc 63bd
000000a0: 0846 8abd 74ba 6abd 62b2 173d c769 023d
000000b0: 2c2f af3d adf3 3c3d 25de 8d3d 03ee 60bd
000000c0: 8e1d 193e bfd4 b53b 662e 9d3d 0ec9 a83c
000000d0: 52b2 b3bd 5190 253d c9a0 81bd 76cf a6bd
000000e0: 2c9b 5bbd 3bd8 ef3b 1d44 5fbd 1105 4ebe
000000f0: 8219 b13c 30c9 a9bd 615e 7abd bfd8 1cbc
00000100: 1940 aabd 9f28 d2bd b1d4 243d 54f4 05bd
00000110: 2faf b93c bba8 1dbe f1da f23d 7ca5 fd3d
00000120: 8a23 e9bd fd43 94bc 3392 c4bd 676a 22be
00000130: 37ac 81bc 5887 3d3d 5edb e53d ce40 21bd
00000140: 5dcb 033e 9a7f cfbd 2c31 efbd b8e4 debc
00000150: 5016 1a3d 3508 7bbd 2b4d ec3d 3ddb e23c
00000160: 8e4d a8bc 776a 09be 40a9 2ebc 250e c5bc
00000170: d33b a7bd abf2 19be 17ec d6bd 7a7d 42bc
00000180: 57c0 973d 6ed1 f53d 5caa 123d c1e3 63bd
00000190: 618c bbbd fd14 02be 4235 d9bd e423 043e
000001a0: b3b6 43bd 0918 183e 0a73 253c c199 723d
000001b0: ca72 173c ddfb 713c 397d 883d 8a0d 063e
000001c0: e4a5 35bb ff7c 85bd 6ba7 d3bc 8ff2 7abd
000001d0: 2a85 9dbd a4f7 343e 74d6 0dbd 9989 e23d
000001e0: 1961 b3bd 33da 3c3d 805e 313e 1d5f 06bd
000001f0: 3d3a 803d 96f3 e63d 009c eabd c36f b1bc
00000200: 45f7 333d 9f89 cf3a a5b8 12bd 3516 02be
00000210: 0570 0a3d 062d 81bd 340e 213d 991f d6bd
00000220: 24e0 d83d 4814 113e fddb f23d 6419 adbc
00000230: 8893 7e3b 029d 083e 961b 9f3d 6c6f 663d
00000240: 594b 7f3d 2d8f ba3d 5d40 90bd 4f9f 8bbd
00000250: 2cac 0b3e d516 96bc 5ab3 ef3c d09d 633c
00000260: 7fd6 003d 3af7 a1bc e8bc c4bd 5bca aebd
00000270: 79e0 013d 6982 bdbd 1889 093e c677 55bd
00000280: fe9e 68bb 58e6 4fbc b38f b33d 6a09 b73d
00000290: 5e6a 613d b492 883c b763 0c3d e976 19be
000002a0: e928 193e 0fbd aabd 4fd8 fc3d 1436 a8bd
000002b0: 9615 cebb 4d09 ccbd 159e b7bd 51eb 8e3d
000002c0: 777e 36bd 6105 f6bd 96fa 463c 1cad a03c
000002d0: b39a ca3d 4cbb f53c e6d3 d8bd 8a39 64bd
000002e0: 4855 b2bb dba4 693d f786 aebd c555 5abd
000002f0: 0ded 0d3d 358e dd3c ed7f 003d 4053 35bd
00000300: 57f0 81bc fafc f6bd dcc5 263c 1750 6cbc
00000310: 5123 a2bd badc f33c 359d c73b bab6 f73d
00000320: ec5c fbbd 490c 673c 22c7 d6bd 041b 7a3c
00000330: ba75 e2bd 7cbe 2f3d bd51 f63d 63cb cd3b
00000340: 411e 0d3e ae4f a6bc 5c24 b7bd 99fe 113c
00000350: 7c6d e63c 78bd 94bd 5706 3a3c b799 153e
00000360: 87cb eebc c3de bbbd e49a 8a3c 0849 773c
00000370: d710 9bbd 72e9 a7bb 8edb c5bd 6287 63bd
00000380: 1ab2 bb3c f42e a1bd c71e 0e3d 7ee5 913d
00000390: 17b9 0e3b b6fc a73d 67cd febd ef68 eebd
000003a0: dff3 ed3d ad50 8a3d 1a0a b93c 2aa8 19bd
000003b0: 0b4e 973d 317e a03d 2c0b 8ebd bd1d a13c
000003c0: 8691 d2bc 9489 87bd 985d f73c a56f 853d
000003d0: 98d9 9cbd 5784 55bd 8b48 4cbd a110 a03c
000003e0: e692 11be ad9f 92bc 29b9 c8bd 1e77 8c3c
000003f0: ffce 643d 1608 0f3e 2198 5dbd bb2d 22bc

qz0_net.bias f4 [32]
0.030908335 -0.076386146 0.020390047 -0.065725386 0.050293338 0.08480447 0.17796524 -0.13162437
0.01562629 0.16711234 0.043976273 0.13877232 0.058552735 0.026877198 -0.07606039 -0.014580786
-0.026303716 -0.0221076 -0.16218257 -0.15679844 -0.12380199 -0.09372195 0.053681068 -0.1029834
-0.047474325 0.02949507 -0.043341167 0.03361971 -0.1839777 -0.14689146 -0.011938581 -0.09721785
00000000: 7a33 fd3c 5770 9cbd 0709 a73c 089b 86bd
00000010: 6300 4e3d f7ad ad3d 853c 363e 8ac8 06be
00000020: b502 803c 7f1f 2b3e 7720 343d 551a 0e3e
00000030: fed4 6f3d 922d dc3c 8dc5 9bbd 40e4 6ebc
00000040: e47a d7bc ff1a b5bc 3013 26be c58f 20be
00000050: e68b fdbd 4bf1 bfbd aee0 5b3d f6e8 d2bd
00000060: 7074 42bd a59f f13c 8286 31bd d2b4 093d
00000070: a664 3cbe b76a 16be 0a9a 43bc 271a c7bd

f_net.0.weight f4 [64, 80]
-0.025900468 0.02757596 0.02722767 0.04248463 0.0009201516 -0.066641204 -0.06665635 -0.14961845
0.09075823 0.10764563 -0.097916305 0.018725269 -0.051685438 0.074419074 -0.13460514 0.11644611
0.099423416 0.1259079 0.11155374 -0.091333516 0.026584815 -0.083445944 -0.0040358384 0.044180598
-0.06046855 0.04724797 0.038397007 -0.10377426 0.033315204 -0.095042534 0.0058386084 -0.03888682
-0.01757342 -0.12416252 -0.084983006 -0.03782768 -0.11885121 -0.009454401 -0.009608422 0.053906158
0.09956391 -0.08531261 -0.09384497 0.000572536 -0.015540971 -0.11304149 -0.027459897 0.020521412
-0.050717544 0.002827932 0.11784928 0.044340983 0.109009765 -0.11472937 0.0473895 0.13628533
-0.08584572 -0.08760153 0.0585465 -0.114394926 -0.026438972 0.014167154 0.067843884 0.07362384
-0.009147563 -0.058463626 -0.094025366 0.111407034 0.0147347525 0.010739071 0.13035181 0.18321785
0.13170952 0.08214787 0.037257906 0.054029297 -0.07117294 -0.060352318 -0.060108475 0.01612928
0.042335413 -0.017672239 -0.10447303 -0.049642712 -0.04649415 0.07477405 0.048955806 0.06876559
-0.04922652 0.068051554 0.036164586 0.033829324 0.087783545 0.08225256 -0.09825108 0.07505327
0.021219278 -0.029136889 -0.068528764 -0.025704617 0.11156731 -0.012803278 0.0032758897 -0.12354879
0.05834091 -0.0038106856 -0.08169258 0.08180977 -0.00656541 0.07727755 0.0967785 -0.03246706
0.10723598 0.0008357767 0.0833208 -0.028969636 -0.004282267 0.007891747 -0.035073075 -0.009878215
0.10671637 0.073518686 -0.06092487 -0.043244287 -0.004810486 0.082124755 0.08332837 -0.07365229
-0.011335472 -0.023313161 0.04070203 0.03977043 0.018118775 0.06620223 0.11250416 -0.07385903
0.06792074 0.056485225 0.04233113 -0.05716083 -0.14488263 0.021748157 -0.019798597 -0.097808726
-0.049910497 -0.01947937 -0.018335013 0.08458853 0.04550337 0.06948709 -0.040143702 -0.056866784
-0.068485655 0.029321684 -0.09957114 -0.005092476 0.08508143 -0.06240198 0.09250559 -0.11162846
0.14125098 0.11981037 -0.06049926 -0.041170064 -0.035530854 -0.09795672 0.0016252008 0.07043593
0.071219206 0.009302485 -0.011625746 0.092473894 0.022856604 0.10929798 0.0026770388 0.050795257
-0.04798796 -0.05230825 -0.1670708 0.080469854 -0.08882076 0.085654736 0.15757786 -0.059485357
0.13457985 0.14622211 0.073773585 0.12565537 0.11013798 0.097384244 -0.049046878 0.093218565
0.09055811 -0.053952154 0.06587649 0.08554242 -0.009499664 0.115186825 -0.1164066 0.13079916
-0.046425555 -0.050093662 -0.08268112 -0.08561187 0.1352592 0.03766564 0.051654734 0.0039252266
0.021521354 -0.09052273 0.1147522 -0.007644876 -0.047196258 0.05269405 0.049679473 -0.08403723
0.1407375 -0.0111789415 0.013149598 0.043116372 -0.034460858 -0.104576945 -0.099780835 0.05886472
-0.12836964 0.00092792173 0.007479746 0.051475827 0.08514276 -0.0626215 -0.1340327 0.0066585205
-0.09092621 -0.099940605 -0.012151687 0.15447207 -0.045170706 -0.034423023 -0.039328936 -0.12849674
0.06557615 -0.11253059 0.08425817 0.07506063 -0.11904825 -0.049921136 -0.017921314 -0.00011825783
-0.0517728 0.061824556 -0.034610312 0.1229832 0.0641797 -0.10661106 0.09912684 0.02852838
00000000: 382d d4bc fbe6 e13c 900c df3c 5d04 2e3d
00000010: 5436 713a 2f7b 88bd 2083 88bd 9435 19be
00000020: 73df b93d 5075 dc3d 5888 c8bd bc65 993c
00000030: 1cb4 53bd 0769 983d eed5 09be 4c7b ee3d
00000040: 819e cb3d 00ee 003e 4a76 e43d 110d bbbd
00000050: 66c8 d93c b5e5 aabd 113f 84bb b7f6 343d
00000060: dfad 77bd 1687 413d 2e46 1d3d 9987 d4bd
00000070: 8675 083d a9a5 c2bd cc51 bf3b c947 1fbd
00000080: 22f6 8fbc eb48 febd 920b aebd 33f1 1abd
00000090: 4368 f3bd a2e6 1abc a56c 1dbc b4cc 5c3d
000000a0: 2ae8 cb3d 61b8 aebd cb31 c0bd 3e16 163a
000000b0: 8f9f 7ebc 4c82 e7bd 94f3 e0bc 851c a83c
000000c0: 33bd 4fbd d354 393b f75a f13d e49e 353d
000000d0: 8340 df3d 3bf7 eabd 7e1b 423d 628e 0b3e
000000e0: e1cf afbd 6e68 b3bd 74ce 6f3d e347 eabd
000000f0: 8b96 d8bc 5a1d 683c bcf1 8a3d 19c8 963d
00000100: a9df 15bc 8e77 6fbd 5f90 c0bd 5f29 e43d
00000110: 086a 713c eef2 2f3c f27a 053e 769d 3b3e
00000120: dcde 063e 243d a83d bf9b 183d d34d 5d3d
00000130: 1ec3 91bd fe33 77bd 4e34 76bd 8d21 843c
00000140: e667 2d3d 5fc5 90bc f5f5 d5bd 2856 4bbd
00000150: a670 3ebd 2323 993d e285 483d f9d4 8c3d
00000160: bfa1 49bd 9d5e 8b3d 5121 143d 9e90 0a3d
00000170: dcc7 b33d 0874 a83d dd37 c9bd 87b5 993d
00000180: 0dd4 ad3c 7cb0 eebc cf58 8cbd 7d92 d2bc
00000190: 677d e43d d7c4 51bc 4fb0 563b 2607 fdbd
000001a0: e1f6 6e3d b2bc 79bb 704e a7bd e18b a73d
000001b0: a722 d7bb b143 9e3d ce33 c63d 2efc 04bd
000001c0: 8a9e db3d 0618 5b3a 18a4 aa3d bb51 edbc
000001d0: 4252 8cbb 634c 013c c9a8 0fbd 3dd8 21bc
000001e0: 1d8e da3d f790 963d 5b8c 79bd ec20 31bd
000001f0: 48a1 9dbb 0631 a83d 10a8 aa3d 03d7 96bd
00000200: 6ab8 39bc 3efb bebc 2cb7 263d 52e6 223d
00000210: d36d 943c 0995 873d 9568 e63d 6743 97bd
00000220: 071a 8b3d 0d5d 673d 6863 2d3d 7921 6abd
00000230: 1d5c 14be 3129 b23c ab30 a2bc f14f c8bd
00000240: f36e 4cbd 3393 9fbc 4f33 96bc c03c ad3d
00000250: be61 3a3d 3f4f 8e3d b96d 24bd 25ed 68bd
00000260: 3542 8cbd 0734 f03c f4eb cbbd c9de a6bb
00000270: 2c3f ae3d 3899 7fbd 9273 bd3d 769d e4bd
00000280: 19a4 103e 245f f53d 12ce 77bd f1a1 28bd
00000290: cd88 11bd 889d c8bd b104 d53a b640 903d
000002a0: 60db 913d 7369 183c ea79 3ebc f462 bd3d
000002b0: c63d bb3c 9fd7 df3d 4271 2f3b b00e 503d
000002c0: 068f 44bd 2d41 56bd 9c14 2bbe 61cd a43d
000002d0: a9e7 b5bd c06b af3d 175c 213e eba6 73bd
000002e0: 4dcf 093e 40bb 153e 9b16 973d cdab 003e
000002f0: 0590 e13d 6471 c73d 61e5 48bd 60e9 be3d
00000300: 8876 b93d effc 5cbd 41ea 863d dd30 af3d
00000310: 7ba4 1bbc 12e7 eb3d 9566 eebd 37f0 053e
00000320: b928 3ebd 032f 4dbd b854 a9bd 4755 afbd
00000330: 6381 0a3e 4947 1a3d ea93 533d 309f 803b
00000340: 8d4d b03c fb63 b9bd 3403 eb3d de81 fabb
00000350: dd50 41bd b7d5 573d b47c 4b3d b61b acbd
00000360: 7e1d 103e e127 37bc 6971 573c cb9a 303d
00000370: d426 0dbd 702c d6bd e559 ccbd 221c 713d
00000380: 5573 03be c63f 733a a818 f53b 51d8 523d
00000390: 545f ae3d b33f 80bd de3f 09be b82f da3b
000003a0: 8537 babd a9ad ccbd df17 47bc ed2d 1e3e
000003b0: eb04 39bd 28ff 0cbd 6117 21bd a694 03be
000003c0: ca4c 863d 7076 e6bd 8c8f ac3d 63b9 993d
000003d0: 92cf f3bd 1b7a 4cbd b8cf 92bc 3001 f8b8
000003e0: b70f 54bd bf3b 7d3d 8bc3 0dbd 9ede fb3d
000003f0: a670 833d e656 dabd 0303 cb3d 59b4 e93c

f_net.0.bias f4 [64]
0.026627945 -0.039543316 0.034273755 -0.0053185057 0.053808875 -0.0789108 0.02528546 -0.08268016
-0.068345025 0.12263749 -0.10943071 0.066795066 -0.015589297 -0.029327942 0.0407455 0.068911925
0.11472592 0.021413192 0.10048541 0.012730098 -0.049754098 -0.08579712 -0.10813681 0.113874115
0.082226634 0.11578292 -0.07853288 0.030978518 -0.041313425 -0.05595273 0.056110267 -0.060790863
-0.021216208 -0.04603509 -0.008288644 -0.00597935 -0.065917395 0.0700015 0.09838828 -0.040952273
-0.074560374 0.088411495 -0.08258621 0.077871524 0.0021932404 -0.0728767 0.13030471 0.04304159
-0.11830345 -0.029846359 -0.09938099 -0.053104892 -0.0958617 0.0017477344 0.11830645 0.031824987
-0.019398449 -0.08338286 -0.034687657 0.12785734 -0.0022665586 -0.08629938 0.08978022 0.10817019
00000000: d922 da3c 2cf8 21bd a362 0c3d dc46 aebb
00000010: b266 5c3d fc9b a1bd 7423 cf3c 3754 a9bd
00000020: 7af8 8bbd 5d29 fb3d 351d e0bd dacb 883d
00000030: 406a 7fbc 2741 f0bc c1e4 263d b221 8d3d
00000040: 6cf5 ea3d b86a af3c 4bcb cd3d e791 503c
00000050: f4ca 4bbd 67b6 afbd d576 ddbd d536 e93d
00000060: 7066 a83d 981f ed3d d9d5 a0bd a9c6 fd3c
00000070: 4438 29bd b12e 65bd e1d3 653d d7ff 78bd
00000080: 9dcd adbc 4a8f 3cbd 18cd 07bc 6cee c3bb
00000090: b3ff 86bd f25c 8f3d cb7f c93d 92bd 27bd
000000a0: 1cb3 98bd 1611 b53d f522 a9bd 1b7b 9f3d
000000b0: 78bc 0f3b 6140 95bd 996e 053e 614c 303d
000000c0: 1449 f2bd 5a80 f4bc 4388 cbbd 8484 59bd
000000d0: 2453 c4bd 3c14 e53a a74a f23d eb5a 023d
000000e0: 7fe9 9ebc a2c4 aabd a514 0ebd 09ed 023e
000000f0: 8b8a 14bb bbbd b0bd b1de b73d 5588 dd3d
