latent_sde_pytorch/best_latent_sde_0.pth (torch, 573571 bytes, 216 tensors)

pz0_mean f4 [1, 16]
000000 1c 3a a5 be ac b2 a0 3e 36 40 f0 3f d4 be 57 3f
       -0.32270896 0.31386316 1.8769596 0.84275556
000010 4d d4 d0 be 97 ee 90 be 67 73 e2 be c1 ce ea 3e
       -0.40786973 -0.2830703 -0.4422867 0.45860866
000020 58 bb d7 3f 8b 9b e0 be 95 a3 43 be 48 60 4e bf
       1.6854048 -0.4386867 -0.1910537 -0.80615664
000030 ab 61 5b 3c 7a ce 5a bf e3 f2 ec be 2b 1e bd be
       0.013389985 -0.8547131 -0.46279058 -0.3693708

pz0_logstd f4 [1, 16]
000000 36 58 e0 bc 6a ac 3b bf d3 9b 23 bf 17 a9 cd be
       -0.027385812 -0.7330996 -0.63909644 -0.40168068
000010 83 ba 51 bf cb 7f c0 bd f5 cd 37 bd 36 d1 ad be
       -0.8192522 -0.093993746 -0.04487415 -0.33948678
000020 53 28 6f be 67 a0 b7 3d 86 16 5f bf 3e 79 1e bf
       -0.23355226 0.08966141 -0.87143743 -0.6190375
000030 a9 44 1c bf 66 6d 82 bf 68 1d bb 3d e8 d5 af bd
       -0.6104227 -1.0189636 0.09136468 -0.08585721

encoder.gru.weight_ih_l0 f4 [192, 2]
000000 b1 d7 b9 3d c4 b8 8a bd 31 db e3 bd e5 7a e1 3d
       0.09074343 -0.067735225 -0.11125792 0.110097684
000010 21 b6 a7 3d 9a 17 01 3e a4 d5 b0 3d 24 de 15 3e
       0.08189035 0.1260666 0.08634499 0.14635521
000020 c6 a9 c4 bd 10 8a b8 3d 90 03 bd bc 2c 88 29 3e
       -0.09602694 0.09010708 -0.023072988 0.16555852
000030 3e 8c b6 bd e7 27 4c 3c b3 cf c7 bd 09 1a 45 bc
       -0.08913468 0.012460685 -0.09756412 -0.012030133
000040 29 42 1a 3d 3e 6b f1 bb a9 f1 2e 3e 62 48 65 bd
       0.03766075 -0.0073675206 0.17084374 -0.055977233
000050 42 b0 21 be 26 a4 ad bd 6c bb 30 be 8c d9 03 be
       -0.15789893 -0.084785745 -0.17258996 -0.12875956
000060 57 66 32 3a b8 81 4c 3e 4f d3 0d 3e d8 13 ca 3d
       0.0006805411 0.19971359 0.13850139 0.09867066
000070 2c 73 12 3e cf 58 18 be 38 9c 91 bd 6a 0b e4 bd
       0.14301747 -0.14877628 -0.071098745 -0.111349896
000080 f1 b7 0e 3e 88 ee c9 bd 4b 0c 5d bc 2c 4b a0 3b
       0.13937356 -0.09859949 -0.0134917 0.0048917737
000090 bc 45 55 bb 4e 99 bf 3a 08 c5 7b 39 6d 44 d0 3b
       -0.0032542786 0.0014617832 0.00024010625 0.0063558132
0000a0 cd ee e9 3d 64 9c a9 3d b6 35 4d 3d 20 6b c6 bd
       0.11422501 0.08281782 0.05010005 -0.09688401
0000b0 d7 1e 0d 3d 10 bb e3 3d fb 7b 2e 3d 0b e7 bb 3d
       0.03445324 0.11119664 0.042598706 0.09174927
0000c0 6b 5a b8 bd 3b 11 d2 3c 6f 4c 78 bd 95 1f 09 3d
       -0.09001621 0.025642982 -0.060619768 0.033477385
0000d0 aa c2 08 be 06 77 dd bd 7d 7e 71 3d 9f fd e8 3d
       -0.13355508 -0.108137175 0.05895852 0.113764994
0000e0 1e 85 c6 bd e3 25 cd ba f4 06 20 3e 00 b5 a7 bd
       -0.09693359 -0.001565155 0.15627652 -0.0818882
0000f0 88 74 03 be 07 3e 91 3d 21 ad af 3d 48 a3 e5 3d
       -0.12837422 0.07091909 0.085779436 0.11212784
000100 b3 c0 89 3d 17 a7 df 3c dc 43 05 3e a4 87 cf bd
       0.067262076 0.027301354 0.13014168 -0.10133293
000110 70 5f ed bd 1f 3b 4a bd 56 ae a6 3a a0 94 8e bd
       -0.11590469 -0.04937279 0.0012716751 -0.06961942
000120 6f d2 5c 3d 19 4f e6 bc a6 8e 7c bd fd 0f 65 3d
       0.053911623 -0.028113889 -0.061659478 0.05592345
000130 dc 98 ff bc b3 19 0c be 17 62 85 3d 01 86 97 bb
       -0.031200819 -0.13681678 0.0651285 -0.004624129
000140 74 64 14 be 29 ec 24 bc cf 34 8a 3d 4d 82 f1 3c
       -0.14491445 -0.010066071 0.06748354 0.029481078
000150 57 6c 08 3c 93 d7 14 3d 27 24 b2 bc c1 d1 71 bd
       0.0083266115 0.0363384 -0.021745754 -0.059037928
000160 41 15 50 bc 06 27 8b 3c 72 73 c3 3d 3a c6 69 3d
       -0.01270038 0.016986381 0.09543504 0.05707381
000170 06 17 0a bd a0 99 2c 3e 5f e0 e9 bc 7d 13 21 3e
       -0.033713363 0.16855478 -0.028549371 0.1573009
000180 de 52 86 bc c8 00 9e 3d 06 29 c7 bd e2 47 2a 3e
       -0.016396936 0.07714993 -0.097246215 0.16628984
000190 a2 c7 c7 3d 2f 6a 95 3d d7 d4 a7 3c 86 1c c7 3d
       0.09754874 0.072956435 0.020487232 0.09722237
0001a0 1d 53 fe bc 96 4e 8f 3c 2e f1 1e be 4a d4 1f be
       -0.03104549 0.017493527 -0.1552169 -0.15608326
0001b0 9d 2c 60 3d 0c 66 86 bd df 56 ad bc af b7 28 3d
       0.054730047 -0.06562433 -0.021159587 0.0411908
0001c0 aa 56 e9 bb 90 e6 69 3d d8 9b a5 bd a9 81 eb bd
       -0.007120927 0.057104647 -0.080863655 -0.1149934
0001d0 8f da d6 bd 29 5f ea bd de e4 e5 bd 4c f1 0f be
       -0.104909055 -0.114439316 -0.112252936 -0.14056891
0001e0 32 54 23 3d fc 67 b5 3b 41 0c 26 bc a4 ce 12 3d
       0.039875217 0.0055360775 -0.0101347575 0.0358416
0001f0 c3 55 a5 3d 60 7a 31 be 88 dd ac bc d9 ee a1 3d
       0.080729984 -0.17331839 -0.021101728 0.07906885
000200 d6 53 2d bd 98 59 57 bd 5b bb 16 bd d4 c4 8b 3d
       -0.04231628 -0.052575678 -0.03679977 0.06824651
000210 f3 e2 47 3d f3 ab d0 3d e3 56 81 bd dc 52 9c bb
       0.04880042 0.10189047 -0.063154005 -0.00477062
000220 ec 5d d3 bd e9 0f 4b bd e3 09 65 bc 0d 65 94 3d
       -0.103206486 -0.04957572 -0.013979408 0.072458364
000230 6a 30 8f 3d 0b ca c8 bc d9 a0 9c 3c 61 43 52 bc
       0.06991656 -0.024510404 0.019119667 -0.012833447
000240 ea ed 1d 3d b7 d9 3e bd 86 72 68 3d 45 de 6f 3d
       0.03855697 -0.046594348 0.056749843 0.058561582
000250 61 ed 16 bb 1c 11 3d 3c 00 6d a7 3c 55 e5 c3 bc
       -0.0023029672 0.011539724 0.020437717 -0.023913065
000260 39 6d b2 3c 00 69 06 bd da 42 22 3d b9 d4 f8 bc
       0.021780597 -0.03281498 0.039614536 -0.030374872
000270 cc 02 ed 3c 2c eb df bd b0 16 ba bc 0b f4 62 3d
       0.028931998 -0.10933527 -0.022715896 0.05540852
000280 fb 51 77 bd a3 29 66 bb a6 1e 96 3a dc 4a 0f 3c
       -0.060380917 -0.0035120032 0.0011453226 0.008745875
000290 0b e3 4a bd a4 ad a3 bd 9d cd 39 3d 36 40 44 bd
       -0.04953293 -0.07992104 0.045362104 -0.0479128
0002a0 a7 f7 ab 3d a2 0d 7d 3d d7 9a b1 3d e5 3c 17 bd
       0.08396845 0.06178058 0.086721115 -0.036923308
0002b0 8d 51 d3 3c c9 79 1a bd ac bf 53 3c 1e 56 bb 3d
       0.025795722 -0.0377138 0.012924116 0.09147285
0002c0 0a 72 bf 3c 21 49 48 bd 14 3d 02 be f3 1a 10 bd
       0.023369808 -0.048897866 -0.12718612 -0.03518195
0002d0 cc 41 fa 3c 00 64 c1 3d cf 24 8c bd 08 97 b8 bd
       0.030548953 0.094429016 -0.06842958 -0.09013182
0002e0 6b a7 05 bd 28 c8 f1 3d cc bd ba bc f4 5e 89 3d
       -0.032630365 0.11805755 -0.02279558 0.06707564
0002f0 54 29 a7 3d 11 04 75 3d 51 c5 80 3d ec 21 ba 3b
       0.081621796 0.05981833 0.06287635 0.0056803133
000300 31 ce 7f 3d 5c 99 6c 3d d6 ec 88 bd 60 38 ad 3d
       0.0624525 0.057763442 -0.06685798 0.08458018
000310 14 ce 46 bd ba b9 e8 3d 33 bb 6f bd f9 3c ad bd
       -0.048536375 0.113635495 -0.058528136 -0.08458895
000320 77 00 56 3d 5d 83 04 3d 9c 41 9b 3d 15 cc 63 3e
       0.052246537 0.03235184 0.07580873 0.2224582
000330 ab 35 ab 3c bc 16 e8 bd ee 8b 3c 3c d8 31 5e 3d
       0.020899614 -0.11332461 0.011507971 0.054246753
000340 49 db 66 3d 03 f7 27 3d 13 fc 2d bd 84 c5 e9 3d
       0.05636147 0.041007053 -0.042476725 0.11414626
000350 ab 15 1e 3e 0c c5 46 3d b5 82 7d 3d 1e a9 c1 3d
       0.15437953 0.048527762 0.06189223 0.09456085
000360 51 d2 04 be d8 bd 95 bb e8 8c ab 3b ed c6 e5 3d
       -0.12970854 -0.0045697503 0.005235303 0.11219583
000370 a6 44 e0 bd fd 67 72 3c 80 46 08 3e 9e f6 fa 3d
       -0.10950594 0.014795301 0.13308144 0.1225407
000380 5a 1e 52 bc 8a f4 91 bc 15 fe 1f be 8d ed 90 3d
       -0.012824619 -0.0178168 -0.15624268 0.07076559
000390 06 8d 94 bd c4 88 e4 3d 40 3a 2a bd be 3e f6 bd
       -0.072534606 0.111588985 -0.041559458 -0.12023686
0003a0 a2 e9 2f be f2 69 68 bc 09 43 b1 bd 2e d1 c3 bc
       -0.17178968 -0.014185416 -0.08655364 -0.023903456
0003b0 5d 32 24 bd 3a 87 9f bc 26 38 18 bd d2 7a 4d bc
       -0.040087093 -0.01947366 -0.037162922 -0.01254149
0003c0 5d 54 21 3d e6 1d 73 3d 40 7a 2d 3e 9f 56 99 bd
       0.039387096 0.059354685 0.16941166 -0.07487225
0003d0 c8 79 5e bd 15 04 a7 3d 57 f8 a7 3d 27 a9 a6 bc
       -0.05431536 0.081550755 0.08201664 -0.02034433
0003e0 54 a6 13 be 7f 6d d7 3d 00 0e 40 bd 6d 5e 89 bd
       -0.14418918 0.105189316 -0.04688835 -0.067074634
0003f0 40 cb f3 3d a4 0d f1 3d 72 e0 83 bd b1 9f da bb
       0.11904001 0.1177018 -0.06439294 -0.0066718687

encoder.gru.weight_hh_l0 f4 [192, 64]
000000 92 17 3e 3d 76 59 05 bd 53 c8 6a bd 6f 97 cd 3d
       0.046409197 -0.03255602 -0.05731995 0.10038649
000010 5c 6c f5 ba 4a 29 9a bd d0 e1 e8 bb 19 65 ea bd
       -0.001872431 -0.075274065 -0.007106997 -0.11445064
000020 cd c7 a1 bd 66 75 1b 3e ab 03 15 3d af 9b 56 3d
       -0.07899437 0.15181503 0.03638045 0.052394565
000030 df 24 9b bc 75 e9 d2 bd 9c 32 12 3c 4c c0 e7 3c
       -0.01893848 -0.10298435 0.008923199 0.028289936
000040 82 b4 a6 3b 76 f7 92 3c 33 c5 13 bd e2 e4 8d 3c
       0.005087436 0.017940264 -0.036076736 0.017321054
000050 50 a3 9a bd e3 57 b2 3d 9c 9f 1d bd 19 9e 26 3d
       -0.07550681 0.08708169 -0.038482293 0.040678117
000060 28 4e a4 bd 80 ed 90 3d 38 73 d0 3d 86 94 18 bd
       -0.080227196 0.070765495 0.10178226 -0.037251018
000070 33 22 36 3c a0 1c ae bd 24 40 6f 3d 0c 77 d0 3d
       0.011116552 -0.085015535 0.05841078 0.101789564
000080 e8 ef 42 3d b7 b0 28 bc 52 7e aa 3d 16 83 d9 bd
       0.047592074 -0.010296038 0.08324875 -0.10620706
000090 87 ce 04 be ef 17 12 3d 35 94 37 be 06 b4 ce 3d
       -0.12969409 0.035667356 -0.1792763 0.100929305
0000a0 9f 83 23 bd ef 4e 3a 3d 23 30 20 3d 78 0f a2 bd
       -0.039920446 0.045485433 0.039108407 -0.07913107
0000b0 65 e9 cc bd a5 70 0a 3d c1 53 4c bd f4 91 51 bc
       -0.10005454 0.033798832 -0.04988456 -0.012791146
0000c0 41 cb 62 3d ca e0 76 bc 93 4f 8a 3d 5a 41 04 be
       0.05536962 -0.015068242 0.06753459 -0.12915555
0000d0 57 e4 c0 3b 4c 5b 24 3d 97 b9 49 be b7 d5 01 3e
       0.005886595 0.04012613 -0.19699703 0.12679182
0000e0 ef 77 a7 bd 73 46 ef 3c 9f 4a a4 bd 79 0f 9b bc
       -0.081771724 0.029208397 -0.08022045 -0.018928276
0000f0 4b 01 c1 bd b5 de 04 bd fc 64 88 3d d5 80 81 3d
       -0.09424075 -0.032438952 0.06659886 0.06323401
000100 a3 9b 88 3d 34 a9 b8 bd ae ad 63 3d bd 36 2c bc
       0.0667031 -0.09016648 0.055585556 -0.0105110975
000110 35 2b dd 3d eb 24 c1 3d 98 55 b9 bd 75 1a 55 3d
       0.10799257 0.0943087 -0.09049529 0.052027185
000120 62 d2 3b be 23 a7 79 3e 93 e6 15 be 87 09 f3 3c
       -0.18341973 0.24380164 -0.14638738 0.029667629
000130 69 4a a4 3d bd d3 8f bd 86 c5 86 bc 1a 7f 8d 3d
       0.08022005 -0.07022808 -0.016451608 0.06909008
000140 1a 96 26 3e 29 6c 24 be 67 e8 e8 bb 85 5f fd 3c
       0.16268197 -0.16056885 -0.0071077826 0.030929336
000150 4b 13 a7 bd 6f 13 5e 3c e9 f9 c2 3d 7e 1a c1 bd
       -0.08157977 0.013554438 0.09520323 -0.09428881
000160 20 56 5a 3c 73 ac 91 bc a2 fc 86 3c 1a fa 8d 3c
       0.013326198 -0.017782426 0.016477887 0.017331172
000170 55 8e ab 3b 72 29 b9 3c 9c f8 22 3e 4c 27 f3 3b
       0.005235473 0.02260277 0.1591515 0.007420456
000180 17 35 22 3d dd 85 53 bd 38 a6 1e 3d 7b 2c 01 bd
       0.03960141 -0.051641334 0.038732737 -0.03153656
000190 7d 76 5e be 4e d3 0b 3e 8b 8f 43 bd d1 0c 30 3e
       -0.21724887 0.13654825 -0.047744315 0.17192389
0001a0 71 d4 6b 3e a8 6e cd bd 54 ff 89 3d 24 fc 99 bd
       0.23030259 -0.10030872 0.06738153 -0.07518795
0001b0 8b a3 c6 bc ee 30 3e be 2d 5c a4 bd 75 41 fb bd
       -0.024247905 -0.18573353 -0.08025394 -0.12268344
0001c0 fc 69 2a be 65 78 14 3e 0d 79 9b bd 09 16 18 bc
       -0.16641992 0.14499052 -0.07591448 -0.009282597
0001d0 1a c3 3c bd 94 d1 de bd 57 bf fa bb c9 3d 5e 3d
       -0.0460845 -0.108798176 -0.007652204 0.05425814
0001e0 df 35 be 3d a5 0b 09 bd e6 72 b0 bc 88 5e 0c 3d
       0.09287619 -0.03345837 -0.021539163 0.03426984
0001f0 73 46 ec bd 76 01 07 bd 8d 05 69 bc a0 1e 66 bd
       -0.115368746 -0.032960378 -0.014222515 -0.05618155
000200 9b e3 0d 3e 69 81 18 be e9 94 a6 bd 6d 43 f1 3d
       0.13856356 -0.14893116 -0.08133871 0.117804386
000210 02 19 90 bd ed 2d 2d 3d 30 f6 03 be cd f7 fa 3b
       -0.0703602 0.042280126 -0.12886882 0.0076589347
000220 3e 17 24 bc 44 b7 92 3e 8e a3 e3 bb d9 39 c7 bd
       -0.010015307 0.28655446 -0.0069469875 -0.097278304
000230 5a 9b 0d 3e e4 09 db 3a 0a 30 25 be 51 5b ff 3d
       0.13828793 0.0016711322 -0.16131607 0.12468589
000240 6c 74 6d 3e e8 ac d3 bd 0d 9c 76 3e e5 25 a5 bd
       0.23188943 -0.103357136 0.24082966 -0.080638684
000250 82 90 7e bd 3a a5 ce 3d 1e be 55 3d 08 74 c6 3c
       -0.062149532 0.10090108 0.052183263 0.02422525
000260 c5 2d e3 bd 02 7c fb bd 8f c2 2b bd db 0c f6 bd
       -0.11092714 -0.12279512 -0.041933592 -0.12014171
000270 ce 2b f4 3c 02 07 b9 3d 1c 3e 03 3e 82 4e 4b 3e
       0.029806044 0.0903454 0.12816662 0.19854167
000280 6e e9 fc bd 2e b3 b8 3b 84 fe af bc 21 4b e5 bd
       -0.12349211 0.0056365943 -0.021483667 -0.1119597
000290 f1 9e 90 bd cd fe 5c 3d ff 22 3e bd 7d 8c 0b 3d
       -0.07061566 0.053953934 -0.046420094 0.034069527
0002a0 48 d0 7d 3c 2c ba 31 bd ef d5 25 3d fc 0b e1 3b
       0.015491553 -0.043390438 0.040487226 0.0068678837
0002b0 fe fc 90 3c ab fc 74 bc eb e7 d2 3d ca e5 e9 3c
       0.017698761 -0.014952819 0.10298141 0.028551955
0002c0 27 f6 cd bc 73 47 a6 bd 05 76 f5 bc 32 56 bf 3c
       -0.025141789 -0.081190966 -0.029963503 0.02335653
0002d0 33 ec 91 3b 42 38 10 be f2 96 c8 3a df 0c 7c 3c
       0.004453206 -0.1408396 0.0015303774 0.015383928
0002e0 7c 57 a2 bd f4 76 27 bd c2 35 d8 bc b3 6c 10 be
       -0.079268426 -0.040884927 -0.026392821 -0.14103965
0002f0 6e 5a 92 bb bf ec 68 3b 6d e5 96 bc b8 39 df bd
       -0.0044663465 0.0035541502 -0.018419946 -0.10899681
000300 10 71 5b be ae 50 bd bc ce 6b aa 3c 3f 34 36 3e
       -0.21429849 -0.02310976 0.020803358 0.17793368
000310 d0 b2 c4 bd 27 ce 00 be 19 3c bb bd 59 55 a5 bc
       -0.09604418 -0.12578641 -0.09142322 -0.020182298
000320 d5 68 3c be ab 58 38 bd a6 85 6a 3d 53 92 4b 3c
       -0.18399365 -0.045006435 0.057256363 0.012425023
000330 03 a2 18 be e2 b6 d6 bd 9a 5f bb 3c 27 e0 4f 3c
       -0.14905553 -0.10484101 0.022872735 0.012687719
000340 18 de 1f 3e 8a b4 20 bd 6d 96 46 3e fa 29 73 bc
       0.15612066 -0.039234675 0.1939332 -0.014841551
000350 5b cc d5 bd 0a b8 43 bd 96 5b 22 be 52 fe 46 bd
       -0.10439368 -0.047782935 -0.1585525 -0.048582383
000360 5b db 56 bc 10 38 c6 3c 37 20 e8 bc c6 ea e8 bb
       -0.013113822 0.024196655 -0.028335674 -0.0071080653
000370 23 c9 e7 bd a3 75 3f 3e 2d e4 ef bd f4 f4 89 3e
       -0.11317661 0.18697219 -0.11713443 0.26944697
000380 48 24 f1 bc 45 46 12 be 1c 02 a8 3d 43 73 40 3e
       -0.029436246 -0.14284618 0.08203527 0.18793969
000390 94 b2 c4 bd c2 42 7e 3e 0b 84 13 bc ad 25 1f be
       -0.096043736 0.24830154 -0.0090036495 -0.15541716
0003a0 41 9f 6b bd 26 91 a2 3b 98 cf f2 bc a8 e0 c0 3d
       -0.057524923 0.0049611507 -0.029640004 0.0941785
0003b0 ff 5e 7d be 59 b4 6c 3e 20 18 e9 3b 9f b7 0d 3d
       -0.2474327 0.23115672 0.0071134716 0.034598943
0003c0 c2 d7 8c 3e a6 cc 58 be 93 95 56 3e f5 06 3f be
       0.2750836 -0.21171817 0.20955496 -0.18654998
0003d0 a0 37 15 bd ae 51 de 3d 4a 1f 17 be 6e 52 38 3d
       -0.03643 0.10855423 -0.1475803 0.045000486
0003e0 85 33 d7 bd 6e a8 00 3e 0c b7 5c be 67 de f5 3d
       -0.105078734 0.12564251 -0.21554202 0.120053105
0003f0 10 47 e1 3c d9 9e 55 3e bf b9 b5 bc 44 4d 57 be
       0.027499706 0.20861377 -0.022183297 -0.21025568

encoder.gru.bias_ih_l0 f4 [192]
000000 c7 b3 01 3d c8 a5 5d 3b 59 8d c3 3d 07 3f c3 bc
       0.03166559 0.0033820737 0.09548444 -0.023833765
000010 1d d2 e5 3c 4c 52 c2 3d dd f6 a2 bd ba 49 14 3c
       0.028054291 0.09488353 -0.07957242 0.009050781
000020 42 40 22 3c 06 59 c2 3d 40 46 15 bd 8a 04 52 bd
       0.009903016 0.09489636 -0.03644395 -0.05127386
000030 37 c6 a2 3d 6d 8a e9 3d 53 af d1 3d d1 7c 87 bd
       0.07947963 0.11403356 0.102385186 -0.06615604
000040 8d 6b 24 3d e7 82 80 bd df 74 1e 3a d2 18 a8 bb
       0.04014163 -0.06274968 0.0006044637 -0.005129912
000050 fd b2 1a bd 6f d7 0b 3d 74 12 1c 3d 4c ec 8a 3d
       -0.037768353 0.034141 0.038103536 0.06783351
000060 e8 5d bc 3d 17 c6 c4 3d 7d 9c 58 bd a5 f6 02 3d
       0.09197599 0.09608095 -0.052883614 0.0319735
000070 ae 21 10 bd 38 09 c3 3d b3 dc 67 bd c2 b3 f9 3b
       -0.03518837 0.09523243 -0.05660696 0.0076203058
000080 3b 86 6a bd 80 94 62 3d 7f 1a 0a 3e d0 71 80 3d
       -0.05725692 0.055317402 0.1348667 0.06271708
000090 da c9 b4 bd 20 aa 55 3e 1a 36 c4 bc 2f e6 8c 3d
       -0.08827563 0.20865679 -0.023951579 0.068798415
0000a0 2a a1 21 3e 21 cd 26 3e 36 45 81 bd 96 83 4e 3d
       0.15784135 0.16289188 -0.06312029 0.05041846
0000b0 d3 0b 11 be 6f 78 08 3d 49 57 e6 3d 22 56 4e 3d
       -0.14164667 0.03331798 0.11247117 0.05037511
0000c0 53 6d 01 3e 7d 31 c1 3c ca 97 67 bd 52 f0 d2 bd
       0.1263936 0.023583168 -0.05654124 -0.10299744
0000d0 1b 2c 8f bc 37 e7 be bc d2 7b 8a 3c 22 a1 2e 3e
       -0.017477086 -0.023303611 0.016904745 0.17053655
0000e0 cc 31 5f 3d b6 80 86 bd 89 e7 17 3d ef d7 9b bd
       0.05449085 -0.065675184 0.037086044 -0.076095454
0000f0 9c c1 39 3e 34 06 37 be f0 01 bb bd 08 e2 a7 3d
       0.18140262 -0.1787346 -0.09131229 0.08197409
000100 31 6f 5e 3d 08 6c b6 bc ce 78 3e 3e 85 25 fe 3d
       0.05430526 -0.02226831 0.18600771 0.124095
000110 1d d3 0d 3e 97 79 db 3d 3a 54 1e 3e 7d f3 44 be
       0.13850065 0.10716551 0.15461817 -0.19233508
000120 4c 25 9f 3e 4d 97 0f bd d1 99 f3 3c 36 16 1d 3e
       0.31083143 -0.0350564 0.029736431 0.15340504
000130 82 52 f3 3d 9a 8a 8c bd 97 79 83 bd b7 ff a4 bd
       0.118809715 -0.06862374 -0.06419676 -0.08056586
000140 41 5d 73 3e e2 e1 9e 3e f4 52 1f 3e fb 3b 1f 3e
       0.23766042 0.3103171 0.15558988 0.15550224
000150 ec 52 7d 3d 84 5a 1f be 98 f8 17 3e 62 63 0b 3d
       0.06184666 -0.15561873 0.14840925 0.034030326
000160 90 23 90 bb 2b ad dd 3d 88 2e 47 3d 00 90 c7 bc
       -0.0043987706 0.10824045 0.04862836 -0.024360657
000170 e5 bc a2 3c f7 34 f8 3d 21 1c 2d 3b 05 cc d5 3d
       0.019865463 0.12119477 0.0026414471 0.10439304
000180 fa 8d 83 3d 57 b1 3a 3e 62 1a 5b 3e ce aa 91 3a
       0.06423564 0.18231712 0.21396783 0.0011113526
000190 47 47 bd 3c c9 1f 37 3e 88 91 ae 3d 8e e8 b4 3d
       0.023105277 0.17883219 0.08523852 0.08833419
0001a0 4c 4d 73 3d 23 8f 2f 3d f8 35 3b 3e 1e 8a a4 3d
       0.059399888 0.042861115 0.18282306 0.08034156
0001b0 ac b8 57 3d 7c b6 26 3a 26 a1 80 3d 0d ee 22 3e
       0.05266635 0.000635959 0.062807366 0.15911122
0001c0 68 dc 59 3d 6a 65 b0 3e 58 c4 3b 3a fc 74 19 3e
       0.05318871 0.34452373 0.00071627414 0.14986032
0001d0 c5 69 2f 3e 2e 67 b1 3c 37 02 c5 3c 44 3d db bc
       0.17130192 0.021655645 0.024048908 -0.026762612
0001e0 8b 77 74 3b 15 b8 a7 bb 39 23 33 3e 63 9f 43 3e
       0.0037302698 -0.00511838 0.17493905 0.1910377
0001f0 0a 7b b4 3d c0 b5 98 3e a1 80 0e 3e c7 17 4d 3d
       0.0881253 0.29826164 0.13916256 0.050071504
000200 6b db ca 3d 3e 57 01 be 5b 75 ba 3d d3 51 4b 3d
       0.09905132 -0.12630937 0.09104415 0.04963858
000210 80 26 3d 3d bc a7 0e 3d f1 2f 16 3e 60 df 10 be
       0.046179295 0.034827933 0.14666726 -0.14147711
000220 d3 65 be bd 6d a1 b8 3d e5 c6 5e 3c e8 3d 78 be
       -0.09296765 0.090151645 0.013597225 -0.24242365
000230 76 dd 8a bb d4 5f 46 3d 6e 6e 70 be bb 10 58 3e
       -0.004237826 0.048431233 -0.23479626 0.21100132
000240 05 11 44 bd c5 a6 a9 3d 49 e5 48 3e 22 17 82 bd
       -0.047867794 0.08283762 0.19618715 -0.063520685
000250 01 ff 88 bd 6b 09 85 3e 98 8a cf bd 33 36 06 3e
       -0.06689263 0.25983748 -0.101338565 0.13106613
000260 a2 ff 8b bd c8 b0 8e bd 7e cf 53 3d 0a 96 82 bd
       -0.068358675 -0.06967312 0.05171155 -0.06376274
000270 46 52 87 3d 78 b5 20 be 7f 63 8d bd 21 d0 ab 3d
       0.06607489 -0.15694225 -0.06903743 0.08389307
000280 ad 02 75 bc 78 e4 04 3d 63 f6 a6 3c 13 ea 10 be
       -0.014954251 0.032444447 0.020381158 -0.14151792
000290 40 7d 8b bc 0f 46 95 3d 4c f7 32 be b5 d9 85 bd
       -0.017027497 0.07288753 -0.17477149 -0.06535665
0002a0 03 49 52 3e e1 49 c9 bc 75 5d 29 3e aa 82 0e 3e
       0.20535664 -0.024571361 0.16539557 0.13917032
0002b0 9b b7 23 bd 56 b0 a5 3c ef ff 43 3d 93 3a 9d bd
       -0.03997002 0.020225685 0.0478515 -0.07677188
0002c0 e3 1c d1 3c 37 f3 cf 3d 4e 4b 70 bd 59 c1 89 bd
       0.02552647 0.101538114 -0.058665566 -0.06726331
0002d0 71 c3 23 3e 3c d8 43 be 6b 75 7e be 57 1f 5a 3e
       0.15992524 -0.19125456 -0.24849479 0.21301018
0002e0 19 5f 9f 38 32 2c 25 be 98 d0 b0 3d d0 0f 46 3d
       7.599424e-05 -0.1613014 0.08633536 0.048354924
0002f0 d1 65 23 bc 6f c5 00 be db b6 40 be ed a8 b6 bd
       -0.009973005 -0.12575315 -0.18819754 -0.08918939

encoder.gru.bias_hh_l0 f4 [192]
000000 a8 89 3d 3e f1 58 01 3e f3 21 2b 3d 66 c3 f2 bc
       0.18509543 0.12631585 0.041780423 -0.029634189
000010 c2 3f e3 3c b8 94 12 3d 5d 86 d0 bd a7 25 ef 3d
       0.027740363 0.03578636 -0.10181878 0.116771035
000020 d6 5d 70 3d 21 a4 58 bd 5b 4e 01 3e 51 bf a6 3d
       0.05868324 -0.0528909 0.12627546 0.081419595
000030 e2 4c 94 3c 1e 80 52 3d ad ac 1e 3e 07 ca 4d bd
       0.018103067 0.051391713 0.15495558 -0.050241496
000040 d3 ca 0a 3e 40 d9 95 3d 50 fa 8e 3d eb 09 bd 3c
       0.13553934 0.07316828 0.06981337 0.023076018
000050 85 de b0 3d d6 32 e6 3d 11 0c 9b 3d ae ec 7e 3d
       0.08636192 0.11240165 0.07570661 0.062237434
000060 58 90 db bd 1c 01 5d 3e 84 b1 bb 3c dc 21 67 3d
       -0.10720891 0.21582454 0.022911794 0.056428775
000070 66 f5 5e bc d3 c2 15 3e aa 6d ce bd 3c 3d 07 3e
       -0.013608312 0.14625101 -0.100795105 0.13206953
000080 b6 d0 51 3c 02 bf 09 3e f6 55 0b 3e f2 a1 57 3e
       0.012806108 0.1345177 0.1360701 0.21057871
000090 ef e6 c3 3d ab c8 e3 3d 16 c3 cb 3d 2f b8 16 3e
       0.095655315 0.11122259 0.09949319 0.14718698
0000a0 6a 69 e2 3b 54 85 53 bd a1 52 ac 3d 36 1b dc 3c
       0.006909539 -0.051640823 0.08414198 0.026868444
0000b0 8c 8e 8c bd 36 3f d5 3d 3a 02 0c 3e bd 86 fd 3d
       -0.06863126 0.10412447 0.13672724 0.12379215
0000c0 96 ee bc 3d e7 b6 4e bd d7 ba 87 bd ed d8 b9 bd
       0.09225194 -0.050467398 -0.06627434 -0.090745784
0000d0 0c 12 ab 3b 43 7a 18 3e f8 a4 89 3d 92 51 07 3e
       0.005220657 0.14890389 0.067209184 0.1321471
0000e0 d1 12 44 3d bb 74 c1 bc 86 fa 78 3c 74 35 c9 bd
       0.047869507 -0.023615232 0.015196448 -0.098246485
0000f0 38 93 08 3e 75 9b 25 3c f5 d1 46 be 64 13 79 3d
       0.1333741 0.010107865 -0.1941603 0.060809508
000100 e3 19 ca 3d 3f d0 f2 3d 39 23 d0 3b f2 08 a9 bd
       0.09868219 0.11856126 0.006351855 -0.08253659
000110 5e ca 49 3e 16 67 ae bd 01 df c9 3d c6 c3 79 be
       0.19706103 -0.08515756 0.09856988 -0.24391088
000120 9d 84 01 3f cc 6d 27 be b2 71 cb 3d f3 58 89 3c
       0.50592977 -0.16350478 0.09933795 0.016766047
000130 bc f1 81 3d 75 d7 e7 3d 87 d0 04 bb e0 36 b8 bc
       0.06344935 0.11320392 -0.0020265894 -0.022487104
000140 82 a2 32 3e 5c 3a b4 3e fb 4e 24 3e 06 d3 17 3e
       0.17444804 0.35200775 0.16045754 0.14826593
000150 49 69 7f 3c 70 20 87 bd c1 5b 7b 3d a6 15 6d 3d
       0.015589067 -0.06597984 0.0613668 0.057881974
000160 29 06 55 3c fc 1a 66 3d 16 9d bd 3d 68 f3 64 bc
       0.013001957 0.056178078 0.092584774 -0.013974048
000170 57 ab 11 3e 3b fd 2f 3e 01 9c 74 3d 34 fb 22 3d
       0.14225517 0.17186444 0.05971909 0.039790347
000180 e7 ed 90 3d ef 25 53 3d 8b e9 df 3c c3 06 f6 3d
       0.07076626 0.05154985 0.027333042 0.120130084
000190 4e be a4 3d 98 3e 35 3e a8 8d aa 3d 10 19 0d bd
       0.0804411 0.17699659 0.083278 -0.03444773
0001a0 2b 1d 90 3d aa 2d e7 3c dc ba 25 3e b0 4a 25 3e
       0.07036813 0.028220017 0.16184562 0.16141772
0001b0 3a 8e db 3c 52 93 0b 3e aa b0 7d 3d f4 39 86 3e
       0.026801217 0.13630417 0.061936058 0.2621609
0001c0 60 10 b8 3d b9 77 af 3e 5a 72 3b 3e 11 b3 46 3e
       0.08987498 0.3427103 0.1830534 0.19404246
0001d0 b9 c9 41 3e c7 4d ad 3d cc ea 30 39 11 c1 09 bc
       0.18924607 0.084621005 0.00016872137 -0.008407847
0001e0 b6 db ff 3d 54 5f c6 3d 85 f0 2e bd d7 b3 20 3e
       0.124930784 0.09686151 -0.042709846 0.15693603
0001f0 ac 7b 30 3e 36 57 84 3e ad 87 11 3e 45 1a 48 3e
       0.17234677 0.25847787 0.14211912 0.19541271
000200 17 43 21 3e 8a ec 27 bd 59 65 08 3e 03 53 53 3e
       0.15748249 -0.040997066 0.13319911 0.20637135
000210 77 f5 01 3d 47 40 c0 3d 7a 9b ae 3d e4 c0 68 be
       0.031728234 0.0938726 0.085257486 -0.22729832
000220 0f d9 14 3c f2 e7 1c 3e 63 47 5f bd 5d eb 65 be
       0.009084954 0.15322855 -0.05451144 -0.22453065
000230 30 ba bb 3a b4 19 d8 3c dc 21 0b be 4d cf 7a 3d
       0.0014322456 0.026379444 -0.13587135 0.061232854
000240 b7 12 8a 3c 62 de 38 bb f6 10 7e 3d 6d 10 97 3d
       0.016854627 -0.0028208722 0.062027894 0.0737618
000250 ae cd 5c be bc 62 05 3e 00 03 c1 bd 30 5d c7 3d
       -0.21562836 0.13025945 -0.094244 0.09734571
000260 eb 6c d9 3d f0 30 68 be 40 35 0e 3e 76 b3 61 3d
       0.106164776 -0.22674918 0.13887501 0.055102788
000270 a0 b8 14 3d 1b e0 a0 bd 3a 60 7c 3d a6 61 1e 3e
       0.036308885 -0.07855245 0.061615206 0.15466937
000280 a6 35 a5 bd 26 6e b7 3c d6 7e 31 bd 65 fc 58 be
       -0.08066873 0.02239139 -0.04333385 -0.21190031
000290 5e c0 47 3d 5d 21 82 3e 83 0c 67 bd 31 77 bb bd
       0.04876744 0.2541608 -0.056408416 -0.09153593
0002a0 e4 31 4d 3e ef 96 82 3d 88 82 f6 3d 0c 07 9d bd
       0.20038563 0.063764445 0.120366156 -0.0766736
0002b0 a9 33 06 3c 9e 2e bd bc e1 27 22 3e 8c d3 f4 bd
       0.008191028 -0.023093518 0.15835525 -0.11954412
0002c0 72 3f 7e bd ee 01 a1 3c 00 22 bf bd b8 0b 12 3e
       -0.062072225 0.01965424 -0.09332657 0.14262283
0002d0 25 86 aa 3d 55 33 44 be ed 74 88 be ee 2b 0e 3e
       0.08326367 -0.19160207 -0.26651707 0.13883945
0002e0 1c 9d 23 3d 92 16 2a bc 9d e5 e4 3c 04 49 b0 bd
       0.039944753 -0.010381358 0.02794152 -0.086076766
0002f0 e4 c8 fe bd 0e 0d 12 be f7 0b a5 3c 27 84 b5 bd
       -0.124406606 -0.14262792 0.020147307 -0.08863097

encoder.lin.weight f4 [64, 64]
000000 77 e1 69 3e 46 03 3e be c9 2a c5 3d 53 20 8b 3e
       0.22839914 -0.18555936 0.09627301 0.271731
000010 3b fe 33 3d 17 e1 8c bc 8e 80 87 3c 66 63 a2 be
       0.043943625 -0.017197175 0.016540792 -0.3171646
000020 24 56 f0 bd d6 c6 4a 3e 85 6f 53 be 3d 61 f8 bd
       -0.1173518 0.19802412 -0.2064801 -0.12127922
000030 98 80 d4 3d 9f a1 e9 3d 58 57 7e be 64 1b 74 3e
       0.1037609 0.1140778 -0.24838006 0.23838574
000040 76 1b 39 3e f5 12 14 be ae 25 86 3e 78 b7 aa 3d
       0.18076882 -0.14460357 0.26200622 0.08335775
000050 78 7a 64 be c7 cd ba 3e 09 29 27 3e 69 89 4a 3e
       -0.22312343 0.3648512 0.16324247 0.1977898
000060 6b a9 11 3d e7 b9 17 be 77 aa e5 bc 64 ed 00 be
       0.03556196 -0.1481701 -0.028035386 -0.12590557
000070 19 a9 33 3c 4c 3d 94 be e9 c3 bd bd 51 d9 d1 3c
       0.010965609 -0.28953016 -0.092658825 0.02561632
000080 88 b3 b5 3d 91 d1 1e 3e ef 30 c3 bd 81 c5 5b be
       0.088721335 0.1550963 -0.09530818 -0.2146206
000090 69 e0 fd bd 97 09 65 3e e9 56 8e be 1c 7c 0e 3d
       -0.123963185 0.2236694 -0.27800682 0.03478633
0000a0 e0 8f 3b 3e 3f 6c 0b be c1 ae 30 3e a6 a1 d7 bd
       0.18316603 -0.13615511 0.17254163 -0.10528879
0000b0 40 1a f5 3d 12 34 91 bd 3e f3 42 3e e2 e9 d4 bc
       0.119678974 -0.0709001 0.19038102 -0.02599043
0000c0 39 22 9e bd 2c 55 85 3e cf 2d 9a bd 00 8e 57 3d
       -0.07721371 0.26041543 -0.075282685 0.052625656
0000d0 c8 a4 62 3e de 71 fb bd 26 21 ab be eb b3 16 3e
       0.22133172 -0.12277578 -0.33423728 0.14717071
0000e0 6d f6 fd 3d eb 57 67 be cb e3 6c 3e e4 ae b0 bc
       0.124005176 -0.22592132 0.23133771 -0.02156777
0000f0 5e 5e 69 be fe 97 4f bc bd 43 f8 3d bc 8a 1e bd
       -0.22789904 -0.012670515 0.12122295 -0.038706526
000100 49 0a d5 3d e2 45 37 3d d6 50 14 3e 22 af 26 3e
       0.10402352 0.04474438 0.14483961 0.16277745
000110 ae 20 3a bb cf 8b b9 bc fc d0 26 bd 95 1c ec bd
       -0.0028400826 -0.022649674 -0.040726647 -0.11528889
000120 c2 31 4a 3c 04 33 ab bc 0d da 1e bc 95 44 08 be
       0.012340965 -0.02089835 -0.009695542 -0.13307412
000130 a2 b2 75 be e3 81 99 bb 1f 97 a8 bc 2a 53 94 3c
       -0.23993924 -0.004684673 -0.020579873 0.018106062
000140 fd 81 ed 3d 50 36 e2 3d d7 47 d8 3d 7e cb ee 3d
       0.11597059 0.110455155 0.10560577 0.11659907
000150 5d 31 9e be ba 34 6b 3e fb 39 86 3d 70 72 14 3e
       -0.30897036 0.22969332 0.06554028 0.1449678
000160 61 57 11 3e e0 fb 82 3d 66 40 c3 3d ef 92 f6 bd
       0.14193489 0.063956976 0.095337674 -0.12039744
000170 66 33 09 bd 77 ec 71 bc 17 1b 01 be 40 98 52 bd
       -0.033496283 -0.01476585 -0.1260799 -0.05141473
000180 69 87 05 bd fe 05 18 3e 2a 00 9e bc 63 68 28 be
       -0.03259984 0.14846036 -0.019287188 -0.1644607
000190 2d 82 14 3e 53 33 f6 bd 3f 66 a5 bd f2 2f b1 bd
       0.14502783 -0.12021508 -0.080761425 -0.08651723
0001a0 c6 88 70 3e 8c 58 5a bd 9e a6 84 bd cd 46 c9 bc
       0.23489675 -0.0533071 -0.06477092 -0.024569893
0001b0 0a c3 1f bd 36 de 1c 3e b9 6f 2d 3e de f2 1c be
       -0.039004363 0.15319142 0.1693715 -0.15327021
0001c0 f5 f2 b0 bd bf 8f 8f bd 57 71 fc bd ba e3 c4 bc
       -0.086400904 -0.07009839 -0.12326305 -0.02403437
0001d0 d1 f2 1a 3e c1 3c 07 be 5d ca df bd 6e 69 17 3e
       0.1513169 -0.1320677 -0.109272696 0.14786312
0001e0 ff 5b a7 3d 24 a1 f2 3a b5 85 28 3e 97 79 eb bd
       0.08171844 0.0018511158 0.16457255 -0.11497801
0001f0 6e 9e 23 be 18 22 5c bc bd 28 44 bd 40 ae 9c bd
       -0.15978405 -0.013435863 -0.047890414 -0.07650423
000200 3f 54 c3 3c fb 18 28 bd c9 70 23 be 30 1b 8d be
       0.023843883 -0.04103945 -0.15960993 -0.27559805
000210 4d 93 1a 3c 7f b5 44 3c 10 ab a1 be 54 67 2c 3e
       0.009434533 0.012006163 -0.31575823 0.16836292
000220 23 f4 58 bd 4d 40 45 bd 14 30 e5 3c 4a d5 21 3e
       -0.052967202 -0.048157025 0.027977027 0.1580402
000230 d0 b8 b0 3e cd 30 ef bd ae 23 10 3e c7 60 ae 3d
       0.34516 -0.1167923 0.1407611 0.085145526
000240 67 57 8f 3a 6e d0 90 bd 7a 73 53 bb bf 69 6f 3d
       0.0010936082 -0.07071005 -0.0032264874 0.058450457
000250 70 65 54 3d 74 2a 8f 3d 5c 48 44 3d d1 d5 03 3d
       0.05185455 0.06990519 0.04792057 0.032186333
000260 cf c0 b2 be c3 98 19 3d ed 17 ea bd 31 2e 1c be
       -0.34912726 0.0374992 -0.11430345 -0.15251996
000270 f2 ab de bd a3 d6 80 3d 4f c8 58 3e 0c 3b 6c be
       -0.1087264 0.06290939 0.21170162 -0.230694
000280 57 48 b1 3e 82 b7 4d be 4e 0b ea 3c f4 42 c4 3d
       0.34625503 -0.20089534 0.028569844 0.09583083
000290 c0 7d 6f be 35 56 35 3c fc aa 85 3d e4 d1 3b be
       -0.23387814 0.011067917 0.06526753 -0.18341786
0002a0 b6 2f 91 bd 9d 2a ea bd f6 9f 26 bd 31 e1 b0 3d
       -0.07089178 -0.11433909 -0.040679894 0.08636702
0002b0 be e2 cc 3c de db bb be 5f 0e c6 bd e1 4d 23 3d
       0.025010463 -0.36691183 -0.0967071 0.039869193
0002c0 de fb d4 bd 62 b8 fa 3c 3c b9 de 3c 73 dc 13 be
       -0.10399602 0.030605499 0.027187936 -0.14439563
0002d0 06 f4 07 bc 29 8b 02 bd 50 94 07 3e fc 37 68 be
       -0.008297926 -0.031870995 0.1324017 -0.22677606
0002e0 fb e4 f3 3c 09 09 84 3e f5 91 03 be 98 2c a9 bc
       0.029772272 0.25788143 -0.12848647 -0.020651147
0002f0 70 2f 05 3e a4 74 d5 bd ef 68 ee bd 45 3a 95 bd
       0.13006377 -0.10422638 -0.11641108 -0.07286505
000300 b4 e6 89 bd e5 b4 2f 3e ce 67 97 3e d0 c2 18 3d
       -0.06733456 0.1715885 0.29571384 0.037295163
000310 7a 81 d5 bc 37 33 67 3d 17 c4 e1 3d a1 3d 0d 3d
       -0.026062716 0.056445327 0.11023729 0.034482602
000320 29 fb 80 3e 37 13 7c 3d b7 48 ff bd 14 ae 3f 3d
       0.2519162 0.061541762 -0.12465041 0.046796873
000330 9a d2 1e be b9 7e c2 bd ad 7d 19 3e c2 71 d1 bd
       -0.15510026 -0.09496827 0.14989348 -0.10226776
000340 60 65 5b be eb 3c 4b 3c 68 4e 2d be 3c a1 13 3e
       -0.2142539 0.012404661 -0.16924441 0.14416975
000350 7c ff 92 3d b8 84 c4 bd a9 ba c1 3d 69 44 dc bd
       0.07177636 -0.095956266 0.09459431 -0.10755236
000360 77 cc 80 bc 6c 7c 22 be ad 93 88 3d 1c fa a4 bd
       -0.015722496 -0.15867776 0.06668792 -0.08055517
000370 68 bf 41 3c 47 06 3e bc 3b 25 17 be 52 d3 89 bd
       0.01182542 -0.011598176 -0.14760296 -0.06729759
000380 e7 bc 19 3e 1c f7 5c bd c2 e3 7c bb 3e 37 5c bd
       0.15013467 -0.0539466 -0.0038587903 -0.05376362
000390 c2 8f 10 3e b1 e8 51 be cf e2 d0 bc 03 45 22 3e
       0.14117339 -0.20498921 -0.025498776 0.15846638
0003a0 c1 43 2f be 96 49 8d 3a 72 10 1c be 5f 02 56 be
       -0.1711569 0.0010779377 -0.15240648 -0.20899342
0003b0 56 65 9b 3c 06 22 6b 3d ec ca 10 bd 42 40 00 be
       0.01896922 0.057405494 -0.03534977 -0.12524512
0003c0 d2 73 fc bc ad 48 b4 3a ce 28 b5 bd 1c 5d 46 3e
       -0.030816946 0.0013754569 -0.088456735 0.19371456
0003d0 cf 89 1d 3e ca b0 8f 3d 74 88 e4 3d 5a 38 16 ba
       0.15384601 0.07016142 0.11158839 -0.0005730443
0003e0 e1 7c 47 3e 06 53 a2 bd b0 e2 40 bd d8 d6 28 be
       0.19481231 -0.07925992 -0.047091186 -0.16488206
0003f0 53 1e 22 bd 7f f7 0c be fa ae 06 3d 36 84 c6 bc
       -0.0395797 -0.13766287 0.032881714 -0.024232965

encoder.lin.bias f4 [64]
000000 34 56 aa 3d 59 46 84 3e 7e 6b a0 be 6c dc 1a 3e
       0.08317223 0.2583492 -0.3133201 0.15123147
000010 6e e1 d6 be 42 21 6e 3e 3f e0 8f 3e 48 5c b7 3e
       -0.41968864 0.23254874 0.28100774 0.35812593
000020 a1 1c 5f 3e f9 b7 e6 3d 77 00 bd 3e 93 fb 82 3d
       0.21788265 0.11265559 0.36914417 0.0639564
000030 b7 7d 8c be d3 ca ed 3d 54 88 06 3e 9d 7a 26 3e
       -0.27439663 0.11610951 0.13137943 0.16257711
000040 02 cc 45 be 41 af 9b 3d b4 a2 66 3e f0 d0 49 3e
       -0.19316104 0.076017864 0.22523004 0.1970861
000050 7d 4d f1 be 92 86 c7 be 77 c2 7e 3e 1c 20 42 be
       -0.4712943 -0.38969857 0.2487887 -0.18957561
000060 0c 88 95 be 9b 38 e4 3e 9d 6f 92 3e 13 2f 3c be
       -0.29205358 0.44574437 0.2860078 -0.18377332
000070 1b 42 56 be 46 10 b6 3e a1 41 3d be f2 77 f0 3d
       -0.20923655 0.3555929 -0.18482067 0.11741628
000080 c5 d4 51 be 19 16 b0 be c2 fa 8c bd 97 4e 70 be
       -0.20491321 -0.3439186 -0.06883766 -0.2346748
000090 b3 e7 0b be 93 cd e1 be dc 88 6b bd 75 fc 83 be
       -0.13662605 -0.44102153 -0.057503566 -0.25778547
0000a0 c0 9c 0d 3e d5 17 e6 be 81 79 6c bd b9 c6 bb be
       0.13829327 -0.44940057 -0.057733063 -0.3667505
0000b0 a0 2f 8c bb 87 ee 35 3c 0a 15 2c be 18 74 89 be
       -0.0042781383 0.011104233 -0.16804901 -0.26846385
0000c0 c2 15 3d be fc c1 97 bd d5 7d ba be 3f a4 41 be
       -0.18465331 -0.074100465 -0.36424127 -0.18910311
0000d0 90 7f 99 bc 30 dc 1a be 7b 12 83 3e ea e6 2b 3c
       -0.018737584 -0.15123057 0.25600037 0.010492066
0000e0 84 e1 87 3e 44 69 49 be 09 e0 91 3e 81 fa 8d 3e
       0.26539242 -0.19669062 0.28491238 0.27730182
0000f0 88 ee 54 be 30 36 eb 3d c9 5a 3a 3e 00 16 5e be
       -0.20794117 0.11484945 0.18198694 -0.2168808

qz0_net.weight f4 [32, 64]
000000 e5 28 01 3e b8 bc f8 3d b5 94 20 be ab 7c f8 3d
       0.12613256 0.1214537 -0.15681727 0.121331535
000010 0f 78 49 3e bc 83 09 be 4b f2 b0 bc 5a 27 3c 3d
       0.19674705 -0.13429159 -0.02159991 0.045935966
000020 4e c8 03 bd 9a 6f 13 3e d6 f1 97 bd 1a af a4 3d
       -0.032173447 0.14398041 -0.074191734 0.080412105
000030 e2 7f 9f 3d 4d dc b4 3d c0 3c d3 bc 8f ad 0d be
       0.077880636 0.088310815 -0.025785804 -0.13835739
000040 ef 10 58 bd 31 8b 49 be 4e 75 d8 bc 04 f5 0b 3e
       -0.052750524 -0.19682004 -0.026423123 0.13667685
000050 fb 3b 7e 3c a1 91 cd ba 4e 55 48 3d 1b 93 51 3d
       0.01551723 -0.001568366 0.048909478 0.05116568
000060 08 c7 0a bd b4 d1 99 3c ae ef 56 bd d5 2f 93 bd
       -0.033881217 0.018776752 -0.05247467 -0.071868576
000070 0b a4 42 3d 4b 0e 95 bd 3c 9f 1c be db 16 ff bd
       0.047519725 -0.07278117 -0.15295118 -0.12455531
000080 ec 68 e9 3d d5 13 85 bd d6 59 19 3d 1d 31 ac 3b
       0.113969654 -0.06497923 0.03743919 0.005254878
000090 6b 9c 18 be 9c 2a 8e 3e 38 c4 89 bc 9e 71 a6 bc
       -0.14903419 0.27766883 -0.016817197 -0.020317849
0000a0 d0 63 e8 3d 6b 82 54 bc 6c 58 03 3e 36 06 23 3e
       0.11347163 -0.012970547 0.12826699 0.15920338
0000b0 48 70 0f bc d0 12 0d bc 8c 2d 42 bc 3b 26 85 3d
       -0.008754797 -0.008610442 -0.0118516795 0.065014325
0000c0 6e 64 c0 bc 63 97 fd bc 5a 72 bd 3d b5 46 f4 3d
       -0.023485389 -0.030955976 0.092503265 0.11927549
0000d0 c1 1a ca 3b aa d0 03 3e 6e c8 33 be 9d cf 15 3c
       0.00616774 0.12872568 -0.17556927 0.009143737
0000e0 c6 3b 87 bd c0 d7 c2 bb f5 3b cc 3c 06 3c 63 be
       -0.06603198 -0.0059461296 0.024930933 -0.22190866
0000f0 9e ab ba bc 83 08 af 3c f8 48 bb 3d d4 a7 79 bd
       -0.022786912 0.021366363 0.09144777 -0.06095107
000100 84 5e 55 bd ef 20 98 3d 7f 67 f9 3a fc 8e 8d 3c
       -0.05209209 0.074281566 0.0019028037 0.017280094
000110 ba 5b 0a be ea 52 56 bd 83 18 25 3c 63 7f 5a bd
       -0.13511553 -0.052325167 0.010076645 -0.05334414
000120 f1 f2 21 3e 98 69 f8 bc 4c 47 a3 3d d6 7d f0 bd
       0.15815331 -0.030323789 0.07972583 -0.11742751
000130 07 41 cd bd b6 0a 85 3d b5 83 09 3e 51 b0 1d 3e
       -0.100221686 0.064961836 0.13429148 0.1539929
000140 72 27 dc bd 43 3f c7 3d fb 41 a6 3d 4b 99 e6 bd
       -0.10749711 0.09728863 0.081180535 -0.11259707
000150 0f aa 57 bc ca 7f 52 3d 04 7e c2 3d b1 41 01 3e
       -0.013163104 0.0513914 0.09496692 0.12622716
000160 4b da 0b be 83 c4 53 bb 04 23 2f 3e 95 18 bf 3d
       -0.13657491 -0.0032313175 0.17103201 0.093308605
000170 84 44 ba 3d bc 13 99 3d 81 38 a9 bd 21 9d a1 3d
       0.090950996 0.07474467 -0.082627304 0.07891298
000180 e4 3e 7b 3d ff 9c ed 3c 3c 95 75 3d e8 7b d4 bd
       0.061339274 0.029005526 0.059956774 -0.10375196
000190 b2 8c 07 3e 4e 48 e9 3b 80 b2 06 3d 85 13 66 bc
       0.13237265 0.007119215 0.032885075 -0.01404274
0001a0 b5 05 54 bc f2 e9 ed 3c ee d4 98 3c 53 cd ab 3d
       -0.012940814 0.029042218 0.01865622 0.08388772
0001b0 92 8c 0c be 81 d6 cd 3d 05 9b e7 3d 5a e4 b5 ba
       -0.13725498 0.10050679 0.113088645 -0.0013877258
0001c0 b2 2f 96 3d 88 a9 46 bd 59 ec 0c 3c 3d 7a 0e bd
       0.07333316 -0.04850152 0.008601272 -0.034784544
0001d0 6d 17 01 be 05 12 c1 3d fc 41 ae 3d 96 4a 05 3e
       -0.12606592 0.09427265 0.08508679 0.13016734
0001e0 80 ff 37 bd bb 89 fa bc 66 bb 2d 3d 18 c2 08 3d
       -0.0449214 -0.030583253 0.042415045 0.033388227
0001f0 56 45 a6 bc 14 38 0e 3d 35 49 1d 3d 4e 77 1e be
       -0.020296734 0.03472145 0.038399894 -0.15475199
000200 b6 56 1e be 87 fe e3 3c 36 4d 53 be 30 7a 13 3e
       -0.15462765 0.027831329 -0.20634922 0.1440208
000210 bf 19 4b be 66 d9 94 3d 74 9d 27 3e 61 71 88 3e
       -0.1983404 0.07268028 0.16368657 0.26649
000220 df aa fb bb 08 67 67 be f5 bf 78 3e a4 23 5d 3e
       -0.0076802815 -0.22597897 0.24291976 0.21595627
000230 60 26 8d bd 3f 4c 3b 3e 34 a1 c2 3d 4e 31 dc 3b
       -0.06892085 0.18290804 0.09503403 0.0067197448
000240 0d 8f ca 3c 2a ee 37 3e 50 9f 05 3e b4 36 0f 3e
       0.024726415 0.17961946 0.13049054 0.13985711
000250 10 ab 44 be f4 b1 1b 3d 50 9a 76 3c a0 f3 6b 3d
       -0.1920588 0.038011506 0.015051439 0.057605386
000260 cd 87 85 be 9b 66 71 3e d3 49 88 3d 65 b7 c1 3c
       -0.2608017 0.23574297 0.06654706 0.02364702
000270 d6 82 d9 bd 19 72 c1 3d 43 dc 2f bd 76 5a 4d be
       -0.10620658 0.094455905 -0.042934667 -0.2005404
000280 be 92 12 be 0a 14 8f be d8 43 99 bd 72 a0 74 be
       -0.1431379 -0.27944976 -0.07483643 -0.2388933
000290 b3 92 a8 bd 2c 27 0d be f0 c6 39 bd 2f fc 59 bd
       -0.08231106 -0.13784474 -0.045355737 -0.053219017
0002a0 c1 0b 02 3d cc d5 36 be e3 ea d6 bd cf 40 89 3d
       0.03174949 -0.17854995 -0.1049402 0.067018144
0002b0 35 99 2f be 4e 3e 06 3e a8 0e bd bd 9d 68 12 3d
       -0.17148288 0.13109705 -0.09231311 0.0357443
0002c0 0a fd 40 3d a5 95 6e be e5 ba b1 be 3a eb a2 bd
       0.047116317 -0.23299272 -0.34712902 -0.07955022
0002d0 92 7d 36 be db 21 85 be 7f e4 10 3e 5f 85 17 bd
       -0.17821339 -0.26002392 0.14149664 -0.036992427
0002e0 02 c1 73 3d 2a a7 6d bd 16 44 86 3d 89 d8 40 3e
       0.05951024 -0.05802075 0.06555955 0.18832602
0002f0 02 2e ac bd 1d 90 02 3d 53 ff d3 ba 1a 35 2c be
       -0.08407213 0.03187572 -0.0016174115 -0.16817132
000300 19 65 2e be 13 47 1d 3e f0 f4 7e bd a2 02 57 3e
       -0.17030753 0.15359144 -0.06224531 0.20997098
000310 a8 cc 4a 39 81 3a b6 bc 6c ee 5a 3e 09 e8 65 3e
       0.00019340462 -0.022244694 0.21380013 0.22451796
000320 c0 83 9f bd 61 38 8c bc 10 39 48 3d 98 af 14 bd
       -0.07788801 -0.017116727 0.048882544 -0.03630027
000330 b7 55 ae bd f4 3a fa 3d 10 15 a3 bb 75 fd 37 bd
       -0.085124426 0.12218276 -0.004976876 -0.04491945
000340 4d d5 40 bc e1 08 04 bb bf 1b 0f 3e 6b d4 3f 3e
       -0.011769605 -0.0020146894 0.13975428 0.18733375
000350 4d ef 3c bd 5b e1 e0 bc ef 3f 6a bc 54 29 13 3e
       -0.046126653 -0.027451208 -0.0142974695 0.14371234
000360 90 3e 5a be 83 c5 31 3e 98 b3 05 3e 24 82 05 be
       -0.21312928 0.17360501 0.13056791 -0.13037926
000370 a2 d0 cd bd 0a da a7 bc 5d ad 80 bd 7a 3a b0 be
       -0.10049559 -0.020489711 -0.062830664 -0.34419614
000380 70 b4 fd bb 9f 7b 35 be bb b4 eb bd 5b a4 e1 bd
       -0.007742457 -0.17722939 -0.11509081 -0.110176764
000390 2b 08 d5 bd ef ab 16 3e 31 97 7b 3d 13 62 b3 bc
       -0.104019485 0.14714025 0.061423484 -0.021897351
0003a0 53 a3 95 bd 79 76 43 3d 88 45 85 bb d3 f6 e7 bb
       -0.07306542 0.047720406 -0.0040671267 -0.0070789843
0003b0 f9 45 0d be 3e aa fa bd 9e 99 f1 bc ae f3 aa bd
       -0.13796224 -0.12239502 -0.029492196 -0.083472595
0003c0 26 96 4d be 68 b2 5e be 2a 0c 60 be 08 f6 de 3d
       -0.20076808 -0.21747744 -0.2187964 0.108867705
0003d0 87 8f da 3c 64 12 b9 bd 27 31 1d 3e be aa cd bd
       0.026679767 -0.09036711 0.15350781 -0.10042332
0003e0 17 91 74 bd bd a2 79 bc 96 96 44 bd 3e bd 26 be
       -0.05970868 -0.015236554 -0.047995172 -0.16283128
0003f0 b2 df 18 3c ad f8 33 3d ba 11 2a bd 7d 71 f8 bc
       0.009330677 0.043938328 -0.04152081 -0.030327553

qz0_net.bias f4 [32]
000000 70 ae a1 bc f0 ae 89 3d 67 d2 b9 3e e0 77 5b 3e
       -0.019736499 0.0672282 0.36293337 0.21432447
000010 72 86 be bd 50 1e 1d bd e4 df 29 be 05 4a 5b 3e
       -0.09302987 -0.038358986 -0.16589314 0.21414955
000020 5b 7c 5d 3e c8 da ca 3c 82 9c 09 bd e9 ac 05 be
       0.21629469 0.024762526 -0.033596523 -0.13054241
000030 a4 c1 63 bd 0f 79 d6 bd 0f 5e 01 be 4f 71 2d be
       -0.055604592 -0.10472309 -0.12633537 -0.16937755
000040 bc 85 e0 bd c8 cb 95 bd bf 0e 77 be 14 b9 8b be
       -0.10963008 -0.07314259 -0.24126719 -0.2728964
000050 16 66 f5 bc 8e 11 64 be 3a 0d e6 bd ad 32 22 be
       -0.029955905 -0.22272322 -0.112329915 -0.15839644
000060 06 ac 53 be b1 0e 77 be 99 6f 85 be 0c 0e 8c bd
       -0.2067109 -0.24126698 -0.26061705 -0.06838617
000070 9d ad 6e be 1b 04 24 bd 3c 0c 7c be 4d 4f 8a be
       -0.23308416 -0.040042978 -0.24614042 -0.27013627

f_net.0.weight f4 [64, 80]
000000 fe f9 d4 3b 74 ba 8e 3d 06 ba a5 bd f1 d1 06 be
       0.006499528 0.06969157 -0.08092122 -0.13166024
000010 95 54 4c bc d0 59 10 be 0b c8 2f 3e e0 4b bc bd
       -0.012471338 -0.14096761 0.17166154 -0.091941595
000020 9d e8 aa be 69 c0 8a 3e 6a 21 0b 3d 48 12 b3 3a
       -0.33380595 0.27099922 0.033967413 0.0013662064
000030 db d5 62 be 68 bb 6c 3e cb 96 a5 3e 40 b7 24 3e
       -0.22151892 0.23118365 0.32341608 0.1608553
000040 b7 21 ce 3d d3 e3 22 3e 1f 0c 7c be 49 1e 8e be
       0.10065024 0.1590722 -0.24613999 -0.2775748
000050 e5 cc 59 be a8 b3 b6 bc c0 2f a6 3e 67 6f cf 3d
       -0.21269567 -0.022302464 0.32458305 0.1012867
000060 bf e3 fe 3d b4 6c 42 bc 93 a3 8b 3d a9 49 a0 be
       0.12445783 -0.011866737 0.06818309 -0.31306198
000070 67 3d 38 bd bb c7 a7 3e 2e 34 a0 3d 3b 37 31 3e
       -0.044980433 0.3276957 0.078224525 0.17306225
000080 65 a9 65 3e a4 ad 02 3d ec 1f 94 3e 37 1a c9 bd
       0.224279 0.031903878 0.28930604 -0.09819453
000090 a2 b6 d5 bd 10 c6 e3 bd 0f ce 61 3e 37 ca 58 3e
       -0.10435225 -0.11121762 0.22051261 0.21170889
0000a0 60 dc 53 be 29 1d 8e 3e 56 6d 33 3e 56 44 46 3c
       -0.20689535 0.27756622 0.17522177 0.0121012535
0000b0 71 5f 82 be 85 d5 4d 3e 5b e9 1c 3e 31 f2 90 3d
       -0.2546344 0.20100982 0.15323393 0.07077444
0000c0 1a 95 a2 bd 10 58 6a be ad fa 73 3e 15 0e dd 3e
       -0.07938595 -0.22885156 0.23826094 0.43174806
0000d0 47 57 35 3e d3 37 3e be 4b e1 52 be 4e 4a a8 ba
       0.17709075 -0.18575983 -0.20593755 -0.0012839527
0000e0 3d a2 65 be 04 76 95 be 91 db 82 be be 61 53 3e
       -0.2242517 -0.291916 -0.2555814 0.20642754
0000f0 9d 3a 5c be 9c 4f e3 be 8b b9 93 3e 06 df d4 3d
       -0.21506734 -0.44396675 0.28852496 0.10394101
000100 8b f0 0e 3e d1 f8 17 be 2a 41 8d be b1 73 57 be
       0.13958947 -0.1484101 -0.2758878 -0.21040227
000110 f1 9f 57 be 8f a3 a1 be fe 79 c6 3d 5b aa 52 3d
       -0.21057107 -0.31570098 0.09691237 0.051431995
000120 8e 7e 26 be 57 a7 06 3e 8d 73 1b 3e 61 31 53 3e
       -0.16259214 0.13149773 0.15180798 0.20624305
000130 58 4c 1d be aa 04 83 bd 51 1b c8 3d a1 4c e6 bd
       -0.15361154 -0.06397374 0.09770835 -0.112450846
000140 d8 dc d7 3d 9c 15 fe bc d4 00 ac bc db a6 ed 3e
       0.105401695 -0.031016164 -0.020996489 0.46416363
000150 a4 a1 90 be 49 4c 6b be ba 6c 8c 3d 72 56 85 be
       -0.28248322 -0.22978319 0.068566754 -0.26042515
000160 a3 8b 68 bd 84 c6 df 3d ad 67 18 be 09 14 79 be
       -0.056773793 0.10926536 -0.14883299 -0.24324049
000170 79 a1 25 be 20 7d 37 be 0d 6f 5e 3e 12 79 ad 3e
       -0.16174878 -0.17918825 0.2172205 0.33881432
000180 60 ba 41 3d c0 da 43 3d 7a 39 0c 3e 75 52 e8 bd
       0.04729688 0.047816038 0.136938 -0.113438524
000190 6f be 20 be 2c 86 4b 3e 9e de ee 3d e7 0b 62 bd
       -0.15697645 0.19875401 0.116635546 -0.055187132
0001a0 cb c0 92 3e 35 4b 46 3d d2 77 3c 3e e1 16 8b 3c
       0.28662714 0.048411567 0.18405083 0.016978683
0001b0 e1 46 24 be 57 e1 ac bd 4e b3 0b ba a5 e0 f7 3d
       -0.16042663 -0.08441418 -0.00053291477 0.121033944
0001c0 69 c8 a9 3d 76 52 1f 3e 71 3e 16 3d 44 5a 21 bd
       0.08290178 0.155588 0.036680643 -0.039392725
0001d0 fd fb 91 bd 10 c6 14 bd 5e 5b 73 3e 37 cb c6 bd
       -0.07128141 -0.0363217 0.23765323 -0.09706729
0001e0 9e ba a0 bc 62 db cd bd 29 0c fe bb 99 dc 83 3c
       -0.019620236 -0.100516096 -0.0077529144 0.0160964
0001f0 97 45 e9 bc b8 fd 30 3e 23 7d 91 bc b2 c9 89 3e
       -0.028475566 0.17284286 -0.017759865 0.26911694
000200 0b 8d 23 be f0 4e 52 bd b4 9e 6b 3e 19 38 eb 3d
       -0.15971772 -0.051344812 0.23009759 0.11485309
000210 d5 12 f1 3d 5c 58 d5 bd 23 2f b1 bc 24 a4 12 3e
       0.1177117 -0.10417244 -0.021628922 0.14320427
000220 3b 55 dd bd 19 44 71 bd aa ac 1d 3d 87 84 d6 bb
       -0.10807272 -0.058902834 0.038494743 -0.00654656
000230 7d f7 f8 bd f2 a7 67 3d d3 53 20 3d 7e 3c 09 be
       -0.1215658 0.05655665 0.03914244 -0.13401982
000240 12 06 2c 3e 25 43 4b 3e fc d5 1a bd 67 98 96 be
       0.1679919 0.19849832 -0.037801728 -0.2941315
000250 17 e3 f5 3c 63 e2 2d be 49 50 d2 3d 56 19 1d 3e
       0.030015511 -0.16980891 0.102692194 0.15341696
000260 49 96 fa 3c 3c e3 6e 3d f4 41 b2 3d cb cc 7e 3e
       0.03058924 0.058322176 0.08703986 0.2488281
000270 9c 4a c1 3c 69 1f e3 bd 67 e2 00 bd cd 31 c8 bd
       0.023595147 -0.110899754 -0.031465914 -0.09775124
000280 84 30 8a 3d 2c 61 5a bd e6 22 91 bd 19 0f 76 3d
       0.06747535 -0.053315327 -0.070867345 0.060072992
000290 88 bc 1b be c8 ee 9a 3c 6c 9c df 3d a5 a5 75 3d
       -0.15208638 0.018912688 0.10918507 0.059972424
0002a0 9f f2 0c be 32 14 53 3c c0 ed 5e bd 9e 8c d9 bc
       -0.13764428 0.012883233 -0.054425955 -0.02655631
0002b0 6f e0 17 3d 36 d8 9e bd a2 d7 17 3e 3e 22 3b 3e
       0.03707927 -0.07756083 0.14828351 0.18274781
0002c0 04 4d 03 3e 67 cb da 3c 01 d6 16 3d 1c 7a c0 bd
       0.12822348 0.026708318 0.036825184 -0.093982905
0002d0 2d b6 c7 bd e1 0d 4d 3e 34 0e 12 3e 91 ec 01 be
       -0.09751544 0.20024826 0.1426323 -0.12687899
0002e0 82 da 24 3e 07 d7 48 bd ad 6e 06 3e 37 a4 0b bd
       0.16098979 -0.04903319 0.13128157 -0.034092154
0002f0 7a ab 50 be 75 14 ed 3d 9e ef 09 3e 8f 5f 83 3d
       -0.20377913 0.115761675 0.13470313 0.06414711
000300 44 4f 1b 3e 34 77 7b 3e f3 11 02 3e 2f 67 ab bd
       0.15166956 0.24557191 0.1270216 -0.0836929
000310 1b 94 94 bd 73 33 27 be d8 ce 30 3e 0f 9d 2e bd
       -0.072548114 -0.1632822 0.17266405 -0.04263025
000320 4e 62 0a be b1 9e 4f 3c dc 2a 00 3e 83 e4 3c 3b
       -0.13514063 0.012672112 0.1251635 0.0028822727
000330 6c c7 ff bd 49 b1 45 3e 7d c2 42 3e 0a aa f7 3d
       -0.124892086 0.1930591 0.19019504 0.12092979
000340 b6 5e cd bd bb 91 3c 3d dd ea 44 3e 79 e4 42 3e
       -0.1002783 0.046037417 0.19230218 0.19032468
000350 0c 37 57 3e 96 e2 ff bd bf fc 38 be 90 f5 34 3e
       0.21017092 -0.1249439 -0.18065165 0.176718
000360 10 ce 25 be c0 ef 78 3b 12 ac f8 bd 0a 58 fe bd
       -0.16191888 0.00379847 -0.12142195 -0.12419136
000370 67 f1 6c bd b0 2d 21 be 62 19 09 3e e8 9e 0e 3e
       -0.057847407 -0.15740085 0.13388589 0.13927805
000380 80 c1 d6 3d 90 9c 90 3e 52 d3 43 3d 78 af 6b bd
       0.10486126 0.28244448 0.047808953 -0.057540387
000390 7a 1a de bd 4a 9f da bd c7 00 1a 3e d7 e0 7a 3e
       -0.10844894 -0.10674913 0.15039359 0.24499832
0003a0 0b f5 ed bc ad d5 87 bb cd 52 3f 3e 64 d3 ea 3d
       -0.02904751 -0.004145345 0.1868393 0.11466101
0003b0 72 ff d1 bd ff 15 70 be 89 7c 7b bc 11 69 f3 bd
       -0.102538005 -0.23445891 -0.015349516 -0.11885274
0003c0 dd b5 df 3d d5 01 68 bd f0 7f b6 bd 0f 06 01 3e
       0.109233595 -0.056642372 -0.08911121 0.12599967
0003d0 eb 76 f8 bd c3 4a da bd 67 a8 08 3d a4 00 df bd
       -0.12132057 -0.10658791 0.033363726 -0.10888794
0003e0 b5 45 ca bd 61 3d 4c 3e 56 49 a2 bd 1e 38 bf bd
       -0.09876577 0.19945289 -0.07924144 -0.093368754
0003f0 6f f8 07 be 93 6f ee 3d ac 96 65 3e 83 09 64 3e
       -0.13278364 0.11642375 0.22420758 0.22269253
