my_latent_sde/simpler/sdes/best_sde_0.pth (torch, 20661 bytes, 16 tensors)

encoder.net.0.weight f4 [64, 2]
000000 e5 24 0f 3e 95 43 1b bf 28 e6 05 bf 3a 27 a3 3e
       0.13978918 -0.60649997 -0.52304316 0.31865865
000010 1c eb aa 3e 67 97 ff bc 5f f0 73 be 78 15 a4 be
       0.333825 -0.031200124 -0.23822163 -0.3204763
000020 d0 bc 17 bf f1 36 d1 3e 3a 84 89 3e 1a 91 d5 bd
       -0.5927248 0.4086223 0.26858693 -0.104280666
000030 a4 ac 5f 3e 30 fb 61 be 51 34 52 bd e4 ed b8 3d
       0.21843201 -0.22068477 -0.051319424 0.09029749
000040 85 2f f8 3e 46 8c f6 bd dd 25 30 3e d7 f9 16 3e
       0.48473755 -0.12038474 0.17201944 0.14743744
000050 4f ea cf 3e 5e 15 4a bf 27 02 72 be 58 00 ae 3e
       0.4060845 -0.78938854 -0.23633634 0.33984637
000060 7d fa 17 bf a1 4c 95 3e 80 78 ca 3e 82 e2 c7 be
       -0.5936659 0.29160026 0.3954506 -0.3904
000070 f3 33 3c 3e 46 cd b4 be f6 e1 b6 3e d8 e9 ba be
       0.18379192 -0.3531286 0.3571927 -0.36506534
000080 9a 63 d0 3e 0b c0 f7 be 58 94 dd be cc 35 00 bf
       0.4070099 -0.48388705 -0.4327724 -0.5008209
000090 22 5d 8b be b1 6a b5 be 44 01 1e bb 93 db 33 be
       -0.27219492 -0.35432962 -0.002410964 -0.1756423
0000a0 6d 16 21 bf d3 b8 9d ba e7 35 0d 3e 5a 4e 21 3f
       -0.62924844 -0.0012033231 0.13790093 0.6301018
0000b0 d4 b6 32 3e fb 6c b4 be 91 ff 92 3e ed 66 dc bd
       0.17452556 -0.35239395 0.28710607 -0.10761819
0000c0 79 b1 f8 3e 47 01 cc 3e 20 5f 14 be a1 32 00 3f
       0.485729 0.39844725 -0.14489412 0.50077254
0000d0 94 6e 19 bf 2a 64 c6 3e 15 10 86 3d 64 4d a4 be
       -0.59934354 0.38748294 0.06546036 -0.32090294
0000e0 09 3a fa be 48 99 84 3e be 46 7f 3e 13 ed f6 be
       -0.48872402 0.25898194 0.2492933 -0.48227748
0000f0 e9 11 34 3e c0 a2 33 bf 86 2c 36 3e 41 68 af be
       0.17584957 -0.7017021 0.17790422 -0.34259227
000100 87 13 25 bf a5 58 40 be b0 34 f3 3e cd c7 4a be
       -0.6448292 -0.18783815 0.47501135 -0.1980278
000110 63 8a 6b 3e e8 e3 2c 3f 8b 62 13 3f 9c 1b 14 be
       0.23002009 0.6753526 0.5757224 -0.14463657
000120 78 65 dd bd ff c5 e0 3e bc d4 04 be fb b9 02 3f
       -0.10810369 0.4390106 -0.12971777 0.51065034
000130 59 39 04 bf 13 51 9c 3e 87 65 4f 3d ad 87 12 bd
       -0.51650006 0.30530605 0.050633933 -0.03577392
000140 b6 aa fd bd cd 59 04 3f 7a 80 0f be 75 19 e8 be
       -0.12386076 0.51699525 -0.14013854 -0.45331922
000150 54 54 58 3e 4d df af 3d e8 d2 10 3f 6f f4 ba be
       0.21125919 0.08587513 0.5657182 -0.36514613
000160 73 0e e3 3e a8 0b dd 3e 35 67 d4 be 73 55 35 3e
       0.4434696 0.43172956 -0.4148499 0.17708378
000170 90 4d 07 be e6 ae cb 3e 13 e1 08 bf 19 e4 62 3e
       -0.13213181 0.39781874 -0.53468436 0.22157325
000180 8c 52 ff 3e 66 fb 69 3e de 7f 8a be ac 99 22 bf
       0.49867666 0.22849807 -0.2705068 -0.63515735
000190 e7 c3 a2 3e 96 e6 5a be 70 c9 02 bf f9 c5 75 3e
       0.31790087 -0.21377024 -0.5108862 0.24001302
0001a0 61 6e c6 be 37 2d c7 be 2c 1f 91 be b2 d3 9d 3d
       -0.38756087 -0.38901684 -0.28344095 0.07706393
0001b0 44 fd 8a 3e be 5a 5a 3e 09 e9 c7 be ef 7a 9c be
       0.2714635 0.21323678 -0.3904498 -0.3056254
0001c0 1b 07 a5 bc 11 4a b0 3e 51 0a 2a 3f 51 d3 a5 3e
       -0.02014499 0.34431508 0.6642199 0.32387784
0001d0 16 53 83 be 43 18 94 3e 35 43 86 3e de 92 f8 be
       -0.25649327 0.2892476 0.2622315 -0.4854955
0001e0 80 00 04 3f e0 ae 39 3e e4 63 45 3e 72 62 d6 be
       0.5156326 0.18133116 0.19276386 -0.41871983
0001f0 5a e3 4e be 63 a5 51 3e 2a af 81 3e 41 47 0c bf
       -0.20203915 0.20473246 0.25328952 -0.54796225

encoder.net.0.bias f4 [64]
000000 00 3a 80 bf 20 9b 12 3f 8f fc a8 3e 6c 09 f9 be
       -1.00177 0.5726795 0.33005187 -0.4864
000010 0f d7 bb be 7e 5e 2f 3f b7 85 7b bf 60 04 aa 3e
       -0.36687514 0.6850356 -0.9825091 0.33206463
000020 2a 65 2c bf af 53 14 3f e9 ee b5 bf b2 4f 4d bf
       -0.67341864 0.5794019 -1.4213535 -0.8019973
000030 c9 9a 25 bf 8f 6b df bd f7 d4 6c bf 4a 08 bc bf
       -0.6468931 -0.10909187 -0.9251246 -1.469003
000040 23 63 f3 3e 79 10 af 3c 7f 3e 24 bf 61 7a 2f bf
       0.47536573 0.02137016 -0.6415786 -0.6854611
000050 e5 be 90 3e 94 6d b8 bb 9a e3 69 bf 78 f0 26 bf
       0.2827064 -0.005628297 -0.9136292 -0.65210676
000060 ed 04 59 bd 0e b3 d3 be 26 a4 b0 bd 8b 70 51 bf
       -0.052983213 -0.41347545 -0.08625059 -0.8181235
000070 25 50 1d 3f 77 fb 73 bf d5 bf fa 3e f2 aa 68 bf
       0.61450416 -0.9530558 0.4897448 -0.9088584
000080 59 85 91 3a 23 22 29 bf 6e 86 05 be f1 0a 9a 3e
       0.0011102363 -0.66067713 -0.13039562 0.30086473
000090 53 cd f0 bd dc c2 e3 3d c6 e9 89 be 88 03 19 3f
       -0.117579125 0.11121151 -0.26936167 0.59771013
0000a0 8f cf 1e bf 5c 0d 2c bf f5 ce c3 3d e1 8e 15 bf
       -0.6203546 -0.67207885 0.09560958 -0.5842114
0000b0 7e 21 f4 be b6 4e 57 bf 2a a1 05 3f b8 7b 7b bf
       -0.47681803 -0.8410448 0.5219904 -0.98235655
0000c0 38 d8 54 be 05 aa b7 be cc 94 08 bf 41 77 d5 3e
       -0.20785606 -0.35871902 -0.53352046 0.41692546
0000d0 0a 83 c6 3e 1d 7e 5e be 8e 35 17 bf e5 65 6d bb
       0.3877185 -0.21727796 -0.5906609 -0.0036224064
0000e0 f9 a9 98 3e 16 fe 0b be 6f 92 85 be 89 b6 58 bf
       0.2981718 -0.13671145 -0.26088282 -0.84653527
0000f0 15 6d 93 3e d1 72 25 bf 4a e2 22 bf 8e bc 61 bf
       0.2879416 -0.6462832 -0.6362654 -0.88178337

encoder.net.2.weight f4 [8, 64]
000000 ee 10 b0 bd 77 18 92 3d 79 e4 70 bd 88 d8 ee bc
       -0.08596979 0.071335725 -0.05881164 -0.029155985
000010 37 bc 3c be 83 51 1d 3c 6c f9 83 3f 5b 76 e2 bc
       -0.18431173 0.009601953 1.0310493 -0.027644327
000020 c4 32 11 3e 35 95 42 ba 98 98 82 3d d7 13 2c bf
       0.14179522 -0.0007422746 0.06376761 -0.67217773
000030 f8 23 8b bd 26 15 0b be db 34 82 3e d6 2c 60 3f
       -0.0679397 -0.13582286 0.2543095 0.87568414
000040 69 5c b0 be b1 51 e9 3c 31 cd eb 3b f3 42 12 3e
       -0.34445503 0.028481336 0.0071960916 0.14283352
000050 3a 79 82 3d 5c 15 4b 3c a7 0d b1 3e fc 6f aa 3e
       0.063707784 0.012395229 0.34580728 0.33288562
000060 90 83 98 bb 88 76 b5 be 2c 9a 1c bc a8 2c 1d 3e
       -0.0046543553 -0.35441995 -0.009558242 0.15349066
000070 73 35 04 3e 73 bd 55 bb 62 81 9c be 8d 41 81 3e
       0.12911014 -0.0032614141 -0.3056746 0.25245324
000080 b5 16 ea 3d ab 54 95 3e 90 db cd bd 0f 05 a6 3c
       0.11430112 0.2916616 -0.10051644 0.020266084
000090 4f 11 f9 bd 0c 4c 59 be 63 7a b7 3b ab f6 48 bd
       -0.121615045 -0.21220416 0.0055993064 -0.049063366
0000a0 30 b3 7d be be 54 a7 3b eb 83 47 3d 3b 1b cd 3d
       -0.24775386 0.0051065376 0.04870979 0.100149594
0000b0 6c 27 a3 3d 51 1f 5c be 53 0c df bd 4b 93 4f be
       0.079665035 -0.21496321 -0.108910225 -0.20271032
0000c0 03 37 2a 3c 26 74 2e 3b ec 80 db 3e f0 b6 c2 ba
       0.010389092 0.0026619523 0.42871797 -0.0014855545
0000d0 89 b5 df bd 54 70 ea bd b3 d5 33 3d 63 f7 a4 3c
       -0.10923297 -0.11447206 0.04390497 0.020137494
0000e0 29 82 36 be da 1d 09 3e 59 20 de be b2 3e 99 bd
       -0.1782309 0.13390294 -0.43384054 -0.07482661
0000f0 ef bc 98 3d 1b d2 35 bd 42 aa a7 be 49 07 d2 bc
       0.07457911 -0.044389825 -0.32747084 -0.02563824
000100 3a d6 01 3e fb b4 57 bd 7a 09 0b be 59 61 51 3d
       0.12679377 -0.05266283 -0.13577834 0.05111823
000110 26 5a d0 be 09 21 45 be 9d a4 25 3f a0 0a 54 3d
       -0.40693778 -0.19250883 0.64704305 0.051767945
000120 e0 65 73 3e aa 84 d0 3c b5 ef 3c 3e 10 a8 26 bf
       0.23769331 0.025453884 0.18450816 -0.65100193
000130 b4 4b ac be 48 8e d2 bd d5 d2 29 3e d9 51 19 3f
       -0.33651507 -0.10281044 0.16584332 0.59890515
000140 81 e2 c7 be 96 a2 35 3d 1a 8f 53 3e 62 1f 7a 3e
       -0.39039996 0.044344507 0.20660058 0.24426034
000150 86 0d 95 bb 69 fa 09 3e 52 bf ce 3e 3c e7 56 3e
       -0.0045487313 0.1347443 0.4038034 0.20986646
000160 69 6e 1a 3e 40 7d b9 bc 0e 5f 26 be 0e 23 26 3e
       0.1508118 -0.022642732 -0.16247198 0.1622431
000170 ca 6d 5e bc 27 f8 09 3e 65 fb 6e 3c dd 76 a4 3e
       -0.01357598 0.13473569 0.014586304 0.32121935
000180 57 2b cc 3d 67 fd 23 3d c8 26 13 ba 1b 16 22 be
       0.09969204 0.040036585 -0.0005613384 -0.15828745
000190 17 a4 61 3d 1f f2 28 3c 07 df 5c be 9e d6 9d bd
       0.05508813 0.010311632 -0.21569453 -0.077069506
0001a0 11 57 18 3d c5 c0 46 3d 75 e2 dc 3c f6 a7 06 3e
       0.037192408 0.048523683 0.026963452 0.1315001
0001b0 df af 0e 3e 43 3f b0 be a3 9c fc 39 b3 ce dc be
       0.13934277 -0.34423265 0.0004818189 -0.4312645
0001c0 0a 68 49 3e 1c 28 9b 3d 1e f0 f3 3d 55 8a 8f 3c
       0.19668594 0.0757601 0.11911033 0.017522017
0001d0 fd 31 21 bd 10 6f 35 be 31 0a 7a 3e db ff e8 3c
       -0.039354313 -0.17718148 0.2441795 0.028442314
0001e0 cd 75 ae 3d 0e 7c f1 3d 16 8f 18 be 36 d2 97 bc
       0.085185625 0.1179124 -0.14898333 -0.018532854
0001f0 92 72 ed 3c 29 cc b2 3d 3c 4f 05 bf cc b7 5c 3e
       0.028985295 0.08730347 -0.5207403 0.21554488
000200 1b 85 89 3e 5c ea c2 bd ce 73 2c 3e a1 a7 56 3e
       0.26859364 -0.09517357 0.16841051 0.20962383
000210 a0 2a a5 bc fc 9a be 3c d6 c7 9d 3e 3c 15 ce 3d
       -0.020161927 0.023267262 0.30816525 0.10062644
000220 70 b2 70 bd cd 47 28 3e 71 c5 38 3e 63 82 54 be
       -0.05876392 0.1643364 0.18044068 -0.20752864
000230 a5 fb ad 3d f8 df 1c be 79 a7 3c 3e ff 5d b9 3d
       0.08495263 -0.15319812 0.18423261 0.090511315
000240 12 e7 7b be d7 21 74 bb 1f 17 69 3e 55 6b a4 3e
       -0.24599865 -0.0037251615 0.22762726 0.32113138
000250 c3 e6 28 bd 08 82 28 bd eb 5c 8f 3e 4b 22 13 be
       -0.041235697 -0.041139632 0.28000578 -0.1436855
000260 4d 48 9c 3d 02 81 40 be 9a a0 a5 bd f6 a1 9e 3e
       0.07630978 -0.18799213 -0.08087273 0.3098294
000270 af ad 1d be d8 67 4a 3d cb 73 d5 bd 95 84 fa 3d
       -0.15398286 0.04941544 -0.104224764 0.12232319
000280 5c fb 08 3e d5 ae b6 bd 09 5c 44 3c 28 64 dc 3d
       0.13377136 -0.08920065 0.0119848335 0.10761291
000290 53 15 df bd c0 fe 88 bd 95 8f cc 3d f5 99 26 bd
       -0.10892739 -0.06689215 0.099883236 -0.04067417
0002a0 42 63 28 be fc 30 c6 3d ac eb 02 3e 99 35 b4 bd
       -0.16444114 0.09677312 0.12785214 -0.087992854
0002b0 af f8 01 be e0 89 6d 3e 4a a8 b4 3d 2e 8a a4 3e
       -0.12692522 0.23197126 0.08821161 0.32136673
0002c0 ed d7 40 ba c4 b9 01 3e e8 00 3a be 9e 67 ff bc
       -0.0007356394 0.1266852 -0.18164408 -0.031177338
0002d0 83 27 0a be 88 56 64 3d 9d 7a 2e be 69 a2 bc bc
       -0.13491635 0.055746585 -0.17038961 -0.023026662
0002e0 25 25 aa b9 21 1c b0 3d b8 fc 66 be 89 ec ef bd
       -0.00032452602 0.08599115 -0.22557342 -0.117150374
0002f0 3d 5f 36 3b 46 2b a8 3d 98 7a 5d 3e 3d fb fc 3c
       0.0027827763 0.08211379 0.21628797 0.030881518
000300 18 d7 6f 3e c8 9f 2a bd 15 c5 14 be b2 02 67 bd
       0.23421896 -0.041656286 -0.14528306 -0.056399055
000310 c6 09 de bd 1a 17 84 3c cd 36 1a 3f 80 73 3e 3e
       -0.10841708 0.016124297 0.6023987 0.18598747
000320 eb 82 05 ba 74 1b 4c 3d ec c9 04 3f 44 56 cf be
       -0.00050930557 0.04983087 0.5187061 -0.40495503
000330 09 b5 2b be 18 3c fb 3c 6c 34 30 3f 6f 8f 32 3f
       -0.16768278 0.030668303 0.6882999 0.6975011
000340 9d 6d 96 bd cb d6 06 3d 64 8f 95 bd 75 cb a4 3d
       -0.07345126 0.032919686 -0.0730274 0.08046619
000350 6c 87 88 bd 47 eb eb 3c 60 26 4a 3f b9 6e fd 3d
       -0.06666455 0.028798712 0.78964806 0.12374634
000360 55 dc 8f bd af d1 0d bd a0 86 b8 bd b0 ca 3e 3e
       -0.07024447 -0.034623798 -0.09010053 0.18632007
000370 13 50 05 3d 05 cc 03 3f 08 23 20 3d 65 ae 1c 3f
       0.032547068 0.51483184 0.03909591 0.61203605
000380 8b ba 16 be ac d3 0b 3c f1 0a bb 3c 8e 7a 2c be
       -0.14719598 0.008534353 0.022832366 -0.16843626
000390 ee 23 dc 3b be 2a 61 3d b4 b4 b2 bd 7d d2 01 3e
       0.0067181503 0.054972403 -0.08725873 0.12677951
0003a0 aa c6 1f bd 04 77 f7 3d ec a5 8f bd fa b5 68 3d
       -0.03900782 0.12083247 -0.07014069 0.05681417
0003b0 79 5c 33 bd e3 4f c6 bd 88 82 51 3d e2 4b 81 be
       -0.04378936 -0.09683206 0.051149875 -0.25253206
0003c0 65 2c 34 bc 19 5f b2 3d 68 f3 34 3e 3d 82 14 be
       -0.010996913 0.08709545 0.17670977 -0.14502807
0003d0 ff 46 91 bd 80 ec ce bd 56 4e b7 bd 51 8d 5b bd
       -0.070936196 -0.101037025 -0.08950488 -0.053601567
0003e0 5a ce 0a 3e 75 48 03 be bb 44 df bc 1f 5b c7 3e
       0.1355528 -0.12820609 -0.027254453 0.38936707
0003f0 04 1a b2 bd 43 2a 87 3e 18 1d b3 be 57 cd cf 3e
       -0.08696368 0.2639943 -0.34983134 0.4058635

encoder.net.2.bias f4 [8]
000000 9b 78 5a be 0b 40 49 be 99 dc 9c bd 6c e1 c7 3d
       -0.2133507 -0.19653337 -0.07659263 0.09759793
000010 24 45 eb 3c 2d 7b 15 bc 49 0c 7e be fd 0f b8 3d
       0.028719492 -0.009123606 -0.24809374 0.089874245

decoder.net.0.weight f4 [64, 8]
000000 67 48 0a be ae cd fe be 3a 15 3b be 83 d7 8d be
       -0.13504182 -0.49766296 -0.18269816 -0.27703485
000010 e7 59 6a bd c7 fd ab be 65 88 8e bd f5 ab 82 3d
       -0.057214644 -0.33592054 -0.06959609 0.063804545
000020 5e bd 2e 3e 0e ee 68 3e ca 62 42 bf 15 6e 04 3f
       0.17064425 0.2274706 -0.7593199 0.5173047
000030 cd ff 9d 3e 63 51 d6 3c 90 f2 41 be 91 d9 e2 3e
       0.30859223 0.026161855 -0.18940187 0.44306615
000040 42 8b 92 3e bd db 45 3d c6 30 b1 bd 7e 50 dd 3e
       0.2862187 0.048305262 -0.08651881 0.43225473
000050 24 5b 3c 3d 93 71 a2 3e f5 66 81 bd 52 5e cc 3e
       0.045985356 0.31727275 -0.063184656 0.3991571
000060 14 d5 0c 3f 20 dc ca 3e f6 ed 2b be 26 c7 6c 3e
       0.5501263 0.39621067 -0.16789994 0.23122844
000070 9e e1 48 3e c5 52 d2 3e 6a d1 61 bd e2 a4 3e 3e
       0.19617316 0.41078773 -0.055131353 0.18617585
000080 f5 63 fe be 6a 0e 2a be 61 9e 0e 3e 74 2e 83 be
       -0.49685636 -0.16607061 0.13927604 -0.25621378
000090 5a 76 f1 bd 37 c4 d6 3e fb a3 bb 3e 50 18 aa be
       -0.11790152 0.41946575 0.36648545 -0.33221674
0000a0 e6 b1 04 3f bb bc f9 3e ff 2e 72 be 7a 59 51 bd
       0.5183395 0.48776802 -0.2365074 -0.051110722
0000b0 b1 6f 25 3e 1f 76 ad be 31 8a 95 be 1c 47 71 3e
       0.16155888 -0.33879182 -0.29206994 0.23562282
0000c0 b8 cf 57 3f 8d d5 e4 3d a0 81 9f be c0 4a be 3e
       0.8430133 0.11173544 -0.31153584 0.37166405
0000d0 97 a4 26 3d 59 70 9d 3c 46 9f 9e be 84 be de 3e
       0.04068431 0.01921861 -0.3098089 0.43504727
0000e0 fc 78 ba be b7 47 6b be 91 8d 3c 3e 2d 41 48 3d
       -0.3642043 -0.22976576 0.18413378 0.04889028
0000f0 9d 4b 39 be e2 3b be be fc b1 23 3d 34 68 82 bd
       -0.1809525 -0.37155062 0.03996466 -0.063675314
000100 4f 4b d9 3d 19 9d 3a 3e 1c 5e 3e be 69 8d 44 be
       0.10610067 0.1822399 -0.18590587 -0.19194569
000110 06 d0 3a be 6b 93 8b 3d 71 2f 68 be c5 e5 b1 3d
       -0.18243417 0.06815227 -0.22674347 0.08686403
000120 96 4a 31 3e 4f 8b d7 be b2 6a 8d 3e 6e 67 fa bd
       0.17313609 -0.42098472 0.27620465 -0.12226759
000130 bf d7 2e 3e 7a 70 63 3e 0c 9d a6 3e bd f7 aa 3e
       0.17074488 0.22210875 0.32541692 0.33392134
000140 f9 e1 85 be 63 92 f1 3e d6 12 4c bf 32 90 24 bf
       -0.26148966 0.47181997 -0.7971624 -0.64282525
000150 96 1b 7b 3d cf 13 34 3e a4 45 9d be b2 70 df 3c
       0.061305605 0.17585681 -0.30717194 0.027275417
000160 36 a9 41 be 4b a6 5f be 35 ce 81 3e d1 1b 87 3d
       -0.18912205 -0.2184078 0.25352636 0.065971024
000170 2e 0f 84 be f0 6b a3 3e 84 5b fc bc 0d ef e8 be
       -0.2579283 0.31918287 -0.030805357 -0.4549488
000180 43 8e 8e 3d 61 37 9a 3c 1f af 06 3e e7 05 9f bd
       0.06960728 0.018825235 0.13152741 -0.07764798
000190 41 ff 89 3e 6b cf 89 bd cb 10 df 3d e6 3b 52 be
       0.26952556 -0.06729015 0.10891875 -0.20530662
0001a0 53 02 49 3e b7 ca 84 3d 7f 21 69 be 54 df e9 be
       0.19629793 0.06483977 -0.22766684 -0.45678198
0001b0 00 f3 3a be c1 81 13 bf ed b7 59 3e c7 15 76 be
       -0.1825676 -0.57619864 0.21261568 -0.24031745
0001c0 76 07 4e be b2 e0 e2 3d e8 df ae 3e 00 50 3e be
       -0.20120034 0.110780135 0.34155202 -0.18585205
0001d0 ce bc 21 3e 6f 49 9d 3e a4 33 a2 bc 03 ca 7e be
       0.1579468 0.30720088 -0.019800015 -0.24881749
0001e0 db ab 2c 3f aa c7 27 3f ef 28 c5 3d d3 28 90 3e
       0.6744973 0.6553904 0.09626948 0.28156146
0001f0 29 a6 81 bd df ca d1 3e b0 ac 0c bc 3e 90 08 3f
       -0.06330521 0.4097509 -0.008586094 0.53345096
000200 78 da 8f 3d 1a 70 9e be 6d d7 b6 3e ce e4 01 be
       0.070240915 -0.30944902 0.35711232 -0.12684938
000210 da c7 8e 3e e3 0b e5 3e f9 af 4c 3d 2a 82 93 bd
       0.2788685 0.4473563 0.049972508 -0.07202561
000220 00 1a 28 bc c8 9c c0 be 73 18 47 3e d8 36 7c 3e
       -0.010260105 -0.37619615 0.1944292 0.24630296
000230 c2 6b 8c 3e 1a a8 a0 bd 2f ed 64 3e 0d de ba bd
       0.27425963 -0.07844563 0.22356103 -0.09124384
000240 ce 73 a3 3e 6c 58 44 3d 96 30 1c 3e c1 3d ac be
       0.3192429 0.04793589 0.15252909 -0.33640864
000250 80 3a 8d bb 27 c3 e8 3d 13 73 db be 5f 36 2b bd
       -0.0043099523 0.11365347 -0.42861232 -0.0417999
000260 e8 a6 c3 3d 16 eb 8a 3c 2f 29 58 be 4c 92 9a 3e
       0.09553319 0.0169578 -0.2110946 0.3018974
000270 41 08 ae 3e 9e b9 1f be a0 f4 03 3d bd 42 bc 3d
       0.33990672 -0.15598151 0.032215714 0.09192417
000280 33 b2 85 bd 7b a0 a0 bd 2e 50 ac 3e 01 d1 72 be
       -0.065281294 -0.07843109 0.33654922 -0.23712541
000290 23 86 02 bf ee 24 03 3f b4 45 c0 3c b6 8d ab be
       -0.50985926 0.51228225 0.023470737 -0.33506554
0002a0 fa b1 c6 3e c5 3f a2 bd de e0 3e bd b8 7f 7a be
       0.3880766 -0.07922319 -0.04660117 -0.24462783
0002b0 40 4e f8 3e 1f d8 ad be 8c 91 bf be 54 39 b6 3e
       0.484972 -0.3395395 -0.3741573 0.35590613
0002c0 8f 75 d7 be 20 cc 56 be 4c 79 b6 3d 02 aa 57 3e
       -0.42081878 -0.20976305 0.08909854 0.21060947
0002d0 d0 c6 b0 be ad 3b 1a 3f 92 42 eb 3e db c1 bb be
       -0.34526682 0.6024731 0.45949227 -0.36671337
0002e0 72 01 6b 3e b8 6a 91 3e c2 f1 56 3e db 71 2c bd
       0.2294977 0.28401732 0.20990661 -0.04210077
0002f0 05 13 64 3e e0 50 43 3d ae fd 90 3d ee 2d 53 3d
       0.2227288 0.04768455 0.070796356 0.051557474
000300 96 4c 19 3f bd da ec 3e c5 61 e7 3d 80 d3 e1 3e
       0.59882486 0.46260634 0.11297945 0.44106674
000310 b6 f6 ff bb fb 7e 2f 3e 04 aa 70 be ab 6d e5 3e
       -0.0078113927 0.17138283 -0.23502356 0.44810233
000320 18 ae 1a bd 1d a8 a7 bd f4 a1 d0 be 57 4c 89 3e
       -0.037763685 -0.08186362 -0.4074856 0.26816055
000330 55 6b 26 be 7e 91 0a 3e a5 8a 9d be 72 04 bf 3e
       -0.16251881 0.13532063 -0.3076984 0.3730808
000340 16 b4 94 3d e2 8e 95 be 28 2c 4e 3c 0c 01 8c bd
       0.07260911 -0.29210573 0.01258377 -0.06836137
000350 63 f1 5a 3e 85 6e fe be 9e da b9 3e 8d 66 b2 be
       0.21381144 -0.49693695 0.36299604 -0.34843865
000360 05 f0 12 bd 3a 9b fb bb 00 26 8e bd 00 cf 52 3d
       -0.03587343 -0.0076784166 -0.06940842 0.05146694
000370 f1 57 a9 bd 67 86 a6 bd bd 4b 23 bc 12 fd 2f 3e
       -0.082687266 -0.08131104 -0.009966788 0.17186382
000380 16 7e b6 3e f8 21 24 3f ad 7e 49 bf 13 6e 2c 3f
       0.3564307 0.6411433 -0.78708917 0.6735546
000390 09 5a 8a bd 2a 76 1f bf 0c dd a1 be 0b d8 c4 3e
       -0.06755454 -0.6228968 -0.31613958 0.38446078
0003a0 52 ed 6f be 06 56 41 be cb ab 8c 3e 82 80 b1 3d
       -0.23430374 -0.18880472 0.27474818 0.08667089
0003b0 25 1c 12 be 7f ed 2a 3f f7 57 a3 be f7 5f 76 3e
       -0.14268549 0.6676864 -0.3190305 0.24060045
0003c0 40 cd 0f 3e e2 12 92 3e 0c 08 a1 be ea ac a1 3e
       0.1404314 0.2853003 -0.31451452 0.31577235
0003d0 44 84 a3 3e 36 78 51 bd 8b f1 2f 3d 01 de 50 3e
       0.31936848 -0.051140033 0.042954963 0.20397188
0003e0 5d 22 92 3e 64 af c2 bd cc 9c cc 3d d6 fe e5 3e
       0.28541842 -0.09506109 0.09990844 0.44920987
0003f0 5c 6e 45 3e 56 b8 2e be 98 34 d3 3e 6c 05 56 be
       0.1928038 -0.17062506 0.41251063 -0.20900506

decoder.net.0.bias f4 [64]
000000 08 32 e0 3e f6 c8 68 be 26 4b a7 3e c4 72 a4 be
       0.4378817 -0.2273291 0.3267452 -0.3211881
000010 2b 1a 1b 3e 8b fc 12 3e f8 b6 fc 3d 0e e9 30 3f
       0.15146701 0.1435415 0.12339586 0.69105613
000020 35 bc 49 bc 49 2d 79 be d1 20 9b be 07 ea 75 be
       -0.012312938 -0.24333681 -0.30298474 -0.24015056
000030 f3 cc 80 bd db 94 84 3e 4b d3 1a bc 46 e8 3a bd
       -0.06289091 0.25894818 -0.00944979 -0.04563167
000040 ba 85 0b 3d a6 bd 31 3c bf 09 da 3e 79 31 53 3e
       0.03406308 0.010848438 0.4258556 0.20624341
000050 05 bf ef bd 78 4d d5 be 9f 86 ac 3e db 42 3d 3e
       -0.11706356 -0.41660666 0.33696458 0.18482535
000060 6d 81 a7 3e 48 6a 4a be e0 46 36 be 25 96 03 3f
       0.32715932 -0.19767106 -0.17800474 0.5140098
000070 d1 da 59 3e b5 eb 91 bd 57 17 f8 bd 68 84 0d be
       0.21274878 -0.07125036 -0.12113827 -0.1382004
000080 db 5f 25 3e e5 a7 d6 bd 65 b1 ab 3d e9 84 70 be
       0.16149847 -0.10481242 0.08383445 -0.23488201
000090 0d 40 4d 3e 44 f7 9c be 43 5f 2a be a1 53 dd be
       0.20043965 -0.306574 -0.16637902 -0.43227866
0000a0 e2 9f a8 3e bd 1c c0 be 88 ea 3d 3e da 5a c6 3e
       0.3293448 -0.37521926 0.18546498 0.3874119
0000b0 ff be 82 3e 68 ac 8f 3e f4 f6 57 be 93 53 05 bf
       0.25536343 0.28061223 -0.21090299 -0.5208065
0000c0 c8 4d 2e bb be 4e 13 bf 0a d9 0b be c2 93 75 be
       -0.0026596654 -0.57542026 -0.13657013 -0.23982146
0000d0 ac c7 36 be 95 58 65 be 09 3b 04 3f 7a af 9b 3e
       -0.17849606 -0.22397073 0.5165258 0.30407315
0000e0 28 c0 da be 2a 07 98 3e f4 3b 63 3d 7d 5f 08 be
       -0.4272473 0.29692966 0.055477098 -0.13317676
0000f0 3f c3 da 3e 00 4a 47 be 2f f5 b0 be db f1 46 be
       0.42727086 -0.19461823 -0.3456206 -0.19428198

decoder.net.2.weight f4 [2, 64]
000000 f0 56 81 be f1 15 00 3f a3 83 d2 3d 9d 85 14 be
       -0.2526164 0.5003348 0.10279014 -0.14504094
000010 98 4b 16 3f 09 60 ed 3e 17 d5 c2 3e f2 fe 89 be
       0.58709097 0.46362332 0.380532 -0.2695232
000020 f9 eb 2b 3f e0 1b e1 bd 61 18 1b be 17 82 87 3e
       0.6715694 -0.10991645 -0.15146019 0.26466438
000030 11 ac 73 3d ad 82 b4 be da 7d be 3e 93 aa c5 be
       0.059490267 -0.35255948 0.37205392 -0.386067
000040 3f 73 fd 3d 4f a1 12 bd 77 62 d0 be 61 b7 62 3d
       0.12375497 -0.035798367 -0.40700123 0.055350665
000050 04 87 a3 3e 21 eb a1 3e 46 37 fc 3e 17 e2 83 3e
       0.31938946 0.31624702 0.4926092 0.2575843
000060 df 30 1c 3e 1d a8 f6 3e 91 1d 37 be f2 75 44 3e
       0.15253018 0.48175135 -0.17882372 0.19185618
000070 ab 06 b8 3f 94 de de be d9 6c 0c 3e 59 11 88 be
       1.4377035 -0.4352919 0.13713397 -0.26575735
000080 15 51 52 3e 00 f6 42 be 71 15 09 3d 1f 9b 09 be
       0.20538743 -0.19039154 0.033467714 -0.1343808
000090 77 52 97 be 90 7d 6b be 20 3c 91 3e 39 7d 35 bf
       -0.29555103 -0.22997117 0.28366184 -0.708942
0000a0 6a 70 14 bf 88 50 91 3e 4c 2f 24 3d 62 52 58 3d
       -0.5798403 0.28381753 0.04008417 0.05281294
0000b0 6a b8 c3 be 09 6e 14 3e 77 0f 94 be 94 82 b1 3d
       -0.38226634 0.144951 -0.2891805 0.08667484
0000c0 e2 ba a5 be a9 ea 76 3e 82 41 2b 3e 80 5c a6 3e
       -0.32369143 0.24112953 0.16724208 0.32492447
0000d0 3b 58 cd be 20 94 17 3f 4f 0f b2 bd fa f1 85 be
       -0.40106377 0.59210396 -0.08694326 -0.26161176
0000e0 e6 6c 50 bf b2 ec 7e 3e ac 5a f1 3e 63 e9 f2 bd
       -0.81416166 0.2489498 0.4713949 -0.11860921
0000f0 3f 71 17 3e ee fe 8b 3d d2 84 44 bf 9a 9d 3d 3f
       0.14789294 0.06835733 -0.7676517 0.74068606
000100 87 42 bc 3e c3 2b b1 be f1 fa 9f be 97 8e 7d be
       0.36769506 -0.346037 -0.3124614 -0.24761425
000110 32 13 86 bd 6e 42 86 3c 0d 14 5d be f4 20 7b be
       -0.0654663 0.016389098 -0.2158968 -0.2452429
000120 ca 7f 35 3f 69 c1 55 3e d0 c6 07 3f 64 ce 7a 3e
       0.70898116 0.20874561 0.5303774 0.24492794
000130 82 8e 21 3e a8 d9 49 be f3 bc 3d 3e c7 b1 de be
       0.15777019 -0.19711936 0.1852911 -0.43495008
000140 e9 ab 3f 3e 18 4e 81 3e c8 13 73 be b4 a1 91 be
       0.18717922 0.25254893 -0.23738015 -0.28443682
000150 72 41 5d 3e 51 b8 b6 3e a4 74 4b 3e c2 88 6c bd
       0.21606997 0.35687497 0.19868714 -0.05774761
000160 e1 e3 c7 be 02 c3 e0 3e b9 cd 43 be 2f b0 0c 3e
       -0.39041045 0.4389878 -0.19121446 0.13739084
000170 54 73 bd be 5f 18 bd 3d 9c b1 9d be 88 53 20 3e
       -0.3700205 0.09233164 -0.30799568 0.15656865
000180 64 15 01 be 72 ff c1 3c 5d 17 c3 3d d1 5f d3 be
       -0.12605816 0.023681376 0.095259406 -0.4128404
000190 4e 3c 8a be 48 f7 44 3f b8 19 a2 3e 7f ab fc bd
       -0.26999134 0.7693982 0.31660247 -0.12337398
0001a0 08 4a 77 be e2 f3 bb 3e bb cb 27 3f a4 5d 2d 3f
       -0.24149334 0.36709505 0.65545243 0.6772101
0001b0 0f 1c b0 be 8b 2b 80 bd 99 fd a6 be 8c 5d 89 3e
       -0.34396407 -0.06258305 -0.32615355 0.26829183
0001c0 bf 67 de bd f6 24 b1 3e a7 0b 2e 3e 81 b0 4d 3f
       -0.10859632 0.3459851 0.16996633 0.8034745
0001d0 49 28 d8 be 15 86 85 bd 15 30 a0 be 11 9b 9b be
       -0.42218235 -0.06519715 -0.31286684 -0.30391744
0001e0 aa 4d 31 bf b5 3a 85 be 7b 84 90 3e 52 3d a2 3d
       -0.6925913 -0.26021352 0.28226075 0.07921852
0001f0 23 e6 be 3e e5 9f 93 3e a8 38 65 bf 5a 24 75 3f
       0.37284955 0.28832927 -0.89539576 0.95758593

decoder.net.2.bias f4 [2]
000000 6e 38 c7 3d fc 5c 6e be
       0.0972756 -0.23277658

drift_net.0.weight f4 [64, 8]
000000 55 35 5b bd fa e2 ed 3c 53 58 8d 3d 5d f9 01 bc
       -0.05351766 0.029038895 0.06901612 -0.007932988
000010 19 f3 06 be 89 be 6e 3e 55 7e c3 3c 3e 7c 90 be
       -0.13178672 0.23314871 0.02386395 -0.2821979
000020 4a c4 bf bc e3 49 1b be 62 33 8a bb fd 58 18 bf
       -0.023409028 -0.15164904 -0.004217551 -0.59510785
000030 dd 08 4f be 00 84 be 3b 98 64 ab bd 79 77 ba bd
       -0.20218225 0.0058140755 -0.08368796 -0.09104819
000040 3c 91 56 3d 89 03 90 bd 7c dd cb bc 18 62 9c bc
       0.0523846 -0.07031924 -0.024885885 -0.019089743
000050 ab c2 e7 3d 7b f0 f3 3d 47 ab 0d 3e f3 ad aa bd
       0.11316427 0.119111024 0.13834868 -0.083339594
000060 3f 32 e0 be f0 51 82 3d 9d b9 85 be 4c 3c 74 3e
       -0.43788335 0.063632846 -0.26118174 0.23851126
000070 4a 54 8c 3e 94 80 ac bd d8 2f 7a ba 27 fa d0 3d
       0.27408057 -0.08422962 -0.00095438724 0.10203963
000080 8a 7b a3 be 65 32 32 be 03 77 a3 be cf 13 fe 3d
       -0.3193019 -0.17402036 -0.31926736 0.12406122
000090 b2 c0 7c be 44 1f 44 3e 92 89 23 3d 62 61 83 3d
       -0.24682882 0.19152552 0.03992612 0.06415059
0000a0 f8 82 7a be f5 a1 a8 bd ad 9d 86 bc 67 52 3b 3d
       -0.24464023 -0.08234016 -0.016432608 0.045732882
0000b0 4e 64 84 3e ee 53 89 be ce 08 d9 3e 30 29 bb be
       0.25857776 -0.26821846 0.4238953 -0.3655486
0000c0 60 cd c1 bd 11 d0 59 bd 5f 3d 65 bc a9 16 a2 bc
       -0.09463 -0.053176943 -0.013991683 -0.019786196
0000d0 52 81 43 be bd b8 99 bd 43 c7 f2 bd f7 16 a0 3d
       -0.190923 -0.07505939 -0.118544124 0.0781688
0000e0 78 4f 10 3f ad 04 a9 3d 24 75 2d 3e 5e 94 a2 3d
       0.5637126 0.08252845 0.16939217 0.07938455
0000f0 ac d9 3d be d7 87 44 bd e7 5d 4f be 72 37 f0 bd
       -0.18540066 -0.04798111 -0.20250665 -0.11729325
000100 f3 7a 2c 3e cd c4 84 3e 47 0b 47 3e 43 e6 91 3d
       0.16843776 0.25931397 0.19437896 0.07123997
000110 2d ab 3a be 13 df 2f 3e cc ad 1e bf 5f 34 c4 3e
       -0.18229361 0.1717494 -0.61983943 0.38321206
000120 e0 00 2a 3e a1 1e 09 3e 1d f7 12 3e cd a3 64 be
       0.16601896 0.1339059 0.14352079 -0.2232811
000130 41 c4 6e be b3 39 46 be a7 da 74 3d 12 62 04 3d
       -0.23317052 -0.19357948 0.059778836 0.03232009
000140 0a c0 33 3e a1 03 34 3e a9 27 3d be 01 f9 2e 3e
       0.17553726 0.1757951 -0.1847216 0.17087175
000150 4f 1a 7f 3d 23 b1 8b 3e 6a 0d 72 be e2 80 15 be
       0.06228095 0.27283582 -0.2363793 -0.14599946
000160 84 7f 3a 3d a5 5f ba bd cd 54 8e bb 33 23 e3 3d
       0.045531765 -0.09100274 -0.004343605 0.11090698
000170 41 19 18 3f 39 c7 0c be 96 a5 a1 3c 59 07 02 be
       0.59413534 -0.13747872 0.019732278 -0.12698115
000180 11 65 04 3e 7f 31 06 3e 97 0d 0c bd 06 e1 2c be
       0.12929179 0.13104819 -0.034192648 -0.16882715
000190 bc a4 9d bd 2f ed f0 bd 79 9c 05 be 1b 06 68 be
       -0.07697436 -0.11763989 -0.13047971 -0.22658579
0001a0 9c ff 21 3d d6 87 9d be 47 35 f8 ba 73 37 97 bc
       0.03955041 -0.30767697 -0.0018936776 -0.018459057
0001b0 60 70 7c 3e 0e 73 75 be 0b 7f 3d 3e 19 8c 4e be
       0.24652243 -0.23969671 0.18505494 -0.2017063
0001c0 fc 35 13 be 15 0c 4c be e8 cb 82 be bb 6b 46 bd
       -0.14376062 -0.19926484 -0.25546193 -0.048442584
0001d0 04 28 82 bd dc bd 1b 3e be 10 3f 3d bf 81 d9 3d
       -0.063552886 0.15209144 0.046646826 0.1062045
0001e0 fc ea ce bd 30 5b fa 3d 9f 69 12 be e9 b8 ba bd
       -0.101034135 0.12224424 -0.14298104 -0.091173
0001f0 bd 02 7a bc 8f 13 cd bc 49 e2 6b be e8 11 75 bd
       -0.015259442 -0.02503374 -0.2303554 -0.05983153
000200 80 7f 96 3d 81 36 30 3b 5f 99 47 bd 16 28 60 bd
       0.073485374 0.0026887956 -0.04873025 -0.05472573
000210 80 55 cf 3e fb 38 27 3c bb f4 74 3d ef 7d a8 bd
       0.4049492 0.010206456 0.059803706 -0.08227145
000220 f2 d8 ff bc b2 fb 8d be ca 1c 8e 3d 4b c8 ef bd
       -0.031231377 -0.2773109 0.06939085 -0.11708125
000230 64 62 42 3f e5 fe cb bd ea 74 27 3e 08 20 2c 3e
       0.7593138 -0.09960727 0.16353193 0.16809094
000240 16 e6 ad 3d 86 ce 52 3e b5 5f 33 be 77 99 f3 bc
       0.08491151 0.20586595 -0.17516978 -0.029736264
000250 10 5d 10 be 61 ae ef 3d b8 6a 19 be a3 49 97 3d
       -0.14098 0.11703182 -0.14982116 0.07387092
000260 10 11 ed be 3b eb 78 be 39 f0 07 be ec 2a 9b 3d
       -0.4630208 -0.24308483 -0.13275231 0.07576546
000270 e5 cd e5 3d 48 ec 59 be a1 d9 27 3e bb 5a 9b be
       0.11220912 -0.2128154 0.16391613 -0.3034266
000280 8e a0 19 3d 71 23 8b bd 23 7e b8 3d ff 69 da be
       0.037506633 -0.06793869 0.09008434 -0.42658994
000290 c4 02 34 bd f5 1c 38 3e 7a 33 3c be b9 89 db be
       -0.04394795 0.17979796 -0.18379012 -0.42878512
0002a0 82 99 8b be f0 23 76 be 74 94 62 be ed 06 ee 3c
       -0.27265555 -0.24037147 -0.22126943 0.029056037
0002b0 db 60 1a bf e6 f7 85 3e 1a 1a 6d be d8 ee 18 3d
       -0.6030404 0.26165694 -0.23154488 0.037337154
0002c0 46 d4 84 3e 2a b5 12 3e c4 94 21 3d 74 e8 92 3e
       0.25943202 0.14326921 0.039448515 0.28692973
0002d0 40 03 2e 3e d8 53 f5 bc cf 5d 87 3e ca 4f 5e be
       0.16993427 -0.029947206 0.26438758 -0.21710125
0002e0 24 f6 00 bf 64 48 b4 be 90 4c 07 3d 9d 8b e3 3e
       -0.5037558 -0.3521148 0.033032 0.44442454
0002f0 53 29 9b 3d 8e 72 21 3e 15 d3 46 be 38 d4 05 3e
       0.07576241 0.15766355 -0.19416459 0.13069236
000300 23 f2 89 3e b0 75 8a 3d 3b 7b 1a 3e 93 c5 a5 bd
       0.26942548 0.06760728 0.15086071 -0.08094325
000310 60 55 f2 3e 8e ce e1 bd 21 da 9f 3e d3 1c 21 3e
       0.4733076 -0.11025725 0.31221107 0.15733652
000320 f4 6f 88 3c ce cb b1 bd da da 04 3e c4 c0 a1 bd
       0.016654946 -0.08681451 0.1297411 -0.07898095
000330 f8 72 6a 3d a6 0c b5 3d 6b aa 85 bc 11 d8 41 3d
       0.05723855 0.08840303 -0.016316613 0.047325198
000340 df da 6f be 98 58 e0 3d 6c bd b6 bd b2 8a d7 bc
       -0.23423336 0.10954398 -0.08922848 -0.026311252
000350 57 79 92 bb c9 84 e4 bd 61 eb 2f bd 0e cf 89 3d
       -0.0044700312 -0.11158139 -0.042949084 0.06728946
000360 28 29 d0 3e fe 5f 69 3e aa 7c 5f 3e e9 8b 53 be
       0.406564 0.22790524 0.218249 -0.2065884
000370 ab ea f6 bd 21 77 33 3e 81 f4 07 bf 80 d5 be bd
       -0.12056478 0.17525913 -0.5310746 -0.09318066
000380 c2 e1 95 3e a0 bd 94 3e 80 a0 ce 3e de 37 98 bd
       0.29273802 0.29050922 0.40356827 -0.07432531
000390 a9 16 11 3e 9a ac 04 be d2 f9 90 bd 5d 1f 67 3d
       0.141688 -0.12956467 -0.070788994 0.056426395
0003a0 98 1f 54 bd 5c 9f b9 bd 47 71 2a 3e 52 2a df bd
       -0.051787943 -0.090635985 0.16644774 -0.10896744
0003b0 54 e7 07 3f 0c ec df bd 5b 82 26 3e dc f9 24 3e
       0.53087354 -0.10933694 0.16260664 0.16110939
0003c0 4b f4 7f be ca 84 14 be 41 75 4b be f7 f7 f5 3e
       -0.24995534 -0.1450378 -0.19868948 0.48040745
0003d0 89 ca 54 be 1b 6d de 3e d7 a7 61 be 15 df d4 be
       -0.20780386 0.43442616 -0.22036682 -0.41576448
0003e0 0f 4e 1b be 99 28 f1 3d 25 a3 31 3c ea ef c8 bd
       -0.15166496 0.117753215 0.010842119 -0.09811385
0003f0 17 6d e0 be 4f 74 02 3d a6 54 3e be 9b a9 8a bd
       -0.4383323 0.0318492 -0.18586978 -0.06770631

drift_net.0.bias f4 [64]
000000 f4 3f 4f 3e 53 87 91 3d 50 75 ac 3e d1 89 1f bd
       0.2023924 0.07105889 0.33683252 -0.03894979
000010 6f 22 a4 3e 96 a1 cc bd bd 21 f2 3e f1 7d bd 3e
       0.3205752 -0.099917576 0.47291365 0.37010148
000020 a2 29 d2 3e b9 a9 88 3e c6 e2 77 be ff c4 5a 3e
       0.41047388 0.26691988 -0.24207601 0.2136421
000030 40 0c 20 3e 84 45 5d 3e 40 b0 6d 3d 17 a1 04 3e
       0.15629673 0.2160855 0.058029413 0.12952076
000040 bc 18 7d bd 38 d5 47 3d 77 23 b6 be 79 db bf be
       -0.061791167 0.048787326 -0.35573933 -0.37472132
000050 e3 47 78 3e 6f 22 9f bd 1b 62 1b be f2 2a c4 3e
       0.24246173 -0.077702396 -0.15174143 0.38314015
000060 8a ff 4d 3d 93 7d ac 3d 78 ec 29 be 8d df b3 3d
       0.05029253 0.08422389 -0.16594112 0.08782873
000070 19 4d d3 3d 86 52 6c 3d 0a d2 a9 3e 43 09 45 be
       0.103174396 0.057695888 0.3316806 -0.19241814
000080 ce 4c 6e 3e 07 1b ea 3d 0b 0a 1c 3e 0e ed 33 3e
       0.23271486 0.11430936 0.15238206 0.17570898
000090 fa a7 56 be 30 3c b6 3e 11 cc 3f 3c f3 43 c2 3d
       -0.20962515 0.35592794 0.011706368 0.094856165
0000a0 74 5b 2f bd 5a 29 80 3e 02 df 0a be 1e 63 6c be
       -0.042811826 0.2503155 -0.13561633 -0.23084685
0000b0 f8 3e 6c be 70 ef ec be 6f 04 2b 3e 01 09 a4 3e
       -0.23070896 -0.46276426 0.1670091 0.3203812
0000c0 6e ab 12 bd c4 3c ba 3d d3 40 fa bd 65 0e 45 bb
       -0.03580802 0.090936214 -0.122193955 -0.0030068394
0000d0 59 dd c1 be 23 b9 f1 bd 18 0e cf be d6 92 37 3e
       -0.37864187 -0.1180289 -0.4044044 0.17927107
0000e0 60 a9 6b 3e ed fa 66 ba 52 7d 8b 3c 99 33 30 3d
       0.2301383 -0.00088111946 0.01702753 0.043017957
0000f0 55 f8 88 be 6d 4c 7f be 19 fd e1 be d9 f1 93 3d
       -0.26751962 -0.24931498 -0.4413841 0.07223863

drift_net.2.weight f4 [8, 64]
000000 83 6b 69 3e c2 28 ff 3e 62 0b 7d 3d b5 a9 d5 be
       0.22794919 0.49835783 0.061778434 -0.4173104
000010 91 ec 86 bd ee fd 5b be 4f d8 e6 bd 70 ca a6 3e
       -0.0658809 -0.21483585 -0.11271726 0.32576323
000020 a5 54 8d 3d 84 a7 90 3e 38 ee 7d 3c 5c 8a e5 bc
       0.0690091 0.28252804 0.01549869 -0.028020076
000030 0f 15 76 3e b1 38 28 be 52 ca 66 bd 45 98 f9 3d
       0.2403147 -0.16427876 -0.05634529 0.12187246
000040 d5 a9 da 3d 79 42 ea 3d 7b c1 22 3d 40 fe 53 be
       0.10676924 0.1143846 0.0397353 -0.20702457
000050 b7 b3 35 3e f7 b3 89 bd b2 8a 8b bd e3 41 29 be
       0.17744337 -0.06723779 -0.068135634 -0.1652904
000060 fc d3 94 bd 50 86 12 3e 5f 6c 2f be d9 d8 82 3e
       -0.07266995 0.14309049 -0.17131184 0.25556067
000070 e3 53 28 bd 95 83 c4 3d 85 5a 7a bc a2 3d 64 3d
       -0.041095626 0.0959541 -0.015280371 0.05572284
000080 d5 57 5d 3c 90 47 3a 3e ab 0a 62 be 2d fa ad 3e
       0.01350971 0.18191361 -0.22074382 0.3397993
000090 cd ca 61 bd 50 f9 6f 3e e3 8f 28 3d 22 08 22 bc
       -0.055125047 0.23434949 0.041152846 -0.009889634
0000a0 95 fb 11 bd a6 a4 86 be bb 3c b8 bb 09 1e 07 be
       -0.035640318 -0.26297492 -0.005622474 -0.13195051
0000b0 d8 4e 9d bb 10 24 3c 3e ed 8d 4a be 0f b6 83 be
       -0.0048006587 0.18373132 -0.19780703 -0.25724837
0000c0 c7 20 8e 3e 7c 08 3e 3c 75 66 de 3c cc a6 c5 3d
       0.27759382 0.0115987025 0.027148465 0.096509546
0000d0 63 52 a0 3d 46 f1 19 be de d7 14 bd 85 30 7b 3e
       0.07828214 -0.15033445 -0.03633868 0.24530227
0000e0 93 b5 d0 be 56 49 2a bd 14 77 90 bd 29 d5 a3 bc
       -0.4076353 -0.041573845 -0.07053962 -0.019999104
0000f0 4d 98 82 3e 8e 9f f5 3d ae a6 59 bc ee 01 11 be
       0.2550682 0.11993323 -0.013284368 -0.14160892
000100 61 ac 49 bd 07 09 4a 3e ca 18 46 bd 50 33 1c 3c
       -0.04923666 0.19730006 -0.048363484 0.009533718
000110 58 e0 eb bb 5f f6 19 3e b8 70 80 3e c4 59 0d be
       -0.0071983747 0.1503539 0.25085998 -0.13803774
000120 13 95 90 be 0f 11 31 3e 29 bb 8a be a6 ff 23 be
       -0.28238735 0.17291664 -0.27095917 -0.16015491
000130 e2 60 6a 3e a4 38 14 3e a5 09 a5 bd 8b df ac 3e
       0.2288852 0.14474732 -0.0805848 0.337643
000140 d7 68 77 bd 89 90 27 be 27 9f 16 3e 3b f2 84 3e
       -0.060402717 -0.1636373 0.1470915 0.25966057
000150 1e dc c0 3e be b3 08 3e dc 72 a2 be 87 62 44 be
       0.37667936 0.13349816 -0.31728256 -0.1917821
000160 aa 1b 52 be c8 30 35 bd ea 5f f6 3d 17 60 f9 bd
       -0.20518366 -0.044235975 0.12030013 -0.12176531
000170 00 e9 83 3d 8d 3d d4 bd 58 ef 40 be af 4b 10 3e
       0.064409256 -0.103633024 -0.18841302 0.14091371
000180 4f fc ea bd e6 c8 49 be 76 c5 54 be a8 06 ce 3e
       -0.11473905 -0.19705543 -0.2077845 0.40239453
000190 65 f3 17 bb 40 93 93 3e 8b 0e 9a be 55 85 19 be
       -0.0023185846 0.2882328 -0.3008922 -0.14992268
0001a0 3e 1c 93 be 47 ce 92 bd e8 c8 34 be 52 5d 1a 3e
       -0.28732485 -0.071682505 -0.17654765 0.15074661
0001b0 25 82 59 3e 45 aa 74 be 7e 78 27 3e 31 37 71 be
       0.21241052 -0.23893078 0.16354558 -0.2355621
0001c0 4e 3f e4 3e 0f 35 6c 3e bd 7a 89 3d 9f 69 0e 3e
       0.44579548 0.23067115 0.067128636 0.13907479
0001d0 aa ff a4 3e f9 34 2e 3c 41 93 41 3e 4a 09 8b 3d
       0.32226306 0.010632747 0.18903829 0.06788881
0001e0 96 67 e9 bd 79 1a 94 3c a8 c7 4c be ed 49 94 be
       -0.113967106 0.01807903 -0.19998038 -0.2896265
0001f0 02 e2 33 3e e8 fa 30 3c 5b 90 31 3e 9e c6 64 3d
       0.17566684 0.010802008 0.17340223 0.05585348
000200 7c 9d 2c 3d 18 00 33 be 74 2e ee 3d c8 a6 5a bc
       0.042142376 -0.17480505 0.11629954 -0.013345428
000210 5e 06 61 be 51 ce 70 be 2a 9f 3b be dc 47 ac 3e
       -0.21975085 -0.23516203 -0.18322435 0.33648574
000220 ef 85 d0 3e 23 b7 d9 bd 61 3f c2 3d 4a 97 1a 3e
       0.40727183 -0.10630634 0.09484745 0.15096775
000230 32 f0 09 be 2a fd 10 be ba 7d 33 be ea a2 53 be
       -0.13470533 -0.14159074 -0.1752843 -0.20667616
000240 92 31 09 3e 14 ea 89 3e 56 d0 9f bd 1b da ae be
       0.13397816 0.269364 -0.07803409 -0.34150776
000250 10 42 45 be dc 83 55 be f4 d5 ad 3e 90 c4 a6 3e
       -0.19263482 -0.20851082 0.33952296 0.3257184
000260 df 50 62 3e 7e 99 b2 3d 25 64 27 be 79 ea 58 3e
       0.22101162 0.087206826 -0.16346796 0.21183194
000270 dd bb 87 3c b1 5a 35 3e 51 7d 52 3e 23 6c 57 be
       0.016569072 0.17710377 0.20555617 -0.21037345
000280 e9 2c 1c 3e 68 2f 3c 3e 57 3a 83 3e ee 59 10 be
       0.15251507 0.18377459 0.25630447 -0.14096805
000290 a1 fb 0d 3e 2a 10 6e be 7a 0a 34 3e 23 1b 89 3e
       0.1386552 -0.23248354 0.17582121 0.26778516
0002a0 ca 4a 35 3e 95 2a 36 be 1f cc 47 3e 1e 17 c7 bd
       0.17704311 -0.17789681 0.1951146 -0.09721206
0002b0 69 13 75 be 09 21 36 3e be ef b9 be 87 7b b3 3e
       -0.23933186 0.1778604 -0.3631572 0.3505518
0002c0 64 ce 5a be 7d d8 dc be 29 51 28 be 97 f8 b2 be
       -0.21367794 -0.43133917 -0.1643721 -0.34955284
0002d0 24 ca 6f be 02 f7 05 be 55 a1 aa be b9 2f 34 3e
       -0.23416954 -0.13082507 -0.33326212 0.1759633
0002e0 71 ca f1 bd 0d ec a2 be 7f 17 a6 3e 60 63 a0 3e
       -0.11806191 -0.31820717 0.324398 0.31325817
0002f0 3e 43 9f be 37 23 8b be 62 86 93 be 22 7d 59 bd
       -0.3110599 -0.27175304 -0.28813463 -0.05309785
000300 1b 1c 43 3c d0 74 a8 be de 8d 23 bd eb 7c d1 3e
       0.011908556 -0.3290162 -0.039930217 0.40915617
000310 2a b3 8c 3e a0 96 f1 bd da 18 0e 3e 4c 4d 25 be
       0.2748044 -0.117963076 0.13876668 -0.16142768
000320 72 1b f7 bc 72 c6 5d be 60 34 6c bd 8d 0f c0 bd
       -0.030164454 -0.21657732 -0.057667136 -0.09377966
000330 ea b0 3d be 74 c3 67 bc 3d 31 66 3e de 4a 7d 3d
       -0.18524519 -0.014145721 0.2247972 0.061838977
000340 39 6d 63 bd d9 13 e1 bc 66 e5 8a 3d 90 c5 23 3e
       -0.055524085 -0.027475284 0.067820355 0.15993333
000350 02 d5 34 be 06 62 26 3e 5c d7 86 bd c2 c0 1c 3e
       -0.17659381 0.1624833 -0.06584045 0.15307906
000360 2d bf 23 be cc 15 99 bc 08 ba 9b 3d d7 bc 3c be
       -0.15990897 -0.018687151 0.07603842 -0.18431412
000370 37 18 72 be f1 db d1 bd 70 dc 97 3e 8a 09 e7 3c
       -0.2364205 -0.102470286 0.29660368 0.02820279
000380 6b 7e 35 bc 2d 0b 83 bd cb 1d 3d 3e e0 16 53 be
       -0.011077504 -0.06398616 0.18468396 -0.20614195
000390 87 31 bd 3d 38 2a 7b be 3e 75 4d ba 3a 00 3a bd
       0.09237962 -0.24527824 -0.00078376 -0.045410372
0003a0 ba ee af 3d 16 b5 90 3e 30 44 0a bd f4 e8 75 be
       0.08590455 0.28263158 -0.033756435 -0.24014646
0003b0 ef cd 39 bd 14 c6 ef be d0 1c 91 3e 69 db a8 3e
       -0.04536241 -0.4683081 0.28342295 0.32979897
0003c0 b5 99 9d be f9 51 64 3e a5 40 7a 3d 36 60 92 3d
       -0.30781332 0.22296895 0.061096806 0.07147257
0003d0 51 dd 30 be 73 f7 e4 3d 10 79 6c 3d 6c fe 40 be
       -0.17271926 0.1118001 0.05773264 -0.18847054
0003e0 24 86 96 3e 52 7c 21 3d 52 13 83 3d 15 d5 1d 3e
       0.29399216 0.0394252 0.064001694 0.15413316
0003f0 96 5e 0a be 85 7b 7b bc 22 52 43 be f8 6b 54 3e
       -0.13512644 -0.015349274 -0.190743 0.20744312

drift_net.2.bias f4 [8]
000000 a9 10 50 bd b4 45 8f bd 31 2f 46 3d 3b e6 0c bd
       -0.05079714 -0.06995717 0.04838485 -0.034399252
000010 03 94 df bc 75 a8 1c 3c 2a 5b 8a 3e b0 68 89 be
       -0.027292257 0.009561648 0.27022678 -0.26837683

diffusion_net.0.weight f4 [64, 8]
000000 48 c2 c9 bd 6b d8 37 bd 4d fd 7a 3d 30 25 49 bd
       -0.09851509 -0.044884127 0.061276723 -0.04910773
000010 2b 12 22 3e 1b 9c 43 3c 29 df f5 bd db 9f ae 3d
       0.15827243 0.011939074 -0.12005455 0.08526584
000020 ac c3 d4 bd 2c 49 49 bd 53 f4 89 3d 54 82 59 bd
       -0.10388884 -0.049142048 0.06736054 -0.053102806
000030 0c 7c 37 3e da 7e 86 3c 53 b7 04 be 8a c8 b7 3d
       0.17918414 0.01641791 -0.12960558 0.08973797
000040 82 ce d0 3d 14 8a 3c 3d 42 fa 87 bd 76 9a 4d 3d
       0.10195638 0.04603012 -0.0663953 0.050196134
000050 38 0f 2d be 4b c1 5f bc 24 56 01 3e 1e 45 b4 bd
       -0.16900337 -0.0136569245 0.12630516 -0.088022456
000060 65 43 cc bd cd 50 3b bd 4e 90 7f 3d f7 bc 43 bd
       -0.09973792 -0.045731355 0.06239348 -0.047787633
000070 36 20 26 3e 0c 99 2f 3c bf e3 f8 bd 57 a0 b0 3d
       0.16223225 0.010717642 -0.12152814 0.086243324
000080 82 33 0d bd 8f 8e 45 bc b3 bf 7a 3c 88 ea b0 bc
       -0.03447295 -0.012057914 0.015304494 -0.021596208
000090 eb 3a 6f 3d 9c 7f dd bb a6 91 23 bd 81 23 14 3d
       0.058405798 -0.006759597 -0.039933823 0.03616667
0000a0 0c 65 d6 bd 20 21 4b bd 57 c1 8b 3d 52 28 5e bd
       -0.10468492 -0.049592137 0.06823986 -0.05423767
0000b0 d9 1c 34 3e ae b5 a1 3c 13 6e 05 be ba 3a b7 3d
       0.1758913 0.019739952 -0.13030271 0.08946748
0000c0 7b c8 d1 3d 8b 44 44 3d 9f b2 85 bd 2a 7a 4d 3d
       0.10243317 0.04791693 -0.0652821 0.050165333
0000d0 18 54 32 be b3 68 91 bc 2c 3b 01 3e 58 fb b2 bd
       -0.17414892 -0.01775012 0.12620229 -0.08739346
0000e0 84 3d d6 3d bc c9 47 3d a6 45 8e bd 5b 0b 52 3d
       0.10460952 0.048776373 -0.06946878 0.05128036
0000f0 bd 0a 33 be d6 45 85 bc 00 f1 04 3e 31 5d b8 bd
       -0.17484565 -0.016268652 0.12982559 -0.0900215
000100 e2 99 bb bd 5b d4 21 bd 61 0e 5b 3d f4 44 34 bd
       -0.0916021 -0.03950916 0.05348051 -0.04401107
000110 ed e9 14 3e 69 5c 21 3c cf b0 e0 bd 87 9e a5 3d
       0.1454236 0.009848692 -0.109712236 0.08086877
000120 56 43 ac 3d 86 9a 11 3d 56 36 42 bd 49 08 28 3d
       0.08411281 0.035547756 -0.0474151 0.041023526
000130 bd 0c 06 be ff d2 00 bc 9c c0 ca 3d f3 bd 9a bd
       -0.13090797 -0.007862805 0.099000186 -0.07555761
000140 88 73 d6 bd 7d 4a 4e bd b0 b5 91 3d 59 fe 6a bd
       -0.104712546 -0.050364006 0.07114732 -0.05737147
000150 f9 21 35 3e a4 5e 98 3c eb 8a 04 be fb 18 bd 3d
       0.17688741 0.018599816 -0.12943618 0.0923328
000160 b9 50 af bd b3 99 14 bd 86 fa 45 3d b4 7b 30 bd
       -0.085603185 -0.03627939 0.04833462 -0.043086722
000170 48 e9 08 3e c7 da 13 3c f4 15 cf bd bc fe 9c 3d
       0.1337024 0.009024329 -0.10111609 0.07665774
000180 52 df da 3d 13 09 51 3d 23 bd 96 bd 9a 04 5b 3d
       0.10687126 0.051034044 -0.07360294 0.053471185
000190 a7 2d 3a be c0 09 60 bc 02 60 0a 3e af f4 ba bd
       -0.18181477 -0.0136742 0.13513187 -0.09128701
0001a0 af d7 c8 bd c4 e6 37 bd ad 4b 78 3d 03 cf 46 bd
       -0.098067634 -0.04489781 0.060619045 -0.048537266
0001b0 36 cb 22 3e 69 0f 4d 3c 63 16 f2 bd 77 ff b0 3d
       0.15897831 0.012515881 -0.11820676 0.08642476
0001c0 a0 b5 c8 bd d6 72 34 bd 4f 63 7b 3d 65 34 4a bd
       -0.09800267 -0.04405483 0.061374005 -0.049366374
0001d0 52 ad 26 3e a6 fd 82 3c 66 84 f4 bd a1 d2 ad 3d
       0.16277054 0.01599009 -0.119393155 0.0848744
0001e0 ea 20 86 bd be a7 d3 bc 89 bd 07 3d 83 08 06 bd
       -0.065492466 -0.025836822 0.03313974 -0.03272296
0001f0 eb df cd 3d 5b 26 4f 3b 76 cf 99 bd 25 2f 7b 3d
       0.100524746 0.0031608555 -0.07510273 0.061324257
000200 ff aa c9 bd f8 7c 35 bd 73 ad 7f 3d 7c b4 51 bd
       -0.09847068 -0.044308633 0.062421273 -0.051197514
000210 8f ab 29 3e 89 8e 82 3c 7c 00 f8 bd 35 40 b0 3d
       0.1656935 0.015937107 -0.121094674 0.086059965
000220 ef 6d d2 bd 8f ed 3e bd db 62 85 3d b3 72 43 bd
       -0.102748744 -0.046613272 0.06512996 -0.047716808
000230 9c 19 2a 3e ee 03 04 3c 1b 54 01 be 6c ba b4 3d
       0.16611332 0.008057578 -0.1262974 0.0882462
000240 b4 3f d5 bd 9e 7b 40 bd f9 a4 8e 3d e8 0f 4c bd
       -0.10412541 -0.04699289 0.0696506 -0.049819857
000250 27 23 2d 3e 2c f3 de 3b ff fa 04 be 20 b3 b8 3d
       0.16907941 0.0068038907 -0.12986372 0.090185404
000260 1c 78 bf bd 21 45 28 bd 7d 01 6b 3d f8 7e 30 bd
       -0.09349081 -0.04108155 0.057374466 -0.043089837
000270 31 ba 17 3e 47 ec b0 3b 35 26 e4 bd b5 cc a7 3d
       0.1481712 0.00539926 -0.111401 0.08193342
000280 8f b6 b5 bd 1b a3 1d bd 3c c4 52 3d 52 56 2f bd
       -0.08872711 -0.038485628 0.051456675 -0.04280693
000290 20 23 10 3e ea 54 e9 3b 84 0c d8 bd c3 37 a2 3d
       0.14075899 0.0071207182 -0.10549262 0.07920792
0002a0 04 9c df bc 20 a7 15 bc 9b 77 48 3c 35 de 9b bc
       -0.027296074 -0.009134084 0.012235547 -0.019026855
0002b0 6e 7c 4a 3d 12 e7 04 bc a5 c5 04 bd 6a ad f7 3c
       0.04943507 -0.008111732 -0.03241505 0.030234057
0002c0 47 0d da bd 33 fa 49 bd 5a 0c 91 3d 6c 78 4b bd
       -0.10647064 -0.049310874 0.07082434 -0.04967539
0002d0 8e cf 35 3e e5 f1 08 3c a6 7c 09 be fb 14 b9 3d
       0.17754957 0.008358453 -0.13426456 0.09037205
0002e0 6c 14 87 3d 82 dd d7 3c 9a 1a 0a bd f6 ba 04 3d
       0.06595692 0.02635074 -0.033716775 0.032404862
0002f0 5a f0 cf bd 17 d0 44 38 63 a1 9a 3d 38 16 7c bd
       -0.10153265 4.692384e-05 0.07550313 -0.061544627
000300 a0 4a de 3d 72 11 55 3d 30 93 97 bd 9a 52 6b 3d
       0.10854077 0.05201859 -0.07401121 0.057451822
000310 01 7f 42 be 6c 26 cf bc 6c 7b 0a 3e 4f cc bb bd
       -0.1899376 -0.025286876 0.13523644 -0.09169828
000320 0d 29 c4 3d 2b 38 2f 3d da c6 6c bd 5e 49 3d 3d
       0.09578142 0.042778175 -0.057806827 0.046212547
000330 15 da 20 be 1c 5e 37 bc 70 34 ec 3d d4 0b ab bd
       -0.15708192 -0.011191871 0.11533439 -0.083518654
000340 e2 a4 e0 3d 35 a8 57 3d 78 a2 9a bd b5 48 5a 3d
       0.10968949 0.05265065 -0.0755052 0.053291995
000350 77 fa 38 be 8d bd 04 bc 51 d5 0d 3e 1e 64 ba bd
       -0.18064295 -0.008101833 0.13850905 -0.09101127
000360 48 f2 9a bd 7c 7c ff bc 35 67 26 3d 1a 3a 15 bd
       -0.07565743 -0.031187288 0.04062577 -0.036432363
000370 14 dc ee 3d c9 9a 4f 3b be 82 b3 bd 32 a2 8d 3d
       0.1166307 0.0031677953 -0.087651715 0.06915702
000380 6d aa c6 3d 0d 29 38 3d 8c 00 78 bd 58 63 43 3d
       0.09700475 0.044961024 -0.060547397 0.047702163
000390 ba 20 21 be f9 ee 79 bc 41 b1 ed 3d b5 02 ac bd
       -0.1573514 -0.015254729 0.11606074 -0.08398954
0003a0 ff 41 bd 3d 76 52 24 3d 89 8b 60 bd dd e5 2e 3d
       0.092411034 0.040117703 -0.05482057 0.042699683
0003b0 ae d2 17 be 76 46 b6 bb 54 35 e5 3d 66 3f a7 bd
       -0.14826462 -0.005562599 0.11191812 -0.08166389
0003c0 73 6f cc 3d 9c 34 3d 3d 67 cc 83 bd 17 b2 47 3d
       0.09982195 0.04619275 -0.06435471 0.048753824
0003d0 2b cf 25 be d6 20 1d bc 82 3b fc 3d 41 77 b2 bd
       -0.1619231 -0.009590348 0.12316038 -0.08714152
0003e0 3d c0 5a 3d bf 1e a5 3c 63 61 cf bc 54 66 e9 3c
       0.05340599 0.020156262 -0.025314992 0.028491177
0003f0 b7 b9 aa bd 4a bf cf 3a 0b 90 79 3d 23 96 53 bd
       -0.083362035 0.0015849855 0.060928386 -0.051656853

diffusion_net.0.bias f4 [64]
000000 05 80 44 3e 0e 6b 5e 3e 8c 51 52 be 1d 52 46 3e
       0.1918946 0.21720526 -0.2053892 0.19367261
000010 61 d3 6c 3d b5 63 60 3e f6 97 54 be aa 40 5c be
       0.057818774 0.21913035 -0.20761093 -0.21509042
000020 e8 8a 2e 3e 12 c2 1a be 17 9a 60 3e 85 18 1f 3e
       0.17045176 -0.15113094 0.2193378 0.15536697
000030 96 30 68 be 38 9c 45 3e a0 0d 47 3e cf a1 e2 3d
       -0.22674784 0.19297874 0.19438791 0.11066019
000040 72 5c 44 3e f0 5e 52 3e 46 99 59 3e 9f 72 34 3e
       0.1917589 0.20544028 0.21249875 0.1762185
000050 45 a4 26 3e 8d 72 40 3d 72 f0 68 3e ef 4d e4 bd
       0.16273601 0.046984244 0.22747973 -0.11147677
000060 0d 93 71 be 91 96 3c be 66 80 6a be 14 53 06 3e
       -0.23591252 -0.18416812 -0.22900543 0.1311763
000070 72 b5 40 be c9 e1 31 be 67 8a 4a be fe a2 b5 bd
       -0.18819216 -0.17371286 -0.19779359 -0.08868979
000080 c3 a9 1b 3e 8a e8 dd 3d 51 9f 1f 3d ba a8 4b be
       0.15201478 0.10835369 0.038970295 -0.19888583
000090 30 59 59 3e 3e 90 18 3e 16 7e 17 3e 70 b9 26 3e
       0.21225429 0.14898774 0.14794192 0.16281676
0000a0 55 bb 01 be 34 cd c9 bd f8 f0 74 3d 15 9c 38 3e
       -0.12669118 -0.098535925 0.05980012 0.1802829
0000b0 75 6f 9b 3d e1 a9 44 be 30 07 29 be a5 88 5c 3e
       0.07589618 -0.19205429 -0.16506648 0.21536501
0000c0 89 d8 5b be 24 9b 23 3e d1 5e 4a be c5 5f 2a be
       -0.2146932 0.1597715 -0.19762732 -0.16638096
0000d0 5a 06 3c 3e 3f 7d 3b be 1d 58 81 bd 42 ee 55 be
       0.18361798 -0.18309496 -0.063156344 -0.2089167
0000e0 ee 8a 10 be 6d 47 34 be 76 b1 65 3e 77 da 66 be
       -0.14115497 -0.17605372 0.22430977 -0.22544275
0000f0 5c 77 4c be 1d c1 0e be 76 a3 34 3e bf 90 fa 3d
       -0.19967407 -0.13940854 0.1764048 0.122346394
